models/classifiers/BM_MLP_v1.pth (torch, 490358 bytes, 5 tensors)

fc1.weight f4 [100, 1167]
00000000: 3f07 423c 8df0 74bb 418d c1bc cdd2 1c3d
00000010: 74d5 7c3c e521 8fbc c8c6 cdbc 6b8e 803b
00000020: 131d be39 70df 61bc c2f8 633b a7ac 81bb
00000030: dec2 bfbb bd39 e9bb fdf8 013d a58d b6bc
00000040: cbf9 fbbc dc71 45bc 90d6 b6bc b7d2 87bc
00000050: 7dff 473c 2445 823c 470c 93bc a9e1 3fbc
00000060: d560 c9bc 7fc3 7b3c 2270 753c cb5c acbc
00000070: 0b06 9bbc 1e14 e7bc 5e07 1b3c 753d ac3c
00000080: 80e6 9f3c 9d8f bc3c e095 783b 3797 92bc
00000090: 28fa 97bb d564 6b3c 300c b23c 5163 ba3c
000000a0: 201e 8d3c 7636 903b cf14 d6bc de44 c7bc
000000b0: 5cd6 a33c 602b 53bb 9f5a 80bc 5bb0 c7bb
000000c0: d83a 823c 876e 15bc 1515 9dbc cb1d 633b
000000d0: 9205 523c 9d38 35bc ddcf f03a a8e6 97bc
000000e0: cefa 30bc f334 7d3b 4934 723b 5e4f f2bb
000000f0: b7a4 e2bc 5c40 bd3c eab7 9dbc 3cea 8b3c
00000100: 7e25 cd3a 423c d5bc a1dc 943b c80c 5ebc
00000110: a821 d6bc 6437 e4bc 33e1 613b 11ac 0ebd
00000120: 6c50 a4bc fed8 243c d4b6 e33c c0c5 8ebc
00000130: 75af c3bc 3a70 933a acc6 0ebd 383b 0ebb
00000140: 7ae5 b23c c4e9 2aba 3f09 49bc 5731 87bc
00000150: b3e8 07bc 0b88 babb 9295 273d ddc9 0239
00000160: 96c4 ee3b 8430 70bc b5f0 543c 8ba2 c93a
00000170: 4d66 913c 8f06 373c 9fa3 cc3c 01c4 d8bc
00000180: 7a53 fdbc c8d7 5e3c 76d7 cdbb 6ada 843b
00000190: 1499 e3bc 0b52 1cbc fbae 1d3c 5fa3 36bc
000001a0: 23b8 62bc c145 8dbc aa99 7fbb 0772 a03c
000001b0: 7fed 1dbc 4587 643c 6f02 013c 6885 be3b
000001c0: bc5d e53c 35ca a93c 6280 e6bc 8dac 0abb
000001d0: fbd1 cdbb faef f13c 7cd7 77bc 4c8f b73c
000001e0: b830 a83c 19b5 b6bc bda8 613c d772 333c
000001f0: e3d5 f9ba ade7 3ebc d56e ccbb 080e ca3c
00000200: f06e 3fbc 8189 dcbc f034 843c bda5 ffbc
00000210: 7cc1 bdba b4d0 1a3c e198 033c df33 ce3b
00000220: a9f5 8e3c cc05 99bb 60af 96bc df5a ac3b
00000230: 0725 133d e13a 53bc cfab b9bc ac95 8c3b
00000240: 7a9f a8bc cbf4 be3c 61e2 48bb c8cb a93c
00000250: b0f5 343c b20a 023d 6c75 3fbc 008e e53c
00000260: cfc3 e5bc 74ae 3b3c b666 36bb bec4 1fbd
00000270: a1c6 97bc e3fa ffba d0ef a63b 8b6f ca3c
00000280: 2a33 9d3c ceca cdba 23dc d73c c16e 043c
00000290: 7569 04bc d619 2fbc ecaa 3fbc 7004 43b9
000002a0: e557 9cbc b4f3 fbbc 4549 00bb 0685 e1b8
000002b0: 2801 e53c 387c e9bb 4fc4 1dbb 9f2f a8bb
000002c0: 8d20 99bb c46b b2ba a313 983c b8f7 8c3c
000002d0: 6fe3 ef3c cd44 60bc c37d c53c 82f7 2b3c
000002e0: 355f ff37 956a b2bb f6fd 53bb 29ba f7bb
000002f0: a54f a5bc dcc1 6dbc 94e2 83bc f805 7bbc
00000300: 4de8 10bc d691 e4bc 88c9 8cbb dd5c 323c
00000310: 0ae0 98bc 2beb a13c ac49 f7bc c37b ec3c
00000320: 2da1 fcba c44a 9fbc a7b7 8a3a a96a 13bd
00000330: 51db a03c 34b9 03bc 7592 5abc 035a 723c
00000340: 67b9 8dbc 4cd4 27bc 3cde e4bb b13c 853c
00000350: 57e5 b6bc ab9b 713c 7cbe dbbc d40b a03c
00000360: d797 c03c 9236 58bc 4028 b93c 056b 9dbb
00000370: 1bc6 8fbb ab33 243c aa80 eb3c bf03 823b
00000380: de40 81bb e169 ed3b c42c 83bb 6f53 72bc
00000390: efc0 9fbb a304 013b 70b5 22bb 3b4e 88bc
000003a0: 75ef d9bc 82fd 4f3a 6a85 d13b b6e6 9d3c
000003b0: bdb5 7f3c 7a78 1bbc dc63 bf3c 570a 7cbb
000003c0: 83ed 9fbc 5e9f 213d 2652 37bc 2b72 483b
000003d0: 40dd 603b f9a2 703c a3c9 1e3d 5788 af3b
000003e0: ae42 d93c ef9f bebc d899 2bbc fef1 83bb
000003f0: 4ebc cfba ce97 be3c 41f5 8f3c e4c9 efbb
0.011842548 -0.0037374825 -0.023626925 0.038286973 0.015431751 -0.017472217 -0.0251192 0.0039232275
0.00036261286 -0.013786182 0.0034785722 -0.0039573493 -0.0058520874 -0.0071174786 0.031731594 -0.022284338
-0.030758759 -0.012051072 -0.022319108 -0.016579969 0.012206909 0.01590211 -0.01795019 -0.011711516
-0.024582306 0.015366434 0.014980348 -0.02104034 -0.01892378 -0.028207835 0.009462206 0.021025399
0.01951909 0.023017699 0.003793113 -0.01789437 -0.0046379752 0.014367302 0.021734327 0.022752436
0.017226279 0.0044010235 -0.02613297 -0.02432483 0.019999675 -0.0032221898 -0.015668212 -0.0060940213
0.0158972 -0.00912059 -0.019175092 0.003465521 0.012818711 -0.011060861 0.0018372495 -0.018542603
-0.010801984 0.0038636297 0.0036957434 -0.007394715 -0.027666433 0.023101978 -0.019252736 0.017079465
0.0015651432 -0.02602971 0.0045429026 -0.013552852 -0.026139095 -0.027858444 0.0034466505 -0.034832064
-0.02005788 0.010061501 0.02779714 -0.017428279 -0.023887375 0.0011248656 -0.034857437 -0.0021702778
0.021837939 -0.0006519819 -0.012270271 -0.01650302 -0.008295226 -0.005692487 0.040914126 0.00012472966
0.0072866185 -0.0146600045 0.012996842 0.0015383525 0.017748976 0.011170997 0.024980364 -0.02646065
-0.030923594 0.013601251 -0.0062817885 0.0040543573 -0.027782954 -0.009541045 0.009624238 -0.011147349
-0.013837847 -0.017245175 -0.0039001503 0.019585622 -0.009639143 0.013948266 0.007874115 0.005814243
0.027998798 0.020726303 -0.02813739 -0.0021159977 -0.006281135 0.029533375 -0.015127059 0.022407196
0.020531043 -0.022303151 0.0137731405 0.010952673 -0.0019060936 -0.0116519155 -0.006238798 0.024664894
-0.011684164 -0.026921036 0.016138524 -0.03120696 -0.0014477219 0.009449173 0.008032055 0.0062928046
0.017451124 -0.0046698805 -0.018394172 0.005259856 0.035923984 -0.012892456 -0.022664933 0.004290303
-0.020583857 0.023310086 -0.003065251 0.020727053 0.011044905 0.03174848 -0.01168571 0.028021812
-0.02804747 0.011455167 -0.0027832217 -0.039005987 -0.01852733 -0.0019529726 0.005094506 0.024711391
0.019189436 -0.0015700699 0.026350087 0.008083046 -0.008081784 -0.010687312 -0.011698466 -0.00018598302
-0.01908488 -0.030755855 -0.0019574922 -0.000107536136 0.027954653 -0.0071254037 -0.0024073308 -0.00513263
-0.00467307 -0.0013612439 0.018564051 0.017207965 0.029283253 -0.013688278 0.02410782 0.010496022
3.0442703e-05 -0.0054448345 -0.0032347417 -0.007560034 -0.020179579 -0.014511552 -0.016099252 -0.015321247
-0.008844447 -0.027901571 -0.0042964853 0.010886398 -0.018661518 0.019765457 -0.030186497 0.028867608
-0.0019274108 -0.01944483 0.0010583297 -0.03599039 0.019635828 -0.008039761 -0.013340582 0.014791968
-0.01730032 -0.010243487 -0.0069845 0.016264291 -0.022326155 0.014746587 -0.026824228 0.01953689
0.023509903 -0.013196604 0.0226022 -0.0048040175 -0.0043876297 0.010022084 0.028747875 0.0039677317
-0.0039445003 0.0072452878 -0.004003139 -0.0147904 -0.0048752944 0.0019686602 -0.0024827383 -0.016638866
-0.02660344 0.0007934199 0.006394078 0.01927505 0.015607295 -0.009489173 0.023363046 -0.0038458311
-0.019522434 0.039458625 -0.011189019 0.0030585628 0.0034311563 0.014687293 0.038766515 0.005356829
0.026521053 -0.023269622 -0.010473691 -0.0040266505 -0.0015848966 0.023265745 0.017573 -0.0073177684

fc1.bias f4 [100]
00000000: 5d6d a43c 89c5 3abd 538b c63d a6a0 19bd
00000010: 4895 55bc ffdc cf3c a283 64bc 1099 0c3c
00000020: de0b a6bc 184c a43c 4e64 a6bc d3ca aa3d
00000030: 9b57 273c 8a4e c53b c6c7 b13c 21aa 04bd
00000040: 73de 82bb ff41 8e3d ae14 83bd cbbe 6bbd
00000050: 9f92 403c 9854 cdbc 4f91 7cbc 0af5 cebc
00000060: deb3 d5bb abfb e03d 32c9 23bd 9cf1 ab3c
00000070: d47c 15bd e85a b2bc 5b48 84bc 21c3 aabc
00000080: 09bf 33bd d05c 503c 4bdd 69bd 067e 93bc
00000090: 68ea 7fbd c6c4 26bd da85 493b 1b0c 02bd
000000a0: 5bee a73b 88fe 9fba 69c0 d3bb c680 18bc
000000b0: ba1c 0a3b e7be 6fbc 8fe9 09bd 6d04 dd3b
000000c0: 5bb6 99bc 0fcc ab3b 0e7c ab3c c196 87bd
000000d0: 320e 983b 28cf 453c 3a94 653d 83c1 05bc
000000e0: 4dd9 b4bc 985d babb 007a 583d 7262 263b
000000f0: 4211 493b 8c5b 71bd a244 89bc bd52 b23c
00000100: b458 09bd 21a0 943c c290 ecbc c19a 093e
00000110: 0804 41bc 0fc6 babc 093b 923c f7dc b4bc
00000120: 3242 b93b e1b2 d83b 1dda 5abc 6d14 03bd
00000130: 8df3 cf3b b833 ce3d bba3 0ebd da66 9fbd
00000140: f2c7 c33c 2aab 24bd 350d c3bc af9a 783c
00000150: 3df2 113d dc5a d53c c9de 0d3c 0408 bf3d
00000160: 17d3 f7bc 9489 983c a5ec c3bc 42d9 9abb
00000170: 9cc1 fabc 13b1 35bb 0fec ac3c b70a 20bd
00000180: fe5d c6bc 2372 f3bb e259 bb3c cb39 633c
0.02007168 -0.04559854 0.09694543 -0.037506722 -0.01303608 0.025373934 -0.013947399 0.008581415
-0.02026933 0.020055816 -0.0203115 0.08339467 0.010213758 0.0060213255 0.021701705 -0.03238881
-0.003993803 0.069461815 -0.06400429 -0.057555 0.011753707 -0.025064752 -0.015415504 -0.025263328
-0.006521686 0.10985502 -0.039986797 0.020989232 -0.036496 -0.021771863 -0.016147783 -0.020844998
-0.043883357 0.012717441 -0.057095807 -0.018004429 -0.062479407 -0.040715 0.0030749948 -0.031749826
0.0051248497 -0.0012206594 -0.006462146 -0.009308046 0.0021074251 -0.014632917 -0.033670004 0.0067449124
-0.018763712 0.0052428315 0.020933177 -0.06620551 0.004640364 0.012073316 0.056049563 -0.008163813
-0.022076273 -0.005687427 0.052850723 0.0025388268 0.0030680452 -0.058925197 -0.01675636 0.021767968
-0.03353186 0.018142762 -0.02887762 0.1343794 -0.011780746 -0.02279952 0.017850416 -0.02207802
0.005653643 0.006613121 -0.013357666 -0.0320019 0.006346172 0.10068458 -0.034824114 -0.07783289
0.023899052 -0.040202297 -0.023810009 0.015173598 0.035631407 0.026044302 0.008659073 0.09327701
-0.030252023 0.01862029 -0.023916552 -0.004725606 -0.030609898 -0.0027723953 0.021108655 -0.03907272
-0.02421474 -0.0074293776 0.022870008 0.013868759

fc2.weight f4 [50, 100]
00000000: 47c1 6a3d 8177 89bd 8851 283d 0f62 76bd
00000010: 549c 1abc d331 863d a91c 81bd 230c a7bd
00000020: 48c2 0dbd 957f 403c 3399 bb3b d344 cb3d
00000030: 96bd ae3c 9ff7 4f3d 17b6 623d 8c89 56bd
00000040: 57e3 de3c 82bc 9ebd 1f4d aa3a a1fe aa3d
00000050: 2897 c5bd c317 b4bc d5f1 73bd 5bcd b73d
00000060: babb 79bb e612 403b 95cd 6bbd 0b10 b8bd
00000070: ff9d 813d 3b42 31bd 49c3 663c 33b3 50bc
00000080: 9aeb 0bbd 25dd b33c 7ef1 ef3d 886e 90bd
00000090: 8e7d a23d 0899 ac3d dfd0 a03d c7bf 813d
000000a0: 7381 b4bc 5a65 42bd 4878 acbd 00ed 9abc
000000b0: 3b9e 343c a806 a23d 898b a63c 323d 1ebc
000000c0: fa77 273d 0ba0 b6bd 2d5e 9ebd f39e 1ebd
000000d0: 2c0c 5f3d aa3c 813d 4eff 553d 6261 aebc
000000e0: a305 20bd b47b adbd 0440 113c 9a52 96bd
000000f0: 861f 343b 376d 0539 308f 0e3c 990e bdbc
00000100: d74b b43c 042f 85bd 321f 2d3d 51da a73d
00000110: 434e b0bd 9a03 72bb f06b 223c 142a 2c3b
00000120: c031 e83c 27ea f5ba 903b 2cbd cfbd c4bc
00000130: d826 b2bd 8b0e 0cbc cff0 9639 926f 6e3d
00000140: 7581 3abd afb2 4f3d 9bb1 26bd 3742 1dbd
00000150: f9a8 953d d5f3 9bbd dc03 6abd e925 b6bd
00000160: adc5 973d 21a6 b83d 5e21 debc 03a5 313d
00000170: 421e b4bd cb7a b3bd 1b8e e4bb 88c4 81bc
00000180: 2d07 0e3d 1045 3f3d d9f1 a1bd 3ff5 bdbd
00000190: e325 9f3c 52cb f9bc 9fd4 d13d 9d1d 693d
000001a0: 6f56 f13b 1957 833d b290 4bbd 48b3 293d
000001b0: 9696 f33c 5f2b 92bd a013 e7bc 0893 593e
000001c0: 5d5a 653d 1796 1f3d 0d2a b93c 9157 71bd
000001d0: 80dd bcbd 7487 203d 23d4 c63c 4a13 9fbc
000001e0: 69ee 41bc 36db 95bd e131 023d d874 a43d
000001f0: ff1b debc fcfa 1bbc 90d4 fc3c 8f78 de3b
00000200: 943f 98bd bed0 67bc 7689 04bd 5d15 b9bd
00000210: 7e97 3fbd 7d85 cfbc 2750 e4ba 0085 d63c
00000220: 4be1 a7bd 01f3 b33c 664f 56bd ca84 2ebd
00000230: 27dc 3bbc 9049 9cbd f5ae 8bbd da0c e03c
00000240: 184f 8ebd d07f 0a3d 7273 5a3c c554 5f3d
00000250: 7171 acbc 9498 76bd 9428 de3d 5c56 e0bd
00000260: 9d90 283e fdb8 a9bd bd7a e3bd d087 803c
00000270: 4df4 e03c c14e 063e 2ae1 22bd 77e9 3dbd
00000280: 5fd9 c3bd 65b1 06bd 4ea7 c7bc 0cf7 623d
00000290: f8e3 23bd 7150 833e 299a b2bd f001 d73d
000002a0: a677 da3d fcab 73bd cb98 ea3c ee25 02bd
000002b0: c6ac cb3b 5b41 313d 0b61 48bd 5378 0e3d
000002c0: 277e 82bc 30dd 583e 88a4 c23c caba 42bd
000002d0: e680 d3bc a0d8 173d 73af 8dbd 2ad6 15bd
000002e0: cfc8 df3b b920 d5bd 5f1b f43d 2a62 b13e
000002f0: a148 0b3d 3a99 92bd a4fe 9dbc 27ad 933d
00000300: a182 d0bc e467 babd 0be3 9a3d 1b15 6abc
00000310: 5223 163d 43d3 3bbb 9855 06bd 5fce 843d
00000320: f44d db3c 4567 853d 09a4 47bd e97e 8b3b
00000330: fabd b5bd 4bed 583b a812 24bd e13e 9dbd
00000340: 4f38 bebd bc6b 36bd f232 453b 2d36 053d
00000350: 7659 ba3d ec3b b6bb 03b6 8fbd 7c2d 8dbd
00000360: bae4 5fbc 0e81 993d f4e0 633c fd93 323d
00000370: c600 b4bc d2e3 6abd f08c 3bbd fd03 313d
00000380: 49f9 453d b7c4 85bd 285b 373d 381b 553d
00000390: 6eeb c4bd 7f74 ab3b db47 d43c 8d1b a5bd
000003a0: d109 e73c 28af 8b3c e02c 78bd 0aa2 8cbd
000003b0: e88d 3b3c 53da 8f3d 555a 95bc 3e43 8a3a
000003c0: 2778 3e3c 9aa4 69bb eec5 913d f74f 663d
000003d0: 2791 043d a054 553d fe47 31bd 9878 863d
000003e0: ab9f ae3b d37e a5bd e4e9 99bd 71e8 763d
000003f0: 44fd 0abd 2a45 293d afd0 c2bd 8a9f 5bbd
0.05731323 -0.06712247 0.04109338 -0.06015211 -0.009436686 0.06552472 -0.063042946 -0.08156612
-0.03460911 0.011749168 0.00572505 0.099252366 0.021330636 0.05077326 0.055349436 -0.05237727
0.027208013 -0.07750799 0.0012992955 0.08349348 -0.096479714 -0.021983987 -0.0595568 0.08974715
-0.0038106279 0.002930814 -0.057569105 -0.08987435 0.063289635 -0.043276053 0.014084646 -0.012738037
-0.034160234 0.021956036 0.11715983 -0.07052332 0.07934104 0.08427626 0.07852339 0.06335407
-0.022034382 -0.047459938 -0.08421379 -0.018911839 0.011024053 0.07911426 0.020330207 -0.009658145
0.040885903 -0.089172445 -0.07732806 -0.038725805 0.054454967 0.06310399 0.05224543 -0.02128667
-0.039067876 -0.0847086 0.00886536 -0.07339974 0.002748461 0.00012724554 0.008701131 -0.02307825
0.02200882 -0.06503108 0.04226608 0.081959374 -0.08608677 -0.0036928416 0.00991343 0.0026270198
0.028344035 -0.00187618 -0.04204899 -0.024016289 -0.08698815 -0.008548389 0.00028789646 0.05821187
-0.045533616 0.050707515 -0.04069672 -0.038393226 0.073076196 -0.07614867 -0.057132587 -0.088939495
0.074107505 0.090160616 -0.02711552 0.043370258 -0.08794834 -0.08763655 -0.006974948 -0.015840784
0.034674812 0.046696723 -0.07907457 -0.092752926 0.019427245 -0.030492458 0.102456324 0.056913007
0.00736504 0.06413097 -0.04969854 0.04143074 0.02973489 -0.07137179 -0.0282076 0.21247494
0.05599438 0.038961496 0.02260306 -0.0589214 -0.09221935 0.03919168 0.024271077 -0.019418377
-0.011836627 -0.07317202 0.03178585 0.08030099 -0.027112959 -0.009520289 0.030863076 0.006789274
-0.074340016 -0.014148889 -0.032357655 -0.09037278 -0.046775334 -0.025332207 -0.0017418907 0.026186466
-0.08197268 0.02196646 -0.052321814 -0.042607106 -0.011466063 -0.076312184 -0.0682048 0.027349878
-0.0694868 0.033813298 0.013333188 0.054524202 -0.021050187 -0.060204104 0.108475834 -0.10953972
0.16461416 -0.08287237 -0.11107395 0.01568976 0.027460242 0.1311598 -0.039765514 -0.046365228
-0.095629446 -0.03288402 -0.02437177 0.055411384 -0.04001233 0.2564731 -0.0872081 0.104984164
0.106673524 -0.05949019 0.02863731 -0.031774454 0.0062156646 0.04327522 -0.048920672 0.03478272
-0.015929295 0.21178126 0.023760095 -0.047541417 -0.0258183 0.037071824 -0.0691823 -0.036581196
0.006829358 -0.10406632 0.11919283 0.34645206 0.03400481 -0.07158132 -0.019286461 0.072107606
-0.025452914 -0.09101847 0.07562836 -0.0142872585 0.036654778 -0.0028659857 -0.032796472 0.06484675
0.02677057 0.06513838 -0.04874042 0.004257072 -0.08874126 0.0033100422 -0.040056854 -0.07678009
-0.09288084 -0.044536337 0.003009018 0.03252237 0.090990946 -0.0055613425 -0.07017138 -0.06893441
-0.0136653725 0.07495318 0.0139086135 0.043598164 -0.021973025 -0.057346173 -0.045788705 0.043216694
0.04833344 -0.06531661 0.044764668 0.05202791 -0.09615217 0.0052323933 0.02591317 -0.080618955
0.028202923 0.017051294 -0.06058967 -0.06866844 0.011447407 0.07024064 -0.01823155 0.0010548604
0.011625326 -0.0035651089 0.0711783 0.056228604 0.03236499 0.052082658 -0.043281548 0.0656597
0.0053290925 -0.080808304 -0.07515314 0.060280267 -0.03393294 0.041325726 -0.095124595 -0.053618945

fc2.bias f4 [50]
00000000: 13b1 61bd da94 e5bd 7b1c f0bd 0fff 32bd
00000010: df6d c2bd acfe 3bbe 663a dc3d 458f d8bd
00000020: 5eb2 3b3d 8d14 b83c 9327 0cbe b7e4 4a3a
00000030: 35c4 f1bd 78b4 a8bd ce0d 50bd 78f7 4e3d
00000040: 0054 713c 4f31 983c aaa5 843d e493 9e3d
00000050: d37c 793d 3a39 8bbd dd77 14be 48d7 143d
00000060: 1de4 3ab9 5704 9fbd 26a5 293d 99b1 0dbe
00000070: 5c57 bdbd b268 94bc 01a1 b93c 834e bbbc
00000080: 23ca 82bd 9bd3 0c3e e640 12be 2397 c5bd
00000090: 314f 333c bb54 3dbd e68f 11be eb80 d83d
000000a0: 753c 4bbd 1ea2 8a3d a12b 92bd b3b8 fd3d
000000b0: 93a0 303a 3bd8 ddbc 3e50 f63c 17a3 40bc
000000c0: 91c0 92bd 4096 053e
-0.05510051 -0.11210032 -0.11724182 -0.043700274 -0.094936125 -0.18358868 0.10753326 -0.105742015
0.0458244 0.022470737 -0.13686971 0.00077397696 -0.11805002 -0.08237547 -0.050794415 0.050528973
0.0147295 0.0185782 0.064769104 0.07743052 0.060910057 -0.067980245 -0.14498849 0.03633812
-0.00017823321 -0.077645 0.041417263 -0.1383728 -0.09245178 -0.018116329 0.02265978 -0.022864586
-0.06386211 0.13752596 -0.1428257 -0.09647968 0.010944174 -0.046223383 -0.14215049 0.10571464
-0.049618203 0.06769203 -0.07137228 0.12388744 0.00067377946 -0.027080646 0.03006756 -0.011757634
-0.071656354 0.13045597

fc3.weight f4 [1, 50]
00000000: df05 59bc 19d3 d93d f596 983c 8709 643d
00000010: 7b54 c4bd 672e 893d 731e 5a3d c1b2 af3c
00000020: 645b b43d bd65 0b3d 1b43 9b3d b952 353d
00000030: 8d22 ce3b 61fa e73c 7cc6 ea3d ee8a d6bd
00000040: c94a 313e a335 67bc e8f0 ae3d f2d5 f3bd
00000050: 9b65 403d 36bd 423b 4629 843d b490 0fbd
00000060: 2c8e ab3d ee52 a1bd c2a3 d2bd d77e 753d
00000070: 3802 30bd 2504 983b 94ca bc3c e74f 17bd
00000080: f50a 99bd 96db 303d 0134 393b aab4 00be
00000090: f793 07bd 189d ef3d 7a3a 923c f5c0 f5bc
000000a0: a7a7 a8bb 8425 f13c 679a abbd 13f6 e7bd
000000b0: cd67 dfbd cab7 e23d 053c 37bd cf13 7ebc
000000c0: 6b18 b5bc 9b4b 85bd
-0.013246029 0.10635967 0.01862667 0.05567315 -0.09586426 0.06698304 0.053251695 0.021447541
0.08806494 0.034032572 0.07581159 0.044268344 0.00629074 0.028317632 0.11463639 -0.104757175
0.17313685 -0.014111909 0.08542043 -0.11906041 0.0469719 0.002971483 0.06453185 -0.03505011
0.083767265 -0.07877146 -0.102851406 0.059935417 -0.042970866 0.004639166 0.023045816 -0.036941435
-0.07472793 0.043178163 0.0028259757 -0.12568918 -0.033100095 0.11699885 0.01785015 -0.029999236
-0.005146939 0.029436834 -0.08379059 -0.11326232 -0.1090847 0.11070211 -0.044734973 -0.015507652
-0.02210637 -0.06508561
