models/classifiers/DQ_AE1BERTtuned_ALL_att_bm.pth (torch, 243490 bytes, 34 tensors)

embedding_proj.weight f4 [96, 96]
0.12758246 -0.13768502 0.1361891 -0.10811147 0.07437147 0.14763993 0.08101771 -0.15016484
0.083516166 -0.018792149 -0.011835816 -0.13167088 -0.14094014 -0.006419027 0.065809354 0.124248
0.107904285 0.046807732 -0.018937116 -0.12188635 -0.095982775 -0.053315196 -0.13308367 0.024838991
0.011201181 0.12557611 -0.111037135 -0.15687029 0.08486012 -0.1829775 0.103341326 -0.06264338
-0.122093946 -0.1816596 -0.041724667 0.09727833 -0.046965346 -0.080810405 -0.09864211 0.0030227539
-0.00082628016 0.17947504 0.08827543 0.059146676 -0.13868448 -0.020627452 0.078656666 0.14836717
0.15123343 0.17246534 -0.1675909 -0.020611499 0.14338134 0.099450395 0.042371146 -0.047782626
-0.022863142 0.14438777 -0.0010386175 -0.06415872 -0.010911862 0.13802306 0.09008512 -0.08841416
0.028521337 0.13802955 -0.12251011 0.03813359 -0.1586652 0.027569463 -0.05902481 0.085804954
-0.02738314 0.01617369 0.12120551 0.093667924 -0.09204064 -0.16045745 0.09751275 -0.036425896
0.09205793 -0.089941725 0.16069378 0.0024649568 -0.03857873 -0.008783721 -0.14104746 0.134754
-0.096219264 -0.005810248 -0.037020788 0.05323688 -0.08694028 -0.1642651 0.0058697956 0.060818594
-0.13868463 -0.03442984 -0.079329185 -0.17051204 0.06655425 -0.106455594 -0.03763753 -0.12547432
0.02549669 0.080346815 0.15683977 0.061846193 0.07084502 0.017423663 0.02899133 0.08158331
-0.11476897 -0.05082069 0.1283213 0.06408196 0.17923361 -0.09136977 0.11382339 -0.10207707
-0.06961472 0.12729615 0.07997583 0.07849069 0.039367888 -0.037657384 0.012963847 0.0968778
-0.076541394 -0.14749654 0.15626882 0.09514301 0.07816558 -0.096967295 0.1597835 0.13298365
-0.026402019 -0.055260055 0.14623761 0.09939506 0.0699305 -0.11208584 0.09656009 0.117664404
0.07962359 -0.02418253 -0.002797402 -0.06808716 0.027893364 -0.14670172 -0.033125978 -0.038858395
0.1144539 0.05689236 0.14018904 0.115772374 0.16900067 0.031326834 -0.099571 0.04403867
-0.12117279 -0.11593318 -0.13476825 0.14135407 0.09198807 0.076095514 0.0871762 0.053383935
-0.1562367 -0.016910477 -0.051782858 0.046074294 0.10990993 0.0822793 -0.0023644373 0.13912936
-0.16775681 -0.1625409 0.16114222 -0.10622124 0.16516976 -0.048063695 0.14120635 0.03597712
-0.1440484 -0.16857974 0.007856301 0.03546359 0.04594657 0.10526584 0.07267426 -0.15351862
-0.05147203 0.12947007 -0.122067265 0.12399546 0.15589532 -0.14234243 0.16404732 0.11734071
-0.057691798 0.123573825 -0.11567842 0.09422442 -0.03870409 0.08047688 -0.085697465 -0.16117567
0.115032375 -0.031034892 0.13164814 -0.00898742 -0.07084686 -0.15176018 -0.058141276 0.09478057
-0.088352166 -0.030803453 0.17388067 -0.02033238 -0.016494976 -0.14769123 -0.06416288 -0.09639495
0.07557694 -0.08820484 0.034626395 -0.010417486 -0.03791237 -0.09929321 -0.10826182 0.13326038
0.1526253 0.0345989 -0.123424746 -0.15241699 0.0092604775 -0.0056976676 -0.1231942 0.13606232
0.07868715 -0.14968427 -0.17033195 0.10887793 0.009506416 -0.17381488 0.1564752 -0.058552273
0.12509486 0.059396047 0.007057801 0.13166085 -0.027990222 -0.014816026 -0.11922609 -0.040503174
00000000: faa4 023e 4dfd 0cbe 2875 0b3e 8c69 ddbd
00000010: 1250 983d ec2e 173e 9dec a53d d0c4 19be
00000020: 860a ab3d fef1 99bc 03eb 41bc bbd4 06be
00000030: 9d52 10be b456 d2bb 0ec7 863d bc75 fe3d
00000040: ecfc dc3d 77b9 3f3d 0322 9bbc 8d9f f9bd
00000050: 9e92 c4bd 0961 5abd 1647 08be 247b cb3c
00000060: 2985 373c 0697 003e 7067 e3bd 9ba2 20be
00000070: 25cb ad3d 745e 3bbe 9ea4 d33d 2c4b 80bd
00000080: 640c fabd f904 3abe 7ce7 2abd dc39 c73d
00000090: bc5e 40bd ed7f a5bd e004 cabd 6519 463b
000000a0: b99a 58ba 4ec8 373e c0c9 b43d c943 723d
000000b0: 4e03 0ebe e7fa a8bc bf16 a13d 90ed 173e
000000c0: f0dc 1a3e c19a 303e f39c 2bbe 72d9 a8bc
000000d0: 8fd2 123e a6ac cb3d 5e8d 2d3d b7b7 43bd
000000e0: 7c4b bbbc 63da 133e 3822 88ba a665 83bd
000000f0: abc7 32bc eb55 0d3e 8c7e b83d 7c12 b5bd
00000100: 94a5 e93c 9e57 0d3e 95e6 fabd f831 1c3d
00000110: 2179 22be 5bd9 e13c 00c4 71bd 82ba af3d
00000120: 9b52 e0bc b07e 843c 983a f83d f8d4 bf3d
00000130: ce7f bcbd f54e 24be c4b4 c73d 5233 15bd
00000140: de88 bc3d 5e33 b8bd e98c 243e 1d8b 213b
00000150: bb04 1ebd 99e9 0fbc bf6e 10be f4fc 093e
00000160: 9b0e c5bd e563 bebb 1ca3 17bd ea0e 5a3d
00000170: bf0d b2bd 1c35 28be 6a57 c03b eb1c 793d
00000180: 5803 0ebe 4e06 0dbd 5777 a2bd b59a 2ebe
00000190: 984d 883d 6405 dabd d029 1abd 577c 00be
000001a0: 6fde d03c df8c a43d 9b9a 203e 6f52 7d3d
000001b0: 3217 913d 12bc 8e3c 3a7f ed3c 2715 a73d
000001c0: fe0b ebbd 5b29 50bd a966 033e 673d 833d
000001d0: 0489 373e 1320 bbbd 3d1c e93d c80d d1bd
000001e0: 2a92 8ebd ec59 023e 5eca a33d babf a03d
000001f0: 3940 213d a13e 1abd 5166 543c de67 c63d
00000200: bcc1 9cbd 5509 17be ef04 203e 57da c23d
00000210: 4715 a03d ca96 c6bd 499e 233e de2c 083e
00000220: 0c49 d8bc 5e58 62bd 50bf 153e a38f cb3d
00000230: b937 8f3d 438d e5bd 4cc1 c53d 09fa f03d
00000240: b111 a33d 711a c6bc 9e54 37bb 4871 8bbd
00000250: a080 e43c fa38 16be 1baf 07bd fb29 1fbd
00000260: ce66 ea3d f707 693d b78d 0f3e 111a ed3d
00000270: 830e 2d3e 9150 003d e1eb cbbd e461 343d
00000280: 7129 f8bd 606e edbd b000 0abe 1fbf 103e
00000290: 3e64 bc3d f7d7 9b3d 6f89 b23d 1da9 5a3d
000002a0: 83fc 1fbe d787 8abc 431a 54bd 66b8 3c3d
000002b0: 7518 e13d 0d82 a83d adf4 1abb ed77 0e3e
000002c0: 71c8 2bbe 1f71 26be 7702 253e 858a d9bd
000002d0: 4322 293e 70de 44bd 6698 103e bf5c 133d
000002e0: 6c81 13be 2ba0 2cbe b7b7 003c 4542 113d
000002f0: 7832 3c3d 9e95 d73d 3ed6 943d fc33 1dbe
00000300: 56d4 52bd cd93 043e 67fe f9bd 55f1 fd3d
00000310: 06a3 1f3e 37c2 11be 05fc 273e 5350 f03d
00000320: 3c4e 6cbd 4614 fd3d cfe8 ecbd bcf8 c03d
00000330: 2e88 1ebd 10d1 a43d 2782 afbd 3c0b 25be
00000340: 1896 eb3d e33c febc c5ce 063e f93f 13bc
00000350: 2918 91bd 0567 1bbe 8c25 6ebd 511c c23d
00000360: fbf1 b4bd 8657 fcbc c60d 323e 1790 a6bc
00000370: 7920 87bc 5f3c 17be d467 83bd b76a c5bd
00000380: 15c8 9a3d bda4 b4bd 68d4 0d3d 1aae 2abc
00000390: 004a 1bbd 3d5a cbbd 60b8 ddbd 6975 083e
000003a0: cf49 1c3e 93b7 0d3d 1dc6 fcbd 3313 1cbe
000003b0: 42b9 173c 80b3 babb 3e4d fcbd ec53 0b3e
000003c0: ba26 a13d d546 19be 806b 2ebe 64fb de3d
000003d0: ccc0 1b3c 87fc 31be 093b 203e 82d4 6fbd
000003e0: de18 003e 4549 733d 2045 e73b 1ad2 063e
000003f0: c04b e5bc ebbe 72bc cf2c f4bd a8e6 25bd

embedding_proj.bias f4 [96]
-0.006656443 0.0017225201 0.0018092564 0.004047498 -0.0061308877 0.0057165474 -0.004327541 0.0053445688
0.0004357356 0.0005749466 0.0007593045 -0.001977123 -0.0007975022 -0.0017062748 0.001034459 -0.0023863818
-0.006237579 -0.0057382095 0.00090680976 -0.0011353834 -8.1126265e-05 0.0015806172 -0.0042575183 -0.0003916469
-0.001091008 0.0012779165 -0.0029519808 -0.006404811 -0.002474713 0.0056158574 -0.002968135 -0.0049449457
-0.009496654 0.004608457 0.0006813836 0.0015618316 -0.0013588677 -0.0026406653 -0.0036888893 0.0010104806
0.0017912221 0.006769725 0.0044475673 0.0022363525 -0.00037705238 -0.0022327777 0.00053279457 0.002442291
0.0026700597 0.010124854 0.0006044427 0.0007724635 0.006293776 0.0073057692 0.004623002 0.001300131
-0.0036854795 -0.0028529973 -0.006822814 0.0011846347 0.0026533895 0.005660074 0.0010108699 0.0020144281
-0.004988062 0.0034784705 -0.0037536921 0.0030144756 0.0026134232 -0.0048902263 0.0031928236 -0.0020076088
-0.00251963 -0.0011369195 -0.0011740659 -0.0027661584 0.0057220347 -0.0038697843 -0.008529311 -0.005500788
-0.0014598428 0.0042925254 0.00079904764 -0.0074942685 -0.004600967 0.0030803587 -0.00097512343 -0.0051078545
-0.0019222967 -0.0073627695 0.0071964525 0.00064544607 0.0016604434 0.0043773884 0.00018240392 0.0017282248
00000000: 4a1e dabb 2fc6 e13a 9224 ed3a e0a0 843b
00000010: 9de5 c8bb e051 bb3b 0cce 8dbb 7e21 af3b
00000020: 7173 e439 03b8 163a 100c 473a 9f92 01bb
00000030: 770f 51ba 15a5 dfba af96 873a d864 1cbb
00000040: 9b64 ccbb 9707 bcbb f9b6 6d3a 25d1 94ba
00000050: 5522 aab8 b62c cf3a a782 8bbb f555 cdb9
00000060: 2700 8fba c37f a73a 0576 41bb 73df d1bb
00000070: cb2e 22bb 3a05 b83b 0b85 42bb 3609 a2bb
00000080: db97 1bbc 8a02 973b e19e 323a 5fb6 cc3a
00000090: 091c b2ba 030f 2dbb 4bc1 71bb 1a72 843a
000000a0: 71c7 ea3a 92d4 dd3b e6bc 913b c58f 123b
000000b0: 1daf c5b9 cb53 12bb 3dab 0b3a d80e 203b
000000c0: 2bfc 2e3b b7e2 253c 7773 1e3a 267f 4a3a
000000d0: 053c ce3b 3c65 ef3b 8d7c 973b 2869 aa3a
000000e0: 1688 71bb 5af9 3abb e991 dfbb bf45 9b3a
000000f0: 7de4 2d3b 2478 b93b 2a7f 843a 7f04 043b
00000100: e672 a3bb 0df7 633b 8100 76bb 828e 453b
00000110: f745 2b3b 313e a0bb b13e 513b 1692 03bb
00000120: 6020 25bb b004 95ba 1de3 99ba 7048 35bb
00000130: e87f bb3b 359c 7dbb 86be 0bbc f43f b4bb
00000140: 3258 bfba 50a8 8c3b 2e77 513a 7b92 f5bb
00000150: b5c3 96bb d8df 493b 6d9f 7fba ca5f a7bb
00000160: 93f5 fbba 6343 f1bb 38d0 eb3b 2733 293a
00000170: 3ca3 d93a 3270 8f3b ae43 3f39 9a85 e23a

categorical_proj.weight f4 [17, 16]
0.2944642 0.11338953 0.17146438 0.0033086415 0.010296721 -0.32888752 -0.34368294 0.27632767
-0.028453536 -0.20383158 -0.19339184 0.21307649 -0.24819085 0.06989901 -0.22974646 -0.05512703
0.23230469 0.28987637 0.1747295 0.32865208 -0.28554398 0.20761123 0.1357305 -0.026114976
0.39785796 0.14996475 -0.13311028 -0.3281161 0.26893732 -0.10357181 0.0676615 -0.14703082
0.17673913 0.094764404 0.30613807 0.37213624 0.22359502 -0.4118543 -0.15625641 0.30343324
0.36036077 -0.18399405 0.024904553 0.25943962 0.11433155 -0.000330312 -0.24989848 0.052
0.1254482 0.1781598 -0.16225731 0.33546978 -0.40814668 0.28128505 -0.2725577 0.2982328
-0.22056112 0.023057548 0.19069345 -0.16431694 0.3769161 0.0456907 -0.0057831868 -0.37411308
0.409486 -0.32770434 -0.2935319 -0.3185639 -0.22344834 0.0033920552 -0.39728668 -0.2566533
-0.323029 -0.3298622 -0.078407094 0.35080397 0.2575942 0.33003843 0.09745193 0.30979016
-0.23383008 -0.29216227 0.3427137 -0.08997448 0.27152708 0.32133123 0.113481455 -0.3175916
0.14447694 0.4316348 0.050119784 0.02473493 -0.054223526 -0.033602376 -0.24247488 0.023012558
-0.12485311 -0.37019482 -0.2041987 -0.2710795 -0.3466282 0.24664575 0.12332926 -0.2574602
0.04561437 0.06607155 -0.38899028 0.2868937 0.38851896 -0.019230131 0.43185762 0.030952431
-0.13416652 -0.41583624 0.26038846 0.369242 -0.087488666 -0.39852712 0.40715653 0.33724
-0.2820815 -0.2917054 -0.3997199 0.21593471 -0.2035991 0.19010836 0.0314755 -0.3399407
-0.41303858 0.37567124 0.018519757 -0.119658545 -0.11977141 0.26244774 0.3078665 -0.3100751
-0.13830417 0.3084302 -0.39999837 -0.09743797 -0.06412124 0.27043024 -0.035049964 0.21577911
-0.11894576 -0.06310107 0.084082246 0.20582123 -0.09058638 -0.011923227 -0.371625 -0.3769441
0.085664906 -0.39299121 0.16780852 -0.092910446 -0.26549482 -0.110838994 0.31254193 0.23140961
-0.25843737 0.14351185 -0.35397762 -0.36172044 -0.3722096 0.32087764 -0.32530683 0.18264711
0.27855268 -0.25559363 -0.42639974 0.19195889 -0.18566556 -0.366694 -0.00052477437 0.29609138
-0.2528463 -0.13731995 0.061128393 0.13621801 -0.13450523 0.39304465 -0.35286987 -0.34698784
0.3827358 0.27413887 -0.14013495 -0.39038315 0.26428294 0.40194827 -0.29588237 0.24699615
-0.10053581 0.07201837 -0.23552781 -0.3494022 0.27660555 -0.09895192 -0.0395437 0.040896084
0.15516111 -0.28773898 0.37797886 -0.3223333 -0.06808893 -0.027080305 -0.3956992 0.2633843
-0.13886982 -0.1629427 -0.13880154 0.28788403 -0.09100302 0.20249042 -0.024089122 0.118792474
-0.31803504 -0.025579307 0.29559693 0.16404678 -0.10239925 -0.41566053 0.23306036 -0.3783844
-0.10180458 0.33582443 -0.3019841 -0.25173986 -0.14556229 0.10358608 0.19257356 -0.331249
-0.25453424 -0.016325781 -0.37927052 0.16872877 -0.30220118 -0.27890524 0.0062805167 0.04797913
-0.24970469 0.25664756 0.23163028 0.19882682 -0.21509404 -0.020093778 -0.005784496 -0.40493426
0.33118734 -0.29872498 -0.08403955 0.32752368 -0.3406723 0.27243078 0.2610689 -0.12914191
00000000: 03c4 963e c538 e83d 5c94 2f3e cbd5 583b
00000010: 94b3 283c f263 a8be 36f7 afbe d27a 8d3e
00000020: 6417 e9bc 3ab9 50be 8308 46be b930 5a3e
00000030: be25 7ebe 3627 8f3d a842 6bbe e1cc 61bd
00000040: 48e1 6d3e ad6a 943e 4aec 323e 1645 a83e
00000050: d232 92be 0a98 543e f0fc 0a3e 13ef d5bc
00000060: 0ab4 cb3e 5c90 193e 104e 08be d5fe a7be
00000070: 27b2 893e 751d d4bd 1d92 8a3d 3f8f 16be
00000080: 1afb 343e d713 c23d 21be 9c3e a488 be3e
00000090: 18f6 643e 91de d2be ae01 20be 9a5b 9b3e
000000a0: 3581 b83e f068 3cbe a204 cc3c 45d5 843e
000000b0: a926 ea3d ba2d adb9 63e5 7fbe f4fd 543d
000000c0: 7e75 003e 866f 363e c826 26be b2c2 ab3e
000000d0: 9af8 d0be 9804 903e af8c 8bbe f8b1 983e
000000e0: c6da 61be 2fe3 bc3c 2545 433e b342 28be
000000f0: 26fb c03e 2c26 3b3d e380 bdbb c08b bfbe
00000100: 26a8 d13e ddc8 a7be d049 96be cf1a a3be
00000110: a4cf 64be 3e4d 5e3b 2969 cbbe 1068 83be
00000120: 0f64 a5be b3e3 a8be e693 a0bd 949c b33e
00000130: 63e3 833e ccfa a83e e194 c73d d19c 9e3e
00000140: 2771 6fbe 4b96 95be 2c78 af3e 8a44 b8bd
00000150: 9905 8b3e 8785 a43e f768 e83d 5e9b a2be
00000160: c3f1 133e 3dff dc3e 674a 4d3d e8a0 ca3c
00000170: 7d19 5ebd a5a2 09bd 564b 78be d584 bc3c
00000180: fdb2 ffbd 2d8a bdbe 7719 51be efca 8abe
00000190: 4079 b1be b490 7c3e 0d94 fc3d d3d1 83be
000001a0: 22d6 3a3d 8550 873d bc29 c7be bbe3 923e
000001b0: f5eb c63e 8288 9dbc 711c dd3e f48f fd3c
000001c0: f362 09be 7de8 d4be a351 853e 4a0d bd3e
000001d0: 422d b3bd bf0b ccbe d276 d03e b9aa ac3e
000001e0: fd6c 90be 695a 95be 16a8 ccbe fd1d 5d3e
000001f0: 487c 50be c4ab 423e 74ec 003d b50c aebe
00000200: cb79 d3be fb57 c03e bfb6 973c 8a0f f5bd
00000210: b74a f5bd 8d5f 863e aea0 9d3e 2ac2 9ebe
00000220: 9c9f 0dbe 90ea 9d3e 96cc ccbe 8f8d c7bd
00000230: ff51 83bd d575 8a3e 8d90 0fbd 33f5 5c3e
00000240: d699 f3bd 223b 81bd 5033 ac3d cdc2 523e
00000250: 5a85 b9bd a459 43bc a245 bebe d1fe c0be
00000260: 1571 af3d 2536 c9be ffd5 2b3e d547 bebd
00000270: f0ee 87be 8eff e2bd 7f05 a03e a4f6 6c3e
00000280: e751 84be c5f4 123e 8e3c b5be 6c33 b9be
00000290: 4292 bebe 134a a43e 9e8e a6be d807 3b3e
000002a0: 759e 8e3e 2bdd 82be 1151 dabe df90 443e
000002b0: 1d1f 3ebe 51bf bbbe 0391 09ba 4a99 973e
000002c0: 1275 81be 9a9d 0cbe c461 7a3d bc7c 0b3e
000002d0: bdbb 09be 263d c93e 5cab b4be 64a8 b1be
000002e0: f2f5 c33e ee5b 8c3e 897f 0fbe 4de0 c7be
000002f0: 1850 873e 2acc cd3e e57d 97be 8fec 7c3e
00000300: b8e5 cdbd 5e7e 933d 342e 71be d8e4 b2be
00000310: 3e9f 8d3e 4ea7 cabd 93f8 21bd a782 273d
00000320: 8ee2 1e3e 8652 93be 7286 c13e df08 a5be
00000330: 3572 8bbd 84d7 ddbc 1699 cabe 4fda 863e
00000340: e433 0ebe 73da 26be fe21 0ebe 8965 933e
00000350: cb5f babd a659 4f3e 8d56 c5bc 7849 f33d
00000360: 7dd5 a2be b28b d1bc 7b58 973e e1fb 273e
00000370: b3b6 d1bd 75d1 d4be 60a7 6e3e 9abb c1be
00000380: eb7e d0bd 2ef1 ab3e a99d 9abe 0ce4 80be
00000390: 480e 15be f024 d43d 0132 453e 7899 a9be
000003a0: 5052 82be a5bd 85bc bf2f c2be 3cc7 2c3e
000003b0: 1dba 9abe abcc 8ebe cbcc cd3b c485 443d
000003c0: 96b2 7fbe 4f67 833e 7d30 6d3e 4299 4b3e
000003d0: 9d41 5cbe b59b a4bc df8b bdbb 8b53 cfbe
000003e0: 6391 a93e 7bf2 98be ed1c acbd 2fb1 a73e
000003f0: 9a6c aebe 0c7c 8b3e d3aa 853e c73d 04be

categorical_proj.bias f4 [17]
0.0025137104 -0.008313255 7.085107e-05 -0.0057954905 0.0033266107 -0.010475387 0.007221805 -0.00044433007
-0.0032362407 -0.0008581147 -0.002375286 0.00050783675 0.0036787465 0.0026232956 -0.000923429 -0.009497517
-0.00026841337
00000000: 10bd 243b 5234 08bc e195 9438 19e8 bdbb
00000010: 4403 5a3b f5a0 2bbc e4a4 ec3b f9f4 e8b9
00000020: 1c17 54bb 1af3 60ba b0aa 1bbb 5920 053a
00000030: 2017 713b 99eb 2b3b 4512 72ba 799b 1bbc
00000040: d5b9 8cb9

combine_proj.weight f4 [128, 113]
-0.07994409 -0.1439077 -0.034130886 0.1256447 0.068833254 -0.031910095 -0.13893485 -0.034637325
0.16380371 0.06888994 0.05180125 -0.15222606 -0.093782715 0.070038304 0.002544402 0.10495458
-0.006808809 0.12575185 -0.06434881 -0.07331082 -0.0036041322 0.046794515 0.15475705 0.029226875
0.09273872 -0.0039456924 -0.10591548 0.017553868 -0.153642 0.12641694 0.12835605 0.028489696
-0.06807443 0.098759934 0.14628032 -0.022320453 -0.12782876 -0.012013683 -0.040060017 0.00477769
-0.025881927 0.058534622 -0.14928216 0.096867554 -0.0722631 -0.09416532 0.09385133 0.12263688
-0.12844187 0.14353788 0.052443698 -0.076773755 -0.119975194 -0.14567763 -0.12415062 0.03470239
-0.10592564 -0.09306817 0.017053746 0.064807445 -0.13809134 -0.06684233 0.05699005 0.011099934
-0.038233154 -0.11607973 -0.11619306 -0.0599824 0.066693336 -0.032620616 -0.012345419 -0.13143186
-0.05794203 0.08279455 0.033890042 -0.05529944 0.11765803 -0.018442223 0.12715717 -0.057473805
0.08411419 -0.071893565 0.047846824 -0.10869809 -0.08143509 -0.14246972 -0.0358985 -0.14946845
9.614577e-05 -0.023467679 0.022073776 0.07141781 0.10703677 0.023862775 -0.0077203643 -0.13052207
-0.008275363 -0.14217779 -0.034210194 0.023753446 0.12790236 0.12462207 -0.07458124 -0.007562182
0.01045518 0.10045406 -0.05978762 -0.109628975 0.06586584 0.11920253 0.12636998 -0.005485652
-0.046820723 -0.10655673 -0.12504701 0.06289838 -0.053594425 0.10398504 -0.14477345 0.070970595
0.10972654 0.00029167254 0.102015875 0.028614178 0.14790781 -0.14062497 -0.14398406 0.119304284
0.0047189766 0.06381297 0.15518263 0.07821926 -0.13530923 0.15908386 0.1393111 -0.0660125
0.008287252 0.08816703 0.10031276 0.10565681 -0.12017204 -0.008561106 -0.04061055 0.024376847
0.15231647 0.029322488 -0.073901504 0.09302659 -0.13724351 0.13468714 -0.10852105 -0.028264942
-0.079791434 -0.12894596 0.07922195 0.04441836 0.13257314 0.023239017 -0.116151795 -0.019050272
0.08051454 0.015374268 -0.082504444 0.027759075 -0.066345714 0.07916842 -0.091709875 -0.1346664
0.12818514 -0.09945501 0.035669286 -0.10843209 -0.044213984 0.035098556 0.1355651 0.114239715
0.047426928 0.08491179 0.063367166 0.03948568 -0.03510822 -0.043927073 -0.03761144 -0.03441422
-0.13438666 -0.14480487 -0.0015161589 0.023029566 -0.119981036 0.06677991 -0.05137105 -0.07580196
-0.0746052 0.03400218 0.08220337 -0.04201741 -0.010392219 -0.0519928 -0.10084327 -0.04348426
0.120260686 0.03834756 0.056182027 0.06942412 -0.14512391 0.08433889 0.102062345 -0.13560803
0.15941004 0.11911613 -0.042514216 -0.011526997 -0.07645242 -0.03100041 -1.7715205e-05 -0.06484777
-0.08021779 0.14994785 -0.013730552 -0.1533994 0.13720128 -0.07914128 -0.072016194 -0.11249955
0.018429013 -0.094145074 -0.04122162 -0.042508766 -0.014838658 0.006691001 0.08720235 0.075278625
0.023337888 0.068983756 -0.11727906 -0.056455355 -0.095347784 0.081120655 0.15807332 0.07065076
-0.04622699 0.13695861 0.031502068 -0.066897795 -0.011317762 0.055960957 -0.036150556 -0.100391805
0.12445467 -0.103540204 -0.03713741 0.06705019 -0.007725792 -0.0069958842 0.01359598 -0.003676904
00000000: bab9 a3bd 8a5c 13be d4cc 0bbd 01a9 003e
00000010: 73f8 8c3d 29b4 02bd f044 0ebe dedf 0dbd
00000020: 29bc 273e 2b16 8d3d 8c2d 543d 26e1 1bbe
00000030: 2711 c0bd 3e70 8f3d fbbf 263b 6df2 d63d
00000040: 6e1c dfbb 18c5 003e 4fc9 83bd fc23 96bd
00000050: 4e33 6cbb 9bab 3f3d a278 1e3e 336d ef3c
00000060: cced bd3d de4a 81bb 37ea d8bd 21cd 8f3c
00000070: 5454 1dbe 7173 013e c56f 033e 3963 e93c
00000080: 9b6a 8bbd a642 ca3d 82ca 153e 62d9 b6bc
00000090: 8be5 02be 0ad5 44bc f915 24bd 2b8e 9c3b
000000a0: 5606 d4bc 00c2 6f3d 6cdd 18be 7f62 c63d
000000b0: adfe 93bd bfd9 c0bd 2035 c03d 0b29 fb3d
000000c0: 4486 03be 98fb 123e 34cf 563d 8f3b 9dbd
000000d0: 8eb5 f5bd 842c 15be ae42 febd 1824 0e3d
000000e0: 8bef d8bd 869a bebd 4cb4 8b3c c4b9 843d
000000f0: d167 0dbe a2e4 88bd 666e 693d 7fdc 353c
00000100: 5e9a 1cbd 36bb edbd a1f6 edbd 1bb0 75bd
00000110: 8496 883d 329d 05bd 7144 4abc 1396 06be
00000120: 9f54 6dbd 3090 a93d 49d0 0a3d aa81 62bd
00000130: b1f6 f03d 2514 97bc 7d35 023e a769 6bbd
00000140: 0f44 ac3d ef3c 93bd 08fb 433d 1b9d debd
00000150: 71c7 a6bd 95e3 11be 4e0a 13bd 420e 19be
00000160: dea1 c938 4a3f c0bc 10d4 b43c 8043 923d
00000170: 1836 db3d de7b c33c 1cfb fcbb 94a7 05be
00000180: 6395 07bc 0e97 11be fd1f 0cbd 9696 c23c
00000190: d6f8 023e db39 ff3d 0dbe 98bd 2ecc f7bb
000001a0: 344c 2b3c dcba cd3d dde3 74bd 2885 e0bd
000001b0: abe4 863d 7520 f43d 2267 013e fcc0 b3bb
000001c0: 16c7 3fbd 6a3a dabd 530c 00be ded0 803d
000001d0: d485 5bbd 1cf6 d43d 7e3f 14be 0859 913d
000001e0: 4fb8 e03d a0eb 9839 b3ed d03d 4868 ea3c
000001f0: 2575 173e feff 0fbe 8f70 13be ce55 f43d
00000200: a5a1 9a3b 60b0 823d 32e8 1e3e 6b31 a03d
00000210: 818e 0abe e1e6 223e 92a7 0e3e 9031 87bd
00000220: 41c7 073c ea90 b43d c770 cd3d 9962 d83d
00000230: c21c f6bd e243 0cbc 4057 26bd f4b1 c73c
00000240: d9f8 1b3e b735 f03c ac59 97bd ba84 be3d
00000250: 9089 0cbe 6deb 093e 4940 debd e18b e7bc
00000260: b169 a3bd 690a 04be 1e3f a23d 07f0 353d
00000270: 41c1 073e c05f be3c fee0 edbd 510f 9cbc
00000280: cfe4 a43d 5be4 7b3c 17f8 a8bd 0067 e33c
00000290: 43e0 87bd 0d23 a23d 63d2 bbbd fde5 09be
000002a0: f742 033e 11af cbbd f519 123d a511 debd
000002b0: b919 35bd 81c3 0f3d 94d1 0a3e 83f6 e93d
000002c0: bd42 423d 3ce6 ad3d a5c6 813d bdbb 213d
000002d0: a3cd 0fbd e0ec 33bd 740e 1abd edf5 0cbd
000002e0: a89c 09be ba47 14be dab9 c6ba 80a8 bc3c
000002f0: 9eb8 f5bd e8c3 883d 736a 52bd 0f3e 9bbd
00000300: 9cca 98bd df45 0b3d 3e5a a83d 731a 2cbd
00000310: 2044 2abc 67f6 54bd eb86 cebd 8d1c 32bd
00000320: 3c4b f63d 5512 1d3d 201f 663d 3c2e 8e3d
00000330: 5d9b 14be deb9 ac3d 1006 d13d d5dc 0abe
00000340: 633c 233e 28f3 f33d 6323 2ebd bbdb 3cbc
00000350: 1693 9cbd 92f4 fdbc 1d9b 94b7 e8ce 84bd
00000360: 3a49 a4bd ee8b 193e 1cf6 60bc bb14 1dbe
00000370: 7e7e 0c3e d314 a2bd 3a7d 93bd 2a66 e6bd
00000380: 71f8 963c 22cf c0bd 00d8 28bd ac1d 2ebd
00000390: d81d 73bc 2f40 db3b 2597 b23d ae2b 9a3d
000003a0: 192f bf3c 5b47 8d3d 0130 f0bd bb3d 67bd
000003b0: b345 c3bd 9622 a63d f9dd 213e 58b1 903d
000003c0: 8358 3dbd e13e 0c3e 5008 013d b601 89bd
000003d0: 226e 39bc 5137 653d 9b12 14bd 389a cdbd
000003e0: 17e2 fe3d e30c d4bd 661d 18bd 9c51 893d
000003f0: a428 fdbb bb3d e5bb acc1 5e3c 36f8 70bb

combine_proj.bias f4 [128]
-0.002742441 0.001894093 -0.0024408028 0.0023235276 -0.0020491015 0.0025739395 0.00035646412 -0.0052414783
0.0017634208 -0.0013195738 0.008159051 0.0034249835 0.0031350025 0.004918374 0.0028732354 -0.0005394721
0.0048927437 -0.0008662879 -7.6258075e-05 0.0020059878 0.0003882254 -0.0016946871 0.00026522003 -0.0017785818
-0.0036823598 0.0033957488 -0.003288211 0.0010518614 -0.001828319 0.0037957714 0.000819433 0.0010580582
0.0027477916 0.0026261057 -0.0017892382 -0.00039427282 0.006448262 0.0015020606 -0.003872773 -0.0030392744
0.0007381023 -0.0015869968 0.0012017129 -0.006274209 -0.0018977129 -0.0054010507 -0.0005351499 0.0002522668
0.0036775863 0.0027345782 -0.0006131558 -0.0044754595 0.0012788844 0.0035114144 0.0017638179 0.0012571209
0.0027136153 0.0037383314 -0.0010436323 -0.0007610785 -0.0025489067 -0.0021948165 0.001875212 0.003218725
-0.0026179093 -0.004201688 0.00031907772 0.00094129593 0.002525447 0.0020164018 -5.185938e-05 -0.0010288594
0.0026756548 0.0009584081 -0.003163022 0.00034316856 0.0011240453 -0.00059280853 0.002639295 -0.0040245573
-0.0040045665 0.0021501197 0.0004861963 -0.0018167917 0.0013567773 0.001575374 -0.003241754 0.005181386
0.0057200855 0.0023624843 0.0035390235 0.001658218 0.0030567704 -0.0002054107 -0.0026912484 -0.004659824
0.0003134905 0.0003164711 0.0003684631 -0.0011237169 -0.00070318754 0.002009927 -0.000985304 0.0034999016
0.0033041448 -0.003970197 -0.001997294 -0.0017080479 0.0013943858 0.0039593084 0.0009872264 0.0002566218
-3.619355e-05 -0.0010434136 -0.0018352971 0.001578018 -0.0029769712 -0.0018710794 0.0013905601 0.0021449511
-0.005974238 0.007833721 -0.005311248 -0.0025904614 -0.0039876015 0.0028626444 -0.00016643693 0.0005878548
00000000: 86ba 33bb 3743 f83a e0f5 1fbb 5346 183b
00000010: 384a 06bb 8aaf 283b cee3 ba39 b5c0 abbb
00000020: 9522 e73a 8df5 acba 8aad 053c b075 603b
00000030: 9d74 4d3b 502a a13b e44c 3c3b 5c6b 0dba
00000040: 4f53 a03b 9917 63ba beec 9fb8 e476 033b
00000050: bb8a cb39 4320 deba 3b0d 8b39 4d1f e9ba
00000060: bf53 71bb 368b 5e3b 077f 57bb 9dde 893a
00000070: 35a4 efba 7ac2 783b 38cf 563a 8bae 8a3a
00000080: 4b14 343b be1a 2c3b df84 eaba 67b6 ceb9
00000090: f14b d33b cae0 c43a 59ce 7dbb 902e 47bb
000000a0: 357d 413a c702 d0ba cb82 9d3a e197 cdbb
000000b0: aebc f8ba 4cfb b0bb 4d49 0cba ad42 8439
000000c0: a903 713b 9c36 333b 30bc 20ba e0a6 92bb
000000d0: 3da0 a73a c21f 663b e82f e73a fac5 a43a
000000e0: e9d6 313b cbfe 743b 7dca 88ba 1d83 47ba
000000f0: 8f0b 27bb e9d6 0fbb acc9 f53a 3ff1 523b
00000100: 3b91 2bbb 50ae 89bb e349 a739 4dc1 763a
00000110: f881 253b 9c25 043b 9683 59b8 cbda 86ba
00000120: 0a5a 2f3b ae3d 7b3a b44a 4fbb 4eeb b339
00000130: b454 933a b566 1bba 06f8 2c3b 6fe0 83bb
00000140: bd38 83bb 06e9 0c3b 2ae8 fe39 6a21 eeba
00000150: e4d5 b13a c87c ce3a 9b73 54bb 9ec8 a93b
00000160: 8e6f bb3b e9d3 1a3b f6ee 673b 9058 d93a
00000170: 1954 483b 8463 57b9 a85f 30bb 70b1 98bb
00000180: fc5b a439 08ec a539 482e c139 af49 93ba
00000190: 1e56 38ba fbb8 033b 5125 81ba 9b5e 653b
000001a0: 5a8a 583b 6d18 82bb 08e5 02bb 94e0 dfba
000001b0: d3c3 b63a 16bd 813b d265 813a 328b 8639
000001c0: 87ce 17b8 27c3 88ba 5a8e f0ba 7fd5 ce3a
000001d0: 4a19 43bb 023f f5ba 7443 b63a 4f92 0c3b
000001e0: 8ac3 c3bb 0259 003c fa09 aebb bbc4 29bb
000001f0: 6daa 82bb 349b 3b3b 9385 2eb9 451a 1a3a

fc1.weight f4 [128, 128]
-0.11043269 0.114280835 0.059845984 0.060005613 0.13387746 0.14855771 -0.1181746 -0.092139065
-0.050447688 -0.09853272 -0.099621974 0.1364354 0.115319096 -0.051608056 0.01282944 0.086319864
-0.12935989 0.054736663 0.014406355 0.0072201393 0.00029099718 -0.048096765 -0.002498419 -0.038614407
-0.055673726 -0.061966665 -0.031910427 -0.10881588 -0.051506117 -0.12745987 -0.104976624 0.08416468
0.14755239 -0.094019875 -0.08100058 0.124879785 -0.14334004 -0.12760767 0.013721292 -0.10686573
-0.02012453 -0.124913394 -0.017069705 -0.05954631 0.09636528 -0.13611004 0.12741165 0.054242793
-0.105879776 0.083094575 -0.054534823 0.07609695 -0.008986622 -0.03427894 0.11640035 -0.07648901
-0.11952167 0.062657624 -0.10381367 -0.023939263 -0.055868782 0.019817675 0.053986877 -0.09101265
0.14008316 -0.05687741 0.05071032 -0.12211676 0.12027769 0.020779034 -0.06488789 -0.13039753
-0.07761509 -0.011843588 -0.13944976 0.09304157 -0.071926914 -0.09662708 -0.104722746 0.061761584
-0.030826675 0.08270714 0.04088224 -0.06307115 -0.009500623 0.090007044 0.13287036 0.14621101
-0.11126423 -0.061495528 0.09872947 -0.004679138 0.043952662 0.12946475 0.118210286 0.10345714
-0.10082525 0.03195828 0.099136814 -0.03524596 -0.034505747 -0.017140128 0.04713458 0.08898218
-0.11521112 -0.046615943 0.02481582 0.06495064 0.05950199 0.12244158 -0.03752438 -0.081079416
-0.06817905 0.14817275 -0.09973105 -0.041495394 0.14650491 -0.015923273 -0.085470445 0.11236955
0.10015191 0.12038528 0.16449073 0.028164607 -0.019900635 0.020952335 0.1079203 -0.100473516
0.0062181293 0.0634244 -0.08333368 0.1062872 0.0046227993 0.115121454 -0.103886016 0.020301856
0.04662156 0.052023124 -0.05466442 -0.10113733 -0.06026462 0.024984851 -0.12243625 -0.100618355
-0.063608386 0.041023213 0.13193925 -0.022328941 -0.03386248 -0.025797714 0.013952884 -0.07140597
-0.08936849 -0.03401717 -0.027086439 0.048032068 0.12354396 -0.06699237 -0.116597846 -0.02085726
-0.037471622 -0.055988904 -0.07702672 0.0044320542 0.008452076 -0.058159284 -0.019653138 0.07758014
-0.034936726 -0.0007002795 0.12839119 0.02973621 -0.0594281 0.1308637 -0.11434971 0.009125152
0.042208076 -0.026526783 0.12590365 -0.15156293 -0.0100560365 0.00748322 0.058580026 0.11599216
-0.09345581 -0.091392964 -0.13723494 0.05643366 0.072306566 -0.124472834 -0.05279867 -0.066481225
0.05094406 -0.011703401 0.13729006 -0.035973493 -0.16330206 0.021354847 0.11690189 0.14297457
-0.06122652 0.05045201 -0.048242725 0.07539665 0.008337732 -0.024174266 0.13241713 0.020816803
-0.031484704 -0.03451721 0.14523782 0.11385532 0.07499943 -0.026140347 -0.13213193 -0.04234998
-0.12597692 -0.021145731 0.14169185 -0.16133487 -0.0999539 -0.09464831 -0.094003916 -0.11112472
0.06657449 0.03594757 0.113752685 0.03929812 0.08452981 -0.07414807 0.1403981 -0.05664881
-0.121827744 -0.13423641 -0.15251651 -0.102918945 0.07158759 -0.034317177 0.035596136 -0.14558774
0.012462346 -0.0911052 0.083853476 0.117659576 0.15393493 -0.05999287 0.09741982 0.07868955
0.023783013 -0.060121592 0.11351663 0.1334635 -0.06483052 -0.14711216 -0.08516938 0.071774304
00000000: 892a e2bd 120c ea3d 1021 753d 72c8 753d
00000010: 2c17 093e 831f 183e 8605 f2bd 68b3 bcbd
00000020: 3ca2 4ebd 86cb c9bd 9b06 ccbd b9b5 0b3e
00000030: 6b2c ec3d f862 53bd 9232 523c 78c8 b03d
00000040: eb76 04be 8d33 603d a208 6c3c eb96 ec3b
00000050: fb90 9839 1d01 45bd 84bc 23bb 242a 1ebd
00000060: 220a 64bd c2d0 7dbd 82b4 02bd dcda debd
00000070: 14f8 52bd d784 02be fcfd d6bd 885e ac3d
00000080: f917 173e 7e8d c0bd a2e3 a5bd f9c0 ff3d
00000090: bbc7 12be 96ab 02be 45cf 603c 6bdc dabd
000000a0: 33dc a4bc 98d2 ffbd c4d5 8bbc d5e6 73bd
000000b0: 295b c53d 6e60 0bbe 3378 023e b12d 5e3d
000000c0: 7fd7 d8bd 7d2d aa3d e85f 5fbd b8d8 9b3d
000000d0: a03c 13bc 1368 0cbd 4f63 ee3d 45a6 9cbd
000000e0: c7c7 f4bd a452 803d 439c d4bd 461c c4bc
000000f0: aad6 64bd ad58 a23c 5821 5d3d d764 babd
00000100: f671 0f3e 49f8 68bd a0b5 4f3d 5a18 fabd
00000110: 2654 f63d cb38 aa3c f1e3 84bd ee86 05be
00000120: a9f4 9ebd 9c0b 42bc ebcb 0ebe 948c be3d
00000130: 6b4e 93bd 6be4 c5bd e178 d6bd b7f9 7c3d
00000140: 3988 fcbc 5c62 a93d 2374 273d 722b 81bd
00000150: 80a8 1bbc 9d55 b83d 2b0f 083e 57b8 153e
00000160: 80de e3bd bce2 7bbd ad32 ca3d 7453 99bb
00000170: b507 343d 6892 043e 3c18 f23d 56e1 d33d
00000180: 787d cebd afe6 023d 3e08 cb3d 115e 10bd
00000190: e655 0dbd 7469 8cbc 3010 413d 4a3c b63d
000001a0: cff3 ebbd 5cf0 3ebd 8c4a cb3c d704 853d
000001b0: 5cb8 733d a7c2 fa3d 2ab3 19bd f70c a6bd
000001c0: 75a1 8bbd 99ba 173e cb3f ccbd 13f7 29bd
000001d0: 6205 163e 8671 82bc 210b afbd 0222 e63d
000001e0: 721c cd3d 8f8c f63d 4270 283e 76b9 e63c
000001f0: a806 a3bc 3ba4 ab3c 5105 dd3d 0fc5 cdbd
00000200: 73c1 cb3b a7e4 813d d9aa aabd 1aad d93d
00000210: da7a 973b ccc4 eb3d 31c2 d4bd 1450 a63c
00000220: 40f6 3e3d 3316 553d cde7 5fbd 1721 cfbd
00000230: 09d8 76bd 08ad cc3c dbbf fabd ff10 cebd
00000240: 1d45 82bd f507 283d 151b 073e 2feb b6bc
00000250: 62b3 0abd ba55 d3bc a39a 643c 4b3d 92bd
00000260: d406 b7bd 9755 0bbd 61e4 ddbc 46bd 443d
00000270: 9e04 fd3d 4c33 89bd daca eebd d8dc aabc
00000280: d87b 19bd 9f54 65bd 2fc0 9dbd c43a 913b
00000290: 947a 0a3c 6e38 6ebd 9eff a0bc 56e2 9e3d
000002a0: d019 0fbd f692 37ba fb78 033e 5a99 f33c
000002b0: e16a 73bd 2201 063e 2e30 eabd a981 153c
000002c0: 60e2 2c3d b24e d9bc e3ec 003e 5033 1bbe
000002d0: 13c2 24bc cd35 f53b 9cf1 6f3d 4c8d ed3d
000002e0: c265 bfbd 3c2c bbbd 5187 0cbe fb26 673d
000002f0: 7715 943d 9deb febd 6b43 58bd 4f27 88bd
00000300: b8aa 503d 9fbf 3fbc c495 0c3e f158 13bd
00000310: a838 27be 5cf0 ae3c 426a ef3d ed67 123e
00000320: a9c8 7abd c4a6 4e3d 2a9a 45bd 8f69 9a3d
00000330: fc9a 083c 1c09 c6bc 5b98 073e 0088 aa3c
00000340: 1bf6 00bd eb61 0dbd 39b9 143e fa2c e93d
00000350: 4d99 993d 4824 d6bc 984d 07be 2c77 2dbd
00000360: 1800 01be d039 adbc ab17 113e f834 25be
00000370: a1b4 ccbd f9d6 c1bd 2085 c0bd 5b95 e3bd
00000380: 3558 883d c23d 133d 2bf7 e83d 11f7 203d
00000390: f71d ad3d f1da 97bd 85c4 0f3e 9508 68bd
000003a0: d380 f9bd 4575 09be 4a2d 1cbe 2bc7 d2bd
000003b0: 849c 923d 2b90 0cbd 41cd 113d f414 15be
000003c0: de2e 4c3c 5d95 babd 5fbb ab3d 81f7 f03d
000003d0: 1ea1 1d3e 15bb 75bd 0b84 c73d fd27 a13d
000003e0: 98d4 c23c 0f42 76bd 687b e83d a8aa 083e
000003f0: ddc5 84bd 92a4 16be 496d aebd 68fe 923d

fc1.bias f4 [128]
-0.00018298041 0.002956545 8.011152e-05 0.00087218184 -0.002291979 0.00030322603 0.0024181139 0.003315397
0.0011024155 2.7921282e-05 -0.0005421257 -0.0013145158 -0.00530172 0.00063701195 -0.0001819698 0.0005991198
-0.003245502 0.00078457734 -0.00040011175 0.00028303548 0.000909897 -0.0036706983 -0.002001214 -0.0031677647
-0.0012007917 0.0009824537 0.00042999067 0.0034989596 -0.002346469 0.0016221801 -0.0034731808 -0.0015274347
-0.0014156725 -0.0028980488 -0.0016913738 0.0030409654 -0.00077777787 0.0013840488 -0.00045422112 -0.00165168
0.0015276199 0.0034678902 -0.001959197 -0.0025290528 0.0037630321 -0.004885977 0.0025390312 -0.0006126876
-0.004196549 -0.001616826 0.001988148 0.001763476 0.00081504445 -0.0011523366 0.0004038628 0.0014164544
-0.0005266182 -0.0020731962 -0.0037684015 -0.0019916801 -0.0013850164 -0.00032841982 0.0012490992 -2.0543463e-05
-0.002435194 -0.0011060705 0.00010126339 -0.0015864377 -0.0006150913 -0.000931783 -0.00047330515 0.0008013816
-0.0060927784 0.0016453426 0.0005214156 0.0008166724 0.004302388 -0.0038232387 -0.0037794933 0.0027678562
0.003024946 -0.0008579574 -0.0059283897 -0.0020439771 0.0006940166 -6.862578e-05 4.061068e-05 0.0019270723
0.002365154 -0.00025865174 0.00066747796 0.0006039658 0.0005951812 0.000117634205 0.0003528399 0.002589807
-0.0029016512 0.0025131146 0.00021701265 -0.0017811497 -0.0007410901 6.0394756e-05 0.0038371421 -0.0020889656
0.0014922086 -0.0034296592 0.0030277513 0.00083343533 -0.003415926 0.000163067 -0.0027747734 0.0017341996
-0.0026787268 -0.0014015076 0.0012652413 -0.00236374 -0.001677562 -0.00031515842 0.0039343266 -0.0013918036
0.00012048961 0.0021836252 -8.2447616e-05 -0.0008022496 3.488161e-05 0.003321055 -0.002535343 -0.003838482
00000000: 6ede 3fb9 98c2 413b 8b01 a838 22a3 643a
00000010: 0735 16bb 4ffa 9e39 3879 1e3b 2247 593b
00000020: ed7e 903a 7f38 ea37 711d 0eba d54b acba
00000030: 0dba adbb 26fd 263a 25cf 3eb9 400e 1d3a
00000040: 7db2 54bb 18ac 4d3a 17c6 d1b9 6164 9439
00000050: 2786 6e3a 1990 70bb cd26 03bb 469a 4fbb
00000060: e263 9dba adc5 803a 5f70 e139 cd4e 653b
00000070: 38c7 19bb 559f d43a 4e9e 63bb 3434 c8ba
00000080: 168e b9ba 31ed 3dbb 16b1 ddba ef4a 473b
00000090: cae3 4bba f968 b53a 8724 eeb9 2f7d d8ba
000000a0: 6b3a c83a 8b45 633b df65 00bb 77be 25bb
000000b0: 349d 763b 8c1a a0bb e065 263b c59c 20ba
000000c0: 3483 89bb aeeb d3ba 974b 023b 6f24 e73a
000000d0: b5a8 553a 000a 97ba 8cbd d339 53a8 b93a
000000e0: c00c 0aba 76de 07bb 49f7 76bb d986 02bb
000000f0: 7089 b5ba c32f acb9 d0b8 a33a c054 acb7
00000100: c797 1fbb 91f9 90ba 5e5d d438 04f0 cfba
00000110: 143e 21ba e642 74ba f125 f8b9 cf13 523a
00000120: eea5 c7bb 89a8 d73a 9caf 083a f515 563a
00000130: 0cfb 8c3b 4d8f 7abb 60b1 77bb ec64 353b
00000140: 2c3e 463b 8ce8 60ba f042 c2bb 3ff4 05bb
00000150: aaee 353a 2feb 8fb8 6355 2a38 d195 fc3a
00000160: b300 1b3b a69b 87b9 b0f9 2e3a 7553 1e3a
00000170: ef05 1c3a 62b2 f638 5ffd b839 c0b9 293b
00000180: a129 3ebb 11b3 243b e48d 6339 7775 e9ba
00000190: b745 42ba 6050 7d38 9078 7b3b 07e7 08bb
000001a0: 3696 c33a 22c4 60bb 3d6d 463b e67a 5a3a
000001b0: badd 5fbb f7fc 2a39 f9d8 35bb 154e e33a
000001c0: 948d 2fbb cbb2 b7ba 74d6 a53a fae8 1abb
000001d0: a4e1 dbba d93b a5b9 86eb 803b 2e6d b6ba
000001e0: 5eaf fc38 271b 0f3b bae7 acb8 0f4e 52ba
000001f0: d84d 1238 0fa6 593b ff27 26bb 0b8f 7bbb

bn1.weight f4 [128]
0.98377335 0.9922486 1.0099247 1.0071377 1.006526 0.98760283 1.0203583 0.9518296
1.0030699 1.0052851 1.0206312 1.0089145 1.0182022 1.0036353 1.0048101 1.0136011
0.9960261 0.99096644 0.99423695 1.0029725 0.98956597 1.0138332 1.0201985 1.0112191
1.0038917 1.0077095 0.9902617 1.0037558 1.0143263 0.99133337 0.9942471 0.98985445
1.0139211 0.9928896 1.0092661 0.9817517 1.0052675 1.0083181 0.986463 0.9856373
0.99531937 0.98663485 1.0170621 1.0190264 0.993458 1.0165874 1.0035919 0.97871715
1.0097016 0.99230814 1.0030383 1.0040282 0.9920695 1.0057435 1.0245749 0.9966645
0.98774207 1.0085711 0.9836652 1.0174476 1.001426 1.0092137 1.0070931 0.99889207
1.0073698 0.9971628 1.0005846 1.0084758 1.004449 0.9936227 1.0022253 0.97940785
1.0252573 1.0058037 1.0044252 0.9912949 0.9795144 1.0090072 0.9951406 0.99270177
0.99652135 0.9984204 1.0238773 1.0330728 1.0014648 1.0169595 0.9989151 1.0020485
0.992077 0.98749423 0.98981524 1.0027694 0.9982162 0.9784166 1.0038158 0.972309
0.9990033 0.9796151 0.993446 1.0032228 0.9969533 1.0068334 0.9961742 1.018899
1.0184865 0.99564445 0.9798102 0.9887934 0.9976973 1.0136006 1.025728 0.98908126
0.98600006 0.99576664 1.000779 0.9823605 1.0156474 0.9973582 0.97593474 0.976095
0.9987967 0.9868121 0.99063563 1.0116624 1.0018264 1.0043908 1.006913 1.0130094
00000000: 92d8 7b3f 0104 7e3f 3645 813f e3e9 803f
00000010: d8d5 803f 8ad3 7c3f 1a9b 823f 1bab 733f
00000020: 9864 803f 2fad 803f 0ba4 823f 1c24 813f
00000030: 7354 823f 1f77 803f 9e9d 803f aebd 813f
00000040: 91fb 7e3f faaf 7d3f 5086 7e3f 6761 803f
00000050: 3254 7d3f 49c5 813f dd95 823f a16f 813f
00000060: 867f 803f a0fc 803f ca81 7d3f 127b 803f
00000070: 72d5 813f 06c8 7d3f fa86 7e3f 1a67 7d3f
00000080: 2bc8 813f 032e 7e3f a22f 813f 1454 7b3f
00000090: 9bac 803f 9110 813f d788 7c3f ba52 7c3f
000000a0: 40cd 7e3f 1a94 7c3f 172f 823f 756f 823f
000000b0: 4353 7e3f 891f 823f b375 803f 358d 7a3f
000000c0: e73d 813f e807 7e3f 8f63 803f ff83 803f
000000d0: 44f8 7d3f 34bc 803f 4525 833f 6825 7f3f
000000e0: aadc 7c3f dc18 813f 7cd1 7b3f b93b 823f
000000f0: ba2e 803f ea2d 813f 6de8 803f 64b7 7f3f
00000100: 7ef1 803f 1046 7f3f 2813 803f bc15 813f
00000110: c991 803f 0f5e 7e3f eb48 803f 79ba 7a3f
00000120: a23b 833f 2dbe 803f 0191 803f 81c5 7d3f
00000130: 75c1 7a3f 2627 813f 89c1 7e3f b421 7e3f
00000140: 061c 7f3f 7b98 7f3f 690e 833f bb3b 843f
00000150: 0030 803f bb2b 823f e6b8 7f3f 2043 803f
00000160: c2f8 7d3f 6ccc 7c3f 8864 7d3f bf5a 803f
00000170: 198b 7f3f 8379 7a3f 097d 803f 3ee9 783f
00000180: aebe 7f3f 0ec8 7a3f 7a52 7e3f 9b69 803f
00000190: 5538 7f3f ebdf 803f 4605 7f3f 486b 823f
000001a0: c45d 823f 8ee2 7e3f d7d4 7a3f 9021 7d3f
000001b0: 1769 7f3f aabd 813f 0e4b 833f 6e34 7d3f
000001c0: 806a 7c3f 90ea 7e3f 8719 803f fa7b 7b3f
000001d0: bc00 823f de52 7f3f dcd6 793f 5de1 793f
000001e0: 24b1 7f3f b89f 7c3f 4c9a 7d3f 277e 813f
000001f0: d93b 803f e18f 803f 86e2 803f 4baa 813f

bn1.bias f4 [128]
-0.006038378 -0.0049514095 0.0029424669 0.0027933903 0.01037214 -0.002231065 0.0054238387 -0.024116762
0.0060614576 0.0003863241 0.030640373 0.0065969476 0.021586763 0.0028102985 0.0045778295 0.009279588
-0.00718529 -0.013368271 -0.005179961 0.0030232777 -0.0054851314 0.008617674 0.0144858 0.0058754273
-0.00259895 0.002112505 -0.008489501 -0.0067749857 0.0058836536 -0.013338509 0.002372952 -0.017404001
0.020503031 0.0041116504 0.0090468405 -0.010053825 -0.00081996 -0.0013540323 -0.009042363 -0.015251658
-0.0092684 -0.005642251 0.011229595 0.017163033 -0.007178214 0.008190135 -0.0076134354 -0.024162717
0.0061361194 -0.0020719487 -0.0043293997 0.00039157656 -0.009178475 0.009915078 0.020374274 0.0107100895
-0.0051470962 0.011844014 -0.0036494115 0.020777054 0.003599165 0.0071264384 -0.0003423642 0.0020447674
0.0149003 -0.0074959537 0.001057905 0.008849771 0.0035033242 0.004226014 0.006463257 -0.027589038
0.024569232 0.006000862 -0.0043945587 -0.0135256555 -0.029272158 0.0061069503 -0.00026332063 -0.0012088389
-0.015093154 0.00778441 0.020203393 0.021097684 0.0060996087 0.018018372 0.00096527365 -0.009390669
-0.00478477 -0.0042780517 -0.012580963 -0.0020521658 -0.008490384 -0.014396604 0.003139258 -0.017341625
-0.00101854 -0.018640362 -0.00035451545 0.0023106365 0.003765037 0.008280221 -0.00929657 0.01679118
0.023345746 -0.00507991 -0.020129832 -0.009547644 -0.00026550228 0.01041501 0.014954413 -0.0062464722
-0.006635508 0.0025291517 -0.00342902 -0.021838866 0.013086816 0.0005638688 -0.029344965 -0.021308236
0.0053138295 -0.014587343 0.000113874106 0.022182357 0.003514765 -0.0034396134 0.0055447854 0.005767095
00000000: 96dd c5bb 6f3f a2bb 67d6 403b 5011 373b
00000010: e9ef 293c 0f37 12bb 75ba b13b 8490 c5bc
00000020: 319f c63b 8b8b ca39 8501 fb3c 352b d83b
00000030: b9d6 b03c fc2c 383b 9e01 963b 6a09 183c
00000040: 9572 ebbb 9806 5bbc aabc a9bb 2f22 463b
00000050: 9ebc b3bb 2531 0d3c d955 6d3c a886 c03b
00000060: 2553 2abb f471 0a3b 8c17 0bbc b300 debb
00000070: aacb c03b c389 5abc 8783 1b3b d692 8ebc
00000080: f9f5 a73c 06bb 863b 3339 143c ccb8 24bc
00000090: 96f2 56ba c979 b1ba 6b26 14bc 17e2 79bc
000000a0: 7dda 17bc a2e2 b8bb 56fc 373c 7d99 8c3c
000000b0: 3937 ebbb ea2f 063c 207a f9bb e4f0 c5bc
000000c0: 8011 c93b 88c9 07bb a3dd 8dbb 844c cd39
000000d0: 5061 16bc da72 223c f3e7 a63c 5f79 2f3c
000000e0: f9a8 a8bb 650d 423c f72a 6fbb a434 aa3c
000000f0: f8df 6b3b e684 e93b 587f b3b9 8101 063b
00000100: 6320 743c 9ea0 f5bb 67a9 8a3a a1fe 103c
00000110: 0798 653b 607a 8a3b bbc9 d33b 6802 e2bc
00000120: 6a45 c93c e1a2 c43b 3b00 90bb b69a 5dbc
00000130: 2acc efbc d01c c83b 4c0e 8ab9 e771 9eba
00000140: 4749 77bc 5d14 ff3b 9681 a53c 0dd5 ac3c
00000150: 3adf c73b 449b 933c 6b0a 7d3a 52db 19bc
00000160: 8fc9 9cbb e62e 8cbb 6220 4ebc a17d 06bb
00000170: 401b 0bbc bcdf 6bbc 02bc 4d3b 0610 8ebc
00000180: 8880 85ba acb3 98bc 42de b9b9 0c6e 173b
00000190: d7be 763b c4a9 073c a450 18bc a88d 893c
000001a0: 943f bf3c 6075 a6bb 51e7 a4bc b96d 1cbc
000001b0: 1d33 8bb9 b8a3 2a3c 5b03 753c 35af ccbb
000001c0: ad6e d9bb 20c0 253b 69b9 60bb 6ce7 b2bc
000001d0: 166a 563c 98d0 133a da64 f0bc 9c8e aebc
000001e0: a21f ae3b c0ff 6ebc b2cf ee38 c6b7 b53c
000001f0: f957 663b 236b 61bb 08b1 b53b e6f9 bc3b

bn1.running_mean f4 [128]
-0.50321454 0.13149138 0.48959845 -0.38623893 -0.49101463 -0.6984306 0.17279334 -0.7846606
-0.16790396 0.53822243 -0.08223134 0.17429844 -0.3369118 0.35714287 -0.5206596 -0.22686012
0.1721315 -0.03578305 -0.273313 -0.35773468 0.2911303 0.26240104 -0.78571606 0.3652772
0.4209278 0.5055157 0.21079203 -0.36972335 -0.023783566 -0.43871665 -0.40436214 0.11205985
-0.016763799 -0.33686066 -1.0346221 -0.45095733 0.17138301 0.03774801 -0.59074557 0.56918657
0.43257388 0.8580513 -0.33067632 -0.47236723 -0.529297 -0.27473298 -0.03467119 0.70979184
0.34987682 -1.1555557 0.57977706 -0.36739358 0.04077158 -0.72670156 -0.07135167 -0.00081796414
-0.53443235 -0.9044531 -0.25517678 -0.709683 0.20318834 0.105624124 0.2171863 0.28747872
-0.31194898 -0.7717305 -0.54497325 -0.11866502 0.20281833 -0.4002226 -0.26325807 -0.8564947
-0.73430693 0.22538525 0.25831276 0.20409544 -0.10121464 -0.19736284 0.21852112 0.5900772
-0.12879395 -0.115406536 -0.94522035 -0.19230664 0.046031125 0.28803882 1.0251789 -0.09273296
0.080936514 -0.6619148 0.01809693 -0.71747625 0.22315462 0.48066244 0.8643064 0.34998056
0.6272939 0.06323334 -0.3116042 0.18752162 -0.48789543 -0.037404228 0.18526468 0.41718012
0.1291958 0.21698181 0.03888683 -0.62716305 -0.81151813 -0.82307976 0.3706236 0.101847194
0.29176736 -0.7266207 0.20050754 0.5247624 0.8907672 0.44068658 0.055204574 -0.43718433
-0.7861072 0.65516806 0.16108176 -0.4879623 -0.38797835 0.045153003 -0.24018611 -0.5662026
00000000: abd2 00bf ada5 063e a6ac fa3e 1cc1 c5be
00000010: 4566 fbbe 59cc 32bf bdf0 303e 84df 48bf
00000020: 04ef 2bbe f2c8 093f e868 a8bd 4a7b 323e
00000030: b47f acbe 6edb b63e f349 05bf 054e 68be
00000040: 3d43 303e 3f91 12bd aeef 8bbe 0029 b7be
00000050: 080f 953e 6e59 863e b024 49bf 9d05 bb3e
00000060: d983 d73e 7a69 013f ded9 573e 614c bdbe
00000070: c1d5 c2bc 789f e0be 8e08 cfbe a27f e53d
00000080: 3c54 89bc 0079 acbe 7f6e 84bf e1e3 e6be
00000090: 077f 2f3e a89d 1a3d 1a3b 17bf 36b6 113f
000000a0: 537a dd3e 40a9 5b3f 684e a9be 1eda f1be
000000b0: 0280 07bf cda9 8cbe 6103 0ebd ebb4 353f
000000c0: 0e23 b33e 40e9 93bf 456c 143f 031b bcbe
000000d0: 1a00 273d 1d09 3abf d320 92bd a56c 56ba
000000e0: 8fd0 08bf 3d8a 67bf 88a6 82be c9ad 35bf
000000f0: 9b10 503e 7651 d83d 1666 5e3e 6930 933e
00000100: c7b7 9fbe 2190 45bf 5e83 0bbf a506 f3bd
00000110: 9caf 4f3e fae9 ccbe c3c9 86be 3d43 5bbf
00000120: 8afb 3bbf 64cb 663e 9241 843e 65fe 503e
00000130: 9f49 cfbd 7c19 4abe 00c4 5f3e 4d0f 173f
00000140: 90e2 03be 435a ecbd f6f9 71bf 08ec 44be
00000150: 228b 3c3d d379 933e 1039 833f c7ea bdbd
00000160: 0bc2 a53d 4073 29bf 0340 943c 86ac 37bf
00000170: a582 643e 6319 f63e 2f43 5d3f a730 b33e
00000180: 5596 203f 7b80 813d 968a 9fbe ab05 403e
00000190: 6ecd f9be 2d35 19bd 06b6 3d3e a298 d53e
000001a0: e74b 043e 7b30 5e3e cc47 1f3d c28d 20bf
000001b0: a7bf 4fbf 5bb5 52bf 60c2 bd3e 4395 d03d
000001c0: 8862 953e d003 3abf d951 4d3e d456 063f
000001d0: 5209 643f aca1 e13e 311e 623d a0d6 dfbe
000001e0: 523e 49bf 18b9 273f 9ef2 243e 32d6 f9be
000001f0: 19a5 c6be 5bf2 383d 59f3 75be a7f2 10bf

bn1.running_var f4 [128]
4.3730645 1.9274776 4.1546035 3.6530545 4.6269717 8.5192375 4.293459 5.318915
4.610034 6.058339 3.957688 2.8977282 1.8106074 3.6641667 2.1257613 2.4018161
5.4061112 1.1003871 3.325726 2.6032705 2.0877185 4.6237564 6.566698 3.2380176
2.0189319 3.8333695 3.92551 1.0531657 1.8516041 3.0818217 4.067865 1.760591
3.930523 1.7357783 4.9480653 3.3651981 3.303746 2.5866892 4.1905637 6.0667677
4.7462225 4.0845323 3.6480417 4.330376 4.765143 2.7322037 3.5521066 3.8480177
5.732763 2.7550037 3.3108563 1.1013355 2.1486294 3.5686119 3.1715431 2.525734
3.9158785 4.5482273 4.2926865 3.4872947 5.3204584 3.6903715 2.7904167 4.811206
5.699269 4.2680764 4.2934375 3.6480162 4.3703923 6.278212 2.0574052 5.312654
3.8468463 3.4743867 5.638119 5.6102386 4.9697533 2.962269 5.433308 7.2140007
3.6776505 3.2093785 3.6117158 2.22983 5.680901 3.4522145 8.444429 2.3076441
3.0692682 8.812039 3.96493 3.6510868 4.4285717 2.106467 6.0375957 5.2814054
1.2919863 2.324279 1.8732342 6.9257164 5.3407593 2.850798 4.1826406 4.302318
1.265484 3.95069 2.812526 3.1541362 4.3643517 2.4327273 6.5087023 2.6841047
1.7953919 3.9436831 2.2532718 1.6324075 5.411534 9.508757 2.957452 6.7862062
2.8593216 5.7558203 4.3394613 4.2154164 5.598307 2.6475775 3.7755532 3.2168753
00000000: 25f0 8b40 96b7 f63f 83f2 8440 a5cb 6940
00000010: 2710 9440 cc4e 0841 0464 8940 8d34 aa40
00000020: 6685 9340 eadd c140 c34a 7d40 6174 3940
00000030: fcc1 e73f b581 6a40 790c 0840 5bb7 1940
00000040: ddfe ac40 7cd9 8c3f b2d8 5440 fc9b 2640
00000050: 2e9d 0540 d0f5 9340 6422 d240 ae3b 4f40
00000060: 2e36 0140 ed55 7540 8e3b 7b40 22ce 863f
00000070: 5d01 ed3f 913c 4540 f32b 8240 0c5b e13f
00000080: b08d 7b40 fc2d de3f 8d56 9e40 685f 5740
00000090: 9370 5340 518c 2540 1919 8640 f622 c240
000000a0: 0ee1 9740 7db4 8240 8479 6940 7192 8a40
000000b0: 0d7c 9840 6ddc 2e40 b755 6340 ec45 7640
000000c0: cb72 b740 fb51 3040 12e5 5340 90f8 8c3f
000000d0: 2583 0940 2364 6440 90fa 4a40 a0a5 2140
000000e0: c19d 7a40 148b 9140 b05d 8940 d62f 5f40
000000f0: 3241 aa40 0c2f 6c40 3096 3240 66f5 9940
00000100: 6960 b640 1594 8840 d763 8940 1979 6940
00000110: 41da 8b40 1de7 c840 87ac 0340 4301 aa40
00000120: bb32 7640 5a5c 5e40 796b b440 1387 b340
00000130: 3808 9f40 d195 3d40 a9dd ad40 18d9 e640
00000140: a05e 6b40 7566 4d40 5a26 6740 89b5 0e40
00000150: f1c9 b540 15f1 5c40 621c 0741 71b0 1340
00000160: e46e 4440 1dfe 0c41 6ac1 7d40 68ab 6940
00000170: dcb6 8d40 5bd0 0640 fc33 c140 4601 a940
00000180: cf5f a53f fdc0 1440 23c6 ef3f 789f dd40
00000190: 80e7 aa40 7973 3640 31d8 8540 97ac 8940
000001a0: 61fb a13f 1bd8 7c40 6d00 3440 5edd 4940
000001b0: c5a8 8b40 ceb1 1b40 4a47 d040 5fc8 2b40
000001c0: 67cf e53f 4e65 7c40 9b35 1040 bbf2 d03f
000001d0: 492b ad40 de23 1841 e546 3d40 9a28 d940
000001e0: 20ff 3640 ae2f b840 dedc 8a40 b1e4 8640
000001f0: 5525 b340 e971 2940 aaa2 7140 49e1 4d40
