models/classifiers/MLP2_HUMAN_AE1BERTtuned_att_txt_bm.pth (torch, 243906 bytes, 34 tensors)

embedding_proj.weight f4 [96, 96]
-0.08716909 0.042277645 0.3181192 0.07786827 0.21515724 -0.14181443 0.11861292 0.142859
-0.05001028 0.049888097 0.035704657 0.011763068 -0.06958903 0.023554059 -0.15526907 0.1456385
0.16475804 0.07230573 0.04781712 -0.1612417 -0.06120236 0.12706432 0.273973 0.005364953
0.036166675 -0.1596377 0.024919663 -0.05981131 0.07517385 -0.023486448 -0.20372707 0.09105562
0.006365738 0.019813806 -0.18439855 -0.0061034937 -0.11411067 -0.17821139 -0.17955577 -0.12026643
0.08976255 0.13480236 0.053891756 -0.11792383 0.030109342 -0.14500117 -0.06717494 0.06198703
0.020859297 0.01649764 0.048926897 -0.043821603 0.044550646 -0.047425684 0.13112955 0.007355294
0.21608733 -0.118852615 0.08093253 -0.043522295 -0.048812687 -0.036073547 -0.03249448 0.18008246
0.0884286 0.13687326 0.2195974 -0.028314048 0.03708229 -0.11059476 -0.12329062 0.17292763
-0.06655155 0.036737803 0.10705605 0.080233075 0.2791816 0.12593763 -0.021355405 0.028868573
-0.11756282 -0.026412908 0.06526477 -0.03583328 -0.10330189 0.08121231 0.043771558 -0.1815459
-0.053244837 0.2442692 -0.10127771 0.14265494 0.0068212817 0.18629506 -0.10178447 0.122000985
-0.10524526 0.14089492 -0.13851151 0.07758654 -0.019280188 -0.11486217 0.1180679 0.22349246
0.0108474 0.18981843 0.07893206 0.047298312 0.0129521815 0.14805093 -0.12559283 -0.10093861
-0.041294813 0.010000431 -0.12073188 -0.20199724 0.13690138 0.109958455 0.009900889 0.20756613
0.03969254 -0.13788225 -0.07180706 -0.004635698 -0.0790271 -0.001864527 0.039444096 0.07809372
-0.15845664 -0.009553094 -0.14774518 -0.28562182 0.115539424 0.13516878 -0.13298807 0.10326316
-0.015301095 -0.14861128 -0.2204841 -0.012736609 -0.044325545 -0.10670403 0.04721806 -0.19954857
0.08309465 -0.102355234 0.17299299 -0.025089199 0.05293875 0.07934197 0.082123175 -0.11347873
-0.07885453 0.01885257 0.1936929 -0.03467077 -0.07381535 0.20634218 -0.017493589 -0.073905066
-0.045320626 0.025894813 -0.15147287 0.09328699 0.25446025 -0.07193698 -0.07564844 -0.07254174
0.09968999 0.15447308 -0.09566709 -0.07655011 -0.0015067483 -0.10042458 0.13068576 -0.03192817
-0.025008123 0.08769971 -0.17257771 -0.024693687 0.018882377 -0.05942855 -0.007323093 -0.013182735
-0.25191477 0.15638497 -0.17989428 -0.22107631 0.054057624 -0.12233859 0.030409206 -0.10953606
-0.018443258 0.22539134 0.15040825 -0.10395937 0.119837224 0.03417434 0.122861035 -0.09788372
0.057333507 0.010798821 0.0332159 0.14601155 -0.18084604 -0.07490811 -0.17950702 0.013750073
-0.10316841 0.14915249 -0.077176906 0.0057399445 0.0338428 0.139852 3.0478537e-05 0.13422987
0.025697686 -0.08856384 -0.09533445 -0.07648823 -0.09621064 0.00650327 -0.13853009 0.1523287
-0.03695816 0.15860772 0.07316385 0.13252574 0.074955665 -0.016087119 -0.006361432 0.122419715
0.0040016077 0.11122504 0.120188095 -0.15706643 0.17042837 0.0008526287 0.040110577 0.022712855
0.08054844 -0.09100112 0.07014746 0.14751379 0.06146563 -0.15934373 0.11868566 -0.1995951
-0.087824784 -0.11508054 0.06480254 0.02990432 -0.04357471 0.015356033 -0.081556655 0.16206314
00000000: b585 b2bd 532b 2d3d 85e0 a23e 6679 9f3d
00000010: 2e52 5c3e cd37 11be 55eb f23d a149 123e
00000020: 94d7 4cbd 7657 4c3d 0c3f 123d e2b9 403c
00000030: b284 8ebd 71f4 c03c dbfe 1ebe 4222 153e
00000040: 55b6 283e 0715 943d e2db 433d 8b1c 25be
00000050: 53af 7abd 261d 023e 3046 8c3e 7dcc af3b
00000060: 8223 143d 1178 23be 5224 cc3c b4fc 74bd
00000070: bff4 993d a766 c0bc d49d 50be 5e7b ba3d
00000080: ae97 d03b 9050 a23c f9d2 3cbe d1ff c7bb
00000090: dbb2 e9bd 0c7d 36be 78dd 37be 3f4e f6bd
000000a0: 6ed5 b73d a109 0a3e 9abd 5c3d 0d82 f1bd
000000b0: dea7 f63c 307b 14be 0493 89bd 1de6 7d3d
000000c0: 1ee1 aa3c 0f26 873c 9267 483d 487e 33bd
000000d0: bd7a 363d 6f41 42bd d346 063e ae04 f13b
000000e0: ff45 5d3e 0069 f3bd f4bf a53d 6f44 32bd
000000f0: d0ef 47bd dbc1 13bd ef18 05bd 8967 383e
00000100: 0e1a b53d 8128 0c3e 24de 603e ddf2 e7bc
00000110: 99e3 173d 817f e2bd cb7f fcbd f113 313e
00000120: 2e4c 88bd 617a 163d 3440 db3d 3d51 a43d
00000130: e4f0 8e3e cbf5 003e 88f1 aebc c97d ec3c
00000140: c7c4 f0bd e25f d8bc 89a9 853d ebc5 12bd
00000150: f18f d3bd a452 a63d ce49 333d 2be7 39be
00000160: 4217 5abd b521 7a3e b06a cfbd 2314 123e
00000170: 0f85 df3b 22c4 3e3e 6074 d0bd a7db f93d
00000180: d48a d7bd c246 103e f6d5 0dbe b1e5 9e3d
00000190: 7cf1 9dbc db3c ebbd 95cd f13d 35db 643e
000001a0: 4bb9 313c c35f 423e 22a7 a13d e0bb 413d
000001b0: 6335 543c aa9a 173e 689b 00be e7b8 cebd
000001c0: c024 29bd d9d8 233c 4742 f7bd 5dd8 4ebe
000001d0: e02f 0c3e e631 e13d 5737 223c 378c 543e
000001e0: a594 223d 0131 0dbe 940f 93bd 0ee7 97bb
000001f0: f6d8 a1bd 2563 f4ba 2290 213d 9aef 9f3d
00000200: 7542 22be 9584 1cbc 834a 17be 063d 92be
00000210: ef9f ec3d af69 0a3e 062e 08be a37b d33d
00000220: 72b1 7abc 8e2d 18be 95c6 61be 36ad 50bc
00000230: b48e 35bd a487 dabd b967 413d 7656 4cbe
00000240: 872d aa3d 9f9f d1bd 1325 313e dd87 cdbc
00000250: 4dd6 583d 0b7e a23d 3230 a83d 8967 e8bd
00000260: 7c7e a1bd b470 9a3c 6e57 463e f002 0ebd
00000270: 812c 97bd 5d4b 533e b74e 8fbc 8a5b 97bd
00000280: 1fa2 39bd 5c21 d43c b41b 1bbe 400d bf3d
00000290: 9d48 823e b253 93bd 92ed 9abd c490 94bd
000002a0: 442a cc3d 312e 1e3e 1bed c3bd 4ec6 9cbd
000002b0: 157e c5ba 67ab cdbd 7dd2 053e 1dc7 02bd
000002c0: d6dd ccbc e89b b33d 36b8 30be 6a4a cabc
000002d0: 37af 9a3c 5a6b 73bd 8ef6 efbb 66fc 57bc
000002e0: f9fa 80be 6223 203e 3536 38be d461 62be
000002f0: 876b 5d3d a88c fabd ba1c f93c 7154 e0bd
00000300: 5116 97bc fdcc 663e 9f04 1a3e a6e8 d4bd
00000310: 386d f53d 65fa 0b3d 919e fb3d 4377 c8bd
00000320: 8ad6 6a3d 8aed 303c 650d 083d 0d84 153e
00000330: b42f 39be 6c69 99bd b0d0 37be fc47 613c
00000340: f649 d3bd 6ebb 183e ed0e 9ebd 2516 bc3b
00000350: bf9e 0a3d 5d35 0f3e 29ac ff37 8e73 093e
00000360: f483 d23c f560 b5bd b53e c3bd dca5 9cbd
00000370: 160a c5bd 6219 d53b d5da 0dbe 0efc 1b3e
00000380: 7161 17bd 106a 223e eed6 953d d4b4 073e
00000390: 5b82 993d 22c9 83bc 8f73 d0bb 30b7 fa3d
000003a0: eb1f 833b f4c9 e33d 2d25 f63d 06d6 20be
000003b0: c684 2e3e f282 5f3a fd4a 243d 4f10 ba3c
000003c0: 95f6 a43d cc5e babd 79a9 8f3d db0d 173e
000003d0: 62c3 7b3d 012b 23be 7811 f33d a862 4cbe
000003e0: 7bdd b3bd 59af ebbd 32b7 843d e8f9 f43c
000003f0: 657b 32bd df97 7b3c 2d07 a7bd e1f3 253e

embedding_proj.bias f4 [96]
0.0011427683 0.00061751343 6.946624e-05 0.0005312864 -0.0063298945 0.00031108115 -0.0014356415 -0.0004243421
-0.002293377 0.00014129771 -0.000890912 0.003976833 -0.006060403 -0.000894444 -0.001411139 -0.00039566492
-0.00015878378 -0.0020453306 0.00070102554 0.004496978 0.0030204204 -0.0050875177 -0.0004222591 0.00174013
1.3578122e-05 -0.0013934878 -0.002473523 0.0010185045 -0.0037405016 -0.0034927519 -0.0002955383 -0.002057533
-0.0033996722 -0.0034306801 -0.0031980842 9.8092845e-05 0.0006770603 0.001990915 0.0012633636 -0.0021611731
-0.0024632108 0.0030344655 -0.0001542787 0.0035409885 -0.0018326667 -0.0007905828 -0.0048497673 0.0060840114
-0.0023474232 0.0006594494 -0.0021913864 -0.00042652123 -0.0030690953 -0.0029824495 -8.484474e-05 0.0029748154
-0.0032767404 0.0030173846 -0.0004137026 -0.0034974 -0.00068341434 4.755538e-05 -0.0018805106 -0.0014296767
-0.0022467608 -0.00041720583 -0.0005760606 0.0026838242 -0.0011668953 -0.0010504934 0.00032361524 6.380134e-05
-0.0036689276 4.182269e-05 0.00045014967 0.0005897291 0.00045303916 0.0043773195 -0.0014215459 -0.0029892032
0.001981492 0.00018426798 0.0012526241 0.00079322903 0.0009627397 0.00049462914 -0.0011422752 -0.0017498289
0.0035261498 -0.0006359541 -0.010257935 0.0010094298 -0.0023129669 0.000880492 -0.00022495246 0.0011375686
00000000: f1c8 953a a0e0 213a 67ae 9138 0746 0b3a
00000010: 016b cfbb 9b18 a339 232c bcba 3c7a deb9
00000020: 7b4c 16bb 5129 1439 188c 69ba 1850 823b
00000030: 5896 c6bb 1f79 6aba f8f5 b8ba 3f71 cfb9
00000040: 327f 26b9 f40a 06bb 07c5 373a 635b 933b
00000050: 3ff2 453b 31b5 a6bb a862 ddb9 1315 e43a
00000060: 97cd 6337 b1a5 b6ba d41a 22bb 577f 853a
00000070: 3423 75bb a7e6 64bb 7bf2 9ab9 add7 06bb
00000080: 09cd 5ebb 43d5 60bb f396 51bb 32b7 cd38
00000090: bf7c 313a 037a 023b 7397 a53a 78a2 0dbb
000000a0: d26d 21bb e2dd 463b e0c5 21b9 ee0f 683b
000000b0: 1736 f0ba 1d3f 4fba ccea 9ebb 635c c73b
000000c0: 3ad7 19bb e6de 2c3a 5d9d 0fbb b69e dfb9
000000d0: e022 49bb 3375 43bb acee b1b8 1ff5 423b
000000e0: 95be 56bb 50bf 453b 39e6 d8b9 a334 65bb
000000f0: 2927 33ba 3376 4738 777b f6ba fd63 bbba
00000100: 643e 13bb 6bbc dab9 c602 17ba 19e3 2f3b
00000110: 82f2 98ba b6b0 89ba e7aa a939 15cd 8538
00000120: 6472 70bb c56a 2f38 1102 ec39 0d98 1a3a
00000130: e385 ed39 9e6f 8f3b 2a53 baba 82e6 43bb
00000140: ebdb 013b 0f38 4139 172f a43a b3f0 4f3a
00000150: 5e60 7c3a 00aa 013a 65b8 95ba 845a e5ba
00000160: fa16 673b 28b6 26ba e610 28bc d84e 843a
00000170: 2595 17bb d1d0 663a 37e1 6bb9 781a 953a

categorical_proj.weight f4 [17, 17]
0.38519013 0.38095748 -0.27238876 0.21416761 0.30751893 0.3257283 0.112155624 -0.62508166
-0.34440154 -0.44318235 0.17242816 -0.09682999 -0.40206146 0.31900772 -0.3427253 -0.002432019
0.08366882 0.53254527 -0.084998384 -0.1654125 0.33662158 0.13013208 -0.45374203 0.2238563
0.3889085 0.27094167 0.17115988 0.3865466 0.25481024 -0.14459872 0.24481708 0.051684022
0.039207514 -0.09767129 -0.4899588 0.13641308 -0.11300256 -0.23914143 -0.2122544 0.17710392
0.357696 -0.1772072 -0.51594186 0.082116194 -0.48484737 0.22263907 0.40644023 0.3471695
-0.25480014 -0.20078431 0.19103101 -0.26870078 0.3277571 0.05933457 0.16079593 0.05261141
-0.17622189 -0.02312563 -0.19250436 0.030874867 0.18170811 -0.86989594 0.027247533 0.1912462
0.33267993 0.19390781 0.14828587 0.061848145 0.5444949 -0.027082417 0.16679668 0.3010765
-0.36023775 -0.450631 -0.16134611 0.64532274 -0.12869701 0.44220656 0.022645283 0.33004168
0.08488096 -0.40339947 -0.1810328 0.047891386 0.4215449 0.31947333 0.05605493 -0.1048013
0.1526539 -0.13946909 0.13504097 0.3155514 0.22793214 -0.3280919 0.018772257 0.72323143
-0.30032098 -0.59830844 0.074815355 -0.44966695 -0.1397086 0.084276624 -0.3281985 -0.39082623
-0.09818117 0.30275264 -0.1553283 -0.064481996 -0.35732058 -0.50761664 -0.24767332 -0.33807716
-0.092984654 -0.15803362 0.047170587 -0.008211327 0.0031557307 0.3971377 0.08824346 -0.7295052
-0.073442064 -0.016638512 0.11099969 -0.00015879708 -0.1872317 0.24110109 0.18747027 0.07407975
0.17078951 -0.6930938 -0.19950604 0.663814 -0.29818457 0.17122626 0.3736087 0.022654045
0.11262914 -0.05613917 0.53748363 0.032827206 -0.049774572 -0.2148754 0.123990804 0.27692083
0.33695713 -0.09621405 0.101040594 0.12755552 0.46612164 0.101625025 0.13188897 0.16267549
0.39425087 -0.074358456 -0.2896602 0.17806561 -0.28256014 0.3232712 0.0112571195 -0.003287875
0.59333223 0.42230934 0.051715303 -0.074232884 -0.2059742 -0.50960827 -0.38255313 -0.28984255
0.009951851 -0.055993125 -0.09377452 -0.26432526 -0.014145393 -0.22000675 0.2111617 0.012250987
0.29568246 -0.2974177 0.38792554 0.22214256 -0.3919985 0.15819496 0.03048645 0.33310694
-0.23921886 -0.14907387 0.13670978 -0.6793518 -0.31567565 0.21852896 0.31481078 0.020734511
-0.35607472 -0.37332326 -0.24115868 0.29048717 0.28271338 -0.34148556 -0.070495754 0.007564099
0.26513332 -0.24452107 0.0037345232 0.16039285 0.13996571 0.11419547 -0.29803985 0.18844089
-0.10578595 0.4384243 -0.026807303 -0.21198751 0.47164264 0.03924572 -0.6959912 0.33873907
0.42367357 -0.106839664 -0.30261442 -0.14295156 0.25498235 -0.1515454 0.42193994 -0.50867635
0.10523708 0.39038306 0.25200948 -0.10792209 -0.33475354 -0.5401353 -0.26194075 -0.27686274
0.103103094 -0.076371364 -0.34923387 -0.32027555 0.25096363 0.18359773 0.12825526 -0.24093138
0.20238864 -0.20243138 0.17378525 0.39210114 0.22070776 -0.5949598 0.116480954 -0.31049785
-0.6202206 0.15256391 0.563083 0.23138693 -0.30221462 0.0032103017 -0.3603381 -0.052718546
00000000: a437 c53e dc0c c33e 8a76 8bbe c14e 5b3e
00000010: 1f73 9d3e dcc5 a63e d9b1 e53d 5a05 20bf
00000020: 6655 b0be cce8 e2be 0291 303e cd4e c6bd
00000030: 00db cdbe fb54 a33e b179 afbe 8262 1fbb
00000040: 8f5a ab3d e354 083f a213 aebd e561 29be
00000050: aa59 ac3e 5841 053e e050 e8be 963a 653e
00000060: 041f c73e deb8 8a3e 8944 2f3e 70e9 c53e
00000070: 7d76 823e b011 14be 54b1 7a3e a0b2 533d
00000080: 0f98 203d e307 c8bd e1db fabe dfaf 0b3e
00000090: e36d e7bd 7ee1 74be 3859 59be bb5a 353e
000000a0: ee23 b73e ce75 35be c414 04bf 892c a83d
000000b0: ea3d f8be 7ffb 633e ef18 d03e 33c0 b13e
000000c0: 2a75 82be 679a 4dbe a29d 433e 2693 89be
000000d0: c7cf a73e ce08 733d b0a7 243e 107f 573d
000000e0: 8373 34be f671 bdbc dd1f 45be 4aed fc3c
000000f0: b111 3a3e 80b1 5ebf 3836 df3c 0bd6 433e
00000100: 0655 aa3e c58f 463e 40d8 173e 7b54 7d3d
00000110: 0564 0b3f f2db ddbc c0cc 2a3e b326 9a3e
00000120: 1571 b8be 1bb9 e6be ea37 25be df33 253f
00000130: 26c9 03be e668 e23e 9a82 b93c 39fb a83e
00000140: 12d6 ad3d 608a cebe aa60 39be c229 443d
00000150: bcd4 d73e 0292 a33e db99 653d 10a2 d6bd
00000160: 4e51 1c3e fcd0 0ebe 2e48 0a3e f48f a13e
00000170: 0b67 693e a9fb a7be 47c8 993c b225 393f
00000180: acc3 99be be2a 19bf cb38 993d bf3a e6be
00000190: c50f 0fbe 3999 ac3d a209 a8be 601a c8be
000001a0: 3613 c9bd 6502 9b3e 620e 1fbe 230f 84bd
000001b0: b9f2 b6be 2af3 01bf 139e 7dbe 7318 adbe
000001c0: bd6e bebd 91d3 21be f235 413d cd88 06bc
000001d0: 60d0 4e3b a255 cb3e fdb8 b43d dac0 3abf
000001e0: cb68 96bd 7d4d 88bc ce53 e33d c482 26b9
000001f0: abb9 3fbe 34e3 763e 35f8 3f3e 20b7 973d
00000200: 72e3 2e3e 986e 31bf 504b 4cbe b7ef 293f
00000210: a6ab 98be f055 2f3e a449 bf3e fa94 b93c
00000220: 1baa e63d 30f2 65bd 8798 093f d275 063d
00000230: 6ce0 4bbd 4c08 5cbe e4ee fd3d 91c8 8d3e
00000240: a585 ac3e df0b c5bd 5fee ce3d ea9d 023e
00000250: 7fa7 ee3e c820 d03d e70d 073e 6794 263e
00000260: 40db c93e 3f49 98bd 574e 94be d556 363e
00000270: b9ab 90be cd83 a53e c86f 383c 6479 57bb
00000280: 9fe4 173f ee38 d83e 6dd3 533d 6907 98bd
00000290: e7ea 52be b075 02bf 01de c3be 3e66 94be
000002a0: 170d 233c 0c59 65bd db0c c0bd a455 87be
000002b0: 14c2 67bc 7349 61be c63a 583e 5db8 483c
000002c0: b163 973e 2247 98be 2d9e c63e 5779 633e
000002d0: 07b4 c8be dcfd 213e b8be f93c fe8c aa3e
000002e0: caf5 74be d2a6 18be a6fd 0b3e 00ea 2dbf
000002f0: 3da0 a1be 0ec6 5f3e e12e a13e 6cdb a93c
00000300: 6d4f b6be 3a24 bfbe 4df2 76be bcba 943e
00000310: cfbf 903e 32d7 aebe 1460 90bd 43dc f73b
00000320: 8ebf 873e bb63 7abe e7be 743b 063e 243e
00000330: 2c53 0f3e 51df e93d ae98 98be a6f6 403e
00000340: 4ea6 d8bd 2679 e03e fd9a dbbc 4113 59be
00000350: 257b f13e 1fc0 203d 7b2c 32bf 356f ad3e
00000360: beeb d83e c1ce dabd 47f0 9abe e561 12be
00000370: 0c8d 823e b82e 1bbe 8308 d83e 9d38 02bf
00000380: 8a86 d73d 4ae0 c73e 6307 813e 4206 ddbd
00000390: d164 abbe 4f46 0abf 191d 86be f4c0 8dbe
000003a0: b727 d33d 9768 9cbd c8ce b2be 28fb a3be
000003b0: 4e7e 803e 0b01 3c3e 5955 033e b7b6 76be
000003c0: f83e 4f3e 2c4a 4fbe c3f4 313e 7bc1 c83e
000003d0: 3701 623e 494f 18bf 918d ee3d 93f9 9ebe
000003e0: c7c6 1ebf b739 1c3e 3526 103f b2f0 6c3e
000003f0: e0bb 9abe ed63 523b 3c7e b8be 67ef 57bd

categorical_proj.bias f4 [17]
0.00072086445 0.007185831 7.295521e-06 0.005472745 0.0011078764 0.0024171476 -0.00020894781 -0.0016926734
0.0006293952 0.001493116 -0.00084053323 0.008401678 -0.005225806 6.659875e-05 -0.010073574 -0.0024081846
-0.0013890363
00000000: 65f8 3c3a 1f77 eb3b 0ccc f436 b654 b33b
00000010: 2a36 913a 0269 1e3b 0019 5bb9 b2dc ddba
00000020: fffd 243a a9b4 c33a 3b57 5cba 31a7 093c
00000030: 3d3d abbb efaa 8b38 a20b 25bc a2d2 1dbb
00000040: 5310 b6ba

combine_proj.weight f4 [128, 113]
-0.12147772 -0.06319156 -0.10313457 -0.106143005 0.001856752 0.027445003 0.036000382 0.15191987
0.05744384 0.029462148 0.00445906 -0.016927885 0.11215185 0.112329386 0.034118917 -0.15611058
0.02359235 0.1180126 -0.0275843 -0.096607186 -0.11236232 0.14736514 0.0040894267 -0.1322204
0.13012655 0.115676075 0.033229012 0.03901702 0.084468596 -0.07421653 0.05821894 -0.120332405
0.13419273 0.004764011 0.06638549 0.13164961 -0.12045644 0.0035270657 0.1111455 -0.1362222
0.06837324 0.1524993 -0.18283826 -0.039762072 -0.12198726 0.11772838 0.12260489 -0.13999806
-0.014597997 0.17385001 0.10377052 -0.022842204 0.044363927 -0.14540207 0.07925846 -0.12345561
0.18047859 -0.1974332 -0.03707557 0.11564695 0.15088442 -0.026565116 -0.06275829 0.03344924
-0.073999256 0.11752077 0.07674045 -0.15480821 0.13062349 0.06485297 -0.049376283 -0.07763224
-0.06834809 0.001344756 0.15622495 0.03760451 -0.18990706 -0.02092937 -0.12947354 -0.20746104
-0.03457051 -0.0075305747 0.09745894 -0.09643922 0.111047365 0.08417027 -0.063171715 -0.06482922
-0.1201815 -0.00609577 -0.023889672 0.15957554 -0.07328382 -0.18843396 0.1791515 -0.11955339
0.12959607 -0.07250719 -0.2961734 -0.0037361316 -0.18134081 0.034780085 0.10854135 0.021860994
0.012669077 0.2868119 -0.018578641 0.027828254 0.0019172162 -0.2038865 -0.067595035 -0.005254703
0.22314718 0.013560698 -0.14913028 -0.123096995 0.21900316 -0.20832238 -0.10185919 0.17697088
0.2202517 -0.0760327 -0.019573929 -0.1032864 -0.124137364 0.061802056 0.07274397 -0.0009541019
-0.09081745 0.14244357 0.03813911 0.0056058434 0.25412622 -0.076567985 -0.023106303 -0.12166041
0.1544002 0.18327852 -0.04584965 -0.030279836 -0.033852644 -0.18256186 -0.08106778 -0.047512274
-0.03483223 -0.15771538 0.27748826 0.022332491 0.054523308 0.005262941 0.123800695 0.013675074
0.2117621 -0.01682755 -0.080228664 -0.1911074 0.02082808 -0.13091601 0.066753924 -0.17381193
0.15168369 0.13678174 0.14778078 0.04746977 -0.15126595 0.033010777 0.16785802 0.07308741
0.1297144 -0.10453153 0.09195315 -0.06331261 -0.041685667 0.098711446 -0.10893125 0.003153866
0.036199413 0.1095649 -0.12416515 -0.034488954 0.003545376 -0.05693565 0.047255047 -0.14059368
-0.16646995 0.015407025 -0.10596019 0.07019279 -0.21552262 -0.06944793 0.17165759 -0.123642534
-0.099548 -0.078991674 0.050751537 0.17897378 -0.01218246 0.12167245 0.06408687 0.022965197
-0.17399573 -0.03700379 0.081447646 -0.049202863 -0.02232227 0.13723406 0.06815078 0.07777733
-0.08945342 -0.13745421 0.07266384 -0.025877967 0.13435443 0.1296042 -0.08533582 -0.18500748
0.15452336 0.014603461 0.24474297 0.077940196 0.08080256 0.04825479 -0.26892594 -0.29187545
-0.015082703 -0.24580558 -0.08267185 -0.21956252 0.012197704 0.08060627 0.05032419 0.099881224
-0.16750652 0.115044914 0.18326612 -0.05910999 -0.110760845 -0.091421746 0.18217969 -0.11176434
0.022331918 0.057808563 -0.015577365 0.07772831 -0.061482746 0.21477583 -0.11871057 0.13240634
-0.020317215 -0.16165648 0.170614 0.04276319 -0.018429812 -0.11255043 -0.06841883 -0.08938248
00000000: 50c9 f8bd 946a 81bd 3838 d3bd 8161 d9bd
00000010: 425e f33a 58d4 e03c 2375 133d e290 1b3e
00000020: 3b4a 6b3d 9a5a f13c 4e1d 923b 59ac 8abc
00000030: deaf e53d f30c e63d 47c0 0b3d 74db 1fbe
00000040: be44 c13c 97b0 f13d 78f8 e1bc fdd9 c5bd
00000050: 371e e6bd e3e6 163e 9900 863b c964 07be
00000060: e53f 053e 94e7 ec3d 251b 083d 50d0 1f3d
00000070: dffd ac3d d6fe 97bd fc76 6e3d d670 f6bd
00000080: d269 093e 6c1b 9c3b 1ef5 873d 28cf 063e
00000090: deb1 f6bd 5826 673b 40a0 e33d d57d 0bbe
000000a0: 4507 8c3d c728 1c3e f439 3bbe 8edd 22bd
000000b0: 75d4 f9bd 941b f13d 4618 fb3d a75b 0fbe
000000c0: 702c 6fbc bd05 323e a385 d43d 931f bbbc
000000d0: f3b6 353d 48e4 14be 4252 a23d 4bd6 fcbd
000000e0: 61cf 383e ee2b 4abe 8edc 17bd 4fd8 ec3d
000000f0: 7281 1a3e 169f d9bc 6b87 80bd 1202 093d
00000100: ec8c 97bd bbae f03d 192a 9d3d 0b86 1ebe
00000110: 2ac2 053e a2d1 843d c93e 4abd a7fd 9ebd
00000120: 15fa 8bbd 8642 b03a 6ff9 1f3e 3007 1a3d
00000130: ff76 42be 1274 abbc b694 04be ab70 54be
00000140: cf99 0dbd 0ac3 f6bb 8e98 c73d ed81 c5bd
00000150: cd6c e33d 7661 ac3d 2c60 81bd 2fc5 84bd
00000160: b821 f6bd 06bf c7bb 46b4 c3bc c567 233e
00000170: d415 96bd d5f4 40be 7e73 373e 68d8 f4bd
00000180: d5b4 043e a67e 94bd 0aa4 97be e3d9 74bb
00000190: 68b1 39be 9075 0e3d ed4a de3d d415 b33c
000001a0: f691 4f3c 02d9 923e 3c32 98bc 14f8 e33c
000001b0: 1a4b fb3a 9fc7 50be 446f 8abd a52f acbb
000001c0: b280 643e b12d 5e3c 9cb5 18be 471a fcbd
000001d0: 5d42 603e 7652 55be 8d9b d0bd db37 353e
000001e0: a989 613e 08b7 9bbd 8159 a0bc d287 d3bd
000001f0: bb3b febd 2724 7d3d cafa 943d b21c 7aba
00000200: 80fe b9bd badc 113e c137 1c3d 39b1 b73b
00000210: d51c 823e adcf 9cbd 6e49 bdbc 1829 f9bd
00000220: 161b 1e3e 5dad 3b3e d8cc 3bbd 6b0d f8bc
00000230: 12a9 0abd 7ff1 3abe dd06 a6bd 3b9c 42bd
00000240: 3eac 0ebd 2480 21be f112 8e3e a1f2 b63c
00000250: d553 5f3d c074 ac3b 388b fd3d 6b0d 603c
00000260: 2ad8 583e eed9 89bc ed4e a4bd a9b1 43be
00000270: a69f aa3c d90e 06be 48b6 883d c1fb 31be
00000280: f852 1b3e 8310 0c3e d853 173e a96f 423d
00000290: 76e5 1abe 4f36 073d f9e2 2b3e daae 953d
000002a0: dad3 043e a014 d6bd ef51 bc3d 0baa 81bd
000002b0: 97be 2abd 3a29 ca3d 5917 dfbd 17b1 4e3b
000002c0: d645 143d 9063 e03d 4c4a febd 4a44 0dbd
000002d0: 8a59 683b 5b35 69bd 828e 413d caf7 0fbe
000002e0: 1977 2abe bf6d 7c3c a801 d9bd 3dc1 8f3d
000002f0: f6b1 5cbe b73a 8ebd 02c7 2f3e 4c38 fdbd
00000300: d2df cbbd 63c6 a1bd d8e0 4f3d e744 373e
00000310: f198 47bc 682f f93d fa3f 833d 8221 bc3c
00000320: f02b 32be 4991 17bd 06ce a63d f188 49bd
00000330: 31dd b6bc 1687 0c3e a392 8b3d b949 9f3d
00000340: 5b33 b7bd ccc0 0cbe c8d0 943d 08fe d3bc
00000350: 3594 093e f7b6 043e 8cc4 aebd 9a72 3dbe
00000360: 5f3b 1e3e 5b43 6f3c e79d 7a3e 1c9f 9f3d
00000370: d07b a53d d1a6 453d a9b0 89be b370 95be
00000380: 711d 77bc 75b4 7bbe dc4f a9bd ffd4 60be
00000390: e1d8 473c e614 a53d bd20 4e3d 878e cc3d
000003a0: d486 2bbe ab9c eb3d 1daa 3b3e 511d 72bd
000003b0: 95d6 e2bd 533b bbbd 508d 3a3e b4e4 e4bd
000003c0: 6df1 b63c acc8 6c3d 3438 7fbc 0530 9f3d
000003d0: 55d5 7bbd 32ee 5b3e 871e f3bd 8795 073e
000003e0: 4a70 a6bc 4789 25be 70b5 2e3e 7428 2f3d
000003f0: 1efa 96bc d780 e6bd 2c1f 8cbd 290e b7bd

combine_proj.bias f4 [128]
-0.001675131 0.0031204284 0.00089429994 0.001316168 0.0009980184 -0.00038021937 -0.00065563 -0.003979535
0.00030426122 -0.0011960923 0.00010594862 -0.00054931187 0.00067919877 0.0012506598 -0.00025337387 0.0013474397
0.000537039 -0.00090923137 0.0020065587 0.00049965316 0.00028353775 -0.0006378303 -0.0010619186 0.002377836
-0.0013790319 -0.0005833147 0.00061386777 0.0010854747 -0.0006356392 0.0024007647 -0.0002754527 0.0030828551
0.0007795091 0.00073517545 0.0002774921 -0.00018454742 0.0015364205 -0.000583083 0.0024020318 -0.0015669045
-0.0014029028 -0.002003347 0.002212263 -0.0016200639 -0.0009206529 -0.0014413535 0.00022529218 0.0009414034
-0.0009828421 0.00086102675 -0.00013720854 0.0006207408 -0.0009633989 -1.536245e-05 -0.0014539282 -0.00027611223
-0.0034279795 0.0013269029 -0.00013021711 5.6689674e-05 0.00037836516 -0.0009806482 -0.00064512534 -9.5921554e-05
-0.0012202502 0.00013091705 -0.00026847096 0.0017015331 0.0021046042 0.0015988688 5.218913e-05 -0.0013614272
-0.001091111 -0.0019167216 0.0012188073 0.0013774491 -0.00035816323 0.00034463967 -0.0015021557 -0.0006946006
-0.000118670316 0.002373922 -0.00055109337 -0.0008294757 0.0025101455 0.0018791636 0.001071571 -1.732729e-05
-0.0009907972 -0.0016341046 -0.00097064103 -0.0005567891 0.00087290874 -0.0018513682 -2.6968311e-05 0.0058239056
0.001209434 -0.002327958 0.00072840514 -0.0008599522 -0.000607923 -0.0006840596 0.00034213177 0.0024912148
0.00053073827 0.0016690333 0.0013430923 -0.00199156 -0.0030455876 0.00085826474 4.62292e-05 -0.00014669535
-0.0004932477 -0.00080672046 -0.0007451919 0.00048078797 -0.00036514053 -0.0039056458 -0.00077354925 -0.00035606345
-0.0010005597 0.00017401467 0.0001415606 -0.0025407881 -0.00085352774 -0.00038687914 -0.00069455616 -0.00068331795
00000000: 1290 dbba 1a80 4c3b 746f 6a3a 4583 ac3a
00000010: f1cf 823a 2e58 c7b9 96de 2bba c266 82bb
00000020: 4085 9f39 33c6 9cba bb30 de38 b2ff 0fba
00000030: 420c 323a 2eed a33a 44d7 84b9 939c b03a
00000040: 14c8 0c3a 7c59 6eba 7880 033b 28fb 023a
00000050: cba7 9439 1134 27ba 1330 8bba 78d5 1b3b
00000060: a2c0 b4ba 96e9 18ba f8eb 203a 7d46 8e3a
00000070: 06a1 26ba 2656 1d3b a36a 90b9 ba09 4a3b
00000080: f857 4c3a cab8 403a 5c7c 9139 1283 41b9
00000090: b861 c93a 0ada 18ba 686b 1d3b 9760 cdba
000000a0: 9be1 b7ba 964a 03bb 9dfb 103b 5358 d4ba
000000b0: f857 71ba cceb bcba 693c 6c39 83c8 763a
000000c0: b5d2 80ba 87b6 613a a3df 0fb9 36b9 223a
000000d0: 9b8c 7cba 9cde 80b7 bc91 beba 28c3 90b9
000000e0: f4a7 60bb 79eb ad3a e48a 08b9 13c6 6d38
000000f0: 505f c639 1889 80ba a11d 29ba 7e29 c9b8
00000100: cdf0 9fba c746 0939 90c1 8cb9 fa05 df3a
00000110: 66ed 093b 2291 d13a a7e5 5a38 eb71 b2ba
00000120: 9c03 8fba 813a fbba 63c0 9f3a 868b b43a
00000130: dbc7 bbb9 c1b0 b439 fbe3 c4ba db15 36ba
00000140: a4de f8b8 cd93 1b3b 4077 10ba 2c71 59ba
00000150: 4181 243b 444e f63a f573 8c3a 125a 91b7
00000160: a3dd 81ba 742f d6ba 9e72 7eba 7cf5 11ba
00000170: ead3 643a 9ca9 f2ba 023a e2b7 76d6 be3b
00000180: df85 9e3a a790 18bb 71f2 3e3a 6a6e 61ba
00000190: 065d 1fba 7652 33ba 2660 b339 a643 233b
000001a0: 3e21 0b3a 77c3 da3a b30a b03a d584 02bb
000001b0: 7b98 47bb 2cfd 603a 3ae6 4138 3cd2 19b9
000001c0: 4b4d 01ba 187a 53ba fb58 43ba 4512 fc39
000001d0: 5570 bfb9 ddf5 7fbb 03c8 4aba 07ae bab9
000001e0: 3625 83ba b577 3639 e26f 1439 5a83 26bb
000001f0: 47bf 5fba 0ad6 cab9 e012 36ba b120 33ba

fc1.weight f4 [128, 128]
-0.036043372 -0.009378596 -0.13079351 0.053274292 -0.16605486 -0.10431895 0.14374898 -0.016968533
0.027142936 0.06813586 0.05470675 -0.054392733 0.116807394 0.174229 -0.1246474 0.021153446
-0.0038376774 0.008714843 -0.18314272 0.0069111935 0.19851662 0.1774546 0.07044979 -0.08914244
0.023559403 0.063803144 -0.057148516 -0.08352588 -0.14848657 0.0643339 -0.16732243 0.057594035
0.056389775 0.0521217 -0.05960669 -0.011557446 -0.11643653 0.09966471 0.07779257 -0.07932795
-0.0507243 0.117103696 0.082242 0.012801316 0.07927464 0.07607839 0.0794671 -0.005010675
0.13349208 0.20800024 -0.17934677 0.21630646 -0.15096451 0.038791426 -0.08835095 0.130434
-0.18939313 -0.13086751 0.12939298 0.03194591 0.053300977 -0.06411875 -0.09501815 -0.022109317
-0.07579564 -0.016462483 0.043563053 0.2461345 0.09919381 0.08276497 0.24110171 0.10971541
0.0074854963 0.05541806 -0.003969223 -0.03702161 -0.07071052 0.019121094 0.0406976 -0.1953205
0.107362434 0.12439563 0.09619038 0.023004208 0.085156195 0.0522931 0.18090084 -0.1323207
-0.027798869 -0.08421696 -0.11654115 0.044719666 -0.073656835 -0.050142672 0.027185367 0.14002147
0.018213369 0.15683289 -0.029893413 -0.06914284 0.07145645 0.076463446 0.0798963 0.1718967
0.095328696 -0.040516518 -0.023912935 0.07164006 0.14463587 -0.22494675 -0.07791848 -0.024773808
-0.06683192 0.07907555 0.030692667 0.22267982 -0.103787035 0.016947754 -0.08729928 -0.18227677
0.00345334 -0.033252906 0.13636744 0.0066175843 0.039891664 0.03491862 0.06649653 -0.09604798
0.076121524 -0.06131114 0.08079423 0.034156818 0.054733753 0.056261767 0.07835443 -0.058564696
0.12103663 0.13944025 0.035607316 0.019331079 -0.17906779 0.27353752 -0.22724919 0.08587795
0.11949219 0.0820512 -0.03420503 -0.008280569 0.044602443 0.1515517 -0.015317753 0.14591686
-0.02634853 0.027145822 0.10523628 0.041104823 -0.0142559055 -0.027925625 0.11323055 0.07195829
0.017530499 0.01581805 -0.006904146 -0.0018216475 0.13409697 -0.00489141 -0.07202382 -0.15568459
0.17918733 0.0061179185 0.009360197 0.015007683 -0.055429835 -0.012189304 -0.05296376 -0.15365699
-0.07339069 -0.17681289 -0.18664175 0.11485069 -0.06558003 0.08366134 0.096753076 -0.18214631
-0.05409425 -0.042662475 -0.11110017 0.12144886 0.046060227 0.13604708 0.13702947 -0.015320074
-0.11238477 -0.1265253 -0.12952706 0.13025741 -0.075543396 0.12499461 0.06906111 -0.010415397
0.03934179 0.15977289 -0.05968935 0.0082537485 0.052365396 -0.19813678 -0.04513464 -0.0420661
-0.10391576 0.009624024 0.109804094 -0.12366443 -0.009886799 0.0979268 0.06338251 -0.07362228
-0.010845569 -0.043490563 -0.024613861 0.21501541 0.012558518 0.11045811 -0.081387185 0.06810745
-0.035368152 0.112672515 -0.16084336 0.124072604 0.1895112 -0.070952326 -0.16682744 0.1706842
0.025818639 -0.028870491 0.08124529 0.05868984 0.09217676 -0.061903194 -0.05918001 0.1091426
0.021215018 0.038596887 0.052509855 -0.1327655 0.083597906 0.14113791 0.12966873 -0.038086444
-0.19366008 -0.09434471 0.12715708 -0.051546764 -0.16475502 0.05860167 0.1552054 0.11811724
00000000: 37a2 13bd afa8 19bc bcee 05be 2536 5a3d
00000010: 490a 2abe 2ca5 d5bd ef32 133e 9801 8bbc
00000020: dd5a de3c d08a 8b3d 2f14 603d eaca 5ebd
00000030: b738 ef3d 1669 323e 2347 ffbd fe49 ad3c
00000040: 8b81 7bbb b3c8 0e3c c489 3bbe 4b77 e23b
00000050: f147 4b3e a9b6 353e fb47 903d 5090 b6bd
00000060: a6ff c03c 39ab 823d 9014 6abd 9e0f abbd
00000070: dd0c 18be 7ec1 833d 9256 2bbe b9e7 6b3d
00000080: f7f8 663d 907d 553d 2526 74bd 715b 3dbc
00000090: 4776 eebd 031d cc3d b651 9f3d b176 a2bd
000000a0: 49c4 4fbd 10d4 ef3d 7e6e a83d 9cbc 513c
000000b0: be5a a23d fdce 9b3d a6bf a23d 9730 a4bb
000000c0: 26b2 083e 04fe 543e aea6 37be 717f 5d3e
000000d0: 7196 1abe c2e3 1e3d 58f1 b4bd 7e90 053e
000000e0: 46f0 41be 2202 06be 987f 043e b7d9 023d
000000f0: 2052 5a3d b150 83bd e098 c2bd 991e b5bc
00000100: bf3a 9bbd 54dc 86bc 2c6f 323d af0a 7c3e
00000110: 2026 cb3d ae80 a93d 5ee3 763e 79b2 e03d
00000120: e548 f53b 0cfe 623d 4110 82bb f9a3 17bd
00000130: add0 90bd d7a3 9c3c 87b2 263d 1902 48be
00000140: d6e0 db3d 23c3 fe3d 76ff c43d 5273 bc3c
00000150: 5f66 ae3d 4a31 563d 123e 393e 147f 07be
00000160: 74ba e3bc f179 acbd 20ad eebd f82b 373d
00000170: 65d9 96bd 6762 4dbd d9b3 de3c ca61 0f3e
00000180: 3434 953c cd98 203e 08e3 f4bc c39a 8dbd
00000190: c257 923d de98 9c3d aca0 a33d b005 303e
000001a0: b13b c33d a6f4 25bd 0fe5 c3bc 06b8 923d
000001b0: 6d1b 143e 7158 66be b993 9fbd 71f2 cabc
000001c0: 2cdf 88bd 5df2 a13d 306f fb3c 2e06 643e
000001d0: 4c8e d4bd 04d6 8a3c f7c9 b2bd c3a6 3abe
000001e0: 6e51 623b 3334 08bd e8a3 0b3e 52d8 d83b
000001f0: 7165 233d d406 0f3d 552f 883d ceb4 c4bd
00000200: 9ae5 9b3d 6421 7bbd 7277 a53d 05e8 0b3d
00000210: 8030 603d bd72 663d 4a78 a03d 89e1 6fbd
00000220: 0de2 f73d 6dc9 0e3e fad8 113d 365c 9e3c
00000230: 8c5d 37be 1c0d 8c3e 03b4 68be c7e0 af3d
00000240: 52b8 f43d 760a a83d 931a 0cbd 39ab 07bc
00000250: 0db1 363d 5e30 1b3e 50f7 7abc 3b6b 153e
00000260: dfd8 d7bc ea60 de3c 1e86 d73d 885d 283d
00000270: 9a91 69bc 48c4 e4bc 6be5 e73d de5e 933d
00000280: 1f9c 8f3c db94 813c 2d3c e2bb 59c4 eeba
00000290: b750 093e 1f48 a0bb 3981 93bd c86b 1fbe
000002a0: e27c 373e d278 c83b 835b 193c c9e2 753c
000002b0: 650a 63bd a6b5 47bc 87f0 58bd 4258 1dbe
000002c0: dc4d 96bd 700e 35be 041f 3fbe d736 eb3d
000002d0: d34e 86bd a356 ab3d 7a26 c63d 9084 3abe
000002e0: ef91 5dbd d9be 2ebd 7c88 e3bd 2eba f83d
000002f0: a6a9 3c3d ed4f 0b3e 7451 0c3e 0c01 7bbc
00000300: fc29 e6bd d98f 01be bea2 04be 3362 053e
00000310: 7fb6 9abd 2dfd ff3d e96f 8d3d 57a5 2abc
00000320: db24 213d 819b 233e d27c 74bd bb3a 073c
00000330: 197d 563d 5ee4 4abe 1adf 38bd 814d 2cbd
00000340: c9d1 d4bd 15ae 1d3c f8e0 e03d c743 fdbd
00000350: 3efc 21bc d98d c83d b0ce 813d 47c7 96bd
00000360: 9db1 31bc 2923 32bd 02a3 c9bc 002d 5c3e
00000370: 3ec2 4d3c dd37 e23d 53ae a6bd eb7b 8b3d
00000380: 32de 10bd d9c0 e63d 1fb4 24be c719 fe3d
00000390: 390f 423e 744f 91bd d0d4 2abe d7c7 2e3e
000003a0: 9c81 d33c cf81 ecbc ee63 a63d c264 703d
000003b0: 2bc7 bc3d 348e 7dbd bd66 72bd 2886 df3d
000003c0: 1ecb ad3c c517 1e3d 9314 573d aef3 07be
000003d0: 6135 ab3d 7586 103e e1c7 043e 8800 1cbd
000003e0: d44e 46be cd37 c1bd 7735 023e b322 53bd
000003f0: 8ab5 28be 4e08 703d 2aee 1e3e 74e7 f13d

fc1.bias f4 [128]
0.0008870998 0.0008386976 0.0010360281 4.151397e-05 0.0010168642 0.0010220103 -0.00067923096 0.00017797403
-0.0007441444 -0.0012263904 -0.000120163386 -0.00066657894 -0.00037784505 -0.0003411654 0.00054420927 -0.0020007386
0.0011113642 0.00029679525 0.0014597629 -0.0008683657 -0.00021542594 0.0005512271 -0.0001253616 0.0010421396
0.00041599496 -0.0006679896 -0.00086241483 0.00053052447 0.00065567804 0.0013263202 -0.0015511261 -0.0007596085
-0.0003622206 0.00017751388 -0.0009003548 -0.00036834885 0.0014259119 -0.0005388172 0.0007549153 -0.0005203182
-1.889332e-05 -0.0004944427 0.00043308092 -0.00045337804 -0.0014561708 -0.0008957708 0.0027427154 0.00049278507
0.0013745134 0.00068517943 0.0023017493 0.0006914419 0.0004211127 7.80123e-05 -0.0012700869 -0.00062077714
6.704294e-05 8.0477275e-06 -0.0015766085 0.0012667559 0.00037394595 -0.0004033369 0.0016558515 0.00050721504
7.3335837e-06 0.0015756228 -0.00089858787 -0.0012846513 2.7120648e-05 0.00080990477 0.0011415369 0.0010797799
-8.332172e-05 0.00083236233 -0.000284162 -0.001172762 0.0005415717 -0.0014676888 -0.00034229524 -0.00014087082
-0.0005969529 0.00037049866 0.00022217537 -0.0014609378 0.00092132605 0.0027091536 -0.0008032769 -0.0004687445
0.00021014505 0.0010673519 0.00035189066 -0.0013272868 -0.0008216781 -0.0002522665 6.799174e-05 -0.00074783614
0.00012025126 -0.00027967506 -0.001182177 -0.00068366335 4.6526526e-05 -0.0001747118 -0.00076247985 0.00022042776
0.0007963955 0.000268766 0.00024167633 0.0015285611 -4.1411602e-07 0.0010631197 -0.0011710506 -0.0007832108
0.00031899844 -0.00095033523 0.00045716748 0.00055211247 0.0008838771 -0.0006849435 0.0014380588 0.00069987576
-0.00012727706 6.606945e-05 -0.0002617154 0.00072251377 -0.00093730236 -0.00038112732 0.0003854364 -0.00017505478
00000000: 438c 683a 0bdc 5b3a 56cb 873a 491f 2e38
00000010: 4d48 853a faf4 853a 6b0e 32ba 8a9e 3a39
00000020: af12 43ba d5be a0ba 3a00 fcb8 5bbd 2eba
00000030: 8119 c6b9 72de b2b9 44a9 0e3a d31e 03bb
00000040: 32ab 913a 2f9b 9b39 8455 bf3a 09a3 63ba
00000050: f6e3 61b9 3980 103a 8073 03b9 6798 883a
00000060: e619 da39 061c 2fba ae13 62ba e512 0b3a
00000070: cfe1 2b3a ecd7 ad3a 284f cbba 7720 47ba
00000080: 6de8 bdb9 0523 3a39 ca05 6cba f21e c1b9
00000090: aae5 ba3a 693f 0dba 82e5 453a f765 08ba
000000a0: 197d 9eb7 7d9d 01ba 230f e339 5fb3 edb9
000000b0: fcdc beba 29d2 6aba 21bf 333b 3f2e 013a
000000c0: 0429 b43a 9d9d 333a f2d8 163b e141 353a
000000d0: cac8 dc39 899a a338 0b79 a6ba a6bb 22ba
000000e0: 6899 8c38 ba04 0737 34a6 ceba 4609 a63a
000000f0: 2d0e c439 f676 d3b9 2809 d93a a0f6 043a
00000100: 0113 f636 2185 ce3a 368f 6bba bf61 a8ba
00000110: 2681 e337 ca4f 543a 9f9f 953a 6787 8d3a
00000120: 02bd aeb8 e432 5a3a 94fb 94b9 5db7 99ba
00000130: 43f8 0d3a 775f c0ba 1776 b3b9 b9b6 13b9
00000140: d57c 1cba 7d3f c239 bff7 6839 f07c bfba
00000150: 2585 713a 0e8c 313b 0093 52ba d2c1 f5b9
00000160: 625a 5c39 63e6 8b3a f77d b839 5bf8 adba
00000170: e265 57ba a342 84b9 ca96 8e38 6f0a 44ba
00000180: 672f fc38 5aa1 92b9 47f3 9aba df37 33ba
00000190: 7a25 4338 d732 37b9 28e1 47ba a022 6739
000001a0: 33c5 503a 29e9 8c39 7f6a 7d39 005a c83a
000001b0: ac53 deb4 6158 8b3a f07d 99ba 6350 4dba
000001c0: 3f3f a739 eb1f 79ba fbaf ef39 a4bb 103a
000001d0: fdb3 673a c88d 33ba 3f7d bc3a de77 373a
000001e0: ad75 05b9 c48e 8a38 d936 89b9 1467 3d3a
000001f0: 4cb5 75ba 0bd2 c7b9 6614 ca39 e98e 37b9

bn1.weight f4 [128]
0.89475334 1.0240597 0.9898917 0.95664567 0.9424043 0.97244185 1.0042946 0.97061336
0.9346145 1.0022113 1.0410752 0.9951868 0.8523401 1.0013485 1.0147865 0.97026694
0.90118533 0.9124942 0.9437742 0.9187165 0.9099334 0.9966302 0.9679814 0.9788005
0.93407685 0.90020156 0.9784534 1.003558 1.0074883 0.9919366 0.92364615 0.9069085
0.9470301 0.89728224 0.96307284 0.96663874 0.9014849 0.8610203 1.0027368 0.96870327
1.021537 0.99653476 0.94204444 0.93900555 0.9474801 1.0074376 0.98038477 0.9551864
0.9705633 0.9220939 0.90663433 0.9112517 0.90630555 1.014276 0.9675388 0.95287925
0.9750967 0.98411554 0.89212996 0.995918 0.831712 1.0103225 0.97919166 0.99897873
1.028992 1.0290234 0.95556873 0.963633 1.0026613 0.9960142 0.94522905 0.95324147
0.9343263 1.0166962 0.93006694 0.9396016 0.9605065 0.9533055 0.96969473 0.96441
1.043934 0.91790617 1.0879438 0.9652735 1.0167065 1.0077912 0.9048934 1.0621619
0.9076158 0.9526995 0.97183037 1.025475 1.2097164 0.8986732 0.99816537 0.95501256
0.9528574 0.969023 1.1220181 0.96768165 0.9936448 0.96459484 1.0299551 0.9574219
0.9628062 0.98215586 0.9626995 1.0346771 0.8982984 0.9427597 1.1902981 1.0102973
0.9566039 0.88403827 0.96941733 0.99181175 0.94679284 0.87037265 1.0175154 0.8725479
0.947368 0.96895134 0.9849622 1.0068352 0.9285557 0.92342085 0.8665702 0.9813795
00000000: 8e0e 653f 6314 833f 8b69 7d3f bbe6 743f
00000010: 6941 713f f3f1 783f ba8c 803f 1e7a 783f
00000020: e542 6f3f 7648 803f f441 853f 90c4 7e3f
00000030: f632 5a3f 302c 803f 86e4 813f 6a63 783f
00000040: 15b4 663f 3899 693f 309b 713f 0131 6b3f
00000050: 65f1 683f 2823 7f3f a1cd 773f ab92 7a3f
00000060: a91f 6f3f 9c73 663f ec7b 7a3f 9774 803f
00000070: 60f5 803f 8fef 7d3f 1374 6c3f 282b 683f
00000080: 9170 723f 4ab4 653f f18b 763f a375 773f
00000090: b7c7 663f d46b 5c3f ae59 803f f0fc 773f
000000a0: b9c1 823f e71c 7f3f d329 713f ab62 703f
000000b0: 0e8e 723f b7f3 803f 7ffa 7a3f 1987 743f
000000c0: d676 783f 590e 6c3f 3019 683f cb47 693f
000000d0: a403 683f ccd3 813f 9fb0 773f e5ef 733f
000000e0: f09f 793f ffee 7b3f a162 643f 7bf4 7e3f
000000f0: 14eb 543f 3f52 813f 4eac 7a3f 12bd 7f3f
00000100: 03b6 833f 0ab7 833f 27a0 743f a7b0 763f
00000110: 3557 803f c9fa 7e3f 88fa 713f a207 743f
00000120: 0230 6f3f 1a23 823f de18 6e3f bb89 703f
00000130: c1e3 753f d40b 743f ea3d 783f 93e3 763f
00000140: a19f 853f e6fb 6a3f be41 8b3f 2a1c 773f
00000150: 7023 823f 4dff 803f 18a7 673f ecf4 873f
00000160: 8259 683f 1de4 733f e0c9 783f c442 833f
00000170: fdd7 9a3f 720f 663f c487 7f3f b47b 743f
00000180: 76ee 733f e411 783f 4a9e 8f3f fcb9 773f
00000190: 815f 7e3f b0ef 763f 92d5 833f 9a19 753f
000001a0: 787a 763f 916e 7b3f 7973 763f 4d70 843f
000001b0: e2f6 653f b358 713f b05b 983f 6c51 813f
000001c0: fee3 743f 5550 623f bc2b 783f 60e7 7d3f
000001d0: 0461 723f bed0 5e3f f23d 823f 4d5f 5f3f
000001e0: b686 723f 320d 783f 7c26 7c3f fadf 803f
000001f0: d4b5 6d3f 4f65 6c3f 8bd7 5d3f b03b 7b3f

bn1.bias f4 [128]
-0.27742717 -0.21691334 -0.2033912 -0.28356862 -0.17452177 -0.31132105 -0.31434926 -0.25188068
-0.2673586 -0.20044161 -0.11418864 -0.32065332 -0.2782002 -0.255165 -0.324239 -0.25489524
-0.3069127 -0.2495617 -0.34548023 -0.23447806 -0.2650385 -0.21638416 -0.3572385 -0.2620167
-0.27136424 -0.3301371 -0.30696258 -0.2900844 -0.2328454 -0.18965171 -0.24326836 -0.29413107
-0.33008227 -0.3549185 -0.29179695 -0.29280922 -0.32335988 -0.31601778 -0.34783503 -0.26158756
-0.28299457 -0.2149912 -0.23954742 -0.17219782 -0.23210661 -0.21079504 -0.31062207 -0.23901144
-0.22611187 -0.31408802 -0.30834183 -0.24852858 -0.26672745 -0.23856854 -0.27115113 -0.2737286
-0.24389637 -0.30610704 -0.2271331 -0.26240817 -0.40875366 -0.24176943 -0.2483011 -0.2588102
-0.3140763 -0.25889614 -0.3396356 -0.26965895 -0.28614533 -0.238958 -0.2665468 -0.3310395
-0.327738 -0.27307457 -0.27632868 -0.31968933 -0.28743252 -0.3087244 -0.24316305 -0.3956548
-0.26927993 -0.28960535 -0.02231411 -0.26215896 -0.19209853 -0.16858394 -0.23158027 -0.32767966
-0.25831732 -0.2688411 -0.31807238 -0.26673818 -0.11501663 -0.30756772 -0.3326579 -0.32664627
-0.27722389 -0.34070835 -0.086455666 -0.25876006 -0.30934379 -0.3299326 -0.31038168 -0.23315184
-0.26436943 -0.34293166 -0.2981594 -0.27207556 -0.33933303 -0.21432567 -0.08582151 -0.1993568
-0.30355138 -0.28433758 -0.27925733 -0.27222842 -0.32444382 -0.20810035 -0.32285428 -0.27316064
-0.24129367 -0.18286578 -0.2940403 -0.2987006 -0.32796112 -0.21583536 -0.17905247 -0.32708555
00000000: ef0a 8ebe 881e 5ebe c845 50be e82f 91be
00000010: d6b5 32be 7965 9fbe 63f2 a0be 81f6 80be
00000020: 3ae3 88be 9140 4dbe bcdb e9bd ac2c a4be
00000030: 4270 8ebe fda4 82be a702 a6be a181 82be
00000040: a923 9dbe 1a8d 7fbe c9e2 b0be 041b 70be
00000050: 20b3 87be cf93 5dbe f7e7 b6be 0e27 86be
00000060: 41f0 8abe bb07 a9be 332a 9dbe f185 94be
00000070: 066f 6ebe 0f34 42be 571b 79be 5998 96be
00000080: 8b00 a9be e1b7 b5be 6966 95be 17eb 95be
00000090: 6d8f a5be 15cd a1be 6f17 b2be ceee 85be
000000a0: aae4 90be a726 5cbe eb4b 75be a054 30be
000000b0: 5bad 6dbe a8da 57be db09 9fbe 6abf 74be
000000c0: df89 67be 25d0 a0be fbde 9dbe 477e 7ebe
000000d0: 8090 88be 504b 74be 52d4 8abe 2826 8cbe
000000e0: f8bf 79be 10ba 9cbe 9495 68be 5d5a 86be
000000f0: 2948 d1be 6892 77be a542 7ebe c582 84be
00000100: 9cce a0be 098e 84be b8e4 adbe bd10 8abe
00000110: a481 92be 68b1 74be d278 88be 027e a9be
00000120: 46cd a7be 6ed0 8bbe f47a 8dbe 52ae a3be
00000130: 5b2a 93be 2011 9ebe bcff 78be 4493 cabe
00000140: 0fdf 89be 2747 94be 15cc b6bc b339 86be
00000150: 7ab5 44be 45a1 2cbe 6123 6dbe a1c5 a7be
00000160: 2b42 84be 8aa5 89be 62da a2be e891 88be
00000170: d78d ebbd 8479 9dbe 2352 aabe 2e3e a7be
00000180: 4af0 8dbe 5371 aebe ab0f b1bd 337c 84be
00000190: 4f62 9ebe edec a8be 59ea 9ebe 5bbf 6ebe
000001a0: 6e5b 87be bd94 afbe 59a8 98be 7d4d 8bbe
000001b0: 0fbd adbe 3078 5bbe 30c3 afbd 3024 4cbe
000001c0: 166b 9bbe b294 91be d1fa 8ebe 8661 8bbe
000001d0: 801d a6be 4218 55be 284d a5be b6db 8bbe
000001e0: b015 77be 2b41 3bbe 738c 96be 49ef 98be
000001f0: 85ea a7be f203 5dbe 8859 37be c277 a7be

bn1.running_mean f4 [128]
0.013406925 -0.041495014 -0.025318477 -0.048754755 -0.00048889185 0.0011556024 -0.06697284 -0.039642457
-0.03820394 -0.0373176 -0.0056453017 -0.042737823 0.016300168 -0.049828336 -0.0019989277 0.016071182
0.008267635 -0.008535328 -0.012582429 -0.034701884 -0.04408856 -0.024558758 -0.023779124 0.00708988
0.0057433313 -0.0062193116 -0.015078993 -0.021271667 -0.028752621 -0.038927495 -0.008812805 -0.0013658925
-0.036043078 -0.051469594 -0.031048106 -0.029105067 -0.04573028 -0.0416523 -0.003129723 -0.06284107
-0.09040803 0.017985675 -0.030969335 -0.038882505 -0.079700075 -0.055809893 -0.0025684142 -0.02653087
-0.0075374935 -0.0053516137 -0.052206203 -0.05754577 -0.058311474 -0.02428483 -0.0008014545 -0.041332036
-0.022045247 -0.011930723 -0.031029072 -0.03223371 -0.027661603 -0.07018421 -0.022347748 -0.014965442
-0.0421664 -0.004514625 -0.015975464 -0.044024635 -0.017241012 -0.040186983 -0.0041223266 -0.004275026
-0.039328415 -0.023092136 -0.01915023 -0.04197994 -0.018397156 -0.03884201 -0.031100947 -0.08019527
-0.09328006 -0.018721113 0.03982153 -0.042105287 -0.04099399 -0.003620174 -0.05984544 -0.054122616
-0.004691936 -0.025622506 -0.06335006 -0.052841313 0.008543118 0.011043229 -0.094177105 0.005024599
0.01127976 -0.06519186 -0.0029180115 -0.05375143 -0.09850108 -0.027930353 -0.05929678 -0.00028461774
-0.0603111 -0.03220711 -0.0050002234 -0.049715575 0.016372288 -0.0036990517 0.018499492 -0.025108472
-0.06358573 -0.004589518 -0.053158928 -0.005145531 -0.011989517 -6.7731344e-05 -0.07278833 -0.044346355
-0.0097998 0.0016883794 -0.041186493 -0.01859624 0.00011468596 -0.008984446 0.039185975 -0.03852089
00000000: b8a8 5b3c adf6 29bd b268 cfbc 11b3 47bd
00000010: fa28 00ba 9577 973a 0e29 89bd 2160 22bd
00000020: bc7b 1cbd 57da 18bd 39fc b8bb db0d 2fbd
00000030: ee87 853c cc18 4cbd 7100 03bb b6a7 833c
00000040: f974 073c c3d7 0bbc 8826 4ebc 9023 0ebd
00000050: 3596 34bd 732f c9bc 70cc c2bc 3952 e83b
00000060: 8e32 bc3b 5ecb cbbb e10d 77bc eb41 aebc
00000070: 9e8a ebbc 7072 1fbd 9563 10bc bf07 b3ba
00000080: e8a1 13bd c8d1 52bd 9958 febc c06d eebc
00000090: ad4f 3bbd 9a9b 2abd 0a1c 4dbb d2b2 80bd
000000a0: d827 b9bd b256 933c 67b3 fdbc 4343 1fbd
000000b0: cb39 a3bd ea98 64bd d752 28bb 4457 d9bc
000000c0: 14fd f6bb 975c afbb 2cd6 55bd 1db5 6bbd
000000d0: 03d8 6ebd fbf0 c6bc b318 52ba c84b 29bd
000000e0: 3c98 b4bc 1479 43bc ae30 febc 7f07 04bd
000000f0: 969a e2bc bdbc 8fbd a012 b7bc 9d31 75bc
00000100: adb6 2cbd 6bef 93bb fade 82bc 2d53 34bd
00000110: 063d 8dbc 1b9b 24bd 9514 87bb 8415 8cbb
00000120: d516 21bd b82b bdbc f1e0 9cbc 28f3 2bbd
00000130: a2b5 96bc cd18 1fbd 6ac7 febc 6b3d a4bd
00000140: 9e09 bfbd 055d 99bc e71b 233d 9876 2cbd
00000150: 50e9 27bd 7140 6dbb 7e20 75bd adaf 5dbd
00000160: d0be 99bb 4ae6 d1bc adbd 81bd 2270 58bd
00000170: 6ff8 0b3c a9ee 343c eddf c0bd 64a5 a43b
00000180: bece 383c 4f83 85bd 1c3c 3fbb 762a 5cbd
00000190: efba c9bd 32ce e4bc 2ee1 72bd bf38 95b9
000001a0: c608 77bd 9aeb 03bd ead8 a3bb 8fa2 4bbd
000001b0: 2d1f 863c ca6b 72bb 3f8c 973c 48b0 cdbc
000001c0: 3c39 82bd ab63 96bb 2dbd 59bd d89b a8bb
000001d0: ae6f 44bc fd0a 8eb8 0c12 95bd 86a4 35bd
000001e0: 578f 20bc 9d4c dd3a 2bb3 28bd 2457 98bc
000001f0: 8e83 f038 7f33 13bc 7981 203d 15c8 1dbd

bn1.running_var f4 [128]
17.810719 25.207787 18.037043 30.552454 20.643267 23.908201 34.183342 28.07979
14.173317 15.061533 32.192337 32.269222 14.947873 27.373463 20.050098 24.433865
21.84499 12.871148 27.00212 25.919458 10.722783 32.704323 30.037752 27.80017
20.194096 18.32962 31.743372 27.771177 21.74459 30.154236 18.259521 26.847952
26.284964 18.264606 23.92711 15.839011 21.727913 21.920958 24.169786 28.139097
31.435625 24.311142 18.706448 25.170809 19.513556 16.462116 22.009722 24.621572
20.88466 20.160908 14.456488 42.844067 27.143507 28.83384 18.233503 40.157402
21.629255 31.099775 24.152533 28.344213 18.612164 22.296442 22.917484 24.069124
29.338017 26.742886 31.283558 32.317623 20.881847 29.506647 16.863792 24.372116
26.619562 33.27365 17.52033 21.35123 30.268703 31.81059 24.303495 15.285858
32.59154 14.799488 14.1569 24.3568 31.858904 22.006914 21.24251 27.246403
11.428021 30.48784 33.11372 35.77644 20.725855 19.225332 33.32 29.549398
21.175966 32.190987 16.91823 25.615011 40.08391 21.034382 15.302381 32.345894
24.61943 35.32186 25.24749 19.572184 22.27786 15.720139 20.75492 23.45266
33.845566 24.491755 29.249107 31.121613 20.7376 12.925297 33.17833 10.18294
29.860838 20.09923 16.739664 26.054544 23.307001 25.083187 12.794905 21.951887
00000000: 5a7c 8e41 8ca9 c941 dd4b 9041 6d6b f441
00000010: 6925 a541 ff43 bf41 bebb 0842 69a3 e041
00000020: e8c5 6241 0afc 7041 f4c4 0042 af13 0142
00000030: 7d2a 6f41 dafc da41 9a66 a041 8e78 c341
00000040: 8ac2 ae41 39f0 4d41 5704 d841 0d5b cf41
00000050: 8590 2b41 3ad1 0242 514d f041 c066 de41
00000060: 828d a141 10a3 9241 6df2 fd41 5f2b de41
00000070: ecf4 ad41 e03b f141 8013 9241 9bc8 d641
00000080: 9b47 d241 ea1d 9241 b96a bf41 976c 7d41
00000090: c4d2 ad41 1f5e af41 b95b c141 df1c e141
000000a0: 297c fb41 387d c241 cea6 9541 d15d c941
000000b0: c31b 9c41 6ab2 8341 e913 b041 fbf8 c441
000000c0: c913 a741 8a49 a141 c64d 6741 5360 2b42
000000d0: e725 d941 b4ab e641 37de 9141 2ea1 2042
000000e0: b708 ad41 57cc f841 6338 c141 f3c0 e241
000000f0: b6e5 9441 1d5f b241 0257 b741 918d c041
00000100: 42b4 ea41 6ef1 d541 ba44 fa41 3f45 0142
00000110: 060e a741 9d0d ec41 0ce9 8641 18fa c241
00000120: ddf4 d441 3818 0542 a329 8c41 52cf aa41
00000130: 4e26 f241 177c fe41 8f6d c241 e092 7441
00000140: bd5d 0242 b4ca 6c41 aa82 6241 bada c241
00000150: 09df fe41 290e b041 a9f0 a941 a2f8 d941
00000160: 2dd9 3641 19e7 f341 7374 0442 131b 0f42
00000170: 8dce a541 7bcd 9941 ae47 0542 2b65 ec41
00000180: 6168 a941 92c3 0042 8958 8741 8beb cc41
00000190: ed55 2042 6a46 a841 8dd6 7441 3262 0142
000001a0: 98f4 c441 9649 0d42 dcfa c941 d593 9c41
000001b0: 0f39 b241 b085 7b41 130a a641 0c9f bb41
000001c0: dc61 0742 1def c341 2cfe e941 10f9 f841
000001d0: 9be6 a541 04ce 4e41 9cb6 0442 52ed 2241
000001e0: ffe2 ee41 39cb a041 d5ea 8541 b56f d041
000001f0: bd74 ba41 5eaa c841 eeb7 4c41 779d af41
