models/classifiers/MLP2_CROSS_HUMANRPA2RPA_AE1BERT_bm.pth (torch, 260266 bytes, 19 tensors)

fc1.weight f4 [256, 77]
-0.0055473037 0.018151227 -0.048058655 0.2851843 -0.11724011 -0.090547375 0.12724534 0.13025661
-0.19215412 0.14757279 0.13417462 0.08026788 -0.006024754 -0.051884044 -0.17252493 -0.006343129
-0.12237888 0.06359451 -0.23440291 0.14316835 0.087690696 0.05329245 0.05971079 -0.023610761
-0.29405054 -0.10771301 -0.07121597 -0.082510516 -0.044744715 -0.068001136 0.19630618 0.016622907
-0.124477826 0.052290637 0.004750519 -0.104195364 -0.064363256 -0.19730045 -0.05490917 -0.09007131
-0.050561123 0.13687488 0.074897796 0.14457618 -0.10698616 0.020633416 0.05748528 0.04932689
0.11812163 0.014825361 0.12728915 0.20762244 -0.052923657 0.059775367 0.06467254 0.09109966
0.06507276 -0.0800919 -0.07372934 -0.12242037 0.37163025 0.007574559 -0.048346724 -0.09390274
-0.0874314 0.07529071 -0.095960975 0.04402365 0.05784118 -0.08490059 0.15186027 0.03527586
-0.4272344 -0.1268084 0.034528166 -0.14996457 0.118309796 -0.01492447 0.04030459 -0.01895737
-0.031916134 -0.020737955 0.013682865 0.034403276 -0.008051165 -0.01699787 0.029131383 0.022669539
-0.018722944 -0.004919717 -0.016419074 0.010071842 -0.038663596 -0.022438876 0.0013061796 -0.0245887
0.034548383 0.015419057 0.0138204945 -0.023191316 0.0026392306 0.004827183 0.014090404 -0.021278886
-0.007987258 0.06353319 -0.014581202 -0.024837691 0.006460463 0.010536595 0.008635303 -0.026442334
0.0017818458 0.019655406 0.014148263 0.017029267 -0.030150427 0.03828083 -0.01516526 0.028512904
-0.00858438 0.030909581 -0.02375416 0.016043536 -0.015670005 0.038892012 0.015945928 -0.04149356
0.02527737 -0.005931424 0.027641619 -0.042504925 0.00086459384 -0.014034185 -0.011478902 0.029953517
0.033898067 -0.029752037 0.012640558 -0.017276945 0.0068828827 0.1283088 0.014159569 0.010590314
0.8026332 -1.2450247 -0.056167684 0.28738976 0.045371775 0.9214711 -0.011642561 -0.00908181
0.044055887 0.03946423 -0.106288 -0.0031552992 0.08768829 0.06870316 -0.020930575 -0.21043372
-0.042968135 0.06515534 0.116314165 0.18072717 0.33705333 0.08474291 0.17613007 -0.04072369
-0.13866907 0.0036812616 -0.008741034 -0.12241459 -0.08856967 -0.022308638 0.05250891 -0.024898691
0.15419339 -0.015335888 0.056678426 -0.057677627 0.096865326 -0.17323184 0.07059553 -0.14926639
0.011506389 0.052916925 -0.0039428333 -0.23905887 0.054459866 -0.100323424 -0.12312342 -0.041689195
-0.078616425 0.015585469 0.03220441 -0.23128504 -0.040334538 0.12308562 0.24118672 -0.10502355
-0.009120514 0.06764142 -0.096353896 -0.25252917 -0.28409553 -0.07583104 -0.0010450023 0.115087576
0.18234825 0.08218816 -0.11243545 -0.019199418 -0.14578778 -0.010343475 -0.18095104 -0.08924036
0.07862361 -0.00028491454 -0.12190245 -0.16900684 0.13257247 -0.1751286 0.12019662 -0.11609222
0.06518019 -0.1397796 0.28784811 0.009129605 -0.15134442 -0.059802677 0.12826195 -0.14957687
0.0120736165 -0.15850498 0.057393488 -0.105933495 0.07840275 0.019703109 0.103610605 -0.038604043
-0.25364932 0.029245166 -0.14173803 0.07722695 0.2813048 0.060427185 -0.06422788 -0.1630251
-0.053177923 -0.05718147 -0.08500736 -0.019032728 0.03720003 0.002576523 0.063152194 0.045529343
00000000: 28c6 b5bb e2b1 943c 27d9 44bd ad03 923e
00000010: 951b f0bd e770 b9bd 9a4c 023e fd61 053e
00000020: 0dc4 44be 521d 173e 1265 093e 7c63 a43d
00000030: 4d6b c5bb 5d84 54bd 60aa 30be 06da cfbb
00000040: c7a1 fabd d73d 823d 5107 70be b99a 123e
00000050: 2e97 b33d 2f49 5a3d 4d93 743d 5b6b c1bc
00000060: cb8d 96be a398 dcbd aed9 91bd 46fb a8bd
00000070: 3c46 37bd 2e44 8bbd 7d04 493e c32c 883c
00000080: 3bee febd b52e 563d 3eaa 9b3b 6164 d5bd
00000090: e2d0 83bd 2109 4abe 70e8 60bd 4f77 b8bd
000000a0: 2e19 4fbd ee28 0c3e 0464 993d c70b 143e
000000b0: 8f1b dbbd 6907 a93c af75 6b3d fe0a 4a3d
000000c0: c1e9 f13d 12e6 723c 1658 023e fa9a 543e
000000d0: 7ac6 58bd 04d7 743d 0973 843d 7592 ba3d
000000e0: de44 853d 3907 a4bd 69ff 96bd 88b7 fabd
000000f0: 5246 be3e 0234 f83b 3707 46bd 1450 c0bd
00000100: 3c0f b3bd 0432 9a3d 3087 c4bd 2552 343d
00000110: e0ea 6c3d 5ce0 adbd 4281 1b3e 6c7d 103d
00000120: 78be dabe 10da 01be 686d 0d3d 5090 19be
00000130: 684c f23d c485 74bc 6d16 253d 7d4c 9bbc
00000140: 7eba 02bd a5e2 a9bc 182e 603c 73ea 0c3d
00000150: 09e9 03bc 1e3f 8bbc f0a4 ee3c 78b5 b93c
00000160: dc60 99bc 9435 a1bb 4b81 86bc 5e04 253c
00000170: b85d 1ebd bcd1 b7bc 1d34 ab3a 3e6e c9bc
00000180: 9b82 0d3d 36a0 7c3c 5b6f 623c b7fb bdbc
00000190: f1f6 2c3b 592d 9e3b 70db 663c 0f51 aebc
000001a0: fddc 02bc b01d 823d fee5 6ebc 6a78 cbbc
000001b0: 4bb2 d33b afa1 2c3c 167b 0d3c 989d d8bc
000001c0: d38c e93a 6004 a13c 1ece 673c f680 8b3c
000001d0: 07fe f6bc 5ccc 1c3d b677 78bc e593 e93c
000001e0: 80a5 0cbc 1736 fd3c 1698 c2bc bc6d 833c
000001f0: 625e 80bc 3b4d 1f3d 09a1 823c 27f5 29bd
00000200: 7d12 cf3c 645c c2bb ad70 e23c a519 2ebd
00000210: e9a5 623a a3ef 65bc 0112 3cbc 1461 f53c
00000220: b3d8 0a3d 8bba f3bc 581a 4f3c 6188 8dbc
00000230: ce89 e13b 6263 033e 89fd 673c ff82 2d3c
00000240: 5f79 4d3f f85c 9fbf 1610 66bd c024 933e
00000250: c1d7 393d 88e5 6b3f 71c0 3ebc dfcb 14bc
00000260: f273 343d 3fa5 213d 86ad d9bd 23c9 4ebb
00000270: eb95 b33d 3eb4 8c3d 9976 abbc f07b 57be
00000280: 5bff 2fbd 2a70 853d 1f36 ee3d 8b10 393e
00000290: 4192 ac3e b18d ad3d 715b 343e e2cd 26bd
000002a0: 44ff 0dbe 5241 713b 8e36 0fbc 80b4 fabd
000002b0: 0464 b5bd 9bc0 b6bc 9513 573d 57f8 cbbc
000002c0: dfe4 1d3e 6043 7bbc a327 683d 603f 6cbd
000002d0: 5461 c63d b063 31be 6494 903d 4ad9 18be
000002e0: 4b85 3c3c 6bbf 583d e232 81bb d9cb 74be
000002f0: 4f11 5f3d 5e76 cdbd 2228 fcbd 4ac2 2abd
00000300: a601 a1bd 325a 7f3c c5e8 033d fcd5 6cbe
00000310: d435 25bd 5014 fc3d a7f9 763e 9616 d7bd
00000320: 356e 15bc 9687 8a3d 3155 c5bd 814b 81be
00000330: f874 91be 4e4d 9bbd 75f8 88ba 09b3 eb3d
00000340: 80b9 3a3e 4452 a83d 8f44 e6bd 1948 9dbc
00000350: 6449 15be ae77 29bc 3b4b 39be a6c3 b6bd
00000360: 6a05 a13d 9560 95b9 fea7 f9bd 2110 2dbe
00000370: 14c1 073e e954 33be a529 f63d c2c1 edbd
00000380: 317d 853d 6222 0fbe d460 933e 5794 153c
00000390: 08fa 1abe a7f3 74bd 1a57 033e ae2a 19be
000003a0: 6bd0 453c 214f 22be 6f15 6b3d a9f3 d8bd
000003b0: 9f91 a03d 6a68 a13c cc31 d43d 461f 1ebd
000003c0: 53de 81be 8f93 ef3c c623 11be 2a29 9e3d
000003d0: 2f07 903e 7f82 773d e889 83bd 0df0 26be
000003e0: 18d1 59bd 1e37 6abd 5718 aebd 86ea 9bbc
000003f0: 0f5f 183d e2da 283b f055 813d fa7c 3a3d

fc1.bias f4 [256]
-0.0032480378 -0.009715977 0.00424117 0.003237096 0.0005318085 0.0013572118 0.00063229585 0.0035534971
0.00073167734 -0.003097714 0.0029025755 0.001860819 0.00032451947 0.0023164807 -0.0074618943 0.0012340046
0.0032407865 -0.00430294 0.0023495485 0.0036033846 -0.000454002 -0.0034361263 -0.002484535 -0.001727392
0.003080778 0.0045401105 -0.0006744663 -5.8588874e-05 0.001932321 -0.003148546 0.00070589234 0.002022634
0.0007842203 -0.002500397 0.0045175296 -0.0021233016 0.009366156 0.0047385255 -0.002320959 0.0029219228
0.0031188366 -0.0032145504 -0.0049531884 -0.006355481 -4.1421466e-05 0.0014175768 -0.0031670388 0.0017833044
0.0027123033 0.0022927038 0.0024351163 0.006319118 0.0019421349 0.0072580096 -0.00069329387 -0.0013320337
-0.0047366605 -0.0026921085 0.006060239 -0.00028328793 -0.0024279342 0.0010254423 0.0010959113 0.0026623667
0.007815974 0.00058124354 0.00012874564 0.0015768522 -0.0030136483 -0.0053898874 0.0022336624 0.00010117797
0.0011250342 0.0022062957 0.00075127895 -0.0014293662 -0.0005023154 0.000532969 -0.0003726244 -0.0012256285
0.0018565325 0.0010817423 -0.0030194654 -0.0052800383 -0.0016462904 0.0002654794 0.0029783002 -0.0034975235
-0.0050304565 0.007325291 -0.00016793367 0.0013905729 -0.003441156 -0.00552254 -0.0035549153 0.00541
-0.0011452392 0.00064605824 -0.0073126596 -0.004161252 -0.0026295392 0.0031911728 -0.00093785714 -0.006316671
-0.0014826246 0.003406656 -0.0004094121 -0.00047716885 0.006194472 0.0013226115 0.0022368045 -0.0005239416
-0.0014908867 -0.0018591378 -0.0052271695 0.0020962676 -0.005966821 -0.003698768 0.0010925597 -0.00052331644
-1.28845395e-05 3.228492e-05 0.0027754456 0.005289824 -0.00087187596 0.008224094 0.0019037813 -6.872717e-05
-0.0011819962 -0.0018329857 -0.0012513238 -0.00076060096 0.002801166 0.0007549705 0.004700021 6.271753e-05
-0.0022053514 0.0022903667 0.00090725534 -0.008443155 -0.0034631668 0.0013554107 0.002586181 0.00073121063
-0.00026220593 0.0015984547 0.0026701188 -7.2146475e-05 -0.0018161796 -0.00043642783 -0.006477369 0.002152851
-0.0018703436 0.0048976974 -0.000997489 0.0015791276 0.0025038007 0.0029500334 0.0052406136 0.0041545816
0.0029963453 -0.0032481507 0.0037213787 0.0047870367 0.0010752559 4.9469094e-05 -0.005833123 0.0002697127
-0.0017408878 -0.003371938 -0.0021612355 0.00033744445 0.007211366 -0.00010252501 0.0022018815 7.79987e-05
-0.00407822 -0.0056686196 -0.0010442145 -0.0018929496 -0.00040886112 -0.004610769 -0.0021772843 0.0019084328
0.0014987682 -0.00018406034 0.00060354854 -0.0001372354 -0.00013222618 0.00012196939 -0.0008762889 0.0007114051
0.00021799834 -0.0012110069 -0.0005951303 -0.00041335225 -0.0019436006 -0.0018347519 -0.0016548706 -0.0042193453
0.0031569966 -0.00432442 0.0011825968 -0.0002700311 0.0025453425 -0.0027417277 -0.00067721494 0.00018550202
-0.00023586016 0.00047713608 0.0047919736 0.0013682178 -0.0003031205 -0.0012473555 -0.00012435994 -0.00053290743
-0.0026393791 -0.0007681425 -0.0056951726 0.00021918456 -0.00039511602 -5.9737224e-05 -0.0015305537 -0.005035212
-0.00035028593 -0.0065307566 -0.00348104 0.0031296085 -0.0043555116 0.00093482516 0.0021024637 0.00029126817
0.00011242591 0.0041718436 0.0010482046 -0.0060726735 0.0050703064 0.002766816 0.0031663775 0.001993006
0.006878346 0.0046994877 0.0018760733 0.0035747613 0.004671959 0.0040597506 0.0025492252 -0.0004776584
0.003794279 -0.0004254577 -0.002035711 -0.001529746 -0.0005338462 -0.00095161825 0.0019323765 -0.0047167013
00000000: 08dd 54bb c32f 1fbc 83f9 8a3b 7525 543b
00000010: 1069 0b3a 79e4 b13a a8c0 253a cae1 683b
00000020: 09ce 3f3a 0403 4bbb 2339 3e3b b9e6 f33a
00000030: 4424 aa39 19d0 173b e882 f4bb 53be a13a
00000040: 6063 543b adff 8cbb e2fa 193b c326 6c3b
00000050: 1e07 eeb9 a230 61bb 95d3 22bb a869 e2ba
00000060: e1e6 493b 35c5 943b abce 30ba 53bd 75b8
00000070: ef45 fd3a d657 4ebb a20b 393a 2b8e 043b
00000080: 2294 4d3a b3dd 23bb c907 943b 1727 0bbb
00000090: 8174 193c a245 9b3b 3b1b 18bb bb7d 3f3b
000000a0: 6565 4c3b 35ab 52bb 5b4e a2bb a441 d0bb
000000b0: f6bb 2db8 fccd b93a 188e 4fbb c4bd e93a
000000c0: e6c0 313b 3041 163b 7996 1f3b 9b10 cf3b
000000d0: 3c8f fe3a 99d4 ed3b 2abe 35ba a297 aeba
000000e0: fd35 9bbb 166e 30bb f894 c63b 4386 94b9
000000f0: fa1d 1fbb 2268 863a aea4 8f3a 1a7b 2e3b
00000100: 920e 003c 985e 183a e5ff 0639 61ae ce3a
00000110: a180 45bb a79d b0bb a362 123b 822f d438
00000120: e275 933a 8097 103b 7af1 443a 9259 bbba
00000130: d1ad 03ba f2b6 0b3a cd5c c3b9 45a5 a0ba
00000140: e556 f33a 40c9 8d3a 39e2 45bb 2c04 adbb
00000150: 57c8 d7ba 0b30 8b39 962f 433b b536 65bb
00000160: 87d6 a4bb ff08 f03b 5a17 30b9 e243 b63a
00000170: 0485 61bb 6cf6 b4bb 95f9 68bb 5f46 b13b
00000180: da1b 96ba 3c5c 293a 099f efbb 1d5b 88bb
00000190: 5954 2cbb ff22 513b 87da 75ba 14fc cebb
000001a0: a054 c2ba 3442 5f3b 5da6 d6b9 852c fab9
000001b0: fffa ca3b 7a5b ad3a 5a97 123b 2059 09ba
000001c0: db69 c3ba 50ae f3ba ad48 abbb 8961 093b
000001d0: 5385 c3bb 0867 72bb 3834 8f3a 2c2f 09ba
000001e0: ad2a 58b7 ab69 0738 40e4 353b 4356 ad3b
000001f0: 9b8e 64ba 5abe 063c 4d88 f93a 9e21 90b8
00000200: 36ed 9aba cb40 f0ba 7603 a4ba 1163 47ba
00000210: c493 373b 36e9 453a a202 9a3b 3887 8338
00000220: a887 10bb fa19 163b e0d4 6d3a 2955 0abc
00000230: 4cf6 62bb 09a8 b13a eb7c 293b b7ae 3f3a
00000240: af78 89b9 3d83 d13a 29fd 2e3b 584d 97b8
00000250: e00c eeba 5ad0 e4b9 1c40 d4bb d916 0d3b
00000260: 5126 f5ba dd7c a03b 2dbe 82ba bbfa ce3a
00000270: ce16 243b 5955 413b 74b9 ab3b 2823 883b
00000280: 555e 443b edde 54bb 60e2 733b 93dc 9c3b
00000290: 9aef 8c3a 097d 4f38 c823 bfbb 3a68 8d39
000002a0: 802e e4ba bbfb 5cbb 84a3 0dbb 07eb b039
000002b0: 534d ec3b b202 d7b8 714d 103b 3c93 a338
000002c0: 97a2 85bb d4bf b9bb 06de 88ba d91c f8ba
000002d0: 695c d6b9 ef15 97bb c5b0 0ebb 6124 fa3a
000002e0: 5172 c43a 5200 41b9 7537 1e3a d9e6 0fb9
000002f0: 32a6 0ab9 d1c9 ff38 c1b6 65ba 977d 3a3a
00000300: 7c96 6439 a6ba 9eba 8502 1cba 33b7 d8b9
00000310: 6ac0 feba 0f7c f0ba 3ee8 d8ba 6f42 8abb
00000320: 9de5 4e3b ddb3 8dbb 5d01 9b3a f692 8db9
00000330: c3cf 263b 8fae 33bb 2087 31ba 5283 4239
00000340: 3b51 77b9 1f28 fa39 fd05 9d3b c555 b33a
00000350: 25ec 9eb9 4e7e a3ba 9e66 02b9 d0b2 0bba
00000360: 6ff9 2cbb 2c5d 49ba 929e babb e8d4 6539
00000370: 9327 cfb9 5b8e 7ab8 dc9c c8ba 6bfe a4bb
00000380: 95a6 b7b9 f5ff d5bb 2922 64bb 1e1a 4d3b
00000390: aeb8 8ebb 0e0f 753a 7dc9 093b 5ab5 9839
000003a0: 33c6 eb38 f6b3 883b e963 893a 47fd c6bb
000003b0: d024 a63b 7853 353b 0083 4f3b 189d 023b
000003c0: c063 e13b 29fe 993b 93e6 f53a 8b46 6a3b
000003d0: 3c17 993b a807 853b e710 273b 3a6e fab9
000003e0: 70a9 783b f70f dfb9 9069 05bb c281 c8ba
000003f0: d0f1 0bba 0576 79ba cc47 fd3a 8f8e 9abb

bn1.weight f4 [256]
0.869294 1.3901205 0.8334976 0.7113336 0.87168497 0.7739667 0.8362402 0.84443325
0.86454135 0.7431179 0.75611377 0.830466 0.7284963 0.807718 1.2352988 0.7887724
1.0396439 1.249032 0.78540456 0.7675858 0.7845826 0.9270058 0.7194774 0.77681595
0.8459925 0.8388428 0.7913861 0.8693993 0.80779946 0.8031146 0.7113168 0.8428104
0.81711036 0.8878987 0.90266377 0.85701925 0.8289741 0.7993831 0.98685807 0.7318709
0.8669044 0.81933457 1.2081503 0.91490066 0.88879085 0.75455004 0.7697206 0.785697
0.99628586 0.8628811 0.9221873 1.0803959 0.7601208 0.7490322 0.7944607 0.8885403
0.69181216 0.8813329 0.76902723 0.8630648 0.75266695 0.9329172 0.827452 0.8913031
0.81136066 0.99930567 0.84687626 0.7551807 0.84553725 0.8181044 0.85955656 0.78024995
0.8443553 0.8112219 0.8327976 0.76602215 1.1155005 0.6484091 0.7623234 0.82428354
0.7394467 0.6954967 0.81862444 0.86942804 0.7104261 0.86021227 0.8171491 1.2746679
1.1230142 0.77747977 0.76696867 0.819782 0.7621571 0.806878 0.74828357 0.85098886
0.8902354 0.8282809 0.96152353 0.7612626 0.8154063 0.8373382 0.78284466 0.8501523
0.7542932 0.893259 0.87368846 0.75338286 0.8377389 0.7099679 0.8415502 0.8351544
0.9064627 0.7443579 0.92142904 0.77817714 0.8980122 0.8576275 0.65241027 0.77095854
0.861605 0.73704123 0.8213525 0.85937476 0.71567464 0.93940604 0.84829015 0.7428203
0.8819173 0.71055716 0.88629514 0.83130044 0.69353765 0.7919189 0.6838537 0.8071259
0.9456695 0.8043569 0.8713249 0.85768574 0.7743087 0.74620545 0.77665824 1.0614119
0.83734226 0.7582192 0.71484756 0.7440534 0.7005243 0.87706983 0.87454444 0.7903597
0.86760443 0.8814321 0.81949574 0.7002714 0.8932564 0.8954229 0.72545797 0.8234983
0.87339973 0.8541975 1.0630409 0.83933955 0.8419815 0.7462887 0.83331054 0.80925804
0.82521236 0.79631853 0.7932949 0.7049664 0.83095795 0.7976889 0.8541291 1.014932
0.92005837 0.78153485 0.7734547 0.7444115 0.7623314 1.2995874 0.75580883 0.81199014
0.7768167 1.0789076 0.83629096 0.84821963 0.9350955 0.94345456 0.98512673 0.78444445
0.71037185 0.9512419 0.7063647 0.6680993 0.7658607 0.70501024 0.77098906 0.7763082
0.74851 0.73261535 0.9205814 0.8734158 0.78585577 0.83719367 0.78005326 0.6965486
0.8951321 0.7558612 0.80451095 0.9354618 0.7511741 0.95477134 0.9934719 0.8971104
0.81551784 0.77863294 0.9008851 0.76521605 0.9443367 0.80643225 0.91223705 0.8786111
0.8502609 0.74487984 0.81613904 0.99528897 0.8720438 0.91619515 0.83508 0.9199847
0.6935514 0.74362445 0.7975379 0.9689283 0.93838286 0.88658035 0.87204695 1.0083361
0.74341947 0.8714474 1.2229049 0.9214024 0.7292961 0.7669064 0.82792646 0.76294875
0.9581958 0.78101254 1.011479 0.8763938 0.7687889 0.88005 0.81350857 0.73649925
00000000: 0d8a 5e3f 78ef b13f 1960 553f f519 363f
00000010: bf26 5f3f af22 463f d613 563f c72c 583f
00000020: 9552 5d3f fa3c 3e3f ac90 413f 6b99 543f
00000030: bc7e 3a3f 9bc6 4e3f 451e 9e3f fdec 493f
00000040: 0d13 853f 48e0 9f3f 4610 493f 8180 443f
00000050: 68da 483f 4150 6d3f ac2f 383f 69dd 463f
00000060: f792 583f 67be 563f 4898 4a3f f490 5e3f
00000070: f2cb 4e3f eb98 4d3f dc18 363f 6cc2 573f
00000080: 252e 513f 544d 633f f914 673f 9d65 5b3f
00000090: a637 543f 5fa4 4c3f bba2 7c3f e45b 3b3f
000000a0: 72ed 5d3f e9bf 513f aba4 9a3f ee36 6a3f
000000b0: cc87 633f 312a 413f 690c 453f 7023 493f
000000c0: 970c 7f3f c7e5 5c3f 7814 6c3f 6a4a 8a3f
000000d0: 4797 423f 93c0 3f3f c761 4b3f 6177 633f
000000e0: 9a1a 313f 089f 613f f8de 443f d1f1 5c3f
000000f0: c8ae 403f a9d3 6e3f e5d3 533f 712c 643f
00000100: 55b5 4f3f 7fd2 7f3f e2cc 583f 8653 413f
00000110: 2175 583f 4a6f 513f e60b 5c3f 76be 473f
00000120: ab27 583f 3dac 4f3f 3932 553f 071a 443f
00000130: b8c8 8e3f 24fe 253f a027 433f 3f04 533f
00000140: 614c 3d3f 120c 323f 5f91 513f d692 5e3f
00000150: 7cde 353f df36 5c3f af30 513f 5128 a33f
00000160: eebe 8f3f ea08 473f 0f58 443f 3cdd 513f
00000170: ba1c 433f 8e8f 4e3f 838f 3f3f 68da 593f
00000180: 78e6 633f 380a 543f 6826 763f 1be2 423f
00000190: 78be 503f cc5b 563f 8268 483f 95a3 593f
000001a0: 5c19 413f 9fac 643f 0caa 5f3f b3dd 403f
000001b0: 0e76 563f 75c0 353f d56f 573f aecc 553f
000001c0: f10d 683f 3d8e 3e3f c6e2 6b3f 9e36 473f
000001d0: 21e4 653f 7a8d 5b3f 5c04 273f 8a5d 453f
000001e0: 2592 5c3f bcae 3c3f 2844 523f fcff 5b3f
000001f0: 7436 373f ea7c 703f 8b29 593f 7929 3e3f
00000200: 55c5 613f 13e7 353f 3de4 623f 1bd0 543f
00000210: af8b 313f 32bb 4a3f 0911 2f3f ce9f 4e3f
00000220: 6517 723f 55ea 4d3f 260f 5f3f 4b91 5b3f
00000230: 1839 463f 5207 3f3f 13d3 463f 58dc 873f
00000240: 105c 563f a71a 423f 4000 373f 497a 3e3f
00000250: 8f55 333f a687 603f 25e2 5f3f 0355 4a3f
00000260: 531b 5e3f 89a5 613f 79ca 513f fd44 333f
00000270: 74ac 643f 6f3a 653f 9db7 393f c9d0 523f
00000280: 2097 5f3f b0ac 5a3f b911 883f f5de 563f
00000290: 198c 573f c70c 3f3f d753 553f 892b 4f3f
000002a0: 1e41 533f 88db 4b3f 6015 4b3f ae78 343f
000002b0: a9b9 543f 5735 4c3f 34a8 5a3f 4be9 813f
000002c0: f288 6b3f ab12 483f 2101 463f c191 3e3f
000002d0: 2728 433f e158 a63f b07c 413f 96de 4f3f
000002e0: 76dd 463f a519 8a3f 2a17 563f ec24 593f
000002f0: 6b62 6f3f 3d86 713f 4431 7c3f 5ad1 483f
00000300: eeda 353f 9784 733f 51d4 343f 8e08 2b3f
00000310: 720f 443f 8d7b 343f 8a5f 453f 22bc 463f
00000320: 5a9e 3f3f ae8c 3b3f 39ab 6b3f 2e98 5f3f
00000330: d82d 493f 5352 563f 92b1 473f 0251 323f
00000340: 6127 653f 1f80 413f 6ef4 4d3f 6d7a 6f3f
00000350: f24c 403f e56b 743f 2d54 7e3f 07a9 653f
00000360: c7c5 503f 7d54 473f 68a0 663f 33e5 433f
00000370: 0dc0 713f 5872 4e3f 5e88 693f a8ec 603f
00000380: b3aa 593f 72b0 3e3f 7dee 503f 42cb 7e3f
00000390: 433e 5f3f c48b 6a3f cec7 553f 1e84 6b3f
000003a0: 968c 313f 2c5e 3e3f 722b 4c3f af0b 783f
000003b0: dc39 703f eef6 623f 783e 5f3f 2811 813f
000003c0: bd50 3e3f 2d17 5f3f 2688 9c3f 07e1 6b3f
000003d0: 26b3 3a3f fa53 443f fdf2 533f 9c50 433f
000003e0: 524c 753f 70f0 473f 2578 813f 585b 603f
000003f0: 59cf 443f f54a 613f 1942 503f 378b 3c3f

bn1.bias f4 [256]
-0.54170585 -0.73536277 -0.70286804 -0.5184709 -0.6010253 -0.66447 -0.3293288 -0.52322704
-0.64737844 -0.5371689 -0.5940207 -0.51334965 -0.280988 -0.49492753 -0.6146701 -0.2732329
-0.46735746 -0.6502982 -0.4818013 -0.44554806 -0.57597786 -0.7467724 -0.44309074 -0.5660793
-0.56023717 -0.5833347 -0.58069605 -0.64446807 -0.5923353 -0.43460613 -0.526448 -0.6217476
-0.53759015 -0.5392125 -0.43940562 -0.46443373 -0.64201146 -0.60190463 -0.60849357 -0.32695642
-0.5169467 -0.54629534 -0.6010277 -0.6059772 -0.61760694 -0.4984265 -0.6637336 -0.49736878
-0.6267728 -0.50469166 -0.439059 -0.5332255 -0.4083389 -0.35913798 -0.43220496 -0.6010063
-0.5560352 -0.46030948 -0.5298738 -0.4619024 -0.3319288 -0.6139468 -0.5531978 -0.5277887
-0.56038123 -0.4410897 -0.46380642 -0.5451073 -0.5383628 -0.4916014 -0.60950536 -0.38775593
-0.5658618 -0.5711309 -0.66908365 -0.41220152 -0.5724643 -0.41502386 -0.71480197 -0.6205351
-0.5147111 -0.46491048 -0.48973152 -0.45546892 -0.40158802 -0.6035565 -0.52144355 -0.69823754
-0.67518085 -0.5773638 -0.45064396 -0.5124322 -0.47713786 -0.5299122 -0.7010589 -0.64231306
-0.44220048 -0.62348187 -0.56930614 -0.57364887 -0.5111635 -0.41051656 -0.68372667 -0.44535643
-0.46863407 -0.59366804 -0.5646793 -0.46185657 -0.6707865 -0.6199853 -0.40665838 -0.49534374
-0.75367063 -0.43158484 -0.5230222 -0.54446334 -0.42550403 -0.47964627 -0.41993833 -0.5420222
-0.6074089 -0.54918253 -0.5210723 -0.5581474 -0.47887692 -0.5028936 -0.6893296 -0.6064587
-0.5491844 -0.38522363 -0.62394154 -0.39141637 -0.62493765 -0.63915807 -0.4638275 -0.51234037
-0.62923366 -0.36000612 -0.4716182 -0.59011954 -0.43129554 -0.37884474 -0.57659084 -0.6728645
-0.509699 -0.45512864 -0.5318271 -0.45249367 -0.4162908 -0.5865059 -0.6084296 -0.45671377
-0.5419712 -0.45274386 -0.4788127 -0.4969959 -0.41870794 -0.5172802 -0.46968693 -0.54702765
-0.28020868 -0.43499115 -0.61833674 -0.6292841 -0.5706822 -0.595657 -0.6678858 -0.40836114
-0.49226603 -0.5809109 -0.45965058 -0.6148593 -0.59523356 -0.41644162 -0.5247643 -0.40394676
-0.6027888 -0.51345706 -0.36544755 -0.25638717 -0.46255735 -0.6624942 -0.3424997 -0.59774745
-0.45946816 -0.5589614 -0.47331208 -0.4858324 -0.45617118 -0.35070312 -0.72119695 -0.554568
-0.38225982 -0.50581944 -0.36812097 -0.44555464 -0.58536977 -0.44926116 -0.6342677 -0.372133
-0.5233932 -0.44573352 -0.4497752 -0.55332243 -0.6995886 -0.71801966 -0.45840943 -0.37879533
-0.4101817 -0.33489224 -0.6660683 -0.67657346 -0.4163872 -0.26444352 -0.43807065 -0.65451
-0.4340965 -0.5123499 -0.60600525 -0.44994408 -0.5321512 -0.45372358 -0.6372054 -0.5104431
-0.47982875 -0.29370642 -0.56673187 -0.5330086 -0.6661058 -0.65581775 -0.6908278 -0.64133006
-0.5543236 -0.5825345 -0.5717836 -0.63981956 -0.65750945 -0.5578784 -0.58435065 -0.5999359
-0.49585035 -0.7411162 -0.6174833 -0.56247276 -0.4355227 -0.5272098 -0.5191045 -0.43899322
-0.6897997 -0.5615921 -0.51395065 -0.58398867 -0.5659304 -0.70975775 -0.57608247 -0.39879215
00000000: 3cad 0abf bc40 3cbf 29ef 33bf 82ba 04bf
00000010: cbdc 19bf b51a 2abf c99d a8be 35f2 05bf
00000020: 98ba 25bf e783 09bf be11 18bf e26a 03bf
00000030: a9dd 8fbe 2467 fdbe 055b 1dbf 2fe5 8bbe
00000040: 7a49 efbe f179 26bf a9ae f6be e01e e4be
00000050: 4973 13bf 7a2c 3fbf cadc e2be 93ea 10bf
00000060: b46b 0fbf 6c55 15bf 7fa8 14bf dcfb 24bf
00000070: 49a3 17bf b284 debe 4cc5 06bf da2a 1fbf
00000080: 829f 09bf d509 0abf c6f9 e0be 42ca edbe
00000090: dd5a 24bf 6c16 1abf 3cc6 1bbf d566 a7be
000000a0: 9e56 04bf 03da 0bbf f4dc 19bf 5221 1bbf
000000b0: 7d1b 1ebf c231 ffbe 72ea 29bf 1fa7 febe
000000c0: 2f74 20bf 7933 01bf 57cc e0be 7781 08bf
000000d0: cc11 d1be efe0 b7be f849 ddbe 8ddb 19bf
000000e0: 5358 0ebf afad ebbe cfa5 07bf 797e ecbe
000000f0: 92f2 a9be 9e2b 1dbf 5f9e 0dbf 291d 07bf
00000100: 2575 0fbf 82d6 e1be 0978 edbe 278c 0bbf
00000110: 25d2 09bf 2eb3 fbbe 8b08 1cbf f287 c6be
00000120: 52dc 10bf a235 12bf 1149 2bbf 140c d3be
00000130: 058d 12bf 027e d4be 43fd 36bf 63db 1ebf
00000140: 1bc4 03bf bf08 eebe 17be fabe 3933 e9be
00000150: f29c cdbe ae82 1abf 537d 05bf b2bf 32bf
00000160: a7d8 2cbf 1dce 13bf ceba e6be c22e 03bf
00000170: 6a4b f4be 53a8 07bf 9978 33bf a16e 24bf
00000180: 1a68 e2be 829c 1fbf 0cbe 11bf a7da 12bf
00000190: 9cdb 02bf 3a2f d2be b608 2fbf c205 e4be
000001a0: cef0 efbe a1fa 17bf d38e 10bf 7778 ecbe
000001b0: aab8 2bbf 5bb7 1ebf 8735 d0be b29d fdbe
000001c0: 8ff0 40bf b0f8 dcbe c8e4 05bf f361 0bbf
000001d0: aadb d9be 3294 f5be 2802 d7be f8c1 0abf
000001e0: 267f 1bbf 3a97 0cbf ff64 05bf bfe2 0ebf
000001f0: 5b2f f5be a3bd 00bf e877 30bf e140 1bbf
00000200: 5997 0cbf 083c c5be a2ba 1fbf ba67 c8be
00000210: eafb 1fbf dd9f 23bf cc7a edbe bd28 03bf
00000220: 7515 21bf b952 b8be f177 f1be 1312 17bf
00000230: c5d2 dcbe f0f7 c1be 759b 13bf d940 2cbf
00000240: a27b 02bf 9f06 e9be d225 08bf 40ad e7be
00000250: 1124 d5be 4025 16bf 0bc2 1bbf 63d6 e9be
00000260: a0be 0abf 0bce e7be f026 f5be 3f76 febe
00000270: e360 d6be 7a6c 04bf ce7a f0be 010a 0cbf
00000280: 8377 8fbe 29b7 debe 514b 1ebf c318 21bf
00000290: 3b18 12bf fa7c 18bf 90fa 2abf b614 d1be
000002a0: 4b0a fcbe 94b6 14bf 5257 ebbe 6b67 1dbf
000002b0: 3a61 18bf d637 d5be f456 06bf 1cd2 cebe
000002c0: 5e50 1abf ec71 03bf f11b bbbe 2e45 83be
000002d0: 51d4 ecbe 3899 29bf 1f5c afbe fa05 19bf
000002e0: 693f ebbe 1818 0fbf f655 f2be 06bf f8be
000002f0: 458f e9be 5c8f b3be 5da0 38bf 2bf8 0dbf
00000300: 8fb7 c3be 627d 01bf 5a7a bcbe bd1f e4be
00000310: cbda 15bf 8f05 e6be 5e5f 22bf 3788 bebe
00000320: 19fd 05bf 2f37 e4be ef48 e6be 8aa6 0dbf
00000330: 3d18 33bf 23d0 37bf a4b4 eabe 76f1 c1be
00000340: 5603 d2be ff76 abbe 7483 2abf eb33 2dbf
00000350: b430 d5be 2465 87be cc4a e0be f88d 27bf
00000360: e541 debe 5d29 03bf 2923 1bbf 125f e6be
00000370: 103b 08bf 754e e8be e51f 23bf 66ac 02bf
00000380: 1dac f5be b060 96be 5715 11bf 4073 08bf
00000390: e985 2abf ace3 27bf 17da 30bf 352e 24bf
000003a0: 27e8 0dbf fb20 15bf 6960 12bf 37cb 23bf
000003b0: 8a52 28bf 1ed1 0ebf 0198 15bf 6695 19bf
000003c0: 19e0 fdbe cbb9 3dbf 6313 1ebf 37fe 0fbf
000003d0: d5fc debe 39f7 06bf 08e4 04bf b8c3 e0be
000003e0: b796 30bf 80c4 0fbf 4592 03bf 4880 15bf
000003f0: d1e0 10bf afb2 35bf 247a 13bf 7c2e ccbe

bn1.running_mean f4 [256]
0.028592452 -0.0031486677 0.009793081 -0.013360289 0.036929615 0.036906365 -0.0043872963 0.03911899
0.00051126466 -0.0069992957 0.0046448233 0.018564008 0.013176283 0.022768676 0.0031185464 -0.0029386156
0.01237104 0.009212924 0.01556825 -0.0026382713 0.0021815125 0.028528782 0.011722481 0.0002630013
0.019533187 0.013922633 0.010907526 0.0546938 0.03092692 -0.023475317 0.01603228 -0.018950375
0.0263944 -0.032651104 0.0118645765 0.025984969 0.005847567 -0.01334828 -0.0016044247 -0.021931786
0.009065592 0.052475832 0.0013611778 -0.0038584727 0.03250904 0.0069768815 -0.00071244326 -0.027943864
-0.00024427514 0.040834874 0.002464146 0.025571335 -0.01707291 -0.022064473 -0.014870052 0.027437456
-0.010932243 0.018342616 0.024352368 -0.00046279863 -0.0040827882 0.035239182 0.022035137 0.002164127
0.045830056 0.0017411791 0.0039647785 0.015868424 0.012340007 0.01262229 0.03283577 -0.008154105
0.032671113 0.012684925 -0.0050696204 -0.022539217 0.011773591 -0.021369185 -0.03754945 -0.019804286
0.008271133 -0.01394703 -0.010117583 -0.04117525 -0.010783697 -0.0061463634 0.02862649 0.0023220922
0.0020241279 0.01905482 0.009364673 -0.012383716 -0.035142817 0.0021634076 0.0073572267 0.030163327
0.021413695 0.008491647 -0.01592959 0.003008923 -0.011609589 0.004707712 0.02598511 0.019789435
-0.007127192 0.024956718 -0.012190127 0.010370753 0.018362848 0.00318431 0.008899774 -0.013684543
0.012648398 0.009419199 0.010323263 0.00792062 -0.0031430542 0.014004162 0.0014682346 -5.370901e-05
0.010532128 -0.0030386026 -0.01915686 0.019459598 0.013931004 0.05067175 0.0065246588 -0.024444725
0.00480679 -0.04042259 0.03871123 0.035794616 -0.015906585 0.008966974 0.006921986 0.029248841
-0.00030688354 0.040741477 -0.029423863 0.039437454 -0.024353467 0.0017871285 0.00979235 0.012570001
0.020187588 0.030436689 -0.020083582 -0.030632436 0.0059460644 0.011646129 0.014169584 0.05958774
0.0024480605 0.016670775 0.009052033 0.024403816 -0.01284628 0.037572294 0.012727459 -0.005591587
0.014333872 0.012275181 0.018187696 0.008259271 -0.035502285 0.006250864 0.03655476 0.002176627
-0.00035959075 0.0018187423 -0.0054451018 0.019466083 0.050898813 -0.008151263 0.028132565 0.0076870304
0.007155856 -0.0299868 -0.009096788 0.02770501 -0.003997623 0.007721647 -0.005460415 0.031389534
0.0070781806 0.011302058 0.01670957 0.040185954 -0.00025963527 -0.02339895 -0.0037170683 0.024598313
-0.012897082 0.008036669 -0.0015784068 0.032539837 -0.0013583614 -0.013271132 -0.027554233 -0.0076306965
0.034257237 0.0035219772 0.04805683 -0.013147115 0.013092003 -0.052547712 0.017021317 0.0005504008
-0.009600519 0.029828753 0.01911675 0.028464293 0.009740134 -0.03574077 0.0029990377 0.015975753
0.00898698 0.017959578 0.044680677 0.021585722 0.0016074681 0.028697262 0.007395008 -0.015979577
0.00398958 -0.011769421 0.01852349 0.018213857 -0.0011118489 0.007874335 0.029646685 -0.003322145
0.036592226 -0.0014371446 0.015051511 0.004863672 -0.0049642147 0.0012945889 0.01508353 0.012443016
0.035484217 -0.024845408 0.015169985 0.011691212 0.044891264 -0.0071257516 0.018518364 -0.0025631515
0.0029227356 -0.014069988 0.0110665355 -0.031751953 0.011246183 0.015239067 0.020704694 -0.0013570035
00000000: b83a ea3c e159 4ebb 2973 203c 1de5 5abc
00000010: 8243 173d 212b 173d 4fc3 8fbb 3c3b 203d
00000020: 6406 063a 595a e5bb 9a33 983b 8c13 983c
00000030: 56e1 573c 6085 ba3c 8760 4c3b ca95 40bb
00000040: e7af 4a3c cef1 163c f911 7f3c d9e6 2cbb
00000050: b5f7 0e3b 31b5 e93c a60f 403c 70e3 8939
00000060: 1004 a03c c11b 643c 7bb5 323c 9b06 603d
00000070: 745a fd3c 4f4f c0bc 2156 833c d13d 9bbc
00000080: 1239 d83c 2abd 05bd a463 423c 6ede d43c
00000090: f39c bf3b bfb2 5abc 8f4b d2ba 4aaa b3bc
000000a0: d987 143c e6f0 563d 8c69 b23a 6ede 7cbb
000000b0: 3328 053d 539e e43b 42c3 3aba 88ea e4bc
000000c0: 0e12 80b9 7842 273d 827d 213b fa7a d13c
000000d0: 7ddc 8bbc 8ec0 b4bc 85a1 73bc 84c4 e03c
000000e0: 271d 33bc 4143 963c 9e7e c73c c8a3 f2b9
000000f0: e9c8 85bb f656 103d 0883 b43c 07d4 0d3b
00000100: 4cb8 3b3d 4738 e43a f9ea 813b 7ffe 813c
00000110: be2d 4a3c b9cd 4e3c cd7e 063d cc98 05bc
00000120: 25d2 053d 6fd4 4f3c 0f1f a6bb 2aa4 b8bc
00000130: 05e6 403c 6e0e afbc 74cd 19bd 993c a2bc
00000140: a583 073c 1582 64bc 38c4 25bc 61a7 28bd
00000150: 1aae 30bc 6f67 c9bb 1a82 ea3c 3e2e 183b
00000160: 3ba7 043b db18 9c3c 496e 193c 12e5 4abc
00000170: eaf1 0fbd f5c7 0d3b e414 f13b 1519 f73c
00000180: c66b af3c 8d20 0b3c c67e 82bc 5a31 453b
00000190: 2536 3ebc 2743 9a3b bade d43c 741d a23c
000001a0: 388b e9bb 0872 cc3c 19b9 47bc 17ea 293c
000001b0: af6d 963c dbaf 503b 5cd0 113c 2235 60bc
000001c0: 3a3b 4f3c fc52 1a3c e722 293c 7dc5 013c
000001d0: b3fb 4dbb b671 653c c771 c03a 9c45 61b8
000001e0: f28e 2c3c 4b23 47bb d9ee 9cbc bc69 9f3c
000001f0: de3e 643c 2e8d 4f3d cecc d53b 4e40 c8bc
00000200: 4782 9d3b 2892 25bd ab8f 1e3d 609d 123d
00000210: 874e 82bc 37ea 123c d4d1 e23b 449b ef3c
00000220: 36e5 a0b9 89e0 263d 500a f1bc 2b89 213d
00000230: ec80 c7bc 153e ea3a 1870 203c 68f2 4d3c
00000240: 7160 a53c 5d56 f93c 5386 a4bc e0f0 fabc
00000250: 34d7 c23b 68cf 3e3c 8b27 683c 4612 743d
00000260: a46f 203b 2691 883c fa4e 143c 83ea c73c
00000270: 3479 52bc 68e5 193d d586 503c a239 b7bb
00000280: 9ed8 6a3c d71d 493c 5dfe 943c e551 073c
00000290: d86a 11bd 0cd4 cc3b 72ba 153d bea5 0e3b
000002a0: 7487 bcb9 dd62 ee3a d36c b2bb 5677 9f3c
000002b0: 467b 503d e08c 05bc 4476 e63c 7ce3 fb3b
000002c0: ac7b ea3b e1a6 f5bc b20a 15bc 9ef5 e23c
000002d0: 7efe 82bb df05 fd3b 48ed b2bb 5092 003d
000002e0: 15f0 e73b 442c 393c 82e2 883c 079a 243d
000002f0: a81f 88b9 28af bfbc 0f9a 73bb 6782 c93c
00000300: 484e 53bc 3cac 033c 8be2 ceba 7e48 053d
00000310: 0c0b b2ba 296f 59bc 6ab9 e1bc ec0a fabb
00000320: 5151 0c3d f9d0 663b 3dd7 443d ff66 57bc
00000330: d77f 563c 453c 57bd 4a70 8b3c c648 103a
00000340: 7f4b 1dbc 6e5b f43c bb9a 9c3c f32d e93c
00000350: 1595 1f3c ea64 12bd 818b 443b 95df 823c
00000360: 203e 133c f71f 933c 1603 373d 8ad4 b03c
00000370: aeb1 d23a 8516 eb3c d351 f23b 9ae7 82bc
00000380: 06bb 823b 88d4 40bc 93be 973c 3a35 953c
00000390: 75bb 91ba 5b03 013c 9bdd f23c 58b8 59bb
000003a0: bbe1 153d 925e bcba 9d9a 763c 705f 9f3b
000003b0: daaa a2bb 32af a93a e920 773c cbdd 4b3c
000003c0: e657 113d 9988 cbbc 878b 783c 7f8c 3f3c
000003d0: e7df 373d 237f e9bb d3b3 973c 8cfa 27bb
000003e0: 5e8b 3f3b cf85 66bc 6a50 353c 560e 02bd
000003f0: e941 383c 48ad 793c e49c a93c 7bdd b1ba

bn1.running_var f4 [256]
1.1466317 3.7723775 0.94917625 1.3671255 1.3565371 0.8544938 1.3833549 0.7667074
1.4049408 1.3170178 1.0181332 0.9867394 1.1457701 1.2460643 3.602158 1.2504704
4.5041604 3.2181516 1.0781791 1.2706169 1.298583 1.6136116 1.5770836 0.97161233
1.5696304 1.1011115 1.3948883 1.1597035 0.8807404 1.5924692 0.9510019 1.1626744
1.1050569 2.5369139 1.1818212 1.326836 1.1682293 1.1758282 2.5436144 1.3636491
1.4975432 1.3130566 2.9390123 2.465934 0.8519566 1.1328354 1.1241525 1.3125117
2.7798502 1.0797596 2.2590294 3.07007 1.8615723 0.9723533 1.6352936 1.1054997
1.072871 1.4384041 0.8600773 1.599027 1.6820847 1.5637951 1.2342652 1.1827844
1.2863824 2.9318807 2.8109407 1.2648969 0.92271787 1.2407285 1.2965273 1.6149038
1.1523861 1.2435336 1.5205361 0.89245564 2.6625793 1.1006027 1.1599233 1.4003472
0.93852216 1.4826056 0.86938363 1.107852 1.3722957 0.8958512 1.8182821 4.1278195
2.3586223 1.0755361 1.3750216 1.3535702 1.4947127 0.86391395 1.0536625 0.90937907
1.2471511 0.99907625 1.1545815 1.4536846 1.1743816 0.9926635 1.276639 1.0813094
1.1802173 1.3395058 1.6302804 1.05956 0.8441832 0.7983015 1.2700124 2.2015004
0.8723748 1.070604 1.967412 0.85208184 2.2687917 1.3445991 1.1155744 0.89581764
1.3599569 1.2639209 1.1759324 1.0875165 0.86852926 2.283698 1.3336313 1.330019
2.11352 1.8832234 1.2609766 1.6927683 0.976769 0.8148698 0.8594432 1.346303
2.4038522 1.5114484 2.2544763 0.97428656 1.1029824 1.5541735 0.9590797 2.4050174
1.3792323 1.2861993 1.5512179 1.8370281 1.0845006 1.2863553 0.91517544 0.8317721
2.0834358 2.1292257 1.0811528 0.8768001 1.1598723 1.3654087 0.9085294 1.0497464
1.1274722 1.6549731 1.9979612 1.2644784 1.0828887 1.1719775 0.8635584 3.1401534
1.7589594 1.2016872 1.0387325 0.80649316 1.2812997 1.2769513 1.3439391 3.4403102
1.9883057 1.4836593 2.0525696 1.5122652 1.1955439 3.3421266 1.3709477 1.3916006
2.0638752 3.3956766 0.8126416 1.5966271 2.5500922 3.0885367 1.7912899 1.1192943
1.0786288 1.7386578 1.3983434 1.4583983 1.2940791 1.1023618 0.98254544 1.0535822
1.1322163 1.0060465 3.1566832 2.0239086 1.522997 1.3563429 1.7467215 0.92121154
1.9784003 1.2167407 1.0206455 1.1345453 0.8775197 4.4467754 2.1705246 0.9258684
1.1165552 1.0655459 1.0628 1.4421211 2.812795 1.1191777 1.3357519 1.4770758
1.1501908 1.226564 1.0240334 1.8551288 0.9940478 1.1742944 1.4885356 1.7384604
1.2767313 0.9430865 1.2274543 2.1882715 1.6396791 2.1879666 1.2426233 2.256681
1.05117 1.3549374 3.456595 1.2828302 1.1549056 1.4609889 1.3147123 1.083817
1.4610286 1.4678674 1.2376485 1.2574755 1.07831 1.3941095 1.4009686 1.4676478
00000000: d4c4 923f a26e 7140 37fd 723f f8fd ae3f
00000010: 02a3 ad3f 1bc0 5a3f c611 b13f f046 443f
00000020: 1ad5 b33f 0a94 a83f 3052 823f f49a 7c3f
00000030: 98a8 923f 097f 9f3f c289 6640 6a0f a03f
00000040: 1522 9040 32f6 4d40 c601 8a3f 93a3 a23f
00000050: f837 a63f d38a ce3f e0dd c93f 96bb 783f
00000060: a6e9 c83f 39f1 8c3f b38b b23f 2a71 943f
00000070: 3478 613f 08d6 cb3f dc74 733f 84d2 943f
00000080: 8172 8d3f cc5c 2240 eb45 973f c3d5 a93f
00000090: 8a88 953f 8a81 963f 94ca 2240 0e8c ae3f
000000a0: 7faf bf3f 3d12 a83f c718 3c40 ddd1 1d40
000000b0: d419 5a3f c000 913f 3be4 8f3f 6200 a83f
000000c0: 11e9 3140 9035 8a3f f093 1040 077c 4440
000000d0: 0048 ee3f 25ec 783f 4d51 d13f 0481 8d3f
000000e0: d653 893f a01d b83f 072e 5c3f ebac cc3f
000000f0: 8d4e d73f 702a c83f 67fc 9d3f 7b65 973f
00000100: 2ea8 a43f efa3 3b40 74e6 3340 24e8 a13f
00000110: 3d37 6c3f 31d0 9e3f 9bf4 a53f 2bb5 ce3f
00000120: 6381 933f 1c2c 9f3f eda0 c23f f977 643f
00000130: b367 2a40 8de0 8c3f 5e78 943f 943e b33f
00000140: fd42 703f 05c6 bd3f ed8f 5e3f 18ce 8d3f
00000150: 63a7 af3f 8156 653f 78bd e83f 1917 8440
00000160: abf3 1640 2bab 893f b500 b03f ca41 ad3f
00000170: bf52 bf3f 7729 5d3f 6ade 863f 11cd 683f
00000180: a6a2 9f3f 76c3 7f3f 54c9 933f 5612 ba3f
00000190: 2352 963f 321f 7e3f e868 a33f 5968 8a3f
000001a0: 5c11 973f ed74 ab3f 07ad d03f a99f 873f
000001b0: 641c 583f 7d5d 4c3f c48f a23f 62e5 0c40
000001c0: f453 5f3f 8d09 893f 28d4 fb3f 0922 5a3f
000001d0: e233 1140 d31b ac3f 24cb 8e3f 4e54 653f
000001e0: 1113 ae3f 29c8 a13f f484 963f be33 8b3f
000001f0: ef57 5e3f 1c28 1240 6eb4 aa3f 103e aa3f
00000200: e943 0740 770d f13f ae67 a13f a2ac d83f
00000210: 880d 7a3f 4f9b 503f 7804 5c3f a853 ac3f
00000220: b7d8 1940 2477 c13f 5749 1040 d86a 793f
00000230: 872e 8d3f 28ef c63f 3f86 753f ceeb 1940
00000240: af8a b03f 2ea2 a43f 4f8e c63f bd23 eb3f
00000250: ead0 8a3f 4aa7 a43f f048 6a3f 04ef 543f
00000260: 0357 0540 3c45 0840 3763 8a3f f975 603f
00000270: b276 943f b6c5 ae3f 6295 683f 175e 863f
00000280: 0251 903f 29d6 d33f 31bd ff3f 6eda a13f
00000290: 199c 8a3f 5c03 963f 2a12 5d3f 46f8 4840
000002a0: 9525 e13f e3d0 993f 30f5 843f 5676 4e3f
000002b0: a101 a43f 2473 a33f 3206 ac3f 0b2e 5c40
000002c0: cd80 fe3f 8ce8 bd3f 4d5d 0340 e891 c13f
000002d0: 9507 993f 67e5 5540 377b af3f f81f b23f
000002e0: 8816 0440 c452 5940 4809 503f 475e cc3f
000002f0: b634 2340 96aa 4540 fd48 e53f 0945 8f3f
00000300: 8210 8a3f 578c de3f ebfc b23f ccac ba3f
00000310: 62a4 a53f 311a 8d3f 1988 7b3f c8db 863f
00000320: 77ec 903f 22c6 803f 1907 4a40 b887 0140
00000330: 91f1 c23f a59c ad3f 9294 df3f 85d4 6b3f
00000340: 393c fd3f 29be 9b3f 83a4 823f c838 913f
00000350: 22a5 603f fc4b 8e40 e0e9 0a40 b605 6d3f
00000360: 48eb 8e3f cf63 883f d509 883f 6d97 b83f
00000370: d504 3440 3741 8f3f ebf9 aa3f d210 bd3f
00000380: 7439 933f 0d00 9d3f 8713 833f dc74 ed3f
00000390: eb79 7e3f 474f 963f 5688 be3f df85 de3f
000003a0: ee6b a33f 1e6e 713f 391d 9d3f a40c 0c40
000003b0: 01e1 d13f a507 0c40 480e 9f3f 766d 1040
000003c0: bd8c 863f 976e ad3f da38 5d40 c833 a43f
000003d0: f2d3 933f af01 bb3f 7e48 a83f 84ba 8a3f
000003e0: fc02 bb3f 14e3 bb3f 446b 9e3f f5f4 a03f
000003f0: 1006 8a3f 2e72 b23f f052 b33f e2db bb3f

fc2.weight f4 [128, 256]
0.13658887 -0.26262394 -0.13953352 -0.07636637 0.21971081 -0.11057272 0.028784731 -0.06425166
-0.12086995 -0.11239871 -0.08462381 0.18885075 -0.07419179 -0.08757697 -0.127914 -0.014910997
-0.08093613 -0.13419196 -0.035851203 -0.044287547 -0.14842738 0.08927275 -0.103195734 -0.18369554
-0.18481252 -0.15826957 0.051999465 -0.07018056 -0.19098628 0.10705449 -0.0752446 0.12556887
-0.0934571 -0.03281422 -0.019126007 0.17193013 -0.09600575 -0.003917159 -0.10856861 -0.14092495
-0.09400897 0.051024757 -0.18624182 -0.04757743 -0.05630897 -0.20404264 -0.10277253 -0.123167664
0.009953953 -0.1924387 -0.24684733 -0.1263453 -0.052438 -0.06840274 -0.050893057 0.18773444
-0.110666476 0.04238361 -0.11059003 -0.108755685 0.08372016 -0.054420106 0.14811529 -0.21563219
-0.09796303 0.030273532 -0.14864817 0.06990959 -0.15360788 0.1000275 -0.19033419 -0.08175814
-0.11024055 -0.14971763 -0.11092397 -0.1173399 -0.105805956 0.0208413 0.15598533 -0.0257893
-0.04326995 -0.0022477317 -0.099235035 -0.062686354 -0.052916955 -0.12228834 -0.16676898 -0.12518935
-0.108505726 -0.029139234 -0.02813835 -0.0014390135 0.12589413 -0.07868964 0.020394199 -0.080257684
-0.14599545 -0.06760297 0.10839233 -0.14756842 -0.09130205 -0.07005064 -0.07056802 -0.08516713
-0.054208905 -0.15383898 0.10710631 -0.09596551 -0.114871725 -0.06887993 -0.2370367 -0.020422488
0.006987065 -0.120604575 -0.070119195 -0.1297975 -0.15580246 -0.1253824 -0.06945518 -0.026789848
-0.115432754 0.048978016 0.010598297 0.112408206 -0.21708606 0.08340731 -0.055048034 0.0026989996
-0.02734444 -0.020843675 0.016052764 0.055969458 -0.106675744 -0.13969062 -0.11859983 0.027474307
-0.13143443 0.14548692 -0.01695703 -0.18116485 -0.0666212 -0.18189268 -0.11203419 -0.04443557
-0.045027245 0.06628237 0.10358737 -0.16761325 0.043096416 -0.048352245 -0.02063423 -0.017595123
-0.07860028 -0.14499764 -0.08298716 -0.10561949 -0.16572401 0.033803247 -0.11930105 0.17798986
-0.06145952 -0.0029214842 0.061335046 -0.08623995 0.009191759 -0.008848754 -0.13853581 -0.06986699
-0.11971439 0.005482096 -0.14304361 -0.042818587 0.15357305 0.010002596 -0.07835246 0.07387038
-0.10099828 0.13969512 -0.063696824 -0.0095238695 0.07700903 -0.1382191 -0.13486685 0.064206034
-0.17679691 -0.03107826 -0.10202335 -0.020998647 -0.08411166 -0.06470318 -0.026751382 0.10457384
-0.19040802 -0.021177085 -0.019016637 0.119346194 -0.06961359 -0.071531445 0.060112078 -0.16683248
0.08366257 -0.051463906 0.0704265 -0.13808827 -0.047639355 0.07193839 -0.052832402 -0.08003917
-0.252714 -0.08963752 -0.15975653 0.29678786 -0.14180504 -0.25616825 0.15911071 0.027653752
-0.21511737 -0.16051482 -0.08496777 -0.18809102 0.056066345 -0.0809649 0.057788387 0.07805424
-0.07637969 -0.004828415 -0.21191165 -0.17709504 -0.13321449 0.06218163 0.1441293 -0.0714055
-0.13026378 -0.0833724 -0.14497621 0.18930323 0.093550645 -0.23748748 -0.14775741 -0.022946527
-0.05805008 0.0068219276 -0.09668661 -0.050144605 -0.15647179 -0.076180875 0.13502659 0.033112906
0.16552962 0.046148993 -0.037354708 0.17661962 0.0028146738 -0.09757593 0.06357724 -0.17077146
00000000: f4dd 0b3e a576 86be e0e1 0ebe f965 9cbd
00000010: dffb 603e f373 e2bd f5cd eb3c 6096 83bd
00000020: aa8a f7bd 4b31 e6bd 404f adbd 1762 413e
00000030: ddf1 97bd 8e5b b3bd e3fb 02be 414d 74bc
00000040: d7c1 a5bd 9e69 09be b6d8 12bd dc66 35bd
00000050: 59fd 17be a2d4 b63d 4958 d3bd af1a 3cbe
00000060: 7e3f 3dbe 6b11 22be 64fd 543d d3ba 8fbd
00000070: e891 43be 623f db3d d719 9abd 2095 003e
00000080: 7066 bfbd 3468 06bd 25ae 9cbc 740e 303e
00000090: aa9e c4bd 835b 80bb 3859 debd a14e 10be
000000a0: c687 c0bd 56ff 503d 2db6 3ebe 8de0 42bd
000000b0: 3ca4 66bd 8ef0 50be 677a d2bd 543f fcbd
000000c0: e815 233c a70e 45be 8cc5 7cbe aa60 01be
000000d0: 3ac9 56bd bc16 8cbd 3d75 50bd 753d 403e
000000e0: 1ba5 e2bd 709a 2d3d 077d e2bd 4dbb debd
000000f0: 7a75 ab3d 9ee7 5ebd 89ab 173e afce 5cbe
00000100: d7a0 c8bd 3300 f83c 3a37 18be c22c 8f3d
00000110: 624b 1dbe 38db cc3d f7e6 42be d070 a7bd
00000120: ccc5 e1bd 944f 19be 1b2c e3bd e74f f0bd
00000130: cbb0 d8bd 60bb aa3c 9eba 1f3e 1544 d3bc
00000140: d53b 31bd ae4e 13bb bd3b cbbd b461 80bd
00000150: 73bf 58bd 4f72 fabd 7dc5 2abe a331 00be
00000160: 4038 debd 67b5 eebc 6682 e6bc 489d bcba
00000170: 64ea 003e 0928 a1bd bc11 a73c 245e a4bd
00000180: d57f 15be 6d73 8abd ccfc dd3d 2d1c 17be
00000190: 92fc babd b676 8fbd f785 90bd 1b6c aebd
000001a0: 280a 5ebd f787 1dbe 8e5a db3d 9189 c4bd
000001b0: de41 ebbd ec10 8dbd c0b9 72be 104d a7bc
000001c0: c0f3 e43b 88ff f6bd a79a 8fbd a3e9 04be
000001d0: ae8a 1fbe 3e64 00be 843e 8ebd 6276 dbbc
000001e0: 0268 ecbd 2c9d 483d 7ba4 2d3c 4636 e63d
000001f0: cf4b 5ebe 74d1 aa3d 0c7a 61bd b3e1 303b
00000200: 7201 e0bc 5bc0 aabc 1681 833c 3b40 653d
00000210: d078 dabd 0f0b 0fbe 78e4 f2bd cc11 e13c
00000220: bf96 06be 86fa 143e 78e9 8abc 4783 39be
00000230: b270 88bd 1342 3abe 2e72 e5bd 1202 36bd
00000240: 7d6e 38bd 0dbf 873d 9d25 d43d cfa2 2bbe
00000250: de85 303d 010d 46bd 1e09 a9bc a623 90bc
00000260: 2ff9 a0bd 437a 14be 2cf5 a9bd 084f d8bd
00000270: 8eb3 29be 4675 0a3d 1c54 f4bd f942 363e
00000280: fabc 7bbd 5f76 3fbb 753a 7b3d 929e b0bd
00000290: 0899 163c 5dfa 10bc 55dc 0dbe 6d16 8fbd
000002a0: d12c f5bd 28a3 b33b 067a 12be 8b62 2fbd
000002b0: 4142 1d3e eee1 233c 4177 a0bd 5b49 973d
000002c0: 30d8 cebd 3d0c 0f3e 7b73 82bd 010a 1cbc
000002d0: e9b6 9d3d 4f89 0dbe 891a 0abe 747e 833d
000002e0: 400a 35be d697 febc 9ef1 d0bd 5b05 acbc
000002f0: bc42 acbd 1a83 84bd b725 dbbc cf2a d63d
00000300: 52fa 42be 917b adbc c7c8 9bbc c76b f43d
00000310: 9291 8ebd 147f 92bd 1538 763d 22d6 2abe
00000320: 4857 ab3d d1cb 52bd c53b 903d 0367 0dbe
00000330: 7c21 43bd 6f54 933d ca66 58bd 94eb a3bd
00000340: bb63 81be e093 b7bd 3797 23be 94f4 973e
00000350: 5735 11be 7c28 83be ebed 223e 1f8a e23c
00000360: ba47 5cbe ff5d 24be 9503 aebd ef9a 40be
00000370: d3a5 653d edd0 a5bd 84b3 6c3d e7da 9f3d
00000380: f46c 9cbd ae37 9ebb 5eff 58be 6758 35be
00000390: 6169 08be 2ab2 7e3d a296 133e 0c3d 92bd
000003a0: de63 05be 26bf aabd a574 14be b5d8 413e
000003b0: 7b97 bf3d eb2f 73be b84d 17be 5bfa bbbc
000003c0: ecc5 6dbd 7a8a df3b a103 c6bd 6e64 4dbd
000003d0: 243a 20be b804 9cbd 6944 0a3e 66a1 073d
000003e0: 9980 293e ba06 3d3d 4001 19bd c6db 343e
000003f0: 6476 383b e4d5 c7bd c934 823d b7de 2ebe

fc2.bias f4 [128]
0.0033780963 0.0013675541 -0.0012356787 0.0026328333 0.00050011126 0.0005947618 -0.002219385 0.00068687525
-0.0028655806 -9.813503e-06 -0.0010665809 0.00013966719 -0.00018332142 -0.00076451874 -0.0015075039 0.0011878797
0.002158844 -0.0015516739 -0.0011642904 -0.0024470673 -0.0012089353 0.0019972797 -9.031404e-05 -0.0014179581
0.0029947287 -0.0014231704 0.0021948535 -0.0010100392 -0.003100778 -0.0007669265 -0.0020072057 -0.00081563013
-0.00069804577 0.0013498889 0.0020819707 9.75098e-07 0.0021176953 2.092428e-05 0.0017578899 -0.0013700316
-0.0006198709 0.001007532 0.0020436342 0.0016751151 -0.0017440506 -0.00019354753 0.0011686761 -0.0019115496
0.0001950184 -0.0018999572 0.00078611204 -0.0021857459 -2.2602757e-05 0.0017544692 0.001152136 -0.001081709
-0.0008748581 -0.00019559845 0.0006130098 -0.0024525023 -0.00039447838 0.0017481284 -0.00043259867 -0.0003943507
6.62496e-05 -3.32103e-05 -0.00020219221 -0.00032526997 -0.0014145053 0.00013799824 -0.0038489278 0.0005734193
0.0018351941 0.00040698977 0.0010384065 0.0013511872 -0.002183237 0.00031820073 -0.00044538177 0.0016290426
0.0013970158 0.00051933 -0.00062892836 0.00017175115 0.00034704612 0.00043743648 0.002676999 -0.005421226
-0.0012480689 0.000107992986 0.0013107625 -0.001299265 0.0014281966 -0.0015875237 0.0009731039 -0.00022726555
0.0021471567 -7.695658e-05 0.00081084674 -0.0015035536 -0.0012266247 0.00073696097 -0.000105759405 -0.0016529264
-0.0015710824 -0.0008698111 -0.00013386228 0.00090297573 0.0010493711 -0.0013272178 0.0012854789 -0.00013233519
-0.0003144109 0.0018534613 0.002149288 -0.0012683944 0.0001429408 -0.0013163821 -0.00067995116 -0.00069134246
-0.0006183179 0.0032861969 0.0014658396 0.0006073958 0.00075670815 0.0008813449 -0.0012453438 3.303592e-05
00000000: 0d63 5d3b 803f b33a 7ff6 a1ba 9d8b 2c3b
00000010: e619 033a cae9 1b3a 1a73 11bb 6b0f 343a
00000020: 77cc 3bbb ada4 24b7 84cc 8bba a073 1239
00000030: f839 40b9 fc69 48ba 7097 c5ba a1b2 9b3a
00000040: 647b 0d3b 8961 cbba 1a9b 98ba fa5e 20bb
00000050: 2375 9eba cbe4 023b fb66 bdb8 c7da b9ba
00000060: 3643 443b ad89 baba 88d7 0f3b 4b63 84ba
00000070: 6c36 4bbb 910b 49ba 538b 03bb 03d0 55ba
00000080: 0ffd 36ba c1ee b03a ac71 083b 1de0 8235
00000090: 08c9 0a3b 8d86 af37 ff68 e63a a292 b3ba
000000a0: d57e 22ba 2a0f 843a 7eee 053b 898f db3a
000000b0: a198 e4ba 05f3 4ab9 432e 993a f68c faba
000000c0: da7d 4c39 fc07 f9ba 1613 4e3a bb3e 0fbb
000000d0: 0d9b bdb7 38f6 e53a 4503 973a 22c8 8dba
000000e0: bc56 65ba 8f19 4db9 64b2 203a 29ba 20bb
000000f0: fed1 ceb9 7521 e53a 69ce e2b9 dbc0 ceb9
00000100: 7cef 8a38 4a4b 0bb8 8f03 54b9 ff88 aab9
00000110: ec66 b9ba 9fb3 1039 4b3e 7cbb 8551 163a
00000120: e58a f03a 3e61 d539 241b 883a 521a b13a
00000130: a414 0fbb 2ed4 a639 2182 e9b9 9985 d53a
00000140: 121c b73a a523 083a abde 24ba 1918 3439
00000150: bef3 b539 bb57 e539 9770 2f3b 8aa4 b1bb
00000160: 3e96 a3ba 4b7a e238 e4cd ab3a 194c aaba
00000170: 5332 bb3a 7514 d0ba e617 7f3a 224e 6eb9
00000180: 50b7 0c3b c063 a1b8 018f 543a e312 c5ba
00000190: b2c6 a0ba 9d30 413a 26cb ddb8 02a7 d8ba
000001a0: c7ec cdba 0904 64ba 625d 0cb9 adb5 6c3a
000001b0: 0d8b 893a 0af6 adba 847d a83a 75c3 0ab9
000001c0: 84d7 a4b9 d7ef f23a 12db 0c3b 4140 a6ba
000001d0: 61e2 1539 748a acba c03e 32ba 353b 35ba
000001e0: 9d16 22ba 3c5d 573b 6a21 c03a a439 1f3a
000001f0: d35d 463a 0e0a 673a ce3a a3ba 0d90 0a38

bn2.weight f4 [128]
1.1667831 1.0282807 0.89697826 0.9882492 0.8894613 0.7356238 1.2044282 0.9479675
1.1671197 0.9039422 1.0416664 1.0488015 0.9118814 0.8935214 0.87271273 0.9065134
1.1476943 0.89001644 1.1250725 1.2100116 0.8810301 0.878849 1.038658 0.9189061
0.9695941 0.9927747 1.0037942 0.8505844 1.1044406 1.0871615 1.015292 0.75416344
1.0307662 1.2283136 1.0452588 1.0130092 1.0029453 1.0456513 0.8242912 0.9765236
1.02244 0.95814365 0.95777094 1.1144941 1.066966 1.1859531 1.002867 0.89733773
1.0788124 1.0077657 0.9598917 0.9855648 0.96236145 1.0086156 1.053805 1.0796398
0.83429927 0.961664 1.0665262 1.0043987 0.96147275 0.8682696 0.9693974 0.99320006
1.2059708 0.9856455 0.8711339 0.86737007 0.94490945 0.8156761 1.2262918 0.89845
0.87329185 1.0666454 1.2163872 0.9756576 1.1561129 1.0181233 1.1140172 1.2234426
1.1515683 0.84594446 0.9460778 1.1731143 1.2036507 0.94951606 0.92518514 0.9420614
0.6359948 1.0464368 1.0945549 0.82882965 1.0812507 0.961109 1.147206 1.1464419
0.96655613 0.85810244 0.9965843 0.9242534 0.87377673 0.8899422 0.96655864 0.9293959
1.0307419 1.2059444 0.90756786 0.9384927 0.91166663 1.2607795 0.707325 0.9113256
0.8529067 0.9456838 1.0357258 0.58788186 1.0859513 0.88215584 1.0832663 1.0460095
0.7727202 1.0520773 1.1502467 0.9736134 0.82134753 1.2217598 0.9478171 0.9373196
00000000: 2659 953f b49e 833f 5ea0 653f e6fd 7c3f
00000010: bcb3 633f d751 3c3f b42a 9a3f 00ae 723f
00000020: 2e64 953f c268 673f 5355 853f 213f 863f
00000030: 0f71 693f d2bd 643f 1a6a 5f3f 4311 683f
00000040: a6e7 923f 1ed8 633f 6002 903f a9e1 9a3f
00000050: 308b 613f 40fc 603f bff2 843f 6e3d 6b3f
00000060: 5237 783f 7c26 7e3f 547c 803f e6bf 593f
00000070: 4f5e 8d3f 1c28 8b3f 17f5 813f db10 413f
00000080: 26f0 833f 6139 9d3f 0acb 853f 49aa 813f
00000090: 8360 803f e7d7 853f c004 533f 73fd 793f
000000a0: 50df 823f e748 753f 7a30 753f bea7 8e3f
000000b0: 5892 883f 50cd 973f f25d 803f edb7 653f
000000c0: 8616 8a3f 77fe 803f 76bb 753f fa4d 7c3f
000000d0: 525d 763f 511a 813f 15e3 863f a331 8a3f
000000e0: a394 553f 9d2f 763f ee83 883f 2390 803f
000000f0: 1423 763f eb46 5e3f 6e2a 783f 5c42 7e3f
00000100: 405d 9a3f 4353 7c3f a202 5f3f f70b 5e3f
00000110: 96e5 713f 26d0 503f 21f7 9c3f d200 663f
00000120: 0e90 5f3f d687 883f 93b2 9b3f b2c4 793f
00000130: 82fb 933f dd51 823f 1e98 8e3f c499 9c3f
00000140: 9766 933f d18f 583f 2832 723f 9c28 963f
00000150: 3a11 9a3f 7c13 733f efd8 6c3f f02a 713f
00000160: 8ed0 223f a4f1 853f 601a 8c3f 2e2e 543f
00000170: 6c66 8a3f 3d0b 763f a5d7 923f 9cbe 923f
00000180: 3970 773f 9aac 5b3f 2620 7f3f df9b 6c3f
00000190: d5af 5f3f 41d3 633f 6370 773f e4ec 6d3f
000001a0: 5aef 833f 635c 9a3f 5e56 683f 0f41 703f
000001b0: fc62 693f 3961 a13f 4013 353f a24c 693f
000001c0: 1858 5a3f 5518 723f aa92 843f 6d7f 163f
000001d0: 7400 8b3f f7d4 613f 78a8 8a3f a4e3 853f
000001e0: fed0 453f 78aa 863f 493b 933f ba3e 793f
000001f0: d543 523f a062 9c3f 24a4 723f 2df4 6f3f
