models/classifiers/MLP2_CROSS_HUMANRPA2HUMAN_AE1BERT_bm.pth (torch, 260320 bytes, 19 tensors)

fc1.weight f4 [256, 77]
000000 61 77 48 be ff c1 9a bd 86 23 7a bc 0b 24 67 bd
       -0.1957679 -0.07556533 -0.0152672585 -0.056430858
000010 20 73 f6 bc 7f 42 7b 3e a0 4a 1e 3e 28 ce 25 be
       -0.030084193 0.24537085 0.15458155 -0.16191924
000020 79 a0 1b be f2 19 16 3e e0 55 85 bd 43 12 2e 3d
       -0.15197934 0.14658335 -0.0651052 0.042497884
000030 12 21 55 3d fa a4 4e 3d e4 59 6b 3e e4 50 08 3e
       0.05203349 0.050450303 0.2298351 0.13312107
000040 a4 01 15 be 2e 19 e5 3d 56 87 b2 bd ea 0a 21 be
       -0.14551407 0.11186443 -0.087172195 -0.1572682
000050 eb 2d 8b bc b0 94 e7 3d bf 16 d4 bc 65 29 e7 bd
       -0.016989669 0.11307657 -0.025889752 -0.11287192
000060 1b b3 5e 3d 7b 9d 29 bd 27 d5 68 bc 45 8c a3 bd
       0.054370027 -0.04140995 -0.014210976 -0.07985739
000070 f5 38 0e 3d 5c 92 89 bd 92 1c 8c 3e 70 73 2b 3e
       0.034722287 -0.06717369 0.27365547 0.16743255
000080 b9 e5 05 bd bb 5d 21 be d3 81 32 3e 59 a9 d7 bd
       -0.032689784 -0.15758412 0.17432337 -0.105303474
000090 c4 b9 a8 bd 90 5b 84 bc a3 b2 d4 bd 71 68 08 3e
       -0.08238557 -0.016156942 -0.10385635 0.13321091
0000a0 ef 00 a6 bc 80 9b 0f 3e 76 79 c8 ba fb 9e 36 bd
       -0.020264117 0.14024162 -0.0015294987 -0.04458521
0000b0 8b 07 53 be da 87 1f bd 5b 2b 5b be 58 48 23 bd
       -0.20608346 -0.038947918 -0.21403258 -0.039863914
0000c0 ba 64 ce 3c f6 26 df 3c a2 be 98 3a d2 16 33 be
       0.025194515 0.027240258 0.0011653493 -0.17489174
0000d0 6b 71 3e be 4e 2d 6c bc 9c 54 19 be 0f 67 b2 bd
       -0.18597953 -0.014415098 -0.14973682 -0.08711063
0000e0 f0 fc a1 bd 66 0b 4e be fd 97 46 3c 46 89 03 bd
       -0.07909572 -0.20121536 0.012121198 -0.032113336
0000f0 16 6f ca bd 59 29 bb 3c 43 62 0a be 4c c6 8f 3d
       -0.09884469 0.022846865 -0.13514046 0.07020244
000100 78 5f 05 be 64 47 17 be 4f b1 c7 3d d4 e7 da bd
       -0.130247 -0.14773327 0.09750616 -0.10688749
000110 2c 54 7e bd 0c 2d b4 3d 50 7c 98 3d b9 71 ef bd
       -0.06209199 0.087976545 0.07445586 -0.11691613
000120 e9 cb dd 3e fb f7 e9 bd c5 f7 4f bb 56 d2 ec 3c
       0.43319634 -0.11424252 -0.0031733376 0.02890889
000130 98 d3 2a 3e fb 6a 4b ba c9 9d 19 3c 68 27 0f bd
       0.16682279 -0.0007759777 0.009375998 -0.03494969
000140 f2 96 cc bc cf 3d bd 3c e6 15 cb bc 19 03 f1 3c
       -0.02497432 0.023100762 -0.024790715 0.029420422
000150 f7 de 14 bd b9 28 5e bb ed 42 9a 3c d6 56 20 bc
       -0.03634545 -0.0033898784 0.01883074 -0.009786328
000160 46 32 00 bd 05 31 38 3c 12 58 73 3c ca 04 8c bc
       -0.031297944 0.011242156 0.014852541 -0.017092127
000170 de 99 83 bd ae 07 5b bd 6e 3a 45 3c e3 55 0e bd
       -0.06425832 -0.05347412 0.0120378565 -0.034749877
000180 ef 2e 0d 3d 4c 2c e6 bc 81 9e b4 b8 14 26 09 3c
       0.034468587 -0.028097294 -8.6125925e-05 0.008370895
000190 56 6e d6 bc 7b b7 ab 3c 6e b6 97 3c 8d a8 47 bb
       -0.02617566 0.020961514 0.018519606 -0.0030465454
0001a0 e7 33 90 bc 06 33 15 3d 26 46 54 3b 2b dd 38 bd
       -0.017602874 0.036425613 0.0032390445 -0.045132797
0001b0 c1 2c b5 bc 03 51 a5 bc 8c 52 56 3c 23 7f b3 bc
       -0.022116067 -0.020180231 0.013081204 -0.02191121
0001c0 6a be be bc 13 ec 81 bc 5e d1 39 bc e4 26 3c 3d
       -0.023284156 -0.01585964 -0.011341421 0.045935526
0001d0 fe c9 0c 3c 9f c5 89 3b 2c 0a ef bc a8 16 a5 3c
       0.008593081 0.0042044665 -0.029179655 0.020152405
0001e0 bd db 8c bc d6 4e b1 bc c2 a3 5b bb 54 73 00 bc
       -0.017194623 -0.021644037 -0.0033514355 -0.007839996
0001f0 6e 4b 5d bc 7f 82 0f 3c 93 29 13 3d eb e7 cc bc
       -0.013506753 0.00875914 0.03592832 -0.02501293
000200 ee 1f e2 3c 41 7c 95 bc 35 1d 0c 3d b0 0d ac bc
       0.027603116 -0.018247725 0.03420754 -0.02100262
000210 f4 42 c0 3c 38 06 59 bb e1 34 1e bd c4 4d 7f bd
       0.023469426 -0.003311528 -0.038624648 -0.062330022
000220 f7 fd 2a 3d 30 99 c5 bc 04 09 77 bc d3 51 55 bd
       0.041746106 -0.024120897 -0.015077833 -0.052079987
000230 e9 65 d1 3c 7d 0d be bd 76 ae ab 3c 24 9e ad 3d
       0.02556129 -0.092799164 0.020957213 0.084774286
000240 3e b7 4f 3f 6a f1 90 bf ca ed a2 3c e0 2e a8 3e
       0.8113898 -1.1323674 0.019888777 0.32848263
000250 b4 6d 7b 3e c2 b4 8a 3f db dd 87 3b dc ac 48 bd
       0.24553567 1.0836413 0.0041463203 -0.048992977
000260 9f ce f4 3c e8 f1 b9 3c b9 49 cf 3d c0 28 12 be
       0.02988368 0.022698358 0.10121483 -0.14273357
000270 b2 ed de bc 77 d8 41 bd 5c 0d c2 bd 8b 05 fa bc
       -0.027212951 -0.047325578 -0.09475204 -0.030520221
000280 24 ab 10 be 64 63 6d bc 63 22 25 3d be 11 88 3d
       -0.14127785 -0.014489029 0.040315997 0.06644009
000290 16 ba 4c be 61 59 85 bd b1 7a 7e 3e 8a 18 ee 3d
       -0.19992861 -0.06511188 0.2485149 0.11625774
0002a0 eb 14 7d 3d dc 60 65 3d 78 b1 2b 3e 1d 01 2c bc
       0.061787527 0.056000575 0.16766918 -0.010498312
0002b0 ce ac b0 bd 1f 91 bb 3d 72 74 30 bd 0f d4 b1 bd
       -0.0862671 0.09158539 -0.0430798 -0.08683025
0002c0 69 71 df bd 2a 2b 1d 3d 61 ce 75 bd 86 99 b7 bd
       -0.10910303 0.038371243 -0.06001127 -0.08964829
0002d0 40 26 38 be 92 91 31 be 0f 10 2a 3e d2 9d 12 3e
       -0.17983341 -0.17340687 0.16607688 0.14318016
0002e0 da 58 3e bd 4f 5f 3b 3e 20 26 ad bd b9 99 16 3d
       -0.046471454 0.18298076 -0.084545374 0.036767695
0002f0 e1 03 24 3d 69 d7 99 bd ce 87 2d 3e 4d ff 8b bd
       0.04004276 -0.07511789 0.16946337 -0.06835804
000300 7a 67 10 3e ec 7b 4c be a5 6f 47 be cb 43 40 bd
       0.14101973 -0.19969147 -0.19476183 -0.046939652
000310 7a 04 4e 3c c1 c5 e4 3d a3 b2 c9 3d 49 3a 14 3d
       0.0125743095 0.11170531 0.098485254 0.036188398
000320 ab f4 13 3d 9d 76 de bd 08 af 56 3e 52 12 4d be
       0.036122005 -0.108624674 0.20965207 -0.2002652
000330 62 9a c9 3d 63 1f 0b be af 3f a3 bd b6 dc 8b bc
       0.09843899 -0.13586192 -0.07971131 -0.017073017
000340 6c 6a 12 bd 12 59 d4 bd 73 47 47 3e 3e 9b 1b bd
       -0.035746023 -0.10368551 0.1946085 -0.037989847
000350 20 77 f1 bc 04 bc f8 bd 15 16 3b 3d 47 88 63 be
       -0.029475749 -0.12145236 0.045675356 -0.22219954
000360 3c 01 c7 3d 15 8d 08 be c3 22 d5 bd e2 b4 e7 3d
       0.09717032 -0.13335069 -0.10407021 0.113137975
000370 01 5d 80 bc a0 f1 85 3d d6 73 44 3e 31 06 62 bd
       -0.015669348 0.06540227 0.19184813 -0.055181686
000380 0b fb 77 be ed a2 1e 3e 53 39 72 bd 0e 65 f7 3d
       -0.24216859 0.15491839 -0.0591367 0.120798215
000390 25 a1 c1 be cc c6 cb 3d 3f ea 98 3d 1b 36 1a 3d
       -0.37818256 0.09950027 0.07466554 0.037649255
0003a0 45 0c 30 be b3 25 fe bd 42 0f 32 3e 0d b1 83 3d
       -0.1719218 -0.12409534 0.17388633 0.06430254
0003b0 c8 96 8b bd bb 2b e7 bd 59 19 22 3c bf 0f 1d 3d
       -0.068158686 -0.11287638 0.009893739 0.038345095
0003c0 17 f3 0a be d9 20 39 3d a6 b8 6a be 3e 37 3c 3e
       -0.13569294 0.04519734 -0.22922 0.18380448
0003d0 6b 08 c2 3b 22 5a 88 bc b1 29 bd bd e7 f2 c2 3d
       0.0059214137 -0.016644541 -0.09236468 0.09518986
0003e0 19 9f 19 3e 46 32 e8 3c f7 c8 af 3d 90 5c 04 bd
       0.15002097 0.028344285 0.08583253 -0.032314837
0003f0 4f 49 96 3e 6e 42 68 3e b7 d7 0e 3d 97 d2 98 3d
       0.29352805 0.22681591 0.03487369 0.07462042

fc1.bias f4 [256]
000000 ba fc b5 3b b2 c5 a7 3c 8a 87 34 bb 4b da 8e 3b
       0.005553809 0.02048001 -0.0027546608 0.0043595186
000010 2e d6 54 3b 40 71 c8 ba 0c 84 df 3a 09 11 19 3a
       0.0032476294 -0.001529254 0.0017052903 0.0005839025
000020 05 87 f7 3a 97 c3 e0 ba 00 ef 36 ba 6d 50 36 3b
       0.0018884843 -0.0017148134 -0.0006978363 0.0027818934
000030 8a 64 90 3b 3d 93 9b 3b 1a 96 b4 38 07 82 ee ba
       0.0044065164 0.004747777 8.6110274e-05 -0.001819671
000040 e4 3a 94 3a e9 50 9c bb a9 0f c6 3a 2f 71 aa 3b
       0.0011309055 -0.0047703874 0.0015110868 0.005201481
000050 b1 a4 64 3b bc 4f 58 bb 6e 3a 96 bb 3f 41 69 3b
       0.0034888203 -0.003300651 -0.004584602 0.0035591868
000060 c7 b8 c3 bb 28 83 29 bb ab a7 01 3b 2b 2d ec 39
       -0.005972955 -0.0025865529 0.0019783776 0.0004504708
000070 8f d8 14 3b 22 7b c9 3a 35 5d 8c 3b 7c 39 f4 bb
       0.0022712087 0.001537178 0.004283572 -0.0074531417
000080 1d 13 1a 3b f7 3d 58 3b 9c f1 7b ba 3f a5 77 3b
       0.0023509928 0.0032995918 -0.0009610893 0.0037787703
000090 32 e3 06 bb d7 ef 5b 3a 86 15 c9 3b bb 03 31 bb
       -0.0020582196 0.0008389926 0.006136599 -0.002701028
0000a0 69 4f ab bb 3d 28 51 3b 2b 2c e2 ba c0 7d 32 3b
       -0.0052279723 0.0031914853 -0.0017255595 0.0027235597
0000b0 cd c8 1e bb 3b 13 67 3b 50 c8 f7 39 66 07 a2 bb
       -0.0024228573 0.0035259265 0.00047260756 -0.0049447296
0000c0 2a 88 ca b9 73 7a 8e 3b 72 89 8e 39 14 06 c5 3b
       -0.00038629893 0.004348093 0.00027186755 0.0060126875
0000d0 6b 95 0b ba 0a de 52 bb 1d 3e 62 3b 97 34 01 3a
       -0.0005324694 -0.0032175803 0.0034521886 0.0004928796
0000e0 b4 54 12 3b 5e 19 1e 3b 55 80 6a bb 6e 49 f7 39
       0.002232832 0.0024124007 -0.0035782058 0.0004716622
0000f0 5e d9 b6 3b eb cc 48 bb c7 37 3c bc ca 62 9b 39
       0.0055801114 -0.0030639719 -0.011487908 0.00029637507
000100 0c 39 ae b9 72 72 6f 3b 46 e8 1f 3c ad 38 1b 3a
       -0.0003323037 0.003653672 0.009759968 0.0005921226
000110 4a d3 0b bb 1a 28 27 ba 2e 53 97 3a 0a 46 1d bb
       -0.0021335655 -0.000637652 0.0011545175 -0.0023998045
000120 15 15 9c 39 d4 98 32 ba b5 c3 a3 3a db 19 a8 bb
       0.00029770346 -0.00068129343 0.0012494238 -0.0051300353
000130 84 a6 2c 3b 6b de 6c bb 76 d4 9c bb b2 ab ba 3b
       0.0026344368 -0.0036143314 -0.0047860695 0.005696737
000140 38 83 be 3b fe cf c2 bb 5a d9 9d 3b ea ef bc bb
       0.0058139823 -0.0059452048 0.00481717 -0.0057659047
000150 ca 87 e1 ba 63 5b ad 3a 21 77 a0 3b 29 af 74 bb
       -0.0017206606 0.0013226088 0.004897014 -0.003733585
000160 33 dc 99 3a 92 1e 11 3c d1 38 a1 bb de 79 02 3b
       0.0011738598 0.008857386 -0.004920103 0.0019909064
000170 a8 12 74 3b b7 25 a9 bb 77 e5 e8 ba 10 0a ed ba
       0.0037242565 -0.0051619667 -0.0017768581 -0.0018084664
000180 63 58 49 3b 4a 78 d2 b9 76 d4 af 3b db 67 fc 39
       0.0030722849 -0.00040143944 0.0053659035 0.00048142564
000190 e5 73 c4 b9 c3 3b 12 ba 15 f1 39 3a 4b 50 c1 ba
       -0.0003747038 -0.0005578363 0.0007093114 -0.0014748661
0001a0 0b 6b 9f bb f6 58 82 bb 8b 54 97 3b 51 1f 35 ba
       -0.0048650554 -0.00397789 0.0046182326 -0.00069092686
0001b0 ec 7c 8e bb 1a c6 e5 3a 30 db 12 3b 04 66 24 bb
       -0.004348388 0.0017530352 0.0022408478 -0.002508522
0001c0 1d d7 04 3b 47 12 1f 3b 71 70 94 3a 13 69 5a 3b
       0.002026982 0.0024272369 0.0011325014 0.003332679
0001d0 02 51 03 bc e8 8c cc 39 dd 92 c5 3a 93 ad 04 bc
       -0.008014919 0.00039014895 0.0015073676 -0.008098024
0001e0 be af 0a 3b 00 f2 a7 bb 85 e2 88 3b 4d 95 d9 3b
       0.002116188 -0.005125284 0.004177394 0.0066401125
0001f0 51 b9 b1 3b 80 07 de 3a 44 37 3f 3a 76 d7 57 ba
       0.0054237028 0.0016939491 0.0007294307 -0.00082337053
000200 2e cc 6c 3a 5e 7e 79 3b 8b d2 90 3a 31 e8 2a bb
       0.00090331107 0.0038069705 0.0011049075 -0.0026078338
000210 3a 8e 72 bb 5e c3 09 ba dd bd 7f 39 17 fc cf b5
       -0.0037011043 -0.0005255247 0.00024389425 -1.549607e-06
000220 69 e6 a9 bb 5c bd 3f bc 73 fa 97 bb 0d 6c 66 bb
       -0.0051849377 -0.011702862 -0.00463801 -0.0035159618
000230 2f 3d 8e 3a 83 ff 77 bb 2f bd 48 bb 9e c0 8e 3b
       0.0010851974 -0.0037841506 -0.003063034 0.004356458
000240 41 d4 9b bb 03 d9 2f bb 84 c6 b1 3b 66 a1 a1 bb
       -0.0047555272 -0.002683223 0.0054252762 -0.0049325703
000250 a9 94 52 bb a6 d1 12 3b 68 0b 8d 3b f5 c7 57 3b
       -0.0032132065 0.0022402792 0.0043043382 0.003292558
000260 a6 e6 59 bb 44 df 82 3b 52 2a f4 39 d6 1a fd 3a
       -0.003324905 0.0039939005 0.00046570838 0.0019310366
000270 74 82 8a ba 15 70 68 3b 49 1c 2b bb 05 dc 14 3c
       -0.0010567443 0.0035467197 -0.0026109389 0.00908566
000280 1d 7c da 3b 9b d3 9f bb 14 68 98 ba 4b 14 81 3b
       0.0066676275 -0.0048775203 -0.0011627697 0.0039391867
000290 fa ab 28 3a 52 f0 61 bb 24 79 a8 3a 7b 47 31 bb
       0.0006434318 -0.0034475517 0.0012853486 -0.0027050662
0002a0 4a 30 e9 b9 a9 c1 49 bb 1d 9b 06 3b 81 9c 88 3b
       -0.000444772 -0.0030785596 0.0020539232 0.0041690473
0002b0 f1 ff a1 bb 60 e7 7b ba 87 ec 02 3a 0f 42 82 3b
       -0.0049438407 -0.00096093677 0.0004994352 0.00397516
0002c0 ed 5e 75 ba ea 54 85 ba e7 50 98 bb 12 3e 16 bb
       -0.00093601533 -0.0010172401 -0.004648316 -0.002292518
0002d0 97 0c 47 3b 27 15 9e ba 47 8e 1f 3a 71 0d 56 3b
       0.0030372494 -0.0012060747 0.00060865696 0.003266182
0002e0 38 d9 c5 bb e3 e9 b6 ba e4 e9 d7 ba 8e 3a 5c 3b
       -0.0060378574 -0.0013955202 -0.0016472903 0.0033604237
0002f0 b7 ee 03 bb 5a 94 60 bb 32 9f e6 3b 01 ca 10 3b
       -0.0020131299 -0.0034268112 0.0070380205 0.002209306
000300 a4 77 d2 3a 18 80 6d ba fc f6 ec bb d8 af 94 3b
       0.0016057384 -0.000905992 -0.0072315913 0.004537564
000310 b0 b8 57 bb bb c0 01 bb 4b d2 70 3b f5 c5 a7 b8
       -0.0032916479 -0.0019798714 0.0036746438 -8.000053e-05
000320 94 f9 84 bb e9 1c 7d bb b7 09 d6 3b b2 71 29 3b
       -0.0040580723 -0.0038621968 0.00653192 0.0025855121
000330 7e 8b 6f 34 82 c0 44 3b 81 a6 8a b9 62 40 b8 37
       2.2309356e-07 0.003002197 -0.00026445466 2.196449e-05
000340 96 18 87 bb 1c cf 03 bb ad 47 97 bb b3 76 ed 3b
       -0.004122804 -0.002011246 -0.0046166987 0.007246816
000350 2a 46 fb 39 31 15 f3 3a db fd 2d 3b d6 de 41 3b
       0.00047926727 0.0018545744 0.0026549015 0.0029582283
000360 9f f0 a4 3a db cc 69 3b 1c 76 ee bb 60 fa 41 3a
       0.0012583918 0.0035675082 -0.0072772633 0.00073996745
000370 b1 0f cf ba a8 a4 b9 3b 06 2f 20 3b ae ce 1a bb
       -0.0015797523 0.0056653805 0.002444209 -0.0023621726
000380 3f 0a 83 3a 4f 8c 96 3b b3 0a 37 bb 0e 5a b9 3a
       0.000999756 0.004594363 -0.0027929961 0.0014141218
000390 19 cc a6 b8 5b 4f ba 3a 73 de 71 3b b1 5a 41 ba
       -7.953513e-05 0.0014214324 0.0036906272 -0.000737588
0003a0 14 8e b1 3b a9 5a 68 3b 05 16 96 ba 59 ae 37 39
       0.0054185484 0.0035454428 -0.0011450654 0.0001751719
0003b0 a6 47 4d ba 9f fb 29 3b ee 1f 87 3b fe ca 5a 3a
       -0.0007830806 0.0025937331 0.0041236794 0.0008346288
0003c0 86 81 66 3b ee 14 0d 3b b8 79 03 3b a5 35 37 39
       0.0035172417 0.0021527368 0.0020061564 0.00017472224
0003d0 c6 49 d5 3a fe 91 34 bb 6c 59 02 3c 7d 57 a9 3b
       0.0016272597 -0.0027552838 0.00795589 0.0051679
0003e0 23 e3 33 bb d2 8d 50 bb 8f 62 b5 3a b4 b9 84 3a
       -0.0027448616 -0.0031822813 0.0013838577 0.0010126145
0003f0 20 b0 2b bc f9 f8 bc ba e3 fa 8c 3a 93 fe 09 39
       -0.010479003 -0.0014417461 0.0010755922 0.00013160174

bn1.weight f4 [256]
000000 4e 24 5a 3f 2c 29 a5 3f 4d 08 29 3f 58 fc 44 3f
       0.85211647 1.290319 0.6602829 0.76947546
000010 bb 08 47 3f 2c 34 67 3f 31 fb 2b 3f f3 54 34 3f
       0.77747697 0.9031398 0.6718016 0.7044212
000020 7f 83 64 3f 81 30 3a 3f 8e db 60 3f ab 01 33 3f
       0.8926315 0.7273026 0.87835014 0.6992442
000030 98 90 3b 3f a4 99 52 3f 8f 9e 45 3f 0e 2e 4c 3f
       0.7326751 0.82265687 0.77195066 0.79757774
000040 fa fa 5f 3f b9 7a 7c 3f f1 32 3a 3f 5c bf 40 3f
       0.87492335 0.9862476 0.7273398 0.7529199
000050 05 6d 28 3f 19 84 69 3f 41 2d 4a 3f 32 9b 64 3f
       0.6579135 0.9121719 0.789753 0.8929931
000060 19 cb ab 3f b6 f6 47 3f f1 f2 2b 3f e5 1e 36 3f
       1.3421355 0.78110826 0.67167574 0.7114089
000070 6f c3 42 3f da a5 48 3f 24 c2 8c 3f c2 da 68 3f
       0.7607946 0.7837807 1.0996747 0.909588
000080 ad d6 43 3f c2 1e a1 3f de d3 80 3f f2 7e 25 3f
       0.76499444 1.2587512 1.0064657 0.6464683
000090 b9 46 2d 3f 65 7a 41 3f 50 f8 44 3f f4 d2 4c 3f
       0.6768604 0.75577384 0.76941395 0.8000939
0000a0 70 97 57 3f 38 49 38 3f 7a bf 38 3f ab f0 43 3f
       0.8421545 0.7198672 0.7216717 0.76539105
0000b0 54 ec 29 3f ed fe 40 3f e1 29 36 3f 08 25 42 3f
       0.66376233 0.75388986 0.7115765 0.75837755
0000c0 b4 03 25 3f 43 00 9e 3f 35 37 74 3f 3b 42 43 3f
       0.64458776 1.234383 0.9539674 0.76272935
0000d0 87 b9 26 3f 69 1c 4f 3f df fc 47 3f d5 e4 50 3f
       0.6512684 0.80902725 0.78120226 0.8159917
0000e0 fa d1 39 3f 8a 93 61 3f 0e aa 54 3f ac cd 60 3f
       0.72586024 0.8811575 0.8307198 0.8781383
0000f0 a5 16 85 3f e7 7a 5e 3f da c7 a3 3f 0c e3 3b 3f
       1.0397536 0.86906284 1.2795365 0.7339332
000100 07 df 42 3f d5 74 67 3f e8 73 41 3f 3a e4 88 3f
       0.7612156 0.90412647 0.75567484 1.0694649
000110 a3 e1 2e 3f 04 0e 56 3f 3f 8a 64 3f 4b cd 67 3f
       0.68313044 0.83615136 0.89273447 0.9054763
000120 33 a3 4e 3f 43 65 31 3f f3 47 3e 3f 62 74 64 3f
       0.8071777 0.6929514 0.74328536 0.89240086
000130 c0 9b 3e 3f c6 ee 4b 3f f5 ff 2c 3f 6b 00 8a 3f
       0.74456406 0.79661214 0.6757806 1.0781378
000140 ad a5 22 3f 13 9d 61 3f 82 6e 37 3f 3f 20 57 3f
       0.6353405 0.881303 0.71652997 0.8403358
000150 d5 d5 3f 3f d8 96 58 3f e7 5d 49 3f d1 f0 63 3f
       0.74935657 0.8460517 0.7865891 0.8903933
000160 cc 99 34 3f 96 a9 81 3f cc c3 57 3f a7 bf 29 3f
       0.70547175 1.0129879 0.8428314 0.66308063
000170 b3 f0 5d 3f d1 e0 62 3f d4 c8 47 3f c5 34 32 3f
       0.866954 0.8862429 0.78040814 0.6961177
000180 ba 10 60 3f 9b c1 54 3f 8f db 49 3f 07 7f 55 3f
       0.8752552 0.8310792 0.78850645 0.83396953
000190 fc 8d 5a 3f 92 97 46 3f be 03 7a 3f 3a d3 27 3f
       0.853729 0.7757503 0.9766196 0.6555668
0001a0 e1 24 45 3f dd 63 46 3f c3 61 40 3f 6a 88 39 3f
       0.770094 0.7749613 0.7514917 0.72473776
0001b0 2f a6 39 3f 3a b3 5e 3f 5e 07 62 3f 50 2a 33 3f
       0.725192 0.8699223 0.8829249 0.6998644
0001c0 8b e7 5a 3f dc 71 4b 3f 37 d8 5f 3f ae 53 4b 3f
       0.85509557 0.7947061 0.8743929 0.7942456
0001d0 4d 1d 6b 3f e0 e3 58 3f c8 36 46 3f c5 6c 50 3f
       0.91841584 0.8472271 0.7742734 0.8141597
0001e0 31 93 4b 3f 42 41 52 3f 8c 77 60 3f 96 c7 44 3f
       0.7952147 0.82130826 0.87682414 0.76867044
0001f0 a1 65 8f 3f e2 e0 82 3f 62 0b 6e 3f 19 06 5d 3f
       1.120289 1.0224879 0.9298612 0.8633743
000200 b3 da 4b 3f 2e 2d 6a 3f b9 e9 69 3f 94 af 4b 3f
       0.79630584 0.9147519 0.9137226 0.79564786
000210 f1 74 65 3f eb 6f 52 3f 9a 1f 1b 3f c2 47 3c 3f
       0.89631563 0.82202023 0.60595095 0.73546994
000220 10 e5 4d 3f 40 5e a2 3f 37 4c 6e 3f ad 27 46 3f
       0.80427647 1.2685013 0.93085045 0.7740429
000230 e8 2a 44 3f 5c d4 99 3f 38 fb 59 3f ce 94 88 3f
       0.7662797 1.2017932 0.85148954 1.0670412
000240 56 da 59 3f 5d 45 39 3f 5e d9 89 3f a5 b1 38 3f
       0.8509878 0.72371465 1.076946 0.72146064
000250 c9 0e 55 3f 5b fd 69 3f 30 26 5b 3f 0a b6 44 3f
       0.83225685 0.91402215 0.85605145 0.7684027
000260 37 d7 40 3f ab af 49 3f 49 ca 47 3f c2 e2 4c 3f
       0.7532839 0.78783673 0.7804304 0.80033505
000270 6b f5 68 3f 51 25 57 3f 1e cd 43 3f 10 8c 47 3f
       0.9099948 0.84041315 0.7648486 0.77948093
000280 52 4a 54 3f 78 b4 3c 3f 6e 12 45 3f f7 b6 4d 3f
       0.82925904 0.73712873 0.76981246 0.8035731
000290 1d f1 54 3f 01 c8 47 3f bc 0d 4f 3f a0 62 54 3f
       0.8318041 0.78039557 0.8088033 0.8296299
0002a0 77 8b 2a 3f 28 cf 66 3f 9d 72 2e 3f 46 71 47 3f
       0.66619056 0.90159845 0.68143636 0.77907217
0002b0 f9 ff 45 3f 2a 4a 4c 3f ee ca 87 3f e6 fb 42 3f
       0.7734371 0.79800665 1.0608804 0.76165617
0002c0 7a a9 68 3f 70 8d 50 3f b7 7b 77 3f 5f af 4f 3f
       0.908836 0.81465816 0.9667315 0.8112697
0002d0 3a 36 4f 3f ed 44 6c 3f ac 6e 53 3f c1 a8 6a 3f
       0.8094212 0.9229267 0.82590747 0.9166375
0002e0 30 ef 68 3f 84 d3 21 3f aa 19 36 3f 8d a0 33 3f
       0.9098997 0.6321337 0.7113291 0.70166856
0002f0 55 d0 47 3f c3 fb 46 3f fe 74 41 3f c6 d6 3c 3f
       0.78052264 0.7772791 0.7556914 0.7376522
000300 cb 1a 4d 3f 61 76 68 3f 73 d6 97 3f be ef 62 3f
       0.8011901 0.9080563 1.186232 0.8864707
000310 75 f6 47 3f 28 17 74 3f 56 3f 38 3f d2 cd 4d 3f
       0.7811044 0.95347834 0.7197164 0.8039218
000320 10 78 25 3f 5a 4b 55 3f 2c 14 56 3f f7 91 4f 3f
       0.64636326 0.833181 0.8362453 0.810821
000330 8f ae 32 3f 27 43 5f 3f d1 66 56 3f 6b 54 91 3f
       0.69797605 0.8721184 0.83750635 1.1353887
000340 8d 52 4f 3f 4e b0 5d 3f f4 63 5d 3f 7e 4d 43 3f
       0.8098534 0.86597145 0.8648064 0.7629012
000350 b4 61 44 3f 85 f3 5e 3f 38 6a 3b 3f a1 60 43 3f
       0.76711583 0.8709033 0.7320895 0.7631932
000360 0c df 53 3f 58 cf 46 3f 93 c3 5d 3f dc ec 43 3f
       0.8276222 0.7766013 0.8662655 0.76533294
000370 bc 9c 39 3f f7 5f 75 3f 3f a3 76 3f cd e4 49 3f
       0.7250478 0.95849556 0.96342844 0.7886475
000380 88 b9 47 3f 0e 41 29 3f 86 3f 57 3f 8d ca 68 3f
       0.78017473 0.6611489 0.84081304 0.9093407
000390 2f c8 6c 3f 95 6a 23 3f 3b 1b 49 3f 8d 3d 59 3f
       0.92492956 0.63834506 0.78557175 0.84859544
0003a0 1b 0f 44 3f 2d 7d 69 3f 97 60 40 3f de a3 6c 3f
       0.7658555 0.9120663 0.75147384 0.9243754
0003b0 8d 91 20 3f 45 ab 5c 3f 56 1d 85 3f 31 ec 35 3f
       0.6272209 0.86198837 1.0399578 0.71063524
0003c0 70 7f 37 3f d1 35 32 3f 28 0a 64 3f 42 ac 6a 3f
       0.7167883 0.6961337 0.89078 0.91669095
0003d0 e0 ee 54 3f 82 41 42 3f 2e f4 5e 3f 40 71 2c 3f
       0.83176994 0.75881207 0.8709134 0.67360306
0003e0 be 4b 52 3f 04 bb 43 3f d6 5e 95 3f d3 2f 5f 3f
       0.82146823 0.7645724 1.1669567 0.8718235
0003f0 8c e4 57 3f dd 7f 8f 3f 0b 75 60 3f 2e a4 60 3f
       0.8433311 1.1210896 0.87678593 0.8775052

bn1.bias f4 [256]
000000 67 bb fc be 63 f3 20 bf 1c f7 0c bf cc 17 10 bf
       -0.49361727 -0.6287138 -0.5506456 -0.5628631
000010 76 3b 13 bf fe c6 14 bf 0e b8 0b bf 3d 09 cc be
       -0.57512605 -0.5811614 -0.5457772 -0.39850798
000020 9d 03 e9 be 28 f1 ea be d1 33 1a bf 38 2e 0c bf
       -0.4551057 -0.45887113 -0.60235316 -0.54758024
000030 3b 50 04 bf 2e cb 18 bf f8 89 28 bf c2 7c d0 be
       -0.5168492 -0.5968503 -0.65835524 -0.40720183
000040 18 c7 03 bf 15 8e 05 bf e7 69 09 bf c5 10 0d bf
       -0.5147567 -0.52169925 -0.5367722 -0.55103713
000050 4a 71 13 bf c1 21 04 bf 42 8e fa be ff 3e fa be
       -0.5759474 -0.51614004 -0.4893666 -0.48876187
000060 bd 28 2f bf 3f 54 0d bf 4f f4 12 bf 9c c6 15 bf
       -0.68421537 -0.55206674 -0.57404035 -0.5850618
000070 41 5f 0a bf 43 da 3a bf e2 e3 0c bf 13 23 14 bf
       -0.54051596 -0.7298929 -0.5503522 -0.5786602
000080 5e 20 43 bf ba 1c 1a bf 71 6a 9a be 1c 5b f0 be
       -0.76221263 -0.60200083 -0.30159333 -0.4694451
000090 1f 10 0c bf 6b 94 05 bf 85 39 20 bf a3 80 18 bf
       -0.547121 -0.5217959 -0.6258777 -0.59571284
0000a0 98 79 2c bf a1 a5 10 bf 5d 5e 06 bf 1a 1f 06 bf
       -0.6737304 -0.5650273 -0.52487737 -0.5239121
0000b0 3a dd 09 bf 12 c1 0b bf 6d e0 ed be 47 78 17 bf
       -0.5385319 -0.54591477 -0.46460286 -0.59167904
0000c0 66 a9 18 bf 0c 9b 1e bf ba 19 bc be 69 dc 13 bf
       -0.5963348 -0.6195533 -0.36738378 -0.57758194
0000d0 20 3e 06 bf 76 5b 15 bf 5a a4 e9 be 52 c7 25 bf
       -0.52438545 -0.58342683 -0.45633203 -0.64757264
0000e0 1c 26 b0 be 9a cc 0f bf 00 17 23 bf 60 49 1b bf
       -0.34404075 -0.5617157 -0.6370697 -0.60658836
0000f0 f0 88 0e bf 14 99 10 bf 08 35 a2 be fd da 04 bf
       -0.556777 -0.5648358 -0.31681085 -0.5189665
000100 86 e9 ff be 08 50 01 bf ff 9f 00 bf 76 df 19 bf
       -0.49982852 -0.50512743 -0.50244135 -0.601066
000110 0e dd 01 bf fc 90 ad be 3f 3e f4 be ff f5 2a bf
       -0.5072793 -0.33899677 -0.4770374 -0.6678161
000120 e7 c4 0a bf 8c 43 0b bf ac 87 08 bf d0 2a 22 bf
       -0.542067 -0.54399943 -0.5333202 -0.63346577
000130 34 28 0c bf 2c 08 f4 be 06 3c 25 bf 66 57 e3 be
       -0.54748845 -0.47662485 -0.64544713 -0.44402617
000140 0e 17 32 bf c2 2c fe be 76 85 e2 be cc 23 25 bf
       -0.6956643 -0.49643523 -0.44242448 -0.64507747
000150 e0 65 f3 be 75 18 38 bf 72 d5 2f bf 5d 09 37 bf
       -0.47538662 -0.7191232 -0.68685067 -0.7149866
000160 7b 71 aa be e6 6a 1c bf b8 fb b9 be 39 cc ca be
       -0.33289704 -0.61100614 -0.3632486 -0.39608935
000170 cd 44 32 bf 0d 38 43 bf 6c b4 1e bf 5f a4 f0 be
       -0.6963623 -0.762574 -0.6199405 -0.47000405
000180 2d 7e 91 be 7e b6 28 bf 94 65 ef be 5d 80 17 bf
       -0.28416577 -0.6590346 -0.46757185 -0.5918024
000190 4d e9 29 bf 8f ed 17 bf fb 5e f6 be 92 b6 08 bf
       -0.66371614 -0.5934686 -0.4811934 -0.5340358
0001a0 ef 89 23 bf 79 2b ff be 2f 86 30 bf 11 b2 0c bf
       -0.63882345 -0.49837855 -0.6895475 -0.5495921
0001b0 2f cb 02 bf 83 8e 20 bf 6a 53 11 bf 60 8e 1f bf
       -0.51091284 -0.62717456 -0.56767905 -0.6232662
0001c0 1d 28 f4 be e8 09 17 bf f8 60 1d bf 6a 5a 20 bf
       -0.47686854 -0.5899949 -0.6147609 -0.6263796
0001d0 ff 17 16 bf 74 f9 e9 be ae c4 13 bf 0b 3d 1f bf
       -0.58630365 -0.4569813 -0.57721984 -0.6220252
0001e0 c9 cf 1e bf fd f1 0c bf 2f d4 09 bf d2 cc 2e bf
       -0.62035805 -0.55056745 -0.5383939 -0.6828128
0001f0 48 f6 1a bf 0d a1 a0 be 99 f8 e7 be 9e f3 f6 be
       -0.60532045 -0.31372872 -0.45306852 -0.4823274
000200 a5 e2 29 bf e9 bd 1a bf 66 48 df be ae e8 fa be
       -0.6636146 -0.6044603 -0.43609923 -0.49005646
000210 3a c4 10 bf c9 84 43 bf 4b b8 ef be 0d 7c 12 bf
       -0.5654942 -0.7637449 -0.46820292 -0.57220536
000220 ce a2 0b bf 46 57 1e bf c1 9d 14 bf 9b d3 29 bf
       -0.54545295 -0.6185192 -0.58053213 -0.6633851
000230 13 78 26 bf 25 1d 9f be 38 b5 ff be e7 d7 25 bf
       -0.6502697 -0.31076923 -0.49942946 -0.64782566
000240 1c 1a 03 bf 68 f7 18 bf 1e 68 04 bf b7 45 12 bf
       -0.51211715 -0.5975251 -0.5172137 -0.57137626
000250 38 91 09 bf 86 9f 16 bf 44 97 2c bf d8 12 1c bf
       -0.5373721 -0.58837163 -0.67418313 -0.60966253
000260 54 65 ff be c2 f3 26 bf ea dc 38 bf bb c1 07 bf
       -0.49881995 -0.65215695 -0.7221209 -0.53029984
000270 0d b7 1d bf 0a 3f 15 bf e8 7b 02 bf 62 45 19 bf
       -0.6160744 -0.58299315 -0.50970316 -0.59871495
000280 ae e6 20 bf 5b 93 0a bf 1b 85 42 bf 37 32 39 bf
       -0.6285199 -0.54131097 -0.7598435 -0.72342247
000290 46 97 f2 be 5f 33 0b bf 5a db 37 bf 27 79 25 bf
       -0.47381037 -0.5437526 -0.7181908 -0.6463799
0002a0 3a 94 eb be 69 a9 28 bf fe 58 d5 be f9 fe 29 bf
       -0.46011525 -0.658835 -0.41669458 -0.6640468
0002b0 f5 28 1e bf 0b 70 d0 be 50 7b ea be ca 9b 0e bf
       -0.61781245 -0.40710482 -0.45797205 -0.55706465
0002c0 85 17 0b bf 95 cb 5d bf 7a 68 fe be cd 5d f8 be
       -0.5433276 -0.86638767 -0.49689084 -0.48509064
0002d0 fc 48 2b bf f1 97 08 bf d0 01 2a bf 6c 1a f7 be
       -0.6690824 -0.53356844 -0.66409016 -0.48262346
0002e0 87 81 05 bf 80 48 01 bf f0 5e 2d bf 68 2b f7 be
       -0.5215077 -0.5050125 -0.6772299 -0.48275304
0002f0 c7 a8 14 bf 77 8b c5 be 56 5c 27 bf 44 af 18 bf
       -0.58070034 -0.38582966 -0.6537527 -0.59642434
000300 56 4c 20 bf 92 d3 34 bf 05 8c 29 bf 82 c9 04 bf
       -0.6261648 -0.7063533 -0.6622928 -0.51869977
000310 04 8b 0f bf be 11 03 bf fa 86 02 bf 80 00 21 bf
       -0.56071496 -0.5119895 -0.5098721 -0.6289139
000320 7e cf fd be ee ce 1a bf cf cc 20 bf d0 60 13 bf
       -0.49572366 -0.60472 -0.62812513 -0.575696
000330 73 64 00 bf 4f c6 25 bf 99 56 0d bf b1 3e 1b bf
       -0.50153273 -0.6475572 -0.5521026 -0.60642534
000340 df b4 23 bf bc c0 2d bf c6 7c 06 bf 39 33 27 bf
       -0.6394786 -0.67872214 -0.5253414 -0.65312535
000350 f8 95 02 bf 54 98 19 bf 4d e6 46 bf f4 2b 39 bf
       -0.51010084 -0.5999806 -0.7769516 -0.7233269
000360 d1 49 31 bf 17 bb 20 bf d1 6a 24 bf 9f bb e6 be
       -0.6925326 -0.62785476 -0.6422549 -0.4506502
000370 d1 a1 d4 be 60 2c 17 bf db 1d 15 bf 39 cc 01 bf
       -0.41529706 -0.59052086 -0.5824868 -0.50702244
000380 fb 9e 27 bf a1 a8 13 bf 48 b6 18 bf eb 8b 11 bf
       -0.6547696 -0.5767918 -0.5965314 -0.5685412
000390 e8 4e 0f bf 79 e2 c4 be dd 81 db be cb a4 20 bf
       -0.55979776 -0.38454035 -0.42872515 -0.62751454
0003a0 46 a1 21 bf 7e bd ec be 28 c0 9b be be b2 02 bf
       -0.6313671 -0.4623832 -0.3042004 -0.5105399
0003b0 8e 82 20 bf 64 0e f9 be dc f4 15 bf 18 7d db be
       -0.6269921 -0.48643792 -0.5857675 -0.42868876
0003c0 21 2c 04 bf e0 e3 0f bf 4e 0f 0b bf cd a2 22 bf
       -0.51629835 -0.56207085 -0.5432023 -0.63529664
0003d0 c5 77 1f bf cf 80 31 bf 4a f2 fb be 0d 5f e0 be
       -0.6229213 -0.6933717 -0.4920829 -0.43822518
0003e0 4a 61 f4 be a0 1b 28 bf 50 0b 0f bf 1d 62 1d bf
       -0.47730476 -0.6566715 -0.55876637 -0.61477834
0003f0 bc e6 0c bf 17 89 b8 be eb 10 2d bf 01 ad 2e bf
       -0.5503957 -0.3604209 -0.6760394 -0.68232733

bn1.running_mean f4 [256]
000000 e2 e7 9a 3c 1e a2 03 bc f3 33 2d 3c f5 7d 0f 3c
       0.018909398 -0.008034257 0.010571468 0.008758058
000010 6c 10 b3 3c 9e 39 21 3b 83 f5 93 bc 19 2e 83 bc
       0.021858416 0.0024600993 -0.018061405 -0.016013192
000020 05 e2 03 bc 2a 78 95 3b 41 f0 f6 3c 77 a4 6f bc
       -0.008049493 0.004561444 0.030143859 -0.014626614
000030 76 cf d8 bb c9 cf 91 3c cd 53 39 3c e5 35 14 bc
       -0.006616528 0.017799275 0.011311484 -0.009046053
000040 17 26 65 bb 02 f9 c7 bc d0 9a 01 bc 7f 30 34 3c
       -0.003496533 -0.024410728 -0.007910445 0.0109978905
000050 c5 6e a5 bb 2f a3 95 bb 6f 25 63 3c b7 e9 a3 bc
       -0.005048605 -0.004566572 0.013863905 -0.020008905
000060 b3 b1 fe bc 6a b0 23 bc b6 b6 0e bc 97 4a fc ba
       -0.031090593 -0.009990791 -0.008710554 -0.0019248304
000070 b5 aa c8 3b e4 41 a4 3c b3 9c 9c bc 5a 6d a0 bc
       0.0061238655 0.02005095 -0.019117689 -0.019583393
000080 38 3c c2 3b 50 a4 d1 bc 81 57 e8 3c 9c 9d 28 3c
       0.005927589 -0.025591046 0.028362038 0.010291483
000090 48 6a 31 bc 0a b8 2f bc 8d 0f cb 3c 73 8d 27 3c
       -0.010828562 -0.010725031 0.024787689 0.010226595
0000a0 c0 2e 80 3a 88 a3 50 3c 41 15 03 3d 30 c0 35 3c
       0.0009779558 0.012734301 0.03200269 0.011093184
0000b0 7c 11 47 3c e1 55 6f 3c 85 75 65 3c 23 bd 43 3a
       0.012150165 0.0146078775 0.01400507 0.0007466843
0000c0 00 48 00 3c 2f 0d e9 bc 62 c5 c8 bc ad 45 2b 3d
       0.007829666 -0.02844867 -0.024508182 0.041814495
0000d0 fa dd c1 3b 91 eb 44 3c ec 96 7d bb 44 7f 79 bc
       0.0059163542 0.012019054 -0.0038694693 -0.015228096
0000e0 c6 30 e0 3b 79 28 73 bc fc 48 9e 3c 5c 0a b5 bb
       0.0068417517 -0.014841192 0.019321911 -0.0055249166
0000f0 d4 8d 9e bc f4 21 6b ba da 06 21 3c 48 0c 21 bc
       -0.019354738 -0.0008969598 0.009828294 -0.009829588
000100 dc 2b 0a bd 9c ca 6d 3c 3d c6 30 3c 86 84 73 bc
       -0.033733234 0.014513638 0.010789451 -0.014863139
000110 05 15 b8 3c 8e 01 4a bb 4b 6e 06 bc 81 d0 e2 3c
       0.02247096 -0.003082368 -0.008205007 0.027687313
000120 a1 e0 d4 bb f0 a6 bc 3c 17 ee 6a 3b 61 8c f9 bb
       -0.0064965044 0.02302882 0.003584748 -0.0076156114
000130 74 4c 28 bc 85 a2 87 3c 08 dc 56 bc b9 75 b4 3c
       -0.010272134 0.016556988 -0.013113983 0.02202879
000140 91 87 0a bb 0b 23 ef bb 7c 43 77 3c c3 a1 9e bc
       -0.0021137933 -0.0072978786 0.015091773 -0.019364243
000150 d7 e7 09 3c 23 2f 7e 3a 3c ec a4 3b 30 dd fb bb
       0.008417091 0.0009696355 0.005033044 -0.0076862797
000160 6b 62 63 3c 74 d2 bb 3c e4 f6 23 bc 9c fd 26 3c
       0.013878445 0.0229275 -0.010007594 0.010192301
000170 f2 ce dc 3c 7c 62 30 bc 9e 9b 9d bc 46 89 05 bc
       0.026954148 -0.010765668 -0.019239243 -0.008150404
000180 eb b7 8a 3c f7 f5 ae 3c 12 7c 2a 3c 72 c6 f1 3b
       0.016933402 0.02135752 0.010405557 0.007378393
000190 e9 93 4a 3a 7d 00 15 3d 04 6f e1 3c ae 40 59 3c
       0.0007727729 0.03637742 0.027518757 0.01326005
0001a0 d1 54 48 bc f9 b6 fb bb be 0b 7f 3a a0 30 17 3c
       -0.012227253 -0.007681724 0.0009729228 0.009227902
0001b0 de 11 98 3c f3 78 8f 3a 9b 06 7c 3c 6c 1e 18 3c
       0.018563207 0.001094608 0.015382434 0.009284597
0001c0 0b a4 d4 bb 9d c0 97 3c 0e 83 ce 3c 5d 35 14 bb
       -0.006489282 0.018524462 0.025208976 -0.0022614815
0001d0 ad f2 73 bc 77 e6 c6 bb fb fb 75 3c 4a b8 67 bb
       -0.014889401 -0.006069954 0.01501369 -0.0035357648
0001e0 49 9e 14 3d 69 69 98 3c 4e 62 8c 3c b5 ed 17 bc
       0.036283765 0.018604951 0.01713672 -0.009272982
0001f0 4b 38 a2 bc a7 02 dc 3c 47 bd 98 39 68 05 3c bc
       -0.019802233 0.026856733 0.00029132722 -0.011475898
000200 78 d0 fb 3c a5 18 17 3a b8 97 90 3c bd 9f 18 bc
       0.030739054 0.0005763865 0.01765047 -0.009315428
000210 9f 4e 86 3c 0a 83 dc 3c e9 d6 1d bc 46 70 e3 bb
       0.016394911 0.026917953 -0.009633758 -0.0069408743
000220 14 8a c7 3b 91 83 15 bd 05 6f af bc 21 88 35 bc
       0.0060894582 -0.036502425 -0.021415243 -0.011079819
000230 a6 24 4a 3c ef 59 d0 3c 10 d3 8b 3c 9a 0f 8c bc
       0.012337839 0.025433509 0.017068416 -0.017097283
000240 28 15 a1 bb d4 fd b9 bc 6c 95 db bc 3b 84 aa bc
       -0.004915852 -0.022704042 -0.026804648 -0.020815006
000250 bd 05 0c bc b2 1e ef bc 16 59 49 3c 03 2f 89 3c
       -0.00854629 -0.029189441 0.012289306 0.01674605
000260 98 ec df bc f4 8a 8a bc 56 b0 06 3d 7d 2e 60 3c
       -0.027334496 -0.016911961 0.03288301 0.013682959
000270 13 6d a8 3c a0 95 f2 3c 38 1f 6b bb a1 1e d5 3b
       0.020559823 0.029612362 -0.0035876762 0.0065038954
000280 a9 a1 24 bc 16 e3 b6 3c a2 04 b2 3c f9 b9 7b 3c
       -0.010048308 0.02232508 0.021730725 0.015364164
000290 c5 cc fe 3b f9 b1 d2 bc 3d 57 94 bc 35 c4 8a 3b
       0.0077758753 -0.02571963 -0.018108005 0.0042348155
0002a0 b9 ca 03 3b 70 95 c4 3b 69 c7 a5 bc 19 21 a6 bc
       0.0020109846 0.0059992597 -0.020236688 -0.020279454
0002b0 3c f8 b8 3b 4c 26 9f 3c 37 98 86 3c a6 3f d9 bc
       0.005644826 0.019427441 0.016430004 -0.026519608
0002c0 c5 ce 98 3c 1f 92 bc bc b0 38 e3 3c a8 5e c1 bb
       0.018653283 -0.023018895 0.027736992 -0.0059011765
0002d0 f3 f5 a9 3c 84 6d 87 bc 1d 3f 5b ba 6e 01 c8 3c
       0.02074716 -0.016531713 -0.00083635916 0.024414744
0002e0 53 7a 13 3c af 82 8c 3c 8e 46 ee bb 19 87 4c 3c
       0.009001332 0.017152159 -0.0072715944 0.012483382
0002f0 03 97 7a 3a ab 1b 17 bc 95 fd 48 3b 65 0f ab 3c
       0.00095592457 -0.009222905 0.0030668725 0.020881364
000300 1d 85 2f 3c ac 05 a0 3c 29 d3 1c bd a7 36 7b 3c
       0.010712889 0.019533955 -0.038287316 0.015332854
000310 12 b0 8e 3c f5 e5 fe 3c 3c 19 fa 3b 5c fe f0 ba
       0.017417941 0.031115511 0.0076324027 -0.0018386352
000320 1a bb d7 bc b4 87 26 bc e4 c3 8a 3c be 82 9c bb
       -0.026334334 -0.01016419 0.016939111 -0.004776328
000330 d6 4d 80 ba e6 ba 7d ba f1 9d 23 bc f1 d1 54 bc
       -0.0009788822 -0.0009679034 -0.009986387 -0.012989507
000340 a5 8f d9 ba bb de 74 bb 7f 09 d1 bb c9 05 99 3c
       -0.0016598596 -0.0037364203 -0.006379306 0.018679516
000350 44 6f e7 ba 13 67 18 bc f7 c5 f1 ba 3c f3 83 3c
       -0.0017657061 -0.009301919 -0.0018445839 0.016107194
000360 16 6e 8f 3a ae 28 de bc 15 80 80 3b 15 ef 0c 3c
       0.0010942842 -0.027119007 0.0039215186 0.0086019235
000370 4f 9e 8c bc c4 82 38 bc 3c 63 3f bc 71 45 46 bb
       -0.017165331 -0.011261646 -0.011681374 -0.0030253793
000380 c2 d4 4b 3c 75 33 9b 3c 40 88 eb bb a4 d1 83 3c
       0.012440862 0.018945435 -0.007187873 0.016091175
000390 b1 9e b4 bc 2a 25 3b bc ef ae a6 3b 6e 1a 4e bc
       -0.022048326 -0.011422435 0.0050867717 -0.0125795435
0003a0 34 38 de bb 8c e7 ef 3a 68 24 c9 3c 3a ef 76 3b
       -0.0067816023 0.0018303259 0.024553493 0.0037679211
0003b0 09 58 14 bd e9 aa 99 3b 0b db 0a bd 26 c3 23 bb
       -0.03621677 0.0046895635 -0.033900302 -0.0024988144
0003c0 81 93 6a 3a 15 11 5c bc b9 8e ee 3b 43 58 88 3c
       0.00089483714 -0.013431807 0.0072801975 0.016643649
0003d0 12 52 50 bc 57 e4 90 bc ee c0 a4 bc 02 10 1a 3b
       -0.01271488 -0.017687006 -0.020111527 0.0023508077
0003e0 e5 55 2c bc 93 b6 92 3c aa e2 bf bc 59 8e 05 bc
       -0.010518526 0.017909324 -0.023423512 -0.008151614
0003f0 40 2c 82 3c 26 9e 81 3c 09 5e 18 3d 76 04 16 3c
       0.01589024 0.015822481 0.037199054 0.009156337

bn1.running_var f4 [256]
000000 6d 81 73 3f ff 27 8b 40 f2 e6 ab 3f e7 31 4b 3f
       0.95119363 4.3486323 1.3429854 0.7937302
000010 bc 24 c4 3f 60 57 8d 3f 47 60 a5 3f f0 1e 85 3f
       1.532371 1.104229 1.2920007 1.0400066
000020 e8 b0 d1 3f 3d ca 90 3f a9 7c bb 3f 6a 0e 9a 3f
       1.6382113 1.1311718 1.4647418 1.2035649
000030 82 b0 03 40 cd 85 db 3f fe a2 c3 3f f3 f9 b9 3f
       2.0576482 1.7150208 1.5284116 1.4529403
000040 3e ca 79 3f 9a 15 3c 40 33 da 85 3f 9c 24 b8 3f
       0.9757422 2.9388185 1.0457214 1.4386172
000050 7a 46 a4 3f 4f 54 e2 3f fe cc 8d 3f d7 27 94 3f
       1.2834008 1.7681979 1.1078184 1.1574658
000060 fa 79 9d 40 0d 04 b8 3f d9 73 ab 3f 24 cd ec 3f
       4.9211397 1.4376236 1.3394729 1.8500104
000070 c9 31 b0 3f 4c 29 cc 3f 6c 18 5c 40 e2 bf 17 40
       1.3765193 1.5950103 3.4389906 2.3710866
000080 59 0b dd 3f 46 a1 87 40 ae 27 e2 40 f4 29 95 3f
       1.7269088 4.2384367 7.0673437 1.1653428
000090 e2 1b c3 3f e1 fb 98 3f 7d 96 f4 3f a5 02 b3 3f
       1.5242884 1.1951867 1.9108425 1.3985182
0000a0 b6 9a 83 3f 93 c7 b3 3f 55 bb e3 3f 5d 02 9f 3f
       1.0281589 1.404528 1.7791544 1.2422596
0000b0 30 d4 88 3f f5 43 be 3f be 2d b9 3f b9 a0 cf 3f
       1.0689754 1.4864489 1.4467084 1.6220924
0000c0 0e 6b 9c 3f 36 fd 93 40 ea 44 57 40 c3 25 94 3f
       1.222017 4.6246595 3.3635812 1.1574024
0000d0 6c 20 d7 3f c7 f6 a8 3f 17 aa b2 3f 1d 1f d9 3f
       1.6806769 1.320031 1.3958157 1.696262
0000e0 6b 14 8a 3f e2 42 4e 40 57 3a aa 3f 5a ba ae 3f
       1.0787481 3.2228322 1.3299054 1.365062
0000f0 ce 76 39 40 51 43 35 40 b3 af 47 41 04 c8 b7 3f
       2.8978763 2.8322337 12.480395 1.4357915
000100 8d 78 e3 3f 80 28 36 40 4f e6 c3 3f 4b a4 79 40
       1.7771164 2.846222 1.530466 3.9006526
000110 8e 17 c1 3f a8 a6 3b 40 8c 22 07 40 4b dc b9 3f
       1.5085313 2.932047 2.1114836 1.4520353
000120 3f 54 d4 3f ce f6 96 3f 6f 76 a3 3f 8d 11 c8 3f
       1.658821 1.1794069 1.2770518 1.5630356
000130 16 bf 78 3f cc 71 e4 3f 0c 60 c5 3f df 8b ca 40
       0.97166574 1.7847228 1.5419936 6.329574
000140 3b ac 90 3f 8d 06 af 3f c4 e2 8b 3f 7e 61 a6 3f
       1.130256 1.3673874 1.0928578 1.2998502
000150 24 80 d9 3f 06 03 bd 3f 74 09 1b 40 5c 42 ae 3f
       1.699223 1.4766548 2.422452 1.3614001
000160 e3 59 af 3f a3 78 9c 40 8b 97 81 3f b1 5c 14 40
       1.3699306 4.889726 1.0124372 2.3181574
000170 6d ce bf 3f 26 25 b3 3f 89 ba a3 3f 3d 27 cd 3f
       1.4984871 1.3995712 1.2791301 1.60276
000180 b6 bf c6 40 ef 44 b6 3f 3d 65 8c 3f f2 18 38 40
       6.210902 1.4239787 1.0968395 2.8765225
000190 3a 5c 08 40 17 b9 c2 3f 19 1e 78 40 66 6c 81 3f
       2.130629 1.5212735 3.876837 1.0111206
0001a0 a9 6c f3 3f bb 75 79 3f c7 4d b9 3f 51 a1 71 3f
       1.9017535 0.9744527 1.4476861 0.94386774
0001b0 92 50 d2 3f ed df 99 3f 09 fa 3b 40 d1 a4 a3 3f
       1.6430838 1.2021462 2.937136 1.2784673
0001c0 66 ad da 3f 04 0d 9d 3f 02 8a 8c 3f 44 60 c4 3f
       1.7084167 1.2269597 1.0979617 1.5341878
0001d0 57 d1 e3 3f 05 af 8c 3f c0 5e d0 3f 52 43 59 3f
       1.779826 1.0990912 1.6278915 0.8486835
0001e0 a6 4f fd 3f a5 c6 bb 3f 40 ce 8a 3f df 3b fa 3f
       1.9789932 1.4669997 1.0844193 1.9549521
0001f0 34 2b 60 40 e3 4a 8d 40 e7 e7 8d 3f 57 5d 60 40
       3.502637 4.4153914 1.1086396 3.505697
000200 c5 ad a5 3f dd 28 e6 3f 83 6c 6a 40 ad fc 9f 3f
       1.2943655 1.798122 3.662873 1.2498986
000210 ce bc b5 3f 89 a9 99 3f 45 c4 9e 3f f2 98 81 3f
       1.4198244 1.2004863 1.2403647 1.01248
000220 14 92 cd 3f 44 cc 8e 40 64 e1 2a 40 31 8a ab 3f
       1.6060205 4.462435 2.6700068 1.3401548
000230 e1 b2 be 3f ca ed 20 41 09 a8 db 3f 8f aa 61 40
       1.489834 10.058054 1.7160655 3.526035
000240 ec 22 a5 3f c2 05 94 3f 7c 6f 6c 40 96 a1 96 3f
       1.2901282 1.1564257 3.6943045 1.1768062
000250 b2 2c d1 3f 05 41 28 40 ad 1d c0 3f a3 af a1 3f
       1.6341765 2.6289685 1.5009056 1.2631725
000260 12 22 c7 3f 8d fa 92 3f 07 c0 94 3f bb 63 e5 3f
       1.5557272 1.1482712 1.1621102 1.792106
000270 e3 b0 fa 3f 02 14 d6 3f 9f ff 5d 3f e2 89 53 3f
       1.9585232 1.6724856 0.8671817 0.8263227
000280 c2 43 cd 3f 91 dc b3 3f 6c 36 9f 3f fa 68 bb 3f
       1.6036303 1.4051687 1.2438483 1.4641411
000290 fa 4f b4 3f e4 d2 89 3f 43 87 9c 3f e7 9c a7 3f
       1.4086907 1.0767484 1.2228779 1.3094758
0002a0 b1 91 90 3f ae 65 b3 3f fa dc 81 3f 04 18 a6 3f
       1.1294461 1.4015405 1.0145562 1.2976079
0002b0 5f 2a b0 3f 55 31 81 40 df 02 99 40 4c 20 98 3f
       1.3762931 4.037272 4.7816005 1.1884856
0002c0 05 f8 61 40 68 50 c9 3f b2 5b 6f 40 75 4d 8a 3f
       3.530763 1.5727663 3.7399716 1.0804888
0002d0 34 7d be 3f 53 00 45 40 c7 46 d4 3f 75 44 4e 40
       1.4881959 3.0781448 1.65841 3.2229283
0002e0 cc 9d c6 3f 33 05 86 3f 3c ca a6 3f ce 8e c6 3f
       1.5516906 1.0470337 1.3030467 1.551233
0002f0 02 62 7c 3f 73 e0 ae 3f 3a 72 ca 3f 09 32 98 3f
       0.9858705 1.3662246 1.5816109 1.189027
000300 90 12 c2 3f 8b f2 8b 3f a1 6a 71 40 0a 91 10 40
       1.5161915 1.0933393 3.772133 2.2588525
000310 97 15 97 3f 25 f7 4d 40 03 7c 00 40 18 29 ec 3f
       1.1803464 3.2182095 2.007569 1.8450041
000320 7b c0 a7 3f 44 1e 18 40 bc 41 93 3f 38 e9 b3 3f
       1.3105615 2.3768473 1.1504436 1.4055548
000330 e9 61 8b 3f 49 0a d5 3f 4e f0 d2 3f 95 84 72 40
       1.0889255 1.6643764 1.6479585 3.7893422
000340 c3 1d ea 3f 1c 86 84 3f 43 db 07 40 ba 3b 9d 3f
       1.8290333 1.0353427 2.1227577 1.2283852
000350 bd 50 ae 3f 2f 2d a0 3f 29 8b be 3f 96 d2 60 3f
       1.3618389 1.2513789 1.4886218 0.8782133
000360 ed 99 9e 3f bb 6d 5d 3f 0c 9d 8d 3f c2 39 11 40
       1.2390724 0.8649556 1.1063552 2.2691503
000370 a1 4b cd 3f e0 48 0f 40 cd f4 9f 3f a1 c1 9c 3f
       1.6038705 2.238823 1.2496582 1.2246591
000380 84 3d 81 3f b3 9d bf 3f b4 1c b7 3f c0 d9 da 3f
       1.0096898 1.4970001 1.4305634 1.7097702
000390 8d 05 03 40 bb a8 9c 3f 11 66 c7 3f 73 48 9d 3f
       2.0472138 1.2238992 1.5578023 1.2287735
0003a0 ce 1d a8 3f 15 6d d1 3f 86 d3 81 3f 09 35 65 3f
       1.3134096 1.6361414 1.0142677 0.8953405
0003b0 01 02 cf 3f 52 bb 86 3f 2e 78 42 40 cf bb 04 40
       1.6172487 1.0525916 3.0385852 2.073963
0003c0 f1 19 a0 3f 96 2d c0 3f ad 85 b9 3f b0 d5 18 40
       1.2507917 1.5013912 1.449392 2.3880424
0003d0 e9 cf a3 3f 85 f0 04 40 2e 1f b9 3f 48 95 84 3f
       1.2797824 2.0771801 1.446264 1.0358057
0003e0 ac e9 c6 3f e2 a5 bc 3f 71 f1 51 40 52 43 2c 40
       1.5540061 1.4738123 3.2803614 2.691609
0003f0 7b ff a3 3f 67 2e e5 40 f2 57 aa 3f 56 48 91 3f
       1.2812341 7.1619143 1.3308089 1.13502

fc2.weight f4 [128, 256]
000000 12 c1 5d 3d 98 9d c9 bd da fa a7 3c 4d 88 1d be
       0.054139204 -0.09844512 0.020505358 -0.15384026
000010 ce 0a 00 3d 77 a9 c3 bd a9 af a6 b9 34 22 ff bd
       0.031260304 -0.09553807 -0.00031792864 -0.124576956
000020 e8 93 05 bd 50 3f 95 bd 7b 54 2b 3e 55 12 ba 3c
       -0.032611758 -0.072874665 0.16731445 0.02271382
000030 93 d2 61 3d 17 37 ba 3d d4 b4 de 3c 6a 15 41 be
       0.05513246 0.09092539 0.027185835 -0.18855825
000040 4a 72 17 be 7f d5 eb bd dd 57 68 bd 5e 1a 1c 3e
       -0.14789692 -0.115153305 -0.056724418 0.15244433
000050 d3 5c af 3d b6 a2 a8 bd 6c 38 de bd 4f 5f 13 be
       0.08562627 -0.0823416 -0.10850605 -0.14391826
000060 63 0b 3c bc f6 79 5d 3e cf e2 27 bd 6d 46 f0 3d
       -0.011477324 0.21628556 -0.040987786 0.11732183
000070 17 38 92 bd 71 69 28 3e 37 c9 14 be 1a 2e cd bd
       -0.071396045 0.16446473 -0.14529882 -0.10018559
000080 52 81 35 3e 2c 78 44 be cc e3 3b be ca 6c 27 bd
       0.17725113 -0.19186467 -0.18348616 -0.040875234
000090 74 a5 de 3d 78 e2 e7 bd 98 16 1d 3e 1e 0c ae 3b
       0.108714014 -0.11322492 0.1534065 0.005311503
0000a0 06 15 b9 bd 09 64 26 3e 81 dd 95 3d f2 ac 14 3e
       -0.09037213 0.16249098 0.07317639 0.14519098
0000b0 a9 ba 5e bd f4 80 19 3d bc 5f 52 3d 3b c1 50 bd
       -0.05437723 0.037476495 0.05136083 -0.05096553
0000c0 bd ae 3c 3d 81 0e 8d bc 76 25 e6 bc 28 b0 71 3e
       0.04606508 -0.01721883 -0.028094035 0.23602355
0000d0 2b 8e 05 3e 0e b1 0f 3e 75 15 b5 bc 7e f0 dd 3d
       0.13042514 0.14032385 -0.022104958 0.10836886
0000e0 b3 dd 5d bd 90 4f 30 bd 50 be ef 3d 10 01 6a 3e
       -0.054166507 -0.043044627 0.11706221 0.22851968
0000f0 4b 73 e1 bd e3 45 23 bd ac 7c 2c 3b 8d 12 3d 3d
       -0.110083185 -0.03986157 0.0026319427 0.04616027
000100 16 bd a7 3d 5a 56 52 bd c9 56 4a 3e fd 6b 9f bd
       0.08190362 -0.051351883 0.19759668 -0.07784269
000110 17 e9 e1 3d 01 c6 43 be 34 ca 8c be 94 0b 00 bb
       0.110307865 -0.19118501 -0.2749802 -0.001953815
000120 52 87 fd 3c 7d 55 98 3d f1 f4 2e 3e 45 43 3f 3c
       0.030948315 0.074381806 0.17085625 0.011673753
000130 67 d7 07 be 6f a5 ca 3d 3b ab 2f 3d 53 5f 22 be
       -0.13265763 0.09894835 0.042887907 -0.15856676
000140 30 ab 65 3d cd 9a f4 3c 99 eb 02 bd 6e 2a 0c 3e
       0.05607146 0.029858971 -0.031962965 0.1368806
000150 b5 50 f0 bb 77 d2 22 3e c3 10 18 3d bc 0d be 3d
       -0.00733384 0.15900598 0.03712536 0.092799634
000160 63 27 98 3c d7 70 70 3e c9 0d 0d be 12 18 0d 3e
       0.018573469 0.23480545 -0.1377479 0.13778713
000170 a6 02 4a 3e 35 83 9c 3d 51 ff 76 3d b5 15 0a 3c
       0.19727573 0.07642213 0.060302082 0.008428027
000180 60 55 cc bd 6f f2 08 3d 26 1f 2c be 4e 77 05 3e
       -0.099772215 0.033434328 -0.16808757 0.13033792
000190 c2 e6 dc bc e2 5c 02 3d 0f 1d 1c 3e d0 09 67 bc
       -0.026965503 0.03182686 0.1524546 -0.014101461
0001a0 07 e0 04 3c b0 25 01 be 70 36 a9 3d 3d 5e 59 bd
       0.008110053 -0.12612033 0.08262336 -0.05306839
0001b0 f0 6e a5 3c 52 92 75 3d 2b 13 0a be 66 71 15 3d
       0.0201945 0.059953995 -0.13483874 0.0364851
0001c0 78 2e f4 bc 81 1d 3a 3e d0 fc 09 3e e5 47 7e 3c
       -0.029807314 0.18175317 0.13475347 0.015520071
0001d0 ce cf e9 3d 30 55 8e bd 55 c4 59 3d a8 f7 93 bd
       0.11416589 -0.06949842 0.053165752 -0.07224971
0001e0 cb 4f 21 3e 10 a7 1c bc 1b 69 ec bd 03 eb 8f 3e
       0.15753095 -0.009561315 -0.11543485 0.28108987
0001f0 0c 7a 48 bd 30 06 11 be 5b c1 5c be ac 0e f0 bd
       -0.048944518 -0.14162517 -0.21558134 -0.117215484
000200 9b 4c 9b bc 28 1f c4 3d 7d dd 3e be f9 8a cd 3d
       -0.018957427 0.09576255 -0.18639179 0.100362726
000210 22 fc 85 3d 70 67 8b bd 4a f1 35 3d c5 dd 41 bd
       0.06542231 -0.068068385 0.044419564 -0.047330637
000220 ec e9 0a 3d 88 7e 04 be 87 3d 70 bd 79 fc 88 3d
       0.03391449 -0.12938893 -0.058652427 0.0668878
000230 db 81 9b bc 98 58 95 be c2 d9 48 bd 73 f2 68 bd
       -0.018982818 -0.29169154 -0.049035795 -0.056871843
000240 6a 8e 9d 3d c0 ea 97 3d 4a d4 3e be 37 94 01 3b
       0.07693179 0.07417822 -0.1863567 0.001977218
000250 09 69 a1 3d d8 6f 28 be 5f 2c 85 3d 70 fb 7b 3d
       0.07881362 -0.16448915 0.06502604 0.061519086
000260 8a a8 b1 bd 74 ff c7 3d 53 c8 1e be df 2a c0 3d
       -0.086747244 0.09765521 -0.15506105 0.09383177
000270 10 4b b5 3c 30 b5 03 be ba 89 51 be a2 a5 e4 bd
       0.02213052 -0.12862086 -0.20462695 -0.111644045
000280 3b b3 a1 3d 8e 54 d4 3b c7 b6 94 3d 58 b0 df 3d
       0.078955136 0.0064798063 0.072614245 0.10922307
000290 f5 04 9f bc 3c 6b 7e bd ee d1 7a 3e 1b 34 5f 3d
       -0.019411543 -0.062113985 0.24494144 0.05449305
0002a0 ec b3 15 be 2e e3 bc bd 59 5f b1 bd 7d 40 95 3d
       -0.14619416 -0.092230186 -0.08660764 0.07287691
0002b0 d1 ed 5e bc 40 00 d0 3d f5 29 06 be c0 60 25 bd
       -0.013606505 0.10156298 -0.13101943 -0.04037547
0002c0 b2 27 2f bd 18 04 f9 3d 35 88 41 be 84 2d bf bd
       -0.042762466 0.12158984 -0.18899615 -0.09334853
0002d0 a9 be b8 3c f8 c9 d3 3c bc 1f e1 3d bb f4 55 3c
       0.022551851 0.025853142 0.10992381 0.013058837
0002e0 e9 63 4c be cb 50 b5 3d 4d 8c c9 bc 80 67 65 3d
       -0.19959988 0.08853301 -0.024603033 0.05600691
0002f0 d6 d0 02 3e 2b 85 61 bd 55 be 11 3d b6 27 df 3d
       0.12774977 -0.05505864 0.035581905 0.10896246
000300 42 a2 30 3d 0e 93 73 3d 6f bb a5 bd 90 70 90 be
       0.04312349 0.059466414 -0.08092391 -0.28210878
000310 db fe 02 bd 0a 82 32 3d 7b 76 df 3d 9c ba c2 3c
       -0.03198133 0.043581046 0.1091127 0.023770623
000320 8a ae 5a 3d d2 c7 32 be 8f 55 55 3e 71 ba 7a 3e
       0.05338911 -0.17459038 0.2083342 0.24485184
000330 6b 35 2a 3c 9a 98 cd 3b 69 58 cd bd eb 8c 02 be
       0.010388712 0.006274295 -0.100266285 -0.12749068
000340 05 8c 5b 3c f7 e6 05 3e 09 a7 af 3d 91 44 2d be
       0.0134000825 0.13076387 0.08576781 -0.16920687
000350 a4 24 ef bd 88 ab 8b bc bb a3 84 bd d9 8c 83 3d
       -0.116769105 -0.017049566 -0.064765416 0.06423349
000360 92 eb 2e 3e 09 70 12 be a1 26 e2 3c eb c8 af bd
       0.1708205 -0.1430055 0.02760631 -0.08583244
000370 25 bf a5 3d 64 5e b4 bd 28 97 28 be 09 ad 13 be
       0.080930986 -0.08807066 -0.16463912 -0.14421476
000380 d4 7c 3b 3e a9 e5 fe 3d 0c b8 27 3e 11 b6 9b 3d
       0.18309337 0.12446148 0.16378802 0.07603086
000390 61 70 f9 bd b2 af b2 3c 69 93 7c 3b c4 41 f5 3d
       -0.12179638 0.021812294 0.0038540012 0.119754344
0003a0 4d 95 99 3b 33 a3 99 bd 39 99 c5 bc 43 59 b9 bd
       0.0046869875 -0.07501831 -0.024120914 -0.090502284
0003b0 52 0a 11 3e f2 a6 43 be 88 53 e2 bc 5c 79 53 bb
       0.14164093 -0.19106653 -0.027627721 -0.003226838
0003c0 e7 e7 e8 3c 6f a9 83 3c 4b dd 39 be 93 10 79 3d
       0.028430892 0.016072003 -0.18150823 0.060806822
0003d0 b0 f4 b2 3c e0 9c 11 3e bc c9 0b bd 73 65 43 3c
       0.021845192 0.1422 -0.034127936 0.011926043
0003e0 c6 7f 32 bb ab 04 3d 3b 3b 7d d5 bd 7e fa d9 bd
       -0.0027236803 0.0028841894 -0.104242764 -0.10643481
0003f0 d7 7b 81 3d 6b 79 dd bc 20 83 52 3c 94 0f ba 3d
       0.06322449 -0.027035436 0.012848645 0.090850025
