models/classifiers/MLP2_CROSS_RPA2HUMAN_AE1BERT_bm.pth (torch, 260185 bytes, 19 tensors)

fc1.weight f4 [256, 77]
0	0x3e305562	0.17220071
1	0x3e184fd6	0.14874205
2	0x3d0fb0f1	0.035080854
3	0xbd8c1daf	-0.06841599
4	0xbc662b70	-0.014048442
5	0x3d16d135	0.03682061
6	0x3d8e8f36	0.06960909
7	0x3ca0cca7	0.019628836
8	0xbd20736c	-0.039172575
9	0x3e229ddf	0.15880536
10	0xbe50fafb	-0.20408241
11	0x3da57043	0.08078053
12	0x3c810717	0.015750451
13	0x3e1ba3a2	0.1519914
14	0x3d2b2a74	0.041788533
15	0xbe1c99a8	-0.1529299
16	0x3df5ff1a	0.120115474
17	0xbd51d50b	-0.051228564
18	0x3dbf8e07	0.093532614
19	0x3d3e8c68	0.04652062
20	0xbc1a1e21	-0.009406597
21	0xbb3a33e2	-0.0028412272
22	0x3d0686ea	0.032843508
23	0x3cba595c	0.022747688
24	0x3d643c59	0.055721615
25	0xbc78ed1a	-0.015193248
26	0x3dc37240	0.09543276
27	0x3d4e5b50	0.05038005
28	0x3e1a8bcc	0.15092391
29	0x3cbbf0d7	0.02294199
30	0xbe0d62b2	-0.1380718
31	0x3dcda2af	0.10040795
32	0x3e4de2ad	0.20106001
33	0x3c3f0aee	0.011660321
34	0x3ddbaacf	0.107259385
35	0x3db46cb5	0.08809797
36	0x3e098e41	0.13433172
37	0x3cc429e0	0.023945749
38	0xbe529cdd	-0.20567651
39	0x3a83aaab	0.001004537
40	0x3d41836b	0.04724447
41	0xba16db95	-0.0005754766
42	0x3c695f53	0.0142439185
43	0x3b97ed7c	0.0046364646
44	0x3e036b59	0.12833919
45	0xbda09a03	-0.078418754
46	0xbcd75c1d	-0.02628904
47	0xbd9a779c	-0.07542345
48	0x3dab2e04	0.08358386
49	0x3dbe1f8d	0.092833616
50	0xbd26c48e	-0.040714793
51	0xbbb31f26	-0.0054663597
52	0xbdac490b	-0.08412369
53	0xbcd86fec	-0.026420556
54	0xbc8cc635	-0.017184356
55	0xbdeb0b81	-0.114768036
56	0x3cd3ea6c	0.025868617
57	0x3d37167c	0.044699177
58	0x3e13123c	0.14362425
59	0xba241b0c	-0.0006260134
60	0x3e14f5b8	0.1454686
61	0xbdd3ee17	-0.103481464
62	0x3cdfbe0f	0.027312307
63	0x3d632af5	0.05546089
64	0x3dfc7003	0.12326052
65	0xbdda4aef	-0.10658824
66	0xbc88f512	-0.016718421
67	0x3bc9e031	0.006160759
68	0x3e8b30e5	0.2718574
69	0x3d59643b	0.053074103
70	0xbea9ed4e	-0.33188862
71	0x3d7ddc3b	0.061977606
72	0xbe01e06b	-0.12683265
73	0xbd789dba	-0.060697295
74	0x3d382477	0.04495665
75	0xbdd0500d	-0.101715185
76	0xbd603762	-0.054740317
77	0x3d72d83a	0.05928824
78	0xbe07bd70	-0.13255858
79	0xbde559e9	-0.111987896
80	0xbd7ecec9	-0.062208924
81	0x3de93d59	0.11388654
82	0x3c97562e	0.01847371
83	0x3d5601c5	0.05224778
84	0xbd0e9ba9	-0.034816418
85	0xbe1e1997	-0.15439449
86	0xbd7f233d	-0.062289465
87	0xbc92cbc8	-0.017919436
88	0x3e0ab3d3	0.1354516
89	0xbc1fdccc	-0.009757232
90	0xbc386d49	-0.011256524
91	0xbd52362b	-0.05132119
92	0xbe1419fc	-0.14463037
93	0x3ce42d63	0.027853673
94	0xbe1a504d	-0.15069695
95	0xbd0e17e5	-0.034690756
96	0x3d2813f8	0.04103467
97	0x3e2041d6	0.15650114
98	0x3dbf15c2	0.09330322
99	0x3d51aab7	0.051188197
100	0xbe0542d2	-0.13013771
101	0xbde33677	-0.11094373
102	0xbd02b011	-0.03190619
103	0x3d72cc4c	0.059276864
104	0x3d3f2bc9	0.046672616
105	0xbd786551	-0.060643498
106	0x3de5c182	0.11218549
107	0xbda1cfb6	-0.07900946
108	0xbd648ebb	-0.05580018
109	0x3dd4866d	0.10377202
110	0xbe048b31	-0.12943722
111	0x3b8bf8e5	0.004271614
112	0xbd847778	-0.06468099
113	0x3e74696e	0.23868343
114	0x3c5e52b2	0.013569521
115	0x3da92eec	0.08260903
116	0xbc541b4f	-0.012945964
117	0x3c4bc450	0.012436941
118	0x3d05c466	0.032658003
119	0x3d7ce411	0.06174094
120	0x3d40807b	0.04699753
121	0x3ca1f36d	0.019769395
122	0x3b862362	0.0040935734
123	0xbd20b2e1	-0.039233092
124	0x3e2cc0c6	0.16870412
125	0x3e12e8eb	0.14346664
126	0x3e1dbb06	0.15403375
127	0xbc491afe	-0.012274502
128	0x3cc23f55	0.02371184
129	0xbcea1779	-0.028575646
130	0xbb423865	-0.0029635665
131	0xbe76a2c7	-0.24085532
132	0x3aac32de	0.0013137718
133	0x3b364653	0.0027812913
134	0xbd3c2c3a	-0.045940615
135	0x3c82722f	0.015923588
136	0xbd1568a1	-0.036476735
137	0x3d6e4e1f	0.05817997
138	0xbdbae11c	-0.091249675
139	0x3cc4935b	0.023996046
140	0xbd4029dc	-0.04691492
141	0x3ddc0d8f	0.107447736
142	0x3d5e9fbb	0.05435155
143	0x3d19f244	0.037584558
144	0x3c5fefc2	0.013668003
145	0x3e8b408f	0.27197692
146	0xbddb6fb2	-0.107146636
147	0xbf05a19d	-0.5219973
148	0xbc1f8d19	-0.00973823
149	0xbd68d1d6	-0.05684074
150	0x3cff02bf	0.03112924
151	0xbcb5ccad	-0.022192324
152	0x3e016047	0.12634383
153	0xbdb3fa02	-0.087879196
154	0x3d833c2e	0.06407963
155	0xbdfbe0ab	-0.122987114
156	0x3d4c75a0	0.049916863
157	0x3de3054b	0.11084994
158	0x3e0cd3fb	0.13752739
159	0x3d93c627	0.07215529
160	0xbcc1f8ec	-0.023678266
161	0x3d3e2cfd	0.046429623
162	0xbd1d23d9	-0.038364265
163	0x3c8ada42	0.016949777
164	0xbd46c251	-0.04852516
165	0xbdd4c104	-0.10388377
166	0xbd82b90e	-0.06382953
167	0x3ccedd4b	0.025252005
168	0x3cbef2b2	0.023309086
169	0x3dea235e	0.11432527
170	0xbc018bbb	-0.0079068495
171	0x3cd8ce14	0.026465453
172	0xbe13dde9	-0.14440121
173	0xbd39800c	-0.04528813
174	0xbd218c53	-0.039440464
175	0x3e0dc1d5	0.13843472
176	0xbe487794	-0.19576865
177	0xbcf76d65	-0.03020353
178	0xbe0ccfc6	-0.13751134
179	0x3dfb66cc	0.12275466
180	0xbdfd6c07	-0.1237412
181	0xbde3d7d0	-0.11125147
182	0x3caf272e	0.021380987
183	0xbd895135	-0.06704942
184	0x3c7f9c60	0.015601248
185	0xbd7cf1ca	-0.061754026
186	0xbcd15bfb	-0.025556555
187	0xbdf5ebfb	-0.120079
188	0xbda95436	-0.08268015
189	0x3ced8192	0.028992448
190	0xbcb928eb	-0.022602519
191	0x3d4abe8c	0.049498126
192	0x3d5f28fd	0.05448245
193	0xbe0d65f1	-0.13808419
194	0xbd8f419d	-0.069949366
195	0xbced195d	-0.028942758
196	0x3e6199a2	0.22031263
197	0x3db976ba	0.090558484
198	0x3e721e26	0.23644313
199	0xbcb5cf88	-0.022193685
200	0x3da12524	0.07868412
201	0x3e03910b	0.12848298
202	0x3cfed5d9	0.03110783
203	0x3c38277a	0.011239881
204	0xbdb6e766	-0.089308545
205	0x3dab263c	0.08356902
206	0xbd945782	-0.07243253
207	0xbd9fa9dc	-0.0779607
208	0xbd8d14fa	-0.068887666
209	0xbdc76722	-0.09736468
210	0x3dc610b9	0.09671158
211	0xbd2c39aa	-0.04204718
212	0xbd26dfaa	-0.040740646
213	0x3db4c52b	0.08826669
214	0x3cbe621b	0.02324014
215	0xbc9add9d	-0.018904502
216	0x3b4f4444	0.0031626383
217	0x3d72219b	0.05911408
218	0xbdaf9c4a	-0.08574732
219	0xbe13a3f6	-0.14418015
220	0xbce8dc7b	-0.028425446
221	0x3e20c2bf	0.1569929
222	0xbdc32b4a	-0.09529741
223	0x3e161019	0.14654578
224	0x3eaf2bfc	0.34213245
225	0x3e097034	0.13421708
226	0xbca4529d	-0.020058924
227	0x3cd017a3	0.025401896
228	0x3e048a2e	0.12943336
229	0x3d11847c	0.035526738
230	0xbdb17b35	-0.08666078
231	0x3cc7e2a1	0.024400057
232	0xbda071f0	-0.07834232
233	0x3dcbf73a	0.09959264
234	0x3dbf74c2	0.09348442
235	0xbddee14c	-0.10882816
236	0xb8780d05	-5.9139933e-05
237	0x3ddc0043	0.107422374
238	0x3c92ed74	0.017935492
239	0xbe42bc6d	-0.19017191
240	0x3da9d58e	0.082926854
241	0xbdf97558	-0.12180585
242	0x3e2401cc	0.1601631
243	0x3e16a00c	0.1470949
244	0xbdc50bc7	-0.09621387
245	0xbdb0af7b	-0.0862722
246	0xbde47077	-0.111542635
247	0x3e1a81a2	0.15088513
248	0xbe50fd54	-0.20409137
249	0x3e4dc74d	0.20095558
250	0x3d9cd364	0.07657507
251	0xbe225c0c	-0.15855426
252	0x3db67bf1	0.08910359
253	0xbe305d8a	-0.17223182
254	0xbd945f98	-0.072447956
255	0xbc2862c5	-0.010277455

fc1.bias f4 [256]
0	0x3ba285ab	0.004959782
1	0x3b845ac2	0.0040391395
2	0xba74890d	-0.00093282835
3	0xb9493cc3	-0.00019191489
4	0x3b29a444	0.0025885263
5	0x3b23cbc1	0.0024993273
6	0xb9c0095b	-0.00036628064
7	0xbb50cc7b	-0.003186016
8	0x3b975af0	0.004618995
9	0xba3b84fe	-0.0007153301
10	0xb9f5a676	-0.00046854065
11	0xbac1658c	-0.0014754995
12	0x3b5388ad	0.003227751
13	0xb8902610	-6.873545e-05
14	0x37dab36a	2.6071171e-05
15	0x3b3afa98	0.0028530713
16	0xbb50719b	-0.0031805995
17	0xbabc195c	-0.0014350819
18	0xbb65cca0	-0.0035064593
19	0x39df2759	0.0004256319
20	0xb9911f0b	-0.00027679684
21	0x3b61dd98	0.0034464356
22	0x3a633f7c	0.00086688227
23	0x3ab6c484	0.0013944064
24	0xbbc2b27f	-0.0059416885
25	0x3aafc68c	0.0013410612
26	0x3b7a9a60	0.0038238987
27	0xbc0c6ba4	-0.008570585
28	0xb9ca2836	-0.00038558402
29	0x3b92e84a	0.0044832574
30	0xbb4fa218	-0.0031682309
31	0x3bae3d2f	0.0053173522
32	0xb9aaf54e	-0.00032607693
33	0xbbdc607d	-0.0067253695
34	0xb8c0520d	-9.1705566e-05
35	0xb913f906	-0.00014111781
36	0xbc48f5cb	-0.012265633
37	0xbad45b0a	-0.0016201448
38	0x3ae154a1	0.0017191359
39	0x3b2af51e	0.0026086043
40	0x3b50a96a	0.003183926
41	0x3b858db5	0.0040757307
42	0xbaf9a2e4	-0.0019045738
43	0x3a11b0bf	0.0005557648
44	0xbb01b842	-0.0019793664
45	0xbaa56d0b	-0.0012620998
46	0x3a6e0211	0.00090792874
47	0xbb2a5b13	-0.0025994226
48	0x38a28b62	7.750724e-05
49	0xbb55750a	-0.0032570981
50	0x3b3004fe	0.0026858444
51	0x3bcdf313	0.00628508
52	0xbb2d07ff	-0.002640247
53	0xbbb385c3	-0.005478592
54	0x3b4859a6	0.0030571013
55	0xbbd8fff0	-0.006622307
56	0xbaedc2e8	-0.0018139752
57	0x3c018c53	0.007906991
58	0xbb111b12	-0.002214138
59	0x3a48e733	0.0007663846
60	0x3a3afe24	0.0007133207
61	0xbb4bab7a	-0.003107755
62	0x3b77b563	0.0037797324
63	0xbb8af36e	-0.004240445
64	0xbb50d408	-0.0031864662
65	0x3b33b416	0.0027420572
66	0xbb8ebf9f	-0.004356339
67	0x3b9b5ea4	0.0047415067
68	0xbb9e2647	-0.0048263404
69	0xbb5577d1	-0.0032572637
70	0x3a15fd75	0.0005721667
71	0x3a00c0c9	0.000491154
72	0xba9db212	-0.0012031219
73	0xbb6cee8f	-0.0036152934
74	0xbb2e4983	-0.002659411
75	0x3a70ff05	0.00091932743
76	0x3b6f7495	0.0036537994
77	0xb9cb74ce	-0.00038806204
78	0xba7f236e	-0.00097327575
79	0x3b81d818	0.003962528
80	0xb6c47e44	-5.8559544e-06
81	0x3b64fd57	0.0034941041
82	0xbb90e17a	-0.00442141
83	0x3b734c4e	0.0037124339
84	0xbb93e83c	-0.0045137685
85	0x390a08fb	0.00013164051
86	0xba8be992	-0.0010674468
87	0x3b6157a8	0.0034384523
88	0xbb4ababd	-0.0030934059
89	0xbb9b585c	-0.004740758
90	0xb879face	-5.9599806e-05
91	0x3bd78d1c	0.006578101
92	0xba4ce623	-0.00078162755
93	0xb9868fa8	-0.00025665504
94	0x391f1ce3	0.00015174183
95	0xbb24249f	-0.0025046242
96	0xba9ce726	-0.0011970743
97	0x3a0c8afa	0.00053612853
98	0xbbf16ca0	-0.0073676854
99	0x3b69342f	0.0035584082
100	0xbba1c73a	-0.0049370797
101	0xb920ca65	-0.00015334187
102	0x3adcd346	0.0016847632
103	0xbbe7c121	-0.0070725833
104	0x398344ca	0.0002503752
105	0x3aac03ca	0.0013123688
106	0xbb990bdf	-0.0046706046
107	0x39a73b66	0.00031896977
108	0x3a4449a2	0.0007487779
109	0x3a919b2b	0.0011108866
110	0x3bbb77f9	0.005721089
111	0xbafe8f9f	-0.0019421465
112	0x3aae3978	0.0013292274
113	0xbb481669	-0.0030530936
114	0xbaf6f4ef	-0.0018841306
115	0x3b03c6c4	0.0020107487
116	0x3b2ed125	0.0026674953
117	0x39027ff6	0.00012445435
118	0xba3ecb31	-0.00072782027
119	0xbbadf322	-0.0053085247
120	0xbba3bc47	-0.0049968096
121	0x3ae86f47	0.0017733359
122	0x3abf18e8	0.0014579566
123	0x3a17c1e7	0.00057890866
124	0xbb1ea89b	-0.0024209383
125	0xbb567500	-0.0032723546
126	0xb9efcb2f	-0.00045737016
127	0x3beb7efd	0.007186769
128	0x38b14e72	8.454629e-05
129	0xba93980d	-0.0011260525
130	0x3b71bc48	0.0036885906
131	0xbc198ce4	-0.00937197
132	0xbb75e309	-0.0037519357
133	0x3a9b771f	0.0011861062
134	0xbb51b7d9	-0.003200045
135	0x3b89eeaf	0.0042093615
136	0xbb12bbfd	-0.0022389882
137	0x3a27d765	0.0006402641
138	0x3ba12e7f	0.004918873
139	0x3b5d02e5	0.003372365
140	0xba3643e3	-0.0006952865
141	0xbb3a08bf	-0.002838656
142	0x3bffda72	0.007808023
143	0x3b1c3aee	0.0023838836
144	0x3b6e6f39	0.0036382212
145	0x3a48043d	0.0007630026
146	0xbb95a5bd	-0.0045668767
147	0x3b984489	0.004646842
148	0xbba92391	-0.0051617105
149	0x3a2ef380	0.00066738576
150	0x3bfa1240	0.00763157
151	0xba1b6561	-0.00059278874
152	0x3a1d31a2	0.00059964706
153	0x3b1333e6	0.0022461354
154	0x3bc3fef1	0.005981319
155	0xb9f399ea	-0.00046463247
156	0x3b6722c8	0.0035268534
157	0xbb2c3381	-0.0026275816
158	0xba7fd0b8	-0.00097585795
159	0xbb5567f4	-0.0032563182
160	0xbb0cbe7d	-0.0021475845
161	0xbb4eb9a4	-0.0031543756
162	0x3b8f77c5	0.0043782913
163	0xba6c228b	-0.0009007833
164	0xbb871697	-0.004122566
165	0x3aa726ae	0.0012752616
166	0xbb1ffdeb	-0.0024412822
167	0xba19e2e4	-0.0005870296
168	0xba9494e4	-0.0011335877
169	0xbb947bda	-0.004531366
170	0xbc005eae	-0.007835073
171	0x3a1f7746	0.0006083142
172	0x3baeec7c	0.0053382497
173	0x3b2cb6af	0.0026354005
174	0xbb59822a	-0.0033189156
175	0xb88a7c45	-6.6035e-05
176	0xba8c793d	-0.0010717284
177	0xbb897e4a	-0.004195963
178	0x3ae3e3fe	0.0017386673
179	0x3b4e35c4	0.0031465152
180	0xba49df7d	-0.0007700844
181	0x3adb33cd	0.0016723812
182	0x3b981ea7	0.004642326
183	0xbad11824	-0.0015952629
184	0xbb0569fc	-0.002035736
185	0xbb178ccf	-0.00231247
186	0xbae3be9b	-0.001737553
187	0xbb042daa	-0.002016882
188	0xba92e15a	-0.0011206076
189	0xbaacbe12	-0.0013179204
190	0x3b46ec99	0.0030353426
191	0x3ad271dc	0.0016055661
192	0xb924ab30	-0.00015704031
193	0xba3487df	-0.00068867014
194	0xbb388bef	-0.0028159579
195	0x3addaf5b	0.0016913222
196	0x3a20ac9b	0.0006129236
197	0x3b4dd896	0.0031409613
198	0x3a80c084	0.0009822999
199	0x39d69463	0.00040927817
200	0x3ba98f8c	0.005174583
201	0x3b304e47	0.0026902126
202	0x3b7170ec	0.0036840988
203	0xbc01ebf4	-0.007929791
204	0x3bca847c	0.006180344
205	0xbafaf78b	-0.001914726
206	0x3a558606	0.0008145276
207	0x3baf7c87	0.005355421
208	0x3b06b669	0.0020555502
209	0xbb8b0fb7	-0.0042438167
210	0x3b819f01	0.0039557223
211	0x3b0eb081	0.0021772685
212	0xbb928b81	-0.0044721966
213	0xbb14654a	-0.002264338
214	0xb8bb8339	-8.941297e-05
215	0x3a04a2e4	0.0005059673
216	0xbb3014e6	-0.0026867925
217	0xbb27665c	-0.0025543189
218	0xbb7537a6	-0.0037417202
219	0x391ad5f7	0.00014766293
220	0x3b49309f	0.0030699146
221	0xb993db12	-0.00028201245
222	0x3a4f2a29	0.00079027057
223	0x3bf75e23	0.007549064
224	0xbb115a47	-0.0022179054
225	0x3aed3661	0.0018097871
226	0x3a57c91c	0.0008231567
227	0xbb418eec	-0.002953465
228	0xbb197f6f	-0.0023421904
229	0xba606c6e	-0.0008561079
230	0xbaf3ff50	-0.0018615518
231	0xba08d2c5	-0.00052193954
232	0xbbb108e4	-0.005402671
233	0xbb0a3a70	-0.002109196
234	0xbadd48f2	-0.0016882701
235	0xb821d3ef	-3.858277e-05
236	0xbac2beb8	-0.0014857864
237	0x3b206e23	0.002447971
238	0xbb27ceab	-0.0025605361
239	0xbaa14440	-0.0012303665
240	0xbb762b50	-0.0037562437
241	0xba9e4d4d	-0.0012077481
242	0x3b5505c9	0.003250467
243	0x3b50ed37	0.0031879672
244	0xbb4aebe3	-0.0030963353
245	0xb988d5e7	-0.0002609931
246	0xbadf5f8d	-0.0017042026
247	0x3be201fd	0.0068972097
248	0xbb63dfbb	-0.0034770805
249	0xb8dd5cc4	-0.0001055538
250	0xba9de045	-0.0012044987
251	0x397e89b2	0.00024274623
252	0x3b2786a0	0.002556242
253	0xbad66476	-0.0016356844
254	0x3b430f64	0.0029763812
255	0xbb46342e	-0.0030243504

bn1.weight f4 [256]
0	0x3f726450	0.94684315
1	0x3f7eb760	0.9949856
2	0x3f4870ae	0.78296936
3	0x3f63ebc0	0.890316
4	0x3f3347fe	0.70031726
5	0x3f88b87a	1.0681298
6	0x3f8685f2	1.0509627
7	0x3f83ce1f	1.0297278
8	0x3f686195	0.907739
9	0x3f7f7ca1	0.99799544
10	0x3f42389e	0.7586764
11	0x3f55cc93	0.8351528
12	0x3f5df830	0.8670683
13	0x3f9028f6	1.12625
14	0x3f6f784a	0.9354292
15	0x3f3fcbd0	0.7492037
16	0x3f74c5b5	0.95614177
17	0x3f8daaff	1.1067809
18	0x3f5c8b04	0.8614962
19	0x3f91c52c	1.1388297
20	0x3f866b9c	1.050159
21	0x3f6a0b36	0.91423357
22	0x3f579219	0.842073
23	0x3f6b5a7a	0.9193493
24	0x3f40cae1	0.7530957
25	0x3f44d1cd	0.7688263
26	0x3f762d89	0.9616323
27	0x3f9072c8	1.1285028
28	0x3f6b875f	0.92003435
29	0x3f433212	0.76248276
30	0x3f77309c	0.9655855
31	0x3f8590bd	1.0434796
32	0x3f369269	0.71317154
33	0x3f8a7937	1.0818242
34	0x3f75c36b	0.9600131
35	0x3f81a141	1.0127336
36	0x3f977e68	1.1835451
37	0x3f345174	0.7043679
38	0x3f712d7e	0.9421004
39	0x3f3bdd94	0.73384976
40	0x3f8c24dd	1.094875
41	0x3f70bff2	0.94042885
42	0x3f28b75e	0.65904796
43	0x3f81bd29	1.0135852
44	0x3f800600	1.0001831
45	0x3f6e40bb	0.9306752
46	0x3f57788d	0.8416832
47	0x3f58f4df	0.84748644
48	0x3f87cdf5	1.0609728
49	0x3f826f45	1.0190207
50	0x3f6a8a42	0.91617215
51	0x3f87274d	1.0558869
52	0x3f7fa672	0.9986335
53	0x3f70f10e	0.9411782
54	0x3f504e9c	0.8136995
55	0x3f84b2f6	1.0367115
56	0x3f4933b6	0.7859453
57	0x3f739a14	0.9515698
58	0x3f8ce8a8	1.1008501
59	0x3f867d68	1.0507021
60	0x3f51539e	0.81768215
61	0x3f29912e	0.6623715
62	0x3f470c41	0.7775307
63	0x3f5fcc23	0.8742086
64	0x3f8bc720	1.0920143
65	0x3f8e0f35	1.1098391
66	0x3f597392	0.8494197
67	0x3f746133	0.95460814
68	0x3f6f31d0	0.9343538
69	0x3f809c3c	1.0047679
70	0x3f59c7c2	0.8507043
71	0x3f762a61	0.96158415
72	0x3f81cb07	1.0140084
73	0x3f82be33	1.0214294
74	0x3f4ec7ad	0.8077343
75	0x3f79889c	0.97474074
76	0x3f5dd539	0.86653477
77	0x3f6844ea	0.90730155
78	0x3f6e7c03	0.93157977
79	0x3f8f16c2	1.117882
80	0x3f716b86	0.9430469
81	0x3f514e9e	0.81760585
82	0x3f5df33a	0.8669926
83	0x3f7fbdfc	0.9989927
84	0x3f54cd43	0.83125705
85	0x3f738798	0.95128775
86	0x3f731717	0.9495711
87	0x3f804b59	1.0022994
88	0x3f5076ba	0.8143116
89	0x3f59d8fb	0.8509671
90	0x3f40988a	0.75232756
91	0x3f8aa6e2	1.0832179
92	0x3f8a61c3	1.0811085
93	0x3f58d94a	0.84706557
94	0x3f4c173e	0.79722965
95	0x3f66a40a	0.90094054
96	0x3f570bb2	0.8400222
97	0x3f536985	0.82582885
98	0x3f858149	1.043008
99	0x3f9c23bc	1.2198405
100	0x3f56b941	0.83876425
101	0x3f4c0296	0.79691446
102	0x3f80bc4c	1.0057464
103	0x3f57ab7c	0.8424604
104	0x3f59cba7	0.85076374
105	0x3f57854e	0.8418778
106	0x3f83c207	1.0293587
107	0x3f6a682d	0.9156521
108	0x3f732a3b	0.94986314
109	0x3f3e922d	0.74441797
110	0x3f71a742	0.9439584
111	0x3f220d7d	0.6330183
112	0x3f5528cc	0.83265376
113	0x3f4c9dcf	0.79928297
114	0x3f646c33	0.892276
115	0x3f8f7fad	1.1210839
116	0x3f91d034	1.1391664
117	0x3f4d73d7	0.8025488
118	0x3f6dd4d5	0.9290288
119	0x3f83b87e	1.0290678
120	0x3f52cbd7	0.82342285
121	0x3f5afe0a	0.8554388
122	0x3f59014b	0.847676
123	0x3f4a121b	0.78933877
124	0x3f8da479	1.1065818
125	0x3f83a6f2	1.0285323
126	0x3f5cea35	0.8629487
127	0x3f69a019	0.91259915
128	0x3f61fb7b	0.88274354
129	0x3f4295d7	0.7600989
130	0x3f79aae2	0.9752637
131	0x3f7cae52	0.9870349
132	0x3f89a7cf	1.0754336
133	0x3f73ce4f	0.95236677
134	0x3f49a130	0.7876158
135	0x3f890b11	1.0706502
136	0x3f885f16	1.0654018
137	0x3f5b6d4a	0.85713637
138	0x3f82f993	1.0232414
139	0x3f890819	1.0705596
140	0x3f869a02	1.051575
141	0x3f6d98e6	0.9281143
142	0x3f72d9f5	0.94863826
143	0x3f641345	0.890919
144	0x3f670151	0.90236384
145	0x3f8394e6	1.0279815
146	0x3f865f48	1.0497828
147	0x3f8210ae	1.016134
148	0x3f8a5c91	1.0809499
149	0x3f61ca37	0.8819918
150	0x3f72a98a	0.94789946
151	0x3f90362e	1.1266534
152	0x3f642a16	0.8912672
153	0x3f823a8a	1.0174115
154	0x3f5102d3	0.81644934
155	0x3f564b25	0.8370841
156	0x3f90964a	1.1295865
157	0x3f7845f7	0.9698176
158	0x3f84f94c	1.0388579
159	0x3f567ef8	0.8378749
160	0x3f86929a	1.0513489
161	0x3f39bbde	0.7255229
162	0x3f81c41a	1.013797
163	0x3f8a27db	1.0793413
164	0x3f7543f4	0.95806813
165	0x3f690b3c	0.9103277
166	0x3f562780	0.8365402
167	0x3f51bb06	0.81926
168	0x3f7966d1	0.9742251
169	0x3f8d53a0	1.1041145
170	0x3f84e24a	1.0381558
171	0x3f623f15	0.88377506
172	0x3f68152d	0.9065731
173	0x3f6b9280	0.92020416
174	0x3f83fd61	1.03117
175	0x3f4eb95c	0.80751586
176	0x3f86863b	1.0509714
177	0x3f83858d	1.0275131
178	0x3f79e868	0.9762025
179	0x3f7f1980	0.99648285
180	0x3f79255b	0.97322625
181	0x3f84fb54	1.0389199
182	0x3f79a324	0.9751456
183	0x3f526ea6	0.82200086
184	0x3f7750ed	0.9660786
185	0x3f80e789	1.0070659
186	0x3f483981	0.78212744
187	0x3f7ff56f	0.99983877
188	0x3f611972	0.8792945
189	0x3f522d74	0.82100606
190	0x3f77489e	0.9659518
191	0x3f843d5a	1.0331223
192	0x3f44d467	0.768866
193	0x3f8dd68c	1.10811
194	0x3f86e3c6	1.0538261
195	0x3f492bfd	0.78582746
196	0x3f40bb64	0.75285935
197	0x3f7fbfce	0.99902046
198	0x3f6ffd3f	0.937458
199	0x3f4f25ef	0.8091726
200	0x3f7a78b9	0.9784046
201	0x3f845d2e	1.0340936
202	0x3f5e5e1a	0.8686234
203	0x3f8c932b	1.0982412
204	0x3f550d98	0.8322387
205	0x3f5a43b3	0.8525955
206	0x3f7daf85	0.99095947
207	0x3f802b3f	1.0013198
208	0x3f85c953	1.0452064
209	0x3f3ec17e	0.74513996
210	0x3f812b9d	1.0091435
211	0x3f639e89	0.8891378
212	0x3f628206	0.8847965
213	0x3f888f6e	1.0668771
214	0x3f84589f	1.0339545
215	0x3f75e4fe	0.9605254
216	0x3f6c5e1f	0.9233112
217	0x3f46722d	0.7751797
218	0x3f875611	1.057314
219	0x3f736a60	0.9508419
220	0x3f912b91	1.134142
221	0x3f3527d9	0.7076393
222	0x3f725a97	0.9466948
223	0x3f78c2cc	0.97172236
224	0x3f665820	0.8997822
225	0x3f739072	0.9514228
226	0x3f677969	0.9041963
227	0x3f5d7e5e	0.86520946
228	0x3f732066	0.9497131
229	0x3f2fde76	0.68698823
230	0x3f828dcb	1.0199522
231	0x3f84898b	1.0354475
232	0x3f94517f	1.1587371
233	0x3f4e74c0	0.80646896
234	0x3f8824ff	1.063629
235	0x3f38b803	0.7215578
236	0x3f531a8a	0.8246237
237	0x3f7c0472	0.98444283
238	0x3f8e15b3	1.1100372
239	0x3f80424f	1.0020236
240	0x3f3a17be	0.7269248
241	0x3f7377e8	0.9510484
242	0x3f3e08aa	0.7423197
243	0x3f8d582c	1.1042533
244	0x3f62b51e	0.8855761
245	0x3f901ac0	1.1258163
246	0x3f537109	0.8259435
247	0x3f78d138	0.9719424
248	0x3f52f1ca	0.8240019
249	0x3f81b7f5	1.0134264
250	0x3f6d782c	0.9276149
251	0x3f816688	1.0109415
252	0x3f61eddc	0.8825357
253	0x3f4f0dcf	0.80880445
254	0x3f496e6b	0.7868411
255	0x3f5ab47e	0.8543166

bn1.bias f4 [256]
0	0xbec07b2c	-0.37593973
1	0xbebad5b4	-0.36491168
2	0xbe9846a8	-0.29741406
3	0xbed7b334	-0.4212891
4	0xbe9fba7a	-0.31196958
5	0xbe9c0d93	-0.30479106
6	0xbe7fc6ba	-0.24978152
7	0xbecc8561	-0.3994551
8	0xbe8fbda1	-0.28074363
9	0xbe988626	-0.29789847
10	0xbef934f6	-0.48673218
11	0xbe9de0be	-0.30835527
12	0xbeb91923	-0.3615199
13	0xbeceb7ae	-0.4037451
14	0xbedcd4bf	-0.43131062
15	0xbe8f85e4	-0.28031838
16	0xbec894f1	-0.39176133
17	0xbe8023cd	-0.25027314
18	0xbe9ef7ce	-0.31048435
19	0xbe9f92bb	-0.31166634
20	0xbea9dfbd	-0.3317851
21	0xbed658f2	-0.41864735
22	0xbea33712	-0.31877953
23	0xbec8780e	-0.39154094
24	0xbe8e06d4	-0.27739584
25	0xbed62456	-0.41824597
26	0xbef06859	-0.4695461
27	0xbe15199a	-0.14560547
28	0xbe95a04f	-0.29223868
29	0xbe5581c4	-0.20850283
30	0xbe9b6f70	-0.30358458
31	0xbe7b364d	-0.24532433
32	0xbe475e6b	-0.19469611
33	0xbe9ba137	-0.30396435
34	0xbe952b8d	-0.2913479
35	0xbee11184	-0.43958676
36	0xbedca667	-0.43095705
37	0xbe87a272	-0.26491123
38	0xbea2717d	-0.3172721
39	0xbecc7330	-0.3993163
40	0xbec91fed	-0.3928217
41	0xbed14a49	-0.40876988
42	0xbe95e424	-0.2927562
43	0xbe76c1c4	-0.24097353
44	0xbe669c5d	-0.22520585
45	0xbe94789f	-0.28998277
46	0xbef583b4	-0.47952044
47	0xbed09408	-0.4073794
48	0xbea536cc	-0.3226837
49	0xbe88ea35	-0.26741186
50	0xbed3ff77	-0.41405842
51	0xbec931da	-0.39295846
52	0xbe88f28a	-0.26747543
53	0xbed8c171	-0.42335084
54	0xbebb316c	-0.36561143
55	0xbebf0cfc	-0.37314594
56	0xbe8f10c7	-0.27942488
57	0xbec5e77b	-0.38653168
58	0xbe94b793	-0.29046306
59	0xbebfdb7e	-0.37472147
60	0xbe6bcf46	-0.23028287
61	0xbebda496	-0.37039632
62	0xbee64416	-0.4497382
63	0xbeaf2e56	-0.3421504
64	0xbe8332a6	-0.2562458
65	0xbe919c82	-0.28439718
66	0xbeaec45e	-0.3413419
67	0xbe77e899	-0.24209823
68	0xbeef8ba3	-0.46786222
69	0xbe9ce33e	-0.30642122
70	0xbeb4e9bb	-0.35334572
71	0xbeb1e893	-0.34747753
72	0xbe9596de	-0.29216665
73	0xbeb835ce	-0.3597855
74	0xbec3cb5c	-0.38241088
75	0xbea46602	-0.32109076
76	0xbecfd9ea	-0.40595943
77	0xbec718fb	-0.38886246
78	0xbedf12ec	-0.43569124
79	0xbe9fdd7d	-0.3122367
80	0xbee756e7	-0.4518349
81	0xbeaccdb5	-0.33750692
82	0xbecebb3d	-0.40377226
83	0xbeb3f674	-0.35148966
84	0xbe957d66	-0.29197234
85	0xbea83f52	-0.3286081
86	0xbe9c8681	-0.30571368
87	0xbe9a8e84	-0.30186856
88	0xbe8c56ef	-0.27410075
89	0xbed308f0	-0.41217756
90	0xbe925508	-0.285805
91	0xbeb5954c	-0.35465467
92	0xbecbda4e	-0.3981499
93	0xbeab8f9b	-0.33508
94	0xbe8c92c6	-0.2745573
95	0xbea5d689	-0.3239024
96	0xbeb7cd4b	-0.35898814
97	0xbe8ba46b	-0.27273878
98	0xbe9c7b02	-0.30562598
99	0xbec30cfd	-0.38095847
100	0xbe99a6fd	-0.30010214
101	0xbea275f9	-0.3173063
102	0xbe1ddad0	-0.15415502
103	0xbe9954c4	-0.29947484
104	0xbe8c3243	-0.27382097
105	0xbe45fb5a	-0.19334164
106	0xbeadc6ac	-0.33940637
107	0xbeb5fed4	-0.3554598
108	0xbe9c9b5a	-0.30587274
109	0xbeb8890c	-0.36042058
110	0xbeec5bf5	-0.46163908
111	0xbebe58d7	-0.37177154
112	0xbec09edd	-0.37621203
113	0xbe8b6631	-0.27226403
114	0xbe718c93	-0.23588781
115	0xbea4a320	-0.32155704
116	0xbebce872	-0.36896092
117	0xbe849ada	-0.25899392
118	0xbebdedd8	-0.37095523
119	0xbe9113ae	-0.28335327
120	0xbe975858	-0.29559588
121	0xbea9162c	-0.33024728
122	0xbeb8bbc1	-0.36080745
123	0xbea67edc	-0.3251866
124	0xbe5486d2	-0.20754555
125	0xbec47553	-0.3837076
126	0xbe93ae55	-0.28843942
127	0xbed61031	-0.41809228
128	0xbef191fb	-0.47181687
129	0xbe979524	-0.29605973
130	0xbeb0bdf5	-0.34519926
131	0xbeb21953	-0.34784946
132	0xbebc3466	-0.36758727
133	0xbe919b80	-0.2843895
134	0xbee554ee	-0.4479136
135	0xbeba8aea	-0.36434108
136	0xbeab1f12	-0.33422142
137	0xbec4dbd9	-0.3844898
138	0xbebc4023	-0.36767682
139	0xbe8bec66	-0.27328795
140	0xbe8abd69	-0.27097633
141	0xbec2388c	-0.37933767
142	0xbec88348	-0.3916266
143	0xbeea5a1a	-0.45771867
144	0xbee54daf	-0.4478583
145	0xbebcb4da	-0.3685673
146	0xbeab81f7	-0.33497593
147	0xbea80826	-0.32818717
148	0xbea31f64	-0.31859887
149	0xbeabda87	-0.3356516
150	0xbeb76586	-0.35819644
151	0xbe8127d6	-0.25225705
152	0xbea971ad	-0.3309454
153	0xbeb55f0e	-0.35424083
154	0xbe56c751	-0.2097447
155	0xbe655d37	-0.2239884
156	0xbe941a9f	-0.2892656
157	0xbe97c841	-0.2964497
158	0xbe8cc2ff	-0.2749252
159	0xbf08eedd	-0.53489476
160	0xbeab003c	-0.33398616
161	0xbe932154	-0.28736365
162	0xbecf6aa2	-0.40511042
163	0xbed0ec8a	-0.40805465
164	0xbed189d6	-0.40925473
165	0xbe8e4616	-0.27787846
166	0xbed2587c	-0.41083133
167	0xbe46d2bd	-0.19416328
168	0xbe94a5f0	-0.2903285
169	0xbe9d0b9e	-0.30672926
170	0xbe8ae7ae	-0.27129883
171	0xbe990259	-0.29884604
172	0xbeaf4b87	-0.3423731
173	0xbe9a2420	-0.30105686
174	0xbedfed9b	-0.43735966
175	0xbe82be8f	-0.2553601
176	0xbebb0fb8	-0.3653543
177	0xbe92f1ee	-0.28700203
178	0xbe8a2ac7	-0.26985762
179	0xbe77365c	-0.2414183
180	0xbe9fda99	-0.31221464
181	0xbe99bfa3	-0.3002902
182	0xbebd1f46	-0.36937922
183	0xbeac7502	-0.3368302
184	0xbe7f68af	-0.24942277
185	0xbe949888	-0.29022622
186	0xbe46adb5	-0.19402201
187	0xbec0f5bd	-0.37687483
188	0xbe8ab1fe	-0.27088922
189	0xbe33b506	-0.17549524
190	0xbef559f5	-0.47920194
191	0xbe3166ad	-0.17324324
192	0xbf007930	-0.5018492
193	0xbe942735	-0.28936163
194	0xbee8695f	-0.45392892
195	0xbebac257	-0.36476395
196	0xbeaf4c05	-0.34237686
197	0xbecac6f5	-0.39604917
198	0xbeab45b5	-0.3345162
199	0xbe354872	-0.17703417
200	0xbed434f2	-0.41446644
201	0xbe93a977	-0.2884023
202	0xbe96423b	-0.29347405
203	0xbeb05129	-0.3443692
204	0xbea95c5c	-0.33078277
205	0xbe9ecf60	-0.3101759
206	0xbece6927	-0.403146
207	0xbebffe4c	-0.374987
208	0xbeb4284f	-0.35187003
209	0xbe67bbd9	-0.22630252
210	0xbec8319a	-0.39100343
211	0xbed80a90	-0.4219556
212	0xbe3e7108	-0.18597806
213	0xbea2e277	-0.31813404
214	0xbe9e05b4	-0.30863726
215	0xbea26062	-0.3171416
216	0xbe7aec35	-0.24504168
217	0xbebdf81e	-0.3710336
218	0xbeb47c3b	-0.3525103
219	0xbeaf4426	-0.3423168
220	0xbe8382c8	-0.25685716
221	0xbe8c1dad	-0.2736639
222	0xbea1b0f7	-0.31580326
223	0xbec73ee3	-0.38915166
224	0xbeb68556	-0.35648602
225	0xbea97e6c	-0.33104265
226	0xbeb9bfc6	-0.36279124
227	0xbee39700	-0.4445114
228	0xbeed3676	-0.46330613
229	0xbee61cff	-0.44943997
230	0xbedc4034	-0.43017733
231	0xbeb04f03	-0.3443528
232	0xbe85dfb6	-0.2614724
233	0xbec30b1a	-0.38094407
234	0xbec79fb2	-0.38989025
235	0xbe9c5924	-0.3053676
236	0xbec19d0f	-0.3781514
237	0xbed0d444	-0.40786946
238	0xbea25a40	-0.3170948
239	0xbea19f18	-0.3156669
240	0xbe88f887	-0.2675211
241	0xbec5693f	-0.3855686
242	0xbe90f3a2	-0.28310877
243	0xbea380b9	-0.31934145
244	0xbea6ee8b	-0.3260387
245	0xbea064c4	-0.31326878
246	0xbe9da4f4	-0.30789912
247	0xbebdbc4e	-0.37057728
248	0xbe888497	-0.26663658
249	0xbe9cd799	-0.30633238
250	0xbea3bfe0	-0.31982327
251	0xbe92c397	-0.28664848
252	0xbe93625f	-0.2878599
253	0xbf0203da	-0.50787127
254	0xbeac3e72	-0.33641392
255	0xbeb27ee1	-0.34862426

bn1.running_mean f4 [256]
0	0x3ca1e28d	0.019761348
1	0x3a307744	0.0006731639
2	0xbbcb7c50	-0.0062098876
3	0x3b13836a	0.0022508749
4	0x3c96eb5c	0.018422775
5	0x3badc65e	0.005303188
6	0xbc5eb3f0	-0.013592705
7	0xbc3c4d0a	-0.011492977
8	0x3d32228e	0.043489985
9	0xbb0df365	-0.0021659967
10	0xbceade53	-0.028670466
11	0x3b69406d	0.003559138
12	0x3c1513a1	0.009098918
13	0xbbc85a06	-0.0061142473
14	0xbcd8070f	-0.026370553
15	0xbacc32ae	-0.0015579069
16	0x3ba283c8	0.004959557
17	0x3c2f5d55	0.010703404
18	0x3bfd200c	0.0077247676
19	0xbca3804f	-0.019958643
20	0x3c27a483	0.010232094
21	0x3cc323ad	0.023820722
22	0xbc377d37	-0.011199287
23	0xbcc7dfc1	-0.024398686
24	0xbc5502b4	-0.013001133
25	0xbadab6bf	-0.0016686543
26	0x3b57b5c5	0.003291474
27	0xbc87660d	-0.016528154
28	0x3a875669	0.0010325435
29	0x3cef8548	0.029238358
30	0x3c22dcb1	0.009940312
31	0x3c39dc62	0.011344047
32	0xbcd5efca	-0.026115317
33	0xbc23717b	-0.009975786
34	0xbbf143e1	-0.007362828
35	0x3b4bb98d	0.0031085939
36	0xbd290e61	-0.04127348
37	0xbcb8e940	-0.02257216
38	0x3c13783e	0.009000836
39	0xbcea65cc	-0.028612994
40	0xbc060df7	-0.00818204
41	0xbc261e04	-0.010138992
42	0xba6403e4	-0.00086980895
43	0xbbc9b434	-0.006155515
44	0xbb91100a	-0.004426961
45	0xbc35eb49	-0.01110346
46	0xbd41b94d	-0.047295857
47	0xbc79838a	-0.015229115
48	0x3d0b0413	0.033939432
49	0xbc0f3b72	-0.0087422
50	0xbc06f042	-0.008235993
51	0xbccd6d58	-0.025076553
52	0xbcc8c7e7	-0.024509383
53	0xba1d05c6	-0.0005989935
54	0xbb8ed3ff	-0.004358768
55	0xbc851459	-0.016245054
56	0xbc65a523	-0.014016422
57	0x3c52dbff	0.012869834
58	0x3c17aefd	0.009258029
59	0x3ba50b5b	0.005036754
60	0x3cb930e5	0.022606323
61	0x3b2c4d4f	0.0026291197
62	0xbcb9271c	-0.022601657
63	0xbcbd42fb	-0.023103228
64	0x3c00ea43	0.007868352
65	0xbc82f842	-0.01598752
66	0xbb88a7dd	-0.0041704015
67	0xbb66f38e	-0.0035240385
68	0xbc321367	-0.010868884
69	0x3c62caf3	0.013842332
70	0x3abddb25	0.0014484866
71	0xbce54890	-0.027988702
72	0x3c3c44bc	0.011490997
73	0x39f737bb	0.00047153034
74	0xbcf246f2	-0.029574845
75	0xb94a5332	-0.00019295214
76	0xbbd663d5	-0.0065426626
77	0xbbdb3e11	-0.0066907485
78	0xbc37169c	-0.011174824
79	0xbac68544	-0.0015145917
80	0xbc1e96e3	-0.009679529
81	0xbc4c55d1	-0.012471632
82	0xba427b30	-0.0007418869
83	0xbbef3f6d	-0.007301262
84	0xbce58dab	-0.028021654
85	0xbc01f7ba	-0.007932598
86	0xbcbc84bd	-0.023012513
87	0x3cc409d6	0.023930471
88	0xbd14b10a	-0.03630165
89	0x3aab712a	0.001307999
90	0xbacbf32d	-0.0015560143
91	0xbc90c84e	-0.017673638
92	0xbc36a0bc	-0.0111467205
93	0x3c2dcc42	0.010607781
94	0xbb441ece	-0.0029925588
95	0x3b4bfa87	0.0031124668
96	0x3bf57ae9	0.0074914587
97	0xbc5bd0fd	-0.013416526
98	0xbae8bb91	-0.0017756094
99	0xbc868958	-0.016422912
100	0x3ba159aa	0.004924019
101	0xbbce902b	-0.0063038073
102	0xbbea060c	-0.007141834
103	0x3cd5cea3	0.026099509
104	0xbb3f7632	-0.0029214737
105	0xbc604259	-0.0136876935
106	0xbc32173a	-0.010869795
107	0xbc357eb9	-0.011077576
108	0xbc9c949f	-0.019113837
109	0xbd453fb6	-0.048156463
110	0x3ce98d5e	0.028509792
111	0xbcc1ee32	-0.02367315
112	0xbd1166f0	-0.03549856
113	0xba8a06ca	-0.0010530588
114	0x3c31be9d	0.010848668
115	0x3be6915a	0.00703637
116	0xbb886d79	-0.004163441
117	0xbc251ed0	-0.010078147
118	0xbca012b2	-0.019540165
119	0xbd27435e	-0.04083573
120	0xbca45d5c	-0.020064048
121	0x3bc2f357	0.0059494185
122	0x3c0ccab9	0.008593255
123	0xbcf56495	-0.029955188
124	0x3b2aa30d	0.0026037127
125	0xbbd46985	-0.0064823055
126	0x3b85f755	0.004088322
127	0xbbb510fa	-0.0055257054
128	0x3c96c47c	0.018404238
129	0xbc12b3a7	-0.008953965
130	0xbbd25f8a	-0.0064200806
131	0xbc3ea866	-0.011636829
132	0x3ad8e6e7	0.0016548306
133	0x3c906811	0.017627748
134	0xbcd88351	-0.026429804
135	0xbc20c1e9	-0.009811857
136	0xbb9f06c3	-0.004853101
137	0xbbb61fb6	-0.0055579795
138	0xbca83d6e	-0.020537104
139	0x3b3c2865	0.00287106
140	0xbc26925d	-0.010166732
141	0xbb8ada4b	-0.0042374483
142	0x3b95552b	0.004557272
143	0x3be1a28e	0.006885833
144	0x3aab7d6c	0.0013083643
145	0xbcd69fb0	-0.026199192
146	0xbc7cea48	-0.015436716
147	0xbc390d0e	-0.011294616
148	0x37a52d4f	1.9690631e-05
149	0xbaeaaaf8	-0.0017903736
150	0xba54374f	-0.00080954
151	0x3c5e6142	0.013572993
152	0x3ba2c316	0.0049671037
153	0x3b47c397	0.003048157
154	0xbc6d302a	-0.014476815
155	0xbb0e5fe3	-0.0021724633
156	0x3b37bcc1	0.002803609
157	0x3b99342d	0.0046754093
158	0xbc8af6e0	-0.016963422
159	0xb9e2befb	-0.0004324837
160	0xbca08bb0	-0.019597858
161	0x3a34a58b	0.0006891123
162	0xbcc39381	-0.023874046
163	0x3c292371	0.010323391
164	0xbcd22904	-0.025654323
165	0xbd0d5efd	-0.034514416
166	0xbc3d1451	-0.011540488
167	0x3c5a2e9f	0.013316779
168	0x3c4cd429	0.012501755
169	0x3c6c6415	0.014428158
170	0xbc935eb0	-0.017989486
171	0xbbc4b311	-0.0060027917
172	0x3c0e54e0	0.008687228
173	0xbc8002e6	-0.015626382
174	0x3b151bb8	0.0022752117
175	0xbb8b331d	-0.0042480365
176	0xbb064dd7	-0.0020493174
177	0x3beb877e	0.007187783
178	0x3ca6f7a4	0.020381756
179	0x3c209894	0.009802002
180	0x3c196483	0.009362343
181	0x3c124cc3	0.008929434
182	0xbbf53c02	-0.00748396
183	0x3a6ffdae	0.00091549277
184	0xbb70d575	-0.0036748324
185	0xbc0e9ee2	-0.008704873
186	0xb8a58470	-7.8924815e-05
187	0xbbd3c804	-0.0064630527
188	0xbb76d8df	-0.0037665886
189	0xbc0fa028	-0.008766212
190	0xbca0fb25	-0.019651005
191	0xbae7a4d3	-0.0017673023
192	0xbcef29f6	-0.029194813
193	0x3bb32104	0.0054665823
194	0xbcc17f0b	-0.02362015
195	0x3b091d64	0.002092206
196	0xbc19d6d8	-0.009389602
197	0xbd18b0c6	-0.03727796
198	0x3cc64d2e	0.024206724
199	0x3b735303	0.0037128336
200	0x3c52be5b	0.012862767
201	0xbb6311bd	-0.0034648024
202	0xbd02db24	-0.03194727
203	0xbc781a52	-0.015142994
204	0x3baf7bb5	0.005355323
205	0x3c0f2dff	0.008738994
206	0x3a8ad823	0.0010592978
207	0xbc317524	-0.010831151
208	0x3b9e3241	0.004827768
209	0x3c68b018	0.01420214
210	0x3c83b86f	0.016079156
211	0x3bd6cf7f	0.006555497
212	0xbb05b5d1	-0.002040256
213	0xbb46bb7d	-0.0030324154
214	0xbb5640f8	-0.0032692533
215	0xbba62fc7	-0.0050716135
216	0x3b758831	0.003746521
217	0xbd098161	-0.03357065
218	0xbbc3a332	-0.005970382
219	0xbbda7f0e	-0.006667978
220	0x3c177325	0.009243761
221	0x3a82f67c	0.0009991671
222	0x3be43b88	0.0069651045
223	0x3ad2330f	0.0016036945
224	0xbcd47350	-0.025933892
225	0xbcfcfb68	-0.030881599
226	0xbcd11341	-0.025521876
227	0xbc6aabf4	-0.014323223
228	0xbc5d08df	-0.013490885
229	0x3ca97976	0.0206878
230	0xbbd0ad02	-0.0063682804
231	0x3c9833ee	0.01857945
232	0xbc52dfa7	-0.012870706
233	0xbc16919e	-0.009189991
234	0x3c0a5b4e	0.00844462
235	0xbc847f75	-0.016174057
236	0xbcc20b24	-0.023686953
237	0xbc71fbf5	-0.014769544
238	0x3bcfc2c8	0.0063403584
239	0x3d05e491	0.03268868
240	0x3c457299	0.012051248
241	0xbca32e50	-0.019919544
242	0x3ac55663	0.0015055652
243	0xbc7df9a8	-0.015501417
244	0x3cdc78dc	0.026913099
245	0xbb2e0445	-0.0026552838
246	0x3c4808e8	0.012209155
247	0xbb8e25c1	-0.0043379967
248	0xbc99b48d	-0.018762851
249	0xba9b0488	-0.0011826912
250	0x3b8f63b8	0.004375901
251	0xbc918a80	-0.017766237
252	0x3c182033	0.009285021
253	0x3c5ebbd4	0.013594586
254	0x3c07228a	0.008247981
255	0xbc653488	-0.013989575

bn1.running_var f4 [256]
0	0x3f378542	0.7168771
1	0x3f8ef25e	1.1167715
2	0x3f47d811	0.78064066
3	0x3f717f13	0.94334525
4	0x3f5b2410	0.856019
5	0x3f6145bc	0.8799703
6	0x3fab73da	1.339473
7	0x3f82473f	1.0177993
8	0x3faa03ae	1.3282373
9	0x3fc42277	1.5323018
10	0x3fa07a07	1.253724
11	0x3f461b77	0.7738566
12	0x3f391861	0.72302824
13	0x3f58bb93	0.84661216
14	0x3f4acb99	0.79216915
15	0x3f315ad0	0.69279194
16	0x3fa63f4b	1.2988065
17	0x3f7fe551	0.99959284
18	0x3f963e62	1.1737788
19	0x3fd61958	1.6726484
20	0x3f65f27a	0.89823115
21	0x3f0c4835	0.5479768
22	0x3faa684f	1.3313082
23	0x3f62e119	0.8862472
24	0x3f4ee1e0	0.8081341
25	0x3f544b2e	0.82927215
26	0x3f38cdcf	0.7218904
27	0x3f678429	0.90436035
28	0x3f9734a8	1.1812944
29	0x3f552200	0.83255005
30	0x3f5afa56	0.8553823
31	0x3f63a2a8	0.8892007
32	0x3f88bc75	1.0682513
33	0x3f6d1e42	0.92624295
34	0x3f931579	1.1490928
35	0x3f5f34b4	0.87189794
36	0x3f665ecb	0.8998839
37	0x3f5eb4bb	0.8699452
38	0x3f8507ac	1.0392966
39	0x3f511534	0.8167298
40	0x3f5b527f	0.85672754
41	0x3f62d836	0.8861116
42	0x3f34f34e	0.70683753
43	0x3fb8d80d	1.4440933
44	0x3f7551fc	0.95828223
45	0x3f515381	0.8176804
46	0x3f684ce4	0.90742326
47	0x3f38deac	0.7221477
48	0x3ff150cd	1.8852783
49	0x3fa66f03	1.3002628
50	0x3f20674c	0.6265762
51	0x3f8d4278	1.103591
52	0x3f97fccb	1.1874021
53	0x3f6ebd9d	0.93258077
54	0x3f6740f2	0.90333474
55	0x3f5bcd52	0.8586017
56	0x3f7bc956	0.9835409
57	0x3f5f8eb1	0.87327105
58	0x3fd21565	1.6412779
59	0x3f579455	0.8421071
60	0x3f4a0686	0.78916204
61	0x3f77bfed	0.9677723
62	0x3f1aa78d	0.6041191
63	0x3f8ce554	1.1007485
64	0x3fd24abb	1.6429056
65	0x3f9a4ca1	1.2054635
66	0x3f3eb2de	0.7449168
67	0x3fb60f69	1.4223453
68	0x3f6435d0	0.8914461
69	0x3f53c61f	0.82724184
70	0x3f33410e	0.7002114
71	0x3f3ccfc0	0.737545
72	0x3fc90975	1.5706011
73	0x3f9676db	1.1755022
74	0x3f1ff785	0.6248706
75	0x3f7f4c6d	0.9972599
76	0x3f4c94ad	0.7991436
77	0x3f33fefe	0.7031096
78	0x3f651c23	0.8949606
79	0x3f372319	0.7153793
80	0x3f389e4a	0.7211653
81	0x3f523ded	0.8212574
82	0x3f7551a0	0.95827675
83	0x3f5fde6e	0.87448776
84	0x3f922630	1.1417904
85	0x3f79a9de	0.9752482
86	0x3fb9ff4c	1.4531035
87	0x3f5f8256	0.8730825
88	0x3f774424	0.9658835
89	0x3f858ef6	1.0434253
90	0x3f6dcbfc	0.9288938
91	0x3faa0ffb	1.3286127
92	0x3f535f9e	0.82567775
93	0x3f6fcfb6	0.93676317
94	0x3f5f5475	0.87238246
95	0x3f79bc45	0.975529
96	0x3f75e7dd	0.9605692
97	0x3f90fe07	1.1327523
98	0x3faafbff	1.3358153
99	0x3f31fa1f	0.6952228
100	0x3f49350b	0.7859656
101	0x3f47d771	0.7806311
102	0x3f5cb055	0.8620656
103	0x3f91cac5	1.1390005
104	0x3f8238d6	1.0173595
105	0x3f98b4f6	1.1930225
106	0x3fdf2774	1.7433915
107	0x3f41de9b	0.75730294
108	0x3f70d00c	0.94067454
109	0x3fb3ba18	1.4041166
110	0x3f308f98	0.68969107
111	0x3f609843	0.8773233
112	0x3f51210e	0.8169106
113	0x3f1877be	0.5955771
114	0x3f71474f	0.94249433
115	0x3f30b05c	0.69019103
116	0x3f3cb2fc	0.7371061
117	0x3f38f3b4	0.7224686
118	0x3f3233e3	0.6961042
119	0x3fc08e8e	1.5043504
120	0x3f43454c	0.76277614
121	0x3f61b524	0.88167024
122	0x3f9701a7	1.1797379
123	0x3f865bc0	1.049675
124	0x3f5db708	0.8660741
125	0x3f46c9d5	0.7765172
126	0x3f7cf6e2	0.98814213
127	0x3f4f35e4	0.80941606
128	0x3f8361ed	1.026426
129	0x3f5d59ab	0.8646495
130	0x3f219e23	0.6313192
131	0x3f3539bd	0.70791227
132	0x3f76a884	0.96350884
133	0x3f8d052b	1.1017202
134	0x3f7e3aeb	0.9930865
135	0x3f8cb747	1.0993432
136	0x3fa4fc86	1.2889564
137	0x3f848b87	1.035508
138	0x3f45e55a	0.7730309
139	0x3fc5d28f	1.5454882
140	0x3f78bfc9	0.9716764
141	0x3f20e0af	0.6284284
142	0x3f968497	1.1759213
143	0x3f6d34a5	0.92658454
144	0x3f6920e6	0.91065824
145	0x3f2d6c84	0.67743707
146	0x3f9aa0ea	1.2080357
147	0x3f7a2d21	0.9772511
148	0x3f6b3a57	0.91885895
149	0x3f3718d2	0.7152225
150	0x3f86f06b	1.054212
151	0x3f9d6a6b	1.2298101
152	0x3f400da1	0.75020796
153	0x3f85b5b3	1.0446075
154	0x3f6db88e	0.92859733
155	0x3f4cd529	0.80012757
156	0x3fc548d5	1.5412852
157	0x3fe21493	1.7662529
158	0x3fcc1b2e	1.5945795
159	0x3f56d8ac	0.83924365
160	0x3fbef3f4	1.4918199
161	0x3f5b141d	0.85577565
162	0x3f983169	1.1890079
163	0x3f6169da	0.8805214
164	0x3f9682d7	1.1758679
165	0x3f580fee	0.84399307
166	0x3fa0a2c0	1.2549667
167	0x3f73653a	0.95076334
168	0x3fb9ef2a	1.4526112
169	0x3f94f539	1.1637336
170	0x3f50fed5	0.8163884
171	0x3f21d536	0.6321596
172	0x3f747f34	0.95506597
173	0x3f651f27	0.8950066
174	0x3fa2b78f	1.2712268
175	0x3f81f937	1.0154179
176	0x3f634521	0.8877736
177	0x3f682b50	0.9069109
178	0x3fbf6f34	1.4955812
179	0x3f4c3486	0.79767644
180	0x3f5244f0	0.8213644
181	0x3f8e04f4	1.1095262
182	0x3f3a980e	0.7288827
183	0x3f728981	0.94741064
184	0x3f838f4d	1.0278107
185	0x3fa6347f	1.298477
186	0x3fc6f649	1.554391
187	0x3f441365	0.76592094
188	0x3fbeb788	1.4899759
189	0x3f5bf85f	0.8592586
190	0x3f40bb9e	0.7528628
191	0x3fad8fc2	1.3559496
192	0x3f88befb	1.0683283
193	0x3f676993	0.9039547
194	0x3f87c2bb	1.0606302
195	0x3f6e334b	0.93047017
196	0x3f613053	0.8796436
197	0x3f96cf97	1.1782101
198	0x3f81b188	1.0132303
199	0x3f6928f0	0.9107809
200	0x3f3bd84f	0.73376936
201	0x3f565e2b	0.8373744
202	0x3fbf39ce	1.4939516
203	0x3fa1cca3	1.2640575
204	0x3f7cad47	0.987019
205	0x3f657117	0.89625686
206	0x3f633404	0.88751245
207	0x3f486a40	0.78287125
208	0x3f65fd41	0.8983956
209	0x3f3eb0b7	0.74488395
210	0x3f675d3f	0.9037666
211	0x3f666ab4	0.90006566
212	0x3f2f17d0	0.6839571
213	0x3fa8103d	1.3129956
214	0x3f9e4e0b	1.2367567
215	0x3f9f4b37	1.2444829
216	0x3f9a2f3c	1.2045665
217	0x3f55aff9	0.8347164
218	0x3f435d7e	0.7631453
219	0x3f1d0a2f	0.61343664
220	0x3fc318c6	1.5241935
221	0x3fc3f968	1.5310488
222	0x3f622fb4	0.8835404
223	0x3f2eac30	0.6823149
224	0x3f579c80	0.84223175
225	0x3f54e3eb	0.83160275
226	0x3f5cf72d	0.8631466
227	0x3f4ab47a	0.79181635
228	0x3f4d397c	0.8016584
229	0x3f7060b6	0.9389757
230	0x3fb9c31b	1.4512666
231	0x3f49d3d6	0.7883886
232	0x3f4b295c	0.79359984
233	0x3f641107	0.8908848
234	0x3fdccd81	1.7250215
235	0x3f6da569	0.9283052
236	0x3f30f750	0.6912737
237	0x3f690e88	0.910378
238	0x3f6f9acd	0.9359558
239	0x3f8ae45d	1.0850941
240	0x3f1133d7	0.56719726
241	0x3f2fffc7	0.6874966
242	0x3f346fe3	0.70483226
243	0x3fa037f6	1.2517078
244	0x3f82cc9c	1.0218692
245	0x3fd70e33	1.6801208
246	0x3f48ae59	0.78391033
247	0x3f2fa6e4	0.6861403
248	0x3f6e1689	0.93003136
249	0x3f37565d	0.71616155
250	0x3f64fcaf	0.89448065
251	0x3fb9b6c9	1.4508907
252	0x3f7459b3	0.9544937
253	0x3f5a08e7	0.85169834
254	0x3f65741c	0.89630294
255	0x3f402db5	0.75069743

fc2.weight f4 [128, 256]
0	0xbdb1645c	-0.0866172
1	0xbe0828ba	-0.13296786
2	0xbda68dd5	-0.08132521
3	0x3dc6499a	0.09682007
4	0x3d0c74b5	0.034290988
5	0xbdb43e4c	-0.08800945
6	0x3e118791	0.1421187
7	0x3d9a3193	0.07528987
8	0x3d7f8d7c	0.06239079
9	0x3d92d196	0.071688816
10	0x3dc2e01f	0.09515404
11	0x3bcaaf60	0.006185457
12	0xbe3a5837	-0.18197714
13	0xbe36132f	-0.17780755
14	0xbd192063	-0.037384402
15	0x3d046b9a	0.03232918
16	0xbd4584c9	-0.048222337
17	0xbe021c54	-0.12706119
18	0x3a47cb65	0.00076215557
19	0x3dfb927c	0.12283799
20	0xbe0c1272	-0.13678911
21	0xbe267403	-0.16255192
22	0xb91dec2f	-0.00015060672
23	0x3e2b5673	0.16732197
24	0xbc313e46	-0.01081807
25	0x3d123c99	0.03570232
26	0xbdf79e83	-0.120907806
27	0xbe1ddab8	-0.15415466
28	0xb965f9fc	-0.00021932268
29	0x3d840667	0.06446534
30	0xbbc8c457	-0.006126921
31	0xbdef93e5	-0.116981305
32	0x3d43097e	0.047616474
33	0x3caf9661	0.021434011
34	0x3db190ea	0.08670218
35	0x3d879095	0.06619374
36	0xbdc04f1d	-0.0939009
37	0xbd2e8f8b	-0.042617362
38	0x3e70ef62	0.23528817
39	0xbd0e1ca9	-0.0346953
40	0xbd74ecb0	-0.059796035
41	0x3e02f74d	0.1278965
42	0xbd97c7f6	-0.074111864
43	0xbcd1e8ee	-0.025623765
44	0xbdcb37f1	-0.09922779
45	0x3c99209d	0.018692309
46	0x3d845f1f	0.064634554
47	0x3def95eb	0.116985165
48	0x3ca1f40e	0.019769695
49	0x3de2d54f	0.11075842
50	0xbdd2619f	-0.10272526
51	0x3e3b4a30	0.18290019
52	0xbc49e810	-0.012323394
53	0xbd36eaad	-0.044657398
54	0x3d5ba262	0.053621657
55	0xbe12382e	-0.14279243
56	0x3d17983c	0.037010416
57	0x3c88fbed	0.01672169
58	0x3d679085	0.05653431
59	0x3bbce891	0.0057650288
60	0x3cc8dbe0	0.024518907
61	0x3d8a5447	0.06754356
62	0x3e174f4e	0.14776346
63	0xbb88540a	-0.004160409
64	0x3c2ea32f	0.010659023
65	0x3daee0ac	0.085389465
66	0xbe0352a7	-0.12824498
67	0xbc640aeb	-0.013918619
68	0x3ddf2d86	0.10897355
69	0xbdf388f2	-0.118913546
70	0xbdd10dcc	-0.1020771
71	0xbe071db0	-0.13194919
72	0xbd1c3805	-0.038139362
73	0xbc5cdacc	-0.0134799
74	0xbe4f2fe6	-0.20233116
75	0x3d2b8434	0.041874126
76	0x3dce5d17	0.10076349
77	0xbddf9521	-0.10917116
78	0xbb1f90b8	-0.0024347734
79	0xbdfe86ba	-0.12428041
80	0xbdfa1196	-0.122103855
81	0xbd953eeb	-0.07287391
82	0x38fa2269	0.00011927338
83	0xbc4e6f72	-0.012599813
84	0x3e11dbfa	0.1424407
85	0xbe086721	-0.1332059
86	0x3dbc422b	0.09192308
87	0xbdf69536	-0.120401785
88	0x3d906198	0.070498645
89	0x3de43003	0.1114197
90	0xbe3fd89b	-0.18734972
91	0x3d50fad1	0.051020447
92	0xbd62eade	-0.055399768
93	0x3de49852	0.11161865
94	0x3ce7c22b	0.028290829
95	0x3d58a15d	0.052888263
96	0x3d96ae2c	0.073574394
97	0x3dce1a2b	0.10063585
98	0x3da384c8	0.079843104
99	0xbd810b15	-0.06300942
100	0xbd278c43	-0.04090525
101	0x3e018623	0.12648825
102	0xbe5a0807	-0.21292125
103	0x3cc72132	0.024307821
104	0x3d4989e1	0.049203757
105	0x3e2309d0	0.15921712
106	0x3d480bba	0.04883931
107	0x3c030472	0.007996665
108	0xbdce8599	-0.100840755
109	0x3dd592c8	0.10428387
110	0xbd623838	-0.055229396
111	0xbd435a00	-0.047693253
112	0x3dc715df	0.097209685
113	0xbd3cdb9e	-0.04610788
114	0xbccb4d7c	-0.02481722
115	0xbcae1461	-0.021249952
116	0xbd9ceb92	-0.07662119
117	0x3d159694	0.036520556
118	0xbe28b5d4	-0.16475612
119	0x3d550ff7	0.05201718
120	0xbdb01854	-0.0859839
121	0xbe2ae561	-0.16689064
122	0xbcfab66a	-0.03060456
123	0x3df8a766	0.12141304
124	0xbe1008ab	-0.14065807
125	0xbd2daf95	-0.042403776
126	0xbd2adcd4	-0.041714504
127	0x3d2a94a3	0.041645657
128	0xbddb0e86	-0.106961295
129	0x3d11b6ed	0.035574842
130	0xbd0751a2	-0.033036835
131	0xbdd1f839	-0.10252423
132	0x3dbcd132	0.09219588
133	0x3e584ced	0.21123095
134	0x3e21f470	0.15815902
135	0x3dbfa48c	0.09357557
136	0x3d7e5e79	0.062101815
137	0x3d629c47	0.05532482
138	0xbdbd586c	-0.09245381
139	0x3d891527	0.066934876
140	0xbd807125	-0.062715806
141	0x3d57ca73	0.052683305
142	0xbd86dcda	-0.06585093
143	0xbdb81e88	-0.089901984
144	0xbd70badb	-0.05877195
145	0xbd1fae26	-0.03898444
146	0x3d5fb993	0.054620337
147	0xbd1b507e	-0.03791856
148	0xbe0c4911	-0.13699748
149	0xbaafc432	-0.0013409911
150	0xbd0a7974	-0.033807233
151	0x3df4f813	0.11961379
152	0xbe3b2d06	-0.18278894
153	0xbe32a1cc	-0.17444533
154	0xbd9c63cf	-0.076362245
155	0x3dcf1e16	0.1011316
156	0x3e36ca62	0.1785064
157	0x3e0b6297	0.13611828
158	0xbd8448ab	-0.06459173
159	0x3e1ef8d8	0.15524614
160	0xbd2d9af8	-0.042384118
161	0xbd95924c	-0.073032945
162	0xbdb3cb25	-0.08778981
163	0xbdd8233f	-0.10553598
164	0x3deaeb62	0.11470677
165	0xbb7e60ab	-0.0038814943
166	0x3c85cfde	0.01633447
167	0xbd119d9d	-0.035550702
168	0x3d75ef08	0.06004241
169	0x3d79ff6f	0.061034616
170	0xbe21e546	-0.15810117
171	0xbd5a9886	-0.053368114
172	0xbd4ac3d1	-0.04950315
173	0xbe039cb5	-0.12852748
174	0x3dc5be55	0.096554436
175	0xbd3f0ad6	-0.046641193
176	0xbe202c30	-0.15641856
177	0xbcc8973c	-0.024486177
178	0x3e33db9c	0.17564243
179	0xbd2aa739	-0.041663382
180	0xbddedf09	-0.10882384
181	0xbe06e377	-0.13172708
182	0xbcca9545	-0.02472938
183	0xbdf77c94	-0.12084308
184	0x3bc681af	0.00605794
185	0x3bd3239d	0.0064434544
186	0xbdf708b7	-0.12062209
187	0xbdc2a535	-0.09504167
188	0x3d604840	0.054756403
189	0xbde23928	-0.11046058
190	0x3cde8863	0.027164644
191	0x3dc969ac	0.098346084
192	0x3d238816	0.039924704
193	0xbd09b8ea	-0.033623613
194	0x3dab2f89	0.08358676
195	0x3da6a10e	0.081361875
196	0x3dc8e946	0.098101184
197	0x3bb1bb6a	0.005423953
198	0x3dd5fbc3	0.1044841
199	0xbcb446ec	-0.022006474
200	0xbe12514a	-0.14288822
201	0xbd710fe9	-0.058853064
202	0x3dcbb0d2	0.09945835
203	0x3c7f06a2	0.015565546
204	0x3d3b3d69	0.045712862
205	0x3d780719	0.060553644
206	0xbaac1596	-0.0013128992
207	0xbd09ac67	-0.03361168
208	0xbd85690e	-0.06514178
209	0x3d59e6c5	0.053198595
210	0x395afd62	0.00020884493
211	0xbd15f345	-0.036608953
212	0xbd674733	-0.056464385
213	0xbd29964b	-0.041403096
214	0xbc581787	-0.013189203
215	0x3d83793c	0.06419608
216	0xbca56a26	-0.020192217
217	0xbe3074d1	-0.17232062
218	0xbd089725	-0.033347268
219	0xbdfa7513	-0.122293614
220	0xbe06ded2	-0.13170937
221	0x3ac33c98	0.0014895378
222	0xbdc22698	-0.094800174
223	0xbd33b5bb	-0.043874484
224	0xbd8ea593	-0.069651745
225	0x3d1a9cf5	0.037747342
226	0xbcb973ec	-0.022638284
227	0x398e56f5	0.0002714914
228	0x3e1f3b54	0.15549976
229	0xbd2021a9	-0.0390946
230	0x3c9b94be	0.018991824
231	0xbda3ae17	-0.079921894
232	0xbd45fb14	-0.04833515
233	0xbcf2bd0d	-0.029631162
234	0x3bf9235a	0.007603091
235	0xbd8bb393	-0.068213604
236	0x3dcc4af9	0.099752374
237	0x3d054ae0	0.03254211
238	0xbd5cbdf4	-0.05389209
239	0x3d08cd2e	0.0333988
240	0x3c4b3252	0.012402134
241	0xbcd029aa	-0.025410492
242	0x3cf0672a	0.029346067
243	0xbdd61e52	-0.10455002
244	0xbd93652a	-0.0719703
245	0x3e0efad8	0.13962877
246	0x3dae04d2	0.08497013
247	0xbd45eb07	-0.048319843
248	0xbd44db6a	-0.048060812
249	0xbe108975	-0.14114936
250	0xbd2bb25d	-0.041918147
251	0x3d860746	0.06544356
252	0x3e3a5055	0.18194707
253	0x3db55d2d	0.088556625
254	0xbd3c8f8d	-0.04603534
255	0xbdeaca0f	-0.11464321
