models/classifiers/MLP2_HUMAN_AE1BERT_att_bm.pth (torch, 243510 bytes, 34 tensors)

embedding_proj.weight f4 [96, 96]
00000000: 186c 723e 59c8 aebc f141 b9bb dd2d f4bc
00000010: 80a4 fa3d 3baf d03d 4255 89bd b944 06be
00000020: ed04 173e 46f8 efbd 5e8b acbd 9ac1 19bd
00000030: a163 313e f164 613d c5b2 f5bd 23ee 6c3d
00000040: a080 b8bc 7b34 c43d 6004 ce3d 794f bcbc
00000050: 0fad 583c 708c 85bd 6f3b 80bd b020 12be
00000060: a34d de3d aa58 8cbe 3fa3 583c 7177 303e
00000070: 2059 d43c 02d9 c43d 8805 2b3e cee8 ccbd
00000080: a8c7 bcbd 0bc0 94bd dfc3 583e e662 acbe
00000090: b135 853d c9c3 343e 8297 e5bd ddf8 843e
000000a0: fe99 893c ad73 183d cb09 c6bd d0e6 733c
000000b0: 3185 24be 3159 3ebd 4dff 0a3e 11c6 83bc
000000c0: 0ecd 41be 9a28 303d 0c92 8e3e d5ca 9fbd
000000d0: 4d0c 8b3b 15e0 2e3c cba1 d53d 95c7 a33d
000000e0: d2f9 0c3e d400 41be 1dd3 54be ff3a f2bd
000000f0: 8472 0ebe 35eb 113e 72bf 723d 5d27 a13d
00000100: 2ce9 653e 5442 0b3e 0890 a5bd 0e1f 433c
00000110: e3b3 003e 5ca6 0f3e fbc8 acbd efc4 843c
00000120: 57b6 0d3d 5afd 12be 4f62 033e aa90 bc3c
00000130: 7d24 b6bd 5612 043e 02f0 ca3d 6883 613d
00000140: 59b3 0abe 965e 3fbe 6683 903d 39bd 8b3e
00000150: 3060 ec3d 1af2 933b ca94 c73d 6045 103d
00000160: a2ee 043e 7e91 953d 5a3a 4e3e 3a82 9f3b
00000170: 0703 9e3d 8e6f 80bd a973 05bd b718 5dbd
00000180: ba11 0bbd 9afd f4ba 9964 d9bd 7738 903d
00000190: 1532 c33d e6ad 88bd d105 6b3c 8057 ab3d
000001a0: 649a ed3d ef06 313e b6bb bdbd 8819 9fbd
000001b0: 58d2 833e c47d 9c3b eab1 f3bd 7335 69bd
000001c0: a1cc 993d d141 bdbd ad85 183d 195e 133e
000001d0: 2b0b 0e3e 6ad2 0bbe c703 8f3d 45c2 a23d
000001e0: e9e7 16bd ef1d 00be a8e1 db3d d395 293e
000001f0: 9d70 d33b b0a6 103e 85aa 3c3d f560 66be
00000200: 1413 fbbd 1c1c 03be 5708 f5bb 0816 313d
00000210: 8454 b73b 3056 a3bc 36a7 1abd 368f 2b3e
00000220: 50aa 713a 3b18 3c3d abdb a8bd 683e 9b3d
00000230: b144 12be 1fb9 75bd ea4f a0bc 458e 03be
00000240: 5c9c 2dbe 0dfa 21bc 6a92 843e 37f3 bebd
00000250: df2d 3f3e b5d7 7e3d cc30 1a3e 7092 06be
00000260: b84d 3f3d 2277 783d dbce a83d d033 903c
00000270: e200 db3b 77c4 83bd 1ccb cabd e689 0e3e
00000280: 442d a03d 362c cc3d 4303 523e fb32 96bc
00000290: 3e9e 4f3e 1020 8abd 0427 16be b5fd a1bd
000002a0: 1253 80bc 3889 8f3d f4fb d33d 9c05 f83c
000002b0: c5d6 7f3e 51c9 823d 31c4 b9bd f9ae 5c3c
000002c0: 904a 9fbd 8634 6abd bbc2 3bbd b768 48be
000002d0: b96f f8bd 2915 dc3d 0409 473d 8374 e73c
000002e0: 0137 c73d b13a d0bd fc82 b93c 05bf 3cbd
000002f0: 448c 27bd 6144 8dbd 6384 5dbe 01dd 7bbd
00000300: 20da dcbd 349f d2bb c04d f83d e1ce dfbd
00000310: 13b9 b13d 2a84 f8bc 5f22 05be e5e0 b93d
00000320: f94d 01bc 8050 f43d 0cd1 e53d 57de 17be
00000330: abff f03d 9fd3 813c 4762 493e e970 923d
00000340: a8ef 4b3d 536f 513c 3326 50bd 6077 fdbd
00000350: 2207 ee3d b13f a5bd 5a96 553d 0edf ee3d
00000360: 59ff bf3a 237a fbbd 8133 96bd ada6 2e3e
00000370: 5080 15be 14ed 0d3b 9d51 0d3b ba69 fbbd
00000380: bc11 fe3d f75a 683c e0b0 273d f534 05bd
00000390: 7f7c 22be 72cd 203d dc28 013e d4d0 943d
000003a0: 7ce0 84bd 90e0 d8bd feae 963d 09e6 723d
000003b0: 24f8 1abe 8c19 68bd 2055 003e 369f 5cbc
000003c0: 1f92 9e3d 98a3 47bb a936 e33c 5658 83bd
000003d0: ce14 d0bd ddb0 773c 51ae 233e fac0 483d
000003e0: 0964 ab3d 2f8b 1c3e 3498 4a3e 669d 43bb
000003f0: ff39 2ebd dd31 bc3d 8b45 f43d 2c2b fdbc
0.23674047 -0.021335768 -0.005653613 -0.029807026 0.12238407 0.101896726 -0.06705715 -0.13112153
0.14747973 -0.11717276 -0.0842502 -0.03753815 0.17323162 0.055027906 -0.11996988 0.057844292
-0.02252227 0.09580322 0.10059428 -0.022987114 0.013224854 -0.06520927 -0.06261336 -0.14270282
0.10854652 -0.27411395 0.013222515 0.17233063 0.025921404 0.096117035 0.16701329 -0.100053415
-0.09217769 -0.07263192 0.21168469 -0.33669204 0.065043814 0.17652811 -0.112105384 0.25971118
0.016797062 0.037219692 -0.096698366 0.014886573 -0.16066433 -0.04647178 0.13573952 -0.016085656
-0.18925878 0.04300747 0.278458 -0.07802359 0.0042434097 0.0106735425 0.1043125 0.079970516
0.13767174 -0.18847972 -0.20783658 -0.11827659 -0.13910872 0.1424988 0.059264608 0.07868836
0.2245223 0.13599521 -0.080841124 0.0119092595 0.12568621 0.14028305 -0.084367715 0.016207187
0.03459772 -0.14354458 0.1283047 0.0230182 -0.08893678 0.1289762 0.09909059 0.05505696
-0.13544978 -0.18688425 0.07056312 0.27292803 0.11541784 0.0045149447 0.09745176 0.03522241
0.12981656 0.07303141 0.20139447 0.004867819 0.07715421 -0.06271277 -0.032581005 -0.053978648
-0.033952452 -0.0018691302 -0.106148906 0.0704202 0.09531037 -0.066737935 0.014344648 0.08366299
0.11601713 0.17287801 -0.09264319 -0.077685416 0.25746417 0.0047757346 -0.11899169 -0.05693574
0.07509733 -0.09241069 0.03723686 0.14391364 0.13871448 -0.13654485 0.06983142 0.0794721
-0.03684226 -0.12511419 0.107364 0.1656106 0.0064526335 0.14126086 0.046061058 -0.22497924
-0.12259498 -0.12803692 -0.007477801 0.0432339 0.005594792 -0.019938558 -0.03775712 0.1675385
0.0009218799 0.045921545 -0.08245023 0.075802624 -0.14284016 -0.059991 -0.019569356 -0.1284724
-0.16954178 -0.009886277 0.25892955 -0.09323733 0.18669842 0.062217433 0.15057677 -0.13141799
0.046704978 0.06066049 0.082425795 0.017602831 0.006683455 -0.06433957 -0.09902021 0.13919792
0.07821134 0.0996937 0.20509057 -0.018334856 0.20275208 -0.06744397 -0.14663321 -0.07909719
-0.015664611 0.07008594 0.103507906 0.030276112 0.24984272 0.06386054 -0.09070624 0.013469451
-0.077778935 -0.057178997 -0.045840006 -0.19571196 -0.121306844 0.107462235 0.048592582 0.0282538
0.09727288 -0.101674445 0.022645466 -0.046080608 -0.040905252 -0.06897808 -0.21632533 -0.061490063
-0.107837915 -0.00642767 0.12124205 -0.10928131 0.08677878 -0.030336458 -0.13001393 0.09076098
-0.007892125 0.11929417 0.11221513 -0.1483091 0.11767515 0.01584798 0.19666396 0.07150442
0.0497891 0.012782889 -0.05081768 -0.123762846 0.11622454 -0.08068789 0.05214534 0.11663638
0.0014648243 -0.12279155 -0.07334042 0.1705577 -0.14599729 0.0021656202 0.0021563538 -0.12276025
0.12405726 0.014181844 0.040940166 -0.032521207 -0.15867804 0.039258428 0.12613243 0.07266393
-0.064881295 -0.10589707 0.07357596 0.05930141 -0.1513372 -0.05666499 0.12532473 -0.013465693
0.07742714 -0.00304625 0.027736025 -0.06413333 -0.10160218 0.015117851 0.15984465 0.04901216
0.083686896 0.1528747 0.19784623 -0.0029848455 -0.042535778 0.09189198 0.11927327 -0.030904375

embedding_proj.bias f4 [96]
00000000: b788 39bb 15e4 1dba 6c7d a6b9 5e2a 503b
00000010: d3e5 56ba c2ae 513b ac8b cc39 ccdf 06bb
00000020: b71f c03b f843 49bb 34b8 20bb 330d 1d3a
00000030: 6955 293b e9a2 99ba ee68 83bb 4ae3 ba3a
00000040: 5de9 ecba c8c1 00ba dfba 41bb 4714 463b
00000050: c0ca 903b 2a83 12bb baa2 5ebb 45cc 32bb
00000060: f78a 1b3b 14c8 6d3a 8afc 85ba fd78 bdba
00000070: f52a e239 4098 0dbb 97a9 48bb e15b b43a
00000080: d830 9bb9 b4b5 ceba d7d4 993a 7b88 f638
00000090: d892 3abb ee90 f9ba 8b87 b2ba 4d0f 0bba
000000a0: bfe5 543b 0e45 173b 6f0e 423a 0df0 26b9
000000b0: ef90 1fbb fdfd 36ba 07b7 1bbb 15c4 77bb
000000c0: 518b c83a 535c 88ba 20e0 c5b9 2d53 a838
000000d0: 873d 493b 127f 683b 93ec 48b7 47fc 57ba
000000e0: 0f6a 95b9 ce7a 3a3b 958f 6aba c132 44bb
000000f0: 0a93 c6ba 50a7 dfba 8a11 1c3b 3262 623a
00000100: 2159 17bb 8124 043b 61bd d6ba f39b dcb9
00000110: 1fd1 e739 1152 acba d34d 843b 4475 b73a
00000120: 5b25 60ba ab1c d73a 548d 5039 f663 2e3b
00000130: f22d cd3a 5e90 ff3a 5120 a6ba 3b9b 03bb
00000140: 49ea 01ba 4c85 39b8 e48a 9fba b6f8 dd3a
00000150: 3793 8439 c998 2f3b afb3 8fb8 616f a93a
00000160: c902 393a 6daa 9cba 8845 11bb d42b f839
00000170: dd1a 2ebb f97b 2d3b e8fa ab39 1890 a8b9
-0.0028310248 -0.00060230616 -0.00031755434 0.0031763534 -0.00081976986 0.0031995033 0.00039013976 -0.002058017
0.0058631557 -0.0030710679 -0.0024523856 0.00059910415 0.0025838262 -0.0011721525 -0.0040103113 0.0014258411
-0.0018074919 -0.0004911688 -0.0029560847 0.0030224489 0.004418701 -0.0022356012 -0.0033971504 -0.0027282399
0.0023733953 0.00090706465 -0.0010222357 -0.0014455613 0.00043138085 -0.002160564 -0.0030618662 0.0013760292
-0.00029600295 -0.0015770704 0.0011736405 0.000117556156 -0.0028468873 -0.0019040385 -0.0013620717 -0.0005304709
0.0032485572 0.0023081931 0.00074026635 -0.0001592042 -0.0024347862 -0.0006980596 -0.0023760216 -0.0037806083
0.0015300309 -0.0010403491 -0.00037741754 8.026357e-05 0.003070684 0.003547613 -1.1976011e-05 -0.00082391914
-0.00028498514 0.0028454545 -0.0008947787 -0.0029937478 -0.0015150022 -0.0017063413 0.0023814165 0.0008635848
-0.0023093896 0.002016336 -0.0016383344 -0.0004207786 0.0004421556 -0.0013147016 0.0040375977 0.001399674
-0.0008550488 0.0016411742 0.00019889075 0.0026609874 0.0015653952 0.0019497981 -0.0012674426 -0.0020081538
-0.00049558707 -4.423158e-05 -0.001217213 0.0016935084 0.00025286686 0.0026793948 -6.85224e-05 0.001292687
0.0007057605 -0.0011952646 -0.0022166688 0.000473349 -0.0026566305 0.0026471599 0.000328026 -0.00032150815

categorical_proj.weight f4 [17, 17]
00000000: 5d96 d6be cb4e d63c 4358 ae3e bd5a babe
00000010: 3873 993e 79b1 043d 577d f2bd 2460 e4be
00000020: 8438 a23e 8bc6 9fbd c326 1bbe d682 b63e
00000030: 990e 3ebe dc78 3ebe 6d49 1c3d 0839 91bd
00000040: e873 123e 08a3 0ebf efc7 a33e 3b76 863d
00000050: 7ce8 5ebd 28a6 343d c064 a4be b942 1d3e
00000060: 9537 a5be 1869 333e 3e40 96bd 98c4 5dbf
00000070: ba82 453e b7f9 cabc ca50 9e3e d353 973e
00000080: 5361 f1bd 5a83 813e 4aa6 01bf becf a2be
00000090: 91d8 a3bd 6f3d 823e 80e3 ebbd 7ed2 b43d
000000a0: f574 d9bd 1da5 fabe 2caa 973e ba08 8cbd
000000b0: fbce fe3d 44d8 7cbe f3a4 193d ecb4 2abb
000000c0: e153 973e cf29 80bd e924 ba3d 20ec 80be
000000d0: ade6 a2be 7320 5e3e 21fe 0f3e 0e0d 9d3e
000000e0: 5b1b b4bc d9fe 3abe 8d40 efbe 6837 8d3d
000000f0: 485a 643e d109 dfbd f40b e1be 2796 c5be
00000100: f001 9a3e 8407 f8bc 02f8 65bd 2a5b c63e
00000110: c81f 9e3e e246 0b3d 3c26 cabe a9d3 e4bd
00000120: c8b6 d2bc 0789 a7bd 88b3 ecbd 2e9d 8d3d
00000130: deeb acbe 0ff2 953e df25 213f fb3c 513c
00000140: 3013 e5be b9cd 7b3e ceaa 99be 687a 0d3e
00000150: 2abf b6bc b41c 1abe 5a6c fbbd c983 48be
00000160: f190 f5bc db5c 43be e7aa a23e 43cf 16be
00000170: 7666 ad3e ee3f 88be a7da af3e 63b3 df3e
00000180: d4c0 81be 8526 09bf 553e d53e 75db aa3e
00000190: 4956 ddbd aafc 78be d505 f4bd 7e44 d7be
000001a0: 830f 343d 4f9f 03bf 2130 b0be 3009 d1bc
000001b0: 6c7d 923d f9d0 89be c5b4 c3be ed3b bbbe
000001c0: 4cd2 1cbf b0f7 e0be 9ae9 5a3e a7d0 9e3d
000001d0: 6142 c8be 4695 98be 3938 1d3d 1ce4 e43e
000001e0: ec65 a13e 6322 dd3c 7c02 d2bd 7a1c babe
000001f0: 4349 02be 4e34 893e 0dfd 193f 1c51 f03e
00000200: b55c f23d 2599 7b3e d42b e13d bc24 213e
00000210: 4f44 cb3e ff3c 46be ca52 bbbe ba7d bc3e
00000220: 0c8c c63e c499 ae3d 13c1 cd3d eb1e 723d
00000230: 5fbc a7be b038 c8be 7c3d 61bd d82c 6dbe
00000240: 4601 e43e ad48 f83d e5a6 bb3e ac38 693e
00000250: d0b0 59bd d466 c03e a994 543d 63ee bebe
00000260: 77e0 823e aa84 8dbd 5912 af3e 268d 833e
00000270: fe9d b9be 1ad0 a7bc d69a 6ebe a169 ffbd
00000280: 260d f83e 0fbb 1b3e ff46 b13e 1b3e c03e
00000290: 7a94 893e 5a51 143e 8eb7 b13e 1d84 a33e
000002a0: 94c2 d5be ad29 9f3e 185c a7bd 7f36 5fbe
000002b0: 34f5 e43e 327a 5f3e 35f5 a63e 339a f4be
000002c0: 3d06 c4bd cf75 073f eb0f d13e f9a9 6f3e
000002d0: 52d7 d53e 3e15 33be a3f2 9f3d b767 9d3e
000002e0: ad15 a7bd 07e7 53bd 909b 41be b0c3 f63b
000002f0: 68c3 b7be 56bd 2e3d 41ff 4f3e c47c 99be
00000300: 7fca 543e a209 1a3e c4bf 193f 6132 edbd
00000310: 5958 aabe d654 513f 92aa 1d3e 30fd 54be
00000320: 6cfb 3a3d 239a a1be 3800 bfbe f951 f93d
00000330: 307a c33e b56d 52be 3291 4b3c b215 99bd
00000340: f9d5 e0bc 1cd8 a9be 2821 493d bdd6 ec3e
00000350: fa5f bbbe 58a5 72be b69c 123f 58bf 88be
00000360: 7c68 923e 6858 04bd 67d2 5dbe a9a3 8fbe
00000370: 546f 783d 77d6 963e fc16 b5be 8295 32be
00000380: 4883 603e 4020 3fbe 4e87 953e 36a2 acbd
00000390: 3de7 fbbe 3a8a 8cbe a7c1 b93d 2a4a a1be
000003a0: 9cd8 8a3e 81a3 0d3f 329e 8c3e ff52 b0be
000003b0: 1c6b 3bbe ae4b 19be dfd1 87be 5e7f a4bd
000003c0: 2188 9b3e b618 5b3e 30c7 173e 9718 b73e
000003d0: f333 b2be b581 31be af85 203e 05cd debd
000003e0: 1c92 1dbf c12f 2d3e a7eb 94bd e831 053e
000003f0: 14e2 babe c1b8 71be 1c1b 1a3e f71a dd3e
-0.41911593 0.026160618 0.34051713 -0.36397353 0.29970717 0.032395814 -0.11840313 -0.446046
0.31683743 -0.07801541 -0.15151505 0.35646695 -0.18560256 -0.18600792 0.03815596 -0.07090956
0.14302027 -0.55717516 0.31988475 0.065655194 -0.054420933 0.04410377 -0.32108116 0.15357484
-0.32268968 0.17520559 -0.07336472 -0.86628103 0.1928815 -0.024777276 0.30921012 0.2955614
-0.11786141 0.25295526 -0.5064436 -0.3179912 -0.08000291 0.25437495 -0.115180016 0.08829211
-0.10618011 -0.48954096 0.29622018 -0.06837602 0.12441822 -0.24691874 0.037510823 -0.002604778
0.29556182 -0.06257974 0.09089071 -0.2518015 -0.31816617 0.21692066 0.14061786 0.30674022
-0.0219857 -0.18261279 -0.46728936 0.068953335 0.22300065 -0.10890544 -0.43954432 -0.3859112
0.30079603 -0.030277021 -0.05614472 0.38741428 0.30883622 0.034003146 -0.39482296 -0.111731835
-0.025721923 -0.08180433 -0.1155768 0.06914745 -0.33773702 0.2928624 0.6294841 0.0127708865
-0.447412 0.24590196 -0.30013126 0.13816226 -0.022307951 -0.15050012 -0.12276526 -0.19581522
-0.02997634 -0.1907839 0.31771013 -0.14727502 0.33867234 -0.26611274 0.34346506 0.4369155
-0.2534243 -0.535744 0.41649118 0.33370557 -0.10807473 -0.24315134 -0.11915175 -0.42044443
0.043960106 -0.5141496 -0.3441172 -0.025517076 0.071528286 -0.26917246 -0.38223854 -0.36569157
-0.6125839 -0.4393897 0.21378174 0.07754641 -0.39113143 -0.29801387 0.038383696 0.44705284
0.31523073 0.026993936 -0.1025438 -0.3634985 -0.1272326 0.26797718 0.6015175 0.46936882
0.11834089 0.24570139 0.10994688 0.1573667 0.39700553 -0.19359206 -0.365866 0.36814672
0.38778722 0.08525422 0.100465916 0.059111517 -0.32760903 -0.3910575 -0.054990277 -0.23161638
0.44532222 0.12123237 0.36650768 0.22775525 -0.053147137 0.37578452 0.051899586 -0.3729125
0.25561878 -0.06910069 0.34193686 0.25693625 -0.3625335 -0.020484973 -0.23301253 -0.12471319
0.4844753 0.15208076 0.34624478 0.37547383 0.2687109 0.14484158 0.34710354 0.31936732
-0.41750014 0.31086484 -0.08171862 -0.21798132 0.44718325 0.21823958 0.32608953 -0.47773895
-0.09571502 0.52914137 0.40832457 0.23404683 0.4176584 -0.17488572 0.07809951 0.3074319
-0.08158431 -0.051733997 -0.18906999 0.007530652 -0.3589127 0.042661034 0.20312215 -0.29978
0.20780371 0.15042737 0.60058236 -0.11581875 -0.3327053 0.81770074 0.15397099 -0.20799708
0.04564993 -0.3156291 -0.37304854 0.12173838 0.3817916 -0.20549662 0.012424754 -0.07474841
-0.02744578 -0.3317269 0.049103886 0.46257582 -0.36596662 -0.23695886 0.5727037 -0.26708484
0.2859534 -0.032310873 -0.21662293 -0.2805455 0.060653046 0.294605 -0.35369098 -0.17439845
0.2192508 -0.18664646 0.29204792 -0.08429377 -0.49199858 -0.27449208 0.090701394 -0.31501895
0.27118385 0.5532761 0.27464443 -0.3443832 -0.18302578 -0.14970276 -0.26527306 -0.08032106
0.30377296 0.21396145 0.14822078 0.35760948 -0.3480526 -0.17334636 0.15675996 -0.10878948
-0.6155107 0.16912748 -0.072715096 0.13007319 -0.3650061 -0.23605634 0.15049404 0.43184635

categorical_proj.bias f4 [17]
00000000: 9c1b a43a 07d6 f639 8f2e 67ba 84f1 92ba
00000010: baa0 d0bb 7261 ae3a 8d9f ee3a 0629 663b
00000020: b10c baba 2032 61ba bb1f 82bb 8864 76bb
00000030: ad42 a3bb f851 64bb 5ae2 213b 0e14 933a
00000040: c65a eebb
0.0012520435 0.0004708024 -0.00088188885 -0.0011210893 -0.0063668163 0.0013304187 0.0018205509 0.0035119667
-0.0014194456 -0.0008590538 -0.0039710677 -0.0037596542 -0.0049823136 -0.0034838896 0.0024701566 0.0011221187
-0.0072740046

combine_proj.weight f4 [128, 113]
00000000: 7759 fb3c 20d6 09be c334 86bd b43a ee3d
00000010: 874a 263d 0cca 31be e797 67bd f828 c53d
00000020: 900b adbd 642a 5abd f035 953d 51ee 723d
00000030: 10aa 863d 6c7e f63d c427 2dbd 5093 9b3d
00000040: c82e aebd 169f 733d ebcd b13d e9a9 8e3d
00000050: 69d6 cfbd 4c1b 7fbd 87d6 37be 812d 4c3c
00000060: fe0b 4bbe 5a21 a6bd 8ef3 3c3e 5b28 16be
00000070: 756a 1f3c 506e af3b 6cdc 283d ff00 273e
00000080: e41f a6bd e201 a83d 7086 94bd ad35 3b3d
00000090: 417d a4bd f2bb a1bd 9a72 dabd cec1 273e
000000a0: f559 70bd 1b75 f7bd 7e6e e9bd 3a9f 0fbd
000000b0: 8abc 153e 3ed0 d939 577c ba3d 0c6a f83d
000000c0: d38e 4c3d fa8b dcbb db47 193e 3f03 08be
000000d0: cec1 87bc 1bd7 cd3d 859c 43bd e9eb bcbb
000000e0: bd69 2d3d fe42 f33d a44c 2f3d 8af7 15be
000000f0: 004c 263e 3fcc b13c 2c9b babc 9c37 b4bd
00000100: 45e2 823d 21e7 c4bd 1c42 4dbd 9c0e d5bd
00000110: 1095 27be 04a0 783e 8f58 003e 1f7a ccbc
00000120: 8a68 85bd d66e 6e3d b559 2cbe 6a01 4abd
00000130: 0c05 203d 129b 2cbd b3ce 14be d663 80bd
00000140: e15f cdbd 7956 f1bd a583 4a3c bafb a73d
00000150: f92a bd3d 485d 673d 7e49 1bbe f685 23bd
00000160: d246 29bd 5b21 753d 575b 32bd d398 d3bd
00000170: a204 81bb 4f79 003e fe52 d9bd 6e5c 20bd
00000180: 6b77 47bd 09bf 02bd 5b1a da3d 137b 043e
00000190: fd54 2f3d f6f3 c03d 1437 a03d b08f 113d
000001a0: 4b8c e13d e20e 2b3d 975d 05be d812 a03d
000001b0: 5645 203e cb44 053d afa3 3abd 9fd4 413e
000001c0: a76f 963d 73a1 0cbe 16a9 99bd 476d 963d
000001d0: 32ed 8bbd d8bb ca3d 53ec 26bd 2bdb f6bc
000001e0: a8c4 9abd 3bba 0f3e 235f 233c e932 64bd
000001f0: a633 063d ca24 b3bc 7668 113d f81a e6bb
00000200: bfca f73c 7a01 b43d 53dd 24be 5884 093d
00000210: 3a04 353e 2efb 013e 421d 0bbe ef63 f3bc
00000220: ecd2 813d b31f 9dbd 1f42 c3bd 7179 f9bd
00000230: d625 abbd 7a27 f4bd 1d2a 80bd ba2b 67bd
00000240: 2bbc 21bd 36ad 8b3d ca0a aa3d ac99 2abd
00000250: 31b2 e9bd 2a0a 8f3d f32d 1cbe e477 543d
00000260: 1892 963d 83e4 70bb 1483 8d3c ee62 d23d
00000270: 6dd3 0a3c 69b2 b73c 1f53 abbd 4909 f8bd
00000280: c322 4bbd 2b6f 583e 39a1 7fbd 8e0f 41bd
00000290: cf36 13be a8bd 13bd 1504 c9bc d419 abbc
000002a0: 4559 debd ff0b babd 2024 783b 215b 78bd
000002b0: 0557 90bd 2f3f fe3b f1a6 953d e5c6 e33d
000002c0: 748d 9ebd f28b 5c3d 01a6 10bd b6bb 153e
000002d0: a0fb 27bd 53e6 203d c4c4 9b3d 94dc c63d
000002e0: 0c1f 8bbb 9441 143e 4cce 9abd 1bf5 b2bd
000002f0: d774 19be cde2 dd3d c8d9 66bd db26 58be
00000300: b44d 8d3d cac9 30bd d6c0 033e aa82 dcbd
00000310: 027a cf3d d175 ec3d 34be b2bd 5b4a 8dbc
00000320: b103 863c 2afb 2dbe 8473 693d 0440 9e3d
00000330: 377f 30bd 6e5a b7bd ffc0 223d 4610 66bd
00000340: a3cb 033e 4221 743d 5ef0 b7bd 7a62 453d
00000350: c8c2 0cbe 23c7 553e 5949 293e 96f0 3d3b
00000360: c8f3 51bd 96dc 0ebe 94f8 babd e684 ebbd
00000370: 8f5f 763e ba86 ee3c 647b d23c f557 eabc
00000380: 0f21 b7bd 036b 7b3d 5494 84bd 494a 0f3e
00000390: 92f4 c2bc 0fe4 fc3c 3781 d3bd 5470 f0bc
000003a0: 4a3f 1abd 2476 9b3d 88d5 da3d bb12 d7bd
000003b0: 35fb a53c 46e8 06bd d631 2bbe 0cc5 84bc
000003c0: 5885 893d 42f2 0abe c04b c5bb 36e0 833d
000003d0: 677d 76bd 42ce 5cbd 95e7 d6bc 510a e13d
000003e0: 38da 19be 4771 a9bd 901d b6bb e02e 9bbd
000003f0: 3ce7 9d3d 869a 4e3e 5237 823b 6bd2 a6bd
0.030682309 -0.13460588 -0.06553032 0.116322905 0.04059842 -0.17362231 -0.05654135 0.09626955
-0.08449471 -0.053263083 0.072856784 0.059309307 0.065754056 0.12035832 -0.04227425 0.07596457
-0.085050166 0.059477888 0.08681854 0.069660015 -0.10148317 -0.06228189 -0.1795293 0.012462021
-0.19828793 -0.0811183 0.18452284 -0.14663832 0.009729971 0.0053537264 0.041225836 0.16308974
-0.081115514 0.08203484 -0.072522044 0.045705486 -0.08031703 -0.07897176 -0.1066639 0.16382524
-0.05867954 -0.12082883 -0.11398028 -0.03506396 0.14622703 0.00041544618 0.09105747 0.12129602
0.049940895 -0.0067305537 0.14968817 -0.13282488 -0.016571905 0.10050794 -0.04775669 -0.0057654274
0.042337168 0.11878012 0.0427977 -0.1464521 0.16239929 0.021703837 -0.02277907 -0.08799669
0.06390814 -0.09614397 -0.050111875 -0.10403177 -0.16365457 0.24279791 0.12533782 -0.024960576
-0.0651408 0.05821117 -0.16831096 -0.049317755 0.039067313 -0.042140074 -0.14531974 -0.06269042
-0.10028053 -0.117840715 0.012360488 0.0820231 0.09236712 0.056485444 -0.15164754 -0.039922677
-0.041327305 0.059846263 -0.04354414 -0.10331883 -0.00393732 0.12546276 -0.10611533 -0.039150648
-0.04869787 -0.031920467 0.10649558 0.12937574 0.04280566 0.09421532 0.07823005 0.03553742
0.11013087 0.04176224 -0.13023983 0.07816094 0.1565145 0.03253631 -0.045566257 0.18928765
0.07345515 -0.13733463 -0.07502954 0.07345062 -0.06832351 0.098991096 -0.04075272 -0.030133804
-0.075570405 0.14035885 0.009971413 -0.055712614 0.0327641 -0.021868128 0.035500012 -0.007022258
0.030248044 0.08789344 -0.16100053 0.03357348 0.17677394 0.12693474 -0.1358538 -0.029710738
0.06339058 -0.07672062 -0.09534096 -0.12181366 -0.08356826 -0.11921592 -0.062580325 -0.056438185
-0.03948609 0.06820147 0.08302839 -0.04165046 -0.114109404 0.069843605 -0.15251903 0.05187215
0.07352084 -0.0036757297 0.017274417 0.102727756 0.008473259 0.02242394 -0.083654635 -0.12111146
-0.0495937 0.21136157 -0.062409613 -0.047133975 -0.14376377 -0.036069542 -0.02453808 -0.02088634
-0.108568706 -0.09084319 0.003786333 -0.060633782 -0.07047848 0.007758997 0.07307232 0.111219205
-0.07741824 0.0538444 -0.035314564 0.14622387 -0.041011453 0.039282154 0.076058894 0.09710041
-0.0042456444 0.14478141 -0.07558879 -0.087381564 -0.14985977 0.108342744 -0.056360036 -0.21108572
0.06899586 -0.04316119 0.1286653 -0.1076711 0.10130693 0.11545909 -0.087276846 -0.01724737
0.016359182 -0.16990343 0.05699493 0.07727054 -0.04309007 -0.08952795 0.039734837 -0.056167863
0.1287065 0.05960203 -0.08981393 0.048189618 -0.13746178 0.20876746 0.16531886 0.0028982512
-0.05125788 -0.13951334 -0.09129444 -0.11499958 0.2405989 0.029116977 0.025693603 -0.028606394
-0.08941852 0.06138135 -0.06473604 0.13993181 -0.02379826 0.030870466 -0.1032738 -0.029350437
-0.037658013 0.07590893 0.10685259 -0.105016194 0.020261386 -0.032936357 -0.1671823 -0.01620724
0.067148864 -0.13568977 -0.006020993 0.06439249 -0.060178187 -0.05390764 -0.026233474 0.10988296
-0.1502465 -0.08273559 -0.0055577233 -0.075773 0.0771012 0.20176134 0.00397388 -0.08145603

combine_proj.bias f4 [128]
00000000: 9f09 303b 3d55 daba 889c 00bb 3914 833a
00000010: 6ce4 beba 783f 63ba ae4a ecba 2a35 3d38
00000020: a250 3dba 22eb deba 62df e93a 2cb7 063a
00000030: 85b5 6939 c513 9c3a 2a5e 2f3a 7723 03b9
00000040: 5d28 193b 2e5c e3ba ba4b 7aba e2b7 033b
00000050: a45a b9ba 896e 163a d95b 283a 9fca 1b3b
00000060: d514 8fba 9318 2ebb 4749 1d3a 7479 8eba
00000070: 7e3a 1439 7a1c a8b9 2d3f d13a e1c7 3c3a
00000080: 4da1 53ba 89d9 a7b9 5540 0338 2213 afba
00000090: a7f0 3cbb 2273 4cb9 bffc ccba 8573 71b9
000000a0: 0e4e 6cbb 72a6 91ba a4fe 96b8 bc2a de3a
000000b0: b7ca 89b9 a2df 463a 0852 76b9 9ed8 403b
000000c0: 2c3b 1e39 08a5 d8ba 1e16 0039 2990 67ba
000000d0: bfcd b83a b8ee 623a 58a9 163a a989 a4ba
000000e0: b020 80ba e64b a1ba 802a dcba 66a9 00bb
000000f0: 14a4 11ba 6a04 9dba 6d91 8436 92fe d039
00000100: 1ba2 9639 d173 e6ba 62f0 32bb d604 7eb9
00000110: 705e 5f39 3496 0abb 940d 8eba 311e a8ba
00000120: ba81 73b9 6b9a 003b 083a 9dba c3ab 243a
00000130: 2013 c4ba 13ca a23a 7539 333a cfd1 b6ba
00000140: 69da 02ba d1c8 d3b9 c58b e0b9 28b5 353a
00000150: df10 ed39 d104 c53a 2a1a bb3a b989 933a
00000160: e692 19ba 924f 67b7 e8b7 adb8 a9a4 2c3a
00000170: f381 9aba 298f a4ba 76da 043b ea99 da3a
00000180: 75cd adba 95ae 2338 b78f b9ba 3b0a cf3a
00000190: 21de 57ba 3bd0 bb39 e4a5 9c39 739c 8fba
000001a0: 51c7 f6b8 f575 8338 de16 04ba e6e6 19b8
000001b0: 7f2a d339 721c 6c3a 9093 823a 023e 8eba
000001c0: d47d cbba 5c68 0abb fbff b9ba b740 853a
000001d0: 9c2c 7b39 53af 4138 375b db39 68fe 9cb9
000001e0: 8304 01ba 82cc 3fba 9e3b cdba 8406 21ba
000001f0: eb50 aa3a b6f8 0fba d549 33ba 745f 053a
0.0026861203 -0.0016657483 -0.001962455 0.0010000534 -0.0014563925 -0.00086688204 -0.0018027627 4.5110624e-05
-0.0007221793 -0.0017007331 0.0017843063 0.0005138989 0.00022288233 0.0011907747 0.0006689752 -0.00012506345
0.0023370006 -0.0017346197 -0.00095480273 0.0020098616 -0.0014141393 0.0005738517 0.0006422378 0.0023771895
-0.0010916243 -0.002656494 0.0005999994 -0.0010869936 0.0001413617 -0.00032064674 0.0015964262 0.0007201415
-0.0008073047 -0.00032014798 3.1292748e-05 -0.0013357142 -0.0028829963 -0.00019497846 -0.0015639289 -0.00023026585
-0.0036057266 -0.0011112227 -7.199988e-05 0.0016949992 -0.0002628171 0.00075864245 -0.00023490947 0.002942599
0.00015090097 -0.0016528675 0.0001221527 -0.0008833432 0.0014099403 0.00086567877 0.000574728 -0.0012553233
-0.0009775367 -0.0012305945 -0.0016797334 -0.001963222 -0.00055557606 -0.0011979465 3.9508363e-06 0.0003986252
0.00028731007 -0.0017582123 -0.0027303924 -0.00024225129 0.00021302118 -0.0021146657 -0.0010837787 -0.001282638
-0.00023222613 0.001962329 -0.0011995444 0.0006281698 -0.0014959313 0.0012419842 0.000683687 -0.0013948026
-0.0004991652 -0.00040394676 -0.00042828746 0.00069315964 0.00045216733 0.0015031343 0.0014274765 0.0011256255
-0.00058583764 -1.3787199e-05 -8.283538e-05 0.00065858156 -0.0011787995 -0.0012554872 0.0020271814 0.001667795
-0.0013260084 3.902482e-05 -0.001415721 0.0015795896 -0.0008234699 0.00035822563 0.00029878237 -0.001095666
-0.0001176732 6.268538e-05 -0.0005038808 -3.6693084e-05 0.00040276718 0.0009006924 0.000996219 -0.001085222
-0.0015525171 -0.0021119332 -0.0014190668 0.0010166381 0.00023953844 4.617807e-05 0.00041838895 -0.00029944186
-0.0004921632 -0.0007316546 -0.0015658026 -0.00061426335 0.0012994086 -0.0005492078 -0.000683931 0.0005087771

fc1.weight f4 [128, 128]
00000000: 1e61 df3c 644c a6bd 8d53 d9bd e5b8 903c
00000010: 6dc3 5dbd b699 103d 02cb e0bd 6f49 a23d
00000020: df52 f23d ca2d 07bd e8e6 e63d 9e96 37bd
00000030: 4b9d 20be 51c2 51be 6b99 893b 4b80 3ebd
00000040: 9e43 19be 57b1 593d a965 24be e9bb 983d
00000050: 98f8 cebd 1ec9 543d 3ea0 f2bc 95ed 0dbe
00000060: ee14 46bd 6444 253e 960c 613d 219f b2bd
00000070: f119 bd3d e115 75bd a0d9 61be 1276 2d3e
00000080: 4966 aebd b86d 283d f37f b93d 96bf f7bc
00000090: 4fb3 93bc 39bc ebbd cb63 1f3c 992c 0fbd
000000a0: 25e2 c3ba afd9 233d 1259 15bd ba5d ccbd
000000b0: b88c 853d eb99 a33d a613 93bd f544 08be
000000c0: f89e 903d df12 76bc 9134 ab3d deb7 413e
000000d0: 5b7f ebbd 597a 023e 1df6 f73d 6eb3 c1bd
000000e0: 5503 87bd 7822 a23c 25ca e0bd 3430 b6bc
000000f0: d9b9 1ebe fc9f da3d e936 9abd 21ad bdbd
00000100: e8a6 1b3e 9bc0 38be 07ae abbd 9ca7 403e
00000110: ceaa 123e 8148 31be 5667 53bd 6972 c53d
00000120: fa19 013e 71f6 2bbd a18b b6bc 44d9 09bc
00000130: 5565 0d3e 3546 b73d 5efe e83d d98c a83a
00000140: 7440 da3c 0757 093d 11d8 a6bc 693a fa3d
00000150: d8fe 113d 7d8a 54be 225b d0bd e2cf 07be
00000160: 9484 aebd 07bc 12bd 914c 133d 8aed babd
00000170: dabc 0c3c 2a95 40bc 4812 403e cfc1 673d
00000180: d374 4a3e 1926 52bd 5c1e b03c 61f1 00be
00000190: f983 333e 3474 fdbd 7e8b 253d 6fff 06bd
000001a0: 8c45 c0bd f53f 3a3c 042d b93d 5489 a43c
000001b0: 7dfe 463d 81e1 123e dde3 c6bd 895f 5abe
000001c0: f2de 63be 1309 a13d 565e c63d 152f 8c3d
000001d0: cd20 d13d c366 ce3c 2736 a0bd 7b17 8c3d
000001e0: 15ca 4cbd e8f2 8ebd a93b acbd 0e95 9dbd
000001f0: dc8c 423d 05d2 39be 96d4 733d 3244 80bb
00000200: e79a bcbd 7756 cc3d 51db b1bd b489 5c3c
00000210: c6cd edbd 1b40 dbbd 7580 07be 2b7e 2a3e
00000220: 6592 6e3e e0eb 653e 420a 12bd 6b8e 87bd
00000230: 982b 4b3d 1927 5cbd 41fd f5bd 1b8b dbbd
00000240: 3a08 1dbe d74e 073b fb8f b8bd 1686 91ba
00000250: 113e 04be a4d1 c43d c29c e0bc 5e6b 5cbe
00000260: 10a3 243e c7e6 45bd 1ae9 8ebb 4cfa d9bd
00000270: 7ded 373e 6f28 933d 4990 8fbd c670 b23c
00000280: ab01 af3d 26b8 cd3c f343 8bbd 3156 23be
00000290: 0f5c 913d c6c0 54be 774e 8a3d d1aa c8bd
000002a0: c59a 94bd 953a 213d ab62 5cbd 5f3e 1dbc
000002b0: 9215 443d 4a14 0f3e 115b 06be 3ebd d73d
000002c0: ebb2 9abd f40a ee3c b13d 023c 183b 823d
000002d0: 81c7 febd 3c19 783d fb40 263e 8282 4d3d
000002e0: 2433 2cbd abdb 6dbd 64a8 98bd 9332 003e
000002f0: 0dad 283d 6336 7d3d 64e4 03be 68d8 083d
00000300: 7fbe 8cbc bd59 e43d a1df 95bc ed99 313e
00000310: 4c3e e13d 7256 0cbe 66fd 84bd 4d4a 1b3e
00000320: 3e5e 6c3c ca13 58bd 7e8d 9f3b a82d 90bd
00000330: ba97 ae3d 6252 133e 1531 f23d e76a 88bd
00000340: 8edf 253e 47c4 1c3c 0410 3d3d 0c30 5e3d
00000350: d482 94bd da7f 17be 6ac0 dcbd ffd5 fbbd
00000360: a9be c8ba 9d83 013c 0cbc 98bd 3f93 0dbd
00000370: 255b 573d e488 d53d a622 b33d 158c fa3d
00000380: 452d 2c3e 35e2 d23c dad9 ea3d 1c37 71bb
00000390: db32 3a3e d1f4 393d 2963 033e 203c 463d
000003a0: 8d8c 97bd ac80 3ebe c044 683d 52fc e53d
000003b0: 39bb 12be 3155 0f3e 328a 913d 7395 23be
000003c0: bf45 c7bd 7b3b 00be f9b2 f43d dfc7 24be
000003d0: d224 c13d cd94 f03d 1f4a dfbd 47b2 ad3d
000003e0: 29b1 893d 203c 2cbe 0e9c 3ebd 88c8 b3bc
000003f0: bddc e33d 3d7f 78bc 636d 91bd 39fd e9bc
0.027267989 -0.08120039 -0.10611639 0.01766629 -0.05414145 0.03530284 -0.10976221 0.079241626
0.11832213 -0.033002652 0.112745106 -0.044821374 -0.15685003 -0.20484282 0.004199197 -0.04650907
-0.149672 0.05314764 -0.16054405 0.07457716 -0.10106009 0.051949613 -0.029617425 -0.13860162
-0.048359804 0.1613937 0.054943644 -0.08721758 0.092334636 -0.05983532 -0.22055674 0.16939571
-0.08515603 0.04112026 0.090576075 -0.030242722 -0.018029837 -0.1151051 0.009728382 -0.03495464
-0.0014944716 0.04000252 -0.036461897 -0.099788144 0.065209806 0.07988342 -0.07181482 -0.13307555
0.07061571 -0.015019148 0.083596356 0.18917796 -0.114989005 0.12741984 0.12107489 -0.094580516
-0.065924324 0.019791827 -0.10976056 -0.022239782 -0.15500583 0.10675046 -0.075300045 -0.09261537
0.15200388 -0.18042223 -0.083828025 0.18813938 0.1432297 -0.17312814 -0.05161222 0.09640963
0.12607566 -0.04198307 -0.022283377 -0.008413617 0.13808186 0.08948938 0.11376642 0.0012859359
0.026642062 0.03353026 -0.0203667 0.12218172 0.03564343 -0.20755954 -0.10173632 -0.13262895
-0.08521381 -0.035823848 0.03596169 -0.09127338 0.008589948 -0.0117543135 0.18756974 0.056581315
0.19771127 -0.051305864 0.021498851 -0.12592079 0.17530812 -0.123756796 0.040416233 -0.032958444
-0.09388265 0.011367788 0.09041789 0.020085014 0.048582543 0.14343835 -0.0971143 -0.21325506
-0.22253016 0.07863059 0.09685962 0.06844918 0.102113344 0.025195485 -0.07822829 0.06840416
-0.049997408 -0.069799244 -0.08409817 -0.076944456 0.047497615 -0.18146522 0.05952891 -0.0039143795
-0.09209233 0.09977429 -0.086844094 0.013460565 -0.11611514 -0.107055865 -0.13232596 0.16649692
0.23298033 0.2245326 -0.035654314 -0.06618961 0.04960212 -0.053748224 -0.12011195 -0.10719892
-0.1533517 0.0020646357 -0.09011837 -0.0011102583 -0.12914301 0.09610298 -0.027418498 -0.21525332
0.16077828 -0.04831579 -0.004361284 -0.106434435 0.17961688 0.071854465 -0.07009942 0.02178229
0.0854524 0.025112223 -0.0680007 -0.15950848 0.07097637 -0.20776662 0.06753247 -0.09798206
-0.072560824 0.03936251 -0.053805035 -0.00959739 0.047872134 0.13972583 -0.13120677 0.10534142
-0.07553657 0.029057957 0.007949279 0.063589275 -0.12440396 0.06057094 0.16235726 0.05017329
-0.04204096 -0.05807082 -0.07453993 0.12519293 0.04118066 0.061819445 -0.12880093 0.033409506
-0.01718068 0.11149929 -0.018295111 0.17343874 0.1099821 -0.13704851 -0.064936444 0.15165062
0.014426766 -0.052753247 0.004869162 -0.07039958 0.08525033 0.14386895 0.11825768 -0.06661015
0.1619856 0.009568281 0.04615785 0.05424504 -0.07251516 -0.14794865 -0.107788876 -0.12296676
-0.001531561 0.007904914 -0.07457742 -0.034564253 0.052577157 0.104265004 0.08746843 0.1223375
0.16814144 0.02574263 0.11467333 -0.003680653 0.18183462 0.04539949 0.12830795 0.048397183
-0.07399855 -0.18603772 0.05670619 0.11229767 -0.14329232 0.13997342 0.07106437 -0.15974979
-0.097301 -0.1252269 0.11948199 -0.1609187 0.09430851 0.117471315 -0.10902809 0.08481269
0.06723244 -0.16819811 -0.046535544 -0.021946207 0.11126087 -0.015167055 -0.07100942 -0.028563129

fc1.bias f4 [128]
00000000: f463 2638 4015 98ba d9e7 6c3a aeae 0fba
00000010: 7a8e 173a 2ef5 2f3a 9c86 b33a 565f 793a
00000020: 5e4f e039 8f69 a8ba d2bd fab9 ee17 fbb8
00000030: e468 a3b9 d30e 64ba 8589 b53a a77e f0b9
00000040: 3f8c 4b3a 6e29 33ba 2293 cbb8 05e9 0539
00000050: 13fa 053a b136 713a f460 5a3b 5169 813a
00000060: 0243 28ba 0a48 47ba bb82 0e3b a21f 09ba
00000070: 266b fd39 4111 4c3a c04a 013a 9cfd 0d3a
00000080: 5eef b73a 655b 26b9 711c fc3a 3232 9438
00000090: 4fe6 35ba ef6d 253a 3a89 653a 7b32 c7b9
000000a0: b5f3 ae3a ea84 89ba 5218 293a dd9b 5039
000000b0: 86af 223a 4bcf 893a ee82 f839 0d2f d0b9
000000c0: b60e f0b9 15d8 8e39 2371 82ba c8a0 853a
000000d0: 6974 a938 cb12 45b9 0b40 243a 6874 a2ba
000000e0: 24ed b1ba 729b 62b9 7063 02b9 5327 a839
000000f0: 06ec 793a 535b 253a 24c0 16ba 2df4 c2ba
00000100: b3a1 29b9 ee43 6fba 105c 5dba 24d6 fe39
00000110: 989a 1d39 f6be 5e3a 5194 b7ba 0eb8 e3ba
00000120: 04ed e539 41e0 0fba 0e7a 0fba 37a1 33b8
00000130: 9502 933a 5ae2 0eba 831d 3eb8 4677 fd39
00000140: 565c 05ba 70fe 363a 37eb 96ba 8299 ff38
00000150: 9ef0 7738 931a 84b8 bfa3 823a 1ccb bb39
00000160: d291 01ba 38b5 e1b9 1c52 9b3a 60f1 19ba
00000170: 1353 c1b9 3536 6639 6aed a53a 8505 ee39
00000180: 29ed 013a e147 a638 ddd0 38ba 2972 72ba
00000190: 1df8 9eba 5b63 153a 5035 29ba ac9f 88ba
000001a0: 56f3 12b9 8847 403a 6d78 e9ba 3e95 d1b8
000001b0: 4d4e cf39 7e85 023b 2d89 c239 2e78 79ba
000001c0: 4186 83ba 5029 9a3a 6c21 17b9 32c8 a7b9
000001d0: c190 3f3a 8896 2739 7ae2 73ba 9c41 dbb9
000001e0: 14d9 a43a 42fa 2ab9 5e05 8639 128c 26ba
000001f0: 780a 3dba 7174 0739 4f7c 1a3a 5995 ddba
3.9670573e-05 -0.0011603013 0.00090372335 -0.00054810464 0.00057814235 0.0006712255 0.0013696733 0.00095128024
0.00042783743 -0.0012848842 -0.00047825143 -0.0001197307 -0.00031167932 -0.0008699719 0.0013850188 -0.0004587073
0.0007764734 -0.00068344816 -9.7072e-05 0.00012770675 0.00051108113 0.000920157 0.0033321949 0.0009873306
-0.00064186763 -0.0007601982 0.0021745402 -0.0005230849 0.00048335752 0.00077845535 0.0004932098 0.0005416514
0.0014033129 -0.00015865041 0.001923455 7.0665395e-05 -0.00069389207 0.0006310632 0.0008756105 -0.0003799385
0.0013347777 -0.0010491882 0.00064504624 0.0001989449 0.00062059646 0.0010514049 0.00047399796 -0.00039707907
-0.00045787328 0.00027245344 -0.000995193 0.0010195011 8.080231e-05 -0.00018794385 0.00062656467 -0.0012394311
-0.0013574702 -0.00021610947 -0.0001243481 0.00032072756 0.00095337664 0.0006307859 -0.0005750677 -0.0014873795
-0.00016177334 -0.0009127249 -0.00084441993 0.00048606202 0.00015030277 0.00084970833 -0.0014005994 -0.0017373578
0.00043854874 -0.00054884335 -0.00054732047 -4.282707e-05 0.001121598 -0.0005450599 -4.5327015e-05 0.00048344786
-0.00050873065 0.0006980663 -0.0011514191 0.000121879406 5.911348e-05 -6.2992e-05 0.0009967013 0.00035818748
-0.00049426884 -0.00043050363 0.0011850032 -0.00058724545 -0.00036873724 0.00021954703 0.0012659256 0.0004539901
0.0004956299 7.928885e-05 -0.0007050166 -0.00092485786 -0.0012128387 0.0005698704 -0.00064547826 -0.0010423562
-0.00014014295 0.0007334878 -0.0017812379 -9.993695e-05 0.00039540455 0.0019915993 0.00037104767 -0.00095165044
-0.0010034518 0.001176158 -0.00014412933 -0.0003200188 0.0007307642 0.00015982438 -0.0009303462 -0.00041819818
0.0012576901 -0.00016305692 0.0002556247 -0.00063532696 -0.0007211338 0.00012917981 0.0005893157 -0.0016905471

bn1.weight f4 [128]
00000000: cd9a 793f 6732 823f 06a5 7c3f 5ea9 6b3f
00000010: a771 793f 83c5 763f 5b15 713f 6b6f 893f
00000020: 9888 723f 7f63 703f b041 7b3f aea5 803f
00000030: bef4 6e3f 346d 763f d721 7c3f 5f5b 533f
00000040: db66 783f d397 5d3f b9ce 6d3f 1078 733f
00000050: 5719 a03f 6476 793f 2184 803f 805c 5a3f
00000060: 1519 6b3f f08c 6b3f ee12 723f d61b 723f
00000070: b4a5 7b3f 31be 703f c538 773f 49bb 743f
00000080: 90ec 783f ba15 853f 26ed 7d3f af8f 6b3f
00000090: b1a8 783f f73e 7c3f b786 783f 5afb 7c3f
000000a0: a7d7 8b3f 910d 633f 7604 733f bb00 7f3f
000000b0: 545d 713f a5e1 763f 8134 753f 2d75 843f
000000c0: f72c 6f3f 412a 6e3f 349f 903f fa5e 553f
000000d0: a56c 823f 7226 7f3f aa3a 753f d662 803f
000000e0: 503b 683f a06f 783f bc49 943f 0253 6a3f
000000f0: 3ddf 773f 98e7 743f a603 7a3f fbd5 5d3f
00000100: da8e 7e3f 65c1 8e3f 319e 7f3f 9c07 833f
00000110: e7fa 783f 09ab 5c3f 4957 653f ba63 6d3f
00000120: a8d2 7d3f 63b4 973f 19be 663f 440b 723f
00000130: 93aa 693f ed1c 843f 8373 663f d7c6 813f
00000140: 3c32 7e3f 5848 7b3f 8234 8d3f 01dd 6a3f
00000150: 2a5b 7c3f 442d 6d3f 52b6 793f 5712 6e3f
00000160: 2ead 793f 3478 753f ee6f 703f acb3 873f
00000170: 7b83 7b3f b4eb 803f fd37 803f 4f89 6b3f
00000180: 0725 6c3f de1e 6f3f 78df 743f 588e 833f
00000190: a774 743f 3f8a 703f 3dba 703f fc8f 753f
000001a0: 8b81 713f def2 7a3f 0a6b 723f 47b5 713f
000001b0: 2e2c 7b3f b6e1 883f 6ba5 773f 68b4 823f
000001c0: 8cce 363f 4540 7e3f 98ec 7f3f bfa1 6f3f
000001d0: d33c 6e3f 411b 713f 03d2 813f 90f4 743f
000001e0: 9fc6 663f 3f18 683f f95f 743f f479 823f
000001f0: be42 8f3f 26e2 5f3f 4ad6 673f bf67 7b3f
0.9750183 1.0171632 0.98689306 0.9205531 0.97439045 0.9639513 0.9417321 1.0737127
0.94739676 0.9390182 0.98147106 1.0050561 0.93342197 0.9626038 0.98489136 0.82561296
0.97031945 0.8655979 0.9289356 0.95105076 1.2507733 0.97446275 1.0040323 0.85297394
0.9183515 0.9201193 0.94560134 0.94573724 0.9829972 0.9404021 0.96571 0.95598274
0.97235966 1.0397255 0.99189985 0.9201612 0.971324 0.98533577 0.9708056 0.9882103
1.0925187 0.88692576 0.9492868 0.9961049 0.9428303 0.96438056 0.9578324 1.0348259
0.93427986 0.93033224 1.1298585 0.8334805 1.0189406 0.9966804 0.9579264 1.0030162
0.90715504 0.97045326 1.1585002 0.9153291 0.9682501 0.95665884 0.9766182 0.86654633
0.99436724 1.1152769 0.99850756 1.0236697 0.97257847 0.8619848 0.8958631 0.92730296
0.9914956 1.1851925 0.90133816 0.9454844 0.912759 1.0321327 0.90020007 1.0138806
0.992954 0.9815726 1.1031649 0.91743475 0.98576605 0.92647195 0.97543824 0.92996734
0.97529876 0.9588654 0.9392079 1.0601707 0.982475 1.0071931 1.0017086 0.9200639
0.92244 0.93406475 0.95653486 1.0277815 0.954905 0.93960947 0.9403418 0.9592283
0.9433829 0.98026836 0.9469458 0.9441723 0.9811429 1.0693882 0.9673678 1.0211306
0.71408916 0.9931682 0.9997039 0.9360618 0.9306156 0.9418221 1.0142215 0.9568567
0.9014682 0.90661997 0.9545894 1.0193467 1.1192243 0.8745445 0.90561354 0.9820518

bn1.bias f4 [128]
00000000: 3aa8 a5be eb91 a9be a86b afbe 6a0b 9dbe
00000010: 8576 84be dd22 91be 0e8f a0be 7cdc 93bc
00000020: e107 9fbe 3abe afbe 7256 8bbe b732 c2be
00000030: c51e c7be 7559 9fbe c54e a2be 60cc 96be
00000040: a075 aabe f940 a4be 3036 8abe aa1c b4be
00000050: 96b9 983c 0ee0 97be 87fa 71be b9e4 87be
00000060: d9ac abbe c9dd 89be 8ce6 94be 2da5 95be
00000070: 7a71 7dbe 832a 86be 4765 88be ea55 44be
00000080: c344 ccbe 0f67 4bbb 408c 68be afbc 95be
00000090: a00c 8abe f98c bbbe f6be c6be 0b83 92be
000000a0: 4d48 fdbc 7d3e d0be 5e7c b4be 37ef b8be
000000b0: 0212 bebe 974d 95be 308a bebe 3575 85be
000000c0: 4c86 b4be a0f6 57be 8513 04bd cc36 abbe
000000d0: 7371 7ebe 45c2 8ebe 6ced b9be 931e cdbe
000000e0: 9bc6 a5be 4b87 8dbe 5bf3 923c 9d62 9bbe
000000f0: 414a bbbe dc2d b7be 00a5 9abe d191 afbe
00000100: 18c3 96be c4b8 b1bd a0f3 98be f93d c4be
00000110: 0149 54be 2ac8 3fbe 0c03 b3be aeff 9cbe
00000120: 87e5 6fbe 6fbf 5c3c eafa 5bbe 18d9 87be
00000130: 0e11 8bbe 9d61 c7bd bcce 94be 3f47 bfbe
00000140: 7979 a5be 1350 84be 82b2 613c fb15 72be
00000150: 9b57 78be 7e17 81be 72c5 91be 24dd bbbe
00000160: 19cd bcbe 3cb3 a4be 1c87 aebe 60a4 88be
00000170: da43 9cbe a8b6 85be d240 a0be 6bc2 86be
00000180: 4e78 b0be e567 84be 1cb3 7fbe 58f8 93be
00000190: 5c8b b0be 3324 81be 3592 cdbe 8f74 84be
000001a0: a81a 41be f5a1 70be d6bd 67be 4c32 b6be
000001b0: 391f a5be dc7c 2abb 8c13 c6be 22b7 9ebe
000001c0: 5c70 8cbe a96c 7cbe 6abf 7abe 4784 9abe
000001d0: eadf 8fbe 9961 aebe 8b17 28be 40fd 81be
000001e0: e877 acbe f87e 97be e9c9 a8be e7a7 76be
000001f0: 6ac4 c0bc 7f7e 87be 40c5 73be 8bae a2be
-0.3235491 -0.3311914 -0.34261823 -0.3067277 -0.25871673 -0.2834691 -0.31359142 -0.018049471
-0.310607 -0.3432482 -0.2721439 -0.37929317 -0.38890663 -0.31122938 -0.3170072 -0.294528
-0.33292866 -0.3208082 -0.26994467 -0.3517812 0.018643182 -0.29663128 -0.23630725 -0.2654169
-0.3353031 -0.2692702 -0.29082143 -0.29227582 -0.24750319 -0.2620431 -0.26639768 -0.19173399
-0.3989621 -0.003103677 -0.22709751 -0.29245517 -0.26962757 -0.3663099 -0.38817567 -0.28615603
-0.030918265 -0.40672675 -0.35251135 -0.36120006 -0.37123114 -0.2916076 -0.37214804 -0.26065984
-0.3525871 -0.21090174 -0.032245178 -0.33440244 -0.24847965 -0.2788259 -0.3631395 -0.4006239
-0.32378086 -0.27642283 0.017938307 -0.30348673 -0.3658009 -0.35777175 -0.3020401 -0.34290937
-0.2944572 -0.08677819 -0.2987337 -0.3832853 -0.20730974 -0.187287 -0.34963262 -0.30663818
-0.23427401 0.013473376 -0.21482435 -0.26532817 -0.2716145 -0.09735415 -0.29063976 -0.37359044
-0.3231924 -0.25842342 0.01377547 -0.23641197 -0.24252169 -0.25213236 -0.2847095 -0.36692154
-0.36875227 -0.32167995 -0.34087455 -0.26687908 -0.30520517 -0.26115918 -0.31299454 -0.26320204
-0.34466785 -0.25860515 -0.24970669 -0.2890041 -0.34481323 -0.2522293 -0.4015061 -0.25870177
-0.18857825 -0.23499282 -0.2263101 -0.35585248 -0.32250383 -0.0026014363 -0.38686788 -0.30999094
-0.27429473 -0.24650826 -0.24487081 -0.30179045 -0.2810052 -0.34058836 -0.16415231 -0.25388527
-0.3368523 -0.29589057 -0.32966545 -0.24087487 -0.023531158 -0.26463696 -0.23805714 -0.3177379

bn1.running_mean f4 [128]
00000000: a4e7 78bd 9d9e aabd 8263 3dbe b6a3 17bd
00000010: fc68 743a 1c9d dcbc 3c06 59be c5a3 c33d
00000020: 486a e7bd 8378 2bbe 7958 acbd ed30 58be
00000030: dbb3 c5bd c273 34be 56e2 60bd f990 02be
00000040: 2944 e3bd b76d 17bd 7f34 42be 2c44 32bd
00000050: 0596 bd3d c3b6 b8bd 63cc 36bd 769b aabd
00000060: 65a8 dcbc 37c2 56be e97c 8fbd 6a58 90bb
00000070: bc6a 27be 21c6 0ebe cf0b 19be 4dfc 97bc
00000080: 413d 80be ac3d 503d 8af9 a2bd 7252 2cbe
00000090: baaf 58bc 77b3 2abe 6ba3 42be e37e 12be
000000a0: d4da a23d 1922 38bd 5e38 dabc 807e 41be
000000b0: 3bfc 6dbd e8f4 f4bd 8829 59be b285 f7bd
000000c0: 31a5 1abd 6e2e 10be 0a09 b03d 128a c9bd
000000d0: b436 39be b9ad 4fbe ab59 42be 7931 7abe
000000e0: 0b1b ebbd 112a 11bd 5342 c43d 4246 2ebe
000000f0: a22d 65be 65cc d8bc 87fa 1dbe 46c0 75bd
00000100: 5b56 57be c514 bc3d 6137 72be 1532 1ebe
00000110: 54d8 c33c 3207 f43b 52dc 8cbd 8956 86bc
00000120: 457d 3dbe 872e b73d fa66 18bd 173e c0bc
00000130: 29c1 ab3c c660 753d 549c 78bd 25de 4ebd
00000140: 932e b9bc 2c1b a5bc 719c bd3d 3585 19bc
00000150: 3229 1cbe 04fc 95bc 0aa2 c8bb ed13 39be
00000160: 2b68 0cbe 63ac 43be c16e f8bd 896d 3fbe
00000170: 91a3 c1bc 5f24 51be f04d 43be 1b3c 063d
00000180: 3769 9dbd ac47 39be 2faa 58bc 6b30 19be
00000190: a5f7 7dbd 8817 c9bc b695 8cbe 70ec c0bd
000001a0: 9e18 a0bd 1b5e 23be a760 45be ed52 4abe
000001b0: e150 e3bd f003 983d 7ee2 45be 3629 e6bd
000001c0: 3bf5 e43c aaea 25be 1f6f bd3c 328f 2fbe
000001d0: a126 19be 1858 5abe 5e46 31bd af9c 9a3c
000001e0: 134f 51be dfa3 c2bd 6bd7 39bd d439 82bd
000001f0: 3514 933d 0485 1bbd 22d2 e2bc ad57 8dbc
-0.060767785 -0.08331034 -0.1849499 -0.03702136 0.0009323505 -0.026930384 -0.21193784 0.09552721
-0.112995684 -0.1674519 -0.08415312 -0.21112414 -0.09653445 -0.17622283 -0.05490335 -0.12750615
-0.11096985 -0.036969867 -0.18965338 -0.043522045 0.092571296 -0.09019234 -0.044628512 -0.08330433
-0.026935766 -0.20972525 -0.070062466 -0.004405071 -0.1634931 -0.13942768 -0.14945911 -0.018552924
-0.25046733 0.050840065 -0.07957752 -0.16828325 -0.01322549 -0.16670023 -0.19007652 -0.14306216
0.079518944 -0.044954393 -0.026638206 -0.18895912 -0.058101874 -0.11960775 -0.21207249 -0.12086047
-0.037755195 -0.14080212 0.08595474 -0.09840788 -0.18087274 -0.20281114 -0.18979518 -0.24432935
-0.114797674 -0.03544051 0.09582963 -0.17018989 -0.22380689 -0.02646465 -0.154276 -0.05999782
-0.21029036 0.09183649 -0.23653938 -0.15448792 0.023906864 0.007447147 -0.0687796 -0.016398685
-0.18504818 0.08944421 -0.03720758 -0.023467107 0.02096613 0.059906743 -0.06069596 -0.050504822
-0.022605216 -0.020154558 0.092583545 -0.009370138 -0.1525009 -0.018308647 -0.006122832 -0.18074007
-0.13711612 -0.19108729 -0.121305 -0.18694128 -0.023637565 -0.2042403 -0.190727 0.032772165
-0.07686084 -0.18093747 -0.013224169 -0.14959876 -0.06200375 -0.024547353 -0.2745797 -0.09420097
-0.07817195 -0.15953867 -0.19275151 -0.19758196 -0.11099411 0.07422626 -0.19324681 -0.11238329
0.027948966 -0.16202798 0.023124276 -0.17144468 -0.14956142 -0.21322668 -0.043279998 0.01887354
-0.2044032 -0.09503912 -0.045371454 -0.06358686 0.071815886 -0.03796865 -0.02768809 -0.017253721

bn1.running_var f4 [128]
00000000: 4b33 2042 a308 1542 3a71 0242 5619 ca41
00000010: 8ec8 ab41 93d6 8841 342e 0c42 7edb b941
00000020: bfcd 9241 81ae dc41 026c 1042 c06b 0942
00000030: 08e0 9d41 aa87 c141 3fcb fb41 c9ff 7741
00000040: 6c87 8341 9a71 a641 fa61 d841 a5f5 be41
00000050: 3f6f dd41 e705 0d42 b015 d641 6f1a 3541
00000060: 055e d241 bf83 0042 6815 8141 3da7 af41
00000070: 3cec ed41 eb5f c441 c0ab ad41 956b 6741
00000080: a3a2 1c42 693d 6d41 4a19 bd41 4b54 c941
00000090: 133f 9f41 3e93 bb41 64ee 1542 6b85 e041
000000a0: d056 cc41 ad27 7e41 3fd4 0e42 b3a9 f541
000000b0: 3d1b fa41 afa0 8841 0033 0b42 a1e9 0642
000000c0: a6e1 e941 f4ef c041 1b62 be41 86eb 5941
000000d0: 7269 fb41 b51b f641 da77 0042 7660 2c42
000000e0: 56d1 bf41 dc8d c441 48db e341 e53d f641
000000f0: e1d3 1042 d9af 5b41 07eb ac41 7cc8 7541
00000100: ca73 0142 ae04 bc41 b7bd 1142 8ed5 0042
00000110: 4ec0 6741 9c17 d440 0ce3 5841 f636 8741
00000120: e2bc d041 36bf b841 ad25 9441 30b1 b341
00000130: 0d83 7b41 d2d6 8c41 0692 2941 163a 0842
00000140: 48a9 0042 1f75 d341 953d c241 6346 5a41
00000150: 0f4c 9441 54ca 4641 b7c2 9a41 4011 be41
00000160: 7588 a541 e775 e641 b7df 9541 2d29 d441
00000170: 9903 e241 4944 0542 d72c eb41 54cd 7d41
00000180: b236 b641 5dd7 e341 3027 b241 efec e341
00000190: a251 b241 31ea a541 bdc2 3842 ea9a 7641
000001a0: b008 f241 392d 9741 a410 ef41 95c9 ff41
000001b0: 8509 ef41 12e9 b841 efd6 da41 085f a241
000001c0: 88bc e440 c0db c141 a9e2 cb41 3624 c941
000001d0: 2f7e e641 f495 0342 c48f c541 cf76 9a41
000001e0: 1e8d 0442 5d7c 4941 5ee9 0842 8994 0342
000001f0: f2a8 9941 abf9 3241 3970 4741 1031 ed41
40.05009 37.258434 32.610573 25.262371 21.472927 17.104773 35.04512 23.232174
18.350462 27.585207 36.105476 34.355225 19.73439 24.191242 31.474241 15.499948
16.441124 20.80547 27.04784 23.869944 27.67932 35.255764 26.76059 11.3189535
26.295908 32.12866 16.135452 21.95666 29.740349 24.546835 21.708862 14.463765
39.158825 14.827493 23.637348 25.166159 19.905798 23.446896 37.482803 28.065145
25.542389 15.884686 35.70727 30.70786 31.2633 17.078459 34.799805 33.728153
29.23518 24.117165 23.797903 13.620001 31.426487 30.763529 32.117043 43.0942
23.977215 24.569267 28.48207 30.780222 36.206913 13.730432 21.61476 15.361446
32.363075 23.502285 36.43527 32.20855 14.484449 6.627882 13.555431 16.901836
26.092228 23.093365 18.518396 22.461517 15.719495 17.604893 10.59815 34.056725
32.165314 26.432188 24.28007 13.642184 18.537138 12.4243965 19.345076 23.758423
20.69163 28.80757 18.734236 26.520105 28.251757 33.316685 29.396894 15.862629
22.776707 28.480158 22.269135 28.49069 22.28986 20.739351 46.190174 15.412821
30.254242 18.897081 29.883125 31.973429 29.879648 23.113804 27.354948 20.296402
7.148014 24.2323 25.485674 25.142681 28.811613 32.89644 24.695198 19.308012
33.13781 12.592862 34.227898 32.895054 19.207493 11.185954 12.464898 29.648956
