models/classifiers/MLP2_HUMAN_AE1w2v_bm.pth (torch, 296624 bytes, 19 tensors)

fc1.weight f4 [256, 113]
000000 f2 19 12 be 19 d3 be bc 2c 1b 83 3c fa 7f ff 3d
       -0.1426771 -0.023294019 0.016004167 0.124755815
000010 a3 f5 50 3d 79 6f 18 bc 60 c6 42 3e a7 85 8b 3d
       0.051015507 -0.009303921 0.19020987 0.068126015
000020 c0 14 b3 bd ce ea 3e bd 9c 46 ee 3c fc 0e e2 3c
       -0.08744192 -0.046610646 0.029086404 0.027595036
000030 ca f8 8e bd 86 4b c7 3d e8 94 05 3e 25 fa ea 3d
       -0.069810465 0.09731202 0.13045084 0.114734925
000040 54 18 42 be 02 ba a8 bd d1 93 2a bd d0 7a 09 be
       -0.18954593 -0.08238603 -0.041644875 -0.13425756
000050 36 18 c6 3d b6 71 4b 3d e0 33 9d bc 98 94 7c bd
       0.096725866 0.04966899 -0.019189775 -0.061665148
000060 b2 6b 05 bc 75 12 67 3d 70 bd 3c bd c3 16 0f bc
       -0.008143352 0.056414086 -0.0460791 -0.008733454
000070 f5 be 7a ba 41 0c 10 bd cc f0 e8 3d 64 9f d8 3d
       -0.0009565198 -0.035167936 0.11374053 0.10577276
000080 8a a0 b8 bd af 6d 3c bc 7e 93 b1 3d 6d fe 4e 3c
       -0.090149954 -0.01150076 0.0867071 0.012633902
000090 b9 cd 38 3d d1 d0 cc 3c d2 7a f0 bd 6f 1f b9 3d
       0.045118067 0.025001915 -0.11742176 0.090391986
0000a0 c0 66 5b be 3b 67 8b bd 4a 2d 58 bd 7c 45 36 bd
       -0.21425915 -0.06806799 -0.052777566 -0.04449986
0000b0 a8 d1 12 bb 1c 8a 23 bd 24 ac 49 3e 91 f7 82 3d
       -0.0022402797 -0.039926633 0.19694573 0.06394876
0000c0 bb a9 ce 3d f4 d7 11 3e d0 a9 72 be 8e 46 ae 3d
       0.10090967 0.14242536 -0.23697591 0.08509551
0000d0 f2 cb b3 bd 3c d0 50 bd 42 f9 2b bd b6 63 11 be
       -0.08779134 -0.050979838 -0.041985758 -0.14198193
0000e0 01 51 48 bc 54 e2 08 be ac 6a 0f 3e 6e 9f c3 3d
       -0.012226344 -0.13367587 0.14005536 0.09551893
0000f0 64 7f a1 3d 00 c5 cb b9 f0 3a a4 3d 07 4e 12 3e
       0.07885626 -0.00038865954 0.08019054 0.14287578
000100 d2 13 25 3e bc 54 96 3d 69 6a c4 3c f4 64 57 3d
       0.16120842 0.073403805 0.023976522 0.05258651
000110 e6 04 11 bd 1d 69 29 be dd d1 38 3d 40 52 e9 bd
       -0.035405062 -0.16544004 0.045122016 -0.11392641
000120 20 01 4e bd 27 3d b0 bd 7b 7f 2e bd 68 28 01 3c
       -0.05029404 -0.08605414 -0.042602044 0.007883169
000130 f9 b8 af 3d 13 cb cc bc e5 60 f8 3c fe ae ca bd
       0.085802026 -0.024999177 0.03031964 -0.09896658
000140 28 93 37 bd 14 11 e5 3d b4 37 96 3d 97 9f 85 3d
       -0.044818074 0.11184898 0.07334843 0.0652458
000150 0f 72 29 3d ed 95 39 3e 76 b6 89 bd 0c 04 90 bb
       0.04136854 0.18123598 -0.06724255 -0.0043950137
000160 e6 77 98 3d bc 63 b7 3d c4 51 8d bd 80 6a ed bd
       0.07444744 0.0895457 -0.06900361 -0.11592579
000170 58 a2 c7 3c cf 1b 5e 3d 16 5a d1 3b 93 30 89 bc
       0.024369404 0.05422574 0.006388913 -0.016746795
000180 1d 11 13 3e 28 e5 6d 3d 9f c0 03 bd 28 b5 e6 3c
       0.14361997 0.05807987 -0.03216612 0.028162554
000190 3e 67 93 3d 93 06 bb bc dc c9 17 3d 3d 5f ca 3c
       0.07197426 -0.022830283 0.037057742 0.024703616
0001a0 35 46 68 be 3b 21 c3 bd 07 c4 92 3e 5f 2f 4e 3c
       -0.22683032 -0.095278226 0.28665182 0.012584536
0001b0 b6 5a e4 bd 55 29 d7 bd 1f c7 da bc d5 76 8d bd
       -0.11150114 -0.1050593 -0.026706276 -0.06907431
0001c0 b7 1c db 3d d4 8b 50 3d f5 a2 2a 3e 90 d6 b7 bd
       0.10698836 0.0509146 0.16663726 -0.089764714
0001d0 a4 fb 1f be 6e e3 4e bd 6c b7 2a 3d 5b d1 9b bd
       -0.15623337 -0.050509863 0.04167883 -0.07608291
0001e0 dd a9 a0 3a 64 aa e6 bd 62 fa ae bd 25 f9 ad 3d
       0.0012257654 -0.11262968 -0.085438505 0.08494786
0001f0 e2 20 72 3d b9 96 f3 3c 37 1d 62 bb 00 ec 34 bd
       0.05911339 0.029734956 -0.0034502277 -0.04417038
000200 8b 07 98 3d 3a f3 67 3c 45 0b b7 3b ad 99 54 3e
       0.07423314 0.014157111 0.00558606 0.20761748
000210 18 c5 9a 3d 82 c3 8b bd 1c 24 8b 3d 17 c6 ce bd
       0.07557124 -0.068243995 0.06793997 -0.100963764
000220 e8 c2 0a 3d 71 dd 6a 3d 48 ac b6 3d cf 3b 98 3d
       0.033877283 0.05734009 0.08919579 0.074332826
000230 3a 99 0d 3b 9d 37 15 be 79 1b 7e 3b b8 d8 c9 3d
       0.0021606223 -0.14571996 0.00387737 0.09855789
000240 ff cc b2 3d f8 b1 58 3d 02 37 a7 bd 3b 49 16 3d
       0.08730506 0.0529041 -0.08164789 0.03669093
000250 f4 ce ef 3d 09 01 90 bd 11 60 f0 3d ab ba 00 be
       0.11709395 -0.070314474 0.11737073 -0.12571208
000260 88 76 92 3d d5 9f 82 3d e9 6a 29 3d c3 13 d2 3d
       0.07151514 0.06378142 0.041361723 0.102576755
000270 3a be 47 bd ce 50 ad bc 70 28 2d 3c 58 33 f5 bc
       -0.0487654 -0.021156695 0.010568723 -0.02993171
000280 9c 47 f2 bd d9 88 64 3d 36 10 19 3e 1a 86 58 bc
       -0.11830065 0.05579457 0.1494759 -0.013215566
000290 71 22 0b 3e 61 d4 29 bc da b0 d7 bd 09 87 10 be
       0.13587357 -0.0103655765 -0.10531779 -0.14114012
0002a0 0f fc 1b 3d cb ce 95 bd 1c ce 47 3d 23 4b 0f 3c
       0.03808218 -0.07314833 0.048780546 0.008745941
0002b0 85 47 fc 3c 63 6c 45 3d f5 7e 04 be 93 94 95 3d
       0.030795822 0.04819907 -0.12939055 0.07303729
0002c0 fe 3d f4 bc 77 06 04 be 89 79 97 bd 56 3e e0 3d
       -0.029814716 -0.12893091 -0.07396228 0.1094939
0002d0 4d 52 3a 3d 86 56 2d bd ff ca 13 bd 7e 35 84 bd
       0.045488644 -0.042318843 -0.036082264 -0.06455515
0002e0 2d 7a 14 bd 90 35 67 bc 0b b0 16 be 8c 69 52 bd
       -0.03624933 -0.014111891 -0.14715593 -0.05137019
0002f0 d4 a1 32 be 7d f0 d7 3d ef a6 b8 bc e1 e1 25 be
       -0.17444545 0.105439164 -0.022540538 -0.16199447
000300 a0 26 a7 bd a1 96 1e 3d db cc 13 be b8 2b 9c 3c
       -0.08161664 0.03871787 -0.14433615 0.019063815
000310 e0 42 6a 3c 29 be b4 bc 6f 4c b6 bd fd bc 8f bd
       0.014298171 -0.022063332 -0.08901297 -0.070184685
000320 f9 4d 85 3d a1 48 c4 bb dc 0a 12 be b2 d8 d1 3c
       0.06509013 -0.0059901034 -0.14261955 0.025616024
000330 78 83 93 bc 78 2e 8d 3d d5 a8 39 bd 0c f9 cf 3c
       -0.018007025 0.06893629 -0.045327026 0.02538731
000340 cb ea 01 3e d7 bc d5 3d 71 1f 17 3d 39 3f 00 bc
       0.12687223 0.10436409 0.03689522 -0.007827573
000350 71 fa 1d be 39 c0 52 bd d2 98 cd 3d 42 d6 56 bb
       -0.15427567 -0.05145285 0.10038914 -0.0032781516
000360 30 fe a2 3c e2 15 b2 3d 09 ee b4 bd d3 c5 2d be
       0.019896597 0.0869558 -0.08834464 -0.16969995
000370 49 d9 24 3e f0 eb d7 3b 8a 97 50 bc 39 ab 97 bd
       0.16098513 0.0065894052 -0.012731442 -0.07405705
000380 db 62 06 bd fe 51 86 be 51 c2 d2 bb be 93 ef 3d
       -0.03280912 -0.2623443 -0.0064318557 0.116981015
000390 cc a8 00 bc f3 13 03 3d 18 25 ac bc 04 51 3e be
       -0.007852744 0.032001447 -0.021013781 -0.18585593
0003a0 87 bc 36 3b c0 c3 c7 3d 93 68 9d 3d 81 b6 11 be
       0.0027883367 0.09754133 0.076859616 -0.14229776
0003b0 43 96 8d bd 5e 49 27 3c 2f c8 00 3d b2 50 4c be
       -0.06913426 0.010210363 0.03144091 -0.19952658
0003c0 ff a0 92 3d 3d 28 93 bd 77 46 42 3e d5 a4 26 bd
       0.07159614 -0.07185409 0.18972193 -0.04068454
0003d0 bd 39 f0 3d 44 57 d5 bc 22 3e 77 3d d6 c3 ad bc
       0.11729763 -0.026042588 0.06036199 -0.021211546
0003e0 47 6f 2f bd ee 93 01 3d 7a ef 5e bd d2 48 a5 3d
       -0.04283073 0.031635217 -0.0544276 0.0807053
0003f0 1b 7e 5f 3d b3 47 6d 3d 47 3f 54 bd 36 eb f9 bd
       0.054563623 0.057929706 -0.05181816 -0.12203066

fc1.bias f4 [256]
000000 af 2a 1c ba 17 43 10 3a 0c f4 c3 3a 15 1f fa b8
       -0.0005957288 0.0005503161 0.0014950051 -0.000119267184
000010 ac 04 1e bb d1 26 0a b8 f6 b2 90 ba f6 28 30 39
       -0.0024111671 -3.2937915e-05 -0.0011039663 0.00016799927
000020 20 cc e5 38 78 30 7b ba ef 93 ef 3a 85 e9 33 bb
       0.00010957592 -0.00095821125 0.001827834 -0.002745242
000030 5d 6b a0 3a 80 e5 96 ba 8d 8e 3c 3b c7 2b d4 3a
       0.0012239028 -0.0011512488 0.002877149 0.0016187363
000040 30 57 84 ba 3e ce 7c 3b ea 98 04 bb b8 e3 82 3b
       -0.0010096785 0.0038575078 -0.0020232745 0.0039944313
000050 29 eb 2a ba 25 21 e0 39 7f a3 2b bb 66 73 b0 3a
       -0.0006520027 0.00042749304 -0.002618998 0.0013462126
000060 c7 87 99 3a a1 2a a9 39 aa fc 2d bb 9f b2 c8 3a
       0.0011713438 0.00032265953 -0.0026548305 0.0015312022
000070 58 b1 bf 3b eb c8 a5 ba b9 45 1c 3a 95 e2 ce 3a
       0.0058499984 -0.0012648379 0.0005961317 0.001578408
000080 88 d1 10 3b 6d df 8c ba 7c b2 17 ba 74 33 8b ba
       0.0022097547 -0.0010747738 -0.0005786789 -0.0010620193
000090 75 d6 c3 3a bc d0 0f ba 78 a2 01 3b f9 e1 b4 bb
       0.0014941233 -0.0005486121 0.0019780677 -0.005520102
0000a0 f7 89 71 bb ad fb 43 bb eb 16 74 b9 98 9c 7d ba
       -0.0036855915 -0.002990465 -0.00023278191 -0.00096745184
0000b0 21 a3 ff b8 ec 23 98 ba 8b a1 26 3a 5d bc 22 3a
       -0.00012189733 -0.0011607385 0.0006356469 0.0006207878
0000c0 1c 02 41 3a ac 53 dc ba 7a 56 de ba 4d 3c 10 ba
       0.000736268 -0.0016809604 -0.0016963028 -0.00055021496
0000d0 8a 46 85 ba 28 ef 5b ba 28 5f 5e 39 7b e8 83 3a
       -0.0010168117 -0.0008389824 0.00021207018 0.0010063791
0000e0 3b 49 e8 b8 7a 1b c8 b6 49 0d 06 ba 5a 74 4c 3a
       -0.00011076262 -5.963663e-06 -0.0005113674 0.000779932
0000f0 c0 aa e2 ba 6d b1 ff 3a 01 63 07 3b 29 25 50 3a
       -0.0017293319 0.0019507833 0.0020658376 0.00079401076
000100 ee 66 d3 ba 4d f2 94 bb a3 89 4e b9 a8 be e4 ba
       -0.0016128698 -0.004545486 -0.00019696965 -0.001745184
000110 eb 35 b8 37 6f 4b d8 ba e1 92 0c ba 1f 0f c8 b9
       2.1959617e-05 -0.0016501973 -0.0005362463 -0.0003815824
000120 81 20 84 3b 03 f6 19 3b a8 bf 42 3b 3f b7 82 b9
       0.004032195 0.0023492582 0.0029716287 -0.0002493206
000130 f6 f3 01 bb 2e 6e 18 bb ab a3 75 ba 9c 5d 4a ba
       -0.001982925 -0.0023259032 -0.0009370397 -0.00077196374
000140 ca 3f 27 b8 cd 43 3a ba 2d 06 20 3b 3e 70 bd 3a
       -3.987531e-05 -0.000710544 0.0024417744 0.0014453006
000150 9f bd 71 b9 7d ed a6 bb df 69 90 39 18 be 2a bb
       -0.0002305419 -0.005094229 0.000275447 -0.0026053246
000160 3b 92 a7 ba f6 6c ce ba de 19 68 ba de d2 26 bb
       -0.0012784669 -0.0015749026 -0.0008853952 -0.0025455276
000170 28 6b 02 3a 87 bc 89 ba a8 bf d7 ba 55 f6 c4 3a
       0.0004975074 -0.0010508456 -0.0016460316 0.0015027026
000180 42 c7 1a 3c 73 76 48 3b c7 05 78 3a dd dc 84 ba
       0.009446921 0.003058818 0.000946131 -0.0010136623
000190 fd ba c8 3a 5f a7 9c 3a b9 b2 b1 39 4a fd 2c 3b
       0.0015314516 0.0011951736 0.0003389323 0.002639609
0001a0 74 00 04 bb 2b fe c2 3a 3a 32 20 39 a7 7d d9 3b
       -0.0020141872 0.0014876773 0.000152775 0.0066372934
0001b0 14 d4 8b 38 bd 1c 7c 3b 82 ff 8b b9 35 01 83 b7
       6.667539e-05 0.0038469278 -0.00026702514 -1.5616979e-05
0001c0 18 23 6b 3b d4 bd c0 b9 6a 53 00 ba 27 30 af 38
       0.0035879072 -0.00036762527 -0.0004895242 8.353619e-05
0001d0 6f 4e 64 bb a3 2b df 3a 75 d2 88 3b 43 7c 83 3a
       -0.003483679 0.0017026555 0.004175479 0.001003154
0001e0 b6 66 b7 ba 63 f9 6e ba 17 89 cd ba 7e ff 41 3a
       -0.0013992402 -0.0009116141 -0.0015681115 0.0007400437
0001f0 b4 a4 d9 b9 cf 2d b6 ba 3a 43 4c bb a1 00 b8 3a
       -0.0004151218 -0.001389915 -0.0031168 0.0014038273
000200 b9 b7 c0 39 c7 03 97 3a b2 15 89 ba 92 1a e4 3a
       0.00036757978 0.0011521511 -0.0010458736 0.0017402938
000210 f5 76 b8 ba 6c d3 47 38 96 b3 d1 b9 0a f4 a8 3a
       -0.0014073538 4.76422e-05 -0.00039997388 0.0012890112
000220 60 1c 17 3a 6d 11 92 ba 14 54 5a bb 24 d5 ed 39
       0.0005764421 -0.0011144109 -0.0033314275 0.00045362965
000230 ce 7b b5 b8 2c 5f ac b7 f9 cf ef 39 60 7e 34 bb
       -8.653813e-05 -2.0548316e-05 0.00045740584 -0.0027541146
000240 a7 47 74 39 5f 30 9b b9 87 ab c2 b9 c0 cf 87 3a
       0.00023296346 -0.00029599943 -0.0003713036 0.0010361597
000250 23 cf 07 ba cc d0 d5 ba 18 f8 43 39 72 9b ec ba
       -0.0005180707 -0.0016312837 0.00018689071 -0.0018051697
000260 4e d8 1d 3b 61 0c d8 39 72 f2 58 3a 0c 2f 90 39
       0.0024085226 0.00041207953 0.0008275873 0.00027500873
000270 08 e8 c0 3a 31 38 03 3b e9 3d 1f 3a 77 f7 13 bb
       0.0014717588 0.0020022506 0.0006074594 -0.002257792
000280 13 9e 54 3b 06 34 cc ba 21 fa da 3a 76 05 01 3b
       0.0032442852 -0.0015579469 0.0016706624 0.0019687093
000290 d5 9e b5 3a 81 7b ab ba da 50 e6 ba e9 a7 f4 39
       0.001385654 -0.0013083072 -0.0017571703 0.0004666441
0002a0 6c fa 22 bb 3c 7f 7b 39 8d dd bd 3a 89 15 21 3b
       -0.0024868501 0.00023984624 0.0014485583 0.0024579486
0002b0 e1 47 e8 3a fb 77 07 3b 34 13 cf 39 f9 a5 3d ba
       0.0017721617 0.002067088 0.00039496424 -0.00072345097
0002c0 88 5f 36 39 b9 e3 2e 3a a0 fe db ba 03 d3 37 ba
       0.0001739246 0.00066715066 -0.0016784258 -0.0007012339
0002d0 df ba 29 3a 66 25 0f bb 79 4e e5 b9 d0 2f e3 b9
       0.00064746843 -0.002184236 -0.0004373675 -0.00043332437
0002e0 3c 6a da ba 45 89 2b ba 99 5b 49 bb f6 5e c4 b9
       -0.001666374 -0.0006543587 -0.0030724762 -0.00037454785
0002f0 d5 07 c2 3a 65 61 4a bb 20 6b 28 3a fc da 7b bb
       0.001480336 -0.0030880806 0.0006424654 -0.0038430085
000300 29 1f 05 3b e0 b2 8a 3a 8f 05 06 ba 0d be d9 3a
       0.0020312762 0.0010581873 -0.00051125226 0.0016612426
000310 dc 5a 39 ba ac 4b 7b 3a 40 b9 1e b9 e1 b6 97 ba
       -0.0007070729 0.0009586166 -0.00015137065 -0.0011574888
000320 3e 74 a1 b9 a0 99 01 bb d7 9f 12 3b 25 60 17 39
       -0.0003079492 -0.0019775406 0.0022373104 0.00014436299
000330 68 67 8b ba 34 78 fe ba 0a 42 36 3a 98 ba b2 ba
       -0.0010635676 -0.0019414485 0.00069525896 -0.0013635932
000340 a3 ed 1a 3a db 43 77 3b 1b 0d eb b9 10 70 2c bb
       0.00059100444 0.0037729654 -0.00044832457 -0.0026311912
000350 6e 08 a6 b9 ec d7 6c bb e1 fa f4 39 b2 fa 36 bb
       -0.00031668268 -0.0036139442 0.00046726226 -0.0027920422
000360 bb 38 1c 38 76 bb 44 bb 10 8c b0 b9 4b 61 58 3a
       3.7246133e-05 -0.0030018962 -0.0003367369 0.0008254244
000370 c8 25 9b bb 81 98 64 3a 49 f1 d5 3a 4f 30 0a bb
       -0.0047347285 0.00087202346 0.0016322519 -0.0021085923
000380 69 ab 48 bb 52 5a 1f 3b 37 cd 36 38 91 94 8c b9
       -0.0030619747 0.002431531 4.3583303e-05 -0.00026813571
000390 e7 ac 50 b9 8e c0 97 bb 78 5e 4e bb 61 39 15 bb
       -0.00019900837 -0.0046311086 -0.0031489413 -0.0022769796
0003a0 48 a3 3f 38 b3 3e b1 3b cd b2 81 3a 70 77 d2 b9
       4.5690016e-05 0.0054090857 0.0009895206 -0.0004014331
0003b0 70 5c 93 3a ad b5 66 3a 6b b8 16 ba bc bf be 3a
       0.0011242758 0.00088008755 -0.00057495263 0.0014552991
0003c0 d7 5c e9 ba ab da 2a 3b 89 12 d5 b8 14 8c d5 b9
       -0.0017804158 0.0026070278 -0.00010160084 -0.00040730892
0003d0 92 51 75 3a 90 63 95 3a fc cc 82 3b 81 f2 86 ba
       0.0009358163 0.001139747 0.003991721 -0.001029566
0003e0 33 40 69 3a 08 2d a6 39 e9 da 41 ba c5 24 0c bb
       0.0008897811 0.00031695538 -0.0007394986 -0.002138422
0003f0 03 1c 4b bb e4 f9 66 bb d4 ff e0 3a 24 7c ac ba
       -0.0030992038 -0.0035244161 0.0017166086 -0.0013159555

bn1.weight f4 [256]
000000 58 0d 86 3f 6f a5 78 3f e6 14 43 3f 20 f1 49 3f
       1.0472822 0.9712743 0.76203763 0.7888355
000010 91 34 86 3f 94 f7 8c 3f 09 5a 56 3f 0a ef 5c 3f
       1.0484792 1.1013055 0.8373113 0.86302245
000020 93 b9 91 3f 0c 61 92 3f 42 57 7a 3f a4 7d 91 3f
       1.1384758 1.1435866 0.97789395 1.1366467
000030 cf 5d 52 3f 08 1c 7b 3f 1d f5 59 3f f8 45 80 3f
       0.8217439 0.9808965 0.8513964 1.0021353
000040 1c 01 60 3f fe 4f 81 3f 35 15 83 3f 1e 18 97 3f
       0.8750169 1.0102537 1.0240847 1.1804235
000050 ab 23 8e 3f 97 a2 80 3f e4 2c 87 3f 5b 1d 7e 3f
       1.1104635 1.0049618 1.0560575 0.9926354
000060 d7 8d 73 3f 68 34 67 3f 4e be 66 3f f8 2a 7a 3f
       0.95138305 0.9031434 0.9013413 0.97721815
000070 22 01 89 3f de a1 4c 3f ac b9 5c 3f d8 13 83 3f
       1.0703471 0.7993449 0.8622081 1.0240431
000080 8c 11 79 3f 87 86 53 3f 73 e8 8e 3f 84 fc 50 3f
       0.972924 0.8262715 1.1164688 0.8163531
000090 60 02 79 3f bf 64 4e 3f 45 e3 66 3f 21 61 89 3f
       0.9726925 0.80622476 0.90190536 1.0732766
0000a0 a2 ca 94 3f 1d 7c 83 3f 5c 39 58 3f fe 9d 88 3f
       1.1624339 1.0272251 0.84462523 1.0673215
0000b0 dc 67 5e 3f 6e 28 57 3f 40 ec 5e 3f 90 d3 a1 3f
       0.86877227 0.84046066 0.8707924 1.2642689
0000c0 59 43 80 3f 21 0b 6f 3f e0 5e 97 3f e0 d3 52 3f
       1.0020553 0.93376356 1.1825829 0.82354546
0000d0 7e f6 68 3f 5d b0 63 3f 79 26 58 3f 3f 37 6e 3f
       0.9100112 0.88940984 0.84433705 0.9305305
0000e0 79 b9 6b 3f dc fa 5e 3f 33 23 65 3f 56 b3 61 3f
       0.92079884 0.8710153 0.89506835 0.8816427
0000f0 28 f3 50 3f 80 51 68 3f c3 5a 5f 3f 49 ac 5e 3f
       0.81621027 0.9074936 0.87247866 0.86981636
000100 f8 90 75 3f 33 fd 7a 3f d3 ab 64 3f 58 18 7d 3f
       0.9592433 0.980426 0.8932468 0.9886527
000110 d3 d4 7b 3f 78 37 72 3f 81 37 99 3f 16 c5 82 3f
       0.9837162 0.9461589 1.1970063 1.0216396
000120 ce 74 8e 3f 7b 2f 77 3f 13 59 96 3f cf 03 62 3f
       1.1129396 0.96556824 1.1745933 0.8828706
000130 27 79 84 3f 2b 92 70 3f 96 aa 5c 3f 53 c9 5b 3f
       1.0349473 0.93973035 0.86197793 0.8585407
000140 41 7e 72 3f 7a 59 90 3f a4 d9 89 3f 2e 2c 80 3f
       0.947239 1.1277306 1.0769544 1.0013483
000150 c5 23 7b 3f 30 df 5e 3f 1b b8 54 3f ba 51 63 3f
       0.98101455 0.8705931 0.8309342 0.8879658
000160 56 f1 88 3f c8 d3 82 3f 4e 31 79 3f f8 cb 71 3f
       1.069865 1.022088 0.9734086 0.94451857
000170 f3 b5 62 3f b5 2e 51 3f 32 e9 8b 3f e8 73 4a 3f
       0.8855888 0.81711894 1.093054 0.7908311
000180 a4 29 90 3f a6 e5 89 3f 11 9b 56 3f d6 8e 5a 3f
       1.1262708 1.0773208 0.8383036 0.853742
000190 77 1e 72 3f 60 42 8c 3f 9c b2 87 3f 7c e5 88 3f
       0.94577736 1.0957756 1.0601382 1.0695033
0001a0 ae aa 73 3f e7 03 80 3f 79 a2 97 3f 50 c3 8c 3f
       0.9518231 1.0001191 1.1846458 1.0997105
0001b0 f5 a6 5f 3f 66 c8 8f 3f a2 e3 74 3f c0 11 6c 3f
       0.8736413 1.1233032 0.9565984 0.92214584
0001c0 78 2e 8f 3f 7d 73 74 3f b6 36 5e 3f e9 b8 87 3f
       1.1186056 0.9548872 0.8680223 1.0603305
0001d0 41 8e 90 3f ea 85 7f 3f 86 1e 8e 3f ea bd 5a 3f
       1.1293412 0.9981371 1.1103065 0.85446036
0001e0 10 6f 96 3f 1c 9c 6c 3f f6 34 74 3f f3 c9 91 3f
       1.1752644 0.92425704 0.9539331 1.1389755
0001f0 a4 9a 83 3f 40 ab 50 3f e4 2a 61 3f 64 f2 62 3f
       1.0281568 0.81511307 0.8795607 0.8865111
000200 13 76 66 3f 23 13 87 3f a8 74 5f 3f 74 5b 7f 3f
       0.90023917 1.0552715 0.8728738 0.9974892
000210 22 cd 4d 3f 40 50 4c 3f 48 c1 57 3f 2b 57 7a 3f
       0.8039113 0.7980995 0.842793 0.9778926
000220 a8 08 52 3f c6 78 81 3f d5 1f 8f 3f 7b c3 5e 3f
       0.8204446 1.0114982 1.1181589 0.8701703
000230 40 05 63 3f ff 78 73 3f d5 7e 92 3f 37 5f 7c 3f
       0.88679886 0.951065 1.1444956 0.98582786
000240 5a 42 86 3f 80 0a 51 3f c1 d4 4b 3f 91 b2 8d 3f
       1.0488999 0.81656647 0.7962151 1.1070119
000250 92 0b 77 3f 3e a4 50 3f b0 83 88 3f f5 fb 90 3f
       0.9650203 0.81500614 1.0665188 1.1326891
000260 06 51 85 3f 29 7f 5a 3f 7a fb 80 3f 7e af 73 3f
       1.0415351 0.8535028 1.0076745 0.95189655
000270 2f ec 85 3f 43 4a 50 3f fe a9 82 3f 77 ae 72 3f
       1.0462703 0.81363314 1.0208127 0.9479746
000280 b2 2f 87 3f d3 f8 8e 3f 32 39 6d 3f b5 50 6f 3f
       1.056143 1.1169685 0.926654 0.93482524
000290 67 e9 67 3f 5b ac 7a 3f 8a 03 8e 3f d0 11 5a 3f
       0.9059052 0.97919244 1.109483 0.8518343
0002a0 b8 d1 85 3f 50 7d 7f 3f 4c 48 8c 3f 10 09 92 3f
       1.0454626 0.99800587 1.0959563 1.1409016
0002b0 2f fd 7b 3f 9c 14 8c 3f 6e c7 70 3f 1b 36 82 3f
       0.984332 1.094379 0.94054306 1.0172762
0002c0 a5 c9 6d 3f 5f 45 8a 3f be 81 5b 3f ae e8 79 3f
       0.9288581 1.080242 0.85744846 0.97620666
0002d0 b5 28 66 3f 08 eb 85 3f f9 44 69 3f 48 fc 76 3f
       0.89905864 1.0462351 0.9112087 0.964787
0002e0 8b e0 82 3f 26 96 67 3f 4f 54 98 3f e6 b6 88 3f
       1.0224775 0.90463483 1.1900729 1.0680816
0002f0 9d 09 56 3f 9b 37 7e 3f 49 74 82 3f ec a9 94 3f
       0.8360842 0.993036 1.0191737 1.1614356
000300 f8 d7 86 3f 28 0b 87 3f 71 f3 71 3f d6 2a 8a 3f
       1.0534658 1.055028 0.9451209 1.0794322
000310 76 c3 73 3f 6a a4 4b 3f 8e a8 7c 3f 17 73 63 3f
       0.95220125 0.7954775 0.98694694 0.8884749
000320 7a b6 4f 3f 21 74 77 3f 5a ab 8d 3f 04 71 64 3f
       0.8113781 0.96661574 1.1067917 0.8923495
000330 3f c7 7b 3f cf 1e 81 3f 6d 0d 76 3f 8b db 7c 3f
       0.983509 1.0087527 0.96114236 0.98772496
000340 d4 4c 56 3f d9 99 53 3f 5a f6 77 3f f6 08 71 3f
       0.8371098 0.8265663 0.9686028 0.941543
000350 ad 34 66 3f fb e5 7d 3f 01 13 5e 3f b5 46 58 3f
       0.89924127 0.9917905 0.8674775 0.8448289
000360 cd 4e 72 3f 4d 7b 92 3f bd 4c 73 3f f2 df 91 3f
       0.9465149 1.1443878 0.9503897 1.1396468
000370 1c 30 9a 3f b5 ce 63 3f a3 ba 75 3f 2b 95 64 3f
       1.2045932 0.88987285 0.9598791 0.8929011
000380 21 73 8c 3f 99 29 9d 3f 97 5f 59 3f da 5e 54 3f
       1.0972635 1.227832 0.84911484 0.8295723
000390 eb 31 5d 3f 88 ae 7e 3f f0 55 6f 3f 66 4e 8a 3f
       0.86404294 0.99485064 0.93490505 1.0805175
0003a0 73 3d 7e 3f 60 22 94 3f 7d 2c 55 3f ed 62 77 3f
       0.99312514 1.157299 0.8327101 0.96635324
0003b0 57 b1 72 3f 75 45 58 3f 2c e1 5d 3f 47 4a 83 3f
       0.9480185 0.84480983 0.8667171 1.0257043
0003c0 3c 52 6a 3f 87 cf 82 3f 1e 79 6f 3f ca 8b 6b 3f
       0.9153173 1.0219582 0.93544185 0.92010176
0003d0 50 61 97 3f 2c 3c 83 3f 79 94 8c 3f 6f 9c 77 3f
       1.1826572 1.0252738 1.098281 0.96723074
0003e0 fc 42 71 3f d1 9d 5d 3f 52 fa 71 3f af 33 6c 3f
       0.94242835 0.86568934 0.94522583 0.9226636
0003f0 de d4 83 3f 90 e9 97 3f 65 db 77 3f 99 a4 63 3f
       1.0299337 1.1868153 0.96819144 0.8892303

bn1.bias f4 [256]
000000 6e 40 94 be 43 2c 27 be 59 e0 42 be 14 44 38 be
       -0.28955406 -0.16325478 -0.19030894 -0.1799472
000010 cb d2 65 be 8d be 83 be 7f 12 0b be c0 1e 45 be
       -0.22443692 -0.25731316 -0.13581274 -0.19250011
000020 0a 0f 80 be b0 26 6c be 04 cb 1e be 5b d5 15 be
       -0.25011474 -0.23061633 -0.15507132 -0.1463217
000030 03 31 27 be ec 1a 34 be a8 23 34 be aa 7c 72 be
       -0.1632729 -0.17588395 -0.17591727 -0.23680368
000040 c3 60 15 be af a5 24 be c3 62 6c be e6 a7 77 be
       -0.14587693 -0.16078828 -0.2308455 -0.24185142
000050 fd 34 a5 be e1 fc 7e be 8c 64 ea bd 75 e0 66 be
       -0.3226699 -0.24901153 -0.11444959 -0.22546561
000060 17 81 6a be ee 6c 16 be 0b b8 58 be f2 24 7d be
       -0.22900806 -0.14689991 -0.21163957 -0.24721125
000070 5c 77 94 be 3e fc 2c be 85 e6 01 be 97 d2 2e be
       -0.28997314 -0.16893098 -0.12685592 -0.17072521
000080 74 43 7f be 78 ef 15 be 1b 6e 85 be ef 87 32 be
       -0.24928075 -0.14642131 -0.26060566 -0.17434667
000090 4d d0 92 be df 06 49 be f5 67 6f be 00 2e 85 be
       -0.28674546 -0.19631527 -0.233795 -0.26011658
0000a0 3a 8f 81 be 90 9f 55 be e5 26 e6 bd ae 1a 3e be
       -0.25304586 -0.2086165 -0.11237887 -0.18564865
0000b0 b6 98 73 be 24 8b 2e be e7 80 f7 bd ad b0 0b be
       -0.23788723 -0.17045265 -0.12085133 -0.13641615
0000c0 20 16 04 be 74 93 ea bd f4 ae 55 be dc 0f 11 be
       -0.12899065 -0.11453906 -0.2086752 -0.14166206
0000d0 af a0 23 be da d2 f7 bd 1b 94 50 be c9 95 31 be
       -0.15979265 -0.121007636 -0.20368998 -0.17342295
0000e0 1c 30 21 be b2 12 24 be ad f9 d4 bd 4c ef 53 be
       -0.15741009 -0.16022757 -0.103991844 -0.20696753
0000f0 b4 c9 44 be 31 c4 18 be 09 8b 57 be b0 79 21 be
       -0.19217569 -0.14918591 -0.21049131 -0.15769076
000100 ba 7f 9e be 77 ad 36 be 6b 97 22 be d5 25 01 be
       -0.30956823 -0.17839609 -0.15878074 -0.12612088
000110 a6 55 a8 be 2b 3a 4c be 18 bc 7a be 06 f3 9d be
       -0.32877845 -0.19944064 -0.24485815 -0.30849475
000120 da f5 53 be 46 22 3b be 0f 4d 84 be 63 cd 1c be
       -0.20699254 -0.18274793 -0.2584004 -0.15312724
000130 ae 72 27 be 31 91 94 be 74 b7 3e be 79 e2 0c be
       -0.1635234 -0.29017022 -0.1862467 -0.13758267
000140 18 93 66 be bf 68 19 be 47 37 b1 bd 1b b4 71 be
       -0.2251705 -0.14981364 -0.086531214 -0.23603861
000150 94 55 4c be 12 b0 01 be d9 d7 0b be 24 11 45 be
       -0.1995452 -0.12664822 -0.13656558 -0.1924482
000160 92 3b 3e be 15 8f 98 be f1 c6 01 be 65 6e 77 be
       -0.18577412 -0.29796663 -0.12673546 -0.24163206
000170 2c f7 2e be 44 e7 4c be b7 82 42 be 31 d7 37 be
       -0.17086476 -0.20010096 -0.18995176 -0.17953183
000180 7f 44 3e be 46 79 5f be b0 7f 0f be b1 1a 8f be
       -0.18580817 -0.21823606 -0.14013553 -0.2795005
000190 ac ef 89 be 3a 3b 21 be dc 90 37 be 9a fe 3f be
       -0.26940668 -0.1574525 -0.17926353 -0.18749467
0001a0 a0 f6 82 be 87 7a 63 be 9e 5e 18 be 92 b5 cc bd
       -0.25578785 -0.22214709 -0.14879844 -0.09995569
0001b0 ec 81 7e be 79 89 75 be 7e 05 8b be b2 41 25 be
       -0.24854249 -0.23978223 -0.27152628 -0.16138342
0001c0 c0 8b 13 be a4 0b 7e be 86 ec c0 bd d4 7a 0b be
       -0.14408779 -0.24809128 -0.09420113 -0.13621074
0001d0 86 3c 98 be 11 42 89 be 0b 2e 24 be 29 bc 2f be
       -0.29733676 -0.26808217 -0.16033189 -0.17161621
0001e0 41 0b 64 be 7c 2c 32 be 5c d2 4b be da 03 9f be
       -0.22269918 -0.17399782 -0.19904464 -0.31057626
0001f0 2e ff 87 be b8 9d 66 be 09 ad 4f be 84 8e f8 bd
       -0.26561874 -0.22521102 -0.20280851 -0.12136558
000200 25 79 1c be 3e e1 87 be c6 fb 42 be 48 bd 84 be
       -0.15280588 -0.26539034 -0.19041356 -0.2592566
000210 7a b4 13 be d4 4c 89 be 98 32 28 be 2b 0a 80 be
       -0.14424315 -0.26816428 -0.1642555 -0.25007758
000220 33 fa 62 be 4e f7 1a be 6d 3e f8 bd 19 be ce bd
       -0.22165756 -0.15133402 -0.12121282 -0.10094852
000230 27 8a 4f be 2f 93 00 be 7d 46 7f be fa 8a 76 be
       -0.20267545 -0.12556146 -0.24929233 -0.24076453
000240 de 0e 4f be e1 e9 15 be 09 ff 50 be b9 3d 80 be
       -0.20220515 -0.14639999 -0.20409788 -0.2504709
000250 ba 52 91 be 46 49 42 be e9 5d 75 be 02 cf 27 be
       -0.28383428 -0.18973264 -0.23961605 -0.16387561
000260 10 ca 8f be b1 cc 10 be c6 e7 51 be 28 fa c9 bd
       -0.2808385 -0.14140584 -0.20498571 -0.09862167
000270 e5 7a 6f be dd 88 7a be 7d d6 72 be e5 5d 29 be
       -0.23386724 -0.24466272 -0.23714633 -0.16539724
000280 6e 07 3a be 54 e8 74 be 4a 14 12 be 5f b6 33 be
       -0.18166897 -0.23916751 -0.14265552 -0.17550038
000290 30 48 00 be 59 0b 64 be 34 38 81 be b9 38 54 be
       -0.12527537 -0.22269954 -0.25238192 -0.20724763
0002a0 3a bb 56 be e9 ca 46 be a4 06 10 be 3f db 07 be
       -0.20969859 -0.19413342 -0.14065033 -0.1326723
0002b0 59 1b 5a be 89 dd 2b be f3 d9 8c be d4 7e 44 be
       -0.21299495 -0.16783728 -0.27510032 -0.19189006
0002c0 4a ca 44 be e7 85 35 be 87 67 81 be 11 30 27 be
       -0.19217792 -0.17726861 -0.25274298 -0.1632693
0002d0 f7 f9 5d be bf ea 9f be b3 b8 17 be 69 93 39 bc
       -0.21677385 -0.31233785 -0.14816551 -0.011326649
0002e0 1f 4a 5a be 01 18 60 be 17 98 39 be 12 42 7b be
       -0.21317337 -0.21884157 -0.18124424 -0.24536923
0002f0 35 3a 0e be 92 f9 69 be d7 bd 13 be 08 2c 45 be
       -0.13889392 -0.2284911 -0.14427887 -0.19255078
000300 27 e0 35 be db 5e 37 be e4 83 05 be 3c 6f 89 be
       -0.17761289 -0.17907278 -0.13038594 -0.26842678
000310 08 5e 19 be 95 d2 23 be bb b6 54 be 2e 74 57 be
       -0.14977276 -0.159983 -0.20772831 -0.21040413
000320 d6 3e 2e be 94 78 8f be db 67 19 be 85 cb 45 be
       -0.17016158 -0.2802168 -0.14981024 -0.19315918
000330 9d 32 59 be c3 8d 65 be 77 2d f5 bd f2 52 91 be
       -0.21210714 -0.22417359 -0.11971562 -0.28383595
000340 df c0 0d be 4d f4 65 be 1d b4 80 be f8 e2 5b be
       -0.13843106 -0.22456475 -0.25137416 -0.214733
000350 db 1c 22 be 45 e7 8f be 43 85 1e be 2c 84 fb bd
       -0.1583132 -0.28106132 -0.15480523 -0.12281069
000360 bc 4b 10 be af 89 40 be 4f 57 64 be 20 ea 6e be
       -0.1409139 -0.18802522 -0.2229893 -0.23331499
000370 e1 53 62 be 86 1c 20 be 27 34 4e be 6a ca 58 be
       -0.2210231 -0.15635881 -0.20137082 -0.21170965
000380 0d 0e 3c be e0 27 78 be f3 ee 0a be 48 d8 10 be
       -0.18364735 -0.24233961 -0.13567714 -0.14145005
000390 2b b2 55 be 80 93 2e be 8d 33 7a be 11 78 80 be
       -0.20868747 -0.17048454 -0.24433728 -0.25091603
0003a0 e9 fd 72 be a2 4d 49 be c7 32 7b be 7d f5 e9 bd
       -0.23729672 -0.19658521 -0.24531089 -0.11423776
0003b0 bd 90 31 be ff 18 12 be ab 33 31 be f0 06 78 be
       -0.1734037 -0.14267348 -0.17304866 -0.24221396
0003c0 c2 de 39 be a1 96 ff bd 4b 51 23 be d2 02 b3 be
       -0.18151382 -0.12479902 -0.1594898 -0.3496309
0003d0 89 0b ea bd 44 f6 8e be a6 8c 6d be 46 a4 af be
       -0.114279814 -0.2792226 -0.23198184 -0.34305018
0003e0 ee 6a 84 be e7 35 87 be 49 54 9e be be 5c 34 be
       -0.2586283 -0.26408312 -0.3092368 -0.17613503
0003f0 b8 87 6b be 1c 5b e6 bd 14 c3 a7 be 54 fe 0a be
       -0.23000991 -0.112478465 -0.3276602 -0.13573581

bn1.running_mean f4 [256]
000000 c8 d8 a3 bc 7a 71 8a 3c d3 6f ee bc a4 07 cd bc
       -0.02000083 0.016899813 -0.029106056 -0.025028057
000010 c5 17 8c bc ca 49 33 3b 3b 58 80 bc 37 1f 1f bd
       -0.017101178 0.0027357214 -0.015667072 -0.03884813
000020 c9 d2 0c bc 45 69 d3 bc 4e 46 0d ba 22 07 8e bb
       -0.008595177 -0.025807032 -0.00053891994 -0.0043343464
000030 48 f1 04 bd 34 03 dc b9 64 39 c4 3c 50 48 bf bc
       -0.032456666 -0.00041964056 0.023953147 -0.023349911
000040 f0 1a 83 3c 33 81 fc bc 9a 93 96 bc 9a ab d3 bb
       0.016004056 -0.030823326 -0.018380929 -0.0064596655
000050 09 ec ef bc bb 87 5b bc 4a 89 b4 bc ed 54 2f bc
       -0.029287355 -0.01339906 -0.02203812 -0.0107014
000060 ab e1 1f 3c 6f d4 94 bc 36 67 0e bd 14 67 d4 bc
       0.009758393 -0.018167702 -0.0347664 -0.025928058
000070 f8 ef 09 bc 69 85 8d bc 6b 84 78 bd 0a 0b 73 3c
       -0.008419029 -0.017275529 -0.06067316 0.014834175
000080 90 da a7 bc a4 c8 2d bc 06 ee d2 bc fe a6 57 3c
       -0.02048996 -0.0106069185 -0.025748264 0.013162373
000090 53 5b f6 bc 61 89 cc 3a 16 d3 33 ba ea 6d cb bc
       -0.030072844 0.0015604907 -0.00068597624 -0.024832685
0000a0 86 bb e8 bc e4 07 72 bc 54 90 a6 3c a5 ba 00 bd
       -0.02840973 -0.014772389 0.020332493 -0.031427998
0000b0 5a 10 44 bd 77 b2 01 bd 5e 17 f7 bc 60 12 87 bb
       -0.047867157 -0.031664338 -0.03016251 -0.0041220635
0000c0 6e 53 7d ba 5a 37 0c 3c 95 17 c3 3a c5 75 f4 b8
       -0.0009663616 0.008558119 0.0014884347 -0.00011656763
0000d0 05 6d 3b bc e3 e3 6c bc c8 67 14 bc 89 7e 11 3d
       -0.0114395665 -0.014458629 -0.0090579465 0.035521064
0000e0 65 91 b6 bc 3b 27 b2 bc 3f a7 f5 bb 51 95 6b 3b
       -0.022286126 -0.021747222 -0.007496744 0.0035947154
0000f0 7f 9b ba bc e7 c9 3b bc 75 b3 1e bc 0e cc ec bc
       -0.022779224 -0.0114617115 -0.009686341 -0.028905895
000100 71 e0 e7 bc 9a 50 55 bc d3 68 b5 bb e0 7b 74 bb
       -0.028305264 -0.013019705 -0.0055361777 -0.003730528
000110 01 b4 63 bc 9c d2 0d bd 0f d1 81 bc 36 e5 a2 bc
       -0.013897897 -0.03462468 -0.015846757 -0.019884687
000120 b4 64 3f 3d 7f 6a 87 bc 01 a0 33 bc d5 a3 fd bb
       0.046726897 -0.016530273 -0.010963441 -0.0077404776
000130 75 64 a0 bc 8e e7 2c bd dc 5d 4d bc 47 de f7 3c
       -0.019579152 -0.042213015 -0.012534585 0.030257357
000140 a6 f8 fa bc b4 e7 03 bd 43 12 75 3c ba b0 c1 bb
       -0.030636143 -0.03220339 0.014957967 -0.00591096
000150 39 69 cd bb 21 02 db 3c e0 a6 ab 3c f0 77 c9 3c
       -0.006268647 0.026734414 0.020953596 0.024593323
000160 ff fd 63 bc a3 fc 31 bc a1 c1 1f bd 90 61 23 bb
       -0.013915538 -0.010863456 -0.03900302 -0.0024929978
000170 8d c2 73 3d 56 ef be bc cb 45 ed bc 8a a8 8c bc
       0.05951171 -0.023307484 -0.028963944 -0.01717021
000180 08 94 8e bc 99 68 88 bc 13 7b 85 3a e4 95 84 bc
       -0.017404571 -0.016651439 0.0010183774 -0.016184755
000190 b1 92 c8 bc bb 16 c6 bb 99 6d 0b 3d db 5c fc 37
       -0.02448401 -0.00604519 0.034040067 3.008398e-05
0001a0 33 cc d8 bc 59 42 05 bd 39 50 31 3b 9b fa 8b bc
       -0.026464557 -0.032533977 0.0027055873 -0.017087271
0001b0 50 d7 8e 3b ee d5 71 3c a5 df 8f bc 6f 08 1f bd
       0.0043591633 0.0147604775 -0.017562697 -0.038826402
0001c0 55 bc 23 3b 85 aa e0 bc ee e6 ad bc 4d bf 2e bc
       0.002498408 -0.02742506 -0.02122828 -0.010665727
0001d0 7d 75 3b 3c f8 57 4a bc 49 b8 a6 3b 40 28 5c 3c
       0.011441586 -0.012350075 0.0050878865 0.013437331
0001e0 9f 1c 78 bc 71 ad 70 3c 95 da 9e 3c 25 0f b2 bc
       -0.015143543 0.014689789 0.019391337 -0.021735737
0001f0 cd cc 0e bc 17 9c d6 3a 32 c3 27 3c 5a 2e 30 3c
       -0.0087158205 0.0016373423 0.010239409 0.010753239
000200 7f 7e 5f bc a0 ab b7 bc b1 aa c4 bb a7 a5 21 bd
       -0.013640999 -0.022420704 -0.0060017933 -0.03946462
000210 50 e4 81 3c 48 19 c8 bc f5 cd 14 bd b4 02 0f bb
       0.015855938 -0.024426118 -0.03632923 -0.002182168
000220 97 fc a2 3c 5f d6 8a bc 2a 53 0b ba 78 14 a5 ba
       0.019895835 -0.016947923 -0.00053148216 -0.0012594601
000230 cb 83 bf bc e3 1c e3 3c ba f5 d9 3b ff 60 cd bc
       -0.023378273 0.027723735 0.0066516073 -0.025070665
000240 d1 d7 b7 bc 60 b2 03 bb e2 e0 95 bb ff 1d 0b bc
       -0.022441776 -0.0020095333 -0.0045739273 -0.008491038
000250 87 b2 25 bc 03 52 02 3c 6e 5a 89 bc b7 ff ba 3c
       -0.010113365 0.007954123 -0.016766753 0.022827012
000260 ad e6 3d 3b 0d 4b 9f bc 36 52 aa bb 79 f6 93 bc
       0.0028976605 -0.019444967 -0.0051977886 -0.018061863
000270 12 fc 2e bc e2 7b 3a 3c f2 47 b6 bb 94 fb eb bc
       -0.010680215 0.011382075 -0.005562776 -0.028806485
000280 5b 15 7d bc 8b d7 a0 bc 0b c3 83 3a 0f 77 9f 3c
       -0.015446986 -0.019634029 0.0010052634 0.019465951
000290 3f b7 82 bc a9 ba c8 bc 19 50 d0 bb 6a 39 6f 3c
       -0.01595652 -0.024503069 -0.0063572046 0.014601091
0002a0 c9 d1 b7 bc d3 99 31 3c 3a 56 b7 bc c0 e8 40 bb
       -0.0224389 0.010839897 -0.022379983 -0.0029435605
0002b0 07 2b 6e bc 83 12 96 3c 8f f4 17 bd c4 bb 87 bc
       -0.014536626 0.018319374 -0.037098464 -0.016569026
0002c0 4a f0 b3 bc cd 1d 26 3c a8 df 64 bd 01 2d 16 bd
       -0.021965165 0.010138941 -0.055877358 -0.036664013
0002d0 c8 62 e4 bc 4f a9 f9 bc 0f 99 2a 3c 56 fd 68 3c
       -0.027879134 -0.03047624 0.010412469 0.014220556
0002e0 b6 45 d7 bc 60 9d 93 bb e5 ce 02 3c 8d 84 d2 bc
       -0.026278358 -0.0045048445 0.007983898 -0.02569797
0002f0 fc a6 06 3c 13 f9 b9 bc 3b fb 0f bc 59 73 a7 3c
       0.008218523 -0.022701776 -0.008787925 0.020440744
000300 9a cc 55 bb 69 d5 89 bc d2 0b 50 bd a1 bc 0e bd
       -0.0032623173 -0.016825395 -0.050792523 -0.03484786
000310 fc 10 7c bc ca d2 e7 bc 9e 93 a0 3b 0a 37 5b 3c
       -0.015384909 -0.028298754 0.00490041 0.013379822
000320 36 a4 e2 3a 93 8c 7e bc 24 35 23 bc 2e 58 d7 39
       0.001729137 -0.015536445 -0.0099614 0.00041073695
000330 38 f7 88 3c 5f 6b 9f bb 24 39 09 3c e2 f0 dc bb
       0.016719446 -0.0048650946 0.00837544 -0.0067425827
000340 aa 29 b5 bc c7 e1 91 bb b8 62 9f bb a9 c9 84 3c
       -0.022114594 -0.0044519636 -0.004864063 0.01620944
000350 99 81 df 3c db a0 0a bd d5 b1 5f 3c 46 a7 fe bb
       0.027283477 -0.03384481 0.013653238 -0.0077714054
000360 d1 9a a8 bb a6 98 b9 3c d5 48 02 bd 30 3b b3 bb
       -0.0051454087 0.022655796 -0.03180774 -0.005469702
000370 19 4b 04 bb 83 65 4f bd ed 49 36 3c d1 32 af 3b
       -0.0020186363 -0.05063392 0.011126024 0.005346634
000380 95 6b 55 bc e8 8e da 3c e4 80 67 3c 0b 74 87 3b
       -0.013026138 0.026679471 0.014129851 0.0041337064
000390 ed 71 11 3c 81 49 c9 bc 38 4a d7 b9 86 e5 a2 bc
       0.00887726 -0.024571182 -0.00041063293 -0.019884836
0003a0 71 38 34 bd 9f ce 13 bc ea c0 77 3b 54 91 56 bb
       -0.04399914 -0.00902143 0.0037804195 -0.003274043
0003b0 b5 42 e4 3b c7 cb 88 bc d7 8c cb 3b 86 8a 73 bb
       0.00696596 -0.016698731 0.006211858 -0.0037161424
0003c0 4a f5 81 bc bf 83 a0 bb 52 3f 21 bc e2 47 6c bc
       -0.015864033 -0.004898518 -0.009841757 -0.014421435
0003d0 2b c1 bb bc 42 db 01 bd e4 8e 59 bc 2f c1 0a bd
       -0.022919258 -0.03170324 -0.013278697 -0.03387564
0003e0 b9 88 41 bd e3 36 4c bd 05 b7 84 bc 19 db 22 bd
       -0.04724953 -0.04985703 -0.016200552 -0.03975973
0003f0 3f 84 d7 bb af 6a 51 bc 19 a5 b7 bb 97 09 03 bd
       -0.0065770443 -0.012781783 -0.005604398 -0.031991567

bn1.running_var f4 [256]
000000 28 92 34 3f 2c a5 3c 3f f4 fb a8 3f e9 7b d0 3f
       0.70535517 0.7368953 1.320189 1.6287814
000010 20 8f 3f 3f 50 64 4a 3f df 7f d5 3f cb 7d 55 3f
       0.74827766 0.79059315 1.6679648 0.8339507
000020 9d b9 16 3f 90 cd 22 3f 42 28 b8 3f 75 8f 31 3f
       0.58876973 0.63594913 1.4387286 0.69359523
000030 85 ae 9f 3f b3 1d 17 3f 1b ae 3b 3f 78 f0 57 3f
       1.2475134 0.5902969 0.7331254 0.843513
000040 ee cf 49 3f 20 3d 83 3f c3 9b 38 3f 1b c7 11 3f
       0.788329 1.0253029 0.72112674 0.56944436
000050 5c 32 31 3f 73 0f 3d 3f 92 13 8b 3f f0 c9 2c 3f
       0.6921747 0.738517 1.0865347 0.6749563
000060 42 89 38 3f 56 3a 9d 3f b0 80 69 3f 7f ce 82 3f
       0.7208444 1.2283428 0.91211987 1.0219268
000070 a2 58 6c 3f b9 d5 94 3f 0f f2 93 3f b8 9f 66 3f
       0.9232274 1.1627723 1.1558245 0.9008746
000080 69 2b 2d 3f ac db 96 3f 63 53 36 3f e4 30 9f 3f
       0.67644364 1.1785789 0.7122099 1.2436795
000090 ac b1 75 3f 56 13 4f 3f e1 76 23 3f 15 75 87 3f
       0.9597423 0.8088888 0.6385327 1.0582606
0000a0 11 f8 27 3f 8b bc 4b 3f 17 18 02 40 18 68 92 3f
       0.65612894 0.7958457 2.0327203 1.1438017
0000b0 5b ea 6d 3f f2 c9 bf 3f 9a 55 3e 3f c3 1b 7f 3f
       0.92935723 1.4983504 0.7434937 0.99651736
0000c0 3b 2e 6c 3f 65 03 78 3f 08 1a 9e 3f 6c 77 87 3f
       0.9225804 0.9688018 1.2351694 1.058332
0000d0 94 48 9c 3f ea ba 72 3f 6c db 68 3f d6 d6 8c 3f
       1.2209649 0.9481646 0.9095981 1.1003063
0000e0 50 98 b1 3f b3 37 8b 3f 2e fc 3f 3f 5c 65 89 3f
       1.3874607 1.0876373 0.7499417 1.0734057
0000f0 2e 2a 3d 3f 25 cb 46 3f ab e4 1b 3f 38 e1 39 3f
       0.73892486 0.77653724 0.60895795 0.7260928
000100 cb f9 37 3f b2 a8 0d 3f e6 a4 61 3f 87 6d 98 3f
       0.7186553 0.55335534 0.8814224 1.1908425
000110 af c8 45 3f 8b af 66 3f 4b 0f 6a 3f 21 e5 33 3f
       0.77259344 0.9011161 0.91429585 0.702715
000120 44 22 69 3f 94 7f 51 3f 48 f4 2a 3f 01 b2 b6 3f
       0.9106791 0.81835294 0.66778994 1.4273072
000130 f3 6b 86 3f b6 e7 24 3f f4 7e 56 3f 9c 5c bd 3f
       1.0501693 0.6441606 0.83787465 1.4793887
000140 7c 9a 4a 3f 39 72 3b 3f 44 4d 37 3f 6a 48 60 3f
       0.79141974 0.73221165 0.71602273 0.87610495
000150 c8 44 50 3f 4f c5 61 3f 41 05 df 3f bc 3b 1a 3f
       0.8135495 0.88191694 1.7423478 0.602474
000160 2e ee 53 3f 92 2b 1a 3f ee 1b 8a 3f 14 15 2d 3f
       0.8278531 0.60222733 1.0789773 0.6761029
000170 6b 87 dd 3f b0 22 b8 3f 55 5c 25 3f bf ed 9b 3f
       1.7306951 1.4385586 0.6459401 1.2181929
000180 02 41 1b 3f d5 7a 3a 3f 69 e2 51 3f 23 0b 35 3f
       0.6064607 0.72843677 0.819861 0.7072012
000190 61 36 49 3f 69 29 3b 3f a6 55 48 3f 49 ca 59 3f
       0.785986 0.7311006 0.7825569 0.8507429
0001a0 a4 bf 68 3f 74 3b 3b 3f 61 c7 61 3f 40 ae 43 3f
       0.9091742 0.73137593 0.88194853 0.7643776
0001b0 94 59 8a 3f 52 f5 55 3f d8 7c 0e 3f 38 83 e4 3f
       1.0808587 0.83577454 0.55659246 1.7852545
0001c0 8b 66 28 3f cd dc 1d 3f a2 fe 62 3f 03 a2 4b 3f
       0.6578147 0.6166504 0.8866979 0.79544085
0001d0 ed ed 2e 3f 77 35 27 3f 8d a0 91 3f ba 13 6e 3f
       0.68331796 0.65315956 1.1377121 0.9299885
0001e0 4a 1b 49 3f e4 b0 46 3f 8b 58 73 3f ca ab 23 3f
       0.78557265 0.77613664 0.9505698 0.63934004
0001f0 43 d0 4b 3f a9 5d 50 3f b9 fa 46 3f d0 e6 65 3f
       0.7961466 0.81392914 0.7772632 0.89805317
000200 88 72 4e 3f a5 8f 41 3f 23 17 8d 3f fb c5 6c 3f
       0.8064351 0.7560981 1.1022686 0.92489594
000210 f0 b9 d8 3f f2 c1 8f 3f c5 f8 e0 3f 0e 10 48 3f
       1.6931744 1.1231062 1.7575918 0.781495
000220 a9 5e 67 3f 48 f6 3b 3f 74 df 5d 3f f9 82 3d 3f
       0.90378815 0.7342267 0.8666909 0.74027973
000230 43 be 9f 3f 23 9f 52 3f c6 bf 62 3f bd b3 55 3f
       1.2479938 0.82274073 0.88573873 0.83477384
000240 fb 7a 9f 3f 6a 33 9b 3f a3 52 6e 3f 47 eb 1e 3f
       1.2459406 1.2125065 0.93094844 0.62077755
000250 48 06 f6 3e fe 83 b2 3f a9 2a 02 3f 13 f9 78 3f
       0.48051667 1.3946531 0.50846344 0.9725506
000260 26 8a 44 3f 71 b9 91 3f d6 1f 4e 3f e4 34 79 3f
       0.767733 1.1384717 0.8051733 0.9734633
000270 17 88 04 3f 51 20 88 3f 69 ed 5d 3f c7 a7 99 3f
       0.51770157 1.0634862 0.86690384 1.2004327
000280 73 7f 67 3f dc 25 88 3f 90 7f 45 3f b6 49 2b 3f
       0.9042885 1.0636554 0.7714777 0.6690935
000290 78 85 7a 3f 20 06 5b 3f 35 18 5a 3f 66 a6 b2 3f
       0.9785991 0.8555622 0.85193187 1.3957031
0002a0 1d 92 59 3f c0 50 03 3f 77 e0 8b 3f bc 9f 5b 3f
       0.84988576 0.5129509 1.0927876 0.8579061
0002b0 d0 b1 5d 3f af f7 44 3f f4 00 56 3f 94 43 47 3f
       0.86599445 0.76940435 0.83595204 0.7783749
0002c0 d1 db 8b 3f d2 b6 7f 3f 80 06 9d 3f 1e 14 4d 3f
       1.0926458 0.99888337 1.2267609 0.8010882
0002d0 5c aa 8c 3f 2f e1 36 3f 57 e1 57 3f 53 0b 1e 3f
       1.098949 0.7143735 0.84328216 0.6173603
0002e0 5a ce 20 3f f6 c8 93 3f 08 33 87 3f 3f 58 9a 3f
       0.6281487 1.1545703 1.0562449 1.205818
0002f0 ee 51 73 3f b2 e5 53 3f 05 09 80 3f d0 f1 87 3f
       0.9504689 0.8277236 1.0002753 1.062067
000300 fe e2 0e 3f b8 7f 47 3f b8 71 bc 3f f1 01 35 3f
       0.5581511 0.7792926 1.4722204 0.7070609
000310 28 04 51 3f 9c 84 a2 3f 8b 86 21 3f 2a 27 cb 3f
       0.81646967 1.2696719 0.6309592 1.5871327
000320 cc 6d c1 3f 5f e8 c3 3f 50 1d 16 3f 87 2d 85 3f
       1.5111632 1.5305289 0.5863848 1.0404519
000330 1f d1 3e 3f ab b5 47 3f 3d 34 2b 3f 77 9f 49 3f
       0.74537843 0.7801158 0.66876584 0.7875895
000340 22 72 60 3f a9 d2 87 3f 14 9d 41 3f 0f 21 55 3f
       0.8767415 1.0611163 0.7563031 0.8325357
000350 07 0e 4e 3f 2d 4c 7a 3f 89 6b 2c 3f 09 c7 e5 3f
       0.80490154 0.97772485 0.67351586 1.7951366
000360 5c b4 4f 3f a6 bb 4d 3f b5 ea 91 3f 13 3c 43 3f
       0.8113458 0.80364454 1.1399752 0.7626354
000370 3c bc 59 3f f9 30 95 3f 81 99 7e 3f 67 71 66 3f
       0.8505285 1.165557 0.9945298 0.9001679
000380 fa 48 80 3f 2e 10 65 3f 1d e8 b2 3f b4 fb 91 3f
       1.0022271 0.89477813 1.3977085 1.1404939
000390 ca 14 5c 3f 18 77 5a 3f 3c ad 48 3f 81 f3 5b 3f
       0.8596922 0.8533797 0.78389335 0.8591843
0003a0 2f df 65 3f d9 c1 2c 3f cd 9c 85 3f 3f 80 12 3f
       0.89793676 0.6748329 1.0438477 0.5722694
0003b0 90 7c 8a 3f 46 94 5b 3f cc bd 0d 3f a3 97 2e 3f
       1.0819263 0.8577312 0.5536773 0.6820013
0003c0 41 d7 10 3f 37 58 35 3f 64 0a 1f 3f 56 a1 2b 3f
       0.5657845 0.7083773 0.6212523 0.67043054
0003d0 0c 44 60 3f 5f 21 6a 3f 62 02 35 3f 80 40 7d 3f
       0.8760383 0.9145717 0.7070676 0.98926544
0003e0 e4 9c 38 3f bf fe 87 3f ba ff 4a 3f df 96 8c 3f
       0.72114396 1.0624617 0.7929646 1.0983542
0003f0 e4 63 13 3f 98 b1 45 3f 87 17 36 3f e6 94 a9 3f
       0.57574296 0.7722411 0.7112965 1.3248565

fc2.weight f4 [128, 256]
000000 51 05 0d 3e 9e 95 20 bd e3 a1 10 be fc 3e a7 bd
       0.1377156 -0.039205186 -0.14124255 -0.0816631
000010 a5 bb ce bd a8 b3 52 3e e5 b5 fa bc 7e 5c a8 3d
       -0.10094384 0.20576346 -0.030604312 0.082207665
000020 98 b8 86 3d 10 83 56 3e 06 17 0e 3d 88 93 62 3d
       0.06578177 0.20948434 0.034689926 0.055316478
000030 68 18 a7 bd ac e3 24 3d 76 69 a2 3d ba 60 19 3e
       -0.08158952 0.040256187 0.07930271 0.14978305
000040 75 de 94 3d 4c 77 e6 3d fd 8a 68 bd ce 3c 19 3e
       0.07268993 0.11253223 -0.056773175 0.14964601
000050 64 32 12 3c d9 05 20 3e c0 3d 87 bd 80 7a a3 bd
       0.008923147 0.1562723 -0.06603575 -0.079823494
000060 c3 ee ce 3d fa 67 ec 3d a9 fe a0 3d 5e 3a 60 3d
       0.10104134 0.115432695 0.078610726 0.054743163
000070 20 bb 1c 3e b9 8b d1 bd 1b 75 f5 bc 41 fa 07 be
       0.15305758 -0.10231728 -0.029963067 -0.13279058
000080 0a 18 05 3e 01 0f 66 3d e2 17 8a 3d b6 2a b9 bd
       0.12997451 0.056166653 0.067428365 -0.090413496
000090 36 d0 35 3d 50 db 84 bc 84 11 27 3d b4 cd 4a bd
       0.04438802 -0.016217858 0.04078819 -0.04951258
0000a0 ee 40 26 3d 18 ae f5 3d f0 6b e2 bc fe 09 3f bd
       0.040589266 0.119960964 -0.02763936 -0.04664039
0000b0 04 68 b6 bb d6 e1 26 be 6b d5 00 3e cf 1c 7c bd
       -0.005566599 -0.16297087 0.12581412 -0.06155091
0000c0 c5 17 4d bc ea db f4 bc 18 18 56 be 34 4d aa 3b
       -0.012517874 -0.02989002 -0.20907629 0.0051971916
0000d0 0b 29 12 bd 8c 9d 2f be 3a 17 1b 3d 09 75 07 be
       -0.035683673 -0.17149943 0.037863947 -0.13228239
0000e0 37 5f df 3d 46 db 47 bb d2 d1 60 3d 32 88 98 3c
       0.10906833 -0.0030495687 0.0548876 0.01861963
0000f0 22 9c fc 3d 1e 86 04 be 39 9d ce 3a 69 e3 b4 3d
       0.123344675 -0.12941787 0.0015763409 0.088324375
000100 3b 59 99 3c 60 34 82 3d ed 8e 37 be 92 53 47 3d
       0.018719306 0.06357646 -0.17925616 0.048663683
000110 36 47 16 3c f4 de d5 3d 09 63 e0 bc ed 0f 8d 3d
       0.009172251 0.104429156 -0.027390974 0.06887803
000120 28 e2 5b bc f0 81 f7 bb ca fe 71 bb 16 bf 40 bb
       -0.013420619 -0.0075533316 -0.0036925548 -0.002941077
000130 c3 22 fc 3d cf 9a 10 3e 89 b9 d4 3d 25 c9 47 bd
       0.12311318 0.14121555 0.103869505 -0.04877581
000140 05 fa ae 3d cc c7 9a 3d 17 0a 9e ba 46 7f 35 3d
       0.08543781 0.075576395 -0.001205745 0.04431083
000150 2a 09 e2 bd f9 2d ef 3c 8d ea 8b bd 4e 87 5d 3d
       -0.11036904 0.029196726 -0.068318464 0.054084115
000160 67 75 10 3e 00 94 85 3d 72 9d 2a bd a4 f3 ea bb
       0.14107285 0.065223694 -0.041654058 -0.0071701575
000170 e3 55 a2 3d 3d d9 44 bc e3 be 62 bd 75 bb 0f 3d
       0.07926538 -0.012014684 -0.055357825 0.035090882
000180 1f 35 d5 3d 7a ee fa 3c 68 53 6a 3c e3 0c fe 3c
       0.10410523 0.030631293 0.014302112 0.031012004
000190 1f f4 cf 3d 93 91 a6 3d dd a2 be bd 0f 9a b5 bb
       0.10153984 0.08133235 -0.093084075 -0.005542047
0001a0 b2 2c 87 3b 17 2a c5 3d c1 5c 90 bb 5e 1b 06 3d
       0.004125201 0.096271686 -0.0044055884 0.032740943
0001b0 c4 85 83 3d d1 7b 18 be 34 cf 38 bc dd 28 7c bd
       0.06421998 -0.14890982 -0.01127987 -0.061562408
0001c0 d3 54 da bc 5e bc 8b bc 78 fd 08 bd dc a4 a0 bd
       -0.026651775 -0.017057594 -0.03344485 -0.078439444
0001d0 ab 21 d8 3d d3 12 46 3d bf 93 01 be 0e ef de 3a
       0.10553297 0.048357796 -0.12654017 0.00170085
0001e0 ec 01 94 bc 5a e6 d5 3a f2 fe 0b 3d b5 ea 4b 3c
       -0.018067323 0.001631926 0.03417868 0.012446095
0001f0 56 52 95 3d 8a 00 c6 3c 92 2c 00 bd e2 43 e3 3c
       0.07291095 0.024170179 -0.031292506 0.02774233
000200 a0 50 68 3c fa bd 60 bd ff d9 bc 3c 83 9c cd 3d
       0.014179379 -0.054868676 0.023053167 0.10039618
000210 75 b0 91 bd b4 93 7e bd ce 58 17 bd 97 53 27 3d
       -0.07113735 -0.06215258 -0.036949925 0.0408512
000220 eb 4c 38 3d 3c 03 a6 bc aa 5e 93 bc 06 47 e4 bd
       0.04499523 -0.020265214 -0.017989475 -0.11146359
000230 50 5c b3 bd 81 99 4a 3c 3b 11 e7 bd 1d d4 07 3d
       -0.087578416 0.0123657 -0.11282583 0.03316127
000240 10 2f 15 bd 5a 0a ea bc 39 6e af bd ef 54 0e 3e
       -0.036421835 -0.02856939 -0.08565945 0.13899587
000250 79 6f 2d 3d 67 3a f5 3b f5 b2 28 3c aa 6d 06 be
       0.042342637 0.0074837687 0.010296573 -0.13127771
000260 f2 71 da bc a8 8a 13 bd 12 41 37 3e fa 18 ae 3c
       -0.026665661 -0.036020905 0.17895916 0.021252144
000270 4d b1 d6 bd cd 12 20 be c4 92 ca 3c d5 98 5a 3d
       -0.10483036 -0.15632172 0.024728186 0.05336841
000280 64 ef 6d 3d 35 a1 5f 3d 78 84 2c be f1 c1 9f 3d
       0.05808963 0.0545971 -0.16847408 0.07800663
000290 39 fd b2 3d 21 71 68 3d 17 c9 13 bd 9c c4 17 3e
       0.08739705 0.056748513 -0.036080446 0.14821094
0002a0 31 4a 2d bd 81 92 c1 3d 60 8f 01 be 68 00 f3 bb
       -0.042307083 0.094517715 -0.1265235 -0.00741582
0002b0 70 6d 8d 3d f2 81 be bd 40 b5 ec 3d d1 cd 1f be
       0.06905639 -0.09302129 0.11558008 -0.15605856
0002c0 35 4b c3 3d 5c 73 9f bd d3 49 1d 3d e8 4c dd bd
       0.09535829 -0.07785675 0.038400482 -0.10805684
0002d0 1f 76 65 3b 2b 95 4d 3e 39 44 61 3d b1 aa db 3d
       0.0035013033 0.20076434 0.054996703 0.10725916
0002e0 62 1e 46 3d 75 94 c3 3c 81 cc 97 bd c0 76 9c 3d
       0.04836882 0.0238745 -0.07412053 0.07639837
0002f0 ce 42 87 3d 54 f2 41 bd 23 4a 38 be ca a4 54 bd
       0.06604539 -0.047350243 -0.17997031 -0.051914968
000300 53 c1 1c bd 90 04 ca 3b 4f c2 22 3d 4c 90 3a bd
       -0.038270306 0.0061650947 0.03973609 -0.04554777
000310 52 23 06 be e6 0d b9 3b 56 81 cc bc c3 03 b6 3d
       -0.13099411 0.005647409 -0.024964016 0.08887436
000320 17 64 8a bd 95 39 36 3e 67 8e 8f 3d 3b b8 6b bd
       -0.06757372 0.17795403 0.07009583 -0.057548743
000330 5f 15 74 3c 41 3d aa 3d 02 f8 ee 3d 61 d5 74 bd
       0.014897673 0.083124645 0.116683975 -0.059773806
000340 6a d8 ca bd 4c 06 40 3d 4e 25 62 bd fb 0e a4 3c
       -0.09904559 0.046881005 -0.055211358 0.020026674
000350 1d 72 8c 3d 5e 2f a3 3d 66 d0 12 3d 1b d2 38 bd
       0.06857703 0.07968019 0.035843275 -0.045122247
000360 e5 66 5f 3c c1 05 8e bd 6a b1 e1 bc 75 2c 40 bd
       0.013635372 -0.06934691 -0.027550418 -0.046917398
000370 1e 26 39 be 3d 5f d4 3d f4 65 2d bd 52 d5 c8 3c
       -0.18080947 0.10369728 -0.04233356 0.024515782
000380 f8 c2 1d 3e 85 86 15 be 45 82 75 3d ae 81 b4 3b
       0.15406406 -0.14602096 0.059938688 0.005508623
000390 ff f5 0e 3d 9a 74 fc ba d0 18 c5 bd b9 e2 f9 3d
       0.03490257 -0.0019260824 -0.09623873 0.12201447
0003a0 08 f8 97 bc 24 c3 a7 3c 71 77 71 3d b4 7e ac bd
       -0.018550888 0.020478792 0.0589518 -0.08422604
0003b0 d2 54 fa 3d 7c c7 a1 3d 46 36 0d bd 95 f3 07 3e
       0.122232094 0.07899377 -0.034475587 0.13276513
0003c0 aa b1 1d bd f3 0c cf 3d 88 44 d6 bb 23 10 8b 3d
       -0.03849951 0.10109892 -0.0065389313 0.06790187
0003d0 49 71 e3 bd c7 61 d0 3d ba 90 c1 3c 0c 87 13 3a
       -0.11105592 0.101748995 0.023628581 0.00056277285
0003e0 9c ec ba 3c 49 0a b1 3c 4c 8f 3c bd 82 9e 8d bd
       0.022817902 0.02161135 -0.046035096 -0.069149986
0003f0 b4 d9 3d 3c 5a 0f 6d 3b 58 86 d8 3d 46 e5 1f bd
       0.011587549 0.003617248 0.10572499 -0.03903701
