models/classifiers/MLP2_RPA_BERT_bm.pth (torch, 296516 bytes, 19 tensors)

fc1.weight f4 [256, 113]
00000000: 73f3 db3c a2b0 07be caad 833d 89c2 9dbd
00000010: a231 55bd e0f5 8dbd 96c3 edbc 058a fd3c
00000020: 9322 fbbd b639 4c3d a2f1 9a3c 1697 a4bd
00000030: cf46 2e3d 303f a4bd e148 303c 7749 213d
00000040: 15c6 a9bd 42a8 6cbd bc6b ae3d f63a eabc
00000050: d22f 6f3d 0066 433d 08ca 1cbc e0fd 1a3d
00000060: 9335 5f3d 1282 a13c eb53 db3c 2508 763d
00000070: 8aff 333d a54b 093d e1e8 c83d 0ae0 3e3c
00000080: 7e16 a7bd f445 3ebd 782f b0bd 3675 b2bd
00000090: 4ba6 583d 21e0 363d d2e8 a33d 4f84 083d
000000a0: 02e1 193d 3886 4c3d a6d2 b43d 2be6 933b
000000b0: 9088 843d 8da9 733d c9ee 9abc 21af bf3d
000000c0: 9898 303d 3d80 c83d 8775 f7bc 549f 47b8
000000d0: 5300 17bd 1c92 42bd 800e 4fbd 40db b9ba
000000e0: d045 09bd fde3 863d 8fc4 febc 9a58 673d
000000f0: 5bf8 a6bd d95b 5fbd 4b1c 763c 0598 fbbd
00000100: 9c93 d5bd 8073 803c 2541 893d dd6d 63bc
00000110: 59d7 f43d 262e cabd c525 d1bc e0f2 80bb
00000120: 2ad0 90bd 6874 04be 9c87 fdbd 121e 61bd
00000130: 1566 6bbd cb70 dcbc 0eac 76bd c2c8 2b3d
00000140: dcb4 673c bb6a 423d 57b8 f9bc 9e10 7f3d
00000150: 144a c83d b36f 1b3d e9ba 92bd 6cce 3a3d
00000160: f77d c73c 0508 0c3e 513c 523d a916 123d
00000170: 663e 41bd 7cc6 69bd 5559 83bd b862 c7bc
00000180: 2669 34be 0996 c33d 9f0e 003c 03ca ea3d
00000190: 8039 43be f860 1dbc bfa0 d3bb 1666 5d3e
000001a0: e607 9a3c ed91 b9bd dc86 afbd c239 36bd
000001b0: 6d0b fe3e 378d b2bd f918 733c 330d f9bd
000001c0: d0ee 913b 4642 aebd 9dcb 913c 7a47 563b
000001d0: 9b7b a7bd e23f 7ebd 9fe1 1839 6808 b33d
000001e0: 4621 25be a997 d3bd df55 28bd 2f30 abbc
000001f0: 4963 ca3c 2c4a 07bd f353 a83c baac af3d
00000200: 0909 efbd 7a58 bf3d 0fab c0bd 0cec 8ebd
00000210: c650 c0bd b58e 0f3e c2d0 9c3d 8532 393d
00000220: 2773 973d 52e1 3dbb cff0 ce3c 7860 de3d
00000230: 5dfc 923d 5c84 cd3b c103 a4bd ade7 d9bb
00000240: a227 993d 999a 1abe ff9e 09bc 217f d83d
00000250: 0082 093d b2e6 fd3d 1d9e 20bc b6d9 fd3b
00000260: 2a85 dd3c aedc fe3d 71d0 fb3d c92e b8bd
00000270: c60a 9e3a 595e f63c 182e 843d 849f 74bc
00000280: b3dd 913d 2b1c a6bd a6e7 f93c 5def aebd
00000290: 4793 07bb ea88 4eba c1ce 853d 43dc 68bc
000002a0: 6708 3fbd 83aa 9d3d 99ac eebc 6df8 dabd
000002b0: d258 b33d d61d 9c3d 1cae 7dbb fc68 bebc
000002c0: 7cda a83c 9753 c93d 4838 c1bd ad9c 81bc
000002d0: a06f 1a3e 4b3f 64bd 0d91 8ebd efbe 213d
000002e0: 3f60 d93d abc7 5abd b2d8 0ebd 4dcf 33be
000002f0: 0129 ddbc 1bcb 043d 9bb2 0dbe 10a5 32be
00000300: 8a51 7d3d 2453 823d 9034 24be 0b7b e83d
00000310: 4882 963d a3e9 3c3e 1fbf 27be af73 82bd
00000320: 8938 bfbc 9325 98bc 0ddf a33c 945d fbbd
00000330: 3d7b fdbd 71e0 8dbd 3f5b c5bc 22c0 703d
00000340: 13b8 26bd 5409 843b 8f88 98bd 44ad 273e
00000350: 908d e03d e6c7 d4bb d732 83bd 6ead 8cbd
00000360: e746 5b3e c83a 373d 8d2e 89bd 5a1f 8ebe
00000370: 52de 4abe 2576 303e 4d93 2cbd bd4b b63c
00000380: 4167 03be 9b04 9ebc d744 473c 9805 743c
00000390: b6d9 783d f4eb 57bd 7306 22bd 2880 d73d
000003a0: 4cf3 cbbc 7347 0f3d b781 8cbd fc79 b4bd
000003b0: 889a 83bd d724 9e3d 1869 d83d a921 a23d
000003c0: 3e66 43bc c7d3 20bd 268b fa3c 9fa3 adbd
000003d0: c460 893a 3ca0 a63d 1b36 95bd 1d91 c33c
000003e0: 9e89 3b3d f98d 1bbe 3abb 9cbd c7ec 69bd
000003f0: 591a d2bb 6b02 bb3d 1d98 e7bd 23f5 fb3d
0.026849484 -0.13250974 0.06429632 -0.0770312 -0.052049287 -0.069316626 -0.029023927 0.030949602
-0.12262454 0.049859725 0.018914048 -0.0803663 0.042547997 -0.080198646 0.010759563 0.039376702
-0.08289734 -0.05777765 0.085166425 -0.028592568 0.058395214 0.047704697 -0.009569652 0.03783977
0.05449445 0.019715343 0.026773414 0.06006636 0.043944873 0.033519406 0.09810043 0.011650095
-0.08158587 -0.04645343 -0.08602804 -0.087137625 0.052892964 0.04464734 0.08003391 0.033329304
0.0375681 0.04993269 0.088292405 0.004513522 0.0647136 0.059487868 -0.01891269 0.09359575
0.043114275 0.097900845 -0.030207409 -4.7593683e-05 -0.036865544 -0.047502622 -0.050550938 -0.0014179721
-0.033513844 0.06586454 -0.031099586 0.05648098 -0.08152839 -0.054530952 0.015021394 -0.12284855
-0.10428545 0.015680075 0.067018785 -0.013881174 0.11955137 -0.09872083 -0.025530705 -0.003935203
-0.07070954 -0.1293503 -0.12379381 -0.054960318 -0.0574704 -0.026909253 -0.060222678 0.041939504
0.014142241 0.047465067 -0.030483408 0.062271707 0.09779754 0.03794832 -0.071645565 0.045607015
0.024352057 0.13674934 0.051327053 0.03566614 -0.04717865 -0.057074055 -0.06413523 -0.024339065
-0.17618236 0.09550101 0.007815986 0.11464312 -0.19064903 -0.009605639 -0.0064583714 0.21620974
0.018802594 -0.09061036 -0.08570644 -0.044488676 0.49618092 -0.08718341 0.014837497 -0.12160721
0.0044535175 -0.085087344 0.017797286 0.0032696412 -0.08177873 -0.062072642 0.000145799 0.08741838
-0.16125974 -0.10331661 -0.041097518 -0.020897 0.024705546 -0.03302972 0.020547843 0.08577867
-0.11671645 0.093430474 -0.09407627 -0.06978616 -0.09390406 0.14019282 0.07657005 0.045214195
0.073950104 -0.0028973413 0.02526131 0.10858244 0.07177041 0.006271882 -0.080085285 -0.0066499324
0.074782625 -0.15098037 -0.008399724 0.10571123 0.033571243 0.12397517 -0.009803322 0.0077469004
0.027041037 0.12444435 0.122956164 -0.089932986 0.0012057654 0.030074285 0.06454104 -0.01493061
0.07122364 -0.08110841 0.030505966 -0.08541749 -0.002068715 -0.0007878678 0.06533576 -0.014212671
-0.046638872 0.07698538 -0.029135035 -0.10691915 0.087571755 0.07622878 -0.0038708514 -0.02324342
0.020611994 0.098303966 -0.09434563 -0.01582178 0.15081644 -0.055724423 -0.0696126 0.03948873
0.106140606 -0.053413074 -0.034874626 -0.17559548 -0.026997091 0.03242026 -0.13837664 -0.17445779
0.06184534 0.06363514 -0.16035676 0.113515936 0.07349068 0.184485 -0.163815 -0.06369721
-0.023342388 -0.018572604 0.02000382 -0.12273708 -0.123770215 -0.069275744 -0.024091361 0.058776982
-0.04070289 0.0040294323 -0.074479215 0.1637469 0.10964501 -0.0064935563 -0.06406181 -0.068690166
0.21413766 0.044733793 -0.06698332 -0.27758294 -0.19811371 0.17232569 -0.042132664 0.022252912
-0.12832357 -0.019289305 0.012162409 0.014893912 0.0607545 -0.052715257 -0.03955693 0.10522491
-0.024896286 0.03498025 -0.06860679 -0.08812329 -0.06425959 0.077218704 0.1056692 0.079165764
-0.011926232 -0.039264467 0.03058393 -0.08478474 0.0010481109 0.08136031 -0.072857104 0.023872906
0.04578554 -0.15190877 -0.07652898 -0.057110574 -0.0064118323 0.091313206 -0.1130831 0.123026155

fc1.bias f4 [256]
00000000: a5af 7b3b d272 a73b c1fc 2f3b f1a9 8fb9
00000010: de71 663a 2cd2 403b a698 d6bb 9a0a 143a
00000020: a055 9239 ff9e a7ba 905d ba3a cac2 c3ba
00000030: c930 4cbb bd2b a5bb 1f9c 363a d939 a33b
00000040: a9d3 3a3a 23cd 4fb8 3346 703b 7bc3 f23a
00000050: d03f 42bb 79c8 61ba 3183 5b3b a703 22bb
00000060: b66f fbba e73c bcbb 43a4 5fba be90 423a
00000070: 760d afba 0953 f539 15de 7a3a 9581 15ba
00000080: 6ab8 2d3b 5b1e ac39 ca37 40b9 59f4 beba
00000090: 3a08 e23b 132d 85b9 1ab9 a339 0731 d2ba
000000a0: c808 27ba cb5d cdba 039a e13a 1326 b03b
000000b0: d901 25bb 1804 d339 025c 8e3b e2b6 bc3a
000000c0: 96dc 95ba 7ab3 91b9 9464 fdba 8778 ca3b
000000d0: c9d2 34bb a882 f3bb d3dc 373b 245f c43a
000000e0: b834 86ba f42c 8c3b fd0b a03a 70b5 4e3a
000000f0: f818 603a 6e03 0eb8 0979 64ba 9d53 643b
00000100: c429 27ba 1d8e 903a 6755 c53a dfa0 0a38
00000110: 2b73 df39 fcf6 7e3b c06c a93a c5dd aa3a
00000120: 2c88 083a 0cbe e53a 526d 923c 64e2 67bb
00000130: f637 4c39 ae19 073c 3f6a 3fbb e6c9 47bb
00000140: e822 9ebb 1200 593a 08a0 7cba 9a89 c13a
00000150: 3aa9 84ba 1306 863a f4e2 e23a 77b9 00bb
00000160: 3f08 5f3a 7cb2 70ba ee14 283b 586f 8539
00000170: 90ee 823a 8855 99ba 5faf edba 38ff b03a
00000180: 5dc9 923b 0e66 873b d3fa bbbb 600e 9a3a
00000190: 4780 783b b8ac 6a3b ec3b 8c3b a7b4 1dbb
000001a0: 0592 ccba 8b45 613a 2d36 a3ba a4d3 873a
000001b0: e81c dfb9 15b7 bb3a c941 b03b b8a0 6b3a
000001c0: 2397 043a f3a3 9abb 782f 44bb bc66 d0ba
000001d0: baed 9dbb 988c 16bb 241c 89ba d97c 283b
000001e0: fd1a a23b 95a9 d23a 7d8e d1ba 15b1 343b
000001f0: 15e8 623a 8e68 28bb e5e6 173a b8d4 a4ba
00000200: 0499 873b bd06 3c3b f815 afbb 2706 213b
00000210: b847 e63a 7875 573a 3eb0 8dbb f7ff fbba
00000220: 74e3 84ba f706 39bb 57d2 4cbb 7b53 483b
00000230: ff5a b43b 79c6 57bb 7569 1b3b 8ea3 a63a
00000240: 9f7b 73bb 096d ffba 2712 9b36 11f8 b0ba
00000250: c9da 8fbb c375 62bb dce7 e8bb a4e9 65bb
00000260: 16bf 853b 8de7 b23a 478a ed39 a00a 97bb
00000270: 1993 e0ba fbfe 423b 681e 063b 3e07 113c
00000280: 20bd 0c3a b512 acba 5bef 9139 ec90 6c3b
00000290: 737a 6dbb f1c0 fa37 aef3 e4bb bc07 f039
000002a0: 7503 07b9 42e6 d8bb be2b 4339 d749 1c3a
000002b0: 7756 003c 8b02 afbb 25aa e6b9 5f26 4c3b
000002c0: ce20 173b fd8c 10bb 27a1 463b 6b38 043c
000002d0: 8bfb 04bc 0d5d 543b 793c 61bb d056 0dbb
000002e0: d048 80b9 aa78 533b adca 01ba fda0 36ba
000002f0: 0593 f93b 5301 35bb 1e64 373b 5b75 353a
00000300: a205 42bb d5d1 693b e4d3 88b6 ae4f 74bb
00000310: 9205 8aba 41a2 353b 9918 0dbb 321a cd3a
00000320: 5b3a 113a 6e91 7938 2bee e0ba 6ad2 c53a
00000330: 1e72 7b3a 5aa8 44ba 2856 a8ba 4059 14bb
00000340: 9f2d 313a cb53 b43a cd1b 9dba 0c78 9a3a
00000350: c57f 403a 8cd9 07bb 3a10 5f3b 0b82 433b
00000360: 1c65 1a3b d5ae aa3a b2d8 98b9 f4ee 22bb
00000370: 9c8f 04ba 0146 4aba af3c df39 ecde 623a
00000380: 3f8d 593a 47a8 d038 4831 563b 42bd 25b9
00000390: 3e3e 19bb b45c 913a 9750 aeb9 4e67 3e3a
000003a0: fb89 283b 9cb9 a4ba d910 96bb 4af1 253c
000003b0: 64b0 bc3b 3baf 5139 d02a 94bb 5c6b a13a
000003c0: 2508 c03a ff0f 13bb f446 893b a8fc 043b
000003d0: e6d4 81bb dcd5 803b 92d0 21ba 6bef 3eba
000003e0: b3ef 57bb eb94 f33b 192d 083b 3708 1dba
000003f0: b032 1cba 32f0 4fba 088b 9fb8 febf 03b9
0.0038404253 0.005110123 0.0026853534 -0.00027401702 0.0008790771 0.0029422147 -0.006548959 0.0005647332
0.00027911086 -0.0012788473 0.0014218558 -0.0014935371 -0.0031157008 -0.0050406144 0.0006966013 0.004981261
0.0007126877 -4.9543694e-05 0.0036662936 0.0018521392 -0.0029640086 -0.00086129416 0.0033494944 -0.0024721415
-0.0019183073 -0.005744565 -0.0008531252 0.0007422081 -0.0013355452 0.00046791908 0.0009569836 -0.0005703208
0.0026507624 0.00032829013 -0.0001833133 -0.0014568671 0.0068979533 -0.0002540132 0.00031227694 -0.001603634
-0.0006371853 -0.0015668211 0.0017212037 0.0053756326 -0.0025178103 0.00040248106 0.0043444643 0.0014397765
-0.0011433538 -0.00027790276 -0.0019332343 0.0061789188 -0.0027591458 -0.007431347 0.0028055205 0.0014981967
-0.00102391 0.00427782 0.0012210604 0.00078853127 0.00085486425 -3.3858632e-05 -0.00087155454 0.0034839876
-0.0006376768 0.0011028681 0.0015055359 3.3051587e-05 0.0004261968 0.0038904538 0.0012926087 0.0013036063
0.00052082795 0.0017527952 0.017874394 -0.0035382742 0.00019475803 0.008245869 -0.0029207615 -0.003048533
-0.0048259385 0.00082779035 -0.00096368836 0.001476574 -0.0010121234 0.0010225199 0.0017310069 -0.0019641796
0.00085080037 -0.00091818697 0.002564724 0.00025450694 0.000998931 -0.0011698464 -0.001813393 0.0013503795
0.004479571 0.004132039 -0.0057366877 0.0011753552 0.0037918256 0.0035808515 0.004279604 -0.0024063976
-0.0015607482 0.00085934316 -0.0012452059 0.0010362756 -0.0004255541 0.001432153 0.005378936 0.00089884875
0.00050579215 -0.0047192513 -0.002993552 -0.0015899758 -0.004819599 -0.0022971984 -0.0010460657 0.002570918
0.004947065 0.0016072268 -0.0015987899 0.002757137 0.0008655799 -0.0025697085 0.0005794599 -0.0012575602
0.004138114 0.002869054 -0.005343195 0.0024570317 0.0017568981 0.00082191033 -0.004323988 -0.0019226064
-0.0010138587 -0.002823291 -0.0031253302 0.0030567336 0.0055040116 -0.0032924695 0.002371398 0.0012713538
-0.0037152541 -0.0019487451 4.621473e-06 -0.0013501664 -0.004390095 -0.0034555055 -0.007107718 -0.0035081888
0.004081617 0.001364933 0.00045307187 -0.004609421 -0.0017133682 0.002975403 0.00204649 0.008851824
0.0005368758 -0.0013128134 0.0002783489 0.0036097122 -0.0036236315 2.9892168e-05 -0.0069870567 0.0004578213
-0.00012875891 -0.0066192457 0.00018612944 0.0005961931 0.007833115 -0.0053408793 -0.00043995786 0.00311508
0.0023060325 -0.0022056692 0.0030308457 0.008070092 -0.008116613 0.0032404095 -0.003436832 -0.0021566637
-0.00024468312 0.0032267966 -0.00049511605 -0.0006966738 0.007616403 -0.0027619197 0.0027983258 0.00069220894
-0.0029605408 0.0035678048 -4.077783e-06 -0.0037278938 -0.0010530225 0.002771512 -0.0021529554 0.0015648066
0.00055400067 5.9501668e-05 -0.0017160823 0.0015092616 0.0009591895 -0.0007501893 -0.0012843059 -0.0022636205
0.0006758812 0.0013757882 -0.0011986435 0.0011785044 0.0007343258 -0.0020729033 0.0034036771 0.002983215
0.00235588 0.0013022075 -0.0002915315 -0.0024861665 -0.00050568 -0.000771612 0.00042579087 0.0008654434
0.00082989404 9.949557e-05 0.0032683183 -0.0001580613 -0.0023383047 0.001109025 -0.0003324791 0.00072633184
0.0025717008 -0.0012567523 -0.004579645 0.010128329 0.005758332 0.00019997072 -0.004521705 0.0012315321
0.0014650865 -0.0022439954 0.0041893665 0.0020292196 -0.003962147 0.003931744 -0.0006172742 -0.0007283601
-0.0032949268 0.007433524 0.0020778833 -0.0005990299 -0.0005958481 -0.0007932215 -7.6076074e-05 -0.00012564656

bn1.weight f4 [256]
00000000: 01ed 873f 1978 743f 31b1 883f 4dd9 883f
00000010: 8340 723f e3f3 863f 9389 863f f11b 6a3f
00000020: 60c3 8a3f 3129 8b3f b09e 613f 1288 623f
00000030: 5ffb 543f 9321 b03f b5b0 9f3f 4b75 653f
00000040: 8957 7a3f 8a19 6f3f ccaf 753f 2e6d 603f
00000050: 981f 593f 1a90 843f 474d 8f3f c71c 7e3f
00000060: d8b1 853f 6436 913f 059c 7f3f 474b 803f
00000070: 309c 843f 2075 4c3f b997 603f 1758 583f
00000080: 0f5c a03f 5fc3 473f d2da 743f 7296 8b3f
00000090: 6d86 893f 1d44 733f 0d05 633f fe41 603f
000000a0: 99c5 443f 5d85 503f 8d66 813f f415 853f
000000b0: f3aa 703f c688 573f 5de1 853f f58d 563f
000000c0: 693d 8b3f 58f6 763f c226 4b3f 9976 793f
000000d0: a621 953f f1ab 803f d4c0 723f 134a 883f
000000e0: 1c56 8a3f 2c09 643f fada 7e3f 4c04 793f
000000f0: 7a98 903f a61b 623f a256 813f f5a3 8e3f
00000100: 4c50 6f3f 7fb0 703f b16b 633f 403b 6f3f
00000110: ad9f 5d3f 3c5d 843f 3a44 6f3f 23fa 833f
00000120: f511 713f 3973 823f caf3 aa3f bc10 8a3f
00000130: 137c 7f3f addc 9d3f a0ff 533f 2903 6f3f
00000140: e4c0 9b3f 9f33 673f f4ff 573f 0922 653f
00000150: 0c6b 583f c1f2 883f e0e4 4d3f 57b3 863f
00000160: 7b6c 613f 7d04 953f 6ba2 6e3f 2c2b 633f
00000170: 9f29 8d3f 10f2 7f3f db51 823f c820 5c3f
00000180: 8a75 523f 0334 853f bec2 7f3f fea9 7a3f
00000190: 573d 603f c394 663f b4f9 963f 6547 643f
000001a0: 8769 933f 1eb0 7e3f 777f 713f e5e4 5e3f
000001b0: 851d 823f 8422 7a3f 6cfb 8c3f c630 653f
000001c0: 7965 713f 649b 693f b27d 873f 5930 833f
000001d0: a93d 853f 9536 4b3f eeb2 643f c925 623f
000001e0: 5ac6 823f 1c2c 693f d5a9 863f 89ae 7e3f
000001f0: 387f 4a3f a739 823f b0d5 733f 5319 7d3f
00000200: 8fac 773f 43e0 8b3f 7766 973f 51ab 7f3f
00000210: ea44 693f 1dff 6e3f 56be 5b3f 9f88 4f3f
00000220: 4a10 593f 5049 803f 1600 7e3f ece7 623f
00000230: 4417 963f 89be a43f 3867 643f a69c 923f
00000240: 7342 793f 70d8 713f e397 913f c5bb 8e3f
00000250: 6006 923f 908f 883f 72c6 533f 851b 6e3f
00000260: 4d15 853f 2473 5b3f d2d6 6c3f cad9 743f
00000270: 47a5 833f 19ee 833f c8e0 613f b8ee 893f
00000280: a59d 973f 1e0f 813f cca7 713f 5c65 a53f
00000290: 5f9b 643f 9157 673f 5d2c 8a3f a255 803f
000002a0: b65d 7e3f 75d4 8c3f 7239 5e3f 21b7 743f
000002b0: 9286 893f fe76 a43f e7ec 753f c202 7a3f
000002c0: 946c 6f3f 5e94 4f3f f98d 733f 8185 833f
000002d0: 9fbd b93f 51f4 943f 86cf 703f 7837 953f
000002e0: bbe2 513f 9757 763f cbe6 833f 9e7c 863f
000002f0: 49f8 823f 3df7 7a3f 2dcc 7a3f cd8f 563f
00000300: 95fc 723f 7fec 793f 68cb 503f 8e75 713f
00000310: 75e8 573f 0f3c 883f 0b2c 5b3f acbf 873f
00000320: f3a0 9c3f 2839 4b3f b6bf 813f 6400 813f
00000330: 891b 6e3f 4aae 6f3f d06c 653f 7fb1 813f
00000340: 9d90 873f aa55 a33f 5649 713f 643c 7e3f
00000350: efa4 9e3f ea89 693f 6b0c 673f a410 a63f
00000360: c2f8 6a3f ed6d 723f bf11 723f bdea 6a3f
00000370: 3367 643f 804d 8b3f 86a1 7b3f 400d 5f3f
00000380: 09d3 763f afa4 803f 31d6 5a3f b1de 903f
00000390: 70ed 603f 7d42 583f 564a 8a3f cbb4 5d3f
000003a0: de2d 983f 7e90 8d3f 9c08 723f e04e a93f
000003b0: 23b6 5d3f cd94 803f d22a 7d3f ab5c 733f
000003c0: d064 793f 5521 8f3f b4ca 833f 2dd1 883f
000003d0: d731 763f 1864 883f 62a7 8c3f c394 603f
000003e0: 0a86 463f 90b0 633f 6b09 a33f 333f 9f3f
000003f0: c370 6f3f 6b3a 933f fe1b 7e3f 3599 7e3f
1.0619203 0.95495754 1.0679075 1.0691315 0.9462969 1.0543178 1.0510734 0.91448885
1.0840874 1.0871946 0.8813276 0.88488877 0.8319606 1.3760246 1.2475802 0.896321
0.9778982 0.93398345 0.9597137 0.87666595 0.84813833 1.0356476 1.1195458 0.9926266
1.0444899 1.1344724 0.9984744 1.0022973 1.0360165 0.7986622 0.8773151 0.84509414
1.2528094 0.7803249 0.95646393 1.0905287 1.0744148 0.9502581 0.8867958 0.87600696
0.7686401 0.81453496 1.0109421 1.0397325 0.9401085 0.84193075 1.04594 0.8381036
1.0878116 0.9646964 0.79356015 0.9744659 1.1650894 1.0052472 0.9482548 1.0647606
1.0807528 0.89076495 0.9955288 0.9727218 1.1296532 0.8832344 1.0104563 1.1143786
0.934819 0.9401931 0.888362 0.93449783 0.8657177 1.0340953 0.9346348 1.0310711
0.94168025 1.0191413 1.3355649 1.0786357 0.997987 1.233297 0.8281193 0.93364197
1.216824 0.9031314 0.8437493 0.8950506 0.8453834 1.0699083 0.8042736 1.052348
0.88056153 1.1641995 0.9321658 0.8873775 1.1028327 0.99978733 1.018123 0.8598752
0.822106 1.0406498 0.9990653 0.9791564 0.875936 0.9007074 1.1794953 0.8917144
1.1516579 0.99487484 0.9433512 0.87068015 1.0165259 0.97708917 1.1014228 0.8952755
0.9429546 0.9125273 1.0585234 1.024913 1.0409442 0.7938016 0.89335525 0.88338906
1.0216782 0.9108293 1.0520579 0.9948507 0.7910037 1.0173844 0.95247936 0.98866767
0.9674768 1.0927814 1.1828145 0.99870783 0.9112078 0.9335802 0.85837305 0.8106784
0.8479048 1.0022373 0.9921888 0.88635135 1.172585 1.2870647 0.8922 1.1454055
0.9736702 0.9447088 1.1374477 1.1151053 1.1408195 1.0668812 0.8272468 0.9301074
1.0397125 0.85722566 0.9251529 0.9564482 1.0284814 1.0307037 0.88233614 1.0775976
1.1844984 1.0082738 0.9439666 1.2921557 0.8929958 0.9036799 1.0794789 1.0026133
0.9936174 1.1002337 0.86806405 0.9559193 1.0744193 1.2848814 0.9606461 0.9766046
0.9352505 0.81085765 0.9513851 1.0275117 1.4510993 1.163706 0.94066656 1.1657553
0.8198659 0.962274 1.0304807 1.050678 1.0232021 0.98033506 0.979678 0.8381317
0.9491666 0.9762649 0.81560373 0.9432 0.84339076 1.0643328 0.8561408 1.0605369
1.2236618 0.7938409 1.013663 1.0078244 0.93010765 0.9362532 0.8961916 1.0132293
1.0591007 1.2760518 0.94252527 0.993109 1.2394084 0.91226065 0.90253323 1.2973828
0.91785824 0.94698983 0.9455833 0.9176443 0.8921997 1.0883026 0.9829334 0.8712959
0.96415764 1.0050257 0.8548308 1.131796 0.878623 0.84476453 1.0803936 0.86603993
1.1888998 1.105972 0.94544387 1.3227196 0.86606044 1.004541 0.98893464 0.95063275
0.9741945 1.1182047 1.0296235 1.0688835 0.961698 1.0655546 1.0988581 0.8772699
0.7754828 0.8894129 1.2737249 1.2441162 0.93531436 1.1502203 0.9926146 0.99452525

bn1.bias f4 [256]
00000000: e681 fbbd 5b94 22be d81e d9bc 5425 95bc
00000010: 2bbd a1bd 9f74 3fbd 4c7e 08bd 0c17 2abe
00000020: 8c2d 84bd 3180 62bd 7abf 34be b213 0abe
00000030: 7a7d 16be 33be b43d 1245 18ba e3b7 9fbd
00000040: 232a 26be 5231 42be 6ea2 84bd 5104 f8bd
00000050: d174 e8bd dd7a 1fbd 8a7d 813d 043e 85bd
00000060: 2705 963c 7a64 fb3c 04de 65bd 14d2 b1bd
00000070: 3e60 a5bd 436f 5abe 283c aebd 414a 27be
00000080: 9de6 a53d 251f 38be 5251 18be 9b85 eabd
00000090: d6b7 3cbd c3c2 96bd 6031 08be a8cc 46be
000000a0: c0f6 55be 6360 3abe 808e d8bb 0eca edbd
000000b0: 54d2 09be 225b 29be f909 d4bd a3ed 25be
000000c0: ba11 283d 57e8 f3bd 3707 45be 0d92 20be
000000d0: ad35 943c 3e07 27bd e88b cabd d8aa babc
000000e0: 47be e2bd cd42 b7bd 3272 f7bd 0bc7 2cbd
000000f0: 5447 02bd 807a 00be d5f7 bc3a bb8c abbd
00000100: 9b87 e6bd b9f1 cfbd a2fd 0dbe 5f4c 20be
00000110: 59d8 15be 3eaf 3ebd f152 35be 333a 2bbd
00000120: 2a09 7abd fc6c d5bc ab2f 853d 215b bcbc
00000130: c190 95bd ed9f f3bc 347c 03be 4ec2 41bd
00000140: 8630 6bbc 4fc6 e6bd c579 19be 6652 c5bd
00000150: e59d a2bd 2d8a 25bd 1906 0bbe dc00 07be
00000160: de4d 45be 072d 073d 0044 ddbd 3dbe 25bd
00000170: 9826 5a3c 68f7 16be 63a9 04be 865d 42be
00000180: 992b 34be 944e 22bd 1ad1 d2bd 18a3 a0bd
00000190: 2f8b 1cbe 4662 13be 4d2e 02bd 7a4c 71bd
000001a0: 2a1d 20bd 10d2 c2bd d5f1 c4bd c145 03be
000001b0: 05f5 36bd af44 4dbe 6525 11bd 6c7e 26be
000001c0: f9b7 d0bd ed8a f4bd 6044 67bc f6c3 21bd
000001d0: fc4b 473b 342a 3cbe 9b81 0dbe 0d69 cdbd
000001e0: e14a 9fbd 6558 e9bd ce96 6c3c 3256 debd
000001f0: b80c 42be 477b c7bc 258b 19bd 4667 20be
00000200: 2540 febd 5f5b a3bb e64d c83a 749c 19be
00000210: e361 36be c6dc 07be 1ca0 01be 227c 0fbe
00000220: 2cdc 43be 963b c3bd 2171 ffbd 44b0 3ebe
00000230: 0e3a 7dbc 4a83 4f3d b320 d5bd 238f cabc
00000240: 3ec7 13be fdcb 03be 3adf c4ba 5c69 98bd
00000250: 1dba 4f3d ffa0 fcbd 56e6 33be c606 30bd
00000260: aefb bcbd ed97 e2bd c9ab adbd bcec 55be
00000270: 2ec9 01bd bcb2 20bd 5151 35be 45eb dfbd
00000280: 6f46 b5bd d956 81bd 79d6 06be 50f9 34bd
00000290: 9a44 16be a143 ffbd d1c8 89bd 28ab 80bd
000002a0: a6d3 e7bd ae55 24bd 65a5 eebd b937 cfbd
000002b0: cef2 d4bd 3a74 683c f2f0 98bd 2724 03be
000002c0: 0750 c9bd 9325 55be 0325 cfbd 2d19 f5bd
000002d0: 732e e63d a37c f43c 13cc 02be 908e 53bd
000002e0: 64c3 12be 01b4 c8bd 2063 10bc f476 05be
000002f0: c33c 0abd a3b1 743c 6fca 04be c957 20be
00000300: 48c0 40bc 489c e4bd 7363 83be eaf2 b7bd
00000310: 12b1 24be 4ae0 acbd e694 2fbe a6ec d3bd
00000320: e44e 94bd 72e9 0cbe d27b 01bd 53b0 9dbd
00000330: ac50 6cbd 0770 e1bc 6a3e aabd 471a 0dbe
00000340: 6ee8 25bd 5d12 3f3d 1f6f 0abe 1344 e8bd
00000350: d9f5 9f3d 194d 34be ed48 5bbe c162 0d3d
00000360: 21cd f0bd e6b6 c7bd 5f14 94bd 455f 03be
00000370: 7f81 36be 2912 76bd c99f b8bd 85a6 12be
00000380: a6c1 bcbd bbd2 8bbd f8a5 a9bd 9588 4bbd
00000390: 060a 18be f6fd 99bd 7de3 abbd 7e71 04be
000003a0: c6e4 47ba 86a2 2dbd 13e8 c7bd 1584 1cbc
000003b0: 9b62 27be 68bc f4bd 5e0f 9cbd 904e b6bd
000003c0: b793 10be bef1 b9bd 5ed3 433c b7ac 0fbd
000003d0: a98e 82bc cb5d aebd 0779 c1bd 6666 0cbe
000003e0: f6c9 27be 2a60 ffbd 2ca5 d33c a2b1 cc3c
000003f0: f822 dbbd a79d a43c 837a fcbd cafe 87bd
-0.122806355 -0.15876906 -0.026503965 -0.018206276 -0.07897409 -0.046742078 -0.03332357 -0.16610354
-0.06454 -0.055298034 -0.17651168 -0.13484076 -0.14696303 0.0882534 -0.0005808632 -0.077987455
-0.16227011 -0.18964127 -0.064762935 -0.12110198 -0.11350406 -0.03893553 0.06322773 -0.06505969
0.018313004 0.03068756 -0.056119934 -0.08682647 -0.08074997 -0.21331505 -0.08507568 -0.1633692
0.081006266 -0.1798063 -0.14874771 -0.114512645 -0.046073757 -0.073613666 -0.13300085 -0.19414008
-0.20894909 -0.18200831 -0.006608784 -0.116108045 -0.1345914 -0.1653867 -0.10353465 -0.16203932
0.04103253 -0.1190955 -0.19241033 -0.15680714 0.018092 -0.04077839 -0.09889966 -0.022786543
-0.11071449 -0.08948288 -0.12082328 -0.04218201 -0.031806305 -0.1254673 0.0014417121 -0.083764516
-0.112563334 -0.10153527 -0.13866284 -0.15654133 -0.14633311 -0.046553843 -0.17707421 -0.04180355
-0.061043896 -0.026052944 0.065032326 -0.022992672 -0.07303 -0.029739344 -0.12840348 -0.047304444
-0.014354831 -0.11268293 -0.14987858 -0.09634857 -0.07940272 -0.040414978 -0.13576545 -0.13183922
-0.19267985 0.033001926 -0.108039856 -0.04046463 0.0133148655 -0.14742815 -0.12955241 -0.18980989
-0.17594756 -0.03962572 -0.10293789 -0.07843608 -0.1528747 -0.14392957 -0.031782437 -0.058910824
-0.039090313 -0.095127225 -0.09616438 -0.12819578 -0.044667263 -0.20045732 -0.035436053 -0.16259164
-0.1019134 -0.119405605 -0.014115423 -0.039493524 0.003041028 -0.18375474 -0.13818972 -0.100298025
-0.07777954 -0.11393813 0.0144402515 -0.10856284 -0.18950164 -0.024350775 -0.037486214 -0.15664396
-0.12414578 -0.0049852575 0.0015282005 -0.15001088 -0.17810778 -0.13267812 -0.12658733 -0.14012197
-0.19126958 -0.095328495 -0.124727495 -0.18621927 -0.015455736 0.050662316 -0.104066275 -0.024726456
-0.14431474 -0.12870784 -0.001502014 -0.07441971 0.0507146 -0.12335395 -0.17568335 -0.04297521
-0.092276916 -0.11064134 -0.08480031 -0.20891088 -0.031686 -0.039232954 -0.17706801 -0.10933546
-0.08851325 -0.06315393 -0.13167752 -0.044183075 -0.14674607 -0.12464071 -0.06727756 -0.062826455
-0.113196656 -0.040120773 -0.1165264 -0.1011805 -0.10397874 0.014187867 -0.07467832 -0.1280676
-0.09829717 -0.20815115 -0.10114481 -0.119676925 0.11239328 0.029844588 -0.1277316 -0.05164963
-0.14332348 -0.09799958 -0.008812696 -0.13033658 -0.033749353 0.01493493 -0.12967847 -0.15658487
-0.011764593 -0.11162621 -0.2566181 -0.08981879 -0.16083172 -0.08441217 -0.17146644 -0.103478715
-0.0724161 -0.13760927 -0.031612225 -0.07699647 -0.057694122 -0.02751924 -0.08312686 -0.13779555
-0.040504865 0.046648372 -0.13518952 -0.11341109 0.078105636 -0.17607535 -0.21414538 0.034518007
-0.11757875 -0.09751682 -0.07230448 -0.12829311 -0.17822836 -0.060075913 -0.090148516 -0.14321335
-0.09216623 -0.06827303 -0.08283609 -0.0496908 -0.14847574 -0.07519142 -0.08392999 -0.12933919
-0.00076253375 -0.042391323 -0.097610615 -0.009552975 -0.16346209 -0.11949998 -0.076201186 -0.08901703
-0.14118849 -0.09079312 0.011952249 -0.035076823 -0.015937166 -0.08513983 -0.09446912 -0.13710937
-0.16385636 -0.12469514 0.025835596 0.024987046 -0.10700029 0.020094706 -0.12328055 -0.06640394

bn1.running_mean f4 [256]
00000000: 8bde 3f3c 9cfc bb3b a268 90bb e308 f83b
00000010: 7622 f13a 3e48 c3bc 5c07 4e3d 0f9f 063d
00000020: 2607 42bc ce39 0abc 8d16 333c 28f1 983c
00000030: c08a 493c 43d2 683c d4b5 dd3b 1bec 5d3a
00000040: c6b1 3f3c ef56 53bc a7c2 453c 26ac d83b
00000050: cc8c 1bbc a84b 613b df3d 4cbc a919 483c
00000060: 7511 00bd eace 15bd f71f f2ba 9ffe 2bbd
00000070: e7d2 a2bc 5455 5b3a 39eb eebc ca5b e63c
00000080: a61a 563c dab0 6c3c 4755 17bd 227e 423d
00000090: 0526 423c 098d c6bb dcdf 1cbc c23d 083c
000000a0: 004e ffbb 1ed4 14bd 4904 7fbb e66b cb3c
000000b0: f680 153d 826f f9bc 093c b0bb 2094 083d
000000c0: 4901 923c eace e3bc ef1f 85ba d7b8 203d
000000d0: e91c afba 5dfb c7bb f144 bfbc be2f 78bc
000000e0: a568 aa3c 0422 a03b 535b 903d f70b 003c
000000f0: 0eab 0b3c f449 ddbc 5b97 b2bc fe38 d5bb
00000100: 55f1 063d 7932 7ebb a29c 53bd c091 d9bc
00000110: ae25 bc3c e531 b63c 7060 afbc 0599 da3b
00000120: a720 e03c b12b 603d 26bc 0f3d 7d22 9f3c
00000130: 8ac8 c1bc 4081 073c 26a8 ab3c 8de6 a33c
00000140: 0f7d 6abc f0fa 373d 5256 09ba 764b 913c
00000150: ec58 0abd 5c60 0f3d 4496 3a3d 994d 61bc
00000160: 46af 8c3c cf8b 75bc f2b1 d7ba b0bd 9cbc
00000170: c144 0abd fa12 03bc 762f 8f3c 85b4 043d
00000180: 4d73 ff3b 7952 cc3c 8e9f cd3a 3038 13bd
00000190: 8046 02bd 8f6b 54bb 6f10 923b 5c76 c2bc
000001a0: 6fd0 9dbb 3788 a03a 2638 04bd 1d34 853c
000001b0: d257 21bc 3807 a0bc b26f a63c a6b7 b1bc
000001c0: 7dfd c9bc 6c92 8dbc 10f1 993c 4c7a 023a
000001d0: a995 09bd f6cb f93c 55d8 173d 0eed 13bc
000001e0: 2340 d7bc 42ce 2cbb 407b 423d 32ee 8838
000001f0: 3b42 8c3b 63fc 7c3c 5b4c fabb 8f4c ee3a
00000200: 5857 d0bc c302 383c 812b 163c 873a 69bd
00000210: fa8a 24bd d483 863c 2681 89bc ed0f e5bc
00000220: 1522 d1bc 9174 993c 24f9 f7bb c2e5 f5bc
00000230: 8e1b bcbc 7ea4 b8bc b6aa f43b 80df 323c
00000240: e888 dfbc 34b0 aa3c ecb9 28bc 36f8 bf3c
00000250: 48ee b1bc df88 a73a 32bb 57bd 6d41 bcbc
00000260: e1b3 e33b 94a9 863c c4fc 493c 96d0 10bc
00000270: 4884 c8bc 0ac9 1e3c a4a2 733c a722 23bd
00000280: 870a b0bb c114 4c3c 6d2a f13a 332c 8c3c
00000290: 69ed 21bc 6f11 4e3c e113 eabc 43e3 1dbd
000002a0: bc0a 863c 3103 543c e8ec 023d 55fb 993c
000002b0: b405 233c 41b4 51bc 6ea1 4e3b 9a2e fcbb
000002c0: 1828 3cbd fd34 dabb 63ab 87bd b644 3bbd
000002d0: e7ca 143c c0ef 28bc b3ae 3c3d b953 dabc
000002e0: 43c5 3a3c c28b a4bc 791c 76bc 7f97 693c
000002f0: 1687 fa3c 0749 743c de72 d3bb 9017 b7bc
00000300: 145d a63a 5bf5 41bc 1b95 fe3b 392e 783c
00000310: 014b c33c a304 de3c 9c03 f8bb 6732 4bbc
00000320: be92 333c e2af c43c 0d97 393c 228e 18bd
00000330: 6377 463d 1937 1f3c 5fde 313c c46c 2cbc
00000340: d611 c6bc 0177 9b3c fefd 05bc 3dba 29bd
00000350: 34fa 2abd ff91 b83b d716 743c 1102 d93c
00000360: d6cb 173c 42fd 13bc 3825 a23b e446 0cbd
00000370: 777e 1b3d 4516 84bb 8efa e03c f70e 173d
00000380: 3ad9 9e3b 8a4f d73c 9a8e c5bc cc71 d23c
00000390: fc79 06ba 15cb b9bc 5c45 a83c dd2f 2cbd
000003a0: 445d fa3b 2a3a 443c 0aa2 c83c c9c1 303c
000003b0: 8745 03bb 3faf 143d 7852 893c e687 1dbc
000003c0: 8cb5 343c 0402 7dbb b591 9c3c 5918 3fbc
000003d0: 9c4f a6bb 56dc 98bc 9188 cc3a 69a0 01bb
000003e0: f327 b83c 34da a73b 9ffe 5739 9512 4038
000003f0: 4e4a 08bd a7d3 edb9 ceaf 21bd 173b 2c3d
0.011710773 0.0057369005 -0.0044070045 0.0075694188 0.0018397111 -0.023838159 0.050299987 0.032866534
-0.011842525 -0.008436633 0.0109306695 0.01866968 0.012301147 0.014210287 0.0067660604 0.00084656634
0.011700099 -0.012899145 0.0120703345 0.0066123186 -0.009494018 0.003437737 -0.012465923 0.012213149
-0.03126665 -0.03657428 -0.0018472661 -0.041990872 -0.019875957 0.0008366902 -0.029164897 0.02811994
0.013067877 0.014446462 -0.03694656 0.04748357 0.011849885 -0.006059293 -0.009574857 0.008315505
-0.0077912807 -0.036335103 -0.0038912466 0.024831723 0.03649994 -0.030448679 -0.0053782505 0.033344388
0.017822878 -0.027808625 -0.0010156612 0.039238777 -0.0013360056 -0.006102963 -0.023348304 -0.015148101
0.020801852 0.0048868675 0.07048669 0.007815353 0.008524669 -0.027012803 -0.021800688 -0.006507038
0.032944996 -0.0038787408 -0.05166305 -0.026558757 0.022967186 0.022240588 -0.02140829 0.0066710734
0.02735932 0.054729167 0.03509154 0.019425625 -0.023655195 0.008270562 0.020954203 0.020007396
-0.014312043 0.044917047 -0.0005238998 0.017736178 -0.03377621 0.035004005 0.04555346 -0.013751411
0.01717342 -0.014986946 -0.001645623 -0.019133419 -0.033756975 -0.00800013 0.017478686 0.03239872
0.0077957273 0.02494167 0.001568781 -0.035942256 -0.031805515 -0.0032412743 0.0044575254 -0.023738079
-0.004816107 0.0012247626 -0.03228011 0.016260201 -0.009847598 -0.019534692 0.020316932 -0.021694016
-0.024657005 -0.017281733 0.018791705 0.000497733 -0.033589993 0.030492764 0.037071545 -0.009028686
-0.0262757 -0.0026368056 0.04748082 6.529353e-05 0.004280356 0.015441033 -0.007638497 0.0018180775
-0.025432274 0.011231127 0.009165646 -0.05694058 -0.0401716 0.016420282 -0.016785216 -0.027961696
-0.025528947 0.018732341 -0.0075675417 -0.030016784 -0.022962358 -0.022539373 0.0074666394 0.010917544
-0.027286962 0.020835973 -0.0102982335 0.023433786 -0.021720067 0.001278188 -0.052668758 -0.022980416
0.0069489335 0.016438283 0.01232833 -0.008838793 -0.02447714 0.009691486 0.0148703195 -0.03982797
-0.0053723487 0.01245612 0.0018399485 0.01711092 -0.009883263 0.012577399 -0.028573932 -0.03854681
0.01636254 0.012940214 0.031964213 0.018796602 0.00995009 -0.012799324 0.0031529325 -0.007695985
-0.045936674 -0.0066591487 -0.06624486 -0.045719825 0.009081579 -0.010311067 0.046065044 -0.02665125
0.01139957 -0.020086173 -0.015021437 0.014257311 0.030581992 0.014909989 -0.006452902 -0.022350103
0.0012692534 -0.011838282 0.0077692396 0.015147739 0.023839476 0.02710182 -0.0075687896 -0.012402154
0.010960279 0.024009649 0.011327517 -0.037244923 0.0484537 0.009717726 0.01085624 -0.010523979
-0.024178427 0.018977644 -0.008178232 -0.041437376 -0.04174252 0.0056326385 0.014898024 0.026490243
0.009264907 -0.009032549 0.0049482845 -0.034247294 0.037962403 -0.004030975 0.027463224 0.036879506
0.004847673 0.026283044 -0.02411585 0.025689028 -0.00051298714 -0.022679845 0.020540886 -0.042037833
0.0076405127 0.011976758 0.024491329 0.0107883895 -0.0020030455 0.03629994 0.016762957 -0.00961492
0.011029612 -0.0038605938 0.019112447 -0.01166352 -0.005075408 -0.018659752 0.0015604665 -0.001977945
0.022479987 0.0051224474 0.00020598852 4.5793673e-05 -0.033273987 -0.00045361856 -0.0394743 0.04204854

bn1.running_var f4 [256]
00000000: 981a 403f 5f10 6a3f cf69 a93f b33a bf3f
00000010: 8be9 ad3f bf3f 853f 8677 c63f a408 9b3f
00000020: e01d 613f fcbe 8e3f ca28 0240 32eb b23f
00000030: 6e24 663f 4952 a53f 34d4 8c3f b686 883f
00000040: 7f8c b63f cdc6 793f a2be 923f c35d 583f
00000050: cf6e 953f 1a55 793f 548c 553f e9cd 733f
00000060: 1d57 b13f 4147 7a3f ece3 b43f 5c8a 0440
00000070: 44c5 db3f 3985 ae3f 6e7a 653f a741 8d3f
00000080: 493a 313f c109 9f3f b91d d03f 1b04 bd3f
00000090: ae6b 913f 2c53 e23f 2e49 ad3f 0717 953f
000000a0: 5491 9a3f 6124 af3f 4ab8 543f 60aa 8e3f
000000b0: e0f8 e13f 093b ae3f 692f 583f 87c7 b63f
000000c0: ace8 783f 8c67 8f3f 8d0e 873f de65 823f
000000d0: 719f 803f 5574 8f3f 6ea7 583f 7537 713f
000000e0: 60ae 873f 3da3 8a3f eaaa b83f 9547 aa3f
000000f0: a7fa b83f abea 973f df05 843f bae7 a13f
00000100: 529a d33f b1b0 a63f 4412 0a40 1148 523f
00000110: b342 b83f f26b c13f 56b3 983f 2fce 513f
00000120: 2f90 973f a208 1040 e73e a53f 4902 cc3f
00000130: 341c bd3f a267 bf3f d36e 863f 802b b63f
00000140: b430 b23f d896 ae3f 202c 953f 555e b43f
00000150: 4131 903f 4d9a 833f a019 983f 6ff2 7b3f
00000160: 4839 903f c360 663f 6534 8b3f 18d0 e03f
00000170: fa43 213f 7212 b93f 991d 4b3f 95fa 813f
00000180: 8929 733f 2416 7a3f e410 a83f 934c 933f
00000190: 4d00 883f 042b a93f df08 af3f a694 0140
000001a0: 4525 c83f febb 873f 4715 f33f 19e5 7a3f
000001b0: e1da 723f 5754 933f 935d 733f d5c4 933f
000001c0: b94f 803f 5124 963f 2e51 8e3f 2d77 b13f
000001d0: ea91 813f 54a6 b03f 0c80 823f 9064 c23f
000001e0: 17ea 943f 31ef 693f cd7d d33f d15a 953f
000001f0: b15a 943f 2a85 7e3f c019 af3f a9b4 6b3f
00000200: b1f9 963f f9ac 653f cb7a cc3f 7c87 843f
00000210: 3c07 503f 68f7 563f aaa4 a63f 185c 853f
00000220: 9b8d a23f eaf6 873f 16d2 d13f 2832 203f
00000230: 250e 893f c457 4b3f 875e 5c3f 7833 583f
00000240: 403e 713f 2dac 6c3f e1c0 8b3f de61 9b3f
00000250: e9e3 5c3f 771e 513f ae7b 8a3f 7adf ce3f
00000260: c86a 823f b845 b53f d042 803f 6ab8 203f
00000270: ac3a a03f 8902 8a3f ab7c 7d3f ddbf e43f
00000280: 4652 9f3f 5888 783f c8b6 813f ecb9 b63f
00000290: 8e1d 973f e2ce 8d3f 7c94 2c3f 3e8e 8d3f
000002a0: d456 933f ac48 5c3f 7ab1 d83f e3e9 cd3f
000002b0: 80fb 9e3f 68f5 873f 5f42 803f eb66 5c3f
000002c0: 77d2 8e3f 4330 b93f 3016 1340 51a8 bf3f
000002d0: 3ea8 a53f e004 3d3f c99a af3f 463f a03f
000002e0: 7e69 9d3f 2065 e33f 2a0d 0840 c3cd 3d3f
000002f0: aaca 283f 36df 6b3f b782 1a3f 360b ca3f
00000300: c05f 8f3f 236e 883f 0aec bd3f 4cac b73f
00000310: 7346 8b3f 55cd 8c3f f287 ac3f 2567 803f
00000320: a9ae 883f 62c1 ab3f 222b 8a3f ef64 c03f
00000330: 5674 cb3f b215 b23f 4ac0 af3f e26c 6f3f
00000340: 7b78 933f 1e71 a03f a2d3 8e3f 075f 863f
00000350: 7d18 4f3f a31c a73f 3b87 993f 8c05 a43f
00000360: f444 b83f 7675 483f b077 a83f 3dc3 c53f
00000370: b0ae dd3f ef64 a53f 574b 6c3f 9295 683f
00000380: 5785 a73f 858f 923f 4337 ae3f decf 873f
00000390: 506f 603f fde2 0e40 0e12 b93f b025 453f
000003a0: f63f 933f 5d43 763f a70c 1a40 c667 9c3f
000003b0: 2210 a53f 7d8c 7a3f 1e0e bf3f 1d34 af3f
000003c0: 6af2 a43f 733f df3e c49a 593f bfbd 323f
000003d0: 0897 cf3f 5c8e bb3f be30 9d3f 1673 983f
000003e0: f126 5d3f 2237 cf3f 40a7 b03f e5bf b63f
000003f0: b09b 923f cdd1 703f 4266 c63f 86f9 b03f
0.7504058 0.9143123 1.3235415 1.4939789 1.3586897 1.0410079 1.5505226 1.2112012
0.8793621 1.1152034 2.0337396 1.3978026 0.8989934 1.2915736 1.1002259 1.066611
1.4261626 0.9756897 1.1464427 0.8451807 1.1674441 0.9739548 0.8341725 0.9523607
1.385471 0.97764975 1.4132056 2.0709448 1.7169576 1.3634406 0.8963994 1.103566
0.6922956 1.2424852 1.6259071 1.4766878 1.1360986 1.7681632 1.3537958 1.1647652
1.2075601 1.3682977 0.830937 1.1145744 1.7654076 1.3611766 0.8444734 1.4279641
0.9723003 1.1203475 1.0551316 1.0187337 1.0048658 1.1207377 0.8463048 0.94225246
1.060009 1.0831066 1.4427159 1.3303095 1.4451493 1.186849 1.0314292 1.2648842
1.653147 1.3022672 2.1573648 0.82141215 1.4395355 1.5111067 1.1929729 0.81955236
1.1840876 2.250527 1.2909821 1.5938197 1.4774232 1.4953501 1.0502571 1.4232025
1.3921113 1.3639784 1.1654091 1.4091288 1.1265031 1.0281464 1.188282 0.984168
1.1267481 0.89991397 1.0875365 1.7563505 0.6299435 1.4458754 0.7934204 1.0154597
0.9498525 0.97690034 1.3130155 1.1507744 1.0625092 1.3216252 1.3674582 2.0246978
1.5636374 1.0604246 1.8990868 0.98005825 0.9486523 1.1510113 0.9506466 1.1544443
1.002433 1.1729833 1.1118524 1.3864495 1.0122654 1.3800759 1.0195327 1.5186939
1.1633939 0.913806 1.6522766 1.166834 1.1590177 0.9942194 1.3679733 0.9207254
1.179495 0.8971706 1.5974973 1.0353847 0.8126104 0.8397126 1.3019001 1.041873
1.2699465 1.0622227 1.6392238 0.6257653 1.0707442 0.79430795 0.8608174 0.84453535
0.9423561 0.9245022 1.0918237 1.2139242 0.86285263 0.8168711 1.0818994 1.616195
1.0188837 1.4161901 1.002039 0.62781394 1.2517905 1.0782024 0.99018353 1.7871052
1.2446983 0.97083044 1.0133905 1.4275489 1.1805894 1.1078761 0.6741407 1.1059034
1.1510873 0.8604839 1.6929162 1.6087002 1.2420502 1.0621767 1.0020255 0.8609454
1.1157979 1.4467853 2.2982292 1.4973241 1.2941968 0.73835564 1.3719112 1.251931
1.2297819 1.7765236 2.1258035 0.7414209 0.6593424 0.9213747 0.60355705 1.5784671
1.1201096 1.0658611 1.4837658 1.4349456 1.0880874 1.1000162 1.3478987 1.0031477
1.0678302 1.3418391 1.0794413 1.5030802 1.5894878 1.3912871 1.3730557 0.93525517
1.1521143 1.2534521 1.1158335 1.049775 0.8089674 1.3055614 1.1994394 1.2814193
1.4396043 0.7830423 1.3161526 1.5450207 1.7318935 1.2921427 0.9230246 0.90853226
1.3087567 1.1450049 1.3610615 1.0610311 0.8766985 2.2326043 1.4458635 0.7701063
1.1503894 0.9619654 2.4070222 1.2219169 1.2895548 0.9787062 1.4926183 1.3687779
1.2886479 0.43603095 0.8500178 0.6982078 1.6217966 1.465282 1.22805 1.1910121
0.86387545 1.61887 1.3801041 1.4277312 1.1453762 0.9407013 1.5499957 1.3826149

fc2.weight f4 [128, 256]
00000000: e6ba 87bd 002f 02bd c862 7a3d a82f 27bd
00000010: fb20 88bd 65a1 f6bc 2528 b9bc fba9 35bd
00000020: 150c a83d 8251 d4bc 1c38 c13d d7a1 163c
00000030: c09a 0bbd 0bc2 e63d 7e28 613d f5f4 62bd
00000040: d2a7 de3d 86e4 a5bd b597 3a3d 628e 403d
00000050: 746e debd 0f67 913d bf27 f73a fe4c 98bd
00000060: f12a dabc bfe2 c3bd 74cf 983c 0482 8a3d
00000070: 58c9 f53d 190a ac3c 91e4 21be 3303 fabd
00000080: 44b6 06be 0ae9 66bc f1ba 093e 62c9 05be
00000090: 0eff 67bd 9a66 bebc 0efa 993d b7f0 103d
000000a0: 47bf a23d 9b6a a53d bb99 03bd 6500 5fbd
000000b0: c64e 02be 94d8 3e3d 78f2 27be 7a15 45bd
000000c0: 0704 d43c 90c2 c8bd f530 813c 880f b63d
000000d0: 3924 24bd 5dda a4bd fbde abbd cd0c 3ebd
000000e0: a755 993c 859b e2bd 2c3b 0cbd 59f0 e7bd
000000f0: a28f 1b3d 9db7 b3bd 0e70 93bd 8645 3c3d
00000100: c9d1 903d f504 ebbc 2a0a b23d 795f cf3c
00000110: b4be 533d 929e 61bd eb41 4f3d f672 433d
00000120: 2f85 ba3c f064 fbbb c168 093e 12dd 82bd
00000130: acf9 63bc 45f1 76bb 238c 49bd a146 183e
00000140: 9e6f 5b3e 5b35 e3bd bc15 3e3d 1f37 a13d
00000150: a3f8 d6bd dabd febc e1af 4b3d c982 35be
00000160: 8c5d e3bc 3020 6dbc 6b6e 073e 6205 d5bc
00000170: 15ba 9bbd 1617 4b3e 1423 d9bd 40c7 bdbd
00000180: 6065 e4bd 738d 883d 51c5 8ebc 385b ecbd
00000190: da60 3f3c 5e6f 92bd 535c f73d a1df d7bc
000001a0: 741a b23d 7314 143b 724c 0fbe 7672 8837
000001b0: ccee 1bbe 4b08 ef3b 7025 89bc 50d2 9abd
000001c0: 5bfe 89bc 78fb b63d afe1 25bd 17e0 0b3d
000001d0: 1cd1 073b e773 3b3d cf8e 513d 2f30 b13b
000001e0: 9220 c83b c5dd f1bd f148 ce3c c9b8 e4bc
000001f0: b19a debc cb8e 183d da15 333d 3dc1 8ebd
00000200: 4c8b 8a3d 1feb 03be 535c 4a3e 4bd7 613c
00000210: b211 99bc fba8 7abc fafd c3bc 2ba8 243d
00000220: 9961 1cbc 2479 88bd 2be6 f6bd b022 41bd
00000230: b3c6 2cbe 31d3 25be 19d3 16be 2e60 9b3d
00000240: 4409 d2bd 3dfb aa3d 4d24 d73c afca 64bd
00000250: fbe0 a73b d43b cb3c 92bb 81ba 0caf f5bd
00000260: 783f df3d 74b0 b83d 18e5 a8bb ea38 933c
00000270: f8d1 bcbc 6534 cebc 26ff be3b 9806 d43c
00000280: fd43 bd3d 8759 c0bc c4cc 963d 18ff a73d
00000290: 0fb4 f1bd d7a8 83bd e8ba 35be 2f5d 03be
000002a0: 2c5b d7bd 1145 92bd b6da 60bd de3c 5c3c
000002b0: d164 31be e2ae cdbd 09d9 f83c 75c4 debc
000002c0: 39e7 98bd 2f27 bbbd 5d7b 8ebd dd90 93bd
000002d0: 3a15 3e3e 4ca0 2e3d b813 e8bd d040 1bbd
000002e0: 938f f83d d515 b23d 3c37 573c 59cc 123d
000002f0: f757 f93c db9d 1d3e 24b0 c0bd 9543 933d
00000300: 78c1 633b aa0d 6cbd ff69 a73d c03f 70bc
00000310: 97b6 1cbe 92fa b63d 7dd6 8dbd ed6c e5bd
00000320: 94bb de3d 6d01 66bd bae5 d23d 3b77 b1bd
00000330: 773e 253e 3a35 96bd 1d29 0e3d 2771 a03b
00000340: 0b77 afbd 4370 333e 77d7 7a3b 90a9 a7bc
00000350: a4bd d6bd db4f d5bd 5733 303e 43fa af3c
00000360: 5580 fdbb fa1b 26be dad1 8b3d b34b 843b
00000370: 76ce 043b 6f16 3ebd e355 fa3d d99b e2bd
00000380: 7e65 5dbd edc3 943c 870f 0dbd 49da 873c
00000390: 714c bc3d ea5d f0bd 7472 823d 7003 b5bd
000003a0: 0035 243e 6d6b ac3d e5c5 053d 7088 6b3d
000003b0: 21fb 403d 43e1 a9bd 63f6 4c3d b898 213e
000003c0: 315a 57bd 8bf4 493d 9541 7abd a81a b73a
000003d0: 1b5a 26bd 93a2 fdbc c49b b43d cf1a 87bd
000003e0: c675 173c 500e d9bd 1bf0 093e 367a 363e
000003f0: 4435 eabb d8a5 013c ab45 443d b48f 1bbe
-0.06627445 -0.031783104 0.06112936 -0.040816933 -0.066469155 -0.030106256 -0.02260215 -0.04435156
0.082054295 -0.025917772 0.0943453 0.009193859 -0.034083128 0.112674795 0.054970257 -0.05540939
0.10871853 -0.08100228 0.045554835 0.047010787 -0.10860911 0.07099735 0.001885645 -0.0743656
-0.026631804 -0.09564733 0.018653609 0.0676308 0.12001294 0.021000909 -0.15809847 -0.122076415
-0.13155466 -0.014093647 0.13450219 -0.13065103 -0.056639723 -0.023242284 0.07518397 0.035385814
0.079466395 0.08076974 -0.03212903 -0.054443736 -0.12725362 0.046593264 -0.16401088 -0.048116185
0.025880827 -0.09802735 0.015770415 0.08889681 -0.040073607 -0.08049462 -0.083921395 -0.046398927
0.0187176 -0.11064819 -0.03423612 -0.113251396 0.037978776 -0.08775256 -0.07199107 0.04596474
0.07071263 -0.028688887 0.08693345 0.02531408 0.05169554 -0.055082865 0.050599974 0.047717057
0.022768585 -0.007671945 0.13418867 -0.06389822 -0.013914507 -0.003768043 -0.04920591 0.14870693
0.21429297 -0.11094161 0.046407446 0.07871842 -0.104966424 -0.031096388 0.049728278 -0.17725672
-0.027754568 -0.014473006 0.13225715 -0.026003543 -0.07603852 0.19833025 -0.10602394 -0.092665195
-0.11152148 0.06667604 -0.017428072 -0.11540836 0.011680806 -0.07150148 0.12078156 -0.026351752
0.08696452 0.0022595196 -0.13994005 1.6265763e-05 -0.15227813 0.00729469 -0.016741484 -0.07559645
-0.016844919 0.089346826 -0.04049843 0.034149256 0.0020724004 0.04576483 0.051161584 0.0054073553
0.0061073983 -0.11809877 0.025181266 -0.027920144 -0.027173372 0.037245553 0.04372201 -0.06970451
0.0676485 -0.1288266 0.19761781 0.01378424 -0.018685196 -0.015299077 -0.023924816 0.04019944
-0.0095447535 -0.06663731 -0.1205562 -0.04715222 -0.16872673 -0.16193844 -0.14728965 0.07586704
-0.102556735 0.08348701 0.026262427 -0.055857357 0.0051232553 0.024808802 -0.0009897819 -0.11996278
0.109007776 0.09018031 -0.005154263 0.017971475 -0.02304934 -0.025171468 0.005828756 0.02588205
0.09241483 -0.02348019 0.07363275 0.08202952 -0.118019216 -0.06428688 -0.1774708 -0.12828515
-0.105154365 -0.071420796 -0.05489608 0.013442246 -0.17323615 -0.10043122 0.030376928 -0.027193287
-0.07465977 -0.09138333 -0.069571234 -0.07205365 0.18562785 0.04263334 -0.11331886 -0.037903607
0.121367596 0.086955704 0.0131357275 0.035839412 0.030437453 0.15392248 -0.09408596 0.071906246
0.0034752768 -0.05763022 0.08174514 -0.014663637 -0.15304027 0.08934511 -0.06925676 -0.112024166
0.108756214 -0.056153703 0.10297723 -0.086653195 0.1613711 -0.07334371 0.034707177 0.0048963013
-0.085676275 0.17523293 0.00382754 -0.020466596 -0.1048539 -0.10415622 0.17207085 0.021481639
-0.0077362456 -0.1622161 0.068271354 0.0040373444 0.0020264662 -0.046408113 0.12223413 -0.11064882
-0.05405187 0.018159831 -0.034438636 0.016583579 0.091942675 -0.11736663 0.063694865 -0.08838546
0.16035843 0.08418927 0.03265943 0.057503164 0.047114495 -0.082949184 0.05003966 0.15780914
-0.052576248 0.04930548 -0.0610977 0.0013969736 -0.040613275 -0.03096131 0.088187724 -0.0659691
0.009244388 -0.10598433 0.13470499 0.17820057 -0.007147463 0.007913075 0.047918003 -0.15191537

fc2.bias f4 [128]
00000000: 0b60 2fb9 d130 c3ba 9c0d 98b8 5203 0ebb
00000010: 17e3 72ba d00a ddba d2ff ec3a 0a0e ac39
00000020: 026c f3ba 9375 8db3 bfc7 953a 67fb f4b9
00000030: 57f4 1d3a 14a9 263b c817 a239 6299 553a
00000040: 83bc 373b e85d 7a3a 0c06 faba ba37 f6b9
00000050: d204 7c3a 7116 543a 6a5c 833a 2f56 863a
00000060: 886c a8b9 a319 19bb fc42 27ba fb57 7a3a
00000070: 60e4 deb9 fd36 5bba 3726 a6ba a9f5 99b9
00000080: f4e9 ac3a 977f 0e3b 131a afba 4140 8939
00000090: e84f 45ba 5a56 beb9 c91f 40b8 5fdb d7ba
000000a0: 8446 013a 825c 273b ce0c c939 868a 45ba
000000b0: 4378 96ba ad45 d6b8 1b4c 983a ac31 a33a
000000c0: 892c c739 4db7 2a3a 769a ccba 2574 d83a
000000d0: 043d 95ba 1d93 963a 522b 83b9 b6be 073a
000000e0: 5855 153a 53a2 583a 4746 1fba 05d0 093b
000000f0: ba64 9438 5cc6 3438 c482 4239 6f6e 91ba
00000100: 115d c23a 72f6 8b3a 7778 9aba a78e d1ba
00000110: e05a 2bbb 7e77 ccb9 5c44 d6b9 9e4e 103b
00000120: 4a8e 44ba ba71 eeb9 bf0c f4b8 48eb 44ba
00000130: 783d ebba db32 aab9 95d3 33bb 5193 2dbb
00000140: cfa6 26b9 1813 c539 6603 cc3a 3f22 ecba
00000150: 1def 793a 3fac f339 29bb 57ba 960f be3a
00000160: 37e6 5eb9 3227 ba3a 22f1 0a3a 3048 30ba
00000170: afc9 e5ba e260 0e3a 6ae4 813a 2e5f 463a
00000180: c77d b3ba 2bb1 b03a d728 333b bb13 ba39
00000190: f826 1abb 7058 82ba 47eb 47b9 f189 0fba
000001a0: 2d05 173a 8fc4 06b9 4230 a93b 3b82 3aba
000001b0: a232 923a df1d 86ba c450 0eba 5f5c 303b
000001c0: 8ec7 4dba 84bf 86b9 1ae8 103a b6ea 81ba
000001d0: 0bcb 8aba ba7b d239 cdae 39bb cee8 ab39
000001e0: a36a 813b 20e6 a83a 7831 ecb9 4976 7fb9
000001f0: 1d96 84ba e3d8 f43a 1828 983a 7a69 07b9
-0.0001672508 -0.0014891868 -7.25046e-05 -0.002166946 -0.00092654064 -0.0016864184 0.0018081611 0.00032816856
-0.0018571618 -6.587211e-08 0.0011427327 -0.00046726616 0.0006025484 0.0025430368 0.00030916766 0.0008148161
0.0028035946 0.0009550736 -0.0019075288 -0.00046962296 0.00096137554 0.0008090502 0.0010022048 0.0010249073
-0.0003212432 -0.0023361228 -0.0006380526 0.0009549853 -0.00042513292 -0.0008362381 -0.0012676184 -0.00029365465
0.0013192282 0.002174353 -0.0013359211 0.0002617855 -0.00075268606 -0.0003630396 -4.580597e-05 -0.0016468576
0.0004931467 0.0025537317 0.00038347248 -0.0007535595 -0.0011479933 -0.00010217293 0.0011619361 0.0012450716
0.0003798942 0.00065122993 -0.0015609998 0.0016514106 -0.0011385982 0.0011487935 -0.00025018543 0.00051782595
0.0005696616 0.0008263934 -0.0006075841 0.002102853 7.075952e-05 4.310008e-05 0.00018549996 -0.0011095534
0.0014828761 0.0010678305 -0.0011785169 -0.0015987948 -0.0026146695 -0.0003899894 -0.00040868192 0.0022019516
-0.00074980094 -0.0004547963 -0.00011637201 -0.0007511866 -0.0017947396 -0.00032462817 -0.0027439345 -0.0026485512
-0.00015893135 0.00037588994 0.0015564978 -0.0018015577 0.0009534227 0.00046476905 -0.0008229488 0.0014500495
-0.00021257332 0.0014202355 0.0005300214 -0.0006724624 -0.001753142 0.0005431307 0.0009909992 0.00075672835
-0.0013694101 0.0013480535 0.0027337575 0.00035491385 -0.0023521762 -0.0009944569 -0.00019065767 -0.0005475572
0.0005760964 -0.0001285246 0.0051632235 -0.0007114743 0.0011154006 -0.0010232291 -0.0005428905 0.0026910526
-0.00078498654 -0.00025701162 0.000552775 -0.0009911868 -0.0010589076 0.00040146505 -0.002833295 0.00032789115
0.0039494797 0.0012885965 -0.00045050285 -0.0002436276 -0.0010115538 0.001868036 0.0011608629 -0.00012913896

bn2.weight f4 [128]
00000000: d00d 813f b843 8f3f bc5f 853f a4a2 5a3f
00000010: 2514 403f 3332 913f 05b2 a43f 05fc 6e3f
00000020: 3976 7e3f 3a5e 833f 2ef9 7a3f eadc 5c3f
00000030: f780 723f 2e15 863f 5571 5d3f 450a 893f
00000040: af43 8c3f d765 883f 4596 833f eeed 883f
00000050: e736 803f d53e 7d3f 1cdb 853f 5dd5 6a3f
00000060: 38c9 973f d2b5 683f 2a05 643f 5e7b 953f
00000070: 0cae 343f bfc7 8a3f abda 733f ce0e 723f
00000080: b34c 933f 62f6 6a3f c872 873f 9a44 763f
00000090: bae7 603f 1ee3 583f 4aaf 7f3f faac 7d3f
000000a0: 3aee 883f d212 803f 81c8 943f 38a1 6b3f
000000b0: b402 603f e615 6a3f ea07 833f 2cf2 663f
000000c0: 5eb4 703f 89be 813f a980 913f 3513 763f
000000d0: 4f1d 613f 91d4 693f 7f1c a63f aacb 923f
000000e0: 3451 693f d3b8 953f 3f0d 833f 83da 693f
000000f0: 78b2 a13f 852b 663f e619 763f 228d ad3f
00000100: 76df ad3f 80ca 673f ad1f 9d3f fdee 4c3f
00000110: 01f8 7b3f b03a 833f 5ae4 663f b000 813f
00000120: e7a7 853f 6b95 853f 2456 703f 14df 843f
00000130: 1d72 843f 8ea4 6a3f eb7b 8e3f 0fb8 5f3f
00000140: 79ee 833f 6ae4 643f b2eb 763f fb15 843f
00000150: d688 833f 3acb 663f 7084 953f 5256 763f
00000160: 3f6a 703f f82f 7d3f 6b70 6c3f 3fd9 833f
00000170: d0ae 773f 230c 813f 8245 7a3f 748c 793f
00000180: 1e52 8b3f f829 773f ae3a 6d3f b622 6c3f
00000190: 9a1d 923f 2898 7b3f 1625 883f 2d70 6d3f
000001a0: 42bd 5e3f 6493 7e3f 0b40 863f 1418 543f
000001b0: 6abc 763f 091f 963f a577 863f 1332 8e3f
000001c0: 53c1 803f d279 7d3f 5fb7 7b3f 31ea 883f
000001d0: 1c6d 693f 7172 463f f005 683f aaf9 7c3f
000001e0: ae5c 753f 7a51 783f 3435 4a3f a651 533f
000001f0: 0f22 6d3f 60cd 8c3f 6776 7a3f b92e 513f
1.008234 1.1192541 1.0419841 0.8540442 0.7503074 1.1343445 1.2866827 0.933533
0.99399143 1.0263131 0.9803647 0.8627459 0.94728035 1.0475214 0.86501056 1.0706259
1.0958155 1.0656079 1.0280234 1.069761 1.0016755 0.98924 1.0457492 0.91731817
1.1858282 0.90902436 0.8907038 1.1678274 0.70578074 1.0842208 0.95255536 0.9455384
1.1507782 0.917822 1.0581903 0.9619843 0.87853587 0.84721553 0.99876845 0.99092066
1.0697701 1.0005744 1.1623689 0.92042875 0.87504125 0.91439664 1.023679 0.90213275
0.9402522 1.0136272 1.1367389 0.9612306 0.87935346 0.91339976 1.2977446 1.1468403
0.9113953 1.1697029 1.0238417 0.9134905 1.2632589 0.89910156 0.9613327 1.3558695
1.358382 0.90543365 1.2275292 0.8005217 0.984253 1.0252285 0.90192187 1.0078335
1.0441865 1.0436224 0.9388144 1.0380578 1.0347325 0.9165734 1.1131567 0.87390226
1.0307151 0.8941103 0.9645339 1.0319208 1.0276134 0.9015385 1.1681042 0.96225464
0.9391212 0.9890132 0.92359036 1.0300673 0.9675112 1.0081829 0.9776231 0.9747994
1.0884435 0.96548414 0.92667663 0.92240465 1.1415284 0.98279047 1.0636318 0.9274929
0.87007535 0.9944365 1.0488294 0.8284924 0.9638125 1.1728221 1.0505263 1.1109031
1.0058998 0.9901401 0.9832668 1.069647 0.9118211 0.77518374 0.9063406 0.9881846
0.9584454 0.96999323 0.7898743 0.8254646 0.92630094 1.1000175 0.9783692 0.8171192
