models/classifiers/MLP2_RPA_distBERT_att_bm.pth (torch, 243466 bytes, 34 tensors)

embedding_proj.weight f4 [96, 96]
000000 02 12 55 3e a6 55 b8 3d 5e 92 5a 3d 47 2d 04 bd
       0.2080765 0.09000711 0.053362243 -0.032269742
000010 b4 9e ab 3c ad 73 82 bd 55 96 9b bd f3 a0 8a 3d
       0.020949699 -0.0636972 -0.07597033 0.0676898
000020 e7 0e 3d bd 83 c1 1d 3e ed d5 8b 3d 8b 78 ac 3d
       -0.04615679 0.1540585 0.068279125 0.08421429
000030 c7 fd c8 3d c3 62 21 be 75 b5 d8 bc 2f 0e 7e 3d
       0.09814029 -0.15760331 -0.026453713 0.062025245
000040 30 e4 af 3d bc 96 9a 3c 34 2c 90 3d 25 f4 b3 3c
       0.08588445 0.018870704 0.07039681 0.021967003
000050 28 b0 93 3d 3f 8f d9 3d 96 f2 15 be f5 42 2b 3d
       0.072113335 0.10623025 -0.1464332 0.041811902
000060 9b 08 1f 3d 45 b3 82 3e 5a 85 c0 3c a1 eb ce bd
       0.038826566 0.25527397 0.023501087 -0.101035364
000070 2a 5a 3e be 82 6f 3a bd 39 da 9e 3d b5 2e 21 3c
       -0.18589082 -0.0455165 0.077564664 0.009837796
000080 93 93 85 bd 51 15 62 3d b0 5f 98 bd 23 90 e6 3d
       -0.06522288 0.05519611 -0.07440126 0.11257961
000090 33 0c 34 3d 64 e3 b3 bb b1 16 b5 39 a4 55 57 be
       0.043956947 -0.0054897536 0.00034539917 -0.21028763
0000a0 4e 76 ed bd 68 6c 48 3e ad 61 0d be c1 d6 16 bd
       -0.115948305 0.19572604 -0.13806792 -0.0368259
0000b0 2e e7 01 be 4f b1 f9 3c f6 88 3d be 8c 0b 34 be
       -0.12685844 0.030480055 -0.18509278 -0.1758253
0000c0 da 14 67 bd 34 18 37 3e f3 7a 32 3e f0 fe 4c 3c
       -0.05641637 0.17880327 0.17429714 0.012511954
0000d0 ef 66 00 3e 74 80 e5 3d 70 76 23 3d 57 fd a2 bc
       0.12539266 0.11206141 0.039907873 -0.019896192
0000e0 08 c1 7f 3d 13 cb 82 bd c4 fe ec 3d 20 a5 ea 3b
       0.06243995 -0.063863896 0.1157203 0.0071607977
0000f0 cc 18 a8 3a d0 1c a8 3d 5d 18 d6 bd 72 c7 19 3e
       0.0012824773 0.082086205 -0.10453866 0.15017489
000100 a5 22 4b 3d 0f da 24 be 08 e3 2f be 00 6d 87 be
       0.049593586 -0.16098808 -0.1717645 -0.26450348
000110 fc d9 20 3e a9 4b 4d bc 65 7d 07 3e 55 47 2d be
       0.15708154 -0.012530246 0.13231428 -0.16921742
000120 52 d5 22 bd 18 f0 81 3d 1e f2 a2 bd 48 23 ac 3d
       -0.03975422 0.063446224 -0.079563364 0.08405167
000130 64 e1 ae bd a1 45 8d 3d 0e b0 c9 bd 0a 30 7d 3e
       -0.085390836 0.06898046 -0.09848033 0.24725357
000140 9a 67 bd 3d 9c 40 14 3e 4f c1 8f bd 25 7e 06 3d
       0.09248276 0.14477772 -0.070192926 0.032835145
000150 2a 65 ac 3c ee 76 26 3e 56 d2 34 3d 7e ad ee 3c
       0.021044333 0.16256306 0.044145904 0.029135462
000160 38 e6 5c 3e ac d3 02 bd 8e 8a 0a be 0c 53 3a be
       0.21572196 -0.031940147 -0.13529417 -0.18195742
000170 cb f1 88 be e4 ff 93 3d f0 25 4a be 3e 3a 4f 3e
       -0.26746973 0.07226542 -0.19741035 0.20237061
000180 d3 9f ae 3d b5 d4 26 be 05 26 ff 3d d7 40 f7 3d
       0.08526578 -0.16292079 0.124584235 0.12072914
000190 be b5 17 3e bb b7 f6 3d 13 09 b6 bc 08 59 5e bd
       0.14815423 0.120467626 -0.022221124 -0.054284126
0001a0 c8 d0 61 bc a4 46 1f be 08 f5 63 be 80 cb 17 3d
       -0.0137826875 -0.15554291 -0.22261441 0.037059307
0001b0 d9 50 eb 3d f0 58 8a 3e 50 c4 01 3c 73 d2 19 bd
       0.1149003 0.2702098 0.00792034 -0.037554216
0001c0 ea a7 d5 bd 14 48 af 3d 96 df 2d be 2b 03 fa bd
       -0.10432418 0.0855867 -0.16979823 -0.122076355
0001d0 9d 83 34 bd 7d 43 a2 bc a2 b2 54 3d 9b 0d 13 bd
       -0.04407083 -0.019807572 0.05192817 -0.035901647
0001e0 d9 08 b1 3e a0 35 45 be 3e 00 d7 bd 03 4c 9b bd
       0.34577063 -0.19258738 -0.10498093 -0.075828575
0001f0 6b 93 22 bd 8d 26 26 be 88 c1 95 3c 10 ff e1 bc
       -0.03969137 -0.16225643 0.01828076 -0.027587444
000200 77 ce 56 3d 2b 8a 9f 3d 7e 27 fb bd 2e 19 ac 3d
       0.052442994 0.07790025 -0.12263392 0.0840324
000210 8a af 52 bd e2 41 05 bc 5b 69 05 be c5 15 36 3e
       -0.05143694 -0.0081333835 -0.13028471 0.17781742
000220 1e 8e 86 bd a4 a5 84 bb 58 8e 9c bc ef be 84 3d
       -0.065700755 -0.004048066 -0.019110844 0.0648173
000230 10 10 c3 3d 6b 5e 3b 3e 16 35 8f 3e 60 3b fd 3d
       0.09524548 0.18297736 0.2797019 0.123648405
000240 d3 d4 0a 3e 58 f6 f9 bd 3e 4c 74 3d 74 6a 81 3c
       0.13557748 -0.122051895 0.059643023 0.015797831
000250 12 d3 84 3e 05 cb 27 3e b9 33 ae bd 49 af 73 be
       0.25942284 0.1638604 -0.08505959 -0.23797335
000260 86 09 60 3c 0f c7 57 3e 4b 34 9b 3d ed ec 40 be
       0.013674146 0.21072029 0.075783335 -0.1884038
000270 fd ae fe bd eb d7 a6 3d f2 9d b5 3d d4 66 66 3e
       -0.1243572 0.08146652 0.08868016 0.22500163
000280 82 b5 64 3c a5 21 0d 3e 7e 92 2e 3e 56 ec 5f 3e
       0.01395929 0.13782366 0.1704807 0.21867499
000290 6e 83 a2 bd bd 26 f1 bd f4 d2 cb bd fb 1e fe 3d
       -0.079352245 -0.11774967 -0.099523455 0.12408253
0002a0 ce 6f 61 be f3 e2 c6 bd d3 98 ff 3d f6 9e 3b be
       -0.22015306 -0.09711256 0.12480321 -0.18322358
0002b0 bf 43 47 be 4d c1 0f bd 01 ab 99 3d 57 01 49 3d
       -0.19459437 -0.035096455 0.075033195 0.049073543
0002c0 b1 93 f6 3d 64 0c de bd 25 d0 48 be 43 b5 b3 3d
       0.12039889 -0.10842207 -0.19610651 0.08774807
0002d0 d1 12 15 3d ff c9 49 bd 73 93 54 be 68 e1 32 be
       0.036394898 -0.049264904 -0.20759372 -0.17468798
0002e0 18 75 d4 3c 56 5f 17 3e 1b 67 f0 3c 80 f3 0d 3e
       0.02593474 0.14782462 0.02934604 0.13862419
0002f0 21 7f b4 bc 4a 38 77 3d 70 69 5a 3e 0a 20 be bd
       -0.022033276 0.060356416 0.21329284 -0.09283455
000300 01 7b 9f 3d 8a 0c 3d be 67 7a 7f 3e 75 06 7f 3c
       0.07787133 -0.18461815 0.24949037 0.015565504
000310 fd 84 1f be 0c 1a 19 bd 35 1b 4e 3c d6 2f 91 bd
       -0.15578075 -0.037378356 0.012579729 -0.07089202
000320 ff 12 33 3e a0 f6 0f bd f9 78 b5 bd c2 2c 97 bc
       0.17487715 -0.03514731 -0.08860964 -0.01845396
000330 60 f0 12 3e 00 51 3a 3d 65 b1 65 bb 8b a4 ba bd
       0.14349508 0.045487404 -0.0035048362 -0.09113415
000340 ff a3 1c bd 63 9d 17 3d ce 3c 86 be 78 99 6a bd
       -0.038242336 0.03701533 -0.26218265 -0.057275265
000350 69 f8 4b 3e 3a d7 5b 3d 9f 31 2e bd d0 0f 8a 3e
       0.1991898 0.053672053 -0.04252779 0.2696519
000360 08 8b 17 3e ce 67 f0 bd f9 b1 a3 bb 81 f9 2b 3d
       0.1479913 -0.11738549 -0.004995581 0.041985992
000370 5f 66 f1 bd 40 63 76 be 65 32 b8 3c 88 a5 3f 3e
       -0.11787104 -0.24061298 0.022484967 0.18715489
000380 1a 3c 62 be 06 b1 4f 3d a5 0c bd 3c c1 19 c3 3d
       -0.2209324 0.050705932 0.023077318 0.095263965
000390 43 18 55 3d b4 9b 79 3d 8d 8b 6a bd e3 07 7c bc
       0.05202509 0.060939506 -0.057261992 -0.01538274
0003a0 31 13 30 bd 24 75 ad bd 86 a5 9d bd 78 79 e5 3d
       -0.042987052 -0.084696084 -0.07697587 0.11204809
0003b0 83 b9 66 3d 25 06 91 bd 68 ff aa bd c0 39 4b 3e
       0.05632926 -0.0708125 -0.08349496 0.19846249
0003c0 c4 f9 18 be 60 c6 53 bd 4a 60 81 be 7a ab 75 3e
       -0.14939028 -0.051702857 -0.25268775 0.23991194
0003d0 bf a5 13 3e cd bf a6 3e 8b ba ae bc cd bc 0c 3d
       0.14418696 0.32568207 -0.021329185 0.034359742
0003e0 d7 30 dd bd 80 05 e6 3c ac 3e 05 bd 39 4e f6 3c
       -0.10800331 0.028078794 -0.03253047 0.030066596
0003f0 82 53 20 be 00 cf d9 bd 3f 76 2a bd 04 d1 20 bd
       -0.15656856 -0.10635185 -0.041616675 -0.039261833

embedding_proj.bias f4 [96]
000000 c2 6f 84 bb c8 61 99 39 11 c9 cd bb 50 94 dc ba
       -0.004041643 0.00029255287 -0.0062800725 -0.0016828869
000010 32 31 83 3a b5 e8 59 ba 0b 69 97 ba e7 02 2c 3b
       0.0010009168 -0.0008312569 -0.0011551691 0.0026246847
000020 9b 41 3f 3a 35 73 13 39 39 1b 31 bb e0 b3 86 3b
       0.0007295848 0.0001406193 -0.0027024283 0.0041107982
000030 c8 34 08 3b 2b f4 26 bb f9 dc 41 3b 76 f2 70 3b
       0.0020783413 -0.0025475125 0.0029581173 0.0036765612
000040 14 cf 19 bb 7e 24 21 b9 60 61 8c bb ed 8b 1d 3a
       -0.0023469375 -0.00015367751 -0.004284069 0.0006009925
000050 46 31 04 3b c7 80 b9 3b 57 d9 c9 bb 96 96 ef bb
       0.002017097 0.0056611034 -0.006159942 -0.0073116524
000060 1b 50 25 bb 5b 70 68 3b c7 b9 00 ba 89 30 8a 3b
       -0.0025224749 0.003546736 -0.00049104955 0.0042172116
000070 ac 73 01 3c 71 06 a6 ba 24 86 74 ba d5 ef 93 3b
       0.0079011135 -0.0012666715 -0.000932785 0.004514674
000080 a5 9e 24 ba 08 01 42 3b 82 e8 df 3b bd af 1c bb
       -0.00062797434 0.0029602665 0.006833137 -0.002390846
000090 e5 af 69 bb 9f 45 97 ba 2f e8 1f bb e7 f6 80 3b
       -0.003565782 -0.0011541134 -0.0024399867 0.003935683
0000a0 bb f3 fe ba 04 a8 52 3a 14 3b 37 3a 7e e1 44 3b
       -0.00194513 0.00080359005 0.00069896993 0.003004163
0000b0 bb c0 96 bb 1e 7f dd 3b 10 6c fa ba 15 6c 8b bb
       -0.004600612 0.0067595383 -0.0019105691 -0.0042548277
0000c0 d4 c2 94 38 d4 4c f7 b8 90 6f 94 3a 23 42 f0 3b
       7.0934795e-05 -0.00011792188 0.0011324752 0.007332103
0000d0 af 7b a4 bb 4b ac 9b ba f1 f2 49 39 f4 84 8b bb
       -0.005019627 -0.0011876909 0.00019259356 -0.0042577926
0000e0 28 78 28 3a 99 bf 1b 3b 8e ec 3e ba 0c e6 d5 bb
       0.0006426596 0.0023765324 -0.0007283174 -0.006527668
0000f0 16 c3 8a bb dd 6c 91 bb ce 8d 9c bb 7d 12 13 bb
       -0.004234682 -0.0044380263 -0.0047776466 -0.002244144
000100 cd 2a 5d 3a 1c 95 9f ba 5b db 7b 3b 68 8a b5 3b
       0.0008436859 -0.0012175175 0.0038430307 0.005540181
000110 c9 3a f7 b8 f1 df 90 39 11 2e 8e bb d7 fc 0d 3b
       -0.000117888274 0.0002763267 -0.0043389876 0.0021665597
000120 ff 19 d6 3a 6a b9 6f b7 ea 64 e1 39 ae df 70 bb
       0.0016334652 -1.428868e-05 0.0004299053 -0.0036754417
000130 89 3d e8 3a d4 91 15 3b 4d 12 77 3a 3f 45 58 bb
       0.0017718534 0.0022822516 0.0009425029 -0.0033000258
000140 6d 01 03 39 ca 67 cd b7 ac 79 99 3a 5f 1e d0 b9
       0.00012493665 -2.4486235e-05 0.0011709235 -0.0003969548
000150 6f c1 99 bb 39 4c f4 bb 8a fe 0b 3a af 58 74 3b
       -0.0046922485 -0.0074553755 0.00053403585 0.0037284305
000160 c2 90 0e 3b f2 b4 01 3b 04 eb e4 ba 4a b4 c2 3a
       0.0021753763 0.001979169 -0.001746506 0.0014854756
000170 f3 60 99 bb 83 ef 70 39 03 a2 f6 ba 2b 21 98 3a
       -0.0046807467 0.00022977409 -0.0018816594 0.0011606565

categorical_proj.weight f4 [17, 17]
000000 0a 3f fc 3d e6 35 3a bd 84 db a3 3e 0b 0f 1d 3d
       0.12316711 -0.045461558 0.32003415 0.038344424
000010 fa 03 b2 bb 50 8b 96 3e d2 e1 60 be af d1 cb 3e
       -0.005432603 0.29403162 -0.21961144 0.39808413
000020 98 51 1a bd 93 63 d3 bd d9 35 d8 3e 23 c5 57 be
       -0.03767547 -0.10321727 0.42228583 -0.21071295
000030 df ae 73 3e 10 ab cf be c6 9c e7 be 53 54 8f be
       0.23797177 -0.40560198 -0.45236796 -0.27994022
000040 2e f9 05 bd 91 be f9 bd d6 ff d0 3e d9 20 a4 be
       -0.03270834 -0.12194551 0.40820187 -0.3205631
000050 6c 53 e7 bd d3 60 3a be d0 9d 9b 3e 23 84 ba bd
       -0.11295208 -0.18200998 0.3039384 -0.09107234
000060 6e d6 6c bd af f1 87 3e 75 5a 08 be f3 e3 b9 3e
       -0.057821684 0.26551577 -0.13315757 0.36306724
000070 72 d8 59 3e a5 06 87 be 50 5e d1 3c 35 f8 3a be
       0.21273974 -0.26372257 0.025557667 -0.18258746
000080 1c c0 03 be 53 12 20 3e 4f d7 b9 bd 42 19 c4 3e
       -0.12866253 0.1563199 -0.0907427 0.3830052
000090 f1 a0 ab be 02 ae 62 be 67 8c 52 3e 03 f9 bd be
       -0.33521226 -0.22136691 0.20561372 -0.37104043
0000a0 f1 d0 ba be 6f 85 38 be 53 8d 3c be f4 45 57 3e
       -0.36487535 -0.18019651 -0.18413286 0.21022779
0000b0 d2 70 99 3d 11 3f cc be 3c ec e3 3e 3b e2 9b 3e
       0.07492222 -0.39891866 0.4451617 0.30446038
0000c0 bb 9b dc 3e 48 25 53 be dd 2b 51 3d b7 80 03 3d
       0.43087563 -0.2061969 0.051067222 0.032105174
0000d0 46 9b 45 3d bf 70 7d bd 4c ca f0 3d a6 6b 67 be
       0.048243783 -0.0618751 0.11757335 -0.22599658
0000e0 c6 e7 a3 3e 15 95 03 3d 82 f7 d6 3e 7b 5a 00 3e
       0.32012767 0.032124598 0.41985708 0.12534516
0000f0 e9 0e 54 3d 27 10 e6 be 49 a5 48 3b b2 eb 77 bc
       0.051772032 -0.44934198 0.0030616096 -0.015131878
000100 d4 69 68 3e 68 b2 c2 be 36 fd 43 3e 57 37 5d 3e
       0.2269662 -0.38026738 0.19139561 0.21603142
000110 74 4f 18 be 20 42 0b bd 35 4b 19 be 73 9b 3d 3e
       -0.14874059 -0.03399861 -0.14970095 0.1851633
000120 ce fc 19 be 81 e1 38 bd 45 24 c5 be b5 fe 92 be
       -0.15037844 -0.045136932 -0.38504234 -0.2870995
000130 82 b8 73 3c 33 5c 83 3c 13 a2 25 3f 9d db 8a 3e
       0.014875533 0.016035175 0.6470043 0.27120677
000140 a9 f7 ca 3e 44 ca db 3c e7 f0 cf be d8 df b5 be
       0.39642075 0.026829846 -0.4061348 -0.35522342
000150 bb a6 5e 3d 39 60 2c 3e 10 75 84 be 51 60 0b bf
       0.054358225 0.16833581 -0.25870562 -0.5444384
000160 76 80 6d be f6 dd 16 3e 37 ce 96 be 7e b0 9a bd
       -0.23193535 0.14733109 -0.29454204 -0.075531945
000170 ed 9e 10 3f e1 3d a8 3d 7d 54 2c be 57 38 3d 3f
       0.564925 0.082149275 -0.16829105 0.7391409
000180 a5 d8 a7 bd a0 a6 2e be 6d 94 24 be f7 b0 11 3e
       -0.081956185 -0.1705575 -0.16072245 0.14227663
000190 83 9e 18 3e 55 50 c1 3d b8 b1 00 3f 34 d9 07 3e
       0.14904217 0.0943915 0.5027118 0.1326645
0001a0 54 12 61 be db 8f c7 3e 2d 2f a1 bd eb 7a 86 bc
       -0.21979648 0.3897694 -0.07870326 -0.016416034
0001b0 8e fe 59 3e e1 6f d8 3e 00 d3 3c be 96 50 52 3e
       0.21288511 0.42272857 -0.18439865 0.20538554
0001c0 1e 1a 82 3d 58 e5 9d 3e 8e f5 23 be 02 cb ad bd
       0.06352638 0.30839038 -0.1601164 -0.08485986
0001d0 c3 51 30 3e 1e 51 3a be ac f1 ed 3e 13 69 70 3e
       0.1721869 -0.18195006 0.46473444 0.23477583
0001e0 52 76 ce 3c e5 e2 91 3d 82 a5 9a be 3e 57 86 be
       0.025202904 0.07123355 -0.30204397 -0.26238436
0001f0 39 a7 d4 bd 69 6f c9 3d 4a 5f fa be ac 7f a4 3e
       -0.10383458 0.09835703 -0.48900825 0.32128656
000200 d0 6d 35 3c 7f 02 62 be 71 6f 7b be d9 a9 94 be
       0.011073545 -0.22071265 -0.2455423 -0.29035833
000210 83 e7 ad be e7 e2 7d bd 16 5e 39 bd ac f1 84 be
       -0.33965692 -0.06198397 -0.045255743 -0.2596563
000220 6d f0 c7 be 2c c5 44 3d b2 17 d3 bd b7 5e e2 bd
       -0.39050618 0.0480396 -0.10307254 -0.11053222
000230 47 51 67 3e 2d ac 69 3c 16 2a ee 3e ab 43 a7 3d
       0.22589599 0.014262241 0.46516484 0.081672035
000240 ee 6c 9a 3b e2 9f c4 3e b0 43 39 bf d2 97 b5 3e
       0.0047126925 0.3840323 -0.7236891 0.35467392
000250 06 a5 e4 3d 45 64 b6 3e f1 d0 72 be df 59 9c be
       0.11164288 0.35623375 -0.23712517 -0.30537316
000260 dd 16 05 3f 23 d7 77 be 42 fa a5 be bc ef 3d bc
       0.5198801 -0.24203162 -0.32417494 -0.011592802
000270 87 ab ba be 52 ec 1c bd 6c ec ad 3c b6 a3 15 3e
       -0.3645899 -0.03831131 0.021230899 0.14613232
000280 15 79 ba 3e ea 62 5c be 55 62 93 bd 78 fc 29 3f
       0.36420503 -0.21522108 -0.0719649 0.6640086
000290 22 ef 63 3e 14 ba 5a 3e d8 ab b1 be 6f 47 37 3e
       0.2225919 0.21360046 -0.3470142 0.17898344
0002a0 a5 00 ad 3e 6c ca 7b 3e ef b5 89 3e 23 4e 6c 3e
       0.33789554 0.24588937 0.26896617 0.23076682
0002b0 e2 92 ab 3c ca 1e 73 be 9f a6 ce 3e b8 98 b9 bd
       0.020944063 -0.23742214 0.40361497 -0.09062332
0002c0 e7 80 d3 3d 9f fb 9b 3e 39 33 26 3e 90 16 24 3e
       0.103273205 0.3046541 0.16230477 0.16024232
0002d0 cc 83 9b 3e 27 1d ca be 2e 6b 8f be 3f 99 38 bd
       0.3037399 -0.39475366 -0.2801146 -0.045068022
0002e0 ac ae fb be 91 f8 3f be d4 70 1d 3e 3f e5 f8 3d
       -0.49156702 -0.18747164 0.15375072 0.121531
0002f0 10 ce c7 be 96 b9 3f be f1 75 68 be 3f 8b 66 3e
       -0.390244 -0.18723139 -0.22701241 0.22514056
000300 f5 33 7a 3e b9 a2 99 3d 3b 0c 9d 3d a5 c6 74 3e
       0.24433883 0.0750174 0.076683484 0.23903902
000310 0d b8 86 3e 67 28 51 bf b9 8b e5 bb 5e e5 5e be
       0.26312295 -0.81702274 -0.0070051816 -0.21767184
000320 82 7e 14 be 74 5b 1a 3d 34 7c 88 be 71 d2 b3 3d
       -0.14501384 0.037684873 -0.2665726 0.08780373
000330 f4 64 5a 3d 77 87 bc 3e 82 c5 04 bc ea ca 9f 3e
       0.053318933 0.368221 -0.00810373 0.312095
000340 18 55 ac be bc 76 a5 be 86 d6 85 be e5 a9 9e 3d
       -0.3365867 -0.3231715 -0.2614023 0.077472486
000350 71 f0 eb bd aa 62 4d be 2d 66 e4 3e fb c7 f5 bd
       -0.1152047 -0.20057169 0.44609204 -0.12001034
000360 45 db d5 3e fc 49 b9 be 9c c6 2d be 1e fe 7c 3e
       0.41768852 -0.36189258 -0.16970295 0.24706313
000370 b0 25 32 3d 53 26 d3 bd d7 66 c2 be 77 0f 02 3d
       0.043492973 -0.10310044 -0.37969086 0.03175303
000380 4a 03 a4 3e d3 ca 97 bd f4 1d 43 bc a6 2f aa be
       0.3203376 -0.074117325 -0.011908997 -0.33239478
000390 f3 d0 02 bf b9 b5 ad be c0 03 b2 be 5f 3e ff be
       -0.5110008 -0.33927706 -0.34768486 -0.49852273
0003a0 79 f5 29 be 04 c4 6f be a9 61 7c bc 23 17 ef 3e
       -0.16597547 -0.23414618 -0.015404143 0.4669734
0003b0 c1 a1 d1 be 8d a9 4b be 23 72 a1 3e 4f 8a d4 3e
       -0.4094372 -0.19888897 0.31532392 0.4151177
0003c0 ff bf cb be 7a ce 13 be 26 00 8a 3e 2c 50 23 3e
       -0.3979492 -0.14434233 0.26953238 0.15948552
0003d0 ce 8f 97 3e fa a8 8d bd ab a2 66 be d3 7c 9d 3e
       0.29601902 -0.06916995 -0.2252299 0.30759296
0003e0 5f 3e 5c 3e 0f c8 25 3d 3a 3f 87 be 57 91 cf be
       0.21508168 0.040473994 -0.26415426 -0.40540573
0003f0 02 f3 2a 3e 3c cc 85 be a3 aa a5 be 6c 50 c0 3e
       0.16694263 -0.2613238 -0.32356748 0.37561357

categorical_proj.bias f4 [17]
000000 c4 0b d1 bb dc 05 3a 3a 1b 74 7f bb 24 e4 d7 ba
       -0.0063795764 0.000709621 -0.0038979116 -0.001647119
000010 56 c9 7c 3b c5 28 88 3b 17 e0 23 bb 6b 55 e2 3a
       0.0038572154 0.0041552507 -0.0025005394 0.0017267888
000020 51 5f 2c 3b 75 ac 46 3c 66 a9 81 3a 52 a6 36 39
       0.002630193 0.012126078 0.0009892404 0.00017418832
000030 0b 11 fe bb fc ee 1e 3c eb c4 3b bb c8 14 71 bb
       -0.0077534965 0.009700533 -0.0028651308 -0.0036786068
000040 38 55 1c bc
       -0.009541802

combine_proj.weight f4 [128, 113]
000000 78 45 16 3d ee 6c 53 bd 06 a7 41 bc 2f 8a 57 bd
       0.036687344 -0.051617555 -0.011819607 -0.052622017
000010 30 22 e3 3d 42 ee 1e bd ac 34 bb bd dc c0 02 3e
       0.11090505 -0.03880144 -0.09140906 0.12768883
000020 0a 43 ee bd 6c 1b ae bb 2a a9 03 be da 06 bd bd
       -0.116338804 -0.0053133275 -0.128575 -0.092298225
000030 a5 ba 88 bd ae 3e 95 3d 9c b0 e8 bd 96 89 aa bd
       -0.066762246 0.07287346 -0.113618106 -0.08327024
000040 7f 78 a6 3d 13 10 80 3c ad ad 72 bd b5 e2 b5 bd
       0.081284516 0.015632665 -0.05924766 -0.088811316
000050 c8 db 29 be bc 2d fe bd c1 3c 90 bd 0c 10 96 3d
       -0.16587746 -0.12411067 -0.07042838 0.073272794
000060 41 55 25 bd 5f 91 4e 3c bf 2e 23 bd a3 6d a2 3d
       -0.040364508 0.012607901 -0.039839502 0.07931068
000070 35 24 9f 3d 55 a6 fa bd 73 81 ed 3c 4c 78 03 3e
       0.07770578 -0.122387566 0.02899239 0.12838858
000080 ea 53 7f bd 62 38 9f bd 09 9c 25 bd 2c 56 f7 3d
       -0.062335886 -0.07774426 -0.04043201 0.12076983
000090 3f 77 f0 3d 24 3e cb bd 38 8f 64 bd cb 31 67 3d
       0.117414944 -0.09923962 -0.055800647 0.05644397
0000a0 80 36 68 bc 55 87 7b bd ce dd 71 bd 2b ca c1 bc
       -0.01417315 -0.06140836 -0.05904942 -0.023655972
0000b0 19 ec c6 3d 82 24 16 be 40 43 f6 3d 35 3a 07 3e
       0.09713001 -0.14662364 0.12024546 0.13205798
0000c0 07 6f d5 bd 11 5d d3 bd 0d cf 5c 3d 4d af 1b bd
       -0.104215674 -0.103204854 0.053908397 -0.038008977
0000d0 91 b4 92 3d 3f ef 03 3e 7d a0 1d be d9 9e f4 bd
       0.071633466 0.12884234 -0.15393253 -0.1194436
0000e0 93 9f a7 3c c7 44 29 bd c8 c0 31 bc 51 09 d6 3c
       0.020461833 -0.041325357 -0.010849185 0.02612749
0000f0 e5 9b f8 3d 5e a5 d6 3d 36 c5 6b 3d c2 8e bb 3c
       0.121391095 0.1048076 0.057561122 0.02289522
000100 ac a0 b0 bd a6 98 07 be 5a 23 98 3c f3 fd 35 bc
       -0.08624396 -0.13241825 0.018571544 -0.0111079095
000110 d4 3c 17 3e 9b 23 ed 3d 63 ce c8 bd bf a3 1d be
       0.14769298 0.11579057 -0.0980499 -0.15394495
000120 10 ab 24 bd ad 95 13 3e f8 d6 cd bd ff d1 e3 bd
       -0.0402022 0.14412566 -0.10050768 -0.11124038
000130 20 8d f8 3d 18 c1 8e bd f2 9e f6 3d a3 a0 fd bd
       0.121362925 -0.069704235 0.12042035 -0.12384155
000140 3b c0 86 bd 0b 56 b6 bd e3 97 e5 bd 16 32 09 be
       -0.06579634 -0.0890313 -0.11210611 -0.13398013
000150 b4 d7 37 bd 68 56 90 3d 8c 28 b1 3d cb d9 3f 3e
       -0.044883445 0.07047731 0.08650312 0.18735425
000160 12 c6 b5 bc e9 f9 bf 3d a6 af d3 bc 64 67 e3 3d
       -0.022189174 0.093738385 -0.025840592 0.111037046
000170 68 b5 5b bd b3 80 16 bd eb 08 cb 3c 04 a4 61 be
       -0.0536398 -0.03674383 0.024784526 -0.22035223
000180 c2 12 fa 3c f8 f5 ae bd b2 2b 18 be e1 5d 96 3d
       0.030526523 -0.085430086 -0.14860418 0.07342125
000190 00 df de 3d 69 de 05 be 2f 5c c0 3c 10 11 9a 3d
       0.108823776 -0.13073124 0.023481457 0.07522786
0001a0 85 86 15 3e 23 11 45 be 0c 84 a5 3d 1c c0 32 3d
       0.14602096 -0.19244818 0.080818266 0.04364024
0001b0 82 ab 11 be 96 65 85 3d 45 52 34 be 8c c2 1d 3e
       -0.14225581 0.065135166 -0.17609508 0.15406245
0001c0 80 56 4f be e5 b5 9c 3d 01 4e f7 bc 35 64 df 3d
       -0.20247841 0.07651881 -0.030188562 0.10907785
0001d0 9d a2 f7 bd b5 2b 77 3d 68 f6 b9 bc de b0 af bd
       -0.12091563 0.060344417 -0.022700503 -0.085786566
0001e0 74 dd 40 3a 2e c0 18 3d c9 03 d6 3c c8 3c 37 be
       0.0007357218 0.03729265 0.026124852 -0.1789428
0001f0 38 f7 70 3d 01 8d 20 3e 99 32 08 be 60 44 3d be
       0.058829516 0.15678789 -0.13300551 -0.18483114
000200 e4 33 c7 bc e6 da 1a be 88 58 ea bd 13 74 ba bd
       -0.024316736 -0.15122566 -0.11442667 -0.09104171
000210 5d d2 d3 3d c5 66 ae 3d ec 46 4e 3d bc 21 0f 3e
       0.10342858 0.085156955 0.050360605 0.13977712
000220 0b 7a fa bd 5f af 3d 3e c6 c7 ea bd 99 0c bc 3d
       -0.12230309 0.1852393 -0.11463885 0.0918209
000230 b4 05 25 be 71 b5 a3 bd bb 36 05 be c6 30 aa bc
       -0.16115457 -0.079935916 -0.1300916 -0.02077521
000240 89 91 34 3e 40 8b a5 bd fe 50 a6 bd c4 37 b6 bd
       0.17633642 -0.080832005 -0.08120917 -0.08897355
000250 3b 1c 37 be 26 cb a3 bd 11 3d 03 3d fb 26 ad 3d
       -0.17881863 -0.07997732 0.03204066 0.084547006
000260 1d 4b 46 bd a7 fc 2f 3e 4e 9b 52 bc 45 26 e3 3d
       -0.048411477 0.17186223 -0.01285441 0.11091284
000270 8a c6 ad bc 6e 0d bc 3d 84 77 00 3d b7 de 09 3e
       -0.021212835 0.09182249 0.03136398 0.13463865
000280 7a 29 27 3c 89 ee 28 3b 27 7f d6 3d 48 bf b9 3d
       0.01020276 0.0025776944 0.10473471 0.09069687
000290 51 85 95 3d f8 66 d3 3d 95 d6 9f 3c ee c3 36 be
       0.07300819 0.10322374 0.0195115 -0.17848179
0002a0 3c 6c 8e 3d 83 01 33 3e 11 e7 2a be ac 1a 9c 3d
       0.06954238 0.17481045 -0.16689707 0.07622275
0002b0 a0 3a 15 3e ca 4e e8 3b b1 24 0f bd 9b 21 a7 bb
       0.14573145 0.0070894705 -0.0349471 -0.0051004416
0002c0 62 21 c3 bd 39 94 0a 3e 33 9d e2 3d 93 6a e7 bc
       -0.09527852 0.13533105 0.110651396 -0.02824906
0002d0 76 39 93 3c 01 c6 43 3d 08 ef 8e bb 68 7a b4 bd
       0.017971735 0.047796253 -0.004361991 -0.0881241
0002e0 66 2d a3 3c 40 07 6a 3d 5e c0 91 b9 71 f4 14 3d
       0.019919109 0.05713582 -0.0002779988 0.03636593
0002f0 b1 ce 9f bd d8 d9 08 3d 4f 27 b2 3d d3 6d e2 3d
       -0.07803095 0.033410877 0.08698904 0.110561036
000300 c3 9d b8 bd 98 a2 95 bd 4e 15 d3 bd 49 3d a5 bc
       -0.09014466 -0.07306403 -0.10306798 -0.020170825
000310 74 47 9c bd e8 22 ca bd d9 88 b7 bc 7c f7 c5 bd
       -0.07630816 -0.09869939 -0.022404121 -0.096663445
000320 c9 4e 2a 3e 46 df b3 3d ec 84 e0 bc b4 d4 58 bd
       0.16631617 0.087828204 -0.027407132 -0.052937225
000330 2d d3 e7 3b 2b b1 32 3e 19 68 67 bc cc 57 74 bd
       0.0070747347 0.17450397 -0.01412394 -0.059654042
000340 d9 0e c1 bd dd ae 64 bd 53 e3 f6 bd 05 05 70 be
       -0.0942666 -0.055830825 -0.120550774 -0.23439415
000350 85 55 e2 bc d1 a3 de bd ec 44 d8 bd c6 98 2c be
       -0.02762867 -0.10871089 -0.10560021 -0.16855153
000360 f2 bb 7a 3e 05 75 42 3e db 7a 5d be f0 06 e7 3d
       0.24485758 0.18989952 -0.21628897 0.1128062
000370 5c 09 f9 3d ce 7e 92 be c2 a6 95 3c eb 3b 35 be
       0.12159988 -0.2861237 0.018267993 -0.17698638
000380 98 ad c1 3e 4e c5 05 be ce 79 62 be 56 df ec bc
       0.37827754 -0.13063547 -0.22116777 -0.028915089
000390 65 e0 18 be 52 7f ab bd a7 79 d3 3d 22 8d 00 be
       -0.1492935 -0.08373894 0.10325938 -0.12553838
0003a0 80 7b e7 bd 82 58 ca bc 1a 84 5d 3d 83 6d 81 3c
       -0.11302853 -0.024700407 0.05408106 0.01579929
0003b0 e8 4d 96 3c 8e 58 43 3e b4 1d 07 bc 1a 52 41 3e
       0.018347695 0.1907675 -0.008246828 0.18878976
0003c0 96 0f 04 3e c7 5c f2 bd e1 fc 19 3c bf 19 02 be
       0.1289657 -0.11834102 0.00939867 -0.12705134
0003d0 84 b7 23 be cb 96 0c bd d8 50 14 3e fb 70 e9 bd
       -0.15987974 -0.034323495 0.14483964 -0.113985024
0003e0 f9 37 83 bd 09 e6 29 bd a9 cc 17 bd 44 52 47 3d
       -0.0640716 -0.041479144 -0.037060414 0.04866244
0003f0 eb 30 a5 3d 94 92 32 3e d0 28 40 bd 7d 28 75 3c
       0.08065971 0.17438728 -0.04691392 0.014963266

combine_proj.bias f4 [128]
000000 fa f4 27 bb 17 5a 38 3b 69 f2 7b 3b c7 71 66 3a
       -0.0025628195 0.002812987 0.0038444048 0.0008790758
000010 a6 69 54 b8 93 ec 56 3a 13 12 77 3b e4 ae a4 bb
       -5.064313e-05 0.00081987045 0.0037699982 -0.0050257314
000020 4d 77 e8 39 32 dc 03 39 36 95 6b 3a 46 ea a2 3a
       0.00044339374 0.00012575163 0.0008986773 0.0012429438
000030 ed 6e 17 3b 39 2f 01 bb 33 42 35 3a c5 8d 8b 3a
       0.0023106888 -0.0019711985 0.00069144665 0.0010647109
000040 59 ce 04 b9 8e 9a 70 ba 6d 22 89 3a 48 d0 8e 39
       -0.00012665371 -0.0009178304 0.001046253 0.00027239532
000050 41 5d 2e 3b 4e b3 e4 3a d1 73 67 ba e6 ca 1e ba
       0.0026605877 0.0017448456 -0.00088292087 -0.0006057456
000060 43 7f 21 3b bb 22 90 3b 1f 70 61 3a 0d c7 a4 ba
       0.0024642504 0.0043986714 0.0008599776 -0.0012571529
000070 ae 11 89 bb 84 8a 41 3a b3 89 aa 3a 62 5c 1d ba
       -0.004183016 0.0007383006 0.0013011008 -0.0006002841
000080 1b 09 44 bb 34 7a da 3a 11 27 72 39 39 41 d0 b7
       -0.0029912654 0.00166685 0.00023093472 -2.4825904e-05
000090 f9 d8 45 ba 57 39 7b 3a ad c9 9c ba ba ab 3e 3a
       -0.0007547285 0.00095834344 -0.001196196 0.0007273514
0000a0 be 0f eb 3a 79 3c 7c 38 17 9a 1e bb 4b 2f 9d ba
       0.0017933769 6.01378e-05 -0.0024200731 -0.0011992244
0000b0 44 f9 bf 3a 96 90 cc 3a 47 b2 fa 39 e9 fe 3f 3b
       0.001464643 0.0015607055 0.00047816543 0.0029296225
0000c0 60 84 95 3a c3 ab 11 bb f6 b2 73 bb d4 41 5d b9
       0.0011407249 -0.0022227622 -0.0037185526 -0.00021100725
0000d0 34 ef 28 39 ed 70 02 bb ec 0d 06 3b ec c4 b9 3a
       0.00016110839 -0.0019903735 0.0020455075 0.0014173067
0000e0 9d 6b 77 ba b7 3a 37 bb 1f 0e 05 3b c8 98 7a 3b
       -0.0009438338 -0.002795858 0.0020302606 0.0038238037
0000f0 1e 9d 91 39 aa 91 e6 3a 86 28 3c 39 ec 97 3e 3b
       0.00027773617 0.0017591019 0.00017944173 0.0029082252
000100 6a 65 8e 3a 17 07 6e 3b d9 fe 11 3a cc a2 2a ba
       0.0010863964 0.0036320144 0.00055692863 -0.0006509244
000110 8d d4 ae ba 7a 38 97 39 07 03 32 3a f0 06 0e 3b
       -0.0013338492 0.00028843043 0.0006790612 0.0021671616
000120 43 8f bd 3a f2 c6 22 3b e2 12 f0 3a 22 66 30 3b
       0.0014462251 0.002483782 0.0018316174 0.0026916345
000130 50 b9 f4 3a 13 5c 73 3b a2 ec 49 bb 88 d2 35 3a
       0.001867095 0.0037133738 -0.003081121 0.00069359737
000140 e7 b3 c1 ba 84 82 74 bb 00 4f 54 ba 73 db 4f 3b
       -0.0014778347 -0.0037309239 -0.000809893 0.0031716495
000150 6a 39 42 ba 76 85 2d ba d4 d0 ab ba 24 9a 3c 3b
       -0.0007409068 -0.00066193135 -0.00131085 0.0028778398
000160 19 a4 7f ba de 10 8a ba 1d 20 83 3b 53 6b 10 bb
       -0.00097519305 -0.0010533591 0.004001631 -0.0022036626
000170 9d fd c8 b9 22 64 49 3b fb a1 62 ba 77 0e 31 bb
       -0.0003833593 0.003072985 -0.0008645353 -0.0027016678
000180 ce 50 85 b6 bb c7 15 3b e0 86 79 ba cc a7 df 3a
       -3.973116e-06 0.0022854644 -0.0009518694 0.0017063557
000190 65 82 3c 3b db a7 6c bb b5 d6 2c 3b 3f 32 0a bb
       0.0028764245 -0.0036110792 0.0026373093 -0.0021087078
0001a0 96 13 8f bb f4 e7 37 3a fc b4 aa b9 10 1c 60 bb
       -0.0043663485 0.00070154597 -0.0003255977 -0.0034196414
0001b0 2a da 8a bb f4 fa cb 3a eb 58 5b 3a a2 45 37 3b
       -0.004237433 0.0015562461 0.0008367437 0.0027965088
0001c0 76 57 34 3a d9 79 13 3b 03 f9 44 b9 f7 e5 00 bb
       0.0006879488 0.0022503047 -0.0001878478 -0.001966832
0001d0 41 42 35 3b 0d a6 27 3b 95 cb 0b bb 82 3b d5 b9
       0.0027657899 0.0025581152 -0.002133106 -0.00040670863
0001e0 66 db 94 bb 6b 8e 06 3a f6 31 50 39 3f 9f 72 39
       -0.004542756 0.0005132916 0.00019855038 0.00023138242
0001f0 da cb 93 3b f7 3f 9d ba 7f 06 1a bb eb ad 3d bb
       0.004510385 -0.0011997212 -0.0023502407 -0.0028942775

fc1.weight f4 [128, 128]
000000 06 1c 84 bc 0e ae 40 3e 59 3f c0 bc a8 36 e8 bd
       -0.016126644 0.18816397 -0.023467707 -0.1133855
000010 db a2 b1 bd e2 8d eb 3d 3c a3 ce bd 0f 94 26 bc
       -0.0867364 0.115016714 -0.10089728 -0.010167136
000020 31 dd 5f 3d 8b 91 a5 3d be ef 76 3d 0b 60 16 be
       0.054654304 0.08084401 0.06028723 -0.14685075
000030 6c e6 6e bd d1 8f 7c bd aa e0 74 bc ea ee de bd
       -0.058325216 -0.06166059 -0.014946142 -0.10885413
000040 da b7 3a 3e fe cb 47 3d 33 71 31 3e 9a 3f 85 3d
       0.18234196 0.048778526 0.17328338 0.06506272
000050 bb 36 a1 bd 70 55 d9 bc d0 6a e6 bd 19 db 34 3e
       -0.07871767 -0.026529998 -0.112508416 0.17661704
000060 cb 50 4c 3d 7c 86 d5 3c 38 76 c1 bd 3c 4f d3 bc
       0.049881738 0.026065104 -0.094463766 -0.025794618
000070 ba 5e 96 3d 9c 6e e9 bc 19 30 3d 3d 8f f1 7e 3d
       0.073422864 -0.028495125 0.046188448 0.062242087
000080 90 8b 9c bd 24 b6 b1 bc 40 4c 07 bd 19 89 16 3e
       -0.07643807 -0.021693297 -0.033031702 0.14700736
000090 e4 11 f6 bd da 4e 3d be 5c 06 2c 3e f3 b6 45 bc
       -0.12015131 -0.1848711 0.16799301 -0.012067544
0000a0 10 36 b2 bd 64 2d eb bc 71 fa e8 bc 94 0b 36 bd
       -0.08701718 -0.028708167 -0.028439732 -0.044444636
0000b0 17 fa 2c bc 83 3e 41 bd 30 9d 8b 3d de 00 78 3d
       -0.010557673 -0.047178756 0.068170905 0.060547702
0000c0 4d 56 51 3b 71 d3 81 bd a1 88 61 3d f5 86 76 bd
       0.0031942308 -0.063391574 0.05506194 -0.0601873
0000d0 2d af c3 bd a2 26 08 3e f4 f3 c7 bd 66 92 15 be
       -0.095548965 0.13295987 -0.09763327 -0.14606628
0000e0 68 5e 1f bd cf f0 b9 bd b5 ae fe bd c2 85 7b 3d
       -0.038908392 -0.09079134 -0.124356665 0.06140686
0000f0 6a be 8c 3e b5 2d 73 bd 83 7a cc 3d ac 87 e7 3d
       0.27489024 -0.05936976 0.09984305 0.11305174
000100 3e bb 4a bb ee 37 c7 bd fb e4 05 3e aa 40 1c 3b
       -0.003093436 -0.097274646 0.1307563 0.0023842254
000110 72 4f 06 3e 50 1e a0 3d 37 1b 06 3e 7e c2 1f bd
       0.13116243 0.07818282 0.13096319 -0.03900384
000120 28 f4 ca bb c9 93 f9 3d bb 54 38 3e 9e 0c 32 be
       -0.0061936565 0.12186391 0.18001072 -0.17387626
000130 91 e9 69 be 75 b1 c3 bc a1 91 46 3e 47 bb 7c bb
       -0.22843005 -0.023888329 0.1939149 -0.0038563774
000140 65 4c 0b be f6 be a0 3d ef c0 77 bd 0d dd 01 3e
       -0.13603361 0.07848923 -0.06048673 0.1268198
000150 28 73 d5 3d c7 42 3c be 4f 9c 66 bd a5 84 16 bd
       0.10422355 -0.18384849 -0.05630141 -0.036747593
000160 f3 34 ff bd 3d 72 00 be 4f 07 13 3e cf f6 28 3c
       -0.12461271 -0.12543578 0.14358257 0.01031275
000170 62 10 36 3e 71 ca 5f 3d c2 3d e6 bd d9 31 6f bd
       0.17779687 0.054636423 -0.11242248 -0.058397148
000180 76 8d 8e bc 77 cc c4 bd c6 6d 00 be 77 1f 3c be
       -0.017401438 -0.09609311 -0.12541875 -0.18371378
000190 45 ad b1 3c 20 b6 90 bd 8e 69 c5 3d f9 2e ad 3c
       0.021689067 -0.070659876 0.096392736 0.021140562
0001a0 c0 ce b3 3c 56 c6 97 3d 2e 17 2e 3e a5 20 1e 3d
       0.021949172 0.074108765 0.1700103 0.03860535
0001b0 50 95 48 3e fa 8c 80 3c 93 be fc bd 91 91 9c bd
       0.19588208 0.015692223 -0.12341037 -0.07644952
0001c0 63 be 15 be 2d d3 ba bd 47 6b 82 bd dc cf c0 3d
       -0.14623408 -0.0912231 -0.06368118 0.09414646
0001d0 b9 84 59 bc 94 0a 81 3d ee 7b 93 bd f4 f1 4b be
       -0.013276272 0.06300846 -0.07201372 -0.19916517
0001e0 fb 29 bc bd bd 4c 0a be f9 30 80 bc 4b dd 16 3d
       -0.09187695 -0.13505836 -0.015648352 0.036832135
0001f0 ff 51 86 bd 9a 79 eb 3d b6 e7 fc bc 73 25 c5 3b
       -0.06558608 0.11497803 -0.030872207 0.006016427
000200 3d 4b 9c 3c 44 b7 dc 3c 19 d4 13 bd 09 5a 18 3a
       0.019078845 0.026942857 -0.036090944 0.0005811756
000210 ef 9f f6 3d cf c8 02 be 2d c0 2e 3e ae 4c 63 bd
       0.12042224 -0.12771915 0.17065497 -0.05549305
000220 ad c9 19 3d f7 46 64 3e ef 26 12 be 6c d9 02 be
       0.03754585 0.22292696 -0.14272664 -0.12778252
000230 4b c7 02 3e 85 e0 20 3e c1 73 73 3d aa c3 f9 bd
       0.12771337 0.15710647 0.059436563 -0.12195523
000240 d1 8c 0b 3c 93 a4 78 bc b8 22 77 3d 46 7d 8f 3d
       0.00851746 -0.015175956 0.060335845 0.07006316
000250 b4 72 b2 bd e3 51 36 3c 25 3e 46 bd 8d 35 13 3e
       -0.08713284 0.011127922 -0.04839911 0.14375897
000260 b9 60 ac bd 64 35 65 bd ae 89 c6 3d 22 10 ea 3c
       -0.08416886 -0.05595912 0.09694229 0.028572146
000270 5c 55 e6 3c b7 67 f0 3d 81 ef 63 be 80 af 24 be
       0.028116874 0.11738532 -0.22259332 -0.16082573
000280 5c 6c c0 bd db 06 88 bd 8b 21 13 be 99 bc c4 bd
       -0.09395668 -0.066419326 -0.14368264 -0.09606285
000290 83 50 49 bd 4b 31 88 bc a7 74 0b be 45 38 0a bc
       -0.049149048 -0.016625067 -0.13618718 -0.008436267
0002a0 13 0f c6 3d fb 5a d4 bc db 36 03 bc 6d 02 5e 3d
       0.09670844 -0.02592229 -0.008008684 0.054201532
0002b0 41 92 1d be 3b 40 7e 3b ff 0f 9b bd b8 c0 9a bd
       -0.15387823 0.0038795609 -0.075714104 -0.075562894
0002c0 02 05 12 bd a7 ee e9 3b c9 b5 a3 3d 71 f5 99 3d
       -0.035649307 0.0071390453 0.07993657 0.07517517
0002d0 83 eb c3 bd 86 ce 3a bd 0a d9 9b 3c 6b 74 4d be
       -0.09566405 -0.045607112 0.01902439 -0.20063941
0002e0 9a 9b ff bc fd 84 6f 3e a6 fb b9 bd 45 23 33 3d
       -0.031202126 0.23390575 -0.09081201 0.043734808
0002f0 29 ca e6 bd c7 dd 7e 3d 00 1e ee 3c 84 e6 f4 bd
       -0.11269028 0.062223222 0.02906704 -0.1195803
000300 67 34 57 bd 70 bb a4 bd b4 2a 31 be b8 1f f7 bc
       -0.05254021 -0.08043563 -0.17301446 -0.030166492
000310 a7 e1 86 bd 37 29 fb 3c 81 8a f5 3d d1 4e d9 bc
       -0.065860085 0.030659301 0.11989308 -0.02652684
000320 c8 21 44 3d cf 49 8f 3d 80 bc bc 3d 44 d6 0d bc
       0.04788378 0.069965 0.09215641 -0.008657042
000330 7d f1 2b 3e 94 f5 97 bc 10 0e 08 3e ba a5 01 3e
       0.16791339 -0.018549718 0.13286614 0.12660876
000340 c1 42 c2 bc a5 42 ba 3d 63 b4 3c bd 05 04 c8 3d
       -0.023713471 0.09094743 -0.046070468 0.09766392
000350 a7 c0 d1 bd 66 8a 55 ba ed f3 f4 3d 6f b3 50 be
       -0.10241824 -0.0008145928 0.11960588 -0.20380948
000360 8f 56 ca 3d e4 ac fb 3d f8 33 09 3e 08 af 7c 3d
       0.09879791 0.12288836 0.13398731 0.06169036
000370 aa 02 0b bb 7b b3 b6 bd de f8 82 3d ad 77 ba 3d
       -0.0021211305 -0.08920952 0.06395124 0.091048576
000380 5a 41 8e 3c d2 93 3e be 0e 1c 17 be 24 4c d7 bd
       0.017365146 -0.18611076 -0.14756796 -0.105125695
000390 50 1b ef 3d 2f 49 3b 3e 7c 66 ff bc 6b c5 0a 3e
       0.11675131 0.18289636 -0.031176798 0.13551871
0003a0 76 4c 0b be 39 dc 32 3d 26 86 14 3d a3 fc c8 bc
       -0.13603386 0.043667052 0.036260746 -0.02453453
0003b0 dd e4 d7 3a 9b e3 00 3d b2 e7 8e 3d 70 0c 3a 3d
       0.0016471405 0.03146706 0.06977786 0.045422018
0003c0 f4 61 f1 3d 68 f2 b3 bd e8 4b 89 bd a7 97 21 be
       0.11786261 -0.0878647 -0.06703931 -0.15780507
0003d0 de 5a 3c be 4e 93 2c bd 7e 6f 27 be e4 a5 60 bd
       -0.18394038 -0.04213267 -0.16351125 -0.054845706
0003e0 2c 02 1c 3e 0b 57 11 3e 53 83 85 bd 55 f7 98 3d
       0.15235204 0.1419336 -0.06519189 0.0746905
0003f0 37 27 06 3e 34 16 70 3a 72 dd f0 3d 8c 1a 4b 3e
       0.13100897 0.0009158582 0.11760987 0.19834346

fc1.bias f4 [128]
000000 a0 b5 71 ba 48 17 b7 ba 15 c9 f2 b9 4d 56 50 3a
       -0.00092204846 -0.001396873 -0.00046307655 0.000794743
000010 10 67 90 b8 30 0c e2 b8 4c 72 e1 3a 60 87 5a b9
       -6.885652e-05 -0.0001077879 0.0017200201 -0.00020840531
000020 b6 40 0c 3b ce 1f a1 ba 90 53 07 b9 f1 d0 93 b9
       0.0021400875 -0.0012292804 -0.00012905733 -0.00028193698
000030 dc 4c 16 ba 74 ae 94 ba ae 71 b6 3a 67 3e 8f ba
       -0.0005733499 -0.0011343495 0.0013919377 -0.0010928632
000040 0f f6 2c bb dd 03 07 ba f5 a7 7f b9 c1 ac d6 ba
       -0.002639178 -0.0005150417 -0.00024381264 -0.0016378389
000050 e7 ab 8f 3a 1f 7a 67 3a 00 d4 ad 3a e6 02 a0 b9
       0.0010961265 0.0008830148 0.0013262033 -0.00030519738
000060 88 3a 03 ba 52 93 24 3a 15 6f cb ba 65 8f cb 39
       -0.0005005975 0.0006278056 -0.0015520776 0.00038826014
000070 9d 3f d1 ba 41 31 ba ba 66 b0 ff 3a 8c 6e 72 ba
       -0.0015964393 -0.0014205353 0.0019507527 -0.000924804
000080 45 d2 52 b9 81 b8 e7 3a 32 8a 08 3a 89 a9 c3 ba
       -0.00020105492 0.0017678888 0.0005208581 -0.0014927845
000090 da 02 b1 3a 28 b3 4c 39 05 b6 24 39 a0 a8 6a 39
       0.0013504878 0.00019521697 0.00015708066 0.00022378797
0000a0 a8 19 92 39 b0 6e e0 39 80 c7 30 bb a1 ac ea b9
       0.00027866405 0.00042807078 -0.002697438 -0.00044760577
0000b0 05 6f 72 39 cd d7 9d 3a b3 65 db 3a 68 89 a5 b8
       0.00023120276 0.0012042463 0.0016738683 -7.893407e-05
0000c0 29 4a 88 37 06 0e 6d ba d1 6e df b9 a3 08 e8 3a
       1.6246997e-05 -0.0009042922 -0.0004261644 0.0017702769
0000d0 9e 91 d5 3a 86 17 b6 ba da 7f 26 3a fe f5 4d 3a
       0.0016294008 -0.0013892509 0.0006351449 0.0007856785
0000e0 99 b6 08 bb 20 10 b2 39 71 c6 8b ba b3 e1 0a bb
       -0.002086079 0.0003396282 -0.0010663999 -0.0021191656
0000f0 08 9e 8e ba de 9b f3 39 96 86 8d 3a a2 fb 54 36
       -0.0010880837 0.00046464702 0.0010797556 3.1736931e-06
000100 0e 86 77 ba ca 7f ff 39 cc 17 63 ba 7c 01 4b bb
       -0.0009442278 0.000487326 -0.0008662909 -0.0030976227
000110 9f 02 07 ba b4 35 ff 39 46 8f 2f 3a d2 82 8b ba
       -0.0005150232 0.00048677402 0.00066970696 -0.0010643846
000120 b9 42 79 39 10 66 8f ba a5 9e 0f 3a 77 4c e0 39
       0.00023771347 -0.0010940451 0.0005478657 0.0004278158
000130 af c6 9e 3a 79 58 19 3b 69 bf 80 3a 02 eb c2 38
       0.0012113656 0.002339868 0.000982267 9.2944145e-05
000140 44 17 40 b9 88 18 c7 39 35 42 be ba d6 30 08 39
       -0.00018319214 0.00037974515 -0.0014515581 0.00012988164
000150 53 25 f1 37 3c 9b e6 39 74 34 2d ba 16 b4 4f 3a
       2.874682e-05 0.00043984677 -0.00066072424 0.0007923258
000160 3f 82 4f 3a 79 63 4b b9 6d 0e 42 b9 e7 d1 12 bb
       0.00079158315 -0.00019396645 -0.00018506656 -0.0022402944
000170 b5 2f e7 b9 c5 36 9c 3a 27 26 47 b9 b6 17 9d ba
       -0.00044095298 0.0011918178 -0.00018992332 -0.0011985216
000180 3f 28 56 3a 8d 3e 2d 39 77 13 bd 39 17 bf 2d 3b
       0.0008169449 0.00016521868 0.00036063392 0.0026511604
000190 8c e0 4f 3a 3e df 5d 3a 5f 25 5f 39 f8 7d ef 3a
       0.00079298834 0.00084637466 0.00021280859 0.0018271795
0001a0 c8 b7 58 ba 36 d0 80 39 cc 02 de 3a c7 72 ca 37
       -0.00082671316 0.00024569192 0.0016938089 2.4133724e-05
0001b0 9d d3 5b ba 73 b2 a4 ba 8e e6 04 ba 86 48 1e 3b
       -0.000838572 -0.0012565389 -0.0005069756 0.0024152114
0001c0 c0 8e c8 b9 9d 1b 04 ba 72 bf 09 ba 8e 29 b6 ba
       -0.0003825333 -0.0005039515 -0.0005254663 -0.0013897882
0001d0 98 bf 15 bb b4 81 a7 39 f1 bc c0 ba 22 5a 02 39
       -0.0022849794 0.00031949359 -0.0014704746 0.00012431343
0001e0 6d c8 29 bb ef 9d f8 b9 fd bf 9e b9 c0 08 cd ba
       -0.0025906817 -0.00047419916 -0.0003027915 -0.0015642866
0001f0 6f 00 74 ba 9d 82 5d 3b 31 d0 cb ba d7 5a eb ba
       -0.0009307926 0.0033799775 -0.0015549717 -0.001795615

bn1.weight f4 [128]
000000 33 8e 60 3f c0 1b 77 3f 87 88 74 3f 32 5e 8c 3f
       0.8771698 0.9652672 0.95520824 1.0966246
000010 b6 7b 86 3f 4c d3 57 3f 59 87 7d 3f a9 e4 80 3f
       1.0506504 0.8430679 0.9903465 1.0069782
000020 96 9b 63 3f ea f9 7f 3f 20 fe 84 3f 0d 76 90 3f
       0.8890928 0.99990714 1.0390053 1.1286026
000030 10 4e 84 3f 6b ad 83 3f 73 0e 82 3f 8b 28 78 3f
       1.0336323 1.0287298 1.016066 0.96936864
000040 0a 25 86 3f 50 0b 83 3f d1 14 95 3f d2 0b 83 3f
       1.0480053 1.0237827 1.1646978 1.0237982
000050 30 ec 70 3f 60 69 7f 3f 0e 83 75 3f 6b f5 91 3f
       0.94110394 0.99770164 0.959031 1.1403021
000060 57 0e 7b 3f d4 18 89 3f 4d 7d 85 3f 3a 1c 58 3f
       0.98068756 1.0710702 1.0428864 0.8441807
000070 5d 40 5c 3f 6f ba 8c 3f 5b c5 7a 3f f5 bb 93 3f
       0.8603571 1.0994395 0.9795739 1.1541735
000080 4a 2f 87 3f f7 4d 6c 3f 7f b8 4e 3f 63 70 81 3f
       1.0561306 0.92306465 0.8075027 1.0112423
000090 ae 59 77 3f 26 6e 86 3f 3e c4 7c 3f 59 f3 83 3f
       0.96621215 1.0502365 0.9873694 1.0308639
0000a0 bc 04 93 3f e3 5b 66 3f 19 b6 5f 3f 3c 28 6e 3f
       1.148582 0.8998396 0.87387234 0.9303014
0000b0 f0 3a 8b 3f e1 24 91 3f 78 c9 84 3f a6 69 80 3f
       1.0877361 1.133938 1.0373983 1.0032241
0000c0 c2 14 71 3f 4d 9b 44 3f 78 24 57 3f 89 e7 7d 3f
       0.941723 0.7679947 0.8404002 0.9918142
0000d0 52 66 85 3f 1b 5d 71 3f 50 6f 86 3f e2 29 76 3f
       1.0421851 0.9428269 1.050272 0.9615766
0000e0 f4 bc 8e 3f ae 18 80 3f ca fd 7c 3f 8f c1 8b 3f
       1.1151414 1.0007532 0.9882475 1.0918444
0000f0 88 35 81 3f 36 9d 6f 3f 85 6c 8c 3f 3f 5b 80 3f
       1.0094461 0.9359926 1.0970618 1.0027846
000100 bd 3f 77 3f b5 8a 8f 3f 4c b9 71 3f 50 f0 6b 3f
       0.9658163 1.1214205 0.94423366 0.9216356
000110 38 82 9c 3f 64 d9 80 3f 37 d4 85 3f 5a 5b 8f 3f
       1.222724 1.0066342 1.0455388 1.1199753
000120 8f 2f 87 3f 33 64 84 3f 06 96 6b 3f 9b 41 88 3f
       1.0561389 1.0343078 0.9202579 1.0645021
000130 ec e6 7c 3f 3f 0b 66 3f 2b a6 7e 3f 8c 4f 6b 3f
       0.9878986 0.8986091 0.994723 0.91918254
000140 56 20 72 3f 63 61 94 3f ef e6 85 3f 83 46 7d 3f
       0.9458059 1.159222 1.04611 0.9893572
000150 68 7e 92 3f 5a d3 62 3f a7 0d 81 3f a3 67 82 3f
       1.1444826 0.88603747 1.0082291 1.0187877
000160 c8 62 66 3f 8c 92 6c 3f db 0d 7f 3f 10 30 7e 3f
       0.8999448 0.9241111 0.99630517 0.9929209
000170 26 fc 79 3f 16 47 6d 3f 3a fd 78 3f a4 35 83 3f
       0.97650373 0.92686594 0.97261393 1.0250745
000180 7e 7f 87 3f da 78 90 3f fe 0f 78 3f 61 56 84 3f
       1.0585783 1.1286881 0.968994 1.0338861
000190 42 9b 8f 3f e8 f7 6b 3f 35 bf 4d 3f e3 5f 66 3f
       1.1219256 0.9217515 0.80369884 0.8999006
0001a0 9a dc 87 3f 9c a1 88 3f f3 b7 80 3f 54 8d 91 3f
       1.0614197 1.0674319 1.0056137 1.1371255
0001b0 f1 08 82 3f a3 c9 88 3f 93 6c 88 3f e1 b7 73 3f
       1.0158979 1.0686535 1.0658134 0.9520245
0001c0 ee 3d 82 3f fb c9 6e 3f 7b 0b 81 3f 6a 7f 66 3f
       1.017515 0.9327695 1.0081629 0.9003817
0001d0 64 8e 89 3f c5 e5 81 3f 3f 4b 4e 3f 39 23 89 3f
       1.0746579 1.0148245 0.80583566 1.0713874
0001e0 f8 aa 53 3f f1 32 70 3f 61 cb 80 3f 12 41 8a 3f
       0.8268275 0.9382773 1.0062066 1.0801108
0001f0 5f b1 87 3f 73 bc 6c 3f f9 75 90 3f 0f 65 84 3f
       1.0601004 0.9247505 1.1286002 1.0343341

bn1.bias f4 [128]
000000 e4 d1 ff bd 3c 14 c4 bd 0d 7b fa bd b1 1e 1b bc
       -0.12491205 -0.09574172 -0.12230501 -0.009467767
000010 13 a1 51 bd 71 fa 38 be 43 a0 3a be c5 31 21 be
       -0.051179003 -0.18064286 -0.18225197 -0.15741642
000020 ff 7f 27 be f9 b1 a7 bd ad d8 fb bd aa e7 17 bd
       -0.1635742 -0.081882425 -0.12297187 -0.037086166
000030 e8 76 3b be 0c 4b bb bd 85 2d a1 bd ef 0d 31 bd
       -0.18307078 -0.091451734 -0.0787001 -0.04322618
000040 46 37 66 be 1f a1 42 be 06 75 a4 bd a1 8b 84 be
       -0.22482023 -0.19006775 -0.08030133 -0.25887778
000050 fb 86 12 be 04 a8 39 be 55 51 35 be 11 db 60 bd
       -0.14309303 -0.18130499 -0.17706807 -0.054896418
000060 e4 91 57 be 91 35 12 be 3b a0 ef bd 41 77 40 be
       -0.21051747 -0.14278246 -0.117004834 -0.18795492
000070 a3 66 49 be 0a bb 1d be ea 2c 5e be 48 c4 06 bd
       -0.19668059 -0.15403381 -0.21696821 -0.032902032
000080 d7 4a 3e be 51 08 f1 bd 9e c9 79 be ec bf f2 bd
       -0.18583237 -0.11769164 -0.24393317 -0.118530124
000090 3a f1 5d be 25 02 2f be 8f cd ce bd b6 3e d1 bd
       -0.21674052 -0.17090662 -0.10097801 -0.10217039
0000a0 9f 8c 50 bd e8 04 a8 bd ea c6 44 be 33 91 01 be
       -0.050915357 -0.08204061 -0.19216505 -0.12653045
0000b0 e2 f8 14 bd a6 3f 1b be 3b d4 a8 bd 8d 6c 1a be
       -0.036370166 -0.15160999 -0.08243605 -0.15080471
0000c0 22 6d 39 be ba 52 69 be ab 99 85 be b6 44 30 bd
       -0.18108037 -0.22785464 -0.26093802 -0.043034278
0000d0 7e 71 d5 bd c4 c0 43 be a5 d5 16 be 84 c1 ad bd
       -0.104220375 -0.19116503 -0.14729936 -0.08484176
0000e0 36 f7 74 bd 3a d4 c0 bd e7 8a 1a bd 6d ed a1 bd
       -0.05980607 -0.09415479 -0.037730124 -0.079066135
0000f0 08 1c 54 bd af 30 0b be 9a 3a ac bd 70 a1 51 be
       -0.051784545 -0.1359279 -0.08409615 -0.2047174
000100 48 d5 e8 bd eb 42 06 be da 26 33 be 2c f3 5a be
       -0.11368805 -0.13111465 -0.1749529 -0.21381825
000110 40 52 5e bd e4 ba 32 bd 2a 96 a0 bd 9b fd 95 bd
       -0.05427766 -0.043635264 -0.078411415 -0.07323762
000120 86 53 62 bd 44 c8 d4 3b cf b4 7b be 3c 39 e6 bd
       -0.055255435 0.0064936 -0.24580692 -0.11241385
000130 d9 84 6d be 4f 51 4f be b5 e8 26 be 37 09 99 bd
       -0.23195209 -0.2024586 -0.16299708 -0.07472461
000140 66 36 f8 bd 33 43 f3 b9 ea 77 f5 bd 86 38 41 be
       -0.12119751 -0.0004639864 -0.119857624 -0.18869218
000150 73 fd f9 b9 b8 c2 60 be 9c f7 2e be ae 74 e5 bd
       -0.00047681815 -0.2194928 -0.17086643 -0.112038955
000160 a2 d3 47 be 1a 46 f6 bd a5 b6 fa bd 45 8f b3 bd
       -0.19514325 -0.120250896 -0.12241868 -0.08767561
000170 7c 8f 4f be 83 8c d3 bd 5b 08 3d be 0c 17 9f bd
       -0.20269579 -0.10329535 -0.18460219 -0.07768068
000180 71 4f 1b be 75 50 66 bd 18 bf 46 be 3c a9 81 bd
       -0.15167023 -0.056229074 -0.19408834 -0.06331107
000190 1f 28 13 bc 48 65 fb bd e6 f4 8e be b5 74 79 be
       -0.008981734 -0.12275177 -0.27921218 -0.24360926
0001a0 d7 f4 b4 bd d1 60 2d be 60 b2 dc bd f2 44 5b bd
       -0.08835762 -0.16931464 -0.1077621 -0.05353255
0001b0 b8 b4 03 be d5 f9 91 bd f1 16 c8 bd 9e 39 6a be
       -0.12861907 -0.0712773 -0.09770001 -0.22873542
0001c0 3c c5 b9 bd 0e 7d 8a bd d1 91 1c be 08 35 2d be
       -0.090708226 -0.067621335 -0.1529 -0.16914761
0001d0 ab 10 c8 bc eb ae 0e be 6b c1 96 be d9 d0 02 be
       -0.02442201 -0.13933913 -0.2944444 -0.12774982
0001e0 24 ff 57 be 44 19 3c be b2 a9 ae bd 0f 71 02 bd
       -0.21093422 -0.18369013 -0.085284606 -0.031846102
0001f0 0e a7 2f be c0 82 c2 bd 3e cf af bd dc 4d de bd
       -0.1715357 -0.09497595 -0.0858445 -0.10854694

bn1.running_mean f4 [128]
000000 86 99 10 3c 58 9c ec bd 4a 19 f1 bc 14 d3 4b 3d
       0.008825665 -0.11553258 -0.029431004 0.049761847
000010 2a 5b 67 bd 00 e0 f0 bb f7 95 2a bd 5b 5e 28 bd
       -0.056483425 -0.0073509216 -0.041646924 -0.04110561
000020 4a eb 6f 3c 00 2b c6 bd ea 44 6e bd eb c7 6b 3d
       0.0146435 -0.0967617 -0.05817119 0.057563704
000030 67 c3 65 bd d5 67 87 3d 19 c1 b1 bd 69 7d 87 bd
       -0.056094553 0.06611601 -0.086794086 -0.06615717
000040 12 fe 86 bd 9d 46 4b bd 34 53 a0 3d f5 2a f6 3c
       -0.06591429 -0.04962789 0.0782837 0.03004978
000050 d1 11 20 3d 5e 98 9f bd dc 51 1e 3c a2 97 71 3d
       0.03907949 -0.077927336 0.0096630715 0.0589825
000060 c6 82 94 bd 49 e9 51 3d 52 05 76 bd a5 16 6b 3c
       -0.072515056 0.05124787 -0.060063668 0.014348661
000070 9b c1 7d 3c 1b 9c 24 3d 6c 64 4d bd 1e 01 98 3d
       0.015488054 0.040187936 -0.050144598 0.07422088
000080 f6 0b 7b 3d 58 de 23 bd e5 2b ef 3c 1f fb 8e bd
       0.061290704 -0.040006965 0.029195735 -0.06981491
000090 a9 93 8f bc 52 91 7f 3d f5 63 a2 bd 63 c8 e2 bd
       -0.017526465 0.062394448 -0.079292215 -0.11073377
0000a0 bc b3 5e 3d f2 51 bc bc 50 f3 3a 3b 96 46 ac bd
       0.054370627 -0.022988293 0.0028526373 -0.08411901
0000b0 d6 c4 69 3d b9 53 c9 3d 69 9d 26 bd f5 fc 78 bd
       0.057072483 0.09830422 -0.04067746 -0.060788114
0000c0 dc 24 60 bd 6a 04 86 3d 26 87 3e bc 17 8c 9d bd
       -0.05472265 0.06543811 -0.011628902 -0.07692736
0000d0 07 71 9e bd b2 a5 a0 bd 7f ed 45 3d ae 54 56 bd
       -0.07736402 -0.07844104 0.048322197 -0.05232685
0000e0 66 36 3a 3d 1d a1 31 3d 58 d9 70 bd fd 53 63 3d
       0.045462035 0.04336654 -0.058801025 0.05550002
0000f0 7a 32 a5 bd 72 de c5 3a c4 e3 48 3d c3 88 21 bd
       -0.08066268 0.0015096201 0.04904534 -0.039437067
000100 73 4d ae bd b7 39 c3 bd 6d 00 9b bd 4b b6 ad bb
       -0.08510866 -0.095324926 -0.075684406 -0.005301272
000110 b0 e5 6d 3d a5 90 bf bd ef c1 89 bd 2b 9d 70 3d
       0.058080375 -0.09353761 -0.06726443 0.058743637
000120 84 ee 6f bd b4 57 96 bd ce 56 c7 3c ee bc c7 bd
       -0.058577076 -0.07340947 0.024333384 -0.09752832
000130 a1 47 a2 bd 35 c6 17 3d 21 44 a0 bd 30 c0 98 3b
       -0.079238184 0.03705426 -0.078254946 0.0046615824
000140 c6 a2 ea 3c 0e 5b aa 3d 19 44 b4 bd 81 67 6b bd
       0.02864207 0.083181486 -0.08802051 -0.057471756
000150 17 af 3b 3d ae 9a 0e 3d 3b 45 be bd 59 1c 66 3c
       0.045821276 0.034815483 -0.092905484 0.014044845
000160 5e 9b ea bc 9b 1e 63 bc 09 ca 12 bd bc 60 57 bd
       -0.028638538 -0.013862277 -0.035837207 -0.052582487
000170 77 12 46 bd 1b e7 d6 bc ef b8 9f bd 14 e7 9d bd
       -0.048357453 -0.026233247 -0.07798945 -0.0771009
000180 c4 3d 3d bd 4e fd 95 3d 25 a4 57 bd ff 93 3a 3d
       -0.046201482 0.07323705 -0.052646775 0.045551296
000190 b5 ad 64 3d 22 7d 27 bd 6f f0 6a 3d af bf f6 3c
       0.055829722 -0.04089082 0.0573582 0.030120699
0001a0 fd 81 82 3b 7f 20 8a 3d ec 10 45 bd 4d 36 a5 3d
       0.003982781 0.067444794 -0.04811184 0.08066998
0001b0 44 c1 6d bd e4 fc 69 bd 3f 5c b6 bd 08 99 63 3c
       -0.05804564 -0.05712594 -0.08904313 0.013891466
0001c0 c7 79 2a 3d 11 e8 b0 bd 42 16 d4 bb b1 b3 f0 3c
       0.041620042 -0.08638013 -0.00647238 0.029382559
0001d0 2b 8d 90 bd 13 d3 c1 bd 95 d6 c2 39 72 58 83 3d
       -0.07058176 -0.09464087 0.0003716244 0.06413354
0001e0 74 ff 7e bd 62 fa 15 bd 1a b1 c9 3c ea ae 9d 3c
       -0.062255338 -0.036615737 0.024620581 0.019248445
0001f0 1e d0 bf bd e5 0d 3f bd 04 e8 66 3d 04 5b 05 be
       -0.09365867 -0.04664411 0.05637361 -0.13023001
