models/classifiers/MLP2_RPA_w2v_bm.pth (torch, 296489 bytes, 19 tensors)

fc1.weight f4 [256, 113]
00000000: c979 5dbd 92ac 0b3e 8996 53bd dcbf d4bd
00000010: 22ca 9a3c 0a44 e53d e28e 66bc e09b 3e3d
00000020: 17c2 ae3c 66ba e2bc 0ac5 b13c ff90 873c
00000030: 6ad5 92bd 420f 1b3e 07f0 5dbc 4e7d 55bc
00000040: 706e 9bbd 0b20 a73c 3ee2 273c d458 b3bd
00000050: dde8 b2bd 84b9 09bd 2bf8 ffbd a356 0abe
00000060: fb84 ecbc 094e bd3d 4426 203d ae39 d43d
00000070: 626a 80bc 2863 d1bc 18b8 c5bb fc6e debd
00000080: 0b69 9b3b 9aba 033e a3df cabc e209 2dbd
00000090: 29ad 803d cc3f 1a3e 573c 00bd 0d14 273d
000000a0: 132e 793d 54d5 4dbd ef6d 893d b52e e8bd
000000b0: 6623 89bd eea4 083e 6db4 8fbd 6ebf 15bd
000000c0: 0354 003c b6ff 563c d2cf aabd 9e91 e9bc
000000d0: c163 44bd 1483 2a3d eb45 873d e7b2 c73b
000000e0: c4e9 413d b358 0d3e b64f 093e a93f d33d
000000f0: af33 be3d d6c0 6bbb ac00 873c 0b5f 173d
00000100: 7a61 bebd c1a4 ebbc 09ad aabd b193 923d
00000110: c908 a0bc e63f 223e 3858 e7bd fe4a 093e
00000120: aac8 263d 31bd 4bbc e18c 39bb 54d3 18bd
00000130: df8c 6b3d cdc6 83bc 2396 23bd f7cc bebc
00000140: 773f 023c 3e5a f03c 0cde ed3c b6b5 39bd
00000150: d1d0 f63c 389e b63d 2b32 303e 286d 133c
00000160: 8d96 5abd a41a 70bd bcea 83bd 03e1 48bd
00000170: df10 ea3d 7ff1 96bb 85ec 11be 0748 e33c
00000180: 26aa 41bd b62b 5b3d 97a9 27bd 1d77 cbbd
00000190: 2fc0 00be 850a 95bc 07ad 3dbc bc6e d13e
000001a0: b532 58bd 2ecc 09be 10f3 273f 3924 a03d
000001b0: 1b9b 28bd 666c c83d acdf e0bd b267 a63d
000001c0: c445 e33d 2895 cf3b e0b3 cbbc 776b 08be
000001d0: 512c 10be aec2 50bc b08e 263e a1c7 b3bd
000001e0: 25cf fe3c 9248 b8bc 9b00 793d 123a 0d3e
000001f0: c9c6 63bd baf9 0bbe e311 e53d 09ca 823d
00000200: ed5e 48bd a90a ecbc 114f 0f3d c7e3 6cbd
00000210: 4f4d 00bd c03b a43d 7fa5 1cbd 61ee d0bd
00000220: 4cfc edbc f19d 863d aa1b c33d 5d8f 773c
00000230: 3560 593d 8c1a c7bd 78fa 803d 38a5 1d3d
00000240: 74aa bbbd 6e2f b73d f324 c6bd 50c0 8bbd
00000250: eb4a 72bd b3e2 e93c 88bf 933d 906d 5bbd
00000260: 4bb6 b83d b0d0 c93d 7c6e 453b f499 983d
00000270: b1f2 07bb 2e2e 503c 3eca a63d 8dae d4ba
00000280: 4e1a fe3d b1fe d4bd b0ad c93b f4c0 763a
00000290: 4f4e 92bd e721 d03d 0608 b53c 7274 fdbd
000002a0: be72 08bd 0805 4b3d 3b7c fd3c 6030 063e
000002b0: 4c1d 953c 3f3d 1c3e e062 8e3d 9e70 243d
000002c0: 85a5 4cbd fcc9 d23d 861a 09be c8a9 87bc
000002d0: b716 973d ecda 903d e124 433c 5b74 93bd
000002e0: e42c 353d f335 483d 19d2 cbbd 3e5f 303e
000002f0: 5aab 1f3c c7e7 2a3d 1281 be3d 3de3 84bd
00000300: 9455 c3bd 26ec cd3c d256 a43d 6b5d 7bbc
00000310: 8b66 b4bc 66f5 30bd 2fa3 423b 8f69 443e
00000320: 523d 41bc 6c54 3b3e 2142 52bb a3dc e9bd
00000330: 6d95 31be 5d1c 99bd fabe bdbd 4325 03be
00000340: 2ffb d0bd 9fa4 babd a06a 133e 1b79 b9bb
00000350: e78b 89bd 4f3b c93d a83b 05bd 6408 223d
00000360: fbf9 613e 3012 1dbb 867f dabd 6e52 233f
00000370: a64a c53d 64ef 8c3d cece 0fbd f98c 98bd
00000380: 4f42 6dbd 7043 c4bd 95b9 483c 2ccd 0fbe
00000390: f45e 84bd b19f a83c 965d a0bc 5389 17be
000003a0: 1d50 8dbb d0e2 2bbe 5217 a8bd 208f be3d
000003b0: 9ffc ed3a 1904 51bd aeb1 49bd a859 fbbd
000003c0: fcbe 683d 2285 b9bd 8625 9e3d 126b be3d
000003d0: a2f4 3abd f20c dabc 4be1 53bc 1e9f 103d
000003e0: 4f71 df3b 33d3 473d e10b dcbc 0225 8c3c
000003f0: 2040 8abd 49d0 e7bd 9e52 b43c e861 3c3d
-0.05407122 0.13640049 -0.051657233 -0.10388157 0.018895213 0.11194618 -0.014072152 0.046535373
0.021332784 -0.027676772 0.0217004 0.016548632 -0.07169612 0.15142539 -0.0135459965 -0.013030363
-0.07589424 0.020401021 0.010246811 -0.08757177 -0.087358214 -0.033624187 -0.12498506 -0.13509612
-0.028872004 0.092434 0.039098993 0.10362564 -0.015675727 -0.025559977 -0.0060339086 -0.10861012
0.0047427467 0.12864152 -0.024764841 -0.042245753 0.06283028 0.15063399 -0.031307545 0.040790606
0.060834955 -0.050252274 0.06710421 -0.11337034 -0.06696205 0.13344166 -0.07016835 -0.036559515
0.00783253 0.01312249 -0.0834042 -0.028511818 -0.047946695 0.041628912 0.06605133 0.006094325
0.047342077 0.13803367 0.13409314 0.103148766 0.092872016 -0.0035973093 0.016479813 0.036955874
-0.09295936 -0.028765084 -0.08333785 0.07157076 -0.01953544 0.15844688 -0.11296123 0.13407513
0.040718712 -0.012435243 -0.002831273 -0.037310913 0.057507392 -0.016086007 -0.039938103 -0.023291094
0.0079497015 0.029339906 0.029036544 -0.04533931 0.030128868 0.089168966 0.17206638 0.008998193
-0.053366233 -0.058619156 -0.064412564 -0.049042713 0.11428999 -0.0046064253 -0.14250381 0.027744306
-0.047281407 0.053508483 -0.040933218 -0.099348284 -0.12573312 -0.018193493 -0.011576897 0.40904796
-0.052782733 -0.13456795 0.6560526 0.07819409 -0.041163545 0.097863 -0.10980162 0.08125247
0.11097291 0.0063349195 -0.024866045 -0.13322245 -0.14079405 -0.012741728 0.16265368 -0.087783106
0.031104634 -0.022495542 0.060791593 0.13791683 -0.0556095 -0.13669482 0.11185052 0.063861914
-0.048918653 -0.028813677 0.034987513 -0.057834413 -0.031323727 0.08019209 -0.038243767 -0.10201717
-0.029050969 0.06573094 0.09526761 0.015109864 0.053070266 -0.0972186 0.06297773 0.038487643
-0.09163371 0.08944593 -0.09675016 -0.0682379 -0.05915348 0.028550481 0.07214266 -0.053571284
0.090191446 0.09854257 0.0030125668 0.07451239 -0.002074402 0.012706323 0.081440434 -0.0016226337
0.12407361 -0.10400141 0.0061547384 0.00094129075 -0.071438424 0.10162716 0.022098552 -0.12375726
-0.03331255 0.049565345 0.030943027 0.13104391 0.018202446 0.15257739 0.06952453 0.040146463
-0.04996254 0.10292432 -0.13389024 -0.01656045 0.073773794 0.07073006 0.011910648 -0.071999274
0.044232264 0.048879575 -0.09952182 0.17223832 0.009745443 0.041724946 0.09301962 -0.06488655
-0.09537807 0.025137018 0.08024372 -0.015342097 -0.022021553 -0.04320278 0.0029699316 0.19180892
-0.011794405 0.18293923 -0.0032082873 -0.11419036 -0.17342158 -0.07476113 -0.092649415 -0.12807183
-0.102041595 -0.0911343 0.14396143 -0.005660189 -0.067161374 0.09825765 -0.032527596 0.039558783
0.22068016 -0.002396714 -0.106688544 0.6379765 0.09633379 0.06881598 -0.035109334 -0.074487634
-0.057924565 -0.09583175 0.012251277 -0.1404311 -0.06463423 0.02058396 -0.019575875 -0.14798479
-0.0043125288 -0.16785741 -0.08207573 0.09304643 0.0018156952 -0.0510293 -0.049241714 -0.1227296
0.056822762 -0.09058596 0.07722001 0.09297766 -0.045643456 -0.0266175 -0.012932132 0.035307996
0.0068189274 0.0487854 -0.026861133 0.01710749 -0.06750512 -0.11319024 0.022012051 0.04599181

fc1.bias f4 [256]
00000000: cb86 e43b 8ded b739 2c9e a23a e646 203b
00000010: 328d 7aba d68e a73a 77a8 91ba 7f9c 1c3b
00000020: e5e5 b73a 8651 2a3b ac88 40b9 b82d 223b
00000030: c527 93ba 74ea f53a fc60 5fb9 8e9c 25ba
00000040: bcad 523a 9d9c a93a ce0d 5bbb 4b6b 373a
00000050: 6e0a d537 e7c9 003b e782 483a f1cd b53a
00000060: 37bc 993a 4dd0 91b9 ea3a 8339 a9ce 303b
00000070: 7f53 273b b1fa 3738 1f23 44ba 8319 983a
00000080: 0f6b bdbb 934c a7b9 e391 a738 0bda 613a
00000090: ebaf 09ba cac9 24bb dd2e a8ba 465b ebba
000000a0: d7d5 a93a 6027 393a 02e4 8eba 7aba 9539
000000b0: 3b70 53bb 6ed9 81ba 5f0c 803a 7ef6 1d3b
000000c0: 9ad5 e5ba 5c5b 403a 9646 7c3b 5709 9bba
000000d0: dea6 0abb b130 8cba 6353 3abb f807 693b
000000e0: 8152 9a3a a1eb 8b3a 3f10 893b a083 0ebb
000000f0: 2ac4 2b3b 0ecb 57ba 06c6 113a da67 9e3b
00000100: 84a2 373b bc0c 543b 0e90 efba 1339 083a
00000110: 853d 6a39 4568 b0ba d33d 4cbb 8d41 1c3a
00000120: 67b0 583b 655f 1d3a ec65 65ba 5b08 24b7
00000130: 9858 673a 0872 f839 8494 cbb9 a2e6 0ebb
00000140: 2d4e 363a aaa9 043a 55bd 87ba 09ad a8ba
00000150: c063 15ba 8b54 63ba b0b4 883a 0226 d9ba
00000160: 495d aeba a2bf 8ebb fc5c acb6 0428 163a
00000170: 6b7a e03a 9959 a43b ebfa 6b3a 4dd1 cbb8
00000180: 908e 2e3a d5b9 b5ba fca9 4e3b dfef f439
00000190: 74db 9339 4019 bf3b 4fdc 8dba 41df 38bb
000001a0: 8141 14ba 8cb8 0f3b 7327 e73a fabd 2637
000001b0: 6fc6 bd39 e009 edba 6eda 87b9 2518 47bb
000001c0: 0a16 8239 bfe0 c538 f8ec 4abb cb7c af3b
000001d0: 1b77 2a3b ad05 be3b 9bba 033b 1ded 173b
000001e0: de5d 66bb 7595 ab3a dad9 4f39 3592 e93b
000001f0: a960 1fbb 0ef3 7b39 7659 fdb8 f32a 37bb
00000200: 01e4 e6b8 45bf e238 0313 8e3b 3300 0abc
00000210: f24c beba e074 c73a 15a7 66ba 6646 51bb
00000220: 4734 19ba 86fd 213a 5f31 ab3a c300 debb
00000230: a8ca 26ba 7e5c 073b 779e 65b8 7efa c0ba
00000240: 2b94 fd3a 28b5 9639 b0c4 193a 93a0 3bba
00000250: 36ac 84ba f7af 1e3a a960 00bb 092c ae3a
00000260: f5f0 82bb 83f3 263b 68ee 563b 3627 3f39
00000270: eb8d b1b9 c19d 9dba cdc0 3b3b 1dfc 393b
00000280: 00ef 62bb b001 d938 233c db3a 1c52 a639
00000290: f7fe 8f3b 176c 393b 47df 8f3b fd50 98ba
000002a0: bb06 3cba 291a 49bb 4cfd f3ba ab02 e4bb
000002b0: f5fc feba e8eb 3a39 ea7e 2fba bfdc 09bb
000002c0: 28a2 3f3b 67ca 163a 661e 27b8 7b4e 4538
000002d0: 04f9 95ba 4e95 81ba 85b1 163a ebea 84ba
000002e0: 008a 0dbb 6f72 baba e93b 2bbb d810 f7b8
000002f0: 9cf2 163b 1b73 1c3b 3d9b ae3a f72b c6ba
00000300: 103b 743a 1730 fc38 cf08 0bbb 3921 deb9
00000310: 33c1 443a 9176 d1bb 3642 063b 5eae 173b
00000320: 3956 35b8 ad1d b63a 0ec1 71ba d1c2 bcba
00000330: c086 1fbb 761d 23ba 85a7 d4b9 17e0 c3b9
00000340: d192 acba faca 163a 3fcf 893a 1aab 543a
00000350: 9dca 33ba 1c96 d13a dff1 c6b8 214b 10ba
00000360: 338e da3a 0831 a83b b3cd 973b 5e45 0e3c
00000370: b300 23ba 0105 43ba b1dd c33a f97e 973a
00000380: f1bf b7bb 5ae7 a0bb 6b7a 93ba 84da 98ba
00000390: 2d54 c639 c48d afba a2b7 db3a 6fec 523b
000003a0: 8101 3ebb b3e4 5d3b d1c3 37bb c85a 5fbb
000003b0: 6556 7b3b d3f6 cc3a 110d 823a 9348 3f3a
000003c0: acd6 8539 47b0 f139 bb49 04bb 452e 0d38
000003d0: 930b 8bbb 415b f1bb 16a7 ecb9 5e1b 87ba
000003e0: 18a9 db3b 9ead 9ab9 933f 8db9 f559 f8ba
000003f0: e9e5 98ba 937b 473b 78c4 f53a cda7 1a3b
0.0069740764 0.0003508147 0.0012406758 0.0024456321 -0.0009557783 0.0012783657 -0.0011112829 0.002389699
0.0014030306 0.0025988533 -0.00018361461 0.0024746489 -0.0011227062 0.0018761889 -0.00021303067 -0.0006317579
0.00080367527 0.0012940351 -0.0033424976 0.0006996884 2.5396435e-05 0.0019651593 0.00076489005 0.001387058
0.0011729066 -0.0002781175 0.00025030161 0.0026978648 0.0025531945 4.3864075e-05 -0.000748204 0.0011604283
-0.0057805846 -0.00031909774 7.990354e-05 0.000861556 -0.0005252349 -0.002514469 -0.0012831349 -0.0017956279
0.0012957406 0.0007063057 -0.0010901692 0.0002855843 -0.003226294 -0.0009906718 0.0009769312 0.002410322
-0.0017534972 0.00073378324 0.003849422 -0.0011828345 -0.002115659 -0.0010695664 -0.002843105 0.0035557728
0.0011773856 0.0010675081 0.004182845 -0.0021745935 0.0026209452 -0.00082318566 0.0005560819 0.0048341574
0.002802045 0.0032356223 -0.0018277185 0.0005196493 0.00022338897 -0.0013458809 -0.003116478 0.00059606956
0.0033064128 0.00060032896 -0.0008750844 -9.777107e-06 0.0008825152 0.00047387206 -0.0003882983 -0.0021804948
0.0006954398 0.00050606823 -0.0010356108 -0.0012868951 -0.0005698763 -0.00086719607 0.0010429826 -0.0016567113
-0.0013302948 -0.0043563405 -5.1368243e-06 0.00057280087 0.0017126327 0.0050155637 0.0009001928 -9.7187796e-05
0.0006658817 -0.0013864586 0.0031534424 0.00046718025 0.0002820153 0.0058318675 -0.0010823103 -0.0028209242
-0.0005655513 0.0021930067 0.0017635658 9.938603e-06 0.00036196734 -0.0018084608 -0.0002591195 -0.0030379381
0.00024811953 9.435554e-05 -0.0030963998 0.0053554527 0.0026010934 0.0057990164 0.002010024 0.0023182102
-0.0035151164 0.0013090806 0.00019822214 0.007128025 -0.0024319089 0.0002402777 -0.000120806435 -0.0027949184
-0.00011009724 0.000108121465 0.0043357625 -0.008422899 -0.0014518781 0.0015217327 -0.0008798701 -0.003193283
-0.0005844277 0.00061794405 0.0013060978 -0.006774993 -0.00063625956 0.0020654495 -5.4745437e-05 -0.001472309
0.0019346526 0.000287452 0.00058657955 -0.00071574113 -0.0010122124 0.00060534425 -0.0019588864 0.001328827
-0.0039960095 0.0025474734 0.003279591 0.00018229787 -0.00033865808 -0.0012025164 0.0028648854 0.002837903
-0.0034627318 0.00010347681 0.0016726296 0.00031723164 0.004394408 0.0028293186 0.0043906304 -0.0011620816
-0.0007172634 -0.0030685759 -0.0018614917 -0.006958326 -0.0019454049 0.00017826224 -0.0006694632 -0.0021036116
0.002924094 0.0005752206 -3.9844213e-05 4.704155e-05 -0.001144201 -0.0009886415 0.00057484984 -0.0010140812
-0.0021597147 -0.0014224778 -0.0026128239 -0.00011781015 0.002303279 0.002387232 0.0013321411 -0.0015119304
0.00093166623 0.00012025254 -0.0021214967 -0.00042367892 0.00075055956 -0.006392308 0.0020486242 0.0023144702
-4.3234064e-05 0.0013894342 -0.0009222188 -0.0014401322 -0.0024341792 -0.00062223466 -0.00040560603 -0.00037360258
-0.0013166313 0.0005752292 0.0010514035 0.00081126543 -0.00068585 0.0015990171 -9.486428e-05 -0.0005504359
0.0016674459 0.005132798 0.0046326756 0.008683531 -0.0006218061 -0.00074394053 0.0014943389 0.0011558227
-0.005607598 -0.0049103918 -0.0011251693 -0.0011661802 0.0003782822 -0.001339369 0.0016763101 0.0032184382
-0.0028992596 0.003385824 -0.00280403 -0.003408121 0.0038351056 0.0015637524 0.0009922107 0.0007296886
0.0002552768 0.0004609844 -0.0020185548 3.366011e-05 -0.004243323 -0.0073656146 -0.00045137916 -0.0010307839
0.006703507 -0.00029502524 -0.00026940982 -0.0018947708 -0.0011665198 0.0030438646 0.0018750569 0.0023598552

bn1.weight f4 [256]
00000000: d097 a53f 1ddd 8a3f 4686 873f 3cf6 643f
00000010: 7724 633f 4d0b 783f 8539 6b3f ad26 5e3f
00000020: 01b7 743f e03a 583f d1b1 823f 1f76 5f3f
00000030: ee1c 6f3f 630d 753f 65be 633f e68f 7f3f
00000040: e035 703f 921e 603f 6ee2 933f 555e 823f
00000050: eafc 4d3f eb8f 893f 61c1 7e3f 43a0 823f
00000060: 76bf 963f b903 723f af00 553f 3d9c 903f
00000070: 4e16 763f 1131 583f dcfb 833f 0e24 693f
00000080: 8799 a53f 6408 813f 570b 6f3f 3244 813f
00000090: 434e 683f a1ce 743f a0c9 833f ebd2 a53f
000000a0: c479 683f 52c4 733f 634f 8f3f 9180 873f
000000b0: 864f 883f 3f7b 863f 7eac 523f 4662 7c3f
000000c0: 5648 713f b58e 993f bb77 603f b49d 8e3f
000000d0: 13d4 4d3f f6da 6c3f 0586 863f 5e96 9f3f
000000e0: 90c7 753f 7cf1 623f 5112 8e3f ad75 843f
000000f0: 16b4 7d3f 2576 4a3f 06c8 603f 9738 673f
00000100: 298b 5d3f 0a97 703f bdf6 7e3f c938 693f
00000110: b6e7 563f 607e 813f f034 8e3f 6d50 703f
00000120: df36 6a3f fa76 973f d935 4c3f f562 733f
00000130: a28c 793f 8cb5 813f 3190 7a3f 2660 833f
00000140: d9ef 7f3f 8cca 543f c094 7e3f dd4c 633f
00000150: 5268 8e3f c4ba 5b3f 7329 803f 8642 663f
00000160: 530f 8e3f 8a17 883f 42b2 7b3f 4398 843f
00000170: da5e 633f 40e8 813f a9ec 663f c23b 6a3f
00000180: d8cc 923f a48e 6c3f 0c60 8d3f 70dd 733f
00000190: 108e 713f 3bd6 893f 8299 4f3f 0df8 6a3f
000001a0: 90d0 7f3f 9445 7a3f a30f 833f ec26 5d3f
000001b0: 1d0c 4a3f 5450 7d3f 444a 7a3f 56a0 5b3f
000001c0: 03b8 6a3f 1381 803f 48d7 663f a1b5 8d3f
000001d0: c6fa 783f 5b9b 8d3f f341 563f b3ed 783f
000001e0: 8cae 793f 261e 793f ffbc 3b3f 0c2f 8f3f
000001f0: 9af1 4d3f e9b8 3f3f 015a 563f f49e 573f
00000200: be3a 843f 3545 843f 90ae 803f c996 a23f
00000210: eb97 5b3f 3bc1 783f cd10 813f 3dd2 623f
00000220: ca27 553f b3b7 493f bbb4 623f 652e 873f
00000230: 646f 593f d952 803f d032 6d3f 8222 713f
00000240: ea17 673f 83f3 6c3f 9667 563f 87d8 843f
00000250: d2ed 863f 218c 913f 6c31 863f 3eb9 6b3f
00000260: 85a2 973f 24d9 843f d1b2 833f 65da 553f
00000270: 1038 6f3f 2411 453f 4f4b 823f ecd4 713f
00000280: 86a0 823f acd8 773f ba1e 823f 6fa8 563f
00000290: 9722 863f f1b0 843f 88ed 833f a646 733f
000002a0: b71d 713f ef6d 663f 4136 823f 4729 7c3f
000002b0: 0a4b 763f ac4c 6a3f b5f0 7d3f d3ea 743f
000002c0: 6da3 793f 0fda 723f 37b6 8f3f 3052 6b3f
000002d0: 835d 843f 8b12 803f f35d 5d3f 4a63 5a3f
000002e0: 40f7 703f e8f5 8d3f 6ef6 783f b143 6f3f
000002f0: bb45 8b3f f1d5 943f 768b 863f 3ad2 753f
00000300: 55b4 783f 7ee6 763f 4c30 5a3f a9af 633f
00000310: 3757 673f 6b93 8f3f 9f59 6b3f 07bb 6f3f
00000320: 588a 7c3f 3633 603f 7aa5 683f ebfa 8c3f
00000330: 10ac 963f b4e9 763f b0e9 7d3f 0455 813f
00000340: 0b4b 6e3f 9727 733f b963 833f ce00 833f
00000350: 39cd 813f ff97 973f fc51 5f3f a74e 8e3f
00000360: ac3e 923f 6c7b 893f e578 843f c1f8 6b3f
00000370: fc18 7a3f 7527 7e3f 987b 893f f784 9e3f
00000380: b1f2 9a3f 2cb1 713f db85 793f 32fd 793f
00000390: 24ca 543f ee7d 783f 130e 793f a88d 813f
000003a0: 223a 7b3f 6e8f 883f 7c3c 813f b099 823f
000003b0: 07d2 633f 58c0 773f 01e3 783f 8717 693f
000003c0: 022a 4b3f 4a27 7e3f 1f7d 663f 2803 793f
000003d0: ff0e 7c3f 903a 953f 48fd 803f b8ac 6f3f
000003e0: f6eb 983f 0b2f 7e3f 4d23 783f a161 903f
000003f0: 84ec 6d3f 2f96 5d3f b68d 5f3f 2d31 733f
1.2936954 1.0848728 1.0587852 0.89438224 0.88727516 0.96892244 0.9188464 0.86777765
0.9559174 0.84464836 1.0210515 0.87289613 0.9340352 0.9572355 0.88962394 0.99828947
0.93832207 0.87546647 1.1553476 1.0185038 0.8046404 1.0747045 0.9951382 1.0205158
1.1777179 0.9453693 0.8320417 1.129768 0.96127784 0.8444987 1.0311236 0.9107064
1.2937478 1.0080686 0.9337668 1.0098937 0.9074442 0.9562779 1.0295906 1.2954992
0.908108 0.95221436 1.1196102 1.058611 1.0649269 1.0506362 0.8229445 0.98587453
0.94251 1.1996676 0.87682694 1.1141877 0.80401725 0.9252161 1.050965 1.2467763
0.96007633 0.88649726 1.109934 1.0348412 0.99102914 0.79086524 0.8780521 0.90320724
0.86540467 0.9398047 0.9959524 0.9110227 0.8394731 1.0116692 1.1109905 0.9387272
0.91489977 1.1833184 0.79769665 0.9507287 0.97480214 1.0133529 0.9787627 1.0263717
0.99975353 0.8312156 0.99445724 0.8878916 1.1125586 0.85831857 1.0012649 0.89945257
1.1098427 1.0632184 0.98318875 1.0358967 0.88816607 1.0149002 0.90204865 0.91497433
1.1468763 0.9240515 1.1044936 0.9525976 0.94357395 1.0768503 0.8109361 0.91784745
0.99927616 0.9776242 1.0239147 0.86387515 0.78924733 0.98950696 0.9776957 0.8579153
0.9168703 1.003939 0.90172243 1.1071054 0.9725765 1.1063036 0.8369438 0.972377
0.9753196 0.9731163 0.7333526 1.1186233 0.8044678 0.74891526 0.83731085 0.8422692
1.0330427 1.033362 1.0053272 1.2702266 0.85778683 0.97169846 1.0083252 0.8860205
0.8326384 0.7879593 0.8855702 1.0561033 0.84935594 1.0025283 0.9265566 0.9419328
0.90270865 0.9255907 0.8375181 1.0378579 1.0541327 1.1370889 1.0483832 0.9207953
1.1846472 1.0378766 1.0288945 0.8353637 0.9344492 0.7697928 1.0179232 0.9446552
1.0205238 0.9681499 1.0165627 0.8385076 1.0479306 1.0366498 1.0306864 0.95029676
0.94185966 0.90011495 1.0172807 0.98500484 0.9620825 0.9152324 0.99195415 0.95670813
0.9751499 0.9486398 1.1227483 0.91922283 1.0341038 1.0005659 0.8647148 0.85307753
0.94127274 1.109067 0.9725102 0.93462664 1.0880655 1.162779 1.051131 0.96023905
0.97150165 0.96445453 0.85229945 0.8893991 0.90367454 1.1216863 0.91933626 0.93644756
0.98648596 0.8757814 0.908775 1.1014074 1.1771259 0.9645035 0.99184704 1.010407
0.93083256 0.94982284 1.0264808 1.023462 1.0140754 1.184326 0.87234473 1.1117753
1.1425376 1.074079 1.0349394 0.92176443 0.97694373 0.99278957 1.0740843 1.2384328
1.2105314 0.9441097 0.9746987 0.9765197 0.8312094 0.97067153 0.972871 1.0121355
0.9813558 1.0668771 1.0096583 1.0203152 0.8899235 0.9677787 0.9722138 0.91051525
0.79360974 0.992787 0.9003467 0.9727044 0.9846038 1.1658497 1.0077295 0.9362292
1.194701 0.9929053 0.96928865 1.1279794 0.9293902 0.86557287 0.8732561 0.9499691

bn1.bias f4 [256]
00000000: 1c47 e3bd 6e17 b5bd 66da 92be 71c4 84be
00000010: 183f 3dbe f464 a9be 8c98 79be b6cd 80be
00000020: d775 75be cb0b 3ebe 67c0 76be f680 32be
00000030: ce60 45be 817e b0be 3a65 00be 047a 01be
00000040: 8831 8dbe 66db 90be b26e 32be 5091 66be
00000050: a4cc 66be e669 0bbe bef1 87be 90b1 4fbe
00000060: 9fad 43be 59f8 61be e6fe 87be 8caf 29be
00000070: 766f 26be fdce 5abe 400d 39be 47c4 42be
00000080: f376 03be ce73 47be 852a 3abe fdfe 76be
00000090: a09b 81be b475 4fbe 10b5 7ebe fadd 14be
000000a0: 4a33 08be 89ac 2ebe 58de 3bbe 4357 95be
000000b0: 88e1 81be 922b 50be 9abd 96be d460 86be
000000c0: 1eb9 73be a38c 8fbd 11c8 a3be 6460 13be
000000d0: 9bcd 41be ad49 43be 5a92 8ebe acfd ffbd
000000e0: 27e3 ddbd d294 56be 607f acbe f6df 27be
000000f0: e756 34be bf04 1abe 2fea c8bd 60ba 74be
00000100: d62a 62be d163 abbd 617e 90be 218c 45be
00000110: 652f 54be 1c79 7dbe dbbe 93be 5569 5bbe
00000120: 90aa 43be 61a0 22be b2c8 6bbe 01ad 60be
00000130: e5a9 56be 75ec 9dbe e253 4bbe d0c0 93be
00000140: 922f 63be 749f 5fbe 9957 2abe ad05 86be
00000150: 91d8 60be 0b3a 16be ba6b 17be df69 29be
00000160: 78d2 19be e70c 6abe 13ef 99be 6b86 50be
00000170: 36da 33be abe6 80be 9aab 2ebe a5d2 04be
00000180: 4ee5 31be 5cd3 7bbe 61ab 45be 0b5a 37be
00000190: b98e d6bd 4792 84be 6af9 86be 5a24 6bbe
000001a0: fa38 51be 5174 4ebe 0117 45be 3c38 58be
000001b0: 543d 6ebe dce6 8bbe cf55 0dbe 8967 09be
000001c0: 11c4 96bc c942 6dbe 013e 74be 811b 64be
000001d0: abb0 0dbe be2f 6cbe 2b4d 33be 92b5 95be
000001e0: 4514 83be b943 0abe a8e9 4ebe 8efb 9bbe
000001f0: 19e5 84be 6917 84be 4075 84be 26a7 89be
00000200: b998 60be a46b 82be d7bd b7bd e80f 1bbd
00000210: 16d3 43be 6698 03be a1be 51be 9d43 30be
00000220: 0170 25be 83c9 6fbe 5115 e9bd f92b 3bbe
00000230: 332d cabd ebae 1abe c489 49be c329 4ebe
00000240: 75bd 9dbe cbd7 38be af80 c0bd aff9 2fbe
00000250: 3a0a 6bbe d47f 91be 9e99 47be 0978 3cbe
00000260: a470 45be 4b1d 2fbe 738b 38be ab56 35be
00000270: e588 36be 4781 82be cb32 a1be 224b 57be
00000280: 9969 31be 8dcf 5abe 5f4a 71be 79c4 ffbd
00000290: 2780 97be 8bde 71be 2056 68be 7f78 9fbe
000002a0: 4efe 55be 2887 14be adb6 88be d306 41be
000002b0: 7e83 13be e93e 73be 3947 51be 6cc6 1bbe
000002c0: d9a5 8dbe 1b4b 94bd 23d5 35be 9544 4ebe
000002d0: 42e2 febd 5921 50be 7a79 3abe f4d3 80be
000002e0: 1227 b9bd 1ba0 5bbe d176 7abe d780 28be
000002f0: ee93 13be e2a0 14be 3084 64be b441 47be
00000300: 0e9e 4ebe 4c3d 66be 76df 3fbe 5613 4ebe
00000310: a214 88be 8da7 04be f066 5abe 8093 19be
00000320: 16fa 96be 3721 01be c223 4fbe 5f29 33be
00000330: a650 38be 823e 53be bf39 81be 7281 6ebe
00000340: 6cdb 0ebe 38b1 33be 5b50 72be 5e28 32be
00000350: 9bde d5bd de25 3ebe 99a6 0ebe 92fc 19be
00000360: e46a 69be f085 4dbe 1205 13be ec3a 81be
00000370: 4ec8 3dbe ecf5 4ebe b433 97be 1bfe adbd
00000380: 03cb 39be 1280 92be a252 6bbe d29a 42be
00000390: d5b7 e0bd e798 64be 824d 3fbe e675 5dbe
000003a0: 6c0f 2ebe ba5c 88be 1553 96be a05e 9fbe
000003b0: 9d1c 97be bbcb 8dbe 476c 17be f8d9 54be
000003c0: f6b9 72be 29be 77be dbc8 11be f07c 55be
000003d0: 9d15 4bbe 82d7 2dbe af64 acbe efe1 5abe
000003e0: 737d 08be bf3a 65be ea6c 22be d782 52be
000003f0: aa9c 2cbe fcaa 8abe 39e7 75be ecb0 a3be
-0.110975474 -0.088423595 -0.2868225 -0.25931123 -0.184811 -0.33084834 -0.24374598 -0.25156945
-0.23970734 -0.18559186 -0.24096833 -0.17432007 -0.1927521 -0.34471515 -0.12538615 -0.12644202
-0.27576852 -0.28292388 -0.1742504 -0.2251637 -0.22539002 -0.13614616 -0.26551622 -0.20282578
-0.191092 -0.22067393 -0.2656166 -0.16570872 -0.16253456 -0.21368022 -0.1807146 -0.19020186
-0.12838344 -0.1947777 -0.18180282 -0.24120708 -0.25314045 -0.20259744 -0.24873757 -0.14537802
-0.13300815 -0.17058004 -0.18346536 -0.29168138 -0.2536738 -0.20329121 -0.2944153 -0.2624575
-0.23801085 -0.07009246 -0.31988576 -0.14392239 -0.18926089 -0.19071074 -0.27846032 -0.12499556
-0.108343415 -0.20955208 -0.3369093 -0.16394028 -0.17611276 -0.15040873 -0.09810292 -0.23899221
-0.22086653 -0.08368648 -0.2822142 -0.19291736 -0.20721205 -0.24753231 -0.2885655 -0.214269
-0.19108033 -0.15881492 -0.23025778 -0.21940996 -0.20963247 -0.30844465 -0.19856218 -0.28858042
-0.22186115 -0.2183817 -0.16634978 -0.26176205 -0.21957614 -0.14670579 -0.14787188 -0.16544293
-0.15021694 -0.22856484 -0.30065212 -0.20363776 -0.1756371 -0.25175986 -0.17057648 -0.1297098
-0.17372629 -0.24592346 -0.19303657 -0.17905442 -0.10476441 -0.2589285 -0.26362163 -0.22963086
-0.20431891 -0.20161559 -0.19247057 -0.21115202 -0.23265582 -0.2732457 -0.13802265 -0.13418402
-0.018404039 -0.23170008 -0.23851778 -0.22276117 -0.13836925 -0.23065087 -0.17509906 -0.2924009
-0.25601402 -0.13502397 -0.2020632 -0.30465358 -0.25956038 -0.2579911 -0.25870705 -0.26885337
-0.21933259 -0.25472748 -0.08971756 -0.037856966 -0.19123492 -0.12851104 -0.20482875 -0.17213292
-0.16156007 -0.23416714 -0.11381019 -0.18278493 -0.09871902 -0.15105788 -0.1968146 -0.20133118
-0.30808607 -0.18051068 -0.093995444 -0.1718509 -0.2295312 -0.28417838 -0.19492194 -0.18405165
-0.1928125 -0.17101018 -0.18021946 -0.17708842 -0.17825659 -0.25489256 -0.31484064 -0.21024755
-0.17325439 -0.21368237 -0.23563527 -0.12488646 -0.2958996 -0.2362005 -0.22689104 -0.3114662
-0.20897791 -0.14504683 -0.2670187 -0.1885026 -0.14405629 -0.23754467 -0.20437326 -0.1521241
-0.27665594 -0.07240888 -0.17757086 -0.2014335 -0.12445499 -0.20325221 -0.18210402 -0.25161707
-0.09040655 -0.21447794 -0.24459387 -0.16455398 -0.144119 -0.14514497 -0.2231605 -0.19458658
-0.2017748 -0.2248432 -0.18737587 -0.20124564 -0.26578242 -0.1295454 -0.2132833 -0.14997673
-0.29487675 -0.12610327 -0.20228484 -0.1749625 -0.17999515 -0.20629314 -0.2523937 -0.23291567
-0.1395089 -0.17548072 -0.23663466 -0.17398211 -0.10442849 -0.18569133 -0.1393074 -0.15037754
-0.22794682 -0.20070624 -0.14357403 -0.25240266 -0.18533441 -0.20210999 -0.29531634 -0.084957324
-0.18143849 -0.28613335 -0.2298074 -0.19004372 -0.10972563 -0.22323953 -0.1868191 -0.21627006
-0.1699807 -0.26633245 -0.29360262 -0.3112688 -0.29514018 -0.27694497 -0.14787398 -0.20786273
-0.23703751 -0.24193634 -0.14236777 -0.20848441 -0.19832464 -0.16976741 -0.33670565 -0.2137525
-0.13329105 -0.22385691 -0.1586186 -0.20557724 -0.16856638 -0.27083576 -0.24013986 -0.31970918

bn1.running_mean f4 [256]
00000000: ca09 813c 43b8 5a3c c8cd 3a3c f053 8fb9
00000010: 7987 f53b 214a 823b b5f4 9a3c d175 953c
00000020: abc2 823b 3046 c53c 90e7 f1b9 656e c53c
00000030: cbda 5dba 0bd6 9b3b 70b1 c43b 398a 0c3c
00000040: 4e0c 003c 9482 aabb 1b63 0d3c 78fa 603c
00000050: 76f4 70bc 5349 ec3b 54ce 533c 55aa e6ba
00000060: 4377 333c 20bf a4bb 9167 ce3b c354 a03c
00000070: 1fd6 76bc 8008 723b 7a46 163c 71eb 053d
00000080: 6605 0cbb 6263 d03b d3ed a53a e49e 133c
00000090: 5b3f ff3b aeef 9bbb a3ef 8a3c 764d 123b
000000a0: 08d0 02bc 9b2d 333c 3625 07bc 3a4a 1fbc
000000b0: 2160 3b3b 0e6d 42ba 7357 e83a 5d27 abbb
000000c0: 9b51 66bc a5cb 4d3c 70ae 833b 9ef1 b1bc
000000d0: 0271 ce3c 3573 24bb c937 24bc 94ab 763a
000000e0: 714c e8ba 42c2 d53c 11a1 07b9 62e6 b7ba
000000f0: a0d3 003c 2ee3 143a ca67 353c d573 c93c
00000100: fab3 f03b 41c6 1fbb 41c9 c9bb ac33 38bc
00000110: e322 c03c de08 fa3b 6efd b7bc e27b 513c
00000120: ea20 59ba 5f28 823b 1692 603b 6da5 23bc
00000130: 9437 b6bb 98bc 4b3c bc8b a83b d643 1e3a
00000140: 26b5 703c 1407 903c 74ed e6ba 7b4c b23c
00000150: a481 6cb9 459b f33c 008a d53a 49eb 11bb
00000160: cb4f ab3b 26ef 123c ec14 7abb ee72 ec3b
00000170: a7e9 93bc 787d 043c 9c50 2a3c a71d b63c
00000180: 09e7 dc39 7211 d73a 3a54 5c3c 6076 8c3c
00000190: 6c04 303c 7ea5 9e3c dcb5 e7bb 8687 2f3b
000001a0: 057c 0e3b 927a a13b 51f9 c73b 61fc dcbb
000001b0: 0989 a1b9 7ab7 063c 2f4d 9abb a851 9e3c
000001c0: db93 043b 9dc3 da3b 3de6 3dbb 23c9 453c
000001d0: c6e9 35bc 4c37 c23b b716 b43c 1f6f 2e3c
000001e0: 2a64 20bc 7870 013d 1fec 50bc 09f3 5d3c
000001f0: cdc3 ffbb f2e2 21bc ce2f e7bc 164c 6c3b
00000200: 8933 81bb 47b5 2abb 186c 533c c93f 2cbc
00000210: 0083 cd3c cc20 8d3c 7a1a 35bc 7376 003a
00000220: 7d20 4b3b 7639 50bb 0882 b13c b459 09bb
00000230: 18c2 ccbb c71f b93c d51c ea3b 191c a93b
00000240: acb5 443c a4e8 2a3c af92 cbbb 5e28 b03c
00000250: 6642 2d3b 9b98 1c3c baa3 473c 7eea 2e3c
00000260: a772 363c 0980 033c 7168 42bc 0e94 223b
00000270: 48b4 2abc ce19 e5bb b5bf 57bb fd83 493c
00000280: 52f1 e03a f529 ae3c 94d8 e83b 1779 143c
00000290: 5055 563c adbc e63b 7e3b f23b 904f 7b3c
000002a0: 780d c4bb 008a 223c 9371 aebb d1df f53b
000002b0: 44dc 5abb d53a 9fba f96a 15bb 9d3b 4a3b
000002c0: 009c 8bbb 2e48 a4bb 0b41 1f3c c7a5 fcbb
000002d0: ca5a 4a3c 722d a2bb 0f57 553c 9534 a43a
000002e0: 3218 923c 6e66 81bb 4e7a a83a 04d9 633c
000002f0: f4ce ec39 aa81 6bb9 a979 c63b 2bf3 5c3c
00000300: 4cd1 403b df56 8a3c 10e0 bdb9 eb1d 2d3b
00000310: b4e8 893c a6d7 25bb eaea 01ba bc78 5b3c
00000320: 9467 0bbc 2684 b03c b43f 9c3b 2bb7 1c3c
00000330: a645 34bb b0c0 97bb db12 3539 ba23 4cba
00000340: 2d11 533c d965 0f3c a2a6 ac3c dee1 c43c
00000350: add7 903c ea88 593c 41dc 733b 7802 6a3b
00000360: 2448 b53c b777 053c 8fc7 793c e7bb 373c
00000370: daaa 88bb 50e0 34bc 842d cf38 481c e43b
00000380: 04bc 24bc bb22 24bc b4e7 0d3c aac2 b23b
00000390: 491f 713b 372d 703c 72c0 233c f559 a3bb
000003a0: 6201 633b d3d0 683c 8b12 3abc 7c03 c1bb
000003b0: ddac 893b 070e 2e3c 0cea a53b d346 973c
000003c0: 1040 88bc 976e 45bc 296d be3c 0163 8db8
000003d0: 58d9 be3b dff0 e7bb 5810 d0bb 184b 11bc
000003e0: 5594 123c f41a c5ba d8e9 423c 301c af3b
000003f0: ccf0 c93c ded5 0239 40d1 40bb ae03 a23b
0.015751738 0.0133495955 0.011401601 -0.00027337624 0.0074929562 0.003976122 0.018915514 0.018244656
0.0039904914 0.02408132 -0.0004613963 0.024100492 -0.00084630836 0.0047557405 0.0060025975 0.008577877
0.007815434 -0.0052035544 0.008629586 0.013731591 -0.0147067215 0.0072108894 0.01292761 -0.001759837
0.010953727 -0.0050276667 0.006298967 0.019571668 -0.015065699 0.0036931336 0.009172076 0.032695238
-0.0021365522 0.0063595036 0.0012659378 0.00901005 0.007789535 -0.0047587967 0.01695997 0.0022324002
-0.007984169 0.010936166 -0.008248618 -0.009722287 0.0028591233 -0.0007416763 0.0017726257 -0.0052231983
-0.014057542 0.01256076 0.0040185973 -0.021721657 0.02520037 -0.0025093083 -0.010023066 0.00094097224
-0.0017722977 0.026093606 -0.00012934605 -0.0014030451 0.007862955 0.00056796044 0.0110721085 0.024591366
0.0073456736 -0.0024379643 -0.0061580245 -0.011242788 0.023454135 0.0076304516 -0.022459712 0.012785884
-0.00082827976 0.0039720978 0.0034266762 -0.009988171 -0.0055608246 0.012435101 0.0051436108 0.000603733
0.014691627 0.0175815 -0.0017618374 0.021764984 -0.00022555009 0.029737124 0.0016291738 -0.0022265485
0.005228018 0.00896815 -0.0038159443 0.007215849 -0.01805575 0.008086555 0.010395195 0.022230936
0.00042133805 0.0016408397 0.013447816 0.01714629 0.010743242 0.019366022 -0.00707124 0.002678366
0.0021741402 0.0049279416 0.006102719 -0.006743953 -0.00030810412 0.008222455 -0.004708908 0.019326046
0.002022973 0.006676151 -0.0028976344 0.0120718805 -0.011103099 0.005927002 0.021983488 0.0106466105
-0.009789506 0.0316014 -0.012751608 0.013546714 -0.0078053237 -0.009880768 -0.028221037 0.0036056093
-0.003942911 -0.002604799 0.0129041895 -0.010513254 0.02508688 0.017227553 -0.011053676 0.0004900463
0.0030994706 -0.003177253 0.021668449 -0.0020958008 -0.0062487237 0.02259816 0.0071445503 0.00516082
0.012006205 0.010431442 -0.0062125544 0.021503624 0.0026437282 0.009557868 0.012185032 0.0106760245
0.011135734 0.008026131 -0.011865721 0.0024807486 -0.010418959 -0.0069916015 -0.0032920663 0.012299535
0.0017161763 0.021260241 0.0071058962 0.009062073 0.0130818635 0.007041535 0.007392346 0.015338793
-0.005983051 0.009920597 -0.0053235977 0.0075034876 -0.0033395449 -0.0012148271 -0.0022799356 0.0030858286
-0.00426054 -0.0050134873 0.009720097 -0.007710192 0.012350747 -0.004949265 0.013021245 0.0012527878
0.017833803 -0.003948978 0.0012853832 0.013906721 0.0004516762 -0.0002245965 0.0060569835 0.01348571
0.0029421626 0.016887126 -0.0003621583 0.0026415538 0.016834594 -0.0025305538 -0.00049559644 0.013395485
-0.008508582 0.021547388 0.004768336 0.009565155 -0.0027507334 -0.0046311244 0.0001726853 -0.0007787306
0.012882513 0.00875231 0.02107555 0.024033483 0.017680967 0.013277272 0.003721014 0.0035707038
0.022129126 0.008146218 0.015245332 0.011214233 -0.0041707577 -0.011039808 9.879007e-05 0.006961379
-0.010054592 -0.010018046 0.008661199 0.0054553347 0.003679233 0.014659218 0.009994613 -0.004985089
0.0034638275 0.014209944 -0.01135696 -0.005890308 0.004201515 0.010623462 0.005063301 0.018466389
-0.01663211 -0.012050292 0.023245411 -6.741845e-05 0.0058242492 -0.0070782746 -0.0063496046 -0.008868001
0.008946498 -0.001503794 0.011896573 0.0053439364 0.024650954 0.00012477438 -0.0029421598 0.0049442863

bn1.running_var f4 [256]
00000000: 29d1 923f 7bd4 833f 9490 923f 6d59 3e3f
00000010: 83be c73f 1c45 0340 29a3 e43f 1368 4440
00000020: 5947 7b3f a407 1040 7f93 a13f 1de5 323f
00000030: a2de 2840 0725 7d3f ff6d 783f 90ae 803f
00000040: 4108 0140 1249 843f 3730 953f 38eb 513f
00000050: cc6c 1640 a160 533f 36af 7e3f 12bf 573f
00000060: 5529 733f d06d 1740 547e 713f 1932 5d3f
00000070: 87c4 203f 71f4 a93f 5014 b53f a7cb 9840
00000080: 0556 3a3f 8a97 df3f 20d1 8d3f b267 823f
00000090: 52c4 7b3f d93b 743f 7446 843f 7837 833f
000000a0: 3374 8e3f 8083 853f 36ce 5d3f 1870 c73f
000000b0: b313 693f 9ced 463f 0477 453f 0d7c 733f
000000c0: f791 993f ae3d 923f c4f8 843f 67ca c33f
000000d0: a776 3f40 466b f83f d6d1 4c3f 37f7 883f
000000e0: ffe2 853f e817 b03f 5a11 8e3f 54db d33f
000000f0: 0651 5e3f ce74 e73f 549b ae3f ee5a 5b3f
00000100: e6fe 583f 9246 513f c6b9 323f 293f 9e3f
00000110: eac5 2a40 cad4 523f efcb 8c3f f53e 1c40
00000120: 3bdc 9c3f 4655 713f 86e4 ae3f 948c be3f
00000130: 5f6c 703f e16f 2340 f9d5 663f 2d95 1840
00000140: 28b1 8f3f ad07 8540 b818 e03f 885b c63f
00000150: da7b a33f cc58 8c40 6f06 9a3f 0f02 0340
00000160: ec60 933f 89bd 383f 5575 9f3f fa5a 8d3f
00000170: 63c8 4a40 460a 893f 2356 3d3f f336 7e40
00000180: f248 393f eb42 893f 4dcd 7b3f 04f1 c13f
00000190: 35d4 9d40 b9f5 443f e66b a93f 88fc c43f
000001a0: 4b6c 383f 35a1 2940 47c0 d33f c275 b33f
000001b0: bbf3 b83f 45e2 4e40 65a5 6140 fc11 5e40
000001c0: daaf 3f40 f84a e73e ef33 953f fd32 253f
000001d0: 442c b93f 8197 a03f bcdb 3340 3765 2740
000001e0: 9a6c 363f 9272 4640 ebd9 d43f 3951 803f
000001f0: 9fea 0a3f 0be9 5040 0e29 f43f 2e97 a43f
00000200: 9851 943f 1288 e03f 49b1 523f c26f d13f
00000210: dc6a 4b40 4ae4 4740 96d5 0a40 464f 0840
00000220: cec4 1640 acd4 b63f bbc6 1740 a363 113f
00000230: 6165 903f f113 833f 531f 3e40 04f8 5440
00000240: 7406 2840 6e9f 3740 8937 2c40 14fb de3f
00000250: 19a1 923f 995a a33f 9f71 8e3f b375 0340
00000260: 6d5a 663f b4af 423f de13 c03f ccce e63f
00000270: 8b26 6f3f 5b83 ac3f f6ce aa3f a7c1 793f
00000280: d734 383f 1087 ae3f a6a1 423f fe80 1140
00000290: 2331 893f 1e82 a93f 9f62 763f 05bf aa3f
000002a0: 5c0f 993f ce1d 3e3f b14e 213f c755 5d3f
000002b0: b333 d43f 2e17 8b3f 22c8 0840 cf5d c13f
000002c0: 4bb2 763f b3f9 813f 6543 5c3f 6dc4 863f
000002d0: b19d 0e3f 92a0 903f fa60 0f40 3a60 843f
000002e0: 83d2 df3f 3123 db3f 9525 ac3f 25e3 4e40
000002f0: 7393 783f 779d bf3f 0167 c03f b4d4 813f
00000300: a9c6 f53f 1f30 653f f2c6 ea3f a366 0840
00000310: cd32 1640 0ad0 b43f c4cd c13f 92f6 ae3f
00000320: 29aa dc3f 36db 0c40 3dc6 4f3f 6a9b 803f
00000330: 9ed1 113f 4f4d bf3f 8eb6 433f 505d 8a3f
00000340: 1ef2 2c3f 9859 0140 b928 6a3f 8b7f 3f3f
00000350: a62c 7c3f 51e6 493f d0dc 3c3f e620 533f
00000360: 1ebd 5a3f 789b 423f 4587 963f c4b8 253f
00000370: d161 673f b06e 323f a7ce 513f 62b6 e53f
00000380: 11cc 1c40 ff52 513f aacf bd3f b315 4d3f
00000390: 6835 ba3f 5092 0b40 e146 3640 b51c ff3f
000003a0: 17e9 173f 5d30 a93f 6e81 9e3f bf28 663f
000003b0: 206b 263f 0db7 3840 a05e a93f 3816 e33f
000003c0: 4e82 5040 9544 8d3f baf0 f03f 7b6c 5e40
000003d0: 3519 173f a1d3 453f 2928 ee3f fd43 533f
000003e0: 0c84 cb3f 9dff 1040 508f 9a3f 5c4e 523f
000003f0: b8d4 5d40 965a c73f 365f 7d3f cef0 613f
1.1470081 1.0299219 1.1450372 0.743552 1.5605015 2.051093 1.7862293 3.0688522
0.9815574 2.2504663 1.2623137 0.6988085 2.6385884 0.98884624 0.9704284 1.0053272
2.0161288 1.0334799 1.1655339 0.8199954 2.3503904 0.8256932 0.994861 0.84275925
0.9498494 2.3660774 0.94333386 0.8640457 0.62799877 1.3277723 1.4146824 4.77486
0.72787505 1.7468121 1.1079445 1.0187895 0.98346436 0.9540382 1.0334 1.0251303
1.1129211 1.0430756 0.8664278 1.5581083 0.91045684 0.77706313 0.7713473 0.9511116
1.199767 1.1425073 1.0388417 1.5296143 2.991617 1.9407737 0.80007684 1.0700444
1.0459899 1.3757296 1.1099045 1.6551309 0.8684238 1.8082521 1.3641152 0.8568562
0.84763944 0.81748307 0.6981472 1.2363025 2.6683297 0.8235594 1.0999736 2.4413426
1.2254709 0.9427074 1.366349 1.4886651 0.9391536 2.5537035 0.90170246 2.384105
1.1225939 4.157187 1.7507544 1.5496683 1.2772171 4.3858395 1.2033213 2.0470006
1.1513953 0.7216421 1.2457682 1.1043389 3.1684806 1.070626 0.7395956 3.9721038
0.7237693 1.0723547 0.9836014 1.5151677 4.932154 0.76937443 1.3236053 1.5389566
0.7204024 2.6504643 1.6543053 1.4020312 1.4449381 3.2325604 3.52572 3.4698477
2.9951081 0.45174384 1.1656474 0.64530927 1.4466634 1.2546235 2.8102865 2.6155527
0.7125946 3.1007428 1.6629003 1.0024787 0.54264253 3.2642238 1.9075029 1.2858636
1.15874 1.7541525 0.82301766 1.6362231 3.1783972 3.1233087 2.1692863 2.1298385
2.355762 1.4283652 2.3715045 0.5679266 1.1280938 1.0240461 2.9706619 3.3276377
2.6253939 2.8691058 2.6908896 1.7420373 1.1455413 1.2762023 1.1128424 2.0540588
0.8998173 0.7604935 1.5006063 1.8031859 0.93418187 1.3477587 1.334441 0.97561115
0.7195563 1.3634968 0.76027906 2.273498 1.071812 1.3242834 0.96244234 1.3339545
1.1957812 0.7426423 0.630107 0.8645901 1.6578277 1.0866449 2.1372151 1.5106753
0.96365803 1.0154327 0.86040336 1.0528694 0.5570937 1.1299002 2.240294 1.0341866
1.7486118 1.7120115 1.3448969 3.2326138 0.9709999 1.496993 1.5031434 1.0143037
1.9201251 0.8952655 1.8341963 2.1312644 2.3468506 1.4125988 1.514092 1.3668997
1.7239429 2.2008796 0.8116186 1.0047429 0.56960475 1.4945468 0.7645043 1.0809727
0.6755694 2.0210934 0.9146839 0.7480399 0.9850563 0.7886706 0.73774433 0.82472074
0.8544482 0.76018476 1.1760031 0.64735055 0.9038363 0.69700146 0.8195595 1.7946284
2.4499552 0.81767267 1.4828999 0.80111235 1.4547548 2.1808052 2.848076 1.9930636
0.5934004 1.3217884 1.2383249 0.89905924 0.6500721 2.8861725 1.3232002 1.7741156
3.2579532 1.1036555 1.8823464 3.4753711 0.5902284 0.77276045 1.8606006 0.82525617
1.5899673 2.2656014 1.2074986 0.82150817 3.4661083 1.557452 0.98973405 0.88258064

fc2.weight f4 [128, 256]
00000000: 619f f3bd 44b9 9fbd 8718 053e 0217 2e3e
00000010: 8a9d c03d 9a35 cdbd 39a8 58bd 3f18 9e3d
00000020: f2bb a23d a10c 183d 862c cc3c 37d0 21bc
00000030: ec16 72bc 3770 f23b 6669 9dbd 15d9 773d
00000040: abcd ed3d db49 a73d 8dda a83c c11b 313d
00000050: 645d afbc 105a 853d 7741 4bbd 9dff 283d
00000060: 8266 04bd f721 bf3c 4fdc bdbc 47fc 2abe
00000070: 3cbc 4ebd d8c2 b9bd 8ec8 be3c 5e96 0dbe
00000080: 306f 543a 9278 03bd 68e4 593d 6895 0abd
00000090: 37b2 0d3d 66f9 353d a907 5bbc 1b7a dabc
000000a0: 3402 8cbd b559 74bd f043 693d 941b d33d
000000b0: ec50 5b3e 7d1f 783c 5c1e 6abd 01e2 0c3e
000000c0: e387 023d eb4e 96bd 82a3 1cbd e2ff 24bd
000000d0: 7e9c e83c a390 ef3d 6dc8 b63d 63f2 2cbd
000000e0: ec5d a2bd ea9b a2bd bcce 77bd 4b83 463c
000000f0: 109d 9dbd c443 e73d 1557 9b3d df04 d93b
00000100: b67c c3bd 401c 8fbd 9dd0 263c f61d 103c
00000110: da8b aa3d d626 8ebc d9b4 023d 50b9 66bd
00000120: 7bd8 bfbd 074c fcbd 6c82 2abd d23b 4a3e
00000130: db5d 913d cef5 2a3c 3d53 6c3d eddc f93d
00000140: 5eac 423c e948 7bbd f8e7 d6bc 2ff7 14bd
00000150: e736 f6bc 148b a539 f243 e53c db83 bf3d
00000160: 43c5 323d 8cc5 d83d 21a8 ad3d f9c0 1e3e
00000170: 2fdb aa3d 6964 403e 3584 c3bd f3d2 9fbc
00000180: 3fd2 93bd cb5b 71bd 69fc 0b3e 1418 f73d
00000190: d504 fc3d c2b5 f7ba fe12 bfbd 2055 983d
000001a0: 4c74 653d 7762 69bd 21d1 143e ab72 9cbd
000001b0: 74ef b6bc cc15 573d 3858 d63c 9aa8 d13c
000001c0: 5f52 ae3d 1def 183e 0222 d53d 6fca d2bd
000001d0: 97f5 fa3c e8e5 443d 487e c03d 487a 12bd
000001e0: 5506 51bd 083d 3cbd d39c acbd 1a8d 6ebc
000001f0: ba0c ddbc bbef 183e 8ee4 1dbe 6612 743d
00000200: c1cb 81ba 8842 203e a3c8 a53c c7f6 07bd
00000210: 4a67 b73c 00ba dfbd af6f 143e 426a 353c
00000220: 767f a5bd 86f8 aebc 9101 dfbc c07d 763d
00000230: 094b 36bd e3e9 af3d eb9d a53c c535 74bd
00000240: a780 9c3d 0b87 9d3d 31ea cbbc c70b bc3d
00000250: f128 f73d 8c26 aabd c007 743d cafb a7bd
00000260: 2cf3 40be 1dbf 5cbd e3bc 603e 8f32 0c3e
00000270: 2152 b6bd e4ff a9bd a07d 243d a9ca d9bc
00000280: f85e cfbd 0eaf d83c 36de 283c ed80 0dbd
00000290: 020d 973d 84c0 f3bc 3a00 413d 6342 b63d
000002a0: 0fdb 99bc ce9d 193c b17a ec3d 1203 16bd
000002b0: e6e0 95bd 0aae 4e3e 6fca d7bc 75e6 d73d
000002c0: 9e60 9a3d 1c8e 1c3e b3e6 cf3b 4e76 133d
000002d0: cead 993c 30fc 283e afb5 f53d 8df3 803d
000002e0: bd7c 86bd 3c67 183d acb4 d83d 0780 153e
000002f0: dbce 853c 3818 79bd d3c1 c43d 459c 4c3e
00000300: a6e7 9dbc 3cee aabd 201a a8bc bee3 043e
00000310: f7e0 8d3d 35e0 85bc f31c a43c 80c7 c13d
00000320: 46d5 0f3e e9c5 9e3d d366 dc3d 616d ffbd
00000330: 0679 193b b1f9 563c eb2e 55bd 566e bbbb
00000340: 97b1 41bd e9b1 92bb ca5a 3bbd 7570 4dbe
00000350: 2178 b03d f74d 28bd 914d 773d 4c60 eebd
00000360: ce69 29be e996 b73d 8352 b9bd c96e 67bd
00000370: 889f 083e 5b9a 963d 8744 c93d eaea ed3c
00000380: acb8 f4bd bf73 3dbd 70c8 c13c 30ba 90bd
00000390: 1592 b3bc 9497 0bbd 5f58 cfbc 536a 143e
000003a0: 9529 423d fbeb b73d 9680 403e 42a0 cc3d
000003b0: 053e dbbc 47b8 0c3e 6c26 82bd 2831 113d
000003c0: 1d96 9c3d 0a37 8f3d 055b babd 6c8c 5abc
000003d0: 8b1e c93d ac79 ffbd 3247 a93d 0dea 2abd
000003e0: f3ca da3c cee6 9b3d 4682 1fbd cbff 81bd
000003f0: a99b 7ebd 25de 923d d8e9 5cbd f52b 873d
-0.118956335 -0.077990085 0.12997638 0.17000964 0.09405048 -0.10019989 -0.052894805 0.07719468
0.07946004 0.03712142 0.024923574 -0.009876302 -0.014775973 0.007398631 -0.07686119 0.06050976
0.11611494 0.08168384 0.020612026 0.04323936 -0.021406837 0.06511319 -0.04962298 0.041259397
-0.03232432 0.023331625 -0.02317634 -0.16697799 -0.050472483 -0.090703666 0.023288991 -0.13826892
0.00081037264 -0.032097407 0.05319634 -0.03383389 0.034593787 0.044427298 -0.013368526 -0.026669553
-0.06836358 -0.059655864 0.056949556 0.103079945 0.21417588 0.015144226 -0.05715786 0.13758089
0.031867873 -0.07339271 -0.03824187 -0.04028309 0.028394934 0.11697509 0.08924947 -0.042223345
-0.079280704 -0.079398945 -0.06049989 0.012116264 -0.07695973 0.11292222 0.07584969 0.006622895
-0.09545271 -0.0698781 0.010181573 0.008796206 0.08327456 -0.017352503 0.03191075 -0.05632907
-0.09367462 -0.123191886 -0.041628286 0.19749382 0.0709798 0.010434581 0.05769657 0.122003414
0.011881916 -0.06134883 -0.026233658 -0.036368545 -0.030055476 0.00031574874 0.0279865 0.09351321
0.043645155 0.10584554 0.08479334 0.155033 0.08342587 0.18788303 -0.09546701 -0.019509768
-0.07217836 -0.05892543 0.13670506 0.120651394 0.12305609 -0.0018898773 -0.09329794 0.07438111
0.056019112 -0.05697867 0.14532901 -0.07639059 -0.022330977 0.05251102 0.026165113 0.02559309
0.08511805 0.14934964 0.10406877 -0.102925174 0.030634684 0.04807082 0.09399086 -0.035761148
-0.05103143 -0.04595664 -0.08428349 -0.014560008 -0.026983608 0.149352 -0.15419218 0.05958786
-0.0009902642 0.1565038 0.020237273 -0.03319433 0.02238812 -0.109241486 0.14495729 0.011072697
-0.08080952 -0.02135874 -0.027222427 0.06017852 -0.044505153 0.08589532 0.020216903 -0.05962159
0.07641726 0.07691773 -0.024891945 0.09181934 0.12068356 -0.083081335 0.059577703 -0.08202322
-0.18842763 -0.053893197 0.21947055 0.13691162 -0.089023836 -0.083007604 0.040158868 -0.026585894
-0.10125536 0.02645066 0.0103068855 -0.03454678 0.07375528 -0.029754885 0.047119357 0.08899381
-0.018781213 0.0093760025 0.11546839 -0.03662402 -0.073182866 0.20183578 -0.026341645 0.10542003
0.075379595 0.15288585 0.00634464 0.036001496 0.018759634 0.16502452 0.11997544 0.062964536
-0.06566761 0.037207827 0.105813354 0.1459962 0.016333988 -0.060814112 0.096072815 0.19981487
-0.019275498 -0.08346221 -0.02052027 0.12977502 0.06927674 -0.016342262 0.020033335 0.0946188
0.14046201 0.07752592 0.107618 -0.12472034 0.0023418083 0.0131210545 -0.052046698 -0.00571994
-0.047288503 -0.004476775 -0.04574088 -0.2006243 0.08616663 -0.041089978 0.060376707 -0.11639461
-0.16544268 0.08964331 -0.09048941 -0.056502137 0.13342106 0.0735366 0.09827524 0.02904268
-0.11949286 -0.046252962 0.023655146 -0.070667624 -0.021920243 -0.034080103 -0.025310693 0.14493684
0.047402937 0.089805566 0.18799052 0.09991504 -0.026762972 0.13742171 -0.06354985 0.03544727
0.07645819 0.0699292 -0.09099392 -0.013339143 0.09820279 -0.12474379 0.082655326 -0.041727114
0.026708102 0.07612382 -0.038942598 -0.06347617 -0.062160168 0.07171277 -0.05393395 0.06600181

fc2.bias f4 [128]
00000000: 47e7 133a bd5e 86b9 c93d f23a 8995 64b9
00000010: 3233 3cb9 0ee0 fb3a 167b 8d3a 323a c9ba
00000020: ff18 b1b9 c099 29ba e478 e8b9 a31a 2ab9
00000030: cba8 30b9 0bd2 1dba b9d9 3cba 0ee6 243a
00000040: a872 c9b9 a613 2aba fac7 66ba 69fe 3f3a
00000050: 98df 013b 1b55 ce3a 46e2 713a 5c2b 03ba
00000060: 49f4 8239 93eb 7539 918d b83a c6d9 a037
00000070: 4b60 15bb eb9d d8b9 7d02 15b9 6e33 0c3b
00000080: d6e5 a73a 0949 78ba c4dc ecb9 3a59 5cba
00000090: 2f82 e13a d76a 2bba 6c2d 563a 3677 b3ba
000000a0: a142 253a c1f1 a3b9 e6d6 423b 8795 a43a
000000b0: 3ed6 b33a 0686 bb39 559d 87ba 822b 7938
000000c0: f1f8 8eb8 47dc 0bbb 8b08 beb8 2f75 303a
000000d0: 17ad 273a c887 9bba 0f2d cf39 9b32 c4ba
000000e0: 999d 6dba 4b92 60b9 b2fa 08ba d516 2b3a
000000f0: b45c 9a38 f1bd a2b9 1f49 ce39 ed57 0c39
00000100: 33b2 bc39 5246 d038 46dd 0e3a 97b3 f9ba
00000110: b608 8f38 e132 2f39 d0cd f73a a8c6 c63a
00000120: e443 69b8 0721 e838 65b1 a239 8c6f 90b9
00000130: fe86 12b9 4839 193a ebd8 c539 91e4 683a
00000140: 603c 663a 7110 ca3a aadd 4639 be08 03bb
00000150: 7b83 9aba 3cc3 f538 ed2e 013b 47be 0eb9
00000160: 7527 703a cad5 f53a 94a0 eb39 d27d cc39
00000170: 5ee9 a93a ccc0 0f3b 6bca b3b9 1492 d73a
00000180: 51b9 43ba 928b 5e39 27d5 6339 f75b 373a
00000190: 0d4b 41b9 3f5f 323b 3c8f ae3a 2f14 1b3a
000001a0: a243 5f3a 130b 82ba 883d 73ba a31d 823a
000001b0: f7a2 f8ba 08f3 ee3a c557 2b3b bcf0 d839
000001c0: 1339 f339 0099 72b8 e1f3 5db9 6faf 1cb9
000001d0: dd74 dab8 1bb3 3b3a f7bf 1cba d234 8ab9
000001e0: e85f 3fb9 5978 483a 17e3 13b9 d267 2cba
000001f0: ac65 f2b9 1429 3a3a d76e 01bb cfa3 48b9
0.0005642068 -0.00025629057 0.0018481548 -0.0002179948 -0.00017948149 0.0019216554 0.0010794129 -0.0015352427
-0.00033778694 -0.0006469749 -0.0004434056 -0.00016222386 -0.00016847548 -0.00060203735 -0.0007204074 0.00062903843
-0.00038423133 -0.0006487913 -0.00088036025 0.0007323982 0.001981711 0.0015741916 0.0009227138 -0.00050037145
0.0002497754 0.00023452779 0.0014080276 1.9174895e-05 -0.002279299 -0.00041316389 -0.00014210674 0.002139296
0.0012809585 -0.00094713323 -0.0004517791 -0.000840563 0.0017204935 -0.00065390527 0.00081702205 -0.0013692144
0.0006304179 -0.00031269903 0.002973014 0.001255677 0.0013720465 0.00035767275 -0.0010346571 5.9406746e-05
-6.8174566e-05 -0.0021341012 -9.061497e-05 0.0006731329 0.0006396337 -0.0011866027 0.00039515688 -0.0014968695
-0.00090643164 -0.00021416803 -0.0005225345 0.00065265346 7.3605595e-05 -0.00031040565 0.0003934586 0.00013384195
0.00035990923 9.931311e-05 0.00054498424 -0.0019050714 6.820394e-05 0.00016708254 0.0018905941 0.0015165405
-5.5614757e-05 0.00011068774 0.00031031217 -0.0002754893 -0.00013973934 0.00058450224 0.00037736385 0.00088841567
0.00087828 0.0015416277 0.00018965328 -0.0019994224 -0.0011788452 0.000117188756 0.0019711808 -0.00013613059
0.0009161153 0.0018755731 0.00044942333 0.00039003656 0.0012963226 0.0021934984 -0.00034292354 0.0016446733
-0.0007466274 0.00021223564 0.00021727812 0.00069946 -0.00018433873 0.0027217416 0.0013317834 0.00059157884
0.0008516853 -0.0009921513 -0.0009278883 0.0009927045 -0.0018969466 0.0018230388 0.0026144844 0.00041378092
0.00046391095 -5.783979e-05 -0.00021167054 -0.00014942673 -0.000104168175 0.00071601727 -0.0005979533 -0.00026360765
-0.00018250907 0.0007647328 -0.0001410361 -0.000657675 -0.00046233588 0.0007101458 -0.0019749904 -0.0001913451

bn2.weight f4 [128]
00000000: 0486 783f 5a25 7c3f 5c6a 883f 9384 703f
00000010: a470 4b3f 5331 5f3f da4e 723f c9cc 873f
00000020: 228b 7a3f 96fb 843f 78a6 a03f 70f7 743f
00000030: 5442 6c3f 6ab1 773f 3ca8 7d3f 6518 853f
00000040: fbdc 653f bf2c a43f 5dcf 573f 1a59 693f
00000050: 852a 7e3f 6390 9c3f c1af 863f a3c0 7d3f
00000060: 0f0f 6a3f d952 813f 9f1d 843f 5479 6e3f
00000070: 6c16 a03f 4278 6e3f 654f 5d3f 8dd3 783f
00000080: c529 7c3f 6e57 8a3f 0617 753f 7305 823f
00000090: 8afc af3f 8dc8 6c3f e940 763f 7435 693f
000000a0: 0237 823f b651 b03f f95b 833f 1c10 783f
000000b0: 98d1 803f e935 753f db29 793f 0341 763f
000000c0: 0dec 753f 5e8c 603f b1d8 6a3f bff7 7b3f
000000d0: 5c8f 833f 4ede 773f a81e 763f aca1 903f
000000e0: c7b4 6b3f cbf9 803f f7b7 7c3f 5c1f 863f
000000f0: aa0f 6e3f e663 5f3f 815b 763f a5cd 823f
00000100: 6d66 6c3f 1e85 813f 2e3c 833f 0542 b93f
00000110: e3e7 853f 88ae 813f 8313 553f 0800 783f
00000120: 921f 823f 684a 543f ee0c 813f 1a5a 3e3f
00000130: 7e41 733f af4d 823f df37 6e3f 1731 613f
00000140: 9d7d 803f 2566 6c3f d896 603f 871d 6d3f
00000150: 7c75 7c3f 9385 703f a239 883f 7afa 6b3f
00000160: 895b 583f d042 9e3f 0854 4f3f c4eb 773f
00000170: bb2d 843f 9c23 843f 8ea1 953f 0188 5b3f
00000180: 73e9 4b3f 7d9e 703f fa91 853f 41db 643f
00000190: b187 673f 98a5 853f d40a 753f 104c 8e3f
000001a0: 82a0 613f 663e 853f 32c6 8d3f b8a2 6e3f
000001b0: d1d7 723f d626 a33f cb0b af3f 3b35 6b3f
000001c0: dbb1 693f 5f1f 843f ba08 793f 50b6 7e3f
000001d0: 37b3 733f b898 6a3f b62b 7f3f af0c 813f
000001e0: 5230 873f 81b8 7c3f b217 833f 05c5 903f
000001f0: 6aed 803f 786f 843f 0f58 a23f d5be 443f
0.9707949 0.98494494 1.0657458 0.9395229 0.7946875 0.8718464 0.9465157 1.060937
0.9786855 1.0389278 1.2550802 0.9569006 0.9228871 0.9675509 0.9908483 1.039807
0.89790314 1.2826155 0.84300786 0.91151583 0.9928363 1.2231563 1.0522386 0.99122065
0.9142923 1.0103408 1.032154 0.9315388 1.2506843 0.9315225 0.8644927 0.971978
0.98501235 1.0807931 0.95738256 1.0157913 1.3748944 0.92493516 0.96192795 0.9109719
1.0173037 1.3774936 1.0262443 0.9689958 1.0063963 0.95785385 0.9732949 0.9619295
0.9606331 0.87714183 0.91736895 0.98424906 1.0278125 0.96823585 0.9614053 1.1299338
0.9207272 1.0076231 0.9871821 1.047832 0.9299265 0.8726181 0.96233374 1.0219008
0.9234379 1.0118749 1.025274 1.4473273 1.0461391 1.0131388 0.832329 0.9687505
1.0165884 0.82926035 1.0082071 0.74356234 0.9502181 1.0179957 0.93054 0.8796553
1.0038334 0.9234336 0.8773017 0.9262318 0.98616767 0.9395382 1.0642588 0.9217907
0.8451467 1.236414 0.80987597 0.96844125 1.0326456 1.0323367 1.1689928 0.857544
0.7965309 0.93991834 1.0435174 0.89397055 0.90441424 1.044116 0.9571965 1.1116962
0.8813554 1.0409667 1.107611 0.9321704 0.9486056 1.2746227 1.3675474 0.918781
0.9128701 1.0322074 0.9727894 0.99496937 0.95195335 0.9163928 0.9967607 1.0081996
1.0561621 0.9871903 1.0241606 1.1310126 1.0072453 1.0346518 1.2683123 0.76853687
