models/classifiers/MLP2_CROSS_HUMAN2RPA_AE1BERT_bm.pth (torch, 260185 bytes, 19 tensors)

fc1.weight f4 [256, 77]
000000 60 42 fd 3a f3 e5 2f be dc 47 29 3c 5d 33 7c 3d
       0.001932215 -0.17177562 0.010332074 0.06157242
000010 79 8e 8d 3c e8 b8 fd 3d ec 1a a2 3d 97 0a 3d bd
       0.01727985 0.12388784 0.07915291 -0.046152677
000020 54 81 24 be bd f1 55 be fa ae 33 be b8 13 02 3e
       -0.1606496 -0.20892997 -0.17547217 0.12702835
000030 3a 5c 9e 3c 3f 2a 00 be 2f 7d 5d bd bb b1 d6 3d
       0.019331086 -0.12516116 -0.054074463 0.10483118
000040 46 13 7a bb 79 85 3e be e1 68 04 3e 70 21 14 3c
       -0.003815846 -0.18605603 0.12930633 0.009041175
000050 25 42 04 3e 0d a1 00 bd 4f de cb 3b d3 d5 e0 bd
       0.12915857 -0.03140359 0.0062215696 -0.10978284
000060 d6 8f 48 3c 6a f8 2f bd 28 8a be bd 75 ef ca bc
       0.012241324 -0.042961515 -0.09303695 -0.024772385
000070 6b 78 69 3c bc a1 86 3d 18 9d 57 bd bc e2 e0 bc
       0.014249901 0.06573817 -0.05264005 -0.027451865
000080 9b 83 4d be 6b 0a 16 be 3e ba 7e bc 59 72 e6 3d
       -0.20069735 -0.14652412 -0.015547333 0.11252279
000090 22 e0 38 3c 3b 98 8a 3d 4a 8a 85 3d fc 5d 7e bd
       0.011283906 0.06767317 0.06520517 -0.06210135
0000a0 64 c8 d2 bd 3a 2b 8a 3c 81 17 c4 bc 93 d9 c8 3c
       -0.10292128 0.016866315 -0.023936989 0.02451781
0000b0 be e8 e2 bd 26 ec 5e 3d 59 3b b7 bd d4 58 35 3e
       -0.11079548 0.054424427 -0.089468665 0.17709666
0000c0 43 26 d0 39 db 39 a1 3c 9e 70 5b bd 4f 13 26 3e
       0.0003970136 0.019680908 -0.053574197 0.16218303
0000d0 6e 7d 80 bc 67 97 00 bd 76 95 ab bd ce d8 5f 3e
       -0.01568481 -0.03139439 -0.08378117 0.21860048
0000e0 cf ff 31 3d 0a 20 5f bd b8 27 e5 bc 7b 9c 1f be
       0.04345685 -0.054473914 -0.027973041 -0.15587036
0000f0 41 4a 56 3d 52 4b 7e be 71 ad dc bd 67 d3 45 3d
       0.052316908 -0.2483342 -0.10775269 0.048297312
000100 17 b0 e5 3d ef d2 3c 3e b5 8d e2 bd 31 24 eb 3d
       0.11215227 0.1843984 -0.11062185 0.11481512
000110 ae 7c ef 3d 7c 99 3f be 8e 79 61 be 48 a6 fe 3c
       0.11693703 -0.18710893 -0.22019026 0.031085148
000120 6c 18 87 3d 22 2c 57 bd 39 3c 59 3c 38 2d 9f 3c
       0.06596455 -0.052532323 0.013258987 0.019430742
000130 f2 ec 01 3d 8a 32 20 bc cf d6 ba bd 7e 0e 39 3e
       0.03172011 -0.009777674 -0.09123003 0.18071935
000140 1d 3c 39 be c6 f8 34 3b c3 ce cf bd 31 d8 c0 bc
       -0.18089338 0.00276141 -0.101468585 -0.023540588
000150 7f 04 fe 3d bc 85 98 bd 6e 54 79 bd f6 07 a4 3d
       0.12403201 -0.07447383 -0.060871534 0.08009331
000160 ea 1d f9 3d ac 3d 0b bd a5 26 0f bd 87 ff 62 bd
       0.12163909 -0.03399436 -0.034948964 -0.05541947
000170 f2 07 f4 bd 02 93 06 3d 43 61 03 3c 43 28 36 3c
       -0.11915578 0.03285504 0.0080187945 0.011117998
000180 31 48 d6 3d a4 0f 8c 3c 3e 9a 0a bd 89 1f 82 3d
       0.10462988 0.017097302 -0.033838503 0.06353671
000190 9f f5 07 3d 4e a9 a0 bd b0 ea e5 3d f1 41 2a 3c
       0.033193227 -0.07844792 0.11226404 0.010391698
0001a0 c8 54 c7 bd 74 b9 55 bc 0e b2 f7 bd 1f c7 b3 bd
       -0.097329676 -0.013044704 -0.12094508 -0.08778214
0001b0 05 b0 c9 3d 4b 61 6b 3d c9 9e e0 bd b6 9d 08 bd
       0.09848026 0.057465833 -0.10967786 -0.03335353
0001c0 1b b7 ed bc f7 84 9b bd 95 b9 8e 3d 84 94 f8 bd
       -0.029017976 -0.075937204 0.06968991 -0.12137702
0001d0 ef ee 66 bd ae 38 9d 3d 35 8a 4e 3d 32 ff 31 3d
       -0.05638021 0.076768264 0.050424773 0.043456264
0001e0 af c8 c5 bd 11 94 da 3c 07 ec 09 3e 71 76 62 3d
       -0.09657418 0.026681932 0.13468944 0.055288736
0001f0 a1 ee bc bd c7 f4 89 3d 17 ab 3c be 1b bc 14 3d
       -0.09225202 0.06736141 -0.1842464 0.036312204
000200 36 be 90 3d 1e 99 a1 3d 82 3c f4 3c af bb 0f be
       0.0706753 0.07890533 0.029814009 -0.1403644
000210 2f b1 20 be b5 34 2b 3b 5c 21 93 bc a6 9d 64 3e
       -0.1569259 0.0026123945 -0.017960243 0.22325763
000220 65 9d af 3d 01 32 c2 bc 72 8b 32 3e ab 64 31 be
       0.085749425 -0.023705484 0.17436007 -0.17323558
000230 c5 b3 c8 3d 23 0d f6 3c 8f e3 e7 3d ab ba 97 3c
       0.09799913 0.030035561 0.113227 0.018521627
000240 05 98 01 3c 4a 40 43 be ac ca 0c bc 55 96 b5 3e
       0.007909779 -0.19067493 -0.008593243 0.35466257
000250 e3 f9 af bc 42 8d 47 be 10 8d 1d bd 14 93 94 be
       -0.02148146 -0.1948748 -0.038464606 -0.29018462
000260 37 a8 27 3e d7 63 9d 3d 09 e0 1f 3e 78 9d ad bd
       0.16372763 0.076850586 0.15612806 -0.084773004
000270 1d 77 f5 bb 3e 49 ab 3d e7 0b d3 3c 44 31 ec bd
       -0.007491006 0.08363579 0.025762511 -0.11532834
000280 28 0b 98 bb 91 d4 a5 bd b4 d2 fa bd 80 97 42 be
       -0.004640002 -0.080971844 -0.1224722 -0.19003105
000290 d7 47 0b 3d 10 dc 17 3d 76 79 2a bc 4c 87 13 be
       0.03400406 0.037075102 -0.010404935 -0.1440708
0002a0 6b 42 f2 3d bd 7c b6 bd fd f6 04 be fd e2 94 3d
       0.118290745 -0.08910511 -0.12984844 0.07269857
0002b0 33 1f d1 bd 8f 15 17 3e e1 c4 50 3d e3 5e fa 3d
       -0.10211029 0.14754318 0.05096901 0.122251295
0002c0 63 91 c4 bd d3 5d 06 3d 02 d5 5d be 8d 56 08 3d
       -0.09598043 0.03280432 -0.21663287 0.033285666
0002d0 d6 64 7a 3c 0b 13 6b 3d c5 87 1c be 5f f7 94 bd
       0.01528283 0.057391208 -0.15286167 -0.07273745
0002e0 ed 56 d3 bb c4 cc 06 3e 86 8a 87 3d 79 b8 fd 3c
       -0.0064495713 0.1316405 0.06618218 0.030971752
0002f0 0d 2b b9 3b bf 5f 35 be 7f a7 d0 bd e4 d7 de bc
       0.005650884 -0.17712305 -0.10188197 -0.027202554
000300 0a 23 97 bd 24 58 27 3e 74 8c 3f bd f0 1a 89 bd
       -0.0737973 0.16342217 -0.046764806 -0.06694591
000310 ab 30 90 3b 71 71 13 bd a8 d8 86 3d 10 e8 c2 bd
       0.004400333 -0.035996858 0.06584293 -0.09516919
000320 98 c5 8a bb 66 d8 af bc f1 fc c0 3d e8 c8 1c be
       -0.004234981 -0.021465492 0.09423245 -0.15311015
000330 97 cf a0 3d f1 54 c5 bd 7c 0c 11 3d 85 7c 0d bd
       0.078520946 -0.09635342 0.035412297 -0.03454258
000340 26 a3 6d bd 8e 24 3a 3d 19 fc c3 3d 8c 17 a8 3d
       -0.05801692 0.045445018 0.09569568 0.08207616
000350 3c 25 d2 bd 9e ea 4a be e4 94 b1 bc 01 f8 bf 3d
       -0.10261008 -0.19816062 -0.021677442 0.09373475
000360 bf 93 40 bc ce 5e 96 3d c6 94 bc bd 57 03 23 3c
       -0.011753975 0.07342301 -0.09208064 0.009949527
000370 2c e7 27 be 00 10 20 3a f9 da 31 3e b2 8b 08 bc
       -0.16396779 0.00061059 0.17368688 -0.008334087
000380 d5 20 69 3d 9c 65 f3 bc 07 fe 87 be b2 c9 0d bc
       0.056916077 -0.029711537 -0.26560995 -0.008654045
000390 09 96 62 3d 5e 7c 32 3d a7 b5 1e be d1 dc 84 bc
       0.055318866 0.043575637 -0.15498982 -0.016218575
0003a0 b6 81 ca 3b 10 18 00 be 5b 5a 8f 3d d4 19 19 3e
       0.0061800135 -0.12509179 0.06999656 0.14951259
0003b0 49 c8 b1 3d 41 ba 5e 3d 01 e7 0b be 1b d6 48 be
       0.086807795 0.054376844 -0.1366234 -0.19612925
0003c0 2a 2e 47 3d 1c 8e c7 3d 12 ec 83 3d ed 6d b1 bd
       0.04862801 0.09743902 0.06441511 -0.08663545
0003d0 de 44 80 bd b9 b6 40 be c5 cf 32 bd 3e 9d df bd
       -0.062631354 -0.18819703 -0.043655176 -0.109186634
0003e0 a5 be 1b 3d de 1d 3b bc b0 90 d4 3d f0 00 56 3e
       0.03802361 -0.011420695 0.103791595 0.20898795
0003f0 d8 99 30 3d 94 a5 b7 bd 82 3b 1a be 2d 43 7d be
       0.043115467 -0.089671284 -0.15061763 -0.24732657

fc1.bias f4 [256]
000000 d1 92 97 3a 75 c7 99 bb c0 f6 12 3b d5 91 b0 bb
       0.001156414 -0.0046929666 0.0022424906 -0.0053884783
000010 31 d6 2e bb 9b 68 19 3b f3 67 10 b9 90 cb bd 3b
       -0.002667796 0.0023408297 -0.00013771634 0.005792089
000020 65 b4 72 3a c1 ea b2 3b 99 68 81 3a ea 7d 46 3b
       0.0009258448 0.0054601138 0.0009873091 0.0030287453
000030 8c 39 75 bb 38 4d 86 3b 87 33 8a 39 55 5c 0d ba
       -0.0037418334 0.0040985607 0.00026359802 -0.00053924817
000040 d2 1e b1 ba 52 93 46 3b 6a 43 65 bb 7d 7a d0 3a
       -0.0013513213 0.0030300212 -0.003498281 0.0015905645
000050 12 5f 74 bb 25 5c 0e bc ae 31 ab bb 40 12 cd ba
       -0.0037288112 -0.008688961 -0.005224428 -0.0015645698
000060 6c ac 2d ba 68 fd 01 bb 59 c5 76 3b d6 93 eb 39
       -0.0006625119 -0.001983488 0.003765425 0.0004493284
000070 6c 53 36 3a a7 5f e5 bb 13 f5 d8 3a 21 9c 3a 3b
       0.000695518 -0.006999928 0.001655253 0.0028474408
000080 bb 81 7b 3b 63 60 d6 bb c5 60 a8 b9 60 f8 a5 3a
       0.0038376886 -0.006542252 -0.00032115556 0.0012662522
000090 40 72 6d ba 30 00 6f bb d5 68 64 bb 42 ed 9d 3a
       -0.0009057857 -0.0036468618 -0.0034852524 0.0012048858
0000a0 10 f2 6f 3b d8 72 19 3b 37 cb 0f 39 15 38 f0 3b
       0.0036612786 0.00234144 0.00013713246 0.0073309042
0000b0 e9 93 28 3a a7 46 42 3b 36 85 d1 bb 4f 33 0c 39
       0.0006430732 0.0029644163 -0.006394054 0.00013370554
0000c0 d7 01 02 3b 1a 73 6b bb 1e 48 88 3b 23 bf fb b9
       0.0019837522 -0.003592676 0.0041589877 -0.0004801686
0000d0 96 57 06 3b 93 c2 0a bb dc 19 9a 3b c1 bf 2d b7
       0.0020498983 -0.0021173104 0.0047027897 -1.035625e-05
0000e0 e1 44 e5 ba 9b 11 23 bc b1 c0 38 3b a9 b4 38 bb
       -0.0017491841 -0.009952928 0.0028191025 -0.0028183854
0000f0 ca 49 3f ba fa 8a 93 ba 07 4c 00 bb cb ee 60 3a
       -0.0007297067 -0.0011256628 -0.0019576566 0.0008580505
000100 fd e8 bd 39 c2 5f 42 3b 71 3e c1 ba b7 de 29 35
       0.0003622248 0.0029659127 -0.001474334 6.32815e-07
000110 d7 86 e8 bb 84 24 1b 3b bd 18 57 3a b8 15 8d 3b
       -0.0070961523 0.0023672888 0.00082052854 0.0043055676
000120 e8 b3 d3 ba 48 45 fc 3a 3a b4 09 3a e8 78 67 3a
       -0.0016151639 0.0019246722 0.0005252991 0.0008829967
000130 3e af d8 b9 9c 51 fa 3a 35 60 78 bb 5d d5 11 bb
       -0.00041329296 0.0019097808 -0.003789914 -0.0022252419
000140 07 42 3c bc d8 bf 3b 3b a2 e3 2e 3b d7 47 eb ba
       -0.0114903515 0.0028648283 0.0026685973 -0.0017950487
000150 01 a1 a7 b9 10 c4 78 3b 48 60 9f 3b d7 22 5e 3a
       -0.0003197268 0.003795866 0.0048637725 0.00084738195
000160 e6 e1 d5 ba 5a 63 3c ba 21 cb 39 3b f7 e2 3b 3b
       -0.0016317933 -0.00071864354 0.0028349834 0.0028669217
000170 0c 5b 7b bb 50 81 2b 3b 69 4d de 3b d7 f6 68 bb
       -0.0038353829 0.0026169606 0.0067841304 -0.0035547519
000180 65 b3 99 bb 37 e8 fe bb 2c 7d 36 bb 62 8b a1 bb
       -0.004690575 -0.007779147 -0.0027845604 -0.004929946
000190 46 69 48 bb 57 f3 57 3b 2a 29 16 bb 46 6d b3 3a
       -0.0030580326 0.0032951438 -0.002291272 0.0013689182
0001a0 00 57 ec 39 da 64 9d 39 f6 02 b1 b9 d9 01 82 bb
       0.00045078248 0.00030020514 -0.00033762277 -0.0039675054
0001b0 f6 90 4d bb 4c 05 58 ba aa 81 e3 3a f2 09 cd 3b
       -0.003136692 -0.00082405354 0.0017357368 0.006257289
0001c0 d0 b7 63 bb e0 e4 14 3b 68 9c 98 3b 66 75 3f bb
       -0.0034747012 0.0022719428 0.004657317 -0.0029214262
0001d0 fd 6c 65 b9 1c 06 33 35 e4 97 97 3b c2 cb 1a bb
       -0.00021879743 6.6691587e-07 0.004626261 -0.0023619984
0001e0 9e 19 12 3b 79 b1 3d 39 5d 1f 84 ba 35 30 41 3b
       0.00222931 0.00018090558 -0.0010080148 0.0029478197
0001f0 44 9a aa ba 99 fe 9f ba ec a1 40 ba 44 07 a6 3b
       -0.0013015945 -0.0012206613 -0.0007348347 0.005066784
000200 f3 3d 59 b8 e7 1b d1 3a 32 28 97 bb e5 f4 68 bb
       -5.1794526e-05 0.001595375 -0.004612946 -0.003554636
000210 fb cb 7f ba d9 d1 73 bb e1 15 a0 ba e7 f9 52 3a
       -0.00097578735 -0.0037203936 -0.0012213552 0.00080481026
000220 5d b0 bf ba 67 ff da b9 42 4b 8c 3b a3 fd 6f bb
       -0.0014624704 -0.0004177049 0.0042814324 -0.0036619685
000230 8a 9c 9b bb c0 e1 ca 3b 3e fe 24 b8 d5 23 98 38
       -0.0047488855 0.0061914623 -3.933743e-05 7.254599e-05
000240 cb f1 75 3b c9 af c2 3b 86 d5 dc 3b af 02 71 bb
       0.0037528153 0.0059413654 0.006739321 -0.0036775281
000250 ed 9d 10 3b 07 9f 06 bb f2 4f a0 3b ba 9c 7b b8
       0.0022066787 -0.0020541565 0.0048923427 -5.9989026e-05
000260 75 59 6d bb ff 97 d2 3b 73 73 75 bb c8 b8 f3 bb
       -0.003621665 0.0064268108 -0.0037452846 -0.007437799
000270 68 bf 4a b9 f7 6e 96 bb 29 63 34 bb 13 de 2c 3b
       -0.00019335526 -0.0045908648 -0.0027524924 0.0026377484
000280 81 dd 77 3a d9 a3 8d 3b b2 34 ec bb 64 d1 06 3b
       0.0009455309 0.0043225107 -0.00720843 0.0020571584
000290 57 e6 12 3b 43 94 94 bb 91 67 a7 39 d5 1a a9 39
       0.0022415125 -0.0045342757 0.00031929885 0.00032254183
0002a0 95 26 52 bb 1f 8a c4 bb ce cd be 39 e8 8c 1c 3b
       -0.0032066454 -0.0059979106 0.0003639296 0.0023887698
0002b0 4d 80 af ba 4b 84 8a 3b 9f 8f 07 ba 17 75 53 bb
       -0.0013389677 0.0042271963 -0.00051712425 -0.0032265836
0002c0 46 01 c1 3a 9b da 3d 3b 1f ab b8 ba 8d 1c 97 3b
       0.0014725111 0.002896941 -0.0014089084 0.004611558
0002d0 2e c9 67 bb 77 ae ef 37 6a 97 92 3b 71 4f 00 bb
       -0.0035367715 2.8572262e-05 0.0044736164 -0.00195786
0002e0 d7 78 23 3b 82 0d 2d ba 30 d8 9e 3b bc 93 8b 3b
       0.0024943852 -0.0006601439 0.004847549 0.0042595547
0002f0 b7 7b c0 bb 7e 3e 61 3a e3 b6 b6 bb f2 16 9c ba
       -0.005874123 0.0008592381 -0.005576001 -0.0011908694
000300 f9 7a bd 3b 2c 99 db ba 39 3c a1 3b 43 ec 92 ba
       0.0057824817 -0.0016754023 0.004920509 -0.0011209327
000310 76 f5 be ba 8a 95 c0 3b 75 0f 59 3b 6f 18 5c 3b
       -0.0014569003 0.0058772014 0.0033120785 0.00335839
000320 41 de b0 ba 34 d4 8e bb b9 5f 3e bb ab e3 87 3a
       -0.0013493971 -0.0043587927 -0.0029048754 0.0010367533
000330 cc a4 f7 38 de c9 9e 39 05 5a 99 bb b5 c6 e2 38
       0.000118085736 0.0003028651 -0.0046799206 0.00010813532
000340 01 f5 07 3b 92 84 ab 3a c1 22 67 3a bf d9 bf 3b
       0.00207454 0.0013085774 0.00088171294 0.005854815
000350 67 6f d1 ba e6 21 9a 3b bf ec b5 ba 40 4e 6e 3b
       -0.0015978635 0.004703748 -0.001387976 0.0036362559
000360 3f 0a 8a b9 5a 1e b9 3a 64 e4 a8 b9 17 09 a6 39
       -0.00026329045 0.0014123425 -0.0003221362 0.0003166876
000370 4a 02 b7 ba 4a db 55 3b 25 fc 80 bb 6c 99 02 ba
       -0.0013962474 0.0032631927 -0.003936308 -0.0004981968
000380 bd 94 a7 3b 1b 7c 44 3b 97 12 b2 ba e4 b3 3c bb
       0.0051141665 0.00299812 -0.0013585862 -0.0028793747
000390 a2 16 e8 3a 11 92 d7 3a 0a e2 38 ba 54 19 47 b9
       0.001770694 0.001644673 -0.00070527254 -0.00018987554
0003a0 f6 4f 74 ba b3 35 4d ba 85 64 36 bb b2 e4 3b 3b
       -0.00093197764 -0.0007828131 -0.002783091 0.0028670249
0003b0 35 6f 61 bb 56 b6 8b 3b 2f e6 ec 3a 33 ed 28 ba
       -0.003439856 0.0042636795 0.0018073971 -0.0006444037
0003c0 88 bf 2e bb ea c2 17 3c b4 4c 5a bb 46 57 da b9
       -0.0026664454 0.00926278 -0.0033309879 -0.00041645224
0003d0 49 ad 36 3b 63 a2 9c 3b ae 2f 03 3b b0 7d 20 bb
       0.0027874282 0.0047801 0.0020017433 -0.0024488978
0003e0 ee b4 15 3b 45 9f c8 ba fd 42 87 3a e8 3b 75 b9
       0.0022843438 -0.0015306255 0.0010319647 -0.00023387338
0003f0 8b 20 c7 3a 79 37 b3 ba f9 a6 c8 39 ff 34 90 3a
       0.0015192194 -0.0013673148 0.00038271377 0.0011002122

bn1.weight f4 [256]
000000 48 1e 44 3f da 0e 68 3f 26 e1 46 3f cd 5b 78 3f
       0.76608706 0.9064766 0.776873 0.97015077
000010 5d 7b 3e 3f d9 f6 50 3f 9d 56 5a 3f 86 35 8a 3f
       0.7440699 0.8162666 0.8528841 1.0797584
000020 05 5f 83 3f a9 d1 85 3f 8d 71 88 3f 28 03 6c 3f
       1.0263373 1.0454608 1.0659653 0.92192316
000030 36 15 88 3f 02 08 53 3f dd fe 5b 3f 03 e1 32 3f
       1.0631473 0.82434094 0.85935766 0.6987459
000040 70 70 68 3f e4 d1 5d 3f 77 53 76 3f 5f ad 79 3f
       0.90796566 0.8664839 0.9622111 0.9753017
000050 b5 7f 46 3f 25 00 8b 3f 93 f7 53 3f 5a 8a 5a 3f
       0.77538615 1.0859419 0.82799643 0.8536736
000060 7b ea 7f 3f 78 47 5b 3f ba 93 83 3f f0 fa 8b 3f
       0.99967164 0.8565593 1.0279458 1.0935955
000070 08 b2 72 3f 53 02 75 3f da 76 67 3f 0d 8f 81 3f
       0.94802904 0.9570667 0.9041573 1.0121781
000080 1f e2 83 3f 35 eb 79 3f 26 e8 85 3f 80 11 89 3f
       1.0303382 0.9762452 1.0461471 1.0708466
000090 64 9f 87 3f 0d 72 82 3f 0e e6 36 3f 90 40 6e 3f
       1.0595517 1.0191056 0.71444786 0.93067265
0000a0 07 a3 87 3f dd 79 86 3f 63 03 81 3f 90 52 76 3f
       1.0596627 1.050594 1.0079159 0.9621973
0000b0 9b 34 79 3f f5 c7 65 3f 82 b3 80 3f d3 57 1e 3f
       0.97345895 0.89758235 1.0054781 0.6185276
0000c0 64 6b 76 3f e0 af 7d 3f c5 50 61 3f c3 f8 5d 3f
       0.96257615 0.9909649 0.8801387 0.86707705
0000d0 ba fa 6a 3f 5a ce 8a 3f 98 95 4b 3f 94 80 60 3f
       0.9178883 1.0844223 0.79525137 0.87696195
0000e0 9f 70 7e 3f 08 0a 94 3f 9a 8c 73 3f a8 3b 6b 3f
       0.99390596 1.1565561 0.95136416 0.91887903
0000f0 49 39 60 3f bd b2 64 3f e8 6f 5d 3f 99 bf 83 3f
       0.8758741 0.8933523 0.8649888 1.0292846
000100 38 d4 7b 3f 12 64 4d 3f c5 d7 5b 3f cb a2 85 3f
       0.98370695 0.8023082 0.85876113 1.0440305
000110 97 02 9d 3f 8e cc 78 3f 00 cf 6f 3f 34 fb 71 3f
       1.2266415 0.97187126 0.9367523 0.9452393
000120 09 bd 90 3f d7 df 74 3f ae 2e 45 3f c4 25 48 3f
       1.1307689 0.9565405 0.7702435 0.78182626
000130 ec c6 57 3f d8 a5 55 3f ce cd 5d 3f 97 aa 88 3f
       0.84287906 0.8345618 0.8664216 1.067706
000140 89 ac 81 3f 6a 83 6c 3f 48 57 88 3f 70 16 97 3f
       1.0130779 0.9238802 1.0651636 1.1803722
000150 95 3b 60 3f 7b 97 62 3f ce 00 88 3f c6 a5 6b 3f
       0.87590915 0.8851239 1.0625246 0.92049825
000160 c9 68 73 3f ea 64 7e 3f 74 f5 6f 3f 24 b4 8d 3f
       0.95081764 0.9937273 0.93733907 1.10706
000170 2b e5 6a 3f a6 a8 7f 3f 0e 13 93 3f 2f d4 8d 3f
       0.9175593 0.9986671 1.149019 1.1080378
000180 13 28 4a 3f 60 2d 81 3f b9 41 81 3f fc 7a 66 3f
       0.789674 1.0091972 1.0098182 0.9003141
000190 95 0b 86 3f a7 55 50 3f 3b 07 76 3f 5c dd 69 3f
       1.0472285 0.81380695 0.9610478 0.9135339
0001a0 4c 15 88 3f 71 f1 65 3f fd 20 5c 3f 4d ae 8e 3f
       1.0631499 0.89821535 0.85987836 1.1146942
0001b0 e2 61 51 3f 7d f2 45 3f b7 c5 47 3f 2e 8e 6a 3f
       0.8178998 0.7732313 0.78036064 0.916232
0001c0 a6 7e 71 3f 06 7f 3a 3f 8f 63 71 3f 7a b2 87 3f
       0.94333875 0.7285007 0.9429254 1.0601342
0001d0 67 9b 80 3f 1c 20 30 3f 0d ac 86 3f 69 39 55 3f
       1.0047425 0.68798995 1.0521256 0.83290726
0001e0 67 1a 29 3f e8 98 72 3f 2d 47 8c 3f 1a 89 66 3f
       0.6605591 0.94764566 1.0959221 0.9005295
0001f0 73 a9 54 3f 9a b3 79 3f c7 9d 33 3f fc ab 80 3f
       0.8307106 0.97539675 0.70162624 1.0052485
000200 7d 23 70 3f 40 59 37 3f 38 96 86 3f a7 46 58 3f
       0.9380415 0.7162056 1.0514593 0.84482807
000210 37 f7 40 3f e8 26 65 3f 6d e7 72 3f 5e 20 77 3f
       0.7537722 0.8951249 0.9488438 0.96533763
000220 82 4a 52 3f 31 80 70 3f c4 fe 5f 3f ee 31 54 3f
       0.8214494 0.93945605 0.87498116 0.82888687
000230 e3 9d 86 3f 96 1c 5a 3f ed 5c 6e 3f da 1f 49 3f
       1.0516933 0.8519987 0.93110543 0.78564227
000240 53 36 80 3f 4f 20 4e 3f de ea 6f 3f b1 ad 4a 3f
       1.0016578 0.8051805 0.93717754 0.7917128
000250 bb 8f 78 3f 27 87 87 3f bb 4e 7e 3f 77 8f 7a 3f
       0.97094315 1.058812 0.99338883 0.9787516
000260 c0 05 58 3f 60 c6 7d 3f c4 a7 7a 3f d6 a2 8e 3f
       0.84383774 0.9913082 0.9791224 1.1143444
000270 24 9a 8f 3f d7 c4 48 3f 4b 5f 75 3f f4 8b 67 3f
       1.1218915 0.78425354 0.9584853 0.90447927
000280 8b 1b 86 3f 1b 7a 50 3f fe 77 7e 3f 55 cf 74 3f
       1.0477155 0.8143632 0.99401844 0.95628864
000290 e5 76 63 3f da 17 80 3f 50 ff 66 3f 0c 57 33 3f
       0.88853294 1.0007279 0.90233326 0.700547
0002a0 2a 6d 6c 3f 3d 41 71 3f ad 0f 52 3f 87 d5 66 3f
       0.9235407 0.9424017 0.8205517 0.90169567
0002b0 46 0d 42 3f d2 9c 63 3f d4 f1 74 3f a8 6e 62 3f
       0.75801504 0.88911164 0.956815 0.884501
0002c0 a2 cf 2d 3f 33 6d 7d 3f 6a 2c 81 3f 2e 1f 85 3f
       0.6789495 0.9899475 1.0091679 1.040014
0002d0 69 f3 8a 3f 65 c1 44 3f 7f 2c 97 3f d2 4f 6c 3f
       1.0855533 0.76857597 1.1810454 0.92309296
0002e0 d4 e5 6d 3f 1b eb 5a 3f 89 47 7e 3f cb ec 8d 3f
       0.92928815 0.8551499 0.99327904 1.1087888
0002f0 fd db 6b 3f ab 0c 91 3f 67 06 64 3f a5 94 8a 3f
       0.9213255 1.1331991 0.8907227 1.0826613
000300 c0 b5 72 3f c4 2b 44 3f 08 3e 67 3f 90 3a 92 3f
       0.9480858 0.7662928 0.9032903 1.1424122
000310 7b 69 54 3f a8 d2 4e 3f ec 6e 88 3f c4 1b 5a 3f
       0.8297345 0.80790186 1.0658851 0.85198617
000320 a4 4c 7b 3f 6d be 5c 3f a0 2e 7b 3f 16 39 66 3f
       0.9816382 0.86228067 0.9811802 0.89930856
000330 0d c0 48 3f 91 06 6e 3f 88 9e 78 3f 33 c5 5d 3f
       0.78418046 0.9297877 0.971169 0.8662903
000340 fa 26 62 3f ca a8 8f 3f f1 0e 4d 3f b5 76 4d 3f
       0.88340724 1.1223385 0.80100924 0.8025926
000350 54 e9 63 3f 72 3b 8c 3f 09 00 5f 3f 10 a2 81 3f
       0.89027905 1.0955641 0.8710943 1.0127583
000360 6f 48 66 3f fd b0 2d 3f f1 c5 91 3f 6a f6 4e 3f
       0.89954275 0.6784819 1.1388532 0.8084475
000370 0a 22 86 3f 99 f2 98 3f 47 d8 82 3f f6 03 4c 3f
       1.0479138 1.1949035 1.0222253 0.79693544
000380 c2 1a 88 3f 02 c5 69 3f ca 0f 3c 3f 86 95 70 3f
       1.0633166 0.91316235 0.7346159 0.93978155
000390 7c e1 52 3f cd 15 50 3f 7d 91 8a 3f d9 77 5a 3f
       0.8237531 0.81283265 1.082565 0.85339123
0003a0 d0 60 71 3f e6 24 40 3f 6c e8 6f 3f 63 e8 52 3f
       0.9428835 0.750563 0.9371402 0.82385844
0003b0 96 95 81 3f 71 2d 92 3f 32 1d 36 3f 3a de 5f 3f
       1.0123775 1.1420118 0.711383 0.87448466
0003c0 b9 4b 87 3f 15 58 80 3f 4d 76 4a 3f aa f1 59 3f
       1.0569984 1.002688 0.7908676 0.85134375
0003d0 3e 80 60 3f 58 d0 85 3f 75 69 7b 3f 14 95 41 3f
       0.8769568 1.0454206 0.9820779 0.756181
0003e0 83 b6 8d 3f 71 d8 89 3f 9b 63 4e 3f 53 9c 84 3f
       1.1071323 1.0769178 0.80620736 1.0360206
0003f0 76 ee 65 3f 9d a9 85 3f c3 71 7c 3f 9d 1a 7e 3f
       0.8981699 1.0442387 0.98611087 0.9925936

bn1.bias f4 [256]
000000 0f 66 da be 9e 09 cf be d2 9e 08 be e3 ed fb be
       -0.4265599 -0.40437025 -0.13341835 -0.4920493
000010 fd 68 d5 be a9 4d b5 be 1f e4 01 bf 4f b9 89 be
       -0.41681662 -0.35410812 -0.5073871 -0.26899192
000020 ca 71 55 be f4 e4 e2 be cd 62 b2 be 9a 17 ba be
       -0.20844188 -0.44315302 -0.34841004 -0.36346132
000030 83 b4 d2 be 68 00 b5 be a7 27 49 be 0f ca b6 be
       -0.41153345 -0.35351872 -0.19644032 -0.35701033
000040 13 7e 61 be c0 3a 7d be 3c 2d c4 be 4c 0e d7 be
       -0.2202075 -0.24729443 -0.3831576 -0.42003095
000050 6d 9e bb be ba 74 a2 be 2e 93 b0 be 00 e2 98 be
       -0.36644307 -0.3172968 -0.3448729 -0.29859924
000060 76 65 cc be 04 3d b8 be 31 4c 33 be 5c cb 99 be
       -0.3992116 -0.3598405 -0.17509533 -0.30037963
000070 aa 24 93 be dc 54 04 bf 05 84 ad be f5 58 9b be
       -0.2873891 -0.51691985 -0.33889785 -0.30341306
000080 23 78 b6 be a3 c6 d3 be 48 e1 c9 be da 7d b8 be
       -0.35638532 -0.41362485 -0.39429688 -0.36033517
000090 2a 23 bc be 30 d2 b8 be 89 6b d6 be 5d 40 ba be
       -0.36745578 -0.3609786 -0.41878918 -0.3637723
0000a0 a1 03 c6 be 2c bd 95 be 0b 9d b8 be fc aa 9a be
       -0.38674644 -0.2924589 -0.36057314 -0.30208576
0000b0 b7 2a a9 be 13 16 b2 be 30 b5 a1 be b6 be c6 be
       -0.330404 -0.34782466 -0.31583548 -0.38817376
0000c0 7f d0 90 be 27 db 6e be c7 a9 ea be e5 ad d4 be
       -0.2828407 -0.23325787 -0.45832655 -0.4153892
0000d0 e5 e6 8f be 8a 22 ee be 37 ca b2 be 7a b9 c5 be
       -0.28105846 -0.46510726 -0.34919903 -0.3861807
0000e0 64 16 ca be e4 c3 b7 be 6e aa ab be 34 c8 b2 be
       -0.39470208 -0.3589164 -0.33528465 -0.34918368
0000f0 88 89 57 be 8a 92 b8 be 46 35 b6 be 47 f1 a7 be
       -0.21048558 -0.360493 -0.3558752 -0.32801268
000100 7b 67 e8 be 11 bc c5 be 3f 27 5d be cd 02 b0 be
       -0.4539145 -0.38620046 -0.21597002 -0.34377137
000110 d2 59 76 be 6e 0a b5 be 80 c8 c4 be 0a e5 d2 be
       -0.24057701 -0.3535952 -0.3843422 -0.41190368
000120 e0 58 80 be d9 3f fe be 1e 30 e7 be d3 b5 cc be
       -0.25067806 -0.49658087 -0.45153898 -0.3998247
000130 b5 c1 97 be b5 ae a0 be eb b0 88 be 8e a4 b4 be
       -0.29639974 -0.3138329 -0.26697478 -0.35281795
000140 ff df 94 be 61 6a 8a be 2f ff df be 0c 12 9f be
       -0.29077145 -0.27034286 -0.43749377 -0.31068456
000150 42 2a ae be 1b a7 ae be c4 d1 8e be 0a b0 ea be
       -0.34016615 -0.34111866 -0.27894413 -0.45837432
000160 b2 0d a2 be 53 b2 67 be 85 d4 b9 be dd ea 5d be
       -0.31651074 -0.22626619 -0.36294952 -0.21671624
000170 cb a5 a2 be d7 48 b9 be 38 db 9a be fa 28 96 be
       -0.31767115 -0.36188385 -0.30245376 -0.29328138
000180 aa cd 8e be 28 b9 bc be 28 ee b8 be 95 f4 c2 be
       -0.27891284 -0.36860013 -0.361192 -0.38077226
000190 95 da 79 be 1d a6 ed be c9 7f c7 be 32 b2 e1 be
       -0.24399789 -0.46415797 -0.3896468 -0.44081265
0001a0 3c 2b d5 be 12 a3 9e be 18 0f f1 be 9c 93 3f be
       -0.41634548 -0.30983788 -0.47081828 -0.18708652
0001b0 15 0e 3b be bb cc b2 be a5 2b a7 be ab b0 b0 be
       -0.1826709 -0.34921822 -0.32650486 -0.34509787
0001c0 5f 04 99 be ae bf 5c be 95 ec b2 be ca 2f bf be
       -0.29886147 -0.21557495 -0.34946123 -0.37341148
0001d0 b0 8b 95 be df 72 c2 be 50 00 d1 be 52 4a d0 be
       -0.29208136 -0.37978265 -0.4082055 -0.40681702
0001e0 98 be a1 be 51 42 bd be 7c 2f b8 be 94 d1 c8 be
       -0.31590724 -0.36964658 -0.35973728 -0.39222395
0001f0 e6 20 bb be 94 b5 48 be 77 16 88 be a4 1e bd be
       -0.36548537 -0.19600517 -0.2657964 -0.3693744
000200 44 f7 c1 be 52 a0 a1 be 9a 14 a2 be 08 07 97 be
       -0.3788396 -0.31567627 -0.31656343 -0.29497552
000210 4b 62 e9 be 18 50 72 be eb e1 bc be ce 0d d2 be
       -0.45582804 -0.23663366 -0.36891112 -0.41026157
000220 35 10 c5 be 4d 35 b5 be 24 f6 e0 be ef a3 f7 be
       -0.38488927 -0.35392228 -0.4393779 -0.4836726
000230 96 8e 9d be 99 d7 d8 be d4 84 a2 be 5b b6 fd be
       -0.30772847 -0.42351988 -0.31741965 -0.4955319
000240 38 94 3c be cf 33 bb be 11 63 fa be c5 ba bb be
       -0.18415916 -0.36562964 -0.48903707 -0.3666593
000250 39 24 b3 be 54 0f ba be 55 8e a9 be 74 c7 a8 be
       -0.34988573 -0.3633982 -0.33116403 -0.3296467
000260 78 85 01 bf 26 fd de be f5 e9 a8 be c0 0d 99 be
       -0.5059428 -0.43552512 -0.32990995 -0.29893303
000270 0f 74 23 be c4 d8 97 be 6c 4a a1 be 63 c8 db be
       -0.15962242 -0.29657567 -0.31502092 -0.4292632
000280 10 dc ae be 3e ec bf be 46 ef b1 be e0 ca c6 be
       -0.3415227 -0.37484926 -0.34752864 -0.38826656
000290 5f 70 ba be 47 8c c5 be a1 40 78 be c3 56 bd be
       -0.36413857 -0.38583586 -0.24243404 -0.36980256
0002a0 9d 75 aa be 58 35 b0 be 22 c2 bc be 0d 63 eb be
       -0.33292857 -0.34415698 -0.36866862 -0.45974007
0002b0 e3 d4 60 be 2c b8 a0 be 1b a9 9d be d8 48 c1 be
       -0.2195621 -0.31390512 -0.3079308 -0.37750888
0002c0 8a 43 ca be 31 72 c0 be 2a ff 5b be da e5 9c be
       -0.39504653 -0.3758712 -0.21484056 -0.30644113
0002d0 39 36 8f be 72 8d 67 be c1 b1 f2 bd 71 02 ca be
       -0.27971056 -0.22612551 -0.1185031 -0.39454988
0002e0 26 90 8d be f5 76 be be f9 76 b7 be c7 72 c4 be
       -0.2764904 -0.37200132 -0.35832956 -0.38368818
0002f0 3d 0d 00 bf d1 95 a4 be d1 e5 d5 be d6 a2 aa be
       -0.500202 -0.3214555 -0.41776899 -0.3332736
000300 86 1c ba be 65 a2 c3 be 38 28 ad be 74 2c 6a be
       -0.36349887 -0.38209835 -0.33819747 -0.2286852
000310 cb 25 78 be 36 c0 8b be e8 d8 9d be 12 2a 93 be
       -0.24233167 -0.27295083 -0.3082955 -0.28743035
000320 13 47 00 bf 19 1c 98 be 72 0d f9 be ca 4e f0 be
       -0.5010845 -0.29708937 -0.4864307 -0.4693511
000330 61 7a e8 be 18 44 cc be 27 bc e8 be a1 dd aa be
       -0.45405868 -0.398957 -0.4545605 -0.33372214
000340 2d c3 93 be bc e1 74 be f3 3e 57 be d1 40 86 be
       -0.28859845 -0.23914236 -0.21020107 -0.26221326
000350 6e 67 97 be e9 02 ae be e9 b1 be be d9 67 9d be
       -0.29571098 -0.33986595 -0.3724511 -0.30743292
000360 e4 f5 a3 be 7d 70 e6 be f5 48 9f be e1 6c 7a be
       -0.32023537 -0.45007697 -0.3111035 -0.24455597
000370 a1 a6 d9 be dc da 5a be 9b d2 e4 be 05 b4 be be
       -0.4250994 -0.2137255 -0.4469193 -0.3724672
000380 cf 65 b0 be 0d 9e a1 be 9d a1 96 be b2 f9 b1 be
       -0.34452674 -0.31565896 -0.29420176 -0.34760815
000390 91 85 f0 be 8c c2 ab be cc eb 85 be ee f5 93 be
       -0.46976903 -0.33546865 -0.2615646 -0.28898567
0003a0 95 e3 c5 be 65 91 dd be e5 60 e1 be 32 02 cf be
       -0.38650194 -0.4327499 -0.44019237 -0.40431362
0003b0 80 c0 8c be 2d bb 9f be c6 c3 fb be 1e aa cb be
       -0.27490616 -0.3119749 -0.491728 -0.39778227
0003c0 b5 e1 63 be 31 8b 80 be b4 c6 57 be fc 57 9b be
       -0.22254069 -0.25106195 -0.21071893 -0.30340564
0003d0 ec 54 db be c0 ba aa be d3 a1 a8 be d1 21 e4 be
       -0.42838228 -0.33345604 -0.32935962 -0.4455705
0003e0 c7 0a a5 be af e7 9b be 14 0b c6 be 2d 94 d3 be
       -0.32234785 -0.30450198 -0.38680327 -0.41323987
0003f0 c8 86 8d be 1d 90 94 be d0 9d 86 be 7b 61 8a be
       -0.27641892 -0.290162 -0.26292276 -0.27027497

bn1.running_mean f4 [256]
000000 62 4e dd 3a ac c8 60 3c 70 83 93 3b 4b 6a 9c bb
       0.0016884322 0.013719719 0.0045017526 -0.0047734133
000010 19 54 27 3c 77 d1 94 bb aa 4e 27 bc 74 12 a9 3c
       0.010212922 -0.0045415717 -0.010211626 0.020638682
000020 5d 76 70 3c 0b af 6d 3c c6 6c e1 3b e8 e4 51 bb
       0.0146766575 0.0145070655 0.006879422 -0.0032027308
000030 a9 7b b8 bc 53 1d 6e bc 12 24 10 3c ed a0 1d bc
       -0.022519903 -0.014533359 0.008797662 -0.009620887
000040 bf 6c 63 3b 1e a3 85 3b ab 8f 4b 3b fe 00 b5 bc
       0.003470227 0.004078283 0.0031060975 -0.0220952
000050 29 72 3a bc a4 c5 85 bc 2b 82 0d bc fd 6a 30 3c
       -0.011379757 -0.016329594 -0.0086369915 0.0107676955
000060 9d 56 0d 3b 5c bd 63 3c 8a 7e f9 3c 1a 8f e1 3b
       0.0021566518 0.013900127 0.030455846 0.006883514
000070 70 b2 37 bb 16 5d fc bb 4d c6 8f 3c 3e 72 87 3a
       -0.002802994 -0.0077015264 0.017550612 0.001033373
000080 8e 3a 2b 3b 81 17 a3 bc 0f 79 eb 3a 7b 01 4d 3b
       0.002612743 -0.019908668 0.0017965155 0.00312814
000090 1f 6e f1 3b 23 74 03 3c de 52 10 bc 91 2f 04 bb
       0.007367864 0.008023295 -0.00880882 -0.0020169953
0000a0 15 a9 32 39 1b 79 0d bb 90 0b 07 3c 11 bb fd 3c
       0.00017038391 -0.0021587077 0.008242503 0.03097299
0000b0 48 d7 c5 ba 8f 71 e0 3a a7 2b 81 3a 6d 1b 1a bb
       -0.0015094066 0.0017123687 0.0009854928 -0.0023514882
0000c0 1a 4e 34 3c 93 f5 e8 39 d4 c1 36 bb b7 61 70 3c
       0.011004949 0.00044433455 -0.0027886527 0.0146717345
0000d0 28 e6 9b 3c 9e 32 90 bc 58 df 9b 3b 9c 7a 4e bc
       0.019030645 -0.017602261 0.0047568493 -0.012602475
0000e0 1a f8 30 bc 8d 34 3d 3c 43 05 3b 3b 73 95 01 3c
       -0.0108013395 0.011548174 0.0028537072 0.007909167
0000f0 29 67 9e 3c 50 cb 01 bc 8e 12 8c 3c fb 9f 91 bb
       0.0193363 -0.007922009 0.017098691 -0.00444412
000100 05 c1 5c 3c 53 7d 07 bc 9e 88 40 3c a9 38 a5 bb
       0.013473754 -0.008269626 0.011751322 -0.005042155
000110 14 8d 6b 3b b3 b8 81 3c 0c 60 46 bc b2 2b 30 3b
       0.0035942243 0.015835142 -0.01210786 0.0026881513
000120 b0 4f a6 3b 57 f3 44 bc dd c6 a4 bc b1 8e 63 3c
       0.0050754175 -0.012020907 -0.020114357 0.013889001
000130 54 4b 08 3a 3f 1c 08 3b b2 5a 63 b9 9c 39 70 bc
       0.0005199213 0.002076879 -0.00021682194 -0.014662173
000140 95 54 fd 3b af eb 60 3c 9f 92 88 3c 8c 79 09 3c
       0.00773103 0.013728066 0.016671477 0.008390795
000150 a3 43 97 3c d4 35 14 3c bb 4c bd 3c 7f 93 cd bc
       0.018464869 0.009046037 0.023107877 -0.025094746
000160 ef fe 73 3c c9 0b fb 3a da 94 f8 3c 2d 71 ae 3b
       0.014892324 0.0019153293 0.030344415 0.00532355
000170 2a 4e 40 3c c4 7c 6f 3c 52 d5 c9 3a 09 38 07 bb
       0.011737386 0.014617149 0.0015398657 -0.0020632765
000180 ae cc ae 3c 8e a5 0e bb cb c8 31 3c 3a ae af bc
       0.021337833 -0.0021766159 0.010851095 -0.021445382
000190 26 74 83 3c dc b1 5d 3c aa 7b b0 bc a0 84 26 bc
       0.016046595 0.0135311745 -0.021543343 -0.010163456
0001a0 84 a6 39 3c 52 39 45 3c 41 72 34 bc a5 d6 0c 3b
       0.011331204 0.012037592 -0.011013568 0.0021490243
0001b0 a1 37 c9 3b df d7 99 bc 98 74 c7 3c f3 89 a7 bb
       0.0061406647 -0.018779693 0.024347588 -0.0051128804
0001c0 a9 90 9b bc 2b ec d9 ba 77 f2 ab 3c 83 65 03 bb
       -0.018989878 -0.001662617 0.02098964 -0.002004952
0001d0 d3 2f 0b 3c 49 1f af ba 30 3a 47 3c b0 8a d9 3b
       0.008495289 -0.0013360764 0.012159869 0.0066388473
0001e0 10 17 b7 bb fe d0 5d 3c 36 33 cd 3c d2 d9 63 3c
       -0.005587466 0.013538597 0.025048833 0.013906913
0001f0 16 f5 d0 bb 7a b8 22 3c 91 e1 78 3c 41 b4 5b bc
       -0.006376873 0.009931678 0.015190498 -0.013409675
000200 a9 91 12 bc 85 df 5c 3c 03 b0 25 3b ca 05 a7 3c
       -0.008945861 0.013481026 0.0025281913 0.020388503
000210 e7 af 8c bc 39 c7 1e bc 8a 1a 0d 3b 0e 59 1b 3c
       -0.01717372 -0.009691053 0.002153071 0.0094816815
000220 7b 11 92 bc 1d 41 63 3b 67 ea d3 3c 97 cc 58 bc
       -0.017830601 0.0034676262 0.025868608 -0.013232372
000230 73 dc fa 3b 0a fd 8a 3c 79 75 1a 3c 3d 87 a7 3b
       0.007655674 0.016966362 0.009427422 0.005112557
000240 be 5f 2e 3c 28 b2 ae 3b 6a 03 60 bc fe 8f 68 3a
       0.010642944 0.0053312965 -0.013672689 0.0008871554
000250 d9 3c 05 bc d9 d6 0f bc 8a 3e 4b bb 8c 17 e7 3b
       -0.008132183 -0.008779251 -0.0031012618 0.0070523676
000260 9e 0d 4c bb 9e 67 01 bc 8b d9 ee 3b 8b 9c 88 bc
       -0.0031136046 -0.007898239 0.0072891167 -0.016676208
000270 8d 09 aa 39 6f 7c 85 3b 0a 9e 78 bb ed 7c 16 bc
       0.00032432043 0.0040736715 -0.0037935995 -0.009185058
000280 da 24 27 bc de a1 5f bc 6f 01 87 3b 07 38 04 3d
       -0.010201657 -0.013649432 0.004120044 0.032279994
000290 11 5e c1 3c 75 ee 2c 3c 3c 5d 6a 3c 3c ee da bb
       0.023604425 0.010554899 0.014304455 -0.006681232
0002a0 c1 df a6 bb 41 fb 92 bc 45 8a b2 3b 4d 56 5d bc
       -0.0050925915 -0.017942073 0.005448612 -0.013509345
0002b0 34 33 40 3c 41 bb 5d 3c b2 f6 81 3c da 86 31 bc
       0.011730958 0.013533414 0.015864704 -0.010835374
0002c0 60 15 42 bc b5 76 14 3c 97 b9 45 3b 1f 11 2c 3c
       -0.0118459165 0.009061505 0.0030170435 0.010502129
0002d0 84 d6 ca 3b c8 2d 37 bc f1 96 6c 3c 9c ac b7 bb
       0.006190123 -0.011180349 0.014440284 -0.0056052934
0002e0 fb f0 61 3c 6f 07 86 bc a2 8d 47 3c 3a 4c 2a 3c
       0.013790364 -0.016360966 0.012179764 0.01039415
0002f0 f5 71 34 bc a7 dc 8f 3c 87 2e 18 bc 29 c2 fe ba
       -0.011013498 0.01756127 -0.009288437 -0.0019436526
000300 4f f4 1e bc 6f 2d 1e ba 7f e2 52 3b 8a 2e 95 3b
       -0.009701802 -0.0006033992 0.003217846 0.004552667
000310 3c 43 0d bd 9a a8 84 3c 7e 50 81 3c af d5 72 3c
       -0.034487948 0.016193677 0.015785452 0.014821454
000320 f7 dc b0 bc 0b a8 a4 3b ec 01 19 bc 44 e8 75 bc
       -0.02158974 0.005024915 -0.009338837 -0.01500899
000330 ed 42 fd bb ad 13 aa ba 0b 30 68 bc db 0a d7 3b
       -0.0077289254 -0.0012975835 -0.014171611 0.0065625734
000340 e8 37 a9 3b 0c b5 b6 3c 99 47 b6 3c bf 2b 24 3c
       0.0051641352 0.022303127 0.022250937 0.0100201955
000350 aa b9 94 3c f9 6c 7f 3c 9a 59 8e b9 78 e8 5a 3c
       0.018154938 0.015589946 -0.0002715111 0.013361089
000360 e0 01 7c 3c 17 54 83 bc 9e cc ab 3b 82 72 b1 3b
       0.015381306 -0.016031308 0.005242898 0.0054152617
000370 20 f0 e4 bb 3b d8 3b 3c 2c 2e 42 ba 19 ef 24 bb
       -0.006986633 0.011465128 -0.0007407393 -0.0025166927
000380 c4 ae e6 3b 9a 53 9c 3c c2 46 02 3c 24 61 8e bc
       0.0070398767 0.019082833 0.00795144 -0.017380305
000390 b6 af af bb bd ae 10 3c b3 50 54 3c 2c 2d ca 3b
       -0.0053615225 0.008830723 0.012958693 0.0061699357
0003a0 54 fd 83 bc 79 40 41 bc 46 b9 75 3c 7b 3e 22 3b
       -0.016112007 -0.011795157 0.014997786 0.002475648
0003b0 d4 3a 42 3c 97 20 14 3c 81 66 ce bc 52 80 d4 3b
       0.011854846 0.009040973 -0.025195362 0.0064850235
0003c0 0a 3d ae 3a 49 8b 88 3c f3 01 6a 3c 6b 96 57 3c
       0.0013293338 0.016667979 0.014282691 0.013158421
0003d0 89 5c 85 bc 22 27 7e 3b b5 fd f9 3b f0 ab 43 bc
       -0.016279476 0.003878065 0.007629121 -0.011942849
0003e0 5e 8b 4d 3c 48 8e e5 3a e2 7a 83 3c 5d b4 86 bc
       0.012545435 0.0017513717 0.016049806 -0.016443426
0003f0 f1 48 8b 3c 39 a7 89 3c 50 7d aa 3b db 37 48 3c
       0.017002555 0.01680337 0.0052029267 0.012220348

bn1.running_var f4 [256]
000000 8c eb 44 3f f7 88 3a 3f 1c 7f b4 3f a7 8c b0 3f
       0.76921916 0.7286524 1.4101291 1.3792924
000010 11 e5 4d 3f 26 16 76 3f f9 98 75 3f 2d 03 2d 3f
       0.8042765 0.96127546 0.9593654 0.6758297
000020 a8 c6 51 3f 51 fe 96 3f 9a 3e 61 3f 39 d5 65 3f
       0.8194375 1.1796361 0.8798615 0.89778477
000030 3f 7a 75 3f 55 9b 4a 3f 2d 27 6e 3f 66 ca 42 3f
       0.9588966 0.7914327 0.9302853 0.76090086
000040 91 5b b9 3f 41 9c 48 3f 5b 4f 99 3f ea 27 5c 3f
       1.4481069 0.78363425 1.1977342 0.85998404
000050 c2 aa b2 3f 17 ba 9f 3f 8a bd 93 3f c6 83 81 3f
       1.3958361 1.2478665 1.1542218 1.0118339
000060 07 7d a2 3f 18 91 37 3f 12 e7 63 3f 3e 0e 7e 3f
       1.2694405 0.7170577 0.8902446 0.9924048
000070 78 4a b6 3f f6 19 41 3f 15 f8 6b 3f 0b ca ad 3f
       1.4241476 0.7543024 0.9217542 1.3577284
000080 7b e5 2c 3f c1 ac 95 3f 40 95 98 3f 2e 97 64 3f
       0.6753766 1.1693345 1.1920547 0.8929318
000090 89 55 5f 3f 6b f8 4a 3f f3 8b 88 3f eb 8d b0 3f
       0.8723989 0.79285306 1.0667709 1.379331
0000a0 89 46 9b 3f a5 62 8c 3f 3f a8 31 3f 7d c3 52 3f
       1.2130901 1.0967604 0.6939735 0.8232954
0000b0 ed d0 81 3f a8 25 54 3f 64 97 97 3f ed 98 9b 3f
       1.0141884 0.8286996 1.1843076 1.2156044
0000c0 e1 8f 94 3f 58 d8 37 3f e1 a2 67 3f 73 5e 43 3f
       1.1606408 0.7181449 0.9048291 0.76315993
0000d0 bb fb d1 3f 4b 15 70 3f 3d e4 2d 3f a5 e2 62 3f
       1.6404947 0.9378249 0.6792639 0.8862708
0000e0 6d 89 7a 3f 9d 58 60 3f 4d da 5f 3f 26 d6 35 3f
       0.97865945 0.87635213 0.87442476 0.7102989
0000f0 d1 39 30 3f c2 f6 66 3f b9 9d 6b 3f c7 ea 9a 3f
       0.6883822 0.9022027 0.9203754 1.2102898
000100 7f e5 a2 3f e9 73 9d 3f 0d 32 4d 3f 10 e2 c2 3f
       1.2726287 1.2300998 0.80154496 1.5225239
000110 ad 2d 81 3f b9 72 81 3f 55 21 c4 3f 4d 65 a1 3f
       1.0092064 1.0113136 1.5322672 1.260904
000120 dc dc 52 3f 1a 73 67 3f 49 5f b1 3f f3 2a 4c 3f
       0.82368255 0.90410006 1.3857204 0.79753035
000130 48 78 3e 3f d0 d6 2c 3f 39 82 21 3f c8 da a0 3f
       0.74402285 0.6751528 0.6308933 1.2566767
000140 b0 d3 35 3f 83 12 96 3f d7 69 5f 3f 9c c9 67 3f
       0.71026134 1.1724399 0.87270874 0.90542006
000150 5b a9 3e 3f f5 e7 85 3f 53 53 b1 3f ad 98 8f 3f
       0.74477166 1.0461413 1.3853554 1.1218468
000160 f7 71 34 3f b6 56 a2 3f 1a 54 62 3f c6 5b c4 3f
       0.70486397 1.2682712 0.8840958 1.5340507
000170 07 53 5a 3f 6c 21 d2 3f 56 37 98 3f e4 96 8b 3f
       0.8528294 1.641645 1.1891887 1.0905423
000180 2e 6a 58 3f 1a d8 36 3f 12 6c 3f 3f 67 d1 33 3f
       0.8453702 0.71423495 0.7477428 0.702414
000190 cb 56 61 3f 6f 77 77 3f a1 38 49 3f 62 86 69 3f
       0.8802306 0.96666616 0.78602034 0.91220677
0001a0 dc 9d dd 3f 16 6e 7c 3f 7b 00 4f 3f cf 91 93 3f
       1.73138 0.9860548 0.8086011 1.1528872
0001b0 4e 34 83 3f 67 33 6d 3f 36 d3 73 3f bb 17 5b 3f
       1.0250337 0.9265656 0.9524416 0.85583085
0001c0 2e f8 82 3f 4d a8 34 3f d3 b0 42 3f 48 8d d2 3f
       1.0231988 0.70569307 0.7605106 1.6449366
0001d0 13 15 4e 3f 8c 7c 99 3f 41 fa 4a 3f 3d 06 3a 3f
       0.80500907 1.1991134 0.7928811 0.7266577
0001e0 e5 3e 6b 3f 71 63 54 3f 14 bb 65 3f 71 cb 84 3f
       0.91892844 0.82964236 0.89738584 1.0374585
0001f0 6c d0 6a 3f e9 54 33 3f 43 57 8c 3f bd 1b 6c 3f
       0.91724277 0.7005144 1.096413 0.92229825
000200 4c 21 47 3f f9 92 67 3f 1b cf 8e 3f 43 61 74 3f
       0.7778518 0.9045864 1.1156954 0.9546091
000210 30 e3 57 3f 6b ba 49 3f 23 a9 35 3f d5 d3 50 3f
       0.84331036 0.78800076 0.7096121 0.8157323
000220 8e bd 79 3f 1b cf be 3f 4e fa 62 3f cc 77 80 3f
       0.9755486 1.4906954 0.88663185 1.0036559
000230 0a dc 84 3f 34 04 4e 3f f8 6a 4b 3f b4 a2 79 3f
       1.037965 0.80475163 0.79460096 0.9751389
000240 04 c1 c7 3f 99 38 28 3f a7 ff 98 3f f4 ed 59 3f
       1.5605779 0.6571136 1.1953019 0.8512871
000250 20 84 9d 3f a6 09 a4 3f cd 9b d7 3f b5 9c b1 3f
       1.2305946 1.2815444 1.6844422 1.3875948
000260 9f bd 76 3f 51 9f 52 3f 16 88 97 3f c3 d6 c6 3f
       0.9638309 0.8227435 1.1838405 1.553429
000270 51 c6 af 3f cb 4b 55 3f be 58 34 3f d1 89 52 3f
       1.3732396 0.83318776 0.7044791 0.8224154
000280 cb f8 cd 3f b5 28 4b 3f b8 a1 36 3f 24 38 3c 3f
       1.609155 0.7935899 0.71340513 0.73523164
000290 1e 13 47 3f 76 d4 72 3f 5c 65 68 3f bf b2 6e 3f
       0.77763546 0.9485544 0.9077966 0.93241495
0002a0 ac e3 8b 3f 6c 5e 7f 3f cf 71 4b 3f 86 62 71 3f
       1.0928855 0.9975345 0.79470533 0.9429096
0002b0 04 36 30 3f 0c 1b 6d 3f 77 71 42 3f 58 86 62 3f
       0.6883242 0.92619395 0.75954384 0.8848624
0002c0 bf 0e b0 3f c7 b4 4c 3f 9a c4 a7 3f 38 a9 a5 3f
       1.37545 0.79963344 1.3106873 1.2942266
0002d0 99 97 4b 3f 44 74 63 3f 50 e5 62 3f 96 aa 4d 3f
       0.79528195 0.8884928 0.88631153 0.8033842
0002e0 e7 a3 43 3f 2e 44 55 3f 81 66 32 3f 45 37 49 3f
       0.7642197 0.8330716 0.6968766 0.7859996
0002f0 7f 83 2a 3f a4 97 69 3f ba eb 42 3f bf e4 b8 3f
       0.666069 0.9124701 0.7614094 1.4444808
000300 87 8b a1 3f f9 c4 34 3f 95 12 3c 3f 87 55 5b 3f
       1.2620705 0.70613056 0.73465854 0.8567738
000310 43 3e 58 3f 3d 04 35 3f e7 2f 3e 3f 4d 0b 38 3f
       0.84470004 0.7070959 0.74291843 0.71892244
000320 d9 9d 7d 3f ad e8 62 3f 1e ae 63 3f 37 56 74 3f
       0.9906898 0.88636285 0.88937557 0.95444053
000330 2f cd 6c 3f 54 bf 88 3f 60 53 3a 3f d9 da 4d 3f
       0.92500585 1.0683389 0.7278347 0.8041206
000340 46 00 8c 3f b2 2e 7c 3f 22 40 88 3f 35 f3 82 3f
       1.0937583 0.9850875 1.0644572 1.0230471
000350 d0 03 6c 3f 59 dd 7a 3f 2f fc 5a 3f 7c 24 88 3f
       0.9219332 0.97994 0.8554105 1.0636134
000360 6c 82 86 3f b7 07 b1 3f 7b 65 e5 3f bd e8 7c 3f
       1.0508552 1.3830479 1.7921594 0.9879263
000370 5b 35 89 3f 0a 89 42 3f 06 47 a0 3f c1 d7 43 3f
       1.0719408 0.75990355 1.2521675 0.7650109
000380 59 ef 75 3f 1a 0d 34 3f fb 4d 8b 3f b3 fb 56 3f
       0.9606834 0.7033249 1.0883173 0.8397781
000390 78 5a 5e 3f 7e 90 56 3f e0 b3 5a 3f 98 e9 41 3f
       0.86856794 0.8381423 0.8543072 0.7574706
0003a0 47 f8 69 3f 0f 5e 91 3f 9d d0 3a 3f bb 5f 93 3f
       0.91394466 1.135683 0.7297457 1.151359
0003b0 7c b0 94 3f 37 a5 60 3f f8 d2 78 3f 95 d8 4e 3f
       1.1616359 0.877521 0.9719691 0.8079923
0003c0 ca 61 a5 3f ef 3d 1b 3f b8 2f 41 3f 4f 9f 60 3f
       1.2920468 0.6064138 0.7546344 0.87743086
0003d0 c8 32 6d 3f 49 d0 96 3f 8a 8a bd 3f 78 f3 67 3f
       0.9265561 1.1782314 1.4807904 0.9060588
0003e0 58 63 c3 3f 4a 15 88 3f 31 b0 21 3f 6c f3 9b 3f
       1.5264692 1.0631497 0.6315947 1.2183661
0003f0 b8 6c 23 3f 5d 25 82 3f b2 80 22 3f 21 c9 48 3f
       0.63837767 1.0167652 0.63477623 0.784319

fc2.weight f4 [128, 256]
000000 0c a2 81 bd b2 0f 9b bc e5 5e cd 3c d7 30 26 bd
       -0.06329736 -0.018928383 0.025069663 -0.04057392
000010 54 0c 34 3d d9 f9 33 bd c4 66 45 bd 9e 66 05 3e
       0.04395707 -0.043939445 -0.048193708 0.13027427
000020 82 9f c5 3d 17 41 0a be 66 0d 80 3d 59 f4 48 bd
       0.09649564 -0.13501392 0.062525555 -0.049061153
000030 52 67 da bd 4f cd 27 be bc 5c 51 bd 54 a3 12 be
       -0.10664238 -0.16386913 -0.05111383 -0.14320117
000040 7c a7 51 bd 12 0d ca bc 70 b2 3a 3d 04 f9 3d be
       -0.051185116 -0.024664436 0.045580328 -0.18552023
000050 bf 60 42 3d b8 f5 92 bd 51 19 54 bc 9b 08 04 3d
       0.047455546 -0.071757734 -0.012945489 0.03223477
000060 7e 96 cf bd a0 f2 96 3c e6 c0 7c 3d 0f 3c 0f bd
       -0.10136126 0.01842624 0.0617074 -0.034969386
000070 cf 0f 4a bd ae 15 b0 bc 37 98 3c bd 50 49 20 bd
       -0.049331482 -0.021494713 -0.0460436 -0.039132416
000080 3a 80 57 3d bd 29 c4 bd 3f 07 d9 bd 91 18 14 3e
       0.05261252 -0.095782734 -0.10597085 0.14462496
000090 aa e7 07 3e 38 11 dc 3d 60 e4 28 ba bb 09 36 bd
       0.13271967 0.10745472 -0.0006442722 -0.044442873
0000a0 a8 54 fc bd a8 70 8b bd 1a fe cf bd bb fe 2d 3e
       -0.123208344 -0.06808597 -0.10155888 0.16991703
0000b0 93 c9 14 3d 6a 75 ad bd a0 a3 b7 3c a5 7d 92 bc
       0.03632505 -0.084696606 0.02241689 -0.017882178
0000c0 0f 7f d9 bd 8a 82 00 3c 0c bc 45 bc ef ae be bc
       -0.10619938 0.007843623 -0.01206876 -0.023276774
0000d0 c0 c4 43 be b3 6c 79 3a f1 39 01 3e 75 75 11 be
       -0.19118023 0.00095147936 0.12619759 -0.14204963
0000e0 6b fd 43 bd a9 81 ed 3d 2e 60 ee 3d d0 12 ce 3d
       -0.0478491 0.11596996 0.116394386 0.10062182
0000f0 d8 b4 13 bd 1a 07 06 bd 0b 55 4e 3b 3b 8f 4a bd
       -0.036061138 -0.032721616 0.0031483795 -0.049453
000100 00 5c ed bd 59 d4 31 be eb 97 5b 3c 72 9a 4e bc
       -0.11589813 -0.1736616 0.013402919 -0.012610065
000110 a3 c2 aa 3d 84 d7 61 bd 34 0d 6b bd 43 7d 0b bd
       0.08337905 -0.055137172 -0.05738564 -0.034055006
000120 80 f6 c3 3d 93 cb 14 bd 45 a8 6d 3b a2 d2 17 be
       0.095685005 -0.036326956 0.0036263627 -0.14826444
000130 94 1c 29 3d 03 43 68 3c 5f 9d fd 3b cf ad 0b bd
       0.04128702 0.014176133 0.0077397074 -0.034101304
000140 22 1b f2 3d 1c b7 75 bc 85 c1 7e 3e f4 8d 18 3e
       0.118215814 -0.01499727 0.2487851 0.14897901
000150 e8 69 a7 3c f4 99 4c bd 82 bc 0d be c8 ab c9 bd
       0.020436242 -0.04995151 -0.13841441 -0.09847218
000160 e0 4a d7 bc 25 21 e9 bd 0a e8 51 3c cd 7a a5 bc
       -0.02628082 -0.11383275 0.01281167 -0.020200158
000170 a2 7d 81 3b d8 5d db bd 5d 61 f4 bd 51 04 49 bd
       0.003951744 -0.10711259 -0.11932633 -0.049076382
000180 f6 54 5b bc 83 1d e8 bc 55 b8 0f 3e 2a af a5 bc
       -0.0133869555 -0.028334385 0.14035161 -0.020225126
000190 0e b5 fe 3d 3c b3 6f bc 36 dd 2a be 69 fd 19 be
       0.12436877 -0.014630135 -0.16685948 -0.15038075
0001a0 24 74 f6 bd 4d 1d 31 3a b4 f7 ed bc da 9e ec 3b
       -0.12033871 0.00067563803 -0.029048778 0.007221085
0001b0 42 91 05 3e 96 4c 2c 3d cf a3 85 bd ea 5a bd bd
       0.13043693 0.042065226 -0.06525385 -0.09245856
0001c0 34 72 74 bd cd dd df 3c d8 d7 18 3d d4 0f b5 bd
       -0.059679225 0.027327443 0.03731522 -0.088409096
0001d0 4b 8e 84 3c 1c 73 d5 bd 47 3d 99 3d 23 05 11 bd
       0.016181132 -0.10422346 0.07482391 -0.03540529
0001e0 67 d9 a6 3d 57 f3 e1 3d 4a 80 0e 3d c0 3c cf 3c
       0.08146935 0.110327415 0.034790315 0.025297523
0001f0 c4 d3 73 3c 5e 83 6f 3d 67 05 c2 3c cf 3b d2 bd
       0.014882032 0.05847489 0.023684217 -0.10265314
000200 a2 8f 2d bd 64 08 0c 3c 26 d3 41 be 51 d2 68 3c
       -0.042373307 0.008546922 -0.18928203 0.0142103
000210 b2 04 f7 3c 6c d2 ec bd b3 f4 7d 3d b5 99 a9 3a
       0.030153606 -0.11563572 0.06200094 0.0012939485
000220 7a 71 4a bc 57 ee 22 be 38 d9 f7 3c fc 67 12 be
       -0.0123561565 -0.15911232 0.030254945 -0.1429748
000230 be ca 4a bd 35 a6 90 3c f6 ee 5e 3c 18 be 06 be
       -0.049509756 0.017657379 0.013606777 -0.13158453
000240 94 4a d3 bd a5 48 34 bd a8 1e be bd 8d 54 42 bd
       -0.10316959 -0.04401459 -0.09283191 -0.047443915
000250 58 24 d0 bd 9c 5c 00 be de 1c 53 be 65 7a d9 bc
       -0.10163182 -0.12535328 -0.2061648 -0.02654762
000260 d2 1e dc bd 53 c6 4e bd c8 5a d8 bd 4a fb 1a be
       -0.10748066 -0.050482105 -0.1056419 -0.15134922
000270 0d 58 81 be 83 58 80 3d 3c 48 82 bd bf 6d 16 be
       -0.2526249 0.06266882 -0.06361434 -0.14690302
000280 81 ac d0 bd 3b 5f c6 bd 69 cf df 3d 84 9b 03 3e
       -0.101891525 -0.096861325 0.10928232 0.12852293
000290 ac 98 e0 3d 59 a2 04 3e 97 b8 ec 3d f0 41 24 be
       0.1096662 0.12952556 0.11558645 -0.16040778
0002a0 2c 6d 2b 3c 28 56 aa bc e0 df 22 3d 04 59 9a bd
       0.01046304 -0.020793036 0.039764285 -0.0753651
0002b0 51 b2 03 3e b6 b2 16 3e 96 86 a5 bb c9 7d 9e bd
       0.12860991 0.1471661 -0.0050514443 -0.07738835
0002c0 31 ea 1a be b9 1f d0 3c 1f ab 60 be 65 5f 59 be
       -0.151284 0.025405752 -0.21940278 -0.21227796
0002d0 4f 48 af 3d 30 d8 19 3e bb de 54 3d c4 89 28 3e
       0.08558714 0.15023875 0.051970225 0.16458803
0002e0 fa 8f 13 3d 59 e0 a7 3c c2 4b 0a 3e eb a5 f6 3d
       0.03602598 0.02049272 0.13505462 0.12043365
0002f0 1a 9c 56 bd a3 db dd bc 1a bb d5 b8 3f cf 2a be
       -0.052394964 -0.02708227 -0.00010191482 -0.1668062
000300 1e ea 19 be eb 52 75 bc b3 c5 e2 bd f1 9d e9 3d
       -0.15030715 -0.014973382 -0.110728644 0.11407078
000310 41 b9 8f 3d b4 aa 29 3c a2 3d bf 3d 69 64 0f bd
       0.07017756 0.01035564 0.093379274 -0.035007868
000320 31 98 16 3d 7b 49 40 3e f4 63 ae 3d d2 c6 36 bd
       0.036766235 0.1877803 0.08515158 -0.044623204
000330 a3 c3 fc bd 84 9c ab bd 83 eb ba bc 09 d9 ef 3d
       -0.12342002 -0.08379462 -0.022817379 0.11711318
000340 e1 94 8e 3d 6e 62 12 bd 32 05 c5 3c cc 1a 0c be
       0.0696199 -0.0357384 0.024050329 -0.13682097
000350 dc 23 5e 3d 96 8f bf 3d a0 59 d0 3c be af 42 be
       0.054233417 0.09353559 0.025433362 -0.19012353
000360 6a 85 f7 3d 5f 41 19 ba 1f 2e 35 be af a5 05 be
       0.120859936 -0.0005846228 -0.17693375 -0.13051485
000370 08 05 a9 bd 6a 0c 2a 3e fb 29 1c bd 9a a1 53 be
       -0.08252913 0.16606298 -0.038125973 -0.20667115
000380 ef 94 5e 3e 8e de 8a 3d 17 f7 d4 3b 3e 1d 81 bd
       0.21736501 0.0678073 0.006499182 -0.06304406
000390 4c bb 82 bc db a0 11 be 83 d3 0a 3e ab c7 9b bd
       -0.01595845 -0.14221518 0.13557248 -0.07606443
0003a0 9e 66 ba bd 1f a2 0c 39 49 26 01 bd 0a d9 8e 3d
       -0.09101604 0.00013411835 -0.031530652 0.06974991
0003b0 65 3f c9 38 19 90 42 3d 0a 68 23 be 2d a5 c3 3d
       9.596235e-05 0.047500703 -0.15957657 0.09552989
0003c0 26 80 ed bd ce 73 ce 3c 6e e6 e8 bd e8 e9 d6 bd
       -0.11596708 0.025201704 -0.11372076 -0.10493833
0003d0 d5 75 18 3d 8b 60 cd bd 22 45 e3 bd a2 73 94 bb
       0.03722175 -0.1002818 -0.110971704 -0.004530386
0003e0 48 6d 4d be 2e 5a d8 bd fb ed cc bb d5 a1 cc 3b
       -0.20061219 -0.105640754 -0.0062539554 0.006244878
0003f0 83 62 2c 3e 12 f8 b8 3d bb 3e b3 3d 0f 2a 36 3d
       0.16834454 0.09031691 0.08752199 0.044473704
