models/classifiers/MLP2_RPA_AE1w2v_bm.pth (torch, 296570 bytes, 19 tensors)

fc1.weight f4 [256, 113]
00000000: e05d 73bd d1b8 83bd 3710 cd3d fbe4 a83d
00000010: 93f8 a23c ca27 85bd 7a94 f43c 7ff3 b5bc
00000020: c5b0 ccb8 aea4 19be dd7d a2bd 36d9 9abc
00000030: 0ad5 3dbd e597 be3c 7f16 983c f659 8e3b
00000040: a55b 043e b842 26be 8f68 333e a6e1 f73d
00000050: cb3a bfbd 1355 413c 7167 dc3d f5f1 433c
00000060: 6774 7e3d ea3b 80bd 95e0 f03d 445f ee3d
00000070: f2b8 a4bd b7cf 19bd 5d79 223d 12ef e23d
00000080: 2874 05bd 5f08 803b eb84 84bd b898 ffbd
00000090: 1c38 dd3c 4a45 af3d 5be9 9b3d 0b1e 153e
000000a0: cfa9 453c ec1b 923d f726 ce3d 03b5 053e
000000b0: bc84 0ebe 0fbd bf3c e3e2 053e 72b2 913d
000000c0: 89d2 f13d ee5c 153e 587b 953c 2360 a7bd
000000d0: de4e 153e c482 9a3d d692 a13c 93a7 cdbd
000000e0: bc52 a13d 01e7 22bc 96af ac3c 116a 1cbe
000000f0: ee61 a13d 23cf 993d 57d9 e93c 2c9c b6bd
00000100: 66b2 e7bd 0f0c 153e 3452 9ebc a2bc c13d
00000110: 313e b6bd 9443 99bd 8d2d 97bd 858f e43b
00000120: ade8 853d 12fb 23bd 1e5c aabd 23f7 9abd
00000130: 7d47 753d 2b8c 19bd 5083 50bd 4aa5 06bc
00000140: 3a20 363e 4c84 99bd f86e 5cbd 5817 5cbc
00000150: fecf 983b 88ef 563d 374e 893d 07f5 0d3d
00000160: 2af0 08bd fcac 36bd cbe2 c4bc 5f0a e73d
00000170: 2005 c6bc 80f1 b5bd b51d 2b3d 91ee cabb
00000180: 8209 043e bcc4 413e c385 17be 1ec6 1fbe
00000190: 4c92 bbbd 741a d4bd 5459 81bd 5603 fd3c
000001a0: a408 a9bd 6a41 0e3d d412 8ebd 58a0 57be
000001b0: 8791 d3bc 0e01 f2bd 5bbb 1e3e f940 9b3d
000001c0: b2fd 41bd cb48 1c3d a70b df3c bf8b c3bd
000001d0: 6637 3a3d c9e0 573d c33e 60bd 205c 113e
000001e0: 59f0 283e bdf5 06bd 5319 0c3e 4617 083e
000001f0: 73d2 c2bd 891c 313e 87bf 1e3d bd65 3dbc
00000200: 5613 30be bdc5 ad3d 0088 b73a 39e9 233e
00000210: a836 06be aa59 033c 4da6 1cbd 6543 e83d
00000220: 6ae0 26be a19c 023e ed30 4d3d 1f3b ecbd
00000230: 3b3a fbbc 9b88 13be 6315 8f3c 0ac9 03be
00000240: 8e02 39bc 36d7 e13d 924c 60bc 83ad 6abd
00000250: 72a4 e93d 1944 21bb a547 593d e8e8 e43d
00000260: 082b f9bb 83e2 653d 4f47 babc 1233 b53d
00000270: 214e f6bd 35a1 3e3c a157 343d c353 933c
00000280: f8a2 1fbd 52be 403d 8be4 1c3d 8b21 4bbc
00000290: 38e3 d23d 7477 3ebc 08a9 b73c 1e0a 43bd
000002a0: 32de 483d 7881 83bd c758 69bd 948d c23d
000002b0: d701 61bd 8ac6 bf3d 3f8f 01bd f478 debb
000002c0: 0e4c ba3d 0d5e 4fbd edfc b4bd 5857 e33c
000002d0: faa5 e23d e5fc bf3d 021a fe3d cf75 ebbd
000002e0: 0add 19bd 1672 b73c 2777 2b3d 6362 003d
000002f0: 2925 e03c 8f04 303d deb5 a5bd 9e49 c93c
00000300: b247 ec3d 359f 12be 58d2 8c3d 6fec d8bc
00000310: 92ba 4fbd 3905 39bd 0396 94bd 7a85 9cbd
00000320: 2ae3 163e 73a7 91bc f16e 893d 5fa2 9f3d
00000330: beaf 4cbd 93a5 533e 3ddb b83d dfdb b63c
00000340: c044 813d 393a f2bc 61b6 8a3d 4a49 e2bd
00000350: dbbb b83d a442 5fbd 1d91 cc3d da9c f03b
00000360: 4efe b23e dc63 b7bd 20fd b2bb ee03 f73e
00000370: b53d e4b7 7a73 253e 7565 21bc e4d9 29be
00000380: fa44 793d 20c7 283d a66a 71bd f932 82bd
00000390: 0005 fabd c03f c1bb bfce 0b3d 3c45 16bd
000003a0: f68b 8abd 5a89 2b3d 3009 ad3c ff7f 733d
000003b0: e7d1 16be 0520 c9bd 8f10 823d f341 ce3d
000003c0: 66d6 22bd 2b6b 6ebd 7e87 c73c 44e2 4a3d
000003d0: 589d a33a da9e ff3d c883 11bd 58a9 97bd
000003e0: d6f6 e53d 4ae0 16bd 441e e73d 2283 1fbe
000003f0: 7750 e03d cb6d 61bd 4f46 c43d 7a3f c5bd
-0.059415698 -0.06431735 0.10012858 0.082467996 0.01989392 -0.0650173 0.029855955 -0.022210835
-9.760404e-05 -0.15004227 -0.07934163 -0.018902402 -0.046345748 0.023265788 0.018565414 0.0043442203
0.12925585 -0.16236389 0.17520355 0.12103586 -0.09337386 0.011800068 0.107619174 0.0119595425
0.06212273 -0.06261428 0.117615856 0.11639264 -0.08043088 -0.037551608 0.039666522 0.11080755
-0.03258148 0.003907248 -0.064706646 -0.12480301 0.027004294 0.08558138 0.076128684 0.14562242
0.012064411 0.07134232 0.10066026 0.13057332 -0.13917822 0.02340558 0.13074832 0.07114114
0.118077345 0.14586231 0.018247291 -0.081726335 0.14580867 0.07544473 0.019723337 -0.10041728
0.078771085 -0.009942771 0.02107982 -0.15274836 0.07880007 0.07510211 0.028546019 -0.08916506
-0.11313324 0.14555381 -0.019326307 0.09459807 -0.08898581 -0.07483593 -0.07381735 0.0069751167
0.0653852 -0.04003436 -0.08318351 -0.07566669 0.05988263 -0.03748719 -0.05090648 -0.008218119
0.17785731 -0.07495937 -0.053816766 -0.0134333 0.0046634665 0.05247453 0.067043714 0.034657504
-0.033432163 -0.044598565 -0.024033925 0.11281275 -0.024172366 -0.08883953 0.041776378 -0.00619299
0.12894252 0.18922704 -0.1479712 -0.1560292 -0.09158763 -0.10356608 -0.06315866 0.03088538
-0.08253601 0.034730352 -0.06937185 -0.2105726 -0.025826229 -0.118166074 0.15501158 0.07580752
-0.047361083 0.03815536 0.027227236 -0.09548139 0.04546299 0.052704606 -0.054747354 0.14195299
0.16497935 -0.032949198 0.13681535 0.13290128 -0.09512796 0.17296042 0.038756873 -0.011559901
-0.17194876 0.08484981 0.0014002323 0.16006936 -0.13106787 0.008016983 -0.038244534 0.113409795
-0.16296545 0.12755062 0.050095487 -0.11534714 -0.030667415 -0.1440758 0.017466253 -0.12869659
-0.011292113 0.11027376 -0.013690131 -0.05729438 0.114083186 -0.002460724 0.05304684 0.11177236
-0.0076040067 0.05612422 -0.02273908 0.088476315 -0.12026621 0.011635114 0.044028882 0.017984277
-0.03897378 0.047056504 0.038303893 -0.012398134 0.10297245 -0.0116251595 0.022419468 -0.04761707
0.049040027 -0.064211786 -0.05696943 0.0949966 -0.054933395 0.0936404 -0.03163075 -0.006789321
0.090965375 -0.050626803 -0.08837304 0.02775161 0.11066814 0.09374408 0.12407304 -0.114970796
-0.037564315 0.022393268 0.04186168 0.03134383 0.02736147 0.042973097 -0.08091329 0.024571236
0.11537112 -0.14318545 0.068760574 -0.026479928 -0.050715037 -0.045170996 -0.07255175 -0.07642646
0.14735094 -0.017780041 0.067106135 0.07794642 -0.04997229 0.2066863 0.090261914 0.02232164
0.06311941 -0.029568778 0.06773067 -0.11049135 0.090202056 -0.054506913 0.09988616 0.007342917
0.34959644 -0.089545935 -0.0054623038 0.48245186 -2.7208453e-05 0.16157332 -0.009850849 -0.16587025
0.060856797 0.041205525 -0.0589396 -0.063573785 -0.12207985 -0.005897492 0.034132715 -0.03668712
-0.06764977 0.041879036 0.021122545 0.05944824 -0.14728509 -0.0982056 0.063508146 0.100711726
-0.039755248 -0.058207672 0.0243566 0.04953219 0.0012482805 0.124814704 -0.035526067 -0.07405347
0.11228721 -0.036834992 0.112850696 -0.15577367 0.109528475 -0.055036347 0.09583723 -0.09631248

fc1.bias f4 [256]
00000000: f3b8 d43a 5ef0 ed38 af8c 15bb 2886 4439
00000010: c83e e1bb a63d f5ba 7914 ccba 4a6e c2b9
00000020: b1b6 29bb e64a 2eb9 0988 ddba 7439 97ba
00000030: 930a 12bb 5a3f 91bb dab4 0a3b d20b c53a
00000040: db9d 38ba 1822 8c3a 794f 17ba fab1 48bb
00000050: 933f 033b 0cf1 ac3b 18d5 7f39 2c4f d33a
00000060: 6c74 8bb9 b445 85ba df03 48bb 649c 2dbb
00000070: a8d8 9139 94bc 27bb 10f0 d73a 9da1 b03b
00000080: 219d b5bb 305e 8239 2a95 a5bb 9df0 d9ba
00000090: 19e0 8ab9 67e5 ba3a bb3c 4439 b373 8f3b
000000a0: 81a6 f73a a4e8 8cba e6e6 1eb9 98dd 88b7
000000b0: 7018 463b 1a60 c43b cbca ea3b dbbf 003a
000000c0: 9300 2e3b f885 c13b 6efb 213b 6663 e4ba
000000d0: 3d03 59ba 5cc0 663a 53c4 24b9 c33d 88ba
000000e0: 120c 213b 0b86 0fba c45b df3a 2a04 66ba
000000f0: 2c4d 6c3a 4246 b4ba ca90 c0bb 8d25 f73a
00000100: 03b5 0d3b 9525 d2bb 3f77 8639 f9da 5639
00000110: 0ce6 493b 6d12 6e3a 30ef 16bb 9dd8 00bb
00000120: 6dfd 47bb ca27 b9bb ad6a c03a 8ed4 beba
00000130: bbc1 30bb 37f6 c9ba b1a9 a2bb bf8d 4037
00000140: 162b 9bb9 93fb 533b b132 17bb 69ee 23ba
00000150: e3ba fdb9 9d44 8e3b afd0 e7ba 9b23 7639
00000160: 6e2b 5bba 9059 823b 60b7 0f3b 467f beba
00000170: 4897 443b 79af e33a 7d49 7f39 a523 4939
00000180: 75a0 893a 544f 2fba bb88 d4b7 664c 92b9
00000190: c54a 48ba 09f6 7fbb b383 c7ba bc14 51ba
000001a0: a6fe 2eba 483d 1abb 78dc b039 9f04 473a
000001b0: 92d3 8b3b ab0e 8db9 85e4 2abb d793 65ba
000001c0: 1526 1a3b d925 803a 2e17 483b a0d9 b1bb
000001d0: 00ba 8eb9 41df e8ba 3d16 ce3a d68f f5ba
000001e0: dfc9 333b 28eb 8336 905a dcba bf76 253b
000001f0: 9aee 4939 99ce b0ba 3d98 3e3b 1960 05bb
00000200: b55b 323b b49b 96b9 3f6b 3ab9 5e37 01ba
00000210: 50f1 d3b8 9837 2d3b 0305 c13a 3dc3 333b
00000220: 4ab7 6b3a c461 2d3a 2df2 a0bb 4875 d4b9
00000230: 4665 1fbb b912 41b9 f888 1f3a 8352 d03a
00000240: 960c 6b3a d7ac 0ebb 36c4 273a bd70 8abb
00000250: cb65 1c3b c8e7 1ebb 4135 90bb 82ee a43b
00000260: 7fa7 083a 024e 533a 6509 c33a e56a e6b9
00000270: 5073 c2bb 5335 28bb d788 0fbc 6f6e 953a
00000280: b887 413b 573d 99ba fd9b a1bb c1cb 67ba
00000290: 43c7 0c3a eeb8 9b3a dc49 c1b9 ac57 1239
000002a0: d1f2 a03a acfa bf3a 28a6 2dbb 4afa 283b
000002b0: 09c8 e63a a07e 8cbb 01d3 8e3b 848c ca39
000002c0: ba13 e4b9 b401 483a ca4e 8e3b 781a bc3b
000002d0: 057d db3a 1b0e a0ba a5a0 543a f946 aab9
000002e0: 584f 7dba 0ad4 a53b e67d 1aba be35 c33b
000002f0: 1de1 933a 6ddd 933a 370e 12bb e684 95bb
00000300: 441b babb 4f47 863b 543e 08bb 87a1 2c3b
00000310: 4e03 a738 b4dd 65ba 374a 8c3a 58ff 3f3b
00000320: 0698 f4ba 5ce2 dd3b e7f7 463b 00d5 613b
00000330: 6e37 3aba 4dab 07bb dfc4 923b fc05 4ebb
00000340: 0081 a33a 1f9c 7d3b faf6 b63a cc4a 3aba
00000350: 96e3 b838 3503 163a b541 80bb d45f 743b
00000360: 0232 043b d881 5d3a 9d9b 693b f25c 5aba
00000370: 878e 963b e8d6 03bc 23d9 1fbb b9f8 233b
00000380: d388 313b c44b aaba 3e96 d239 c573 4cba
00000390: 4216 5db7 e5b5 993b ce96 09bb 4826 7a3b
000003a0: c1d3 94ba 307d b43a ec49 77bb 44cf f4b8
000003b0: 8fc9 b33a 7bd0 cb3a be02 c8ba 27e1 f0ba
000003c0: 0f8f 2c39 1fc6 de3a 7b8c be3a 72bd a33a
000003d0: cc96 3f3b a5c3 9f3a 2d5c 8539 8181 15bb
000003e0: 4dee b83a 1751 0d3a b870 52bb 54d6 5f3b
000003f0: 3d0e eeba dfa0 423b 6c7e a13a 15f3 bdba
0.0016229436 0.000113458125 -0.002281945 0.00018741994 -0.006873939 -0.0018710389 -0.0015570066 -0.00037084735
-0.0025896246 -0.00016621835 -0.0016901504 -0.0011537508 -0.0022284135 -0.004432601 0.0021164925 0.001503343
-0.0007042565 0.0010691313 -0.0005772035 -0.003062366 0.0020026907 0.0052777585 0.00024398079 0.0016121618
-0.00026598887 -0.0010167868 -0.0030519885 -0.002649092 0.00027817977 -0.002559458 0.0016474742 0.0053903596
-0.005542413 0.00024865707 -0.005053182 -0.0016627494 -0.00026488377 0.0014259041 0.0001871464 0.004377806
0.0018894227 -0.0010750485 -0.0001515407 -1.6315651e-05 0.0030226968 0.0059929015 0.007165288 0.0004911401
0.0026550635 0.005905863 0.0024716514 -0.0017424643 -0.00082783756 0.00088024675 -0.00015713395 -0.0010394383
0.0024573845 -0.0005474991 0.0017040898 -0.0008774424 0.0009014185 -0.0013753849 -0.005876635 0.0018855795
0.0021622784 -0.0064131715 0.00025647317 0.00020490204 0.0030807285 0.0009081725 -0.002303075 -0.0019660362
-0.0030516044 -0.005650495 0.0014680229 -0.0014559196 -0.002697094 -0.0015408461 -0.0049640764 1.1477095e-05
-0.00029596005 0.0032345995 -0.0023070986 -0.00062534824 -0.00048395162 0.0043416754 -0.0017686094 0.00023473652
-0.00083606585 0.003977962 0.0021929368 -0.001453378 0.0029997397 0.001737102 0.00024346072 0.00019182132
0.001050009 -0.0006687541 -2.533604e-05 -0.0002790421 -0.0007640536 -0.003905656 -0.0015221745 -0.0007975807
-0.0006675519 -0.0023535062 0.00033733598 0.0007591936 0.0042671645 -0.00026904544 -0.002607615 -0.00087576866
0.0023521234 0.0009776904 0.0030531394 -0.0054275542 -0.0002722293 -0.001776673 0.001572318 -0.0018734883
0.0027433557 3.93148e-06 -0.0016811658 0.002524778 0.0001925774 -0.0013489305 0.002908244 -0.0020351468
0.0027215306 -0.00028726237 -0.00017778295 -0.000492921 -0.00010106212 0.0026430842 0.0014726225 0.0027429604
0.0008991851 0.00066139945 -0.004911682 -0.00040523172 -0.0024321838 -0.00018412889 0.00060857786 0.0015893731
0.0008966414 -0.00217705 0.0006399782 -0.004224865 0.0023864384 -0.002424704 -0.0044008796 0.005033315
0.0005212947 0.00080606353 0.0014880119 -0.0004394866 -0.0059341565 -0.002566655 -0.0087606525 0.001140071
0.0029530358 -0.0011691254 -0.0049319253 -0.00088423124 0.00053702685 0.0011880675 -0.00036866858 0.00013956305
0.0012279396 0.001464685 -0.0026496742 0.002578395 0.0017607223 -0.004287556 0.0043586497 0.00038633135
-0.00043502246 0.00076296483 0.0043428885 0.00574046 0.0016745633 -0.0012211235 0.0008111096 -0.00032477806
-0.0009663007 0.0050606774 -0.0005893394 0.0059573343 0.0011282299 0.00112812 -0.0022286305 -0.004562962
-0.00567952 0.004097856 -0.0020789104 0.0026341395 7.963796e-05 -0.0008768693 0.001070327 0.0029296484
-0.0018661029 0.006771369 0.0030360164 0.0034459233 -0.00071035966 -0.0020701468 0.0044790353 -0.0031436672
0.0012474358 0.0038697792 0.0013959103 -0.00071064825 8.816195e-05 0.0005722524 -0.003914083 0.0037288563
0.0020171409 0.0008449829 0.0035645731 -0.000832989 0.0045946273 -0.008046843 -0.0024390898 0.0025020076
0.002708961 -0.0012992551 0.0004016626 -0.00077992334 -1.3177809e-05 0.004690873 -0.0020994428 0.003816979
-0.0011354611 0.0013770219 -0.003773327 -0.00011673433 0.0013716685 0.0015549803 -0.0015259606 -0.0018377648
0.00016456492 0.00169963 0.0014537716 0.0012492372 0.002923417 0.0012189044 0.00025436413 -0.0022812786
0.0014109105 0.00053908065 -0.0032110643 0.003415485 -0.0018162202 0.0029697937 0.0012321002 -0.0014492

bn1.weight f4 [256]
00000000: 512a 783f 748c 993f 7d90 8e3f ca7b 8d3f
00000010: 0968 a03f 3239 5a3f 5ce1 593f 9e43 563f
00000020: 4cc7 623f 080e 493f c58d 823f 44f5 933f
00000030: 1b2b 663f 9993 783f c63e 703f 775d 873f
00000040: 1660 403f fe75 603f e7b5 4e3f 39ea 6a3f
00000050: 7655 4f3f b45a 7e3f 95a5 573f bb78 7e3f
00000060: 67d9 803f 0e2e 7d3f 482b 733f 979a 773f
00000070: 0466 933f bd66 823f 28d2 8e3f 3908 8d3f
00000080: 5fb6 843f 5ac9 8f3f 3a15 6c3f e378 873f
00000090: c13a 8d3f 7a58 3f3f 8139 533f 66f3 7e3f
000000a0: cf1c 763f 27b8 7e3f b346 403f d92d 503f
000000b0: f737 473f 8e3a 803f 8687 9c3f fcaa 733f
000000c0: 857e 8a3f 6816 8b3f d842 563f dc44 883f
000000d0: c3b0 893f 6b86 623f 1f70 9c3f a572 843f
000000e0: 504d 5c3f 746c 833f ead4 4f3f ec64 863f
000000f0: 290c 753f c738 983f f903 653f 8038 7e3f
00000100: cd76 643f c821 973f fb80 623f 1b2c 653f
00000110: 57e8 7d3f 01e9 653f 7273 7e3f 2871 6d3f
00000120: 2c2a 3d3f 9830 893f e37e 6a3f 56b6 423f
00000130: b2ba 873f 8556 813f 5204 8c3f 19d2 7e3f
00000140: 8a32 673f 4237 6e3f 8dd9 633f c70b 6d3f
00000150: 21bf 823f 95c0 873f a2ab 6f3f 0ea5 803f
00000160: 25cd 653f 3481 873f b72a 7c3f 3b7b 9a3f
00000170: 1077 763f 98d3 403f 8b79 583f 3455 633f
00000180: 0ae3 873f aaa5 5d3f 2cef 8a3f 4e3a 6d3f
00000190: f22c 803f fcf2 803f a7b4 453f 41c9 6c3f
000001a0: 567f 823f a33e 933f 87ae 463f cdeb 653f
000001b0: 73de 893f e651 623f feb5 643f d2be 843f
000001c0: 41ad 7f3f 1d5c 683f 0bed 8f3f 40ce 823f
000001d0: 9f97 4d3f 6fab 7b3f 8c6d 7a3f 00bf 803f
000001e0: 1ce5 873f be6c 473f d830 8a3f 1fb3 863f
000001f0: 6038 913f 0ea2 823f e8bf 8b3f 73af 483f
00000200: 63ed 863f a0a8 683f 3b65 783f 8fca 6e3f
00000210: 938d 4f3f 1606 893f 182a 5b3f d888 663f
00000220: 048a 3b3f 46dd 8d3f e8aa 833f 75ef 853f
00000230: 0286 7b3f de4e 763f bc13 853f edbb 8b3f
00000240: 8295 613f 584d 873f f1f6 903f 66e5 8e3f
00000250: a283 823f 150b 713f 25fe 503f ad19 8e3f
00000260: 0fe2 7a3f 412c 6f3f 02b8 873f b930 553f
00000270: 9fd3 573f a076 883f 2c58 9b3f a32b 713f
00000280: 442c 6e3f 30c2 4e3f c7a7 8d3f 40f7 4b3f
00000290: dc26 743f 758c 743f 43ba 7f3f 8d32 8c3f
000002a0: 31a1 6a3f 3e37 313f cf0e 843f 528b 7a3f
000002b0: a1d1 663f 7fa4 843f 19da 6b3f 2e37 8c3f
000002c0: ff8d 753f 128b 6b3f 528c 873f 9fff 8a3f
000002d0: 834d 7f3f 7db5 803f e619 7b3f 26e6 8b3f
000002e0: fe5a 863f ca52 8e3f 31ea 923f ab71 763f
000002f0: 568d 763f 1a4b 8c3f 0a7f 863f 710b 833f
00000300: 1adf 7e3f 3178 7a3f 5f62 6d3f 21d3 703f
00000310: 9410 773f f0b1 843f 585d 6e3f 9a2d 923f
00000320: ff4e 813f d20c 903f dff8 743f 8b72 6e3f
00000330: a48c 703f c2e2 373f e73b 763f f0da 3d3f
00000340: 6aba 7c3f a02b 5b3f 06b7 7f3f e5bc 383f
00000350: 9e97 6d3f 6a81 4c3f 0ba3 873f 8ae9 8a3f
00000360: c5bb 853f 1b1b 8d3f 1b8c 823f 3989 843f
00000370: cafc 8c3f 6f64 823f 2366 8d3f f9ff 783f
00000380: fd53 8c3f 46cc 4d3f 830b 633f e52b 733f
00000390: 0431 4f3f c962 863f d2a7 6e3f 8a0e 973f
000003a0: eca3 5f3f ed2a 773f d23a 6c3f 7422 7c3f
000003b0: 0e46 543f b9e2 693f f554 673f f2bb 7c3f
000003c0: 5fc6 5a3f 8a7f 7f3f 9aa1 7d3f e5e5 603f
000003d0: b354 8b3f 9e4d 803f b39c 873f 7ee5 703f
000003e0: 29a0 463f e412 3c3f 4bd9 573f b155 443f
000003f0: 13f0 773f 1a6f 7c3f 39c4 7d3f 1920 443f
0.9693957 1.1995988 1.1137844 1.1053402 1.2531749 0.85243523 0.85109496 0.83696926
0.8858535 0.78537035 1.0199515 1.1559224 0.89909524 0.97100216 0.93845785 1.0575398
0.75146616 0.8768004 0.8074631 0.91763645 0.8098978 0.9935715 0.84237033 0.9940297
1.0066346 0.988984 0.94987917 0.9672026 1.1515508 1.0187603 1.1157885 1.1018134
1.0368155 1.1233323 0.9221989 1.0583767 1.1033555 0.7474438 0.8250962 0.99590147
0.9613771 0.99499744 0.7510788 0.8131996 0.7781977 1.001787 1.2228858 0.95182776
1.0819861 1.0866213 0.83695745 1.0646014 1.0757068 0.88486356 1.2221717 1.0347487
0.8605547 1.0267472 0.81184256 1.0499549 0.9572168 1.1892327 0.89459187 0.9930496
0.89243776 1.1807184 0.8847806 0.89520425 0.9918265 0.8980866 0.99394906 0.9275079
0.73892474 1.0717955 0.91599864 0.7605947 1.060385 1.0104529 1.0938818 0.99539334
0.9031149 0.93053067 0.8900383 0.92596096 1.0214578 1.0605646 0.93621266 1.0050371
0.8976615 1.0586305 0.9850268 1.2068857 0.96275425 0.75322866 0.8456046 0.88801885
1.0616162 0.8658091 1.085424 0.9266709 1.0013716 1.0074153 0.7722878 0.9249459
1.019511 1.150349 0.7761006 0.8981293 1.0771011 0.8840622 0.893402 1.0370734
0.9987374 0.90765554 1.1244215 1.0219193 0.8030948 0.9830846 0.97823405 1.0058289
1.0616794 0.779003 1.0796156 1.0523413 1.1345329 1.0205705 1.091794 0.78392714
1.0541195 0.908823 0.97029465 0.9327783 0.810754 1.0704982 0.85611105 0.90052557
0.7325747 1.1083152 1.0286531 1.0463701 0.98251355 0.9621409 1.0396647 1.0916725
0.88118756 1.0570478 1.132536 1.1163757 1.0196421 0.94157535 0.81637794 1.1101586
0.9800119 0.934269 1.060303 0.8327747 0.84307283 1.0661201 1.2136283 0.9420721
0.93036294 0.80765057 1.1066827 0.7967415 0.95371795 0.9552682 0.9989359 1.0952927
0.9165221 0.6922492 1.0317019 0.97868836 0.9016362 1.03627 0.92129666 1.095434
0.95919794 0.9200908 1.0589697 1.0859259 0.9972765 1.0055386 0.9808639 1.0929611
1.0496519 1.1119015 1.147772 0.96267194 0.9630941 1.0960419 1.0507519 1.0237867
0.99559176 0.9783965 0.9272823 0.9407216 0.9650967 1.0366802 0.9311118 1.1420166
1.0102233 1.1253912 0.9569225 0.9314353 0.939646 0.7183038 0.96185154 0.741622
0.98721945 0.8561344 0.99888647 0.7216323 0.92809474 0.7988497 1.0596632 1.085252
1.0447928 1.1023897 1.0199007 1.0354377 1.1014645 1.01869 1.1046795 0.97265583
1.0963131 0.8038982 0.8868944 0.9498885 0.80934167 1.0498897 0.93224823 1.1801312
0.873595 0.96549875 0.9227725 0.9849007 0.82919395 0.91361576 0.9036401 0.9872428
0.8545894 0.99803984 0.9907471 0.8785079 1.0885223 1.0023687 1.0594696 0.9410018
0.77588135 0.73466325 0.8431594 0.76693255 0.968507 0.9860703 0.99127537 0.7661148

bn1.bias f4 [256]
00000000: 939b 68be 65f2 6ebd 92e7 47be eef4 46be
00000010: 81b4 bbbd b89a 5fbe a3b8 18be 2ce2 05be
00000020: 650d 8fbe 11e4 71be d6c6 79be 0c4e f2bd
00000030: 9b77 42be 1c9d 27be c73b 52be 4bb5 54be
00000040: 3b51 90be ed60 40be 98c6 60be 2a8a 57be
00000050: 19fa 2dbe f619 35be 0d6a cabd 95a9 88be
00000060: 705f 72be e817 a8be eb8e 42be 1abe 23be
00000070: a1d8 0b3d 6fbb 89be 2cb1 05be 84d3 66be
00000080: d084 44be eadc 77be d83f 70be 62cd 32bd
00000090: a5c2 0abe 8ef3 84be e276 52be 547a 74be
000000a0: 4bd1 dfbd 3024 82be 2755 8ebe 5842 65be
000000b0: 3648 3abe 1f80 63be 3db9 fabd dd80 26be
000000c0: 51ad 19be d9bb 35be 3449 2fbe 5b0a 49be
000000d0: fc47 1abe 5940 3bbe aa49 01be 60ef 61be
000000e0: d5d3 24be ee2c 70be 7188 99be e69a 8abe
000000f0: 4081 2cbe b34f 99bd 9e34 35be 8385 70be
00000100: 47fe 84be e70b 49be 89b6 b5bd f3f8 1ebe
00000110: b2d2 7fbe e07e 11be ed1b 9bbe 13e6 92be
00000120: 3b3c 60be c4d6 bbbd 6e7a c9bd ffd8 71be
00000130: b26f cbbd ea90 40be 1f47 28be d7d4 5fbe
00000140: 9b65 42be b90b 9dbe f3db fdbd db11 82be
00000150: 05af 4cbe ef82 26be bf9c 9abe c0d6 57be
00000160: 31d0 39be b45f 73be 9b49 48be 9f66 40be
00000170: f450 48be 1a64 73be 29f0 00be 277e 69be
00000180: 7679 9bbe 8168 57be 1bf0 6ebe b1d1 67be
00000190: 0e90 92be f77c 85be 650e 5cbe 6f82 40be
000001a0: 9002 d9bd 2c5f 09be 278b 74be 22b8 8abe
000001b0: c9d7 0fbe e860 4abe f54e 16be 20a9 19be
000001c0: 22a2 b2be c999 62be 69b5 d9bd 7b67 32be
000001d0: e8c3 6fbe 98df 3abe b331 9bbe 3d6e 88be
000001e0: ce06 58be c64e 90be ea63 4cbe f6f8 6bbe
000001f0: 78af 3ebe 620a 6bbe 22e2 60be 5123 40be
00000200: 376a 57be 9021 37be ec11 5ebe 2c73 58be
00000210: 8fa9 92be 5e48 96bc 406d 65be ece6 4cbe
00000220: 0a85 7dbe 2d05 93be 4254 9abe 8d53 56be
00000230: 1a6d 61be 4712 87be 657e 75be c70c 59be
00000240: 604b 47be 6ce2 4dbe 06cf 1abe bac8 77bd
00000250: 7fbe 5abe 3401 98be 58c8 38be 4d8c 5bbe
00000260: a065 e0bd df73 7fbe 9d19 64be e5e2 55be
00000270: 6f3d 4abe b483 53be 7176 2abe c067 a3be
00000280: 5afc 89be 5533 7ebe 415e 8cbe fac3 58be
00000290: 5f99 8bbe 40ed 38be a5d8 dcbd d0f1 39be
000002a0: 0173 4dbe f2df 9fbe 22e5 4fbe 226d 67be
000002b0: 28da 34be b21d e3bd 531b 0fbe 52dc 1bbe
000002c0: 0338 b9bd 3601 91be e7a3 89be eb9a d4bd
000002d0: f2b8 73be 6e8c 9bbd c6bb 5cbe c7d0 16be
000002e0: 1d2b cebd 29c1 8ebd c44f 31be 93e5 46be
000002f0: 840e 5fbe 30b3 a2be f2cc 73be 1cd5 3ebe
00000300: 3c0d 68be e3bf 12be bfce 57be ca6d 34be
00000310: 1996 3fbe faa8 2bbe 8bb6 19be 2d56 42be
00000320: 3a49 99be 16bf aebd 5cda 0ebe d1d8 44be
00000330: d8ab 1dbe bd08 81be ab2f a9be 92f3 67be
00000340: 4cc7 32be 2618 21be b525 a4be 994c 5fbe
00000350: f918 0abe 6c7d 72be bfda c0bb 1ca8 24be
00000360: cac0 64be 3866 1abe e353 0ebe 1fa8 03be
00000370: 64fb 10be 5bed 0fbe 7c36 7cbe 3f6d 92be
00000380: cd2c 52be 5710 78be 3423 56be 8447 58be
00000390: 32c6 23be 8260 42be 85ca 07be 1b9c fbbd
000003a0: 421d 2dbe 0ab3 81be 9f2f b3bd ce5d 08be
000003b0: 2f7e 28be 3719 2dbe 3560 1fbe 0e1c 53be
000003c0: d1d3 37be ba0c 75be 3b5b 4dbe 4cc8 48be
000003d0: d798 6bbe cb6f 35be a08b 9cbe 4e2d 40be
000003e0: 378d 68be 4929 65be f624 8abe 2053 9ebe
000003f0: e76f 43be dd0d 5cbe a66e 8fbe 27e2 3fbe
-0.22715597 -0.058336634 -0.19521931 -0.19429371 -0.09165288 -0.21836364 -0.14914183 -0.13074559
-0.27939907 -0.23622157 -0.24392256 -0.118312925 -0.18990938 -0.16368526 -0.20530616 -0.20772283
-0.28186974 -0.18786974 -0.21950758 -0.21048799 -0.16989936 -0.17685685 -0.09883509 -0.2669188
-0.23669219 -0.3283074 -0.18999831 -0.15990487 0.03414214 -0.26900813 -0.13055867 -0.22541624
-0.19191289 -0.24205366 -0.23461854 -0.0436529 -0.13550813 -0.25967067 -0.20553163 -0.2387479
-0.10928591 -0.25418234 -0.2779934 -0.2238859 -0.18191609 -0.22216843 -0.12242363 -0.16260095
-0.15007521 -0.1774744 -0.17117769 -0.19632857 -0.15066522 -0.18286265 -0.12625757 -0.2206397
-0.16096433 -0.2345464 -0.2998691 -0.27071303 -0.1684618 -0.074859045 -0.17695853 -0.2348843
-0.25975248 -0.19633447 -0.088727064 -0.15524654 -0.24982718 -0.14208555 -0.30294743 -0.28691158
-0.21897976 -0.09171823 -0.09837805 -0.23617934 -0.099334136 -0.1880528 -0.1643338 -0.21858536
-0.18984072 -0.30673006 -0.123954676 -0.25404248 -0.1998864 -0.16260885 -0.30197713 -0.21078014
-0.18145825 -0.23766977 -0.19559328 -0.18789147 -0.19562131 -0.23768654 -0.12591614 -0.2280203
-0.30366105 -0.21035959 -0.2333378 -0.22638585 -0.2862553 -0.26071903 -0.21489866 -0.18799756
-0.10596192 -0.13415211 -0.23881207 -0.27093607 -0.14047159 -0.1976353 -0.14678557 -0.15005922
-0.34889323 -0.22128977 -0.10630304 -0.17422287 -0.23414576 -0.18249357 -0.30311355 -0.26646605
-0.21096346 -0.281851 -0.19959989 -0.2304419 -0.18621624 -0.2295318 -0.21961263 -0.18763472
-0.21036611 -0.17883897 -0.21686524 -0.21137685 -0.28644988 -0.018345054 -0.22404957 -0.20009965
-0.24757782 -0.28714886 -0.3014241 -0.2093031 -0.22014275 -0.26381132 -0.23973997 -0.2119628
-0.19462347 -0.20105904 -0.15118036 -0.060494162 -0.21361731 -0.29688418 -0.18045175 -0.21440239
-0.109568834 -0.24946545 -0.22275396 -0.20887335 -0.19749998 -0.2065571 -0.16646744 -0.31915092
-0.2695034 -0.24824269 -0.2741566 -0.21168509 -0.2726545 -0.18059254 -0.10783509 -0.1815865
-0.20063402 -0.31225544 -0.20302251 -0.22600225 -0.17661345 -0.11089648 -0.13975267 -0.15220764
-0.090438865 -0.28321236 -0.2688286 -0.10381111 -0.2380102 -0.07595144 -0.21556005 -0.1472808
-0.10066817 -0.06970436 -0.17315584 -0.19423513 -0.21782881 -0.31777334 -0.23808649 -0.18635982
-0.22661299 -0.14331011 -0.21074961 -0.17620006 -0.18709601 -0.16763678 -0.15011041 -0.18978186
-0.2993868 -0.085325405 -0.13950485 -0.19223334 -0.15397584 -0.2520198 -0.3304418 -0.22651508
-0.17458838 -0.15731868 -0.32060018 -0.21806563 -0.13486089 -0.23680657 -0.0058854516 -0.16079754
-0.22339168 -0.15078056 -0.13899188 -0.12857102 -0.14158398 -0.14055388 -0.24630159 -0.28598973
-0.20524903 -0.24224983 -0.20911866 -0.21121031 -0.15993574 -0.18982127 -0.13260849 -0.12285634
-0.16905692 -0.25331908 -0.087493174 -0.13317034 -0.16454385 -0.1690415 -0.15564044 -0.20616171
-0.17951895 -0.23930636 -0.20054333 -0.19607657 -0.23007523 -0.17718427 -0.30575275 -0.18767282
-0.22710119 -0.2237903 -0.26981324 -0.30922794 -0.19085656 -0.21489663 -0.28014106 -0.18738614

bn1.running_mean f4 [256]
00000000: 2e7b 003d d7fc be3b 8b7f 273c fd47 f6b9
00000010: 7c90 813b 3713 41bc 63c9 c63a 3ad3 383b
00000020: a8a9 32bb 9452 6abc 85ea c03b a7b7 343c
00000030: 00c3 2aba 54bd 36bb 0b44 aebb 04e3 963c
00000040: 4ccd b73a a388 dcba ab97 51bc 36ff 2bbc
00000050: b10d a43b 30dd 2f3c 66b1 443c 8d78 9eba
00000060: 0dcf ce3b cbec d63c 1391 c93c 0fe5 9f3c
00000070: f11a 8b38 6136 5d3a 0d93 7fb8 c5e6 a93c
00000080: 4547 3bb8 be3c b33c 1247 81ba 77dd 06ba
00000090: 1018 943b 5b8e 37bc f95c 0dbc 7cfd ba3c
000000a0: a60d 38bb 2e3c 873c 982c 21bc 5eb0 163c
000000b0: b665 33bc 48e9 03bb 5b84 193c 4f55 f53c
000000c0: 919c 8a3b 9f70 833c c3c7 173c a8bb 823c
000000d0: 6b97 0a3c bbc6 503b 433b 613b 0fce 923b
000000e0: 4684 943c 1049 013a a84f 4abc 242d ea36
000000f0: 0bac 263c e91d 64bb 801c a93c b88d cb3a
00000100: 57b1 3b3c 3341 09bb 291d c53b 0554 e53b
00000110: 5a78 83bb 16d2 be3b be2a a13c 8002 0bbb
00000120: 0dd3 dd3a 489d b9b9 6464 04bb f7e2 583c
00000130: bca3 e4bb 6e39 c13c 8b33 a6bb c4b3 56ba
00000140: 4e8d 62bc 3782 ea3c 919e 403c 839c b83c
00000150: 1c06 343b 5c8c 193c 95e1 9dbc 3c62 a93b
00000160: 1a02 5bbb dd33 6f3c 7944 e83b 8bbb ca3b
00000170: 272e 863b 74d6 95b9 9b98 dcba c54d 943b
00000180: 8726 3b3c 8d8d 933b 41fc 02bc 18da c0bb
00000190: eb1f 10ba 1c87 5dbb 2b79 0b3c e539 043d
000001a0: 7ded 0e3b 7c8a 9bbb 4cf7 69bb b671 943b
000001b0: f85e 823b 917c 5a3c b368 da3b b994 2ebb
000001c0: e0c5 59bc 57a4 ee3c 8f72 b93c 8479 323b
000001d0: 4214 0ebd 351d d23b 5f11 7f3b 6c4b ac3c
000001e0: 4c5f 8e3c 6062 cdbb 084d 97bb 7b3d 52bb
000001f0: 9985 86bb 3938 2f3c 1508 0c3c 0b7b 08bc
00000200: 6191 a63b 43e1 523c 2dcd 3b3b e728 6e3c
00000210: e4e3 b23b 7e58 083b 43a3 ab3b 6158 113c
00000220: eb05 b1bc 7708 2d3c de49 e2ba 90da 9d3b
00000230: fb5f 1cbc a7b6 543c 91ac 583b 3c4c b4b9
00000240: a995 1c3c 2a2b c83a f4ab bbb9 e953 8c3a
00000250: b5f8 fc3c 3b62 c4bb 8dd4 b43b d420 c639
00000260: 331d 54bc bb46 cdbb 2da7 bc3c ba2d 5f3c
00000270: dfde 67bb fdd6 6cbb 1b19 2abc f91b 633c
00000280: de61 dc3b a6da d23b 0a5c 27bb 5fa4 96bb
00000290: 9804 cb3c 097e c73b 4e4c 45bb 40a9 3b3a
000002a0: d048 833c 876a f9ba 7051 503c cb15 e43b
000002b0: e877 1a3b 5920 a73a 4201 2c3c fa28 1bba
000002c0: 1541 553c 25ca f1bb 5018 243a 9e1a 4e3c
000002d0: e011 c2b9 9d74 f1ba 5e2c 193c 337c be3b
000002e0: cb1d c5bb aea9 cb3b 3a34 6d3b aafd 413c
000002f0: 7d18 113c eb9c ee3c b0b5 ba3c 9c0d c5bb
00000300: 83d5 6bbb 0e90 a13c a226 243c a3a5 2bbc
00000310: 33f4 5e3c ceba 0f3a edfc c2ba 3086 2f3b
00000320: e1df 7e3c c3f9 193b 1b3e 61bc e2fb 163b
00000330: 52a0 5b3c 375c 98bc 9e5b 543c e650 6dbc
00000340: b57a b7b8 9c72 973c 44cd fcbb 8b64 cbba
00000350: d4b5 723b ebed 9f3b 7543 453b 6747 e43b
00000360: c5c8 903c 0057 963c d3cb 7738 a7bc 263c
00000370: 122c 8e3b fd97 363b 8bb1 afbb 5aec 203d
00000380: 95cb 463c 099d 4cbc c10c 1c3c 8589 83bc
00000390: 8287 b7bb 868e 6c3c e5ad d03c ea70 6a3c
000003a0: b769 12bc dd67 9c3c 8917 8f3b 9a93 063b
000003b0: 08b3 273d 1bdb 82ba 07f9 863b 8d40 d23c
000003c0: b25e 25bc 4a71 68bb 9484 973a b376 b43b
000003d0: 6b9a 4a3c d658 723c ff01 bf3b e982 aab9
000003e0: 98f7 05bc f937 29bc 0244 d8bc 3e10 c8ba
000003f0: 2557 2c3c 5ac7 51bb 4729 46bc 438a ff3b
0.031367473 0.0058284807 0.01022328 -0.00046974412 0.0039539915 -0.011784366 0.0015166219 0.0028202073
-0.0027261768 -0.014301915 0.005887332 0.011030114 -0.00065140426 -0.0027883844 -0.00531817 0.018418796
0.0014022975 -0.0016825389 -0.012792508 -0.010497859 0.005006515 0.010733888 0.012005186 -0.001209037
0.0063113035 0.026235959 0.02460531 0.019518403 6.633055e-05 0.0008438584 -6.093369e-05 0.020739922
-4.465065e-05 0.02187955 -0.00098631 -0.0005144695 0.00451947 -0.011203374 -0.008628123 0.022825949
-0.0028084307 0.016508188 -0.009837292 0.009197323 -0.010949543 -0.002012806 0.009369935 0.029947905
0.00423009 0.016044913 0.0092639355 0.015958622 0.008458952 0.0031856734 0.0034367598 0.0044801305
0.01812948 0.00049318466 -0.012348093 6.9789985e-06 0.010172854 -0.0034807867 0.020643473 0.0015529906
0.011455855 -0.0020943403 0.006015439 0.0069985413 -0.0040121498 0.005823384 0.019673701 -0.0021211207
0.001692386 -0.00035403133 -0.002020144 0.013237706 -0.0069775265 0.023586955 -0.0050720624 -0.00081902393
-0.013827635 0.028626544 0.011756555 0.022535568 0.0027469462 0.009371843 -0.019272605 0.005169181
-0.0033418 0.0145997675 0.0070882407 0.0061869076 0.0040948573 -0.00028579275 -0.0016830148 0.0045258724
0.01142276 0.004502958 -0.007994712 -0.005885374 -0.000549792 -0.0033802455 0.008512775 0.032281775
0.0021809035 -0.0047467332 -0.003570038 0.004530157 0.0039786063 0.013335363 0.006665313 -0.0026638939
-0.013291806 0.029131098 0.022637634 0.0027233073 -0.034687288 0.006412173 0.0038920266 0.021032058
0.017379425 -0.0062678307 -0.004617337 -0.0032080102 -0.0041052816 0.010694557 0.008546849 -0.008330117
0.0050832485 0.012871089 0.002865623 0.014536119 0.0054592956 0.0020804699 0.005237968 0.008871169
-0.021609267 0.0105611 -0.0017264446 0.0048173144 -0.009544368 0.012983001 0.0033061842 -0.00034389074
0.009557166 0.0015271653 -0.00035795534 0.001070616 0.030880312 -0.0059931553 0.005518502 0.00037789962
-0.012946415 -0.0062645352 0.023028934 0.013621742 -0.0035380644 -0.0036138885 -0.010381962 0.01386165
0.006725534 0.0064347563 -0.0025537037 -0.0045972313 0.024782464 0.0060880226 -0.0030105296 0.0007158704
0.01602593 -0.001902894 0.012714729 0.0069606057 0.0023570005 0.0012750729 0.010498347 -0.0005918887
0.013016005 -0.007378834 0.00062597264 0.012579588 -0.0003701588 -0.0018421594 0.009348957 0.0058131455
-0.0060155145 0.0062152958 0.003619446 0.011840263 0.008855936 0.029127559 0.022791713 -0.0060135853
-0.0035985417 0.019722011 0.010018976 -0.010476503 0.013608026 0.0005482853 -0.0014876403 0.0026782863
0.015556307 0.0023494817 -0.013747717 0.0023038317 0.013404923 -0.018598659 0.012961296 -0.01448462
-8.748976e-05 0.018487267 -0.0077148993 -0.0015517635 0.0037034648 0.004880657 0.0030100022 0.0069665196
0.01767386 0.018352032 5.9079215e-05 0.010176814 0.0043387497 0.0027861588 -0.005361741 0.039287902
0.012133499 -0.012488612 0.009524525 -0.016056785 -0.0056008706 0.014438277 0.025473544 0.014309147
-0.008936337 0.019092495 0.0043668193 0.0020534755 0.040942222 -0.0009983511 0.004119042 0.025665546
-0.010093378 -0.0035467916 0.0011559897 0.005507314 0.012365918 0.014791688 0.0058290954 -0.00032522462
-0.008176707 -0.010328286 -0.026399616 -0.001526363 0.010518824 -0.0032009692 -0.012094802 0.0077984645

bn1.running_var f4 [256]
00000000: 1125 0b40 b8a5 233f dd9a b43f 3d17 4d3f
00000010: a3f0 5d3f 03d1 de3f 5bad b53f cf03 1440
00000020: 2e6f 923f 0f96 4d3f e40d 373f c985 613f
00000030: 090a 8d3f d101 4e3f 2e7c c33f ed52 793f
00000040: e683 1940 eafb 7d3f 68ac 733f c903 b43f
00000050: a796 8f3f 08bb 1a3f ec5a 4440 a669 133f
00000060: 596d b83f 76a6 1740 737f da3f 042b 623f
00000070: a730 3d3f 65ab 1b3f cd2a 313f 352e 2d3f
00000080: 711e 1d3f c799 cd3f 765f ee3f b8a9 723f
00000090: daa3 513f 159a 0f40 5a0a 6a3f 4219 c03f
000000a0: 28ad b43f dc19 ea3f 1f55 3040 e983 d33f
000000b0: 0e09 9040 c148 6a3f ca68 2e3f 757d 3740
000000c0: 3717 9f3f 7f47 3b3f 25af 253f 45ac ee3f
000000d0: ca6b 4f3f 7818 893f df9a 853f 7612 9e3f
000000e0: 2d00 cc3f 3602 143f cb91 9a3f 2477 273f
000000f0: 46d5 123f ae90 433f 4c96 e23f 85f2 f73e
00000100: 0d27 1a3f a396 883f 45a9 b73f 819d de3f
00000110: 5812 3c3f 2e46 8840 4aa2 f53f 412a 103f
00000120: bdb9 4f40 700c 243f b949 8a3f 95f2 2f40
00000130: ce17 013f f15f 903f 877d 7b3f ff49 6b3f
00000140: 79cf f23f ac40 1940 361a 5240 5aaa 0240
00000150: 62ce 233f 6f4b f43e 055a 863f 5e5c ba3f
00000160: b6a7 4a3f e6b5 113f bad4 7a3f 7da2 193f
00000170: d106 4d3f 8829 0640 6096 1b40 1d00 9c3f
00000180: 6b72 ca3f efc5 5b3f bbcf b73f b81c 163f
00000190: 0264 863f 51ad 583f 543c a93f f238 6940
000001a0: 878c c93f 56fa bc3f 83d9 0540 ca2d ce3f
000001b0: e0c6 3b3f 96c3 4d3f bac7 9d3f 6f26 a43f
000001c0: 7710 a43f 1836 3a40 ce19 533f 1add 0a3f
000001d0: e95b e03f a3bd 843f 6f66 8d3f d779 d03f
000001e0: a761 973f 791a 2b40 997a 1d3f 8429 163f
000001f0: 6911 513f 5cf3 0640 5997 953f 8991 a13f
00000200: fa52 7b3f ddb6 803f 6dc7 9d3f dbab 1c40
00000210: b672 893f 82b2 393f 20de 8a3f 839d c23f
00000220: 715a a540 85ce bf3f 0173 843f c53a 913f
00000230: 908e 8a3f 8466 863f bd4a 5e3f 79ef ad3f
00000240: 28df 823f 5928 883f b011 413f 83e1 233f
00000250: a46c d73f b56c 553f ad37 e53f 6cac 373f
00000260: e198 b23f cfd8 8d3f b73e c83f ef5e db3f
00000270: 4ab2 783f 9da2 123f b8bb 823f e22d 5d3f
00000280: 547b 193f f039 393f 91dd 503f 4803 2540
00000290: 02ee ea3f c6bd 7e3f bb7a d83f 3b70 0d40
000002a0: 63fa 1a40 6128 1b40 3a64 7e3f 607a 2c3f
000002b0: f531 093f fa74 833f 59d2 5a3f ab41 2e3f
000002c0: 9b1b a23f 5eea 063f 050a 183f 1aad 293f
000002d0: 20e0 8c3f 6cb9 513f 7b68 363f bd4c 933f
000002e0: 66c6 963f 3288 1b3f 0d30 393f 3851 1d3f
000002f0: feb6 c13f 7999 1940 bbe3 2f40 fda1 3c3f
00000300: fc98 3c3f a07a d83f d337 cf3f 578c b03f
00000310: 1099 a33f f3a7 813f 9692 3e3f a568 533f
00000320: 7343 e03f 5630 2f3f 9c56 0240 1233 7f3f
00000330: 18f9 6d3f 3290 953f 7d80 453f 8468 e83f
00000340: 0601 0f3f 9599 773f b711 513f 2916 2b40
00000350: b583 e73f 508a ed3f 1d54 a33f 297f 1f3f
00000360: 12cc ae3f b276 913f dbba 883f d3e4 243f
00000370: edd3 663f f2a8 133f 629b 783f 4015 2b40
00000380: cfeb bb3f be8f a63f 9ff2 853f c827 0440
00000390: 5236 993f f456 623f 36af 2940 a5f3 243f
000003a0: 1d22 5f3f 763a 2840 efd1 0940 f622 2340
000003b0: 1f8e b440 526f 0e40 ed01 613f 5079 5c40
000003c0: 3797 563f dcc2 b93f 8a56 813f 6283 153f
000003d0: 3a2d 973f b966 aa3f a395 293f 1f9f 263f
000003e0: 3364 9940 a28c 3240 fa53 6c3f 6093 d93f
000003f0: 50c6 533f 7c5d 1e3f 3715 5f3f e856 f73f
2.1741374 0.6392474 1.410976 0.80113584 0.8669531 1.7407535 1.4193529 2.3127325
1.1440179 0.80307096 0.7150557 0.88094765 1.1018687 0.8047152 1.5272272 0.9739216
2.3986754 0.99212515 0.95184946 1.4063655 1.121785 0.6044164 3.0680494 0.5758308
1.440837 2.369535 1.7070144 0.88346887 0.7390236 0.608084 0.69205934 0.6764863
0.61374575 1.6062554 1.8622882 0.9479022 0.8189064 2.2437794 0.91422045 1.5007708
1.4115343 1.8289142 2.7551954 1.6524631 4.5011053 0.91517264 0.68128645 2.8670323
1.242896 0.7315597 0.64720374 1.8646322 0.8102385 1.0710592 1.0437888 1.2349384
1.5937554 0.57815874 1.2075742 0.6541617 0.5735668 0.7639264 1.7702117 0.48427215
0.60215837 1.0670971 1.4348532 1.7391816 0.7346549 4.258567 1.9190152 0.56314474
3.2457116 0.6408148 1.0803748 2.749181 0.5042695 1.1279279 0.98238415 0.91909784
1.8969566 2.3945723 3.2828498 2.0416474 0.6398679 0.477138 1.0496222 1.4559438
0.79162157 0.5691818 0.97980845 0.6001356 0.80088526 2.0962849 2.4310532 1.2187535
1.5816168 0.858489 1.4360269 0.5863757 1.049927 0.8463946 1.3221536 3.6441007
1.574601 1.4763896 2.0914009 1.6107724 0.73350334 0.80376565 1.2326577 1.2824229
1.2817525 2.9095516 0.8246125 0.54243624 1.7528049 1.0370373 1.1046885 1.6287183
1.1826676 2.6734908 0.61515194 0.586571 0.8166719 2.1086035 1.1686813 1.2622539
0.9817349 1.0055805 1.2326485 2.4479892 1.0738132 0.72538006 1.0849037 1.5204319
5.16729 1.49849 1.0347596 1.134606 1.0824757 1.0500035 0.8683279 1.3588706
1.0224352 1.0637313 0.75417614 0.6401598 1.683003 0.83369 1.7907616 0.7174747
1.3952905 1.108179 1.5644139 1.7138346 0.9714705 0.5727938 1.0213537 0.86398137
0.5995381 0.7235403 0.81588084 2.5783253 1.8353884 0.9950832 1.6912454 2.209975
2.4215324 2.4243395 0.99371684 0.6737423 0.53591853 1.0270073 0.85477215 0.6806895
1.2664675 0.52701366 0.5939029 0.6627976 1.1005898 0.81923556 0.71253175 1.1507794
1.1779296 0.6075469 0.72338945 0.61452055 1.513397 2.3999922 2.7482746 0.73684675
0.73670936 1.6912422 1.6188911 1.3792828 1.2781086 1.0129379 0.7444242 0.8258155
1.7520584 0.6843313 2.0365362 0.996873 0.9295821 1.168463 0.7714918 1.8156896
0.55860937 0.9671872 0.81667656 2.6732275 1.8087069 1.8557835 1.2760044 0.62303406
1.3656027 1.1364348 1.0682024 0.6441166 0.90167123 0.57679665 0.97112095 2.673172
1.4681338 1.3012617 1.0464667 2.064928 1.1969702 0.8841393 2.651319 0.6443427
0.8716143 2.6285682 2.1534383 2.5490088 5.642349 2.2255445 0.87893564 3.4449043
0.83824486 1.4512591 1.0104535 0.584036 1.1810677 1.3312598 0.6624395 0.6508655
4.7934813 2.7898335 0.9231564 1.69981 0.82724476 0.61861396 0.87141746 1.9323397

fc2.weight f4 [128, 256]
00000000: 2843 05bb b7f3 b1bb ca98 26bd 180e ecbd
00000010: e763 d5bc 0385 6fbd c229 0fbd e39b e9bd
00000020: 2701 27bc f19c 3f3c 6a82 a6bb 6b61 dabc
00000030: e005 9b3b 191f 15be eda0 a53d 71ea 3c3d
00000040: b54d ecbd 56a1 b9bd b2ec f83c 796a 613d
00000050: c7e9 80bd de9b f9bd 43da a93d ecc0 48bd
00000060: 5cb2 f93d 4318 143e 26e0 9a3c c04c 123e
00000070: 233f 27be 53f2 c23d 7f81 3cb9 a415 333c
00000080: 63fa 1e3c 1757 b23d 13fc a83d f9cf 04bc
00000090: c9fd 00be e446 783d 4897 02bc 491d ec3d
000000a0: e2d4 22bd 9f9e b13d f413 d5bd 55c4 cdbc
000000b0: 5279 ae3d b9e7 323e c15a 75be 7959 c73d
000000c0: e56a 313d 0222 8fbd 9331 053d 0a53 e73b
000000d0: ba2b 79bc 13cb 23bc e272 b4bc 2305 a43d
000000e0: 4598 debd cbc3 cc3d afe5 1bbe 6d6e 103c
000000f0: 3fe5 3abe 3f4c 18be 3bbd 1c3d 0f79 8ebd
00000100: 5e1c e43c 4284 ef3d c946 973d 0b58 393d
00000110: 2806 7fbd c444 dfbc 7f4a 053e 55dd 68bd
00000120: d01f 553d 2fe8 fbbd d3ca 3bbe 8981 5a3d
00000130: 0182 b03c 1ace 913d 256b 413e d16d b93c
00000140: 1d2a b03d 2981 343e 7d0f 45bc b8ef 093e
00000150: a6d0 a93c 3bcf bcbd 4fde d83c da39 113e
00000160: 2dbd e5bc 0e13 be3c b2fc e0bd c49c 4cbe
00000170: 176f ddbd 5887 0c3d b333 0b3d d327 723b
00000180: 544b a73c 623a 8bbd e448 933d 796d 793d
00000190: 7467 0f3e 526b e7bd d8a2 793d 95a2 8b3d
000001a0: a87e bb3d cb0f 4f3e 5edb 8d3d a7ec 75bc
000001b0: f9e8 fbbd 51d0 a5bd 41c9 a5bc 92fb bf3d
000001c0: 0f1c ce3c d05d d03c d1ee 903c bda8 82bd
000001d0: 20c9 c3bd 0fe3 283e cb69 47bd 837a 2b3d
000001e0: 49fc d03d 269f e03c 8652 93bd c8b4 bbbd
000001f0: 03ca a1bd 3877 a1bc 9560 01bd 35e4 9dbc
00000200: c905 d73c 6933 2cbd 6966 8fbc 383f 603d
00000210: 4c59 cd3d ff66 2cbe fc74 0a3e 600c 963d
00000220: 4aac 49bc 3694 ff3c ea71 2c3e 25e2 0f3d
00000230: 4e2c 0b3e 1aea 41be da34 44bd 5893 7cba
00000240: 0d7a b63d 47a7 883c 14e6 fc3c 4bb7 c6bc
00000250: 063b 8c3d 1b2b 0cbe 1867 c6b9 a728 15be
00000260: e024 f43d b5ee c639 a42d 51bc aa74 eebb
00000270: 7cd7 f03c 6e8d a2bd 94c9 6ebc ae3b 193e
00000280: 8a38 c8bd f917 2d3c 35cc f33d 856f f9bc
00000290: 0f1c 57bd 065d a43c 9f49 78bb 837a 353e
000002a0: 672c 36bd 4e21 b0bd c1fa 813d 13ad 333c
000002b0: 363f fd3d ca2a e0bd bb1a 0e3d eb71 e4bd
000002c0: bbfa a73d 3038 a3bb a489 f9bd e28d a3bc
000002d0: 6313 7f3d 9e81 163e f48e fc3d 2abe 06be
000002e0: 0987 30bd 8308 44be 3a13 36be 3159 1dbe
000002f0: f463 1ebd 9d55 0f3b 62a3 d83d ef22 78bd
00000300: c3e0 3bbd 2401 2ebd 0a68 8cbd 9770 413e
00000310: 082d 0b3e 8480 3d3d d467 13be 5868 debc
00000320: 7f40 80bc 8001 33bd e149 fd3d ab46 2e3e
00000330: fafa a23d 9b92 843d 4023 823d 130a 34bd
00000340: 568b bdbd c184 063c 88a4 8abd e6a1 9c3d
00000350: baf0 943d 3953 bdbc c2b4 b6bd d8a6 0cbe
00000360: 7f94 0f3e 6f82 56bb d93f 703d 176f 19bc
00000370: 1728 bd3d 4ef8 8bbd fe5d ae3c 7f2d f5bc
00000380: d98d 0a3e 8e02 ca3c 8e93 683c 6692 1fbd
00000390: 9269 e2bd 4e9b a8bc b01a 953d 6f99 26bd
000003a0: 6a83 f1bd fd0a c13d 7658 ed3c 7d3a b3bb
000003b0: dd45 053e 70a8 843c 5f00 c5bd b41a 053e
000003c0: 69a3 b1bc 523f cf3d 92e6 223e 6ae4 8dbd
000003d0: b9ff cf3c b0cf 973d f6b8 64bd c6da f03b
000003e0: ed54 c1bd 4883 c83b 92a8 03bd 960f 51bd
000003f0: 52c3 fbbd c280 28bd e4a5 163e f24d 14be
-0.0020334218 -0.0054306644 -0.040673055 -0.11526126 -0.026048614 -0.05847646 -0.034951933 -0.11406686
-0.010193146 0.011695133 -0.0050814645 -0.02665778 0.004730925 -0.14562644 0.08087335 0.04612202
-0.11538259 -0.090639755 0.030386303 0.05503318 -0.062945895 -0.121879324 0.08293583 -0.04901211
0.121922225 0.1446238 0.01890571 0.1428709 -0.16332678 0.09518876 -0.00017977318 0.0109304525
0.0097032515 0.08708017 0.08251204 -0.008106225 -0.12596811 0.06061448 -0.007970639 0.11529023
-0.039753802 0.08672833 -0.104041964 -0.025118032 0.08519234 0.17471208 -0.23960401 0.097338624
0.043314833 -0.06988908 0.03251798 0.0070594596 -0.015208179 -0.009997147 -0.022027437 0.08008792
-0.10868887 0.09998282 -0.15224336 0.00881539 -0.18251513 -0.14872836 0.0382664 -0.06956684
0.027845558 0.11695148 0.07386548 0.04524998 -0.06226173 -0.02725447 0.13016699 -0.056851704
0.052032292 -0.12300145 -0.1833909 0.05334619 0.021546366 0.07119389 0.18888529 0.022635372
0.086017825 0.17627396 -0.0120276185 0.13470352 0.020729374 -0.092192136 0.026473192 0.14182225
-0.028044308 0.023202445 -0.10985698 -0.19981676 -0.10812204 0.03430876 0.03398485 0.0036950007
0.020421661 -0.06798245 0.07191637 0.060895417 0.14004308 -0.112997666 0.060946316 0.068181194
0.09155017 0.20220868 0.069266066 -0.015010036 -0.123002954 -0.08096374 -0.020237567 0.09374155
0.025159864 0.025435358 0.017692002 -0.063798405 -0.09559846 0.16492866 -0.048684876 0.041864883
0.102043696 0.027419638 -0.071934745 -0.09165341 -0.07899859 -0.019710168 -0.03158625 -0.019273857
0.026247876 -0.042041216 -0.017504888 0.05474779 0.10026798 -0.16836165 0.13521188 0.07326579
-0.012309143 0.031198602 0.1684033 0.035127778 0.1359112 -0.18936959 -0.047901966 -0.0009634993
0.08909998 0.016681327 0.030871429 -0.024257323 0.06847195 -0.13688318 -0.00037842314 -0.14566289
0.11921096 0.00037943354 -0.012767229 -0.007277091 0.029399626 -0.07937132 -0.014574427 0.14964172
-0.09776409 0.010564798 0.11904184 -0.030448684 -0.052516993 0.020063888 -0.0037885678 0.17722516
-0.04447594 -0.08600102 0.06346656 0.010966557 0.12365572 -0.10945661 0.03469346 -0.11154541
0.0820212 -0.0049810633 -0.12184456 -0.019965116 0.062274348 0.14697883 0.12331954 -0.1315848
-0.04309753 -0.19143872 -0.17780772 -0.15366055 -0.03866954 0.0021871098 0.10578038 -0.06058019
-0.045868646 -0.042481557 -0.068557814 0.18890606 0.13591397 0.04626514 -0.14395076 -0.027149364
-0.015655754 -0.043702602 0.12367607 0.17019145 0.07958026 0.06473275 0.0635438 -0.04395492
-0.09255092 0.008210362 -0.06769663 0.07648067 0.072724774 -0.023110973 -0.089211956 -0.13735521
0.1402149 -0.0032731553 0.05865464 -0.009364865 0.09236162 -0.0683447 0.021285053 -0.02992892
0.13530673 0.024659421 0.014195336 -0.038957976 -0.11055292 -0.020581868 0.07280481 -0.04067367
-0.11792643 0.09425924 0.028972846 -0.005469619 0.13014932 0.016193599 -0.096192114 0.12998468
-0.021684365 0.10119499 0.15908268 -0.06928332 0.025390493 0.0741266 -0.055840455 0.0073502986
-0.094400264 0.0061191656 -0.032143183 -0.051040255 -0.12293114 -0.041138418 0.1471172 -0.14482859

fc2.bias f4 [128]
00000000: 5f2f d43a 42a7 5739 7aff 10bb a498 8139
00000010: b88b 39ba 3b53 b1b8 443d d7b8 fbf8 893a
00000020: 27e2 e2b9 db15 9cba c422 c2ba 3845 10ba
00000030: 4f6c c03a e423 013b 8638 8a38 bcc4 c3ba
00000040: 4827 deb9 5164 ee3a df5e 2e38 f745 523a
00000050: 6199 16ba dd5d a539 48c6 bc3a bff4 d739
00000060: b8d9 aaba 6d26 f1ba 2777 83b9 bcf0 d3ba
00000070: 786c 013a d0e3 9837 9917 493b a959 a239
00000080: 0d98 f439 2944 9eba 1ea2 06ba efeb c239
00000090: fa5f ed3a ec07 133a 00ba 7bba fdb4 0838
000000a0: 2e2a fab9 55f3 82b9 ddf5 0db7 a967 60ba
000000b0: 7671 4b3a 838d 203a 6077 46bb 6329 b53a
000000c0: e9ef 2e3a 9581 ec3a 586b eb3a 1ecc 003b
000000d0: 805e 04bb 4ea2 393a cd5a b83a c96d a939
000000e0: 25f5 6339 509c 8cba ad56 52ba 313b d439
000000f0: 7d25 4fbb 08bd 6ab8 246f 94ba e101 683a
00000100: 396f c4b9 97d6 6eba 7608 a6ba 4dbd c0ba
00000110: f239 033b 5f5e 49bb d62f 0eba cd90 ceba
00000120: 3ad6 10ba 1e55 0b3a 8624 613a 4120 efba
00000130: 7867 ddb9 fc86 cf3a 980c fe39 4760 a7ba
00000140: 67c3 af38 a033 45b9 b301 43ba c49e d6b9
00000150: 8362 b7b9 bdd7 a5b9 207f beb8 8ede 33bb
00000160: 2e98 b2ba 05b0 9fba b257 92ba 945e 9db9
00000170: 1869 13b9 75b6 433b 3c85 09b8 bf0d 05b9
00000180: 87c6 3b3a 10b3 50ba 252c f939 0578 94b8
00000190: 58a1 e539 3106 7f3a f4c1 32ba bcd4 aa3a
000001a0: ef32 cfb9 3e6f e93a 62b2 4739 53e0 0eba
000001b0: 17ed 4bba 0ab5 24bb 7139 fa3a 8606 2cbb
000001c0: 68ed d539 92f7 333a 314a 043a b5be a2b9
000001d0: 7696 a53a 1e40 9b39 a91b 2fba 46ff 443b
000001e0: 9916 b6b9 5eeb edba 3df5 36b9 d340 15ba
000001f0: 6d3b 8dba 758e ad39 0197 32bb 8116 8dba
0.0016188434 0.00020566306 -0.0022124932 0.00024718523 -0.00070780097 -8.4555206e-05 -0.000102634105 0.0010526472
-0.00043274576 -0.0011908369 -0.0014811386 -0.00055034785 0.0014680716 0.001970523 6.590881e-05 -0.0014935951
-0.00042372406 0.0018187856 4.157319e-05 0.000802129 -0.0005744901 0.00031541186 0.0014402354 0.00041190346
-0.0013034856 -0.0018398293 -0.00025075043 -0.0016169767 0.00049371226 1.8225895e-05 0.0030684231 0.0003096585
0.00046652593 -0.0012074757 -0.00051358517 0.00037178348 0.0018110268 0.00056087854 -0.00096026063 3.2593485e-05
-0.00047715142 -0.0002497683 -8.461499e-06 -0.00085603684 0.00077607424 0.00061246025 -0.0030283555 0.0013821538
0.00066733226 0.001804399 0.0017961068 0.0019652913 -0.0020197928 0.0007081375 0.0014065147 0.00032315988
0.0002173973 -0.0010727737 -0.000802378 0.00040479892 -0.0031608038 -5.5965997e-05 -0.0011324626 0.00088503776
-0.000374669 -0.0009110956 -0.0012667316 -0.0014704854 0.0020023552 -0.0030726416 -0.0005423998 -0.0015759707
-0.00055250863 0.00053151126 0.0008588511 -0.0018243865 -0.00042229495 0.0015833075 0.00048456038 -0.0012769782
8.381047e-05 -0.00018806616 -0.0007438913 -0.0004093555 -0.00034977877 -0.0003163199 -9.083585e-05 -0.0027445885
-0.0013625675 -0.0012183195 -0.0011165051 -0.0003001584 -0.00014058163 0.0029863392 -3.278743e-05 -0.00012688989
0.0007163067 -0.00079612527 0.0004752587 -7.079545e-05 0.00043798494 0.00097284006 -0.00068190624 0.001303337
-0.00039520065 0.0017809642 0.00019044572 -0.0005450297 -0.00077791646 -0.0025132322 0.0019090605 -0.0026249005
0.00040803407 0.0006865199 0.0005046456 -0.00031041136 0.0012633342 0.00029611675 -0.0006679842 0.0030059381
-0.00034730582 -0.001815181 -0.00017448231 -0.00056935585 -0.0010775157 0.0003310327 -0.002725065 -0.0010764153

bn2.weight f4 [128]
00000000: 1027 803f 81ee 6c3f 0c6d 863f 8fd1 733f
00000010: b8ed 5a3f d607 573f ed47 753f 86ca 863f
00000020: 7b67 613f 8fe2 6f3f 0f13 863f 6172 7f3f
00000030: 3230 8e3f f6c8 7f3f de08 4b3f dbae 923f
00000040: dcca 753f 0e7d 8a3f 7413 8b3f 3a5e 813f
00000050: 6939 5f3f 67d6 7d3f d832 783f 0501 2d3f
00000060: 4a20 893f d05d 823f 8683 873f 9478 953f
00000070: e20a 7c3f f9c2 853f 0451 8a3f a449 603f
00000080: 47fe 7a3f fb04 533f 6399 843f e532 8f3f
00000090: 850c 8a3f fe31 3f3f 4b11 673f 0949 8e3f
000000a0: 4803 913f ec5b 653f 238d 7b3f dd2d 853f
000000b0: d341 5a3f 7570 573f 4b4b 803f 46da 893f
000000c0: c783 873f 895a 803f 9608 8c3f 3fe2 7c3f
000000d0: e3ba 873f 1c3b 843f 97e7 633f 9b5b 8a3f
000000e0: 3323 8f3f 8c4c 593f 808b 863f 2565 923f
000000f0: 0385 943f 239f 823f ff25 693f 1e3b 8f3f
00000100: e50c 5f3f 15d0 463f 262e 8f3f 24b8 6b3f
00000110: 60a8 8f3f b31e 863f 0593 863f 79c0 603f
00000120: 58b7 7d3f 18db 813f b70d 8e3f 8c1c 903f
00000130: 56e4 3c3f 4a25 723f d4c9 8f3f 9a42 5b3f
00000140: a018 753f 3ae4 7f3f 5bcb 8a3f 24fc 893f
00000150: 857b 5f3f 2b35 813f 249d 8c3f 00c6 6f3f
00000160: 31a7 693f 5c79 6b3f 52d9 7c3f 2c16 673f
00000170: 019f 4f3f 8373 933f 6b97 873f fa02 8b3f
00000180: 6e13 7b3f 4344 8e3f 7fd9 6c3f d65d 813f
00000190: ab19 7f3f 134a 7e3f 108b 863f 4d08 683f
000001a0: 252c 423f 5090 7d3f b40e 723f 35be 733f
000001b0: 6ce8 733f 6f34 8c3f ce4f 8a3f ae32 933f
000001c0: 1491 763f 9661 8c3f 0349 833f 9986 7f3f
000001d0: 56fc 933f 5157 813f 5721 883f cbd0 863f
000001e0: 54da 8c3f 59fd 813f 82ac 923f a9a3 7d3f
000001f0: b183 8b3f 8c62 863f 4bdc 8b3f 9892 883f
1.0011921 0.9255143 1.0502028 0.95241636 0.8551898 0.8399633 0.95812875 1.0530555
0.88048524 0.93705076 1.0474566 0.99783903 1.1108458 0.9991602 0.79310405 1.1459612
0.96012664 1.0819414 1.0865312 1.0106881 0.87196976 0.99155277 0.9695258 0.6757968
1.0712979 1.0184879 1.0587013 1.1677423 0.98454106 1.0450126 1.0805974 0.87612367
0.98044246 0.82429475 1.035931 1.1187407 1.0785071 0.7468566 0.9026076 1.1116039
1.1329126 0.89593387 0.9826223 1.0404621 0.8525669 0.8415597 1.0022978 1.0769737
1.058709 1.0027629 1.094012 0.98782724 1.0603908 1.0330539 0.89025253 1.0809206
1.1182617 0.84882426 1.0511322 1.1437117 1.1603092 1.0204815 0.910736 1.1189916
0.8712905 0.7766126 1.1185958 0.9207785 1.1223259 1.0478119 1.0513617 0.8779369
0.99107885 1.0144987 1.1097935 1.1258712 0.73785913 0.9458815 1.1233468 0.856485
0.957407 0.9995762 1.0843309 1.0780072 0.8729785 1.009435 1.0985456 0.936615
0.9127074 0.91982055 0.98769104 0.90268207 0.81101996 1.1519626 1.0593084 1.0860283
0.9807652 1.1114582 0.9251937 1.0106761 0.9964854 0.9933178 1.0511189 0.90637666
0.7584861 0.9904833 0.94553685 0.9521211 0.9527652 1.0953501 1.0805604 1.1499841
0.9631512 1.0967281 1.0256656 0.99814755 1.1561382 1.0104772 1.0635175 1.0532469
1.1004128 1.015544 1.1458895 0.9907785 1.0899564 1.0498824 1.0926603 1.0669737
