models/classifiers/MLP_basic_v2_bm.pth (torch, 490328 bytes, 5 tensors)

fc1.weight f4 [100, 1167]
0	0x3d35e46c	0.044407293
1	0x3c2c8f3d	0.010532198
2	0x3c8d09e8	0.017216638
3	0xbd53d83a	-0.05171988
4	0xbd2a3a01	-0.041559223
5	0xbc5f41f7	-0.013626567
6	0xbcabadca	-0.020956893
7	0xbc5cc710	-0.013475195
8	0xbc2c993e	-0.010534583
9	0x3daabc6b	0.08336719
10	0xbce60162	-0.028076831
11	0xbc69db1e	-0.014273433
12	0x3b1386a4	0.0022510672
13	0xba961d41	-0.001145281
14	0x3ca38e3c	0.019965284
15	0x3c6f5254	0.014607031
16	0x3d8099bf	0.06279325
17	0xbd442ebd	-0.047896136
18	0xbcfb07ee	-0.03064343
19	0xbd609932	-0.0548336
20	0xbd8a1b7a	-0.06743522
21	0xbcf38bbe	-0.02972972
22	0x3b9408b2	0.004517638
23	0xbd9ab065	-0.07553176
24	0xbd1cb0c4	-0.038254514
25	0x3ce788d8	0.028263494
26	0xbd2fbf8e	-0.04290729
27	0xb96ad647	-0.00022395804
28	0xbd2c6723	-0.042090546
29	0xbaeee0ac	-0.0018224916
30	0x3d8bf95e	0.068346724
31	0xbcf4eccf	-0.029898075
32	0x3dbe7a81	0.093007095
33	0x3c5976d6	0.013272962
34	0x3d14cab7	0.036326136
35	0x3cf9c0eb	0.030487498
36	0x3d84bda8	0.064814866
37	0xbd9ce542	-0.07660915
38	0xbc570158	-0.013122879
39	0xbdd07b38	-0.10179752
40	0x3c82c1fb	0.015961638
41	0xbd59355b	-0.0530294
42	0xbd0c41d9	-0.034242485
43	0x3d3ef5fd	0.04662131
44	0xbddd14fb	-0.10795017
45	0xbd63c331	-0.05560607
46	0xbce14fd1	-0.02750388
47	0xbcd00109	-0.025391119
48	0x3ce15d2a	0.027510244
49	0xbdd41829	-0.10356171
50	0x3d80dd72	0.06292237
51	0xbc38662e	-0.01125483
52	0x3dec5511	0.11539663
53	0xbdbeed9e	-0.09322666
54	0xbb23d063	-0.0024996034
55	0x3d84a08a	0.06475933
56	0x3cafbadf	0.021451412
57	0x3bda3f38	0.0066603683
58	0xbd08ad34	-0.033368304
59	0x3dca0010	0.09863293
60	0xbdf0bcbc	-0.11754748
61	0xbd6d24eb	-0.057896536
62	0xbc1e8f63	-0.009677741
63	0xbd4c8b9b	-0.049937826
64	0x3da65e74	0.08123484
65	0x3c3e9776	0.011632791
66	0xbd177d56	-0.036984764
67	0xbd44c2a3	-0.048037183
68	0xbcef5aed	-0.029218161
69	0xbd722e6b	-0.0591263
70	0xbca2158e	-0.019785669
71	0xbe06a9dd	-0.13150735
72	0xbd5562f0	-0.052096307
73	0x3d515d2c	0.051114246
74	0xbc338c6b	-0.010958771
75	0xbd26d461	-0.040729884
76	0x3c203b0a	0.009779701
77	0x3cb6314d	0.022240305
78	0x3d8bd7d6	0.06828277
79	0xbc9a838c	-0.018861555
80	0xbd27fe93	-0.041014265
81	0x3d24cfe0	0.040237308
82	0x3c16b45b	0.0091982735
83	0x3dbf471a	0.093397334
84	0xbd5daae2	-0.054118045
85	0xbd81cdca	-0.06338079
86	0xbd2fe5da	-0.042943813
87	0x3c0f0dc8	0.008731313
88	0xbd64ebd2	-0.05588896
89	0xbbc03844	-0.0058660824
90	0xbd167d26	-0.036740445
91	0x3c09eef3	0.008418786
92	0xbc6a454b	-0.014298747
93	0xbda5ec18	-0.08101672
94	0xbd158de2	-0.036512263
95	0x3d21229d	0.03933965
96	0x3bbe3bb9	0.0058054593
97	0x3dc9b54e	0.09849034
98	0xbd33d9c5	-0.043908853
99	0xbcf0c381	-0.029390099
100	0x3d447089	0.047958884
101	0x3d3316f9	0.04372308
102	0x3cf40f9e	0.029792603
103	0xbb8c9d12	-0.004291185
104	0x3c8d13ac	0.017221294
105	0x3de2c6eb	0.11073097
106	0xbd86fb3e	-0.065908894
107	0x3bbbb29b	0.0057280785
108	0xbb92685c	-0.004468007
109	0xbc45dd5e	-0.012076704
110	0x3da1081a	0.078628734
111	0x3c4be521	0.012444765
112	0xbd129fcc	-0.035796925
113	0xbbe8d504	-0.0071054716
114	0x3bc16498	0.0059018843
115	0x3bc551ce	0.006021715
116	0x3c1ae98c	0.009455096
117	0x3c4445ac	0.011979502
118	0x3d71bb77	0.05901667
119	0x3d6a6320	0.05722344
120	0xbd2059c1	-0.039148096
121	0xbd36a407	-0.044590022
122	0x3d21f7a7	0.03954282
123	0xbdf0edd7	-0.11764114
124	0x3d290bab	0.041270893
125	0x3c546278	0.01296293
126	0x3d95ea06	0.07320027
127	0xbddfafbf	-0.10922193
128	0xbcb0ec89	-0.021597164
129	0xbcc7b30c	-0.024377368
130	0xbdbab16e	-0.09115873
131	0xbdfd7c52	-0.12377228
132	0x3c7747ae	0.015092773
133	0xbd90503f	-0.07046556
134	0x3da0283d	0.07820175
135	0x3d9d0107	0.076662116
136	0x3cae7b8e	0.02129915
137	0x3c0282eb	0.007965784
138	0x3cebb041	0.028770568
139	0xbcabf97c	-0.020992987
140	0xba9907eb	-0.0011675333
141	0xbd888d14	-0.066675335
142	0x3c8abaae	0.016934719
143	0xbd8523dd	-0.06500981
144	0xbd9cf0b3	-0.07663097
145	0xbc5f7977	-0.013639799
146	0x3bfa1fc7	0.0076331827
147	0x3bc94fc3	0.0061435415
148	0x3c629d82	0.013831498
149	0xbb853f77	-0.0040664035
150	0x3d04a9db	0.03238855
151	0x3b34103d	0.00274755
152	0x3aab6c9d	0.0013078634
153	0x3cf32751	0.029681833
154	0xbc444314	-0.011978883
155	0x3ce94aa1	0.028477969
156	0x3d0e80ea	0.03479091
157	0xbcb00388	-0.021486059
158	0x3dd3dcd5	0.10344855
159	0xbcc4244b	-0.023943087
160	0x3cd930fb	0.026512614
161	0x3d84de60	0.06487727
162	0x3cc30550	0.023806244
163	0x3d880fed	0.066436626
164	0xbdf23d67	-0.11828118
165	0x3dc7a17e	0.09747599
166	0x3e13fb36	0.14451298
167	0xbbcb0368	-0.0061954744
168	0xbd17f8af	-0.037102398
169	0x3c379ae6	0.011206364
170	0x3dd6d43c	0.10489699
171	0xbcab5a46	-0.02091707
172	0x3bcd1b13	0.006259331
173	0xbda4d783	-0.08048918
174	0x3d0efe0e	0.034910254
175	0xbb4df189	-0.0031424484
176	0x3bed7607	0.007246736
177	0x3e2f182f	0.17099069
178	0x3e12fb9a	0.14353791
179	0xbd8faf05	-0.07015804
180	0x3de213d3	0.110389374
181	0x3cd286c0	0.02569902
182	0x3d3ca697	0.04605731
183	0x3d3a63d9	0.04550538
184	0x3c6e0b75	0.014529099
185	0x3d52503e	0.051346056
186	0x3ca65683	0.020304924
187	0x3cc77919	0.024349736
188	0xbd58f696	-0.052969538
189	0x3c7f305f	0.015575497
190	0x3c728f22	0.014804633
191	0x3d175034	0.036941722
192	0xbd40f719	-0.04711065
193	0xbdba5e55	-0.09100024
194	0xbc50729c	-0.0127226375
195	0x3c5bf080	0.013424039
196	0xbb8d364d	-0.0043094517
197	0xbd462ff6	-0.048385583
198	0x3d118a57	0.03553232
199	0xbca945a5	-0.020663092
200	0x3d291c0b	0.04128651
201	0x3cef0b0b	0.02918007
202	0xbb9d0f02	-0.004793049
203	0xbca1af16	-0.019736808
204	0x3da1f265	0.07907561
205	0xbb8ea47c	-0.004353104
206	0xbd1f0f67	-0.03883305
207	0x3db6ce0d	0.0892602
208	0x3d88cd1a	0.06679745
209	0xbceb52fa	-0.02872609
210	0x3cd976db	0.026545933
211	0xbba7b6d0	-0.0051182285
212	0x3d825ee5	0.06365756
213	0x3d783e50	0.0606063
214	0xbd274184	-0.040833965
215	0x3d022ba2	0.031779893
216	0x3d7b1238	0.06129667
217	0x3d1f0fd3	0.03883345
218	0xba7805d6	-0.0009461319
219	0x3ce3e960	0.027821243
220	0xbd8f7bdc	-0.07006046
221	0x3d4b8237	0.04968473
222	0x3cae22df	0.021256862
223	0x3d110a3c	0.03541015
224	0x3dc16b8d	0.09444342
225	0x3c0f1da3	0.008735093
226	0x3cad9b55	0.021192232
227	0xbd4810e0	-0.04884422
228	0x3c1ae8bd	0.009454903
229	0x3c29dc41	0.010367454
230	0x3c956e1c	0.01824098
231	0x3da0f2da	0.0785882
232	0xbd20a344	-0.039218202
233	0x3dbd7066	0.09249954
234	0xbcf0e126	-0.029404234
235	0x3dd564c4	0.1041961
236	0xbca11430	-0.019662946
237	0x3ca87e98	0.020568177
238	0xbb9478f0	-0.0045310184
239	0x3d10cf80	0.035354137
240	0x3db3dc05	0.087822
241	0xbd8b8ea3	-0.06814315
242	0x3bf6a36f	0.007526807
243	0x3df4fdb3	0.11962452
244	0xbd9a0a71	-0.07521523
245	0x3da4724e	0.080296144
246	0x3c9d76ab	0.019221624
247	0xbc943772	-0.018092845
248	0x3d082caa	0.03324572
249	0xbdfbedd6	-0.12301223
250	0x3cdf917e	0.027291056
251	0x3df7a00e	0.12091075
252	0xbb1a1a7e	-0.0023514326
253	0xbc2a5f47	-0.010398692
254	0xbc6a43cd	-0.0142983915
255	0xbdafd38b	-0.085852705

fc1.bias f4 [100]
0	0x3cd0543d	0.025430793
1	0xbb4508f4	-0.003006515
2	0x3d5b9711	0.053610865
3	0xbcb1f4bf	-0.02172315
4	0x3e01d381	0.12678339
5	0xbd081397	-0.033221807
6	0xbb18b809	-0.0023303053
7	0xbcc9c7e9	-0.024631457
8	0x3c46cc66	0.012133693
9	0x3b4cfbe7	0.0031278075
10	0x3c5af5d0	0.01336427
11	0x3b8e9ea4	0.0043524075
12	0xbc3b32f4	-0.011425722
13	0xbcd148cd	-0.02554741
14	0xbce8d50d	-0.028421903
15	0x3d3ea891	0.046547476
16	0x3b9c8ed5	0.004777769
17	0xbd0577c9	-0.03258494
18	0x3cc5d2a2	0.02414829
19	0x3cb09c25	0.02155883
20	0x3c60e0fa	0.013725514
21	0x3dc29697	0.09501379
22	0xbc2ca13c	-0.010536488
23	0xbcd5aeb6	-0.026084285
24	0x3cc20b2f	0.023686973
25	0x3cbe0333	0.023194885
26	0xbd244b14	-0.040110663
27	0x3c5e26a1	0.013559015
28	0x39c45dd9	0.00037453955
29	0xbbe87685	-0.0070942068
30	0xbc93ca06	-0.018040668
31	0x3d3e0772	0.04639382
32	0x3ccfcfa6	0.02536757
33	0xbd2fb9ee	-0.042901926
34	0xbcba12f3	-0.022714114
35	0xbb919ab9	-0.004443493
36	0xbcbfecd7	-0.023428364
37	0xbcf3a338	-0.029740915
38	0xbc874d04	-0.016516216
39	0xbc818d1f	-0.015814362
40	0xbcfbb06f	-0.030723779
41	0xbccb61de	-0.02482694
42	0xbce31e59	-0.027724432
43	0x3b12dd1d	0.0022409626
44	0xbb87742b	-0.0041337213
45	0x3ba7f71f	0.0051258947
46	0xb9d5dc5c	-0.00040790706
47	0xbd356bd8	-0.0442923
48	0xbd5d1ee6	-0.053984545
49	0xbca9e184	-0.020737417
50	0xbd00f82b	-0.03148667
51	0xbc7e09df	-0.015505283
52	0x3dd9abfe	0.10628508
53	0xbd09ca3c	-0.03364013
54	0xbd80915d	-0.06277726
55	0x3bc805dd	0.0061042146
56	0xba321e1f	-0.00067946495
57	0xbd18d8c5	-0.037316103
58	0xbd3b21a5	-0.045686383
59	0x3ba578c2	0.005049796
60	0xbc7a4dbf	-0.015277325
61	0xbce077d0	-0.027400881
62	0xbc52d538	-0.012868218
63	0x3b4c88ff	0.0031209586
64	0xbcb7bb13	-0.022428071
65	0x3d315911	0.04329783
66	0x3b917128	0.004438538
67	0xbc2fc6f4	-0.010728586
68	0x3bcb7e2b	0.0062101088
69	0xbbc0cfa9	-0.00588413
70	0xbcf56dfc	-0.029959671
71	0x3c0270db	0.007961477
72	0x3c6e5251	0.014545993
73	0x3c97e966	0.01854391
74	0xbcaf5444	-0.021402486
75	0x3aa6e632	0.0012733398
76	0xbc269396	-0.010167023
77	0xbccfc997	-0.02536468
78	0x3d31a91a	0.04337416
79	0x3c09b810	0.0084057
80	0xbb49c496	-0.003078734
81	0x3c8890c8	0.0166706
82	0x3c6dc949	0.014513322
83	0x3c5ccfc9	0.013477274
84	0x3c8dc649	0.017306464
85	0x3c9013e5	0.017587611
86	0x3bc0d787	0.005885068
87	0xbc8deb12	-0.017324004
88	0xbd420d4e	-0.04737597
89	0x3d14b952	0.036309548
90	0x3d0a46ff	0.033759113
91	0x3b374402	0.002796412
92	0xbd1c76f3	-0.038199376
93	0xbd3076b2	-0.043081947
94	0xbc96df93	-0.018417155
95	0x3caeae29	0.02132328
96	0x3b880bc8	0.004151795
97	0x3cf9c895	0.030491153
98	0x3be62088	0.007022921
99	0xbbdc7e22	-0.0067289034

fc2.weight f4 [50, 100]
0	0xbda49014	-0.08035293
1	0xbdbf6081	-0.093445785
2	0x3c638cfa	0.013888592
3	0x3da8c1a3	0.08240058
4	0xbd8f5bdb	-0.06999942
5	0xbd9cdf8c	-0.07659826
6	0xbdc41722	-0.09574725
7	0x3cfae84e	0.03062835
8	0xbcdbb602	-0.026820187
9	0xbdb86398	-0.09003371
10	0x3d3d4424	0.046207562
11	0xbd0c7d8d	-0.034299422
12	0x3cf866df	0.03032249
13	0xbdbc8205	-0.09204487
14	0xbd8d5c7d	-0.06902406
15	0x3cf0d14a	0.029396672
16	0xbbccfb3d	-0.006255536
17	0x3db3702f	0.08761632
18	0x3d251170	0.040299833
19	0xbd8f43b1	-0.06995333
20	0x3d2ddcee	0.042447023
21	0x3d13ca09	0.036081348
22	0xbcfed73e	-0.031108495
23	0x3b860a29	0.0040905667
24	0xbd259012	-0.0404206
25	0x3b9252fd	0.0044654594
26	0x3d08d8e6	0.033409975
27	0xbd9ff730	-0.07810819
28	0xbdba099b	-0.09083863
29	0xbd3507ea	-0.044197
30	0xbdbe97e5	-0.09306315
31	0x3d780c52	0.060558625
32	0xbd908b3f	-0.07057809
33	0x3da9f2f2	0.08298291
34	0xbdc9e89f	-0.09858822
35	0xbb7ea700	-0.0038856864
36	0x3d22f1e5	0.03978147
37	0x3cb4dfdd	0.022079403
38	0xbc3de7fa	-0.011590952
39	0xbda049f8	-0.078266084
40	0x3d0be57f	0.03415441
41	0x3bc6d0e7	0.0060673836
42	0x3d9346a2	0.071912065
43	0x3cda790e	0.026669051
44	0xbcc64c45	-0.02420629
45	0xbc71958b	-0.0147451265
46	0xbd8d414b	-0.06897219
47	0xbd4c7c07	-0.04992297
48	0xbd86661e	-0.06562446
49	0x3d11984d	0.035545636
50	0x3c8e6f49	0.01738705
51	0xbd5051de	-0.050859325
52	0x3bdc0863	0.006714867
53	0xbcfef1a1	-0.031121077
54	0xbdbda92e	-0.09260784
55	0x3dabd522	0.08390261
56	0xbc30cae6	-0.010790562
57	0xbd32f700	-0.04369259
58	0x3dadbc50	0.084831834
59	0x3da6ef8b	0.08151158
60	0xbddc174f	-0.10746633
61	0x3dc745da	0.0973012
62	0xbd992ed3	-0.07479634
63	0xbcb96527	-0.022631241
64	0x3cd90a96	0.026494306
65	0x3dbbc791	0.09168924
66	0xbd940163	-0.07226827
67	0xbd21ce07	-0.039503124
68	0x3db7b4f0	0.08970058
69	0x3d7c2879	0.061562035
70	0xbc9431d0	-0.018090159
71	0x3cf9d588	0.030497327
72	0x3d04e335	0.032443244
73	0xbd15061e	-0.036382787
74	0x3bab7f8b	0.00523371
75	0xbd89aca8	-0.06722385
76	0xbc6068f2	-0.013696896
77	0xbd5eabf5	-0.05436321
78	0x3d3b94b6	0.04579612
79	0x3c93c685	0.018038997
80	0xbd7a565e	-0.061117522
81	0xbd359416	-0.04433068
82	0xbd919f1b	-0.07110425
83	0xbcadb015	-0.021202127
84	0x3d09df2d	0.033660103
85	0x3ded858b	0.11597737
86	0x3d810295	0.062993206
87	0xbd15689b	-0.036476713
88	0x3dc66e27	0.09688979
89	0xbdd1942b	-0.10233339
90	0xbc884f4e	-0.016639378
91	0xbd677ea8	-0.056517273
92	0x3da1cf15	0.07900826
93	0x3d7fc438	0.06244299
94	0xbd865da3	-0.065608285
95	0x3d63abc4	0.05558373
96	0xbd5518d1	-0.05202562
97	0xbd85ac5e	-0.06527017
98	0x3d2cbe7b	0.042173844
99	0xbd2b6842	-0.041847475
100	0x3db1f0f3	0.086885355
101	0xbdbd840d	-0.09253702
102	0x3c1b74f1	0.00948833
103	0xbd5d0104	-0.053956047
104	0xbe130dcf	-0.14360736
105	0x3d49dae0	0.049281
106	0x3be275d2	0.006911018
107	0x3d0d1533	0.034444045
108	0xbd3e0cd6	-0.04639896
109	0x3da54b2c	0.080709785
110	0x3d9ff370	0.07810104
111	0xbd2803aa	-0.04101912
112	0x3dc8e9b2	0.09810199
113	0xbcbefabc	-0.023312919
114	0x3d984351	0.074347146
115	0xbc940a2c	-0.018071257
116	0xbd0d162c	-0.034444973
117	0x3d601b9f	0.05471384
118	0x3daa33cc	0.08310661
119	0xbd2e1750	-0.0425027
120	0x3d3cee37	0.046125617
121	0x3d902250	0.070377946
122	0x3db3fd4e	0.087885484
123	0xbcdb01e6	-0.026734304
124	0x3dd2507e	0.10269259
125	0x3d7bf978	0.06151721
126	0xbdc0ef42	-0.09420635
127	0x3d25fd18	0.040524572
128	0xbd6a4540	-0.05719495
129	0xbd8c48e2	-0.06849839
130	0xbdd124bb	-0.10212084
131	0x3d60f4c1	0.054920916
132	0x3d3dae81	0.046308998
133	0xbd4c19e2	-0.04982937
134	0x3d24633d	0.040133704
135	0xbd812bbf	-0.06307172
136	0x3c47e8d6	0.0122015085
137	0xbc808403	-0.015687948
138	0xbda1d78c	-0.079024404
139	0x3bc8c4ab	0.0061269603
140	0x3d48004f	0.04882842
141	0x3dc66aa2	0.09688307
142	0xbd9b49a0	-0.07582402
143	0x3d765066	0.060135268
144	0x3d50aa9d	0.05094396
145	0xbd7e1a8c	-0.062037036
146	0xbc5746b4	-0.0131394155
147	0xbdbdcf74	-0.09268084
148	0xbc926cbc	-0.017874114
149	0xbd69403e	-0.05694603
150	0xbba6bf8c	-0.005088752
151	0x3da20ef1	0.07913006
152	0xbd2db374	-0.042407468
153	0x3d7f74b8	0.06236717
154	0x3d9b9b9f	0.07598042
155	0x3ccb39fb	0.02480792
156	0xbd5081e5	-0.050905127
157	0xbd85a17a	-0.0652494
158	0xbc2f9efa	-0.010719055
159	0xbc72caf8	-0.014818899
160	0x3d943a4d	0.072376825
161	0xbdb52896	-0.08845632
162	0xbc15f6b1	-0.009153054
163	0xbd6ae3e3	-0.057346236
164	0x3d0e83b8	0.034793586
165	0x3d827311	0.063696034
166	0x3db89783	0.090132736
167	0x3d7d1d00	0.061795235
168	0xbd71a9fb	-0.058999997
169	0xbd2a4754	-0.04157193
170	0x3d202ecc	0.03910713
171	0xbcd2a656	-0.02571408
172	0x3d1794d3	0.037007164
173	0x3ba151e3	0.0049230917
174	0xbccf193d	-0.02528059
175	0x3dbdd0c1	0.09268332
176	0xbdcf4ea2	-0.1012242
177	0xbbc79706	-0.0060910014
178	0xbdc2c8c2	-0.09510948
179	0xbd47d104	-0.048783317
180	0x3cb22ea2	0.021750752
181	0xbbb43d0b	-0.005500441
182	0xbdbe0f90	-0.09280312
183	0xbd3e869c	-0.046515092
184	0x3d99b55f	0.07505297
185	0xbcc0e793	-0.023547923
186	0x3d8bc7a3	0.06825187
187	0xbc7dfac9	-0.015501686
188	0x3db9e455	0.09076754
189	0xbc834ccf	-0.016027836
190	0x3d965ba1	0.073416956
191	0xbc710ab7	-0.014712027
192	0xbcac1b48	-0.021009102
193	0x3c3ba37a	0.01145255
194	0x3db90cd4	0.0903565
195	0x3d29bf47	0.041442182
196	0xbd90928a	-0.070592
197	0x3d0c8407	0.0343056
198	0xbd6736e1	-0.05644882
199	0xbdab9fbc	-0.08380076
200	0xbd3b1133	-0.0456707
201	0xbd173640	-0.03691697
202	0xbda5b1c5	-0.080905475
203	0x3d13ac3a	0.03605292
204	0x3c8ee8fe	0.017445084
205	0xbdb1ceca	-0.0868202
206	0x3b9f9a9a	0.004870725
207	0xbd7484b0	-0.059696853
208	0x3b22d89a	0.0024848343
209	0x3db2c170	0.087283015
210	0xbdd7e806	-0.10542302
211	0xbdb8b7cb	-0.09019431
212	0x3caf4d65	0.02139921
213	0x3cbcf933	0.023068046
214	0xbc273bd7	-0.010207138
215	0x3d5139b0	0.051080406
216	0x3dbab81a	0.09117146
217	0xbd568fb5	-0.052383143
218	0x3d4cfba7	0.050044682
219	0xb9a1f9c8	-0.00030894415
220	0x3d57b200	0.05265999
221	0x3d07b866	0.03313484
222	0xbdb608d4	-0.088884026
223	0x3d990b40	0.07472849
224	0x3d375c8f	0.044766005
225	0xba3d1d9a	-0.0007214189
226	0x3c412f14	0.011791009
227	0xbd0ac8c3	-0.033882868
228	0xbc319a60	-0.0108400285
229	0x3d15ef53	0.03660519
230	0xbd95614f	-0.07293951
231	0xbdbfdf0b	-0.09368714
232	0x3d3d6177	0.046235528
233	0xbcdc30e2	-0.026878778
234	0xbb977858	-0.0046225004
235	0xbd282947	-0.04105499
236	0x3bb2879a	0.005448294
237	0xbdb6efc5	-0.08932451
238	0xbdc06f6d	-0.09396253
239	0x3da760a2	0.08172728
240	0x3c32de0d	0.010917199
241	0xbd02a0da	-0.03189168
242	0x3da3db89	0.080008574
243	0x3db14f29	0.08657677
244	0xbda36324	-0.07977894
245	0x3dc560c8	0.096376
246	0x3cafa872	0.021442626
247	0xbd76a2c9	-0.060213838
248	0xbda4f9fe	-0.08055495
249	0xbd8f97a3	-0.07011344
250	0x3c96f020	0.018425047
251	0x3c35ea8d	0.011103285
252	0x3d04c950	0.03241855
253	0x3d62e7f3	0.055396985
254	0x3b7f0533	0.003891301
255	0xbda075ff	-0.07835006

fc2.bias f4 [50]
0	0xbd18bf94	-0.03729208
1	0x3d5ff068	0.05467263
2	0xbd8eb189	-0.06967456
3	0x3d852734	0.06501618
4	0x3db01204	0.08597186
5	0x3be86a7e	0.007092773
6	0xbd954ae9	-0.072896786
7	0xbb7fdf56	-0.003904303
8	0xbd8521c3	-0.0650058
9	0xbca972a8	-0.020684555
10	0xbdaea327	-0.085272126
11	0xbca3286b	-0.019916734
12	0xbcd484b0	-0.025942177
13	0x3d9d1b36	0.07671206
14	0xbd7f9a75	-0.06240316
15	0xbd4ef5b1	-0.05052728
16	0x3e14fd00	0.14549637
17	0x3dad5d91	0.08465112
18	0x3c1a2b1d	0.009409693
19	0x3d3fbf6b	0.04681341
20	0x3d80a82d	0.06282077
21	0x3c90176c	0.017589293
22	0xbc6c08f8	-0.014406435
23	0xbda7b9b0	-0.08189714
24	0xbd3c7fd8	-0.04602036
25	0xbcb6984a	-0.022289414
26	0x3d803d74	0.06261721
27	0x3d126415	0.035739977
28	0x3e0121e4	0.12610584
29	0x3d839cbf	0.06426381
30	0xbc44b0d6	-0.012005052
31	0xbdee4bac	-0.11635527
32	0x3dbbf7a8	0.09178096
33	0xbd9b0e52	-0.07571091
34	0xbd1356e6	-0.035971545
35	0xbcce2c4e	-0.02516761
36	0xbd8513c8	-0.064979136
37	0x3d5e7761	0.054313067
38	0x3cce59d2	0.025189314
39	0x3db3c34e	0.08777486
40	0x3d993706	0.07481198
41	0x3d792353	0.060824703
42	0x3ca1b252	0.01973835
43	0xbc6aa7ff	-0.01432228
44	0x3d42a5ff	0.047521587
45	0x3d457ec2	0.04821659
46	0x3d5d59fc	0.054040894
47	0x3d222fec	0.039596483
48	0xbdb0bcc4	-0.08629754
49	0xbd788617	-0.060674753

fc3.weight f4 [1, 50]
0	0xbbaa8781	-0.0052041416
1	0xbb90259b	-0.004399014
2	0xbd11d35d	-0.035601962
3	0x3e163036	0.14666829
4	0x3db17a56	0.08665912
5	0xbd927a1d	-0.071521975
6	0x3a34ff19	0.00069044676
7	0xbc0c78b7	-0.008573703
8	0xbd9e0829	-0.077164
9	0x3df88e42	0.121365085
10	0xbd08f546	-0.033437036
11	0x3e2641eb	0.16236083
12	0x3d65d4e1	0.05611122
13	0xbd89a6ea	-0.067212895
14	0x3c0240fe	0.007950066
15	0xbd9f10a5	-0.077668466
16	0x3dad77c9	0.08470113
17	0x3dc1802c	0.09448275
18	0xbda31774	-0.07963458
19	0x3d5b52ca	0.05354575
20	0xbdbecb8e	-0.09316169
21	0xbcaef7d2	-0.021358404
22	0xbcbfae24	-0.023398466
23	0xbc34c81f	-0.011034041
24	0x39ae632b	0.00033261752
25	0xbd26c368	-0.040713698
26	0xbdcce7bc	-0.10005137
27	0xbd336abe	-0.04380297
28	0xbcf02d82	-0.029318575
29	0xbd44c9f8	-0.048044175
30	0x3c7e6c97	0.0155288195
31	0x3b28cce5	0.0025756892
32	0x3dbdfadd	0.09276364
33	0xbbae94ee	-0.0053278124
34	0xbadc9919	-0.0016830295
35	0x3e0142d2	0.12623146
36	0x39183195	0.0001451432
37	0x3e150a24	0.1455465
38	0x3db1c14f	0.08679449
39	0x3c472df0	0.012156948
40	0x3df6ca48	0.12050301
41	0xbd21f427	-0.039539482
42	0xbd53ff30	-0.051757038
43	0x3dc351f5	0.095371164
44	0x3dba4148	0.09094483
45	0xbd54114f	-0.05177432
46	0x391376b0	0.00014063227
47	0xbd3e962f	-0.046529945
48	0xbdd55af4	-0.104177386
49	0xbcb5e1ac	-0.022202335
