models/classifiers/MLP_basic2_emb2_v3_bm.pth (torch, 490004 bytes, 5 tensors)

fc1.weight f4 [100, 1166]
-0.02161604 0.0058394074 -0.015216275 0.00045503452 -0.0015243118 0.022954047 -0.022965044 0.013361243
0.048831213 -0.031016897 -0.0035820699 -0.020388613 -0.0039544255 0.024126556 -0.04715676 0.024896089
-0.018582618 -0.0007723817 -0.013934022 -0.028815417 -0.030618435 -0.013483389 -0.0007649515 0.04497672
0.05280031 -0.058487665 0.009258104 0.030195419 -0.0070843343 0.014240878 -0.028313925 0.044736367
0.00025778214 6.5521854e-05 -0.00829447 0.0025636395 -0.02981072 -0.0108804265 0.007613296 0.018903486
0.015970401 0.0062225875 0.028520718 -0.010285135 0.020997193 0.0006309168 -0.0031921277 0.032994807
0.022098942 0.07821239 0.002653085 0.007943123 -0.015713025 0.015225497 0.0054471577 -0.0036923273
-0.0060850466 -0.024724348 0.04154594 0.024855042 -0.010246741 0.019006645 -0.008203848 -0.008327181
-0.07580196 -0.006533104 0.007086388 0.016053146 0.007658891 0.022530006 0.019418048 -0.0054084403
-0.019934338 -0.008076823 -0.003247722 0.01956385 -0.00964511 -0.006360121 -0.037725825 0.049626935
-0.0006264475 -0.04341122 0.0057055955 -0.040288173 0.018890295 -0.020854725 0.016420195 -0.016615594
0.024555052 -0.043293636 0.030757176 0.0056467704 -0.05435043 0.013107137 -0.036968563 -0.02278152
0.00018674009 -0.02849835 0.020724066 -0.023195082 0.019102002 -0.03882138 0.038489442 0.03146743
0.008502177 -0.022110209 -0.022295495 0.032664858 -0.04133178 0.020820778 -0.027161706 0.008212641
0.0010876056 0.017883535 -0.031704813 -0.01874645 0.021414304 0.01997358 0.0011013844 0.026694957
-0.031173043 0.0064900913 -0.030483125 0.0113444375 -0.03292625 -0.011980237 0.04003991 0.05518664
0.006684928 0.011820223 0.028357185 0.05922768 0.006586111 0.02312912 -0.0482286 -0.013439528
0.029595088 0.0027244417 0.014747489 -0.038670793 0.0034720812 0.028636271 -0.024700627 -0.035220746
0.04425876 0.0035552736 0.034267474 -0.00980083 -0.028406544 -0.013327486 -0.02095673 -0.020471772
0.0016729125 -0.010495738 0.022550106 0.020419164 -0.030220874 -0.008854263 -0.028560018 0.00073312904
0.0025886265 -0.02880774 0.021165708 -0.015733385 0.022855151 0.012568505 -0.0072135283 0.033886634
-0.015853489 -0.019783003 -0.032012746 0.022137392 0.0010470262 0.054656807 0.0045135766 0.00380856
-0.012046884 -0.015927678 -0.026638513 0.036797 -0.022790153 0.010187738 0.051544495 -0.01996278
0.02043226 -0.00053328514 -0.038187 0.0011045303 -0.026779078 0.012179418 0.020230426 -0.040463697
0.015024698 0.013268413 0.006103621 -0.01116113 -0.017790945 0.016226681 -0.012657858 -0.017586071
-0.0011654292 -0.024851019 0.024388157 0.051226366 0.010869756 -0.030749489 0.023076165 -0.013547823
-0.032379575 0.00011016951 0.012116877 -0.021146739 0.019350387 0.0047058654 0.007285988 -0.0049878894
0.0031116328 -0.02371944 0.042885356 0.017651694 0.018999005 -0.03877839 0.01579414 -0.014908917
-0.0064123203 0.044896036 0.00018416962 0.030408118 -0.012010898 0.0011331988 0.056339297 0.034424063
-0.013861952 -0.013783309 0.015694767 -0.054397166 0.008493279 -0.0187243 0.018795379 0.025808217
-0.025843352 0.030711971 0.009210937 -0.039779738 0.016971186 -0.03452621 0.02318783 -0.010259682
-0.037862893 0.013833462 -0.0012606783 -0.040502913 -0.0054232264 -0.017421508 -0.01600258 0.004219315
00000000: 1f14 b1bc 8058 bf3b af4d 79bc b391 ee39
00000010: 6bcb c7ba 200a bc3c 3021 bcbc 1de9 5a3c
00000020: 3d03 483d 2617 febc 29c1 6abb 0506 a7bc
00000030: 2094 81bb 0ea5 c53c 7227 41bd e2f2 cb3c
00000040: 933a 98bc a979 4aba 864b 64bc 4f0e ecbc
00000050: 83d3 fabc 6fe9 5cbc 0787 48ba 8239 383d
00000060: 2345 583d c390 6fbd 4daf 173c 625c f73c
00000070: b423 e8bb 9252 693c 9bf2 e7bc 7b3d 373d
00000080: ef26 8739 c768 8938 87e5 07bc bc02 283b
00000090: 9c35 f4bc d143 32bc f578 f93b 7cdb 9a3c
000000a0: 5cd4 823c d9e6 cb3b 48a4 e93c fc82 28bc
000000b0: 4e02 ac3c 1c64 253a 0433 51bb 9025 073d
000000c0: d708 b53c d12d a03d 61df 2d3b df23 023c
000000d0: 9ab8 80bc 5d74 793c 127e b23b f9fa 71bb
000000e0: 1265 c7bb b78a cabc 132c 2a3d cd9c cb3c
000000f0: f2e1 27bc d3b3 9b3c 6f69 06bc bb6e 08bc
00000100: 0f3e 9bbd a613 d6bb ee34 e83b e381 833c
00000110: 6ff7 fa3b d990 b83c 9912 9f3c 4939 b1bb
00000120: 564d a3bc a754 04bc bcd7 54bb 5e44 a03c
00000130: 8606 1ebc 9068 d0bb 6586 1abd 9d45 4b3d
00000140: 2e38 24ba f7cf 31bd 01f6 ba3b 3605 25bd
00000150: d2bf 9a3c 87d7 aabc a583 863c 6d1d 88bc
00000160: ad27 c93c ab54 31bd 79f6 fb3c 8b08 b93b
00000170: 8e9e 5ebd 51bf 563c 596c 17bd 4fa0 babc
00000180: a9cf 4339 5f75 e9bc 84c5 a93c 9d03 bebc
00000190: cd7b 9c3c 2b03 1fbd 1ba7 1d3d fee3 003d
000001a0: b74c 0b3c 7820 b5bc 0ba5 b6bc 96cb 053d
000001b0: 834b 29bd 5690 aa3c 3a82 debc 508e 063c
000001c0: fd8d 8e3a 7e80 923c e8dc 01bd 2892 99bc
000001d0: 0d6d af3c a29f a33c 545c 903a 62af da3c
000001e0: 9c5e ffbc d5aa d43b bfb7 f9bc 05de 393c
000001f0: addd 06bd c248 44bc e300 243d 630b 623d
00000200: 3e0d db3b 9ca9 413c 544d e83c b998 723d
00000210: 4ed0 d73b 4879 bd3c 5a8b 45bd 7731 5cbc
00000220: 6671 f23c 8c8c 323b 749f 713c 4465 1ebd
00000230: db8b 633b 9d96 ea3c f858 cabc a143 10bd
00000240: ac48 353d 98ff 683b 0d5c 0c3d a993 20bc
00000250: d7b4 e8bc 875b 5abc 73ad abbc 6bb4 a7bc
00000260: a145 db3a 51f6 2bbc 00bb b83c 1746 a73c
00000270: c491 f7bc 7911 11bc b3f6 e9bc 752f 403a
00000280: f2a5 293b 36fe ebbc b563 ad3c 4de3 80bc
00000290: ba3a bb3c 21ec 4d3c 765f ecbb b6cc 0a3d
000002a0: 2ddf 81bc f70f a2bc cc1f 03bd 7a59 b53c
000002b0: 5f3c 893a d1df 5f3d a0e6 933b 0999 793b
000002c0: 4b60 45bc c37a 82bc 0339 dabc 73b8 163d
000002d0: 6ab2 babc 78ea 263c 5220 533d fc88 a3bc
000002e0: 8e61 a73c 29cc 0bba f969 1cbd e3c5 903a
000002f0: cc5f dbbc 2e8c 473c 47ba a53c 43bd 25bd
00000300: 272a 763c c263 593c e200 c83b 2cdd 36bc
00000310: 51be 91bc d1ed 843c e862 4fbc aa10 90bc
00000320: 51c1 98ba 5d94 cbbc acc9 c73c bdd2 513d
00000330: 1017 323c 5ae6 fbbc 3a0a bd3c b0f7 5dbc
00000340: 72a0 04bd ce0a e738 de85 463c ed3b adbc
00000350: b484 9e3c a933 9a3b 4cbf ee3b 7371 a3bb
00000360: 89ec 4b3b 454f c2bc 8ea8 2f3d 499a 903c
00000370: cda3 9b3c 17d6 1ebd b662 813c 8844 74bc
00000380: 711e d2bb e8e4 373d a81d 4139 721a f93c
00000390: 5cc9 44bc d887 943a 09c4 663d 3f00 0d3d
000003a0: 3e1d 63bc 63d3 61bc 5092 803c 90cf 5ebd
000003b0: 6527 0b3c b463 99bc c4f8 993c c16b d33c
000003c0: 70b5 d3bc ac97 fb3c 78e9 163c 14f0 22bd
000003d0: 2807 8b3c 5b6b 0dbd 67f4 bd3c 3a18 28bc
000003e0: 1f16 1bbd bfa5 623c 583d a5ba 62e6 25bd
000003f0: 52b5 b1bb 8db7 8ebc d817 83bc 2e42 8a3b

fc1.bias f4 [100]
-0.025930898 0.05898862 0.11059384 -0.024841275 0.0879338 0.06276529 0.013495425 -0.110189304
-0.033050645 0.02545122 0.044815376 0.011784012 -0.00070908613 -0.12176644 -0.0013440066 -0.011580246
0.0090470575 0.2853023 -0.028480593 0.13940008 -0.10597131 0.006323644 0.050461426 0.060753394
0.051296342 -0.014665484 0.001121683 -0.038464192 0.01502339 0.6543411 0.0043859347 0.0018447264
0.21633004 -0.025472978 -0.00636305 0.05871815 0.0037768073 -0.1676737 -0.014375244 -0.07115107
0.020995278 -0.0026756646 0.06756153 -0.09292624 0.112372525 0.3019867 -0.30841133 -0.09834934
0.075336106 -0.004766819 0.07248968 -0.084316775 -0.00653366 0.18427637 0.066748455 0.17970769
0.16896151 0.2962122 0.11872769 0.49909544 0.0561273 0.03922776 -0.1765193 -0.025333965
0.011125741 0.056366056 0.08170845 -0.093993634 -0.027888404 0.08101956 -0.010334708 -0.04488602
0.05062545 -0.0026959002 0.0070516337 -0.0052005053 -0.10542698 0.11757242 0.048096675 -0.011332583
-0.026967186 0.059130657 0.02364345 0.05736491 0.026582208 -0.085146226 0.19781049 0.11400563
0.14460245 0.084105305 -0.027404334 -0.011023917 -0.12897846 0.12408476 0.0023906773 0.13814576
0.04836682 -0.015347869 -0.042861834 -0.012257139
00000000: 096d d4bc 0d9e 713d 067f e23d ee7f cbbc
00000010: a316 b43d 178b 803d ea1b 5d3c eeaa e1bd
00000020: 1d60 07bd 147f d03c 5490 373d bb11 413c
00000030: f7e1 39ba af60 f9bd 6129 b0ba 12bb 3dbc
00000040: 1c3a 143c 2513 923e 2250 e9bc e5be 0e3e
00000050: 7c07 d9bd 9236 cf3b a4b0 4e3d 8dd8 783d
00000060: 1d1c 523d 8047 70bc 7005 933a a18c 1dbd
00000070: aa24 763c e682 273f e3b7 8f3b bfca f13a
00000080: 9f85 5d3e b5ac d0bc 2281 d0bb 7182 703d
00000090: 5084 773b a8b2 2bbe 2586 6bbc a7b7 91bd
000000a0: 4afe ab3c 345a 2fbb b35d 8a3d 1d50 bebd
000000b0: 9123 e63d 009e 9a3e 17e8 9dbe 616b c9bd
000000c0: d149 9a3d fa32 9cbb 7875 943d 46ae acbd
000000d0: 5018 d6bb f2b2 3c3e 6ab3 883d 4b05 383e
000000e0: 3f04 2d3e 20a9 973e 8127 f33d 7089 ff3e
000000f0: bde5 653d 4aad 203d 7ac1 34be 2d89 cfbc
00000100: bd48 363c 18e0 663d c356 a73d bc7f c0bd
00000110: 3976 e4bc 95ed a53d e852 29bc 67da 37bd
00000120: a25c 4f3d b3ad 30bb 6411 e73b 0069 aabb
00000130: 1aea d7bd cfc9 f03d 0501 453d 4cac 39bc
00000140: 4aea dcbc fd32 723d e9af c13c 78f7 6a3d
00000150: eec2 d93c 2561 aebd d58e 4a3e c97b e93d
00000160: aa12 143e 673f ac3d 0e7f e0bc a99d 34bc
00000170: ee12 04be 2720 fe3d e9ac 1c3b 1576 0d3e
00000180: 491c 463d a175 7bbc e48f 2fbd 2bd2 48bc

fc2.weight f4 [50, 100]
0.0651604 0.14219172 0.033981755 0.09453178 0.094280384 0.17685013 -0.07618435 -0.088325016
-0.1512526 0.1548142 -0.10103564 -0.04020633 0.009078868 -0.0037737514 -0.07772986 -0.023988267
0.04247716 0.16410378 0.123801365 0.14817423 -0.046598565 -0.0017075873 0.17173724 0.04620351
0.13587472 0.16590677 0.053480957 0.023469156 -0.16271159 -0.0070469687 0.11105206 0.0010981931
-0.05590832 -0.12540218 -0.04411798 0.13981721 -0.07665832 -0.057361692 0.09334512 -0.05515374
0.06697906 -0.029011346 -0.18343277 -0.11063386 -0.021592595 0.5555848 -0.011928306 -0.1356327
-0.07381856 -0.09376414 0.043503582 0.009615071 0.017790599 -0.14698434 0.15466301 -0.12006427
-0.09340265 -0.12786208 0.017561344 -0.016823104 0.043598875 -0.1342727 0.009983587 0.0052591716
-0.063334614 0.17492543 0.10229673 -0.05906926 0.13221262 0.10077947 0.08151345 0.12464727
0.25652924 0.017646363 0.23271967 0.18252695 -0.05904278 0.043219242 0.08815225 -0.029580249
-0.1276301 -0.10455311 0.15020402 0.16830721 0.18324825 -0.15548784 0.23151018 -0.03464673
0.3200415 -0.02146833 -0.004391299 0.012897417 -0.16625991 -0.0038458914 0.014862284 -0.13576771
0.266506 0.04906411 -0.11177186 0.0135456845 -0.016285585 0.11033889 -0.022698376 0.04004862
0.042940814 0.01429089 0.074230686 0.06839184 -0.016946366 0.14790106 -0.07520926 0.09411913
-0.06503638 -0.039949447 -0.052029457 -0.08951288 0.10604935 -0.072934024 0.00075996603 0.0021650216
0.05654327 0.0684937 0.108580805 -0.029336724 0.028271154 -0.04238917 0.01400627 0.034725346
-0.04263074 0.06656183 -0.07956121 0.0038851304 -0.108512476 -0.07517126 -0.04808268 0.10057982
0.017315552 0.0058680032 -0.066776596 0.06388966 0.07561251 -0.021117494 -0.0037637996 -0.0534613
0.08237963 -0.013197993 0.04780875 0.017379323 0.09119174 0.024721907 0.17987001 -0.09569594
0.009951129 -0.03420734 0.047018196 0.069026105 -0.0146151185 -0.0619565 -0.054623377 0.07524183
-0.08596109 0.052946135 -0.0907193 -0.074737474 -0.048156288 0.04574681 0.03998306 -0.027270822
0.057180464 0.04188208 0.10409594 0.07261058 0.0868929 -0.021259371 -0.038410842 0.096453734
-0.04034751 -0.08292877 0.17421487 0.039714042 -0.031952955 -0.02082217 0.055864435 0.051825095
0.10123906 -0.055210304 -0.11215044 -0.026041739 -0.010614685 -0.039805856 -0.08859213 -0.02823378
-0.057806827 -0.05427679 -0.09373753 -0.07274003 0.08197564 0.10368841 -0.08093969 -0.01316001
-0.09664822 -0.0046017403 -0.039410356 -0.016796658 -0.060998205 -0.08856497 -0.1031312 -0.09219129
-0.05730579 0.03325179 -0.13537689 0.03358143 -0.013166152 0.0066324696 0.018862806 0.05947219
0.03377687 -0.048088513 -0.013330271 0.0915747 0.035687786 -0.072687104 -0.014904415 0.07102929
0.023199368 -0.05679247 0.06523602 0.006749339 0.035763424 -0.07253562 0.078778416 0.039427377
-0.13685633 -0.07176866 0.042580348 -0.06956655 0.02844479 -0.01658991 -0.07661523 -0.060370468
-0.055124428 -0.09471656 0.035209615 -0.0012035012 -0.077904694 -0.02215506 0.037629787 -0.04097026
-0.11113557 -0.0152279 -0.041538272 -0.04574381 0.025948003 0.013558114 0.056091964 -0.1157835
00000000: d172 853d b59a 113e 7430 0b3d e199 c13d
00000010: 1316 c13d 3318 353e 8a06 9cbd bfe3 b4bd
00000020: f6e1 1abe 9d87 1e3e c6eb cebd 65af 24bd
00000030: 88bf 143c 0b51 77bb d530 9fbd 0b83 c4bc
00000040: 88fc 2d3d d20a 283e 928b fd3d fcba 173e
00000050: 23de 3ebd 1fd1 dfba e3db 2f3e e43f 3d3d
00000060: be22 0b3e 77e3 293e d90e 5b3d 6342 c03c
00000070: de9d 26be 42ea e6bb 436f e33d 3ff1 8f3a
00000080: 1f00 65bd 6e69 00be 0eb5 34bd 3e2c 0f3e
00000090: 0aff 9cbd 18f4 6abd ba2b bf3d e3e8 61bd
000000a0: 512c 893d 34a9 edbc cdd5 3bbe 0194 e2bd
000000b0: f4e2 b0bc ce3a 0e3f f16e 43bc 4ce3 0abe
000000c0: 2f2e 97bd 6a07 c0bd d030 323d 8888 1d3c
000000d0: 97bd 913c 1083 16be fb5f 1e3e 42e4 f5bd
000000e0: e349 bfbd 47ee 02be cfdc 8f3c 9bd0 89bc
000000f0: bc94 323d c87e 09be 3392 233c 2155 ac3b
00000100: 94b5 81bd a71f 333e f380 d13d 9cf2 71bd
00000110: bf62 073e 7765 ce3d 86f0 a63d 1147 ff3d
00000120: cd57 833e 1b8f 903c 114e 6e3e 58e8 3a3e
00000130: d8d6 71bd a906 313d 2b89 b43d 4752 f2bc
00000140: 77b1 02be f11f d6bd 15cf 193e ba58 2c3e
00000150: 6ea5 3b3e 3438 1fbe 0111 6d3e bbe9 0dbd
00000160: 7bdc a33e 5ade afbc e3e4 8fbb b04f 533c
00000170: 0a40 2abe 5a0b 7cbb f080 733c b106 0bbe
00000180: 7973 883e 73f7 483d a5e8 e4bd b8ee 5d3c
00000190: 5969 85bc 5bf9 e13d f2f1 b9bc 060a 243d
000001a0: b5e2 2f3d 5624 6a3c 4206 983d 0511 8c3d
000001b0: 1bd3 8abc 6073 173e 5007 9abd 88c1 c03d
000001c0: cb31 85bd 08a2 23bd d71c 55bd 8752 b7bd
000001d0: 6730 d93d 6f5e 95bd 7538 473a 09e3 0d3b
000001e0: ea99 673d 6d46 8c3d 9d5f de3d 9253 f0bc
000001f0: e898 e73c 44a0 2dbd 8e7a 653c 2a3c 0e3d
00000200: 929d 2ebd 9251 883d fdf0 a2bd ac9d 7e3b
00000210: ca3b debd 64f3 99bd 58f2 44bd cbfc cd3d
00000220: 58d9 8d3c 6148 c03b 2bc2 88bd 95d8 823d
00000230: bbda 9a3d 98fe acbc 14aa 76bb 3cfa 5abd
00000240: a7b6 a83d 653c 58bc 1cd3 433d 155f 8e3c
00000250: bcc2 ba3d 9985 ca3c d82f 383e 3cfc c3bd
00000260: 0f0a 233c ff1c 0cbd 2796 403d 8f5d 8d3d
00000270: 4074 6fbc 19c6 7dbd c3bc 5fbd 6318 9a3d
00000280: 5e0c b0bd 0cde 583d 0acb b9bd f60f 99bd
00000290: 873f 45bd 0261 3b3d 47c5 233d 0f67 dfbc
000002a0: 1036 6a3d 8b8c 2b3d 4130 d53d dbb4 943d
000002b0: e8f4 b13d 2228 aebc b054 1dbd 8989 c53d
000002c0: 6e43 25bd 8fd6 a9bd 6265 323e 31ab 223d
000002d0: 1ae1 02bd 4193 aabc 1bd2 643d 8d46 543d
000002e0: 6d56 cf3d 3324 62bd 21af e5bd 7c55 d5bc
000002f0: 37e9 2dbc 770b 23bd ca6f b5bd 874a e7bc
00000300: dac6 6cbd 5751 5ebd 76f9 bfbd baf8 94bd
00000310: d8e2 a73d 975a d43d b5c3 a5bd 159d 57bc
00000320: 81ef c5bd 32ca 96bb c16c 21bd 2599 89bc
00000330: 41d9 79bd 8d61 b5bd 7336 d3bd c9ce bcbd
00000340: 7ab9 6abd 0733 083d 3da0 0abe ae8c 093d
00000350: d8b6 57bc 3055 d93b 2c86 9a3c 1c99 733d
00000360: 9e59 0a3d 76f8 44bd 3567 5abc 848b bb3d
00000370: 5b2d 123d fadc 94bd a631 74bc ce77 913d
00000380: 9a0c be3c 399f 68bd 769a 853d 8f29 dd3b
00000390: ab7c 123d 8e8d 94bd 9456 a13d 9a7e 213d
000003a0: 1124 0cbe 72fb 92bd bb68 2e3d e878 8ebd
000003b0: 0c05 e93c 90e7 87bc 72e8 9cbd 0647 77bd
000003c0: 27ca 61bd c1fa c1bd f537 103d cdbe 9dba
000003d0: 7f8c 9fbd 877e b5bc b121 1a3d 6ed0 27bd
000003e0: 0c9b e3bd 717e 79bc 0924 2abd dc5d 3bbd
000003f0: e890 d43c da22 5e3c b0c0 653d e61f edbd

fc2.bias f4 [50]
-0.050894186 0.02071735 -0.036657024 -0.034525 -0.074155994 -0.03859887 0.13116862 0.118373476
-0.00308536 -0.12336379 -0.028200498 -0.023037793 0.029837135 -0.08033876 0.6239896 0.07675827
-0.12542057 -0.08982418 -0.117448784 -0.01779209 0.028528096 0.54748535 -0.09539013 -0.13722825
-0.031951014 -0.08056743 0.020226514 0.03939953 0.04424857 0.018025907 0.031661298 0.039399303
-0.0019050586 0.014843992 -0.33603197 -0.05514602 -0.009703916 -0.120116115 0.11238114 0.0056723687
0.008618278 -0.14626223 -0.03536396 -0.0030570978 0.046761442 -0.10064422 0.04341313 0.30869022
0.028535517 0.084943876
00000000: 6c76 50bd 6fb7 a93c ad25 16bd 166a 0dbd
00000010: 19df 97bd d919 1ebd 1151 063e cb6d f23d
00000020: c033 4abb 28a6 fcbd bb04 e7bc c1b9 bcbc
00000030: 026d f43c a688 a4bd c8bd 1f3f 7133 9d3d
00000040: 406e 00be bdf5 b7bd fd88 f0bd b8c0 91bc
00000050: c1b3 e93c 0028 0c3f e75b c3bd 9085 0cbe
00000060: 11df 02bd 8900 a5bd 13b2 a53c 6761 213d
00000070: fd3d 353d 11ab 933c 47af 013d 2a61 213d
00000080: 29b3 f9ba 3734 733c 620c acbe cbe0 61bd
00000090: 2cfd 1ebc 70ff f5bd 1528 e63d 47df b93b
000000a0: ae33 0d3c c4c5 15be cdd9 10bd 9759 48bb
000000b0: ed88 3f3d 8f1e cebd f7d1 313d a50c 9e3e
000000c0: 51c3 e93c 0ef7 ad3d

fc3.weight f4 [1, 50]
0.06413101 -0.0032537805 -0.05789169 -0.008879856 0.02785554 0.04338708 0.07892204 0.039599784
-0.006733742 -0.0389374 0.13844386 -0.117964745 -0.15491502 -0.0061792955 0.15753043 0.12844726
0.0059513384 -0.024006467 -0.11356218 0.14455658 0.0016700537 0.03844806 0.09673267 -0.039403785
-0.4584889 -0.13120992 0.01113485 0.002924181 -0.013577395 0.0012661301 -0.009199635 -0.06190802
-0.012666486 0.004317793 -0.03657717 -0.19215062 0.016503355 -0.050531726 0.046314053 0.16345493
0.31524277 -0.046450954 0.16149223 0.025690831 -0.045751013 -0.07294429 0.006676375 0.03384027
-0.16432554 0.16281547
00000000: 1e57 833d 613d 55bb d61f 6dbd d17c 11bc
00000010: 4d31 e43c a7b6 313d e1a1 a13d 6233 223d
00000020: b9a6 dcbb d37c 1fbd 3ac4 0d3e 8097 f1bd
00000030: 0ba2 1ebe b07b cabb a84f 213e ae87 033e
00000040: 7203 c33b 36a9 c4bc 4a93 e8bd a406 143e
00000050: b4e5 da3a b77b 1d3d c71b c63d dd65 21bd
00000060: 0fbf eabe e55b 06be f26e 363c 9ea3 3f3b
00000070: b973 5ebc 47f4 a53a 11ba 16bc 4493 7dbd
00000080: 1887 4fbc 467c 8d3b f1d1 15bd 22c3 44be
00000090: 0b32 873c 5bfa 4ebd ceb3 3d3d bb60 273e
000000a0: 8067 a13e 5b43 3ebd 385e 253e 9475 d23c
000000b0: 6a65 3bbd d163 95bd 7ec5 da3b 189c 0a3d
000000c0: f444 28be 19b9 263e
