models/classifiers/MLP_basic_RPAonly_all_bm.pth (torch, 490098 bytes, 5 tensors)

fc1.weight f4 [100, 1166]
00000000: 9dc2 213e 5681 86be 6092 bd3e 8ee5 56be
00000010: 47d1 d93c b689 053e 52b1 f33d cff5 513e
00000020: e441 1a3f bd82 0abe 912d c4be ea73 383d
00000030: f576 523d 28c9 f1bc 88bd d33d ffb9 15be
00000040: 6b0f 0e3f d148 21bf a2ff e13d 5a45 fd3e
00000050: 9435 073f 297c 30bd 3038 babe 9690 0fbf
00000060: edcb d0be 7c03 afbe 1688 093f f6cf 003f
00000070: 2f1c 7f3e f906 4d3d ddff ba3e 3d59 d43b
00000080: 33cb cdbe 7fec 503e 06a7 98bd 2d5d 543e
00000090: fbe7 8ebe d6f5 ea3e 9826 d5ba 559c f5be
000000a0: 9b36 48be af46 90be 2de6 513d f661 963e
000000b0: bf10 5cbf 70da 543c 83ee 4cbf 2276 dcbe
000000c0: 5698 56be 78fc 90bd 3b18 97bf 4fa5 3cbe
000000d0: 9f7f 193f cad7 32bf 337c c23c a806 5bbe
000000e0: 9d3e f93e a4fd 40bd 3bf1 d43e 358f 1bbf
000000f0: 7804 62be 3a79 60bf ed37 7ebe 25ee cfbe
00000100: f79b ff3e 2633 043f 3d1a d2bc 2ef1 f7be
00000110: f550 d73d 6cc0 72bd 8528 5dbd fb80 3c3f
00000120: c6cf cc3d 4cfd 083f 2584 74be 1134 3fbf
00000130: 1721 35be 9a4b a43e c59c 223e 64ca 813c
00000140: 5e2a c13d b220 483f 3ba9 e5be dfcf d03d
00000150: 8e91 80bd d96a d13e 6d61 23be 0ff8 183f
00000160: 6740 ff3e 8455 913e 48e9 ccbe 483e f33d
00000170: 5760 db3e 553a 7e3e a6af 5fbe 9070 aebd
00000180: 8b6c 85bd a067 cdbe f080 8dbe 97b6 3abd
00000190: 14bb 3dbe 7aef 5e3f 332d b5be 9b01 91be
000001a0: 15c6 8fbe a178 6b3e 22ef c2bc 853c fcbe
000001b0: 2d18 04bd f9e5 6c3d 9e54 e5be fcc2 d53e
000001c0: 467a 0abe 1546 02bb a708 e73e a891 133e
000001d0: a3f4 a83e 2a6a 703f c84d c33d 3080 b33f
000001e0: 0f41 e4be 80b6 abbe 2f0a e43e d9ae b4be
000001f0: ffd0 813d f578 1a3e 6eca b13e 4269 41bf
00000200: d1a1 a0be 107f 80be 0543 cb3e ced6 f3be
00000210: 2ae3 e8be e506 03bf 3452 123e 065e 413f
00000220: 0e82 3a3e 7f99 12be b2a5 f53d 430d 593f
00000230: 304b e2be c4c3 63bf af05 78bd 0970 393e
00000240: 7afc 7bbe 079d 58be 41d9 45be a2c4 09bf
00000250: 26ef 253f 3b20 eabd f49b 85bd 7a9b ba3d
00000260: de80 833d 8464 583c 6174 8bbe dabe 40be
00000270: 840c 6d3e 2563 0bbf 48b8 263e 7c34 25bf
00000280: 09dd d3bd bfa7 bfbe 3f39 a3be 3a09 2b3f
00000290: 0160 17bf 9853 dd3e 4c40 2c3f 5010 08bd
000002a0: d3cf c3be 9d5c e2be b8a2 723f bcc6 f93d
000002b0: be85 21bf e666 1e3c da3f 1cbd 9995 063e
000002c0: 47c2 59bc 852a a63e 748d a83e 4a7c adbe
000002d0: 869d 383e 5408 323e 39b7 64bd 4405 5e3f
000002e0: c3f4 dfbe 5372 88be e83e 7ebe 7903 023f
000002f0: 6d7f 933d 9ee4 f0be be99 003f a098 b3bd
00000300: ef32 b73e 8eb6 8bbf 1482 b4be 8e32 d6bd
00000310: 60b7 e73e bdc2 273e 7103 1cbf 85a0 973e
00000320: 9cef 1c3e 30ad 3bbe 9f5a 81bd ac01 d9be
00000330: edbf 663d 596b b53e e726 dbbe 0115 993e
00000340: 2d1a 0e3c 964c 88bf af7c e1bd bc96 99be
00000350: 514e 013e 11e9 763f a5da 45be ad9e d2be
00000360: 43fb 99bd acc5 db3e c531 b33e 2cb4 053f
00000370: d3b5 f4be 4157 8abd ba00 9a3d f371 5a3e
00000380: 448b f9be 3b61 0bbf 82a1 60bc b206 81be
00000390: cd5d 6dbe 4180 c53d 6ff6 79be 4c19 3e3f
000003a0: d85f 2e3d b849 18bc 5ea0 d9bd bc0f e33e
000003b0: f34c ad3e 37b6 ae3e df62 aabe fa87 7c3e
000003c0: bf8c 3c3f d34c ee3c 313f a83e 79f3 2b3f
000003d0: b4bf a7be 4077 023f dc34 1dbf 916b c2be
000003e0: 5acd a03e ea36 83be 29b1 b5be d65e 1a3f
000003f0: 4d11 1cbd e8bc 3c3f f206 6a3e a845 1bbd
0.15796895 -0.2627055 0.37025738 -0.20986006 0.026589049 0.13040814 0.118990555 0.20503925
0.6025679 -0.13526435 -0.38316014 0.04503242 0.051382978 -0.029514864 0.103388846 -0.14621733
0.55492276 -0.63001734 0.11035086 0.49466974 0.5281613 -0.04308716 -0.36370993 -0.56079996
-0.40780583 -0.34182346 0.53723276 0.50317323 0.24913095 0.050055478 0.36523333 0.0064803646
-0.4019409 0.20402716 -0.07453732 0.20738669 -0.27911362 0.45890683 -0.0016262112 -0.47970834
-0.1955208 -0.28178927 0.051244903 0.29371613 -0.8596305 0.012991533 -0.8005144 -0.43058878
-0.20956549 -0.070794046 -1.180427 -0.18422435 0.5996036 -0.6986052 0.023740863 -0.21389258
0.48680583 -0.04711689 0.41590294 -0.6076539 -0.22072017 -0.8768498 -0.24826021 -0.40611377
0.4992368 0.51640546 -0.025647277 -0.48426193 0.10513488 -0.05926554 -0.05399372 0.7363431
0.10000567 0.535115 -0.23878534 -0.7468882 -0.17688404 0.3208893 0.15880115 0.015843578
0.09431909 0.7817489 -0.44855675 0.10195898 -0.06277762 0.4090183 -0.15955134 0.5975351
0.49853823 0.28385556 -0.4002173 0.118771136 0.4284694 0.2482694 -0.21844348 -0.08517563
-0.065148436 -0.40118122 -0.27637434 -0.045584287 -0.18528396 0.8708416 -0.35386047 -0.28321537
-0.28080812 0.22995235 -0.023795668 -0.49264923 -0.03224962 0.057836507 -0.4479112 0.41750324
-0.13523206 -0.0019878198 0.4512379 0.14411032 0.32999143 0.93911994 0.0953632 1.4023495
-0.44580886 -0.33537674 0.4453902 -0.35289648 0.06338691 0.15085204 0.34724754 -0.75551236
-0.31373456 -0.2509694 0.3969957 -0.4762482 -0.45485812 -0.51182395 0.1428917 0.75534093
0.18213674 -0.14316367 0.119944945 0.8478586 -0.4419799 -0.8897059 -0.060552295 0.18109144
-0.24608031 -0.21153651 -0.19321157 -0.5381566 0.64818037 -0.11431929 -0.06523886 0.09111686
0.06421064 0.013207559 -0.27237228 -0.18822804 0.23149306 -0.5444816 0.16281235 -0.6453321
-0.103448935 -0.37432668 -0.31879613 0.66810954 -0.59130865 0.4322784 0.6728561 -0.03321868
-0.38244495 -0.44211283 0.9477954 0.12196109 -0.630947 0.009668088 -0.03814683 0.13143004
-0.013290948 0.32454315 0.3292042 -0.33883888 0.1802884 0.1738599 -0.055838797 0.86726785
-0.43741426 -0.26649722 -0.24828684 0.5078655 0.07202039 -0.4704942 0.5023459 -0.08769345
0.35781047 -1.0915086 -0.35255492 -0.10458861 0.45257092 0.1638288 -0.6094275 0.29614654
0.15325779 -0.18327785 -0.06316113 -0.42384088 0.05633538 0.35433462 -0.42803118 0.29898837
0.008673233 -1.0648372 -0.1101011 -0.29997814 0.12627532 0.9644938 -0.19321688 -0.41136685
-0.075186275 0.4292425 0.3499891 0.52228045 -0.4779497 -0.067549236 0.0751967 0.2133253
-0.48739064 -0.54445237 -0.013710381 -0.2520042 -0.23180313 0.09643603 -0.24410413 0.7425735
0.042571872 -0.00929492 -0.10626291 0.44347942 0.3384777 0.34123394 -0.33278558 0.24661246
0.7365226 0.029089367 0.3286071 0.67168385 -0.32763445 0.5096321 -0.6140878 -0.37972692
0.3140667 -0.25627834 -0.35486725 0.6030096 -0.038102437 0.7372575 0.22854212 -0.037908226

fc1.bias f4 [100]
00000000: ea8b e0bc 3d7d 0cbc f01c 18bd 05ba 2fbd
00000010: 0411 5f3e bbc1 02bd 2c88 863e 6943 853e
00000020: 69a8 e93c 4593 8d3c b987 513c cc75 8d3c
00000030: bc31 1cbd 4023 463d eafe 143d 333c b8bd
00000040: 9158 29bd 419b 693d 41c0 fc3b 0769 ab3d
00000050: e31d 72bc 48b5 22bc 10db 9a3d fbe3 96bd
00000060: efa1 7e3d 60f4 c2bb 7785 593c 98b7 7d3c
00000070: 540b 0cbd e311 a43c 73ae 313d a88d 4b3e
00000080: a020 a13e 7c4b 78bd 86c1 f53d ede8 abbd
00000090: 1bee c1ba a045 623b 8d23 25b8 2567 9c3d
000000a0: 3a41 783d 13ba 08bd c420 6f3d d90a 97bb
000000b0: 4030 c1bc 93a2 a1bc ccbe 483a 59a3 93bc
000000c0: d722 cc3d 88be f93c ad96 02bd d05b 22bc
000000d0: 6484 03bc 4440 7a3d 24aa e0bc 9fec 953d
000000e0: ffc2 70bd c0bf 1bbc 3938 02bc fbe7 8abc
000000f0: cafc 273c 346d 22bd de91 be3c 9e98 8ebc
00000100: dcf1 453c 7933 00bc c239 22bd 29ee db3c
00000110: 6faf 903c e61d 573a eef1 37bd 72e7 633d
00000120: 79e6 e7bc a5a7 87bd e8dc 163d bf64 263d
00000130: b6f7 03bc 7f31 00bc 1d7a e43d abe8 143d
00000140: 3fed 1dbd d8b3 81bc fc06 dfbb 0176 b13c
00000150: 726c 8f3e 328a bb3a 091a c73d 0636 fa3d
00000160: 7ed3 9a3c 79f0 853d c817 10bd 1bee f03c
00000170: c189 0cbd 2d1a 1ebd 6b83 c23d 0300 debc
00000180: cdc3 88bb 4390 ec3c 57fb 0ebd 838d 50bb
-0.027410466 -0.008574781 -0.037136972 -0.04290201 0.21783835 -0.031923037 0.26275766 0.26027992
0.028522687 0.017282138 0.012788706 0.017268084 -0.038133368 0.04837346 0.036375917 -0.08995857
-0.04134423 0.057032827 0.007713348 0.08369642 -0.014777633 -0.009930916 0.07561314 -0.073677026
0.06216615 -0.005949542 0.013276449 0.015485667 -0.03419049 0.02002806 0.04337926 0.19878256
0.31470203 -0.060618863 0.11999802 -0.083940364 -0.0014795692 0.0034526363 -3.9372175e-05 0.07636861
0.06060908 -0.03338058 0.058380857 -0.0046094474 -0.023582578 -0.019730842 0.00076578255 -0.018022226
0.09967583 0.03048636 -0.031881977 -0.009909585 -0.00802717 0.061096445 -0.02742488 0.073205225
-0.058779713 -0.009506166 -0.007947975 -0.01695632 0.010253141 -0.039654925 0.023262914 -0.017406758
0.01208159 -0.007824772 -0.039605863 0.026846962 0.017661778 0.00082060543 -0.044908457 0.055640645
-0.02830814 -0.066237725 0.036831766 0.040623423 -0.008054664 -0.007824301 0.11156104 0.036354702
-0.038556334 -0.015832826 -0.0068062525 0.021662714 0.28012425 0.0014308153 0.09721763 0.122173354
0.018899675 0.06540007 -0.03517893 0.029410413 -0.03431106 -0.038599182 0.09497722 -0.027099615
-0.004173732 0.028877383 -0.034907665 -0.0031822629

fc2.weight f4 [50, 100]
00000000: e077 b63c aac5 76bd a879 83bd 467e 9f3d
00000010: 36de 813e 40ea ab3d 5847 91bc 1184 473e
00000020: 7996 013e 5327 22be 1c42 1a3d 5cc5 8abb
00000030: d084 963d 28c2 ac3d 3c6a 873d 6603 82bc
00000040: b1c2 843d 9fdb eb3b 5820 9d3a a5cb 0b3e
00000050: df49 c63d 18e8 8cbc 2937 353e 5996 64bd
00000060: 6b03 653d 4b90 be3c 382c 913d 0bfb fa3c
00000070: 563a 893d 8a0e 843d c3c6 b9bd c0a6 d43d
00000080: a32c e73d 9041 2a3d cee2 2cbd 1c31 833d
00000090: 2d36 a3ba 26f4 b43d ae77 823c 498b f93b
000000a0: 3be9 59bd 26f5 913d c8ac f73c b853 dabc
000000b0: 3171 afbd 23e2 a8bd 343b a8bd c5df ac3d
000000c0: 581a 233e 2b2e c0bc 501b 19bd a8fb 8cbd
000000d0: 6705 83bd 61c8 023e 1f59 f13d d234 ef3d
000000e0: 56c2 bb3d 5192 a9bd f47d bcbd 711d 7ebd
000000f0: 20c8 243d 9411 a83d c92f f4bc bf14 a83d
00000100: 1e71 0b3d 07e5 c73d 14f6 adbd b9c2 88bd
00000110: 7676 9abd 1436 59bd cfd0 e1bd cba8 203a
00000120: b84c 03bc 9791 703d 81f4 abbd aeb7 05bc
00000130: f1a3 c73d 6631 263d 87ba 023e 7acb bb3c
00000140: b3cf 05b9 ca40 4ebd c491 893d f1b8 9abd
00000150: 2453 d03d 4c6e 2f3d e4a2 263e bc7a c43c
00000160: 58fe febc 4f2c 1a3e 7b08 91bd 2e65 ad3c
00000170: 1976 303d 44e8 993d 9134 d43d f03c 8a3d
00000180: 10c6 a03d bb99 783c a247 33bd 7331 203d
00000190: bb92 79bd d67d 16bd c231 3dbd 4d54 823c
000001a0: 5594 b8bd beb0 b73d aec9 123e 9a71 07bd
000001b0: 5ddf c73c d813 87bd 491e cdbd 2a41 0e3c
000001c0: e612 63bb b338 5f3d 944d e6bc 9b33 7d3d
000001d0: b8f8 573d 5280 643d 1d95 f73c 4191 6a3d
000001e0: efa0 64bd 7f13 1bbd 47dc 3b3d bcda 85bd
000001f0: f0d3 71bd eae9 0b3c 0809 37bd e6c3 dfbd
00000200: 7d1e ee3a 38cc c5bd 6976 68bd d879 eb3c
00000210: 9f0b 393d e4ea e0bd ad1a 2cbe 382a a3bd
00000220: eb7e 65bd 1c22 51bd 89fd 50bc 3968 763d
00000230: 6202 c2bd 4a51 2abc 3508 d23c 641e 6f3b
00000240: 7d73 b03d 649f a53d eacc 4abd 7a55 5abd
00000250: 984e 82bd 0c51 a73d eae0 3ebd 11bb 6fbc
00000260: 64ad 8bbd 8a67 31bd 5d01 343d 2dbd 24bc
00000270: dc98 96bd 7abd c23d c81a 8bbd 43ea 36bd
00000280: 79e6 75bd 83f4 503d 00f4 ff3d 7b10 a9bd
00000290: 88a9 673d 9a7d 54bd 62ec d53c d03e 2a3d
000002a0: a9ab a43d 080e ef3d dbd2 e83c e85b 76be
000002b0: 9706 4c3c d257 053d 4ea2 793d e708 72bd
000002c0: e251 adbb aa0d afbd dfcc a3bd c4ae a23c
000002d0: f322 68bd 21ba 9bbd 53a4 ddbc 9587 d9bd
000002e0: 9432 203d 6431 423e 90fa 8abe d39a 103e
000002f0: 1a19 f83c 3461 4ebc ec7b cabd 41ca 8f3b
00000300: 31ed c1bd 68d1 953d 64fb 64bd 2dfd 6c3d
00000310: f19a 97bd 53c0 a8bd bd68 dd3b 1acc a6bd
00000320: 97bc 6e3d 671a 3a3c ca33 d3bb df92 d0bd
00000330: 319a b2bc ded1 a8bd 4d81 cb3c 169d 6f3d
00000340: c735 913c 5c3c 983d b447 a6bc e79f b8bb
00000350: e431 483d 2df9 6b3d c852 503c c85b 2ebd
00000360: fe82 59bd 289f cabd a3ac aebd 88f3 93bd
00000370: a463 833d cb08 cabd c542 c7bd 4b86 873d
00000380: 1f54 333c 0c80 5cbd 6a1d 9b3d 2064 593d
00000390: 58c0 7d3c 3034 9dbd 36e2 a4bd 3433 c63c
000003a0: 72d7 0dbe 1520 51bc 4c7b 9ebd 042f e3bc
000003b0: 22fe dabd 3a8c ce3c fa13 8f3d 198b 3bbd
000003c0: eb76 7bbc a124 8cbd e241 67bd 8576 20bc
000003d0: 5df2 8a3d c6f3 70bd 1317 cabc ec4b 8cbd
000003e0: 40cd 57bc 9751 b33b 30e5 60bd 576c a7bd
000003f0: 8b50 a23d 9b1b b4bd cd6a ad3a 0e82 a9bd
0.022273958 -0.0602471 -0.064196885 0.077877566 0.25364846 0.08394289 -0.017734215 0.19483973
0.12655057 -0.15835313 0.037660703 -0.004234953 0.07349551 0.0843547 0.066120595 -0.015870761
0.06482447 0.0071978117 0.0011987789 0.13651903 0.096820585 -0.017200515 0.17696823 -0.055807445
0.055911463 0.023262164 0.07088512 0.030637285 0.0670058 0.064480856 -0.09071114 0.103833675
0.11287811 0.04156643 -0.042208485 0.06405851 -0.0012452059 0.0883563 0.015926208 0.007615481
-0.05320094 0.071268365 0.030233756 -0.026651248 -0.085665114 -0.08246257 -0.08214417 0.08441118
0.15928018 -0.023459515 -0.037379563 -0.06883937 -0.06397515 0.12771751 0.117845766 0.116799966
0.09167926 -0.08279861 -0.09203711 -0.062039796 0.040229917 0.08206478 -0.029807942 0.08207082
0.034043424 0.097604804 -0.08494201 -0.066777654 -0.07542126 -0.05303009 -0.11026155 0.0006128668
-0.008013897 0.058732595 -0.08396245 -0.008161468 0.09748066 0.040574454 0.12766467 0.022924174
-0.00012761242 -0.050354756 0.06717256 -0.07554806 0.10172108 0.042829797 0.16273075 0.023984306
-0.03112714 0.15055965 -0.07081696 0.02116641 0.043081377 0.07515004 0.10361589 0.06749904
0.078502774 0.015173371 -0.043769486 0.03910966 -0.06093095 -0.0367411 -0.04619003 0.015909338
-0.09012667 0.08969258 0.14334747 -0.033067323 0.0243985 -0.06595582 -0.10015542 0.0086825285
-0.0034648716 0.054497432 -0.028113164 0.061816793 0.05272743 0.05578644 0.03022247 0.05726743
-0.05581754 -0.03786039 0.04586437 -0.06535861 -0.05904001 0.008539656 -0.044686347 -0.109260365
0.0018167045 -0.09658092 -0.05675355 0.028744623 0.0451771 -0.10982302 -0.16807051 -0.07967037
-0.05602924 -0.05105792 -0.01275576 0.06015799 -0.09473111 -0.010395357 0.025638679 0.003648662
0.08615778 0.08087042 -0.049511828 -0.053304173 -0.06362647 0.08169755 -0.046601214 -0.014632002
-0.06820181 -0.043311633 0.043946613 -0.010054869 -0.07353374 0.09508796 -0.067922175 -0.044657003
-0.06003425 0.051014435 0.12497711 -0.082550965 0.056558162 -0.051877595 0.026113693 0.04156381
0.08040554 0.11672598 0.028420856 -0.24058497 0.012452743 0.032554455 0.0609458 -0.05909052
-0.005289302 -0.08547528 -0.079980604 0.019858725 -0.056673955 -0.07603861 -0.027055895 -0.10621563
0.039110735 0.18964154 -0.2714429 0.14121561 0.030285407 -0.012596417 -0.098869175 0.004388124
-0.09469069 0.07315332 -0.055903807 0.057858635 -0.074025996 -0.08239808 0.0067568705 -0.08144398
0.058285322 0.011358834 -0.0064453827 -0.101842634 -0.02180204 -0.08243154 0.024841929 0.05849942
0.017725838 0.07433388 -0.020297863 -0.005634296 0.048875704 0.05761068 0.012715049 -0.042568
-0.05310344 -0.09893638 -0.085290216 -0.07224184 0.06415489 -0.098649584 -0.09729532 0.06617411
0.010945349 -0.053833053 0.0757397 0.053074002 0.015487753 -0.076759696 -0.08050959 0.024194337
-0.13851717 -0.012763997 -0.07738361 -0.02773238 -0.10693003 0.02521335 0.06986232 -0.04578695
-0.0153481765 -0.06842924 -0.056459315 -0.009793882 0.067845084 -0.05882623 -0.024669206 -0.068504184
-0.013171494 0.0054723728 -0.05490607 -0.08174961 0.079255186 -0.08794328 0.0013230682 -0.08276759

fc2.bias f4 [50]
00000000: 2aef ffbd 1b33 1dbb dbd0 923d d366 f5bd
00000010: 06a4 eb3d 6456 413e d55b 6a3d b666 77bd
00000020: a6e2 b63b 0da7 c43d 231f 263d 2c7b d7bd
00000030: 5fb8 dfbc 590c 80bd df32 3dbd 2990 4fbd
00000040: eace 1c3d 9d56 8cbb 8d07 3c3c aeb7 89bb
00000050: 99b0 12bc c567 0d3d ad12 c4bd ccdc 043e
00000060: da2c 133e c88d 0a3b bbdd f0bb 895c 8a3d
00000070: 61a4 c9bb c81e 453d 2694 0c3d d87f 853e
00000080: 001e edba 3f06 3abb a9d9 1ebd efed 883d
00000090: 03f8 b93d 9392 a2bd ab34 cbbd fa4a 743d
000000a0: 7244 b93c 0edf b6bd 6ea8 463c 558b 1e3e
000000b0: 4526 413e 2e86 e53c aa3b e9bc ffdd a93d
000000c0: c2e6 403e 7bd9 b6bd
-0.12496789 -0.002398676 0.07168742 -0.11982503 0.11505894 0.18880612 0.057216484 -0.060400687
0.005581218 0.09602175 0.040557038 -0.1052154 -0.027309595 -0.06252355 -0.046191093 -0.05067459
0.038283266 -0.004282786 0.01147641 -0.0042028045 -0.008953237 0.03452279 -0.095738746 0.12974852
0.14372578 0.0021141637 -0.007350651 0.06755931 -0.0061536287 0.04812506 0.034320973 0.260741
-0.0018090606 -0.002838507 -0.038781796 0.06686007 0.090805076 -0.07938113 -0.09922155 0.059641816
0.022615645 -0.08929263 0.012125118 0.15482838 0.18862255 0.028018083 -0.028470833 0.082942955
0.18838027 -0.089282

fc3.weight f4 [1, 50]
00000000: add5 d03d ce23 47bd eae1 79bd e6d8 c7bc
00000010: dd63 d03d abf0 ad3e a30f e83d 25ae 64bb
00000020: 8037 18be f0c1 04be 0f4c 973d 7f88 34be
00000030: a16e 343e f555 ecbd 2641 3fbe b379 8ebe
00000040: 6920 88bd 1270 f8bd 21f1 7ebd fa93 edbd
00000050: 84ea 39bd bdb1 09be f044 0bbd 1801 77bd
00000060: 8b9a f23c 0f58 2fbd d505 643d 1ea6 8abd
00000070: 3427 953b 339c 773d 7b63 033e 7eb1 dbbe
00000080: 1752 d1bc 49e0 b43c 80ef 033e c54a fcbd
00000090: 7ad3 173d 0353 233d da26 afbd 75b6 a0bd
000000a0: 68a6 5b3e fb8e 0cbe ed12 d03c 7deb 073e
000000b0: e7d5 103e bd6e 69bd da24 bf3d ea69 8bbd
000000c0: 0c1f be3e 5128 373e
0.101970054 -0.04861813 -0.061006464 -0.024395417 0.101752974 0.33972678 0.113311075 -0.0034893837
-0.14864922 -0.12964606 0.07387554 -0.17630194 0.17620327 -0.115398325 -0.18677196 -0.27827224
-0.06646807 -0.12130751 -0.062241677 -0.1160049 -0.045389667 -0.13446708 -0.03400129 -0.060303777
0.029614707 -0.04280859 0.055669624 -0.067699656 0.0045517925 0.060451698 0.12830918 -0.42908853
-0.025551839 0.022079604 0.12884331 -0.12318949 0.037066914 0.039874088 -0.08552332 -0.07847301
0.21450198 -0.13726418 0.02539965 0.13273425 0.14144097 -0.056990374 0.09333201 -0.06807311
0.37133062 0.17886473
