models/classifiers/MLP_basic_RPAonly_cat_bm.pth (torch, 30514 bytes, 5 tensors)

fc1.weight f4 [100, 17]
000000 f4 02 9d bc 99 c5 e9 bd d3 8b 20 3e f4 14 bd 3f
       -0.019166447 -0.11414642 0.15678339 1.4772019
000010 43 4e cd bd 49 a0 69 3e 30 84 24 be cb 64 0e 3f
       -0.10024693 0.2281505 -0.1606605 0.5562255
000020 23 f3 ef bb e6 22 c5 3e db ff 48 bc de 6f 4e bd
       -0.0073226853 0.38503188 -0.012268032 -0.050399654
000030 5b 49 99 3d 55 08 67 3e cc 5d 97 3f 29 5d d0 3f
       0.074846946 0.22561772 1.18255 1.627843
000040 aa 17 2a bd 77 21 89 bd 9e 8b 9b bd d9 10 f9 3d
       -0.041526474 -0.06695836 -0.07594989 0.121614166
000050 b0 06 76 bf 22 d6 83 3e cc 46 5d bc 11 9e ce bd
       -0.96103954 0.25749308 -0.013505649 -0.100887425
000060 ea ee 3e bd 3e 00 86 3d 74 77 51 3e e7 ce 26 3d
       -0.046614565 0.06543015 0.20455724 0.04072466
000070 09 9f 14 bc 9d 11 26 bd 0b f2 2a 3d 59 0d 7e be
       -0.00907112 -0.04054414 0.041734736 -0.24809779
000080 77 5a aa bf 47 9b 86 bd 84 2c 6b 3d 88 0b 18 3e
       -1.3308858 -0.065725856 0.0574155 0.14848149
000090 76 03 52 3e 71 90 23 3e 60 e5 f0 3d 92 d9 a8 bd
       0.20509133 0.15973069 0.117625 -0.08244623
0000a0 be a8 6a bd 2d 53 40 be 95 39 36 be bb 37 26 be
       -0.05728983 -0.18781729 -0.17795403 -0.16232197
0000b0 5b a3 aa bd a4 2e 0c 3e c8 49 d6 bd 13 b6 68 bd
       -0.08331939 0.13689667 -0.104632914 -0.056814265
0000c0 71 7d 40 3e 3b 00 70 3e 05 41 6b bd 89 81 b6 bd
       0.18797852 0.23437588 -0.057435054 -0.089114256
0000d0 6c 2e 43 bc a1 62 52 3e c7 d6 cc 3f 20 95 1e 3b
       -0.011912923 0.20545436 1.6003045 0.0024197772
0000e0 6a b6 a3 3e 9e 07 ea 3d 28 5b ee 3e 11 a9 2e be
       0.31975108 0.11427234 0.46553922 -0.17056681
0000f0 8e a6 9a bd ed b7 bd 3e b1 68 1e 3e eb 8b 49 be
       -0.07551299 0.37054387 0.15469624 -0.1968228
000100 28 32 12 bd e3 6e 19 3f b9 23 99 3f 92 ef 14 bb
       -0.035692364 0.59934825 1.1964027 -0.0022725803
000110 14 f1 82 3d 7e b9 60 bc 00 68 af bd 23 be 03 40
       0.06393638 -0.0137161 -0.08564758 2.05848
000120 8b e0 50 3e 35 2e 31 bd 38 61 6a 3c 70 f5 b0 3e
       0.20398156 -0.043256957 0.014305405 0.34562254
000130 e8 9f 2c bd e1 34 40 3d 65 dc 4c 3d ac e7 63 3e
       -0.042144686 0.04692543 0.050014872 0.22256345
000140 6a 59 1a 3e 6b c4 e5 3d 1c 99 1f 3f 5f 20 dc 3f
       0.15073171 0.112191044 0.62343 1.7197379
000150 2c 9d 1b be d4 23 05 3e 20 81 d2 bb 24 51 77 bd
       -0.15196675 0.13001949 -0.0064240843 -0.060380116
000160 95 85 aa 3f 11 42 9b bd f2 89 f2 3c aa ac 4a 3e
       1.3322016 -0.075809605 0.029606793 0.19792429
000170 9b 43 8f 3e 3e 82 f6 3c 34 ba 47 be 3e 2c 83 3e
       0.27981266 0.030091401 -0.19504625 0.25619692
000180 84 0e 78 bd 2a b7 51 be 1f e2 2e be 2a 99 0a 3f
       -0.06056072 -0.20480028 -0.17078446 0.5413996
000190 2f 65 be 3f ef 53 70 be 95 be cf 3b c7 d0 27 bc
       1.4874629 -0.23469518 0.006339858 -0.0102426475
0001a0 4f 64 e3 bd 7c 83 98 3f 83 7e 63 3e e8 0a e7 3c
       -0.11103117 1.1915126 0.22216229 0.028203443
0001b0 bd 56 65 3d 38 3e 59 3d 39 2c 07 bd e2 5c 56 3e
       0.055990923 0.053037852 -0.03300116 0.2093387
0001c0 b8 dc 92 3e 07 34 8e 3d ef 4d 79 be 64 04 85 3a
       0.2868402 0.06943517 -0.24346136 0.0010148403
0001d0 67 22 36 3f 5f 05 98 3f 83 0f 10 3d d4 81 c8 bd
       0.71146244 1.1876639 0.035171043 -0.09790388
0001e0 02 c4 3c be 39 9c b9 be c5 33 8b 3e 25 c4 3d bd
       -0.18434146 -0.36252 0.27187935 -0.046329636
0001f0 28 a8 25 3c 86 77 4e be e1 6c a0 be f3 17 97 be
       0.010110892 -0.20162782 -0.31333068 -0.2951046
000200 a8 c4 bc bb 44 7f f9 bd 51 eb 6c bd c8 94 df bd
       -0.005760748 -0.12182477 -0.057841603 -0.1091705
000210 29 e3 8a 3c 9b 30 76 3e 7b 18 86 bd 49 93 39 be
       0.016954022 0.24041979 -0.06547638 -0.18122591
000220 6d 1e 06 be fe 35 51 3e 65 6e fe bb 72 5d f9 bf
       -0.13097544 0.20430753 -0.007764625 -1.9481642
000230 1d 88 c7 3c d4 04 82 3c 29 15 da 3c 87 20 0c be
       0.024356896 0.015871443 0.026621418 -0.13684283
000240 3d 67 a8 39 f8 4f 26 be 03 09 58 be 75 d6 f6 3d
       0.00032120376 -0.16241443 -0.21097188 0.12052623
000250 d9 5c 34 be 16 b8 32 3c 07 12 dc be dd ee e0 bf
       -0.17613544 0.010908147 -0.42982504 -1.7572895
000260 23 e3 27 be ed 71 e1 bd ce 59 6d 3c d0 61 39 be
       -0.1639524 -0.11008058 0.014486743 -0.18103719
000270 31 04 dc 3e 3d c0 09 bd bf 06 33 3e 00 ac a6 3c
       0.42971948 -0.0336306 0.17483042 0.020345688
000280 d8 ca 8c 3d fa 07 12 3e 1f a9 c0 3e 90 f6 68 be
       0.06874627 0.14260855 0.3762903 -0.22750306
000290 18 76 c4 be 77 ea 0d be c9 90 b1 bc 04 c5 21 be
       -0.38371348 -0.13858972 -0.021675484 -0.15797812
0002a0 88 5d 37 3e 95 95 58 bb 3c a4 06 be 45 48 09 3e
       0.17906773 -0.0033048142 -0.13148588 0.13406475
0002b0 6a d2 2e 3e c8 9f d9 bc e6 b8 7f be 9c 48 f6 bd
       0.17072454 -0.026565447 -0.24972877 -0.12025568
0002c0 df 6a 36 be e5 c8 37 bc cd 7a 25 3e 7b ff ae bc
       -0.17814206 -0.011217331 0.16160126 -0.021362057
0002d0 8d ce 79 be 66 b1 89 3d 6a 31 29 be 67 ee 48 be
       -0.24395199 0.06723289 -0.16522756 -0.19622193
0002e0 d0 c6 c5 bd fa b0 59 be cb 4a 4f bd 3f f9 c8 3d
       -0.09657061 -0.21258917 -0.050608438 0.09813165
0002f0 b8 40 20 bd 1e 6d 6f be 27 36 fc bd a0 00 00 3d
       -0.03912422 -0.23381469 -0.12315016 0.031250596
000300 a2 38 0d bd ff e1 33 bc b7 55 30 be 33 57 66 bd
       -0.034477837 -0.010979175 -0.17220198 -0.056235503
000310 66 dc 5b be d0 6b 56 bd e5 5e 4f be 1f 6a 4c be
       -0.21470794 -0.05234891 -0.20251043 -0.19962357
000320 65 99 6b bc 0e f7 70 3e 8b 61 89 3d 19 79 3e 3e
       -0.014379834 0.23531744 0.06708058 0.18600883
000330 85 1a fe 3d 1b 9c 56 bd 17 2f f6 3d 9d 01 f7 bf
       0.12407402 -0.052394968 0.120207004 -1.9297367
000340 7a be 4a bb 5b 81 73 be 88 5f ec 3d ed 41 b6 be
       -0.0030936287 -0.23779814 0.11541659 -0.35597172
000350 d9 2b 34 be 38 36 2e 3e ba 12 9d be c9 24 14 be
       -0.17594852 0.1701287 -0.3067835 -0.14467157
000360 71 60 19 3e 47 1d fd 3d c0 5f 6e bf 30 bb d3 bf
       0.14978196 0.123591 -0.9311485 -1.65415
000370 1a 8f a4 3c 2a c6 b8 bd 43 63 3a 3d 8c 0d e6 bd
       0.020087767 -0.09022172 0.04550482 -0.112330526
000380 32 39 8d 3f 66 98 1b bd 26 d2 15 3d 40 78 49 3d
       1.103308 -0.037987135 0.036577366 0.049186945
000390 89 2a 4a 3e 53 4f 06 3e d8 9a c7 3e 80 6d 18 bc
       0.19742788 0.13116197 0.38985324 -0.009303451
0003a0 ee 9a a6 be a3 2f 2b 3e 2d 78 7d be 7f 3d 07 3f
       -0.32540077 0.1671739 -0.24752875 0.5282821
0003b0 48 3a 69 3f 47 89 4f 3e 31 17 14 bd 2b dd 82 3c
       0.91104555 0.20267211 -0.03615493 0.015974602
0003c0 5c 7b 80 3d db 44 e8 bf 36 b4 94 be 44 61 74 bc
       0.06273529 -1.8146013 -0.2904374 -0.014915768
0003d0 4c 69 7e bc 2b 3f 31 be 14 69 82 be 0e 6c af 3e
       -0.015528034 -0.17309253 -0.25470793 0.34262127
0003e0 65 62 bf be c9 fe ca be 21 cc 55 be ea 5b 02 3d
       -0.37379757 -0.3964751 -0.2087865 0.031825937
0003f0 13 82 45 bf 20 41 c0 bf 1f b2 0b bd cc 63 15 be
       -0.771516 -1.5019875 -0.034105416 -0.1458885

fc1.bias f4 [100]
000000 ed cb c4 3e e6 7f 77 be f5 13 92 3e 84 8b dd 3e
       0.38436833 -0.24169883 0.2853085 0.43270504
000010 23 45 6f 3e e5 53 30 3d 9f aa 86 3d 5b a3 e6 bd
       0.23366217 0.043048758 0.06575512 -0.11261626
000020 73 c3 7c be bb 8d c5 bd 3b c6 44 be e8 75 19 be
       -0.24683933 -0.096461736 -0.19216244 -0.14986384
000030 07 27 a5 be fc 49 d2 3a 9a e0 2a be 83 c3 0a 3e
       -0.32256338 0.0016043778 -0.16687241 0.13551144
000040 3d 45 49 be 45 a7 12 3e c8 f3 8f bd ba 03 f7 bd
       -0.19655319 0.14321621 -0.070289195 -0.12061258
000050 31 92 90 bd 0b 3a 7c 3d e1 6a 8d be 00 ac 8b be
       -0.07059134 0.06157879 -0.27620605 -0.27279663
000060 60 5a 5a bd 88 e5 c7 3e 1f 18 83 bd fe 3b 91 bd
       -0.053308845 0.39042306 -0.06401085 -0.07091521
000070 82 07 58 3b 9e 88 70 be 9d af 78 bd dc c7 c8 bd
       0.003296346 -0.23489615 -0.060714353 -0.09803745
000080 ea 9c 2e 3d 96 d6 23 3e 83 91 c5 3d e8 42 e2 be
       0.042630114 0.15999827 0.09646895 -0.4419167
000090 23 0e 40 3d 7a 32 ec bd 25 64 be 3e cc c0 9d 3e
       0.04688848 -0.11533065 0.3718578 0.30811155
0000a0 9f d1 d4 3e dd ee 06 3e 17 90 11 be 4f e3 9f 3e
       0.41566178 0.13177057 -0.14215122 0.3122811
0000b0 c7 cb ae 3d 69 f8 5d bd 93 70 80 bd 4a 8f 43 be
       0.08534961 -0.05419198 -0.06271472 -0.19097629
0000c0 17 85 60 be c2 38 7e 3c 28 15 d4 bd 56 a7 be 3e
       -0.2192577 0.015516462 -0.10355598 0.37237042
0000d0 1d ba 5b 3a 54 b5 50 bc a9 29 2d bc 1c cf 00 be
       0.000838192 -0.0127385445 -0.010569015 -0.12579006
0000e0 36 03 f7 be 31 c1 62 3e 14 51 12 3e 86 5f c5 3e
       -0.48244637 0.22144009 0.14288741 0.3854944
0000f0 eb 87 da 3e b8 df b9 be 78 ff 0a 3e a4 cc 84 be
       0.42681822 -0.36303496 0.13574016 -0.25937378
000100 07 f0 e1 be cc c4 a2 3d e9 76 81 be 83 6a 6b be
       -0.4412844 0.07947692 -0.25286034 -0.2298985
000110 40 d9 97 3e ff e0 aa be a6 8e b0 be 70 08 5d be
       0.29657936 -0.33374783 -0.34483832 -0.2158525
000120 72 85 4d 3d 06 1d 0c be 0e fd ec bd ce 27 e5 be
       0.05017609 -0.13682947 -0.11571704 -0.4475693
000130 ea 2f a3 bd 63 9a af 3c bf 3e 63 be 8c bf 71 3e
       -0.07968123 0.021435922 -0.22191904 0.23608226
000140 14 7b 27 bd 01 92 d3 bc 2f 66 1c bd b4 d0 b0 3e
       -0.04088886 -0.025826456 -0.038183387 0.34534228
000150 b2 b5 ca be 63 1e cd 3d 18 39 21 3d 9a 48 db 3e
       -0.39591748 0.100155614 0.03936109 0.42828828
000160 26 4a 25 bd 34 b9 95 3d dc eb 02 bc 20 8d 76 be
       -0.040353917 0.07310715 -0.007990804 -0.24077272
000170 42 a1 08 be 79 57 70 3e 2b 6e 78 be c9 7d 64 be
       -0.13342765 0.23470868 -0.24260776 -0.22313608
000180 d4 9c 99 3e d0 3f 8d be bc 76 ed 3d f2 0e cc bd
       0.30002463 -0.27587748 0.115949124 -0.09963788

fc2.weight f4 [50, 100]
000000 47 b4 59 bd 50 4b 56 bd ee 74 e5 3d 5a 7f 0d 3d
       -0.05315044 -0.052317917 0.11203943 0.03454528
000010 1c 1f 65 3d c7 93 2c bd 19 02 c4 3d 44 a5 b5 bd
       0.05593787 -0.04213312 0.095707126 -0.088694125
000020 2c 5a 58 bc 5b cd 13 bd cb 2c 5b 3d 27 8a 0c 3d
       -0.013205092 -0.036084514 0.053509515 0.03431144
000030 2d 76 b9 bd 26 62 d8 bd 3c a9 83 3c b8 ec 60 3d
       -0.09055743 -0.10565595 0.016071908 0.054913253
000040 8c c6 27 3c 72 be 9b bd 29 13 bd 3e 8a 2f 34 bc
       0.010240208 -0.07604684 0.3692868 -0.010997662
000050 68 b1 48 3e 24 d1 6a bd 75 24 c4 3c f4 c2 dd bc
       0.19598925 -0.05732836 0.023943165 -0.0270705
000060 3b 8c 24 3d 63 9c 21 bc 1f 5f 8a 3e 1a 76 a8 bd
       0.040172797 -0.009863946 0.27025697 -0.08225651
000070 85 4b 1c bd da 9b 45 3d 41 51 3d 3e 4c 2b 27 3d
       -0.03815796 0.048244335 0.18488027 0.040812775
000080 5a af 88 bd b3 45 d0 3d 1d 79 a5 3e cb 5d cf bd
       -0.06674071 0.10169544 0.32318965 -0.101253115
000090 22 4e 8d bc 27 4f 53 bd de 06 e7 bc d7 48 53 3d
       -0.01724917 -0.051589157 -0.028201517 0.051583137
0000a0 df 99 77 bd aa ed 3b 3d 39 46 be bb fb ff fa 3d
       -0.060449477 0.04588095 -0.005806711 0.12255856
0000b0 97 be b8 bd e4 b9 04 bb 8f 2f b8 bd 86 f0 4e bd
       -0.09020727 -0.00202524 -0.08993446 -0.05052235
0000c0 d2 fa 9f bd c1 55 bf bd f1 08 9c bd 1c 1d 7b bd
       -0.07811512 -0.09342528 -0.07618893 -0.061307058
0000d0 85 47 a9 3d ef 39 7b bd 21 01 a5 bc 6c a6 40 bd
       0.082655944 -0.061334547 -0.02014214 -0.047033712
0000e0 69 4e 5c 3d 4c dc 35 bd 0c 0b 3c bc be 8a 17 bd
       0.053785715 -0.044399545 -0.011477243 -0.03699755
0000f0 a1 a8 86 bd d5 cd e0 3b 35 18 e4 bc a2 1b f8 3d
       -0.06575132 0.0068604746 -0.027843574 0.121146455
000100 21 06 b6 3c d0 04 c8 bd a6 3d f0 bc e5 04 9e 3d
       0.02221972 -0.09766543 -0.029326271 0.07715777
000110 a5 3e e5 bd a3 c3 39 bb 1d 9b 94 bd 31 5a cf 3d
       -0.11193589 -0.0028345368 -0.07256148 0.101246245
000120 93 68 fe 3d 1e 18 f5 3d 1e 3c a2 bb 3c 48 5d 3d
       0.1242229 0.119674906 -0.004951014 0.054023966
000130 8a 5d be bd 3b 57 7b 3d 3f 76 cf 3e 26 3c 3b 3d
       -0.09295185 0.061362486 0.40519902 0.04571166
000140 aa 7a 40 3b fb f6 cc bd 2a 2c ab 3d 36 6c 5d bd
       0.0029369988 -0.10008045 0.08358033 -0.054058276
000150 13 a2 65 bd f2 5a 72 3d fa ce f5 bc 86 88 4f bc
       -0.05606277 0.059168763 -0.03000592 -0.012666827
000160 8b b5 76 bd af 9f d3 bd 6f 5d 08 bd 40 71 ba bd
       -0.060231727 -0.103331916 -0.03329223 -0.09103632
000170 61 f2 82 3d 7e 24 c1 3c 90 b6 f6 3b 75 67 84 3d
       0.06393886 0.023576971 0.0075290874 0.06465045
000180 ad c7 20 bc 9f 2b a1 bd 35 18 5a 3e ab 65 83 bd
       -0.009813231 -0.07869648 0.21298297 -0.06415876
000190 dc 0e a1 3d 00 fb 88 bd b7 69 70 3d 07 d7 23 bd
       0.07864162 -0.066884995 0.058694568 -0.039999988
0001a0 39 54 59 bd 15 4f 0f 3d 98 f6 ab bb e0 fc 79 bc
       -0.053058837 0.034987528 -0.005247902 -0.015258044
0001b0 48 f3 7d 3d a8 b5 a7 bd 4d 63 72 3d fd 13 a4 3d
       0.06199959 -0.08188945 0.05917673 0.08011625
0001c0 d9 a4 2b bd f3 9c 00 3d 4b 73 22 bd 9a cd 61 3c
       -0.041905258 0.03139968 -0.039660733 0.013781929
0001d0 42 fb a1 3d 75 30 ae bd ca 16 21 3d 14 7b 88 3d
       0.07909252 -0.08505336 0.039328374 0.066641
0001e0 f7 cb 24 be 3f f3 70 bd a6 22 57 3d 43 03 df bd
       -0.16093431 -0.058825728 0.052523278 -0.10889294
0001f0 ae 68 3f bd 9a be 07 3c 39 5e b0 bd 06 60 ab bc
       -0.04673069 0.008285189 -0.086117215 -0.020919811
000200 bc 01 de bc 3a 62 97 bc ca 20 2a 3d b3 1b 87 bd
       -0.027100436 -0.018479455 0.041535176 -0.0659708
000210 a2 16 07 3d 2d 3a 8f 3c af 37 a9 3c 2b 40 50 bb
       0.03298057 0.017483795 0.020656435 -0.0031776528
000220 92 ea a8 bd 21 00 8d bd 8d 19 62 ba fd 68 27 3d
       -0.08247866 -0.0688479 -0.0008625023 0.04087161
000230 62 2c 74 bb 8d 87 c1 bc a8 24 ec bd e8 62 39 ba
       -0.00372579 -0.023624206 -0.11530429 -0.0007071928
000240 25 69 61 3d 9d 1e 3d 3d 74 0b ea 3c 96 8c ad 3c
       0.055031914 0.046171773 0.028569914 0.0211852
000250 51 35 b3 bd 3f 01 c6 bd f6 d0 28 bd 82 ae 33 3d
       -0.08750404 -0.096682064 -0.041214906 0.043867595
000260 77 f3 6d bd 03 a8 eb bd 1d 10 b6 bd e8 ab 11 3d
       -0.058093514 -0.11506655 -0.08889792 0.035564333
000270 06 45 99 3d fb 75 7b 3d 7c 6f 94 3d 74 38 26 bd
       0.07483868 0.06139181 0.072478265 -0.04058118
000280 9b d7 b1 bc 54 32 3a bc 2f 43 73 3d e3 d6 6e 3d
       -0.021709254 -0.011364538 0.059390243 0.0583104
000290 7f 0b 31 bd 10 a3 b5 3d 6f 39 82 3d 52 ad 81 3d
       -0.043223854 0.08868992 0.06358611 0.06331886
0002a0 80 a5 f6 3c c1 95 c4 ba 07 ed a2 bd e6 cc 0f 3d
       0.030108213 -0.0014998243 -0.07955366 0.035107516
0002b0 d7 9f bc bd c0 6c af bd 8f 14 fd bb 7d 6a 03 3d
       -0.092101745 -0.08565664 -0.007723398 0.032083977
0002c0 76 2b 92 3b 4b a5 ab bd 9e d6 a2 3c 36 66 4d bd
       0.0044607474 -0.083811365 0.019877728 -0.050146304
0002d0 1b bb a5 bc 4b ce 25 3d a9 ad e2 3c a6 1f 4e bd
       -0.02023082 0.04047994 0.027670698 -0.05032315
0002e0 e7 cf 4d 3c 9b 4b 5e bc 4f 19 7f 3c 59 9d ea bd
       0.012561775 -0.01356783 0.015569999 -0.11455793
0002f0 14 99 d4 3c 66 f1 18 3d c3 90 31 3d c2 85 04 bd
       0.0259519 0.03733959 0.043350946 -0.032354124
000300 8c a4 3d bd ab 3d 87 3d af b8 96 3d 93 b3 42 3d
       -0.046299502 0.06603559 0.07359444 0.047534537
000310 99 6a 13 bd 5a 1b cc 3c ae bf 4f 3d df 65 01 3d
       -0.03599033 0.024915386 0.05071991 0.031591292
000320 04 0c fc bd 7b 7c a4 3c a8 6b d9 bd 78 25 94 bd
       -0.12306979 0.020078888 -0.10616237 -0.07233709
000330 f2 8a 13 bd 7a b0 09 3d 4d 43 bc 39 5a 0d 52 bd
       -0.03602118 0.033615567 0.00035908297 -0.051282264
000340 be d1 17 3d 6b e6 ba bd 0f 08 a1 3d 70 27 0c bd
       0.03706526 -0.0912598 0.07862865 -0.034217298
000350 ff 1e 84 3d cf fc 54 bd 57 72 6c bc 57 f0 7b bd
       0.064512245 -0.05199891 -0.014431558 -0.061508503
000360 cd 22 13 bc 14 8f a1 bd 5d a2 7b 3d 72 c2 aa bd
       -0.008980465 -0.07888618 0.06143414 -0.08337869
000370 2a 9e 8e 3d f5 b8 97 bd 0b 84 7d bd a3 bc 98 3d
       0.06963761 -0.07408325 -0.061893504 0.074578546
000380 e6 42 08 bd 94 55 3c 3c f5 59 3c 3d 67 ab 33 3c
       -0.033266924 0.011495013 0.045984227 0.0109661585
000390 88 e2 c2 3d e7 1b b3 bc 54 72 c9 bd 7a 9c 5f 3c
       0.09515864 -0.02186389 -0.098362595 0.013648147
0003a0 89 20 aa 3d e8 60 16 3e cf 5a 63 bd a9 fa 3e 3d
       0.08306987 0.14685404 -0.055506524 0.046625767
0003b0 c3 20 69 bd db 3c 04 3d 27 cd 15 3d e4 e6 f9 bc
       -0.05691601 0.0322846 0.0365726 -0.030505605
0003c0 60 4a 00 bd cd 7b f9 bc f0 a0 c2 bb da 29 7e be
       -0.03132093 -0.03045454 -0.0059395954 -0.24820653
0003d0 55 97 a2 bd 45 bd 95 3d c7 0d 90 bd 19 73 ac 3d
       -0.079390205 0.07311491 -0.07033878 0.08420391
0003e0 7a 6a 95 3d ec 63 80 3d 14 d2 c4 bd 6f d3 ad 3c
       0.072956994 0.062690586 -0.09610382 0.021218983
0003f0 67 4b 7c bc 35 27 ab 3c 8f c1 b8 3b 14 aa 4a be
       -0.015398837 0.020892719 0.0056383084 -0.19791442

fc2.bias f4 [50]
000000 a9 93 23 bd f0 12 81 3d df 32 a5 3c dc 6e 8a 3e
       -0.03993574 0.0630244 0.020165859 0.27037704
000010 fa 60 0f 3c 58 c0 94 3d 67 24 31 3e 0e d7 52 bd
       0.008751148 0.07263249 0.17299043 -0.051474623
000020 4c f9 8d 3e e1 ff 46 3a 46 ad a7 be 79 55 44 bd
       0.2772926 0.00075912295 -0.32749385 -0.047933076
000030 28 5c 49 3b 8e d9 34 bd 37 30 36 3e e8 66 f4 3d
       0.0030725095 -0.04415279 0.1779183 0.1193369
000040 a0 5b b2 3b 91 b9 3b be d4 37 9e be 81 39 fc 3c
       0.0054430515 -0.18332507 -0.30901968 0.030789139
000050 ec 0a 44 3e 83 e9 48 3d df 71 db bd ec 59 a3 3d
       0.19144791 0.04905082 -0.107150786 0.079761356
000060 d2 e3 8a bd 77 b3 5f 3e 92 f1 97 3e 6e 23 0f 3e
       -0.067817345 0.21845804 0.2967649 0.13978359
000070 57 52 16 3d 88 be 4e bd df 28 7b 3c b4 3f 8d bd
       0.03669962 -0.050474674 0.015329569 -0.06896916
000080 08 63 1e 3e 12 39 d3 3d e8 0d a6 bd ca 25 a6 be
       0.15467465 0.1031362 -0.08108121 -0.32450706
000090 5a a3 9a bd 28 04 44 3c 07 b7 08 be d2 ca b8 ba
       -0.07550688 0.011963882 -0.1335107 -0.0014098531
0000a0 ab 3c df 3c 68 a4 1a bd f0 ea 83 3d c0 eb 45 bd
       0.027250608 -0.037754446 0.06441295 -0.04832053
0000b0 c6 ae 05 bd 6c 1b a6 bc 58 04 85 be b5 3b 24 3d
       -0.03263738 -0.020276748 -0.25979877 0.040096004
0000c0 6e ba 42 be 4f e0 ae 3c
       -0.1901643 0.021347193

fc3.weight f4 [1, 50]
000000 7d 82 b5 3d f2 5b c7 bd e5 25 da 3d 12 bf 95 bd
       0.08862779 -0.09734334 0.10651759 -0.073118344
000010 65 e7 de bc 59 b1 5b bd 50 f2 56 bd 9c db 75 3e
       -0.027209947 -0.05363593 -0.05247718 0.24009556
000020 d2 be c1 bb 0e 3d 02 3e 8e 57 99 3c b9 5c 90 3d
       -0.00591264 0.12718603 0.018718507 0.070489354
000030 88 a6 28 3e 92 bc 67 bb c3 c9 6b bb 8f a6 32 bc
       0.16469777 -0.00353602 -0.0035978414 -0.0109039685
000040 9d 83 84 bc 0b 5b ae 3b 5a e8 8e 3d 6c c5 74 3d
       -0.01617604 0.0053209118 0.06977911 0.05975859
000050 f4 c0 99 bd a1 8a 3a 3d 79 8d 33 39 6b b0 13 3e
       -0.07507506 0.045542363 0.00017123473 0.14422767
000060 63 5b d4 b8 ee 99 a2 bd be 52 81 bc c1 08 19 bd
       -0.0001012597 -0.07939516 -0.015786525 -0.037361864
000070 d3 39 d5 bd ae 0d 71 3d d2 0b 8e 3c 9e 16 57 bc
       -0.1041142 0.058850937 0.01733962 -0.013127951
000080 90 9d a0 bc a9 0f 0a 3e 69 ab 80 bd 65 b7 98 3d
       -0.019606382 0.13482536 -0.06282694 0.07456855
000090 02 ce 4f bd 5b e3 34 3e d6 08 96 3c 16 07 2c bc
       -0.050733574 0.17664854 0.01831476 -0.010499736
0000a0 fd 7a ee bd da e1 08 bc 19 19 08 3e 86 3e 4a 3d
       -0.11644552 -0.008354628 0.13290824 0.049376033
0000b0 5b 1c e4 3d 4e 49 62 3c 2b d6 00 3e f0 5b dd bc
       0.11138221 0.0138114225 0.12581699 -0.027021378
0000c0 20 49 11 bb 25 c4 07 3e
       -0.002216883 0.13258417
