models/classifiers/MLP_v1_basic_bm.pth (torch, 490328 bytes, 5 tensors)

fc1.weight f4 [100, 1167]
000000 c0 f8 ab 3d 06 b7 9c be 50 ed 3a be ae 0d 26 bd
       0.08397055 -0.30608386 -0.1825459 -0.04054039
000010 34 63 27 3d 2f f8 1c 3c 41 55 a6 3c e9 ac 17 3e
       0.04086609 0.009580656 0.020304324 0.14812054
000020 be a2 1c 3d 6b 3f 90 3c ec 19 78 bd 32 28 de 3d
       0.03824114 0.017608365 -0.060571596 0.108475104
000030 26 5c 27 3d 20 00 46 bb 81 2f 30 3e ab 2f 3c bd
       0.040859364 -0.0030212477 0.17205621 -0.045943897
000040 20 66 88 3e b2 b5 9a be 98 50 92 3c bd 5e c0 3d
       0.26640415 -0.30216748 0.017860696 0.0939307
000050 a2 98 be 3e 40 fd 23 bd b3 4e 09 bc b5 29 a6 be
       0.37225825 -0.04003644 -0.00838058 -0.32453695
000060 09 6f 3c 3c ef b8 5c 3d 7e f9 e7 bc c7 99 8d be
       0.011501082 0.053887304 -0.02831721 -0.27656385
000070 4a 4e b5 bc 08 17 37 3c e2 45 5a 3e ec e7 5f be
       -0.022132058 0.011174925 0.2131572 -0.21865815
000080 c8 83 46 3e de 42 a2 3e 59 8c 8b 3d 39 1f 59 3e
       0.19386208 0.3169164 0.068138786 0.21203317
000090 5d fa 78 3e a6 d5 33 3d a8 b4 26 bd 59 10 83 bc
       0.24314256 0.043904923 -0.04069963 -0.015999006
0000a0 48 f4 41 be 84 3d cb bd b3 b9 54 be 4b 48 a0 3d
       -0.18940842 -0.099238425 -0.20773964 0.07826289
0000b0 cf 4c 73 be f0 34 14 3d 5d 64 3d be fd f2 7f be
       -0.23759769 0.036183298 -0.18495317 -0.24995036
0000c0 60 3b c4 bd c8 10 0f be 8c 34 82 be 9a 7f 22 be
       -0.095816374 -0.13971245 -0.25430715 -0.15868989
0000d0 f3 83 d0 3d f7 69 33 be 0a c9 d8 3b 46 9d 32 3e
       0.10181417 -0.17520891 0.0066157626 0.17442808
0000e0 84 b8 0e 3e c5 c3 fd bc 42 38 85 3b 9e a8 ae bc
       0.13937575 -0.03097714 0.0040655443 -0.021320637
0000f0 35 f7 2f be 55 f3 7f be 4a 5e d0 bd c0 09 29 bd
       -0.17184146 -0.24995168 -0.10174234 -0.041269064
000100 81 8f 51 3e 2c 60 1b 3e 7d cd c5 bd 61 1e 08 be
       0.20464899 0.15173405 -0.096583344 -0.13292839
000110 6a c2 83 bd 0d ad 28 be 9b b5 35 3b be a9 58 3e
       -0.06433566 -0.16472264 0.0027726653 0.21158502
000120 01 f3 16 3e cc 87 c3 3d 05 ec f8 bd 25 0c 3a be
       0.14741136 0.095473856 -0.12154392 -0.18168695
000130 2a 62 ad 3a 3e 97 f3 3d 8d b4 1f 3e c9 e9 81 bd
       0.0013228108 0.118940815 0.15596218 -0.06343419
000140 57 5e 71 bd 45 cb a4 3e 71 df 2b 3d b3 20 cc 3e
       -0.05892786 0.32186332 0.041961137 0.39868698
000150 a7 64 74 bd 4f 07 f1 3c 0d fe 10 be 0a 2e 7d 3d
       -0.059666302 0.02942243 -0.14159413 0.061811484
000160 86 d0 6b 3d 3d 77 0f 3e eb 7c 1a be a5 8a 94 bc
       0.05757191 0.1401033 -0.15086715 -0.018132517
000170 69 1e 32 3e 41 71 00 be 69 9f 57 be 8b e4 4a 3d
       0.17394413 -0.12543203 -0.21056904 0.04953436
000180 be c5 64 3c f9 01 29 be fc 80 9b bd a3 ac b5 3c
       0.013963161 -0.16504659 -0.07592961 0.022177046
000190 8f 8e 13 be e5 b3 c3 3e 55 9a 60 3d 34 d5 bb be
       -0.1440985 0.38223186 0.054834682 -0.366861
0001a0 c4 2f 1f 3d 23 58 5b 3e 1c 4f c9 bc 56 8a ab bd
       0.038863912 0.2142034 -0.024573855 -0.08375995
0001b0 a1 1b 49 3e 8c 00 d6 3d 29 ab 99 be 4a b3 f6 3d
       0.19639446 0.10449323 -0.30013397 0.120459154
0001c0 e1 4e b2 bc 04 ad af bd 76 24 40 3c 8d b4 4c 3e
       -0.021766128 -0.08577922 0.011727443 0.1999075
0001d0 2c 63 9b 3d 50 e7 8e 3e 7d 38 e2 3b 32 1f 11 3e
       0.07587275 0.27910852 0.0069037066 0.14172056
0001e0 11 a9 0e 3e 72 ec d4 3c 49 17 ac 3e 1e 49 ae be
       0.13931681 0.025991652 0.33611515 -0.3404016
0001f0 54 6e 19 bc 22 e4 a7 3d 0c c1 74 3d f3 bb bd be
       -0.009364683 0.0819781 0.059754416 -0.37057456
000200 c2 78 d7 bd 96 79 56 be ac ca a1 bc 21 03 a0 be
       -0.105210796 -0.20944819 -0.019749962 -0.31252387
000210 a0 70 a7 be 1c 63 d7 be 61 d6 da 3d 0b 63 2a 3e
       -0.32703114 -0.42067802 0.10685421 0.16639344
000220 4f d4 f4 3d b7 8c ba 3c e9 ab 72 3e ee db 60 3e
       0.11954557 0.022772176 0.23698391 0.21958897
000230 37 ef dd 3d ea 54 51 be e8 94 f7 bc fd 9b 63 bd
       0.10836642 -0.20442548 -0.030222371 -0.055568684
000240 5e 37 fd bd 69 b7 a4 bc a1 39 16 3d 5e 4d e2 3c
       -0.12364076 -0.020106988 0.036676053 0.027624782
000250 78 61 5a 3d 69 05 0c 3c 8e 0b 77 ba c3 17 bf 3d
       0.05331561 0.008546212 -0.0009424024 0.09330704
000260 eb 88 55 bd 01 0c e7 3c e9 85 d3 3d 70 a8 c2 bd
       -0.05213253 0.028203966 0.10328276 -0.09504783
000270 25 8a a1 bd b0 5a ce bd 9b 42 ea 3d 9a 22 24 be
       -0.07887677 -0.10075891 0.11438485 -0.16028824
000280 d7 f2 16 3c be db ee bc 0c 17 17 bd c4 68 cb 3d
       0.009213171 -0.029157516 -0.036887214 0.09932092
000290 b2 ad b5 be 1c f5 34 3e d5 fb 92 3d 43 d8 11 bc
       -0.35484082 0.17671627 0.071769394 -0.0089016585
0002a0 1e 79 a6 3d 6f 10 20 be 42 33 e9 3e 94 55 2c 3d
       0.0812857 -0.15631269 0.4554692 0.0420738
0002b0 d4 59 0c bd 60 c3 48 bd 03 89 12 3d 3a 58 57 bb
       -0.034265354 -0.04901445 0.035775196 -0.0032858984
0002c0 c1 b5 f4 3c d0 bc 58 3e c8 cc 87 3e 9a cf 4e bd
       0.029871823 0.21165776 0.26523423 -0.050490953
0002d0 07 56 c8 3e 77 d6 96 3c 57 6e c7 3c 53 dc e1 3e
       0.39128134 0.018412812 0.024344606 0.44113407
0002e0 39 d3 04 be f8 ef 96 bc 7e 02 31 3d 17 76 fb 3d
       -0.129712 -0.018424973 0.043215267 0.12278383
0002f0 e0 e5 27 3d 36 db 30 be b4 8a aa 3d fb 01 03 3e
       0.04099071 -0.17271122 0.08327237 0.12793724
000300 bb e3 f5 bc 67 82 da be 03 1d 2f be f0 9e 3f 3b
       -0.030015817 -0.42677614 -0.17100911 0.0029239021
000310 f3 57 51 3e 73 0f 76 3b 7e 56 8d bc 31 ae 9a 3d
       0.20443706 0.003754583 -0.017253157 0.075527556
000320 c1 60 06 be a7 1e 7c bb 0d fe fb bd d4 4d 2b be
       -0.13122846 -0.0038470419 -0.12304316 -0.16728908
000330 e0 1f e8 3d c9 99 e2 3d 03 b5 f1 bd 8c 18 3b 3e
       0.11334205 0.110644884 -0.11802103 0.18271083
000340 d6 cf c3 3d 0b d0 c0 be 9a 67 e4 3d ed 4e 36 3e
       0.09561126 -0.37658724 0.11152573 0.17803545
000350 20 43 1b 3e d6 59 a0 3e 05 40 44 bd 54 38 0b bd
       0.15162325 0.3131854 -0.047912616 -0.033989266
000360 2d e4 dd 3d e0 eb 8a 3e 7a 24 4a be 14 25 6a bd
       0.10834537 0.27133083 -0.19740477 -0.057164267
000370 b7 05 45 be 9b b1 a9 3c fc 64 9e 3c 45 18 df ba
       -0.19240461 0.020714572 0.019335262 -0.0017020783
000380 c4 fe a8 3e ec 11 59 be ac 43 ab bd 29 c4 5c be
       0.3300687 -0.21198243 -0.08362517 -0.21559204
000390 45 25 5f bc f6 a1 13 bd 8f 45 a6 be 5f 28 8a bc
       -0.013619726 -0.03604313 -0.32474944 -0.016864954
0003a0 1c 0a d0 3c 50 c5 85 3c 33 53 86 be 14 03 d9 3d
       0.025395446 0.016329437 -0.2623535 0.1059629
0003b0 fa 65 a9 3d 70 f1 a8 3d 8d d5 ae bc 77 bf 05 3e
       0.082714036 0.082491755 -0.021342063 0.1306132
0003c0 48 53 cf 3d d4 67 41 be 9c a6 39 3e d1 a6 df 3e
       0.101233065 -0.18887264 0.18129963 0.43681958
0003d0 eb 5a 92 be 70 f2 15 3e 75 b6 19 be 35 a0 11 be
       -0.2858499 0.14643264 -0.15011008 -0.1422127
0003e0 77 61 ce 3d 37 f6 8e bd fa da f2 bb 1a 3d 76 3e
       0.10077184 -0.069805555 -0.007411358 0.24046746
0003f0 f6 3f 63 bd a4 0c 52 3e 51 c1 62 bc 11 86 dd bd
       -0.05548092 0.20512635 -0.013840036 -0.10816587

fc1.bias f4 [100]
000000 3c 68 9f ba af 20 73 3d 7b 16 c4 3b f4 e5 22 3c
       -0.0012161802 0.05935734 0.005984125 0.00994252
000010 6a 0c 03 bd df da f1 bc 5f 5d 30 bd 5e 78 00 bd
       -0.03199426 -0.029523311 -0.043057796 -0.03136479
000020 47 4c 58 3b 5c 0a 8d 3c ba 99 03 3c e5 b8 c9 bc
       0.003300445 0.017216854 0.008032257 -0.024624297
000030 4b a9 11 3d 74 c3 4c 3b 1d ad 22 bd ad d7 aa 3d
       0.03556184 0.0031244429 -0.039715875 0.08341918
000040 9b 80 81 3c 84 1a d1 bc 95 01 0d bc 03 e9 2d bc
       0.015808394 -0.025525339 -0.008606334 -0.010614636
000050 7d e6 61 3a db 67 7e bc 79 05 9d 3d 39 65 1b 3d
       0.0008617414 -0.015527691 0.076670595 0.03793833
000060 44 bf a3 3c 57 19 34 bd bf 48 a7 3b fa 13 76 bc
       0.019988663 -0.04396948 0.0051051076 -0.015019411
000070 30 7c 04 3c 6b ed e9 3c f6 16 f3 3d 49 05 08 bc
       0.008086249 0.028555593 0.11869614 -0.008302041
000080 42 18 d6 39 65 0a 11 bd 9c b7 05 3d 1a 45 cc bc
       0.00040835334 -0.035410304 0.032645807 -0.024935294
000090 d3 90 dc bc b3 a5 23 3d da 47 d6 3c 56 66 eb bc
       -0.026924526 0.039952945 0.026157308 -0.028735321
0000a0 3b cb 2b 3c 1a 15 0f bd 73 25 f1 3c be c7 0f 3c
       0.010485466 -0.034932233 0.029436802 0.00877565
0000b0 30 0b 7e 3c ff 05 bb bc 12 87 21 3b 80 e4 c8 bc
       0.015505597 -0.022830008 0.0024647159 -0.02452302
0000c0 2b f4 e7 bc 08 b3 25 bd 5e bf 17 3c c1 73 d5 3c
       -0.02831467 -0.04045394 0.009261934 0.026056172
0000d0 97 60 86 bc c8 fa 46 bc a2 aa 34 bc 40 d0 cb ba
       -0.01640348 -0.012144752 -0.01102701 -0.0015549734
0000e0 e5 37 a6 3c 9c 08 96 3a 22 51 c7 bb 90 58 eb 3c
       0.020290324 0.0011446658 -0.00608267 0.028728753
0000f0 41 d3 de bc d0 ed 90 3d aa f4 9e 3c 9d ed e6 ba
       -0.027200343 0.07076609 0.019403774 -0.0017618422
000100 c9 92 ad ba 00 4e f3 bc c4 68 96 bb ab 92 36 3c
       -0.0013242598 -0.02970028 -0.0045901258 0.011143367
000110 8d 4e ee bc 9f 30 24 bc 1e 39 24 bd 57 60 8f 3b
       -0.02909019 -0.010021358 -0.040093534 0.0043754983
000120 b2 75 aa 3d 43 de 06 3b a3 2a 97 3c a6 c1 14 3e
       0.0832323 0.0020579256 0.018452948 0.14526996
000130 e8 8e 2d bc 64 8c bc bc dd 07 9f bc 2c 51 18 3b
       -0.010593154 -0.023016162 -0.01941293 0.0023241742
000140 5e 03 8c 3b d4 f5 d4 3c 30 1c 23 3b 07 a9 ad bc
       0.0042728623 0.025996126 0.0024888627 -0.021198763
000150 97 89 43 3c 38 76 e1 3b e6 ef 22 bd d4 f5 cc bc
       0.011934659 0.006880548 -0.039779566 -0.025019564
000160 08 27 39 bc 88 3b 47 bc ea e3 8a bc 02 9d a6 3d
       -0.01130081 -0.012160189 -0.016954381 0.081354156
000170 2c 04 13 bd 0a cc f0 b8 b3 25 47 bd bb 98 86 bc
       -0.03589265 -0.00011482097 -0.048619937 -0.01643025
000180 21 7f 67 bc 66 c4 bd bc df 44 a4 bc f4 9f be 3b
       -0.014129431 -0.02316494 -0.020052372 0.0058174077

fc2.weight f4 [50, 100]
000000 a5 b9 92 bd 8d fe 98 bd 81 e8 b5 bd 82 79 91 3d
       -0.07164315 -0.07470427 -0.08882237 0.07103254
000010 89 a9 04 bd eb f5 7e 3d b9 ed 60 3d cd 83 3c 3d
       -0.032388244 0.062246244 0.05491421 0.046024133
000020 5b 52 a2 bc c0 9d 7f bd 8b f9 6c bd 4d ba 8c 3c
       -0.01981466 -0.0624063 -0.05785517 0.017178679
000030 f3 c6 89 3d 1e eb 0c 3d 18 11 8d 3d 7d 3b 97 3d
       0.067274 0.034403913 0.06888026 0.07384393
000040 82 15 82 bd e6 2f 00 3d 4a d9 07 bd fc 10 d2 bd
       -0.063517585 0.03129568 -0.033166207 -0.10257146
000050 a6 42 d6 bd 40 0b 44 bc 2f 0b 3d bc d3 0c d6 3c
       -0.10461931 -0.011965573 -0.011538311 0.026129162
000060 4d e3 ae bd 65 d9 ac 3d e9 4f 23 bc 49 08 77 bd
       -0.08539448 0.08439902 -0.009967783 -0.060310636
000070 5a cf 69 3d 18 92 0f bd 19 bc f2 bd bf 05 95 bc
       0.05708251 -0.035051435 -0.11852283 -0.018191217
000080 35 59 88 bd f5 fb 4a 3d b6 f8 70 3d 6d 3f 2f bd
       -0.0665764 0.04955669 0.05883094 -0.042785097
000090 1d dd be bd d5 1e 70 bd bf 6f 9f 3c ef 62 b3 3d
       -0.09319518 -0.058623154 0.019462464 0.087591045
0000a0 0d 75 60 3c 10 71 b5 bd 4c 41 a7 bd e8 24 d7 bd
       0.013699782 -0.088594556 -0.08166751 -0.10505086
0000b0 1b b4 1f bd ea d9 29 3c d9 e8 d5 bd 07 0d f9 3c
       -0.03899012 0.010366896 -0.10444803 0.03040172
0000c0 1a 60 e6 bd 84 f4 d6 bb cd c6 56 3d ae 8a 38 3c
       -0.11248799 -0.0065599103 0.052435685 0.011263533
0000d0 82 ab bd bd 75 89 b1 3d f4 b8 2a 3d 42 c3 57 bd
       -0.09261228 0.08668796 0.04168029 -0.052676447
0000e0 e7 3c 43 bd bf 52 1c 3d 00 55 d9 3c 62 66 a6 3d
       -0.047665503 0.03816485 0.026529789 0.08124997
0000f0 3a 6b 87 bb dc bd 01 3e c1 56 4f 3d 6d 91 10 3d
       -0.0041326554 0.12670082 0.050619844 0.03529494
000100 7b 2d 0f bd 93 42 c3 bd c6 a4 d0 bd 27 cd be 3c
       -0.034955483 -0.095341824 -0.10187678 0.023291184
000110 da b1 95 3d e7 a8 3a bc f2 58 70 bc b0 24 4a 3d
       0.07309313 -0.0113928085 -0.014669644 0.049351394
000120 95 60 73 bd 31 5e 89 bd 9e 6e d8 bd 74 ba a5 bd
       -0.05941828 -0.06707419 -0.105679736 -0.08092204
000130 17 e6 cd bd a7 5e 70 bd ef de 82 bd 9c 82 b0 3c
       -0.10053652 -0.058684018 -0.063901775 0.021546654
000140 b2 c5 b0 3d ff b1 9e 3d 7f 4f 8e bb 68 3a c4 bd
       0.086314574 0.07748794 -0.0043429728 -0.095814526
000150 d6 60 95 3b 06 ea af bd c9 7b 71 bd b8 07 0e 3d
       0.004558663 -0.08589558 -0.05895594 0.03467533
000160 6d 49 66 3d a6 92 51 bc 69 27 0b 3d bc a5 0f 3d
       0.056222368 -0.012791311 0.03397313 0.035070166
000170 78 fe 47 bd 4d 69 cc bd 2e 0f 7c bd 63 e6 aa bd
       -0.048826665 -0.09981022 -0.061537914 -0.08344724
000180 cd 41 d6 bd 85 a8 81 3d 79 93 4d bc a0 00 7f bd
       -0.10461769 0.06330971 -0.012547367 -0.062256455
000190 f0 73 47 bd e2 bc d5 3c 04 71 c9 bc da ff 27 3d
       -0.04869455 0.026091043 -0.024590023 0.041015483
0001a0 f9 42 b5 3c 58 fc 97 bd e0 bb 00 3d 9d 8a 47 bd
       0.022126662 -0.074211776 0.03142917 -0.048716176
0001b0 d7 f8 87 bd 4d f2 c0 3b c4 61 be 3a 80 60 bb 3d
       -0.06639259 0.0058882595 0.0014524986 0.09149265
0001c0 31 ea 9e bd d1 af 85 3d 39 d3 9e 3c f3 8d 99 bd
       -0.07759512 0.06527675 0.019387828 -0.07497778
0001d0 4a 0d 34 3d d3 33 32 bd 1a e9 fc 3c d0 36 1a bd
       0.043957986 -0.043506455 0.03087287 -0.03764993
0001e0 c9 c4 89 bd c3 21 9a 3d d9 a2 fa 3c 3f 66 97 bd
       -0.06726987 0.07525971 0.03059523 -0.07392549
0001f0 cb a1 55 3d 64 d6 9c 3c f2 8a 8d bd ec 32 34 bd
       0.05215625 0.019145198 -0.06911267 -0.043993875
000200 4a 09 eb bc be 08 76 3d b8 d5 36 bd af 71 7b 3d
       -0.028690953 0.06006693 -0.04463741 0.061387714
000210 db 1e eb bd a7 c7 be bd 11 12 ad 3d 00 be 96 3b
       -0.114804946 -0.093154244 0.084507115 0.0046002865
000220 c6 d3 94 3d e0 95 c8 bd cb 5e cd 3d 0d ca e5 bc
       0.07266955 -0.097942114 0.10027846 -0.028050447
000230 80 9d 7d 3c 87 45 25 bd 7f ce 58 3d 1d 0b 81 bd
       0.015479445 -0.04034951 0.052931305 -0.06300948
000240 6d a6 94 bc ba f2 9a 3d 49 a4 5e bd 70 23 5c bd
       -0.018145764 0.07565828 -0.054355893 -0.053744733
000250 92 ee 80 3c f5 91 8a bd 07 14 24 bd f7 42 84 3d
       0.01573876 -0.0676612 -0.040058162 0.06458085
000260 6d b4 a7 3c 3d 55 15 3c cb d3 85 bd 15 db a0 bd
       0.020471776 0.009114561 -0.06534537 -0.078542866
000270 d0 29 17 3d 57 4a 71 3d e3 bc b2 bd 67 f5 87 3c
       0.03690511 0.058908787 -0.087274335 0.01659651
000280 9d 7f 1a bd 94 b7 45 bc 11 c5 b6 37 18 10 4b 3d
       -0.037719358 -0.012067694 2.1787857e-05 0.049575895
000290 15 19 2f bd 2d 15 70 bd a5 a5 38 bb bd 1b 94 3d
       -0.04274853 -0.058613945 -0.0028174904 0.07231853
0002a0 f3 cf ad 3d a3 25 23 3d a5 1e 7b bd 92 48 35 bd
       0.08486929 0.039830815 -0.06130852 -0.04425866
0002b0 d4 51 15 bc 22 79 a8 3d d1 3b 32 bc f9 fe b0 3d
       -0.009113748 0.08226229 -0.010878519 0.08642382
0002c0 ad 88 89 bd 5d 1b 64 bd ad 7c cc 3d 05 84 2c 3d
       -0.06715522 -0.05569016 0.099847175 0.04211809
0002d0 a6 02 4b 3d 5c a9 9e bd fb 27 e5 bc 95 9f 9c bd
       0.049563073 -0.077471465 -0.027973166 -0.07647625
0002e0 ec f6 b1 3d 91 30 e6 bd e2 54 5d 3d cf 82 3b bd
       0.08689675 -0.11239732 0.05403603 -0.045779046
0002f0 4f 3b 6d 3d f9 ed 85 bb cd d3 47 3c 77 b9 e1 3b
       0.05791789 -0.0040872064 0.012196493 0.006888564
000300 76 73 f0 bd 32 64 f7 3b 40 ca 69 bd 83 c3 af bd
       -0.117407724 0.007549786 -0.057077646 -0.08582213
000310 9a 90 a6 3b 9b 58 cc bd ec e3 1b 3d b5 08 b3 bd
       0.005083156 -0.09977838 0.03805916 -0.08741895
000320 52 da 23 3d 9c f4 ba bd 35 45 54 3c b8 ef a4 bd
       0.04000313 -0.09128687 0.012955953 -0.08053535
000330 dc a0 50 3d 72 11 a2 bd 2d d7 85 3d 46 f6 cb 3b
       0.050934657 -0.07913484 0.06535182 0.0062244264
000340 e7 9a 8a 3d 13 19 9d bd dc fa d5 3b 7a bf 9c bc
       0.067678265 -0.07670798 0.006530149 -0.019134272
000350 90 e3 6e 3c 23 66 b1 bc 4e 73 a8 bd a3 4b 74 3d
       0.014580622 -0.021655148 -0.082251176 0.059642445
000360 04 33 c4 bc 90 fc ae bc 00 9d 1e 3c b9 fd 86 bd
       -0.023950107 -0.021360666 0.009680986 -0.065913625
000370 06 33 13 bc 8c 2b 85 bd 7e 19 96 bd 47 05 fd bd
       -0.008984333 -0.065024465 -0.07329081 -0.12354522
000380 e3 68 86 3d a7 bd a0 3d 81 fd 82 3d 15 10 aa bd
       0.06562974 0.07848673 0.06396008 -0.08303849
000390 cc 47 18 bb ff 41 43 3b 9d ac 87 3c ed 5d 8f 3c
       -0.0023236154 0.0029793975 0.0165618 0.017500842
0003a0 66 45 b7 3a 1d 9e 32 bd d0 d8 a3 3d 6a 4f 5f bd
       0.0013982474 -0.04360782 0.08000338 -0.054519095
0003b0 64 3e 77 bc 2f 31 05 3d 43 9d 42 3c f8 c7 47 bd
       -0.015090559 0.03251761 0.011878314 -0.04877469
0003c0 43 73 41 3d 18 fb 86 bc be 06 b3 bd e2 e6 89 bd
       0.047229063 -0.016477153 -0.0874152 -0.067334905
0003d0 b0 ae e8 bc 91 84 75 3d f8 61 7e 3d 3a 63 d7 bd
       -0.02840361 0.05994088 0.06210515 -0.10516973
0003e0 7d 15 6a bd 01 e3 37 3d 53 b0 d3 3d 45 85 9c bd
       -0.0571494 0.044894222 0.103363656 -0.07642607
0003f0 ec 7a e5 3c 3f 07 0f 3d 1f 0d cf bd f7 f6 17 bd
       0.028012715 0.03491902 -0.101099245 -0.03710076

fc2.bias f4 [50]
000000 6a 79 b2 bc 65 c7 0c 3d f8 e9 dc bc 9b 59 87 3a
       -0.02178641 0.034369845 -0.026967034 0.0010326387
000010 d7 4b dd 3b 3e 9e 85 3d 29 93 d6 3d 25 d1 87 3d
       0.0067534256 0.06524323 0.10477287 0.06631688
000020 d5 84 7e bd 38 8e fb bb bd 44 32 3e 27 e3 80 3d
       -0.062138397 -0.007676866 0.17409034 0.06293326
000030 5c b3 af 3d 53 80 96 bd 87 9e bb bd 9a e1 d0 bd
       0.08579132 -0.07348695 -0.09161096 -0.1019928
000040 cc 1c bb 3d fc bc a2 bd 02 f9 e0 bc f0 c8 06 3d
       0.09136352 -0.07946202 -0.027462486 0.032906473
000050 da 4f 99 bd 23 96 03 bd df d2 b4 bd 30 82 c1 bc
       -0.074859336 -0.032125603 -0.08829283 -0.023621649
000060 82 3d 96 3c 11 82 4b bd ef a6 68 bd 4c eb ac bd
       0.018339876 -0.049684588 -0.056799825 -0.08443317
000070 30 c3 ba bd 2b aa a4 3d 7f fc ac bd c7 6c 9d 3a
       -0.0911926 0.080402695 -0.08446597 0.0012010568
000080 1f 82 80 3d c2 23 b8 bd b9 ef 93 3c 23 4a fa 3d
       0.06274819 -0.08991195 0.018058645 0.12221172
000090 e7 bd 4a 3b 67 63 a6 3c b5 ab 96 3c 39 88 5a 3c
       0.0030935945 0.02031107 0.018392423 0.013338142
0000a0 1a 7c c8 3c 49 bc 3d 3d 71 85 3d 3d 30 d7 94 3c
       0.024473239 0.04632214 0.046269838 0.018169016
0000b0 07 3d aa bd f0 9e 53 bc fa 12 99 3d 06 b2 79 3d
       -0.08312421 -0.012916312 0.074743226 0.060960792
0000c0 4c ad 61 39 1f 24 cc 3d
       0.0002152223 0.09967827

fc3.weight f4 [1, 50]
000000 06 51 d2 bd 7e a5 59 3d 7e 30 e1 3a 5d a9 6f bd
       -0.1026936 0.05313634 0.001718059 -0.058511127
000010 c8 15 56 3c 1b 40 86 3d 93 19 02 3e 91 f1 93 3d
       0.0130667165 0.06555196 0.12705068 0.072238095
000020 64 16 a1 3d 30 2b 7d bc 11 35 c0 3d b7 af 1b 3a
       0.07865599 -0.015452191 0.093851216 0.00059389643
000030 21 e5 44 bd 8b 93 73 bd 6e 89 33 bd 9d fb a7 bd
       -0.048070077 -0.05946688 -0.043832235 -0.08202288
000040 71 4e a5 bd 29 8e a7 3c cd 70 8e 3d d3 85 42 3d
       -0.08071602 0.02045353 0.06955109 0.047490906
000050 a3 06 15 bd 29 4b f0 bc d3 3e 7c bd f7 09 25 3d
       -0.036383282 -0.029332714 -0.06158335 0.040292706
000060 89 ff d9 bc d5 24 d0 3d 82 73 49 bc 33 bd bb bd
       -0.026611106 0.10163275 -0.012295606 -0.09166946
000070 86 46 03 3d bd 08 05 3d e5 29 be bc 6e 57 04 bd
       0.03204968 0.032479037 -0.023213336 -0.032309942
000080 a5 23 d9 3d 12 ac 99 bd c4 ad e5 bc 31 0b e4 3d
       0.10602502 -0.07503523 -0.02803696 0.11134947
000090 7f 41 d7 bd b2 b8 b7 bd 6a 1a ab 3d 8f 2a 8b 3b
       -0.10510539 -0.08970775 0.083546475 0.0042470167
0000a0 0b 7d 90 3d 85 e2 13 3b 17 3f 1e 3e d3 77 9d 3b
       0.070551 0.0022565436 0.15453754 0.004805544
0000b0 15 ae 74 3d ee 48 76 3d c2 d9 b5 bc 98 dd b7 bd
       0.05973633 0.060128145 -0.022198562 -0.089778125
0000c0 6b 05 25 3d 6c 01 80 3d
       0.04028837 0.06250271
