models/hybrid_neurons_pretrained/MLP2_HUMAN_AE1BERT_2_att.pth (torch, 229642 bytes, 34 tensors)

embedding_proj.weight f4 [96, 60]
0	0x3c33b47d	0.010968325
1	0xbc0a225b	-0.008431043
2	0x3deffa83	0.11717703
3	0xbde5037f	-0.111823075
4	0xbe10043e	-0.14064118
5	0x3dd0ef2d	0.10201869
6	0x3ddd0c67	0.10793381
7	0xbd8aa7db	-0.06770297
8	0xbcb40b96	-0.02197818
9	0xbd933f5c	-0.07189819
10	0x3e3189d7	0.17337738
11	0x3e18be15	0.1491626
12	0x3d1c3b17	0.03814229
13	0x3db44a67	0.088032536
14	0x3d154605	0.03644373
15	0x3dd58096	0.104249164
16	0xbe1d4755	-0.15359242
17	0xbc9c4442	-0.019075517
18	0x3d935f71	0.071959384
19	0x3dc05c32	0.09392585
20	0x3e25bb7f	0.16184805
21	0xbd267c2e	-0.04064577
22	0x3e580988	0.21097386
23	0xbe934fba	-0.28771764
24	0x3d8701e9	0.06592161
25	0x3e372115	0.17883714
26	0xbdc2f411	-0.09519208
27	0x3d469ece	0.04849129
28	0xbd320c94	-0.043469027
29	0xbe3245db	-0.1740946
30	0xbdd7cee4	-0.10537508
31	0x3c84c891	0.016208919
32	0x3e89c759	0.26909903
33	0x3dea95a9	0.11454327
34	0xbd8939fa	-0.06700511
35	0x3d981c1f	0.07427239
36	0xbdd17864	-0.10228041
37	0x3d9328e9	0.07185537
38	0xbe1c6c94	-0.15275794
39	0x3d9aad53	0.0755259
40	0x3df2029e	0.118169054
41	0xbdfd6dbb	-0.12374445
42	0x3dc6b15d	0.09701798
43	0xbdef1543	-0.11673977
44	0xbdaa7509	-0.08323104
45	0x3b0bdc7f	0.0021341143
46	0x3d0e5895	0.034752447
47	0x3d80ff65	0.06298713
48	0x3c1f24f9	0.009713405
49	0x3e4c65cf	0.19960712
50	0xbd34fb00	-0.044184685
51	0x3e3a5715	0.18197282
52	0x3d118484	0.035526767
53	0xbde72871	-0.112870105
54	0xbca1a3ae	-0.019731369
55	0x3db0840a	0.086189345
56	0xbe03ad43	-0.12859063
57	0xbdbffdaf	-0.09374558
58	0x3d2aa926	0.04166522
59	0x3b8fe2ae	0.004391036
60	0x3dedbcad	0.11608253
61	0x3d8c909a	0.06863518
62	0xba0b30a8	-0.00053096795
63	0xbd3675bd	-0.044545878
64	0x3e2f9a8c	0.17148799
65	0xbd9a3151	-0.075289376
66	0x3e2625c1	0.1622534
67	0x3e26065c	0.16213363
68	0x3e08c5e2	0.13356736
69	0x3dedaf3b	0.11605688
70	0x3df04152	0.11731209
71	0xbd15c8c3	-0.036568414
72	0xbe749537	-0.23885046
73	0xbe4e5e62	-0.20153192
74	0xbdac9d39	-0.08428425
75	0x3e18f84d	0.14938469
76	0xbdce98de	-0.10087751
77	0x3d8a9cef	0.06768214
78	0xbe1a89b6	-0.15091595
79	0xbdbc2771	-0.0918721
80	0xbde7fcc4	-0.11327508
81	0xbdbcc1c9	-0.09216649
82	0x3dad6452	0.084664
83	0x3dbda581	0.09260083
84	0x3df23cbe	0.11827992
85	0x3e86cc56	0.2632777
86	0x3e1611ed	0.14655276
87	0xbcfb310c	-0.030663036
88	0xbc068d66	-0.008212423
89	0x3d5af3d1	0.053455178
90	0x3d880052	0.06640686
91	0x3d45bff0	0.04827875
92	0x3dab34b1	0.083596595
93	0xbd3b23bd	-0.04568838
94	0x3e0b52db	0.13605826
95	0x3e410322	0.18848851
96	0x3c2125a6	0.009835636
97	0xbda74775	-0.08167926
98	0xbcf81f33	-0.030288314
99	0xbd96cc4c	-0.07363185
100	0x3e18325d	0.14862962
101	0xbd1bb1fe	-0.038011543
102	0xbe130496	-0.14357218
103	0x3cdc4ad8	0.026891157
104	0xbd90a03a	-0.07061811
105	0x3c9989a4	0.01874239
106	0x3da716f9	0.081586786
107	0x3e3a0e7a	0.18169585
108	0xbdf38042	-0.118896976
109	0x3d8603c3	0.06543686
110	0xbe282f13	-0.16424207
111	0x3e4142b9	0.18873109
112	0x3d1dfa6f	0.03856891
113	0xbdf4f345	-0.119604625
114	0x3e21ad9c	0.15788883
115	0xbe476d7d	-0.1947536
116	0x3d5cd9f3	0.05391879
117	0x3c1d4c05	0.009600644
118	0x3a83f3b4	0.0010067136
119	0x3da39032	0.079864874
120	0x3e26b30d	0.1627924
121	0xbe237c46	-0.15965375
122	0xbdb58d44	-0.08864835
123	0x3d836bb1	0.06417025
124	0xbded6a6e	-0.115925655
125	0x3e36b2c5	0.17841633
126	0x3d351fb5	0.04421969
127	0x3de26054	0.110535294
128	0xbcd3dd4c	-0.025862359
129	0xbdd5b38e	-0.10434638
130	0x3d094bb9	0.03351948
131	0xbd7b7a12	-0.061395712
132	0xbd4fa3a9	-0.050693188
133	0x3d6a5fcc	0.057220265
134	0x3d98996a	0.074511364
135	0x3e2cf652	0.16890839
136	0xbd0a9b9f	-0.033839818
137	0x3e3ce466	0.18446502
138	0x3e25f3db	0.16206305
139	0x3d3a0391	0.045413557
140	0x3df2a784	0.11848357
141	0x3ddda05c	0.10821602
142	0xbda07d97	-0.07836454
143	0xbe0e6b06	-0.13908014
144	0xbd3a4a88	-0.045481235
145	0x3a387fcb	0.00070380856
146	0x3d2eebeb	0.042705458
147	0x3d9be85b	0.07612678
148	0x3cc68bb1	0.024236532
149	0x3dfb478e	0.12269507
150	0xbdbcbaa0	-0.092152834
151	0x3d87d3a7	0.06632166
152	0x3db40ace	0.08791123
153	0x3d22fb7e	0.039790623
154	0xbe12a691	-0.14321353
155	0x3d67a77a	0.056556202
156	0x3db762ae	0.089543685
157	0x3d645136	0.05574151
158	0x3e49ab2a	0.196942
159	0x3e431826	0.1905218
160	0x3c587ae6	0.013212895
161	0x3d9b5abd	0.07585666
162	0x3d5cbe45	0.053892393
163	0xbdcc028f	-0.099614255
164	0xbd6b68bd	-0.057472933
165	0xbdace264	-0.08441618
166	0xbbaa6b31	-0.0052007665
167	0xbe400bee	-0.18754551
168	0x3c55a9ba	0.013040954
169	0x3dd4f7ed	0.103988506
170	0xbe301fe6	-0.17199668
171	0x3d5ed978	0.054406613
172	0x3cd65d75	0.02616761
173	0xbe1867a5	-0.14883287
174	0x3ccd1c17	0.025037808
175	0x3c4cfc2e	0.012511296
176	0xbe06cfbd	-0.13165183
177	0xbdb0ee89	-0.08639247
178	0xbc471ffe	-0.012153624
179	0x3dc6b73b	0.09702917
180	0xbd9b8c12	-0.07595076
181	0x3e062186	0.13098726
182	0xbd222479	-0.039585564
183	0x3e104537	0.14088903
184	0xbdeabab3	-0.11461391
185	0x3cd2d07c	0.025734179
186	0x3d1a2b41	0.037638906
187	0xbc986cb6	-0.018606525
188	0x3d8300fb	0.063966714
189	0x3e09e57b	0.13466446
190	0xbe419138	-0.18903053
191	0x3cbf2b10	0.023335963
192	0xbd562cb8	-0.05228874
193	0x3dc68d03	0.096948646
194	0x3d200f39	0.039077017
195	0x3a779997	0.0009445189
196	0x3d724a2d	0.05915277
197	0xbd70a374	-0.05874963
198	0x3ca150b1	0.019691797
199	0x3d9a194d	0.07524357
200	0x3dfbc92e	0.12294231
201	0x3d1c96c5	0.038229723
202	0x3d02852c	0.031865284
203	0xbe4d7dc9	-0.20067514
204	0x3e1f2c93	0.15544347
205	0xbe0f6d2c	-0.1400649
206	0xbcf38ec2	-0.029731158
207	0x3c20d04f	0.00981529
208	0xbd0c1b08	-0.034205467
209	0x3e16fa58	0.14743936
210	0x3d806e3a	0.06271024
211	0x3d4a5fcf	0.049407776
212	0x3d092d92	0.033490725
213	0xbe3611a7	-0.17780171
214	0x3dde566e	0.10856329
215	0xbe23610b	-0.15954988
216	0x3e845d89	0.25852612
217	0xbd9f9d75	-0.077937044
218	0xbe3f852f	-0.1870315
219	0xbe49758b	-0.19673745
220	0xbc683d15	-0.014174719
221	0x3d8921c1	0.06695891
222	0xbd5a5b1f	-0.053309556
223	0x3dd8b837	0.10582011
224	0xbddb0f24	-0.10696247
225	0x3e0ade24	0.13561302
226	0x3e4422b2	0.1915386
227	0x3defcf39	0.117094465
228	0x3ba0ffbb	0.004913298
229	0x3e7b7f8f	0.24560378
230	0xbd75e512	-0.06003291
231	0x3c0532d6	0.008129796
232	0x3dce3438	0.10068554
233	0xbe22e093	-0.15905981
234	0x3c8b4474	0.017000414
235	0xbd8cdecb	-0.06878432
236	0xbe86b981	-0.26313403
237	0xbdcf8838	-0.101334035
238	0x3ce7715d	0.028252298
239	0xbe686141	-0.2269335
240	0x3d8bc07d	0.068238236
241	0x3d5828f4	0.05277343
242	0x3e879169	0.26478127
243	0x3e031a79	0.12803067
244	0x3e0443f6	0.1291655
245	0x3cddd26b	0.027077874
246	0x3e08562d	0.13314123
247	0x3e1b937a	0.15192977
248	0x3d661cda	0.05617986
249	0xbd4acda9	-0.04951254
250	0x3d4399a8	0.04775396
251	0xbd8dd03a	-0.06924482
252	0xba605fb3	-0.0008559182
253	0xbdcf65f3	-0.10126867
254	0x3cc64f71	0.024207802
255	0x3e364b8f	0.17802261

embedding_proj.bias f4 [96]
0	0x3a703be4	0.0009164198
1	0x394c24f9	0.0001946873
2	0xbba11e27	-0.0049169245
3	0x3c035462	0.008015724
4	0xbb4cc784	-0.003124685
5	0xbb01bb07	-0.0019795315
6	0x3b3ed26e	0.0029117125
7	0xbbc204ad	-0.0059209676
8	0xbb873730	-0.004126452
9	0xbad87e33	-0.0016517102
10	0xb92c7b23	-0.0001644907
11	0xbb33b948	-0.0027423669
12	0xbb353c50	-0.0027654357
13	0x3a7f7073	0.0009744234
14	0x39a21c47	0.00030920116
15	0x3be2cbb7	0.0069212574
16	0xbb231011	-0.0024881402
17	0xbb6651a0	-0.0035143867
18	0x398b0e30	0.00026522717
19	0x3b2bf5c1	0.002623901
20	0x39793ffd	0.00023770328
21	0x3aad4eb1	0.0013222304
22	0xbb8d2536	-0.0043074144
23	0x3aa0a998	0.0012257574
24	0x3a0ca13e	0.0005364603
25	0x3b7c780e	0.0038523707
26	0x3b426d81	0.002966732
27	0xbaafeada	-0.0013421432
28	0x3b3aeb38	0.002852155
29	0xba6ce9f4	-0.0009037547
30	0x3aa59aea	0.0012634669
31	0x3b09f60f	0.0021051203
32	0x3a91bbac	0.0011118553
33	0xbacd1e2f	-0.0015649254
34	0x3ba7cc2d	0.005120775
35	0x3b6b6111	0.003591601
36	0xbb773ef9	-0.0037726744
37	0x3b542051	0.0032367895
38	0xbb3eaea4	-0.0029095793
39	0x38890130	6.53289e-05
40	0x39d42eec	0.0004047075
41	0x3b8097b7	0.003924336
42	0x3a035408	0.0005009775
43	0xbaf5e03e	-0.0018758846
44	0xba445364	-0.0007489233
45	0x3ba4ad63	0.005025552
46	0xbb78c821	-0.0037961083
47	0x3ac32f50	0.001489142
48	0x3a18ad30	0.0005824147
49	0x3b2ae318	0.00260753
50	0x3b586b2b	0.0033022861
51	0x3a5de098	0.0008463948
52	0xba0ce5f6	-0.0005374843
53	0x3b047c5e	0.002021573
54	0xbb5409c7	-0.003235446
55	0xbb250689	-0.0025180897
56	0x3af7de99	0.0018910944
57	0xbba7544c	-0.0051064845
58	0x3acce7d4	0.0015633055
59	0x39a379c6	0.0003118051
60	0xbb24c4ea	-0.0025141784
61	0x3b964b59	0.004586619
62	0x3a9256d7	0.0011164796
63	0x3a55331a	0.000813292
64	0xb8e59d45	-0.00010948865
65	0xba4fda0e	-0.0007928916
66	0xb7c97804	-2.4016954e-05
67	0x3c21041b	0.009827639
68	0xb9af13fb	-0.00033393488
69	0xbb1d1959	-0.0023971407
70	0xbae4c614	-0.0017454051
71	0xbb9400cb	-0.004516696
72	0xbab0d5f2	-0.0013491495
73	0x3b66d045	0.0035219353
74	0xbaf5b3d9	-0.0018745615
75	0x39b13423	0.00033798916
76	0xbbaa7cd5	-0.0052028694
77	0x3accdefe	0.0015630422
78	0xb97dac01	-0.00024192037
79	0xbaad4bb3	-0.0013221413
80	0x3ab29629	0.0013625073
81	0xbb582a9d	-0.0032984384
82	0xbb602f7b	-0.0034207988
83	0xbaf61ed4	-0.0018777498
84	0x3a6e3b5c	0.0009087825
85	0xba0347aa	-0.0005007932
86	0xbb8d9e2a	-0.004321833
87	0x39a9c77d	0.00032382822
88	0xbbcd449d	-0.006264283
89	0xb900b197	-0.00012273189
90	0x3b115562	0.0022176136
91	0x3b92d5c8	0.004481051
92	0xbaa227da	-0.0012371496
93	0xba6a7822	-0.0008944293
94	0x3b63e440	0.0034773499
95	0x3a1bfab3	0.0005950138

categorical_proj.weight f4 [17, 17]
0	0x3f2bff31	0.67186266
1	0x3d878ef9	0.06619067
2	0x3ea6dd39	0.32590654
3	0xbd3590f0	-0.044327676
4	0xbebba731	-0.36650994
5	0xbe4e4b8f	-0.20146011
6	0x3e8e8ebb	0.2784327
7	0x3ecce505	0.40018478
8	0xbea2e40e	-0.31814617
9	0xbeb02f2a	-0.34410983
10	0x3f4f1c73	0.80902785
11	0x3e0e54b0	0.13899493
12	0xbdb2ba88	-0.08726984
13	0xbd525fe5	-0.051360983
14	0xbe716807	-0.2357484
15	0xbe4f194d	-0.20224495
16	0xbe6e0621	-0.23244525
17	0xbdc23fda	-0.09484835
18	0x3b4aec93	0.0030963763
19	0x3c597a96	0.013273856
20	0x3d94b4a3	0.07261016
21	0x3e2aef63	0.16692881
22	0xbee66d20	-0.4500513
23	0x3ec702c5	0.388693
24	0x3e52d008	0.2058717
25	0x3e8ca916	0.27472752
26	0xbed7e6e9	-0.42168358
27	0xbe0ef89a	-0.13962021
28	0xbec86222	-0.3913737
29	0x3f165db5	0.58736736
30	0xbe04434b	-0.12916295
31	0x3eee8ea2	0.46593195
32	0x3e09f18f	0.13471054
33	0x3df40677	0.119152956
34	0x3f3e4584	0.7432482
35	0x3d0629e8	0.03275481
36	0xbe214b81	-0.15751459
37	0xbeb8654a	-0.36014777
38	0xbd56a4c5	-0.05240323
39	0xbe7bd0a5	-0.2459131
40	0xbeb827b4	-0.3596779
41	0x3ea70dc6	0.32627696
42	0xbc74b253	-0.014935094
43	0xbeb0177d	-0.3439292
44	0x3f155026	0.5832542
45	0x3e84d70a	0.25945312
46	0x3e48a9c3	0.19596009
47	0xbeba9af4	-0.36446345
48	0x3dcf9d29	0.10137398
49	0xbe1c927d	-0.15290256
50	0xbe5f7535	-0.21822055
51	0xbcb6e398	-0.022325322
52	0xbe93d8be	-0.288763
53	0x3e590cf5	0.21196349
54	0x3e302d9c	0.17204899
55	0x3e367123	0.17816596
56	0x3e889bea	0.26681453
57	0x3e0a9d5a	0.13536587
58	0x3e8fc9dd	0.28083697
59	0x3e1a1833	0.15048294
60	0x3cc3f16a	0.023918826
61	0x3f6e874e	0.9317521
62	0xbcb2a0cb	-0.021805188
63	0xbe85bedd	-0.2612218
64	0xbce4f9f8	-0.027951226
65	0xbe10861d	-0.1411366
66	0x3df3f192	0.1191131
67	0xbdcf7b3c	-0.10130927
68	0x3e06aca4	0.13151795
69	0x3d04466b	0.03229372
70	0xbd9e9766	-0.07743721
71	0x3d295ebf	0.041350123
72	0x3e98914c	0.29798353
73	0x3eed987c	0.464054
74	0xbdf985a7	-0.12183695
75	0xbdef35da	-0.11680193
76	0xbebefb79	-0.37301233
77	0x3e7b7f61	0.2456031
78	0x3e8dd0d8	0.27698398
79	0x3eddf0ca	0.4334777
80	0xbdceb531	-0.10093153
81	0x3e99f679	0.30070856
82	0x3e66f7f4	0.22555524
83	0x3d9ec18e	0.077517614
84	0x3ec70df5	0.38877836
85	0x3dae56e2	0.08512665
86	0xbea7dd57	-0.32786056
87	0x3e1431e4	0.14472157
88	0xbe8f17b8	-0.27947783
89	0x3e950a87	0.29109594
90	0x3e380dbd	0.1797399
91	0xbebfff43	-0.37499437
92	0xbe1a307e	-0.15057561
93	0x3ed73f1b	0.42040333
94	0x3ece049a	0.40237886
95	0xbeb14054	-0.3461939
96	0xbe429057	-0.19000374
97	0x3ed75016	0.42053288
98	0xbecee0ed	-0.4040598
99	0x3e7a43a5	0.24439867
100	0x3e8e84a9	0.27835587
101	0xbe0d892b	-0.13821857
102	0x3dad41b5	0.08459798
103	0x3ee58419	0.44827345
104	0x3e84e785	0.25957885
105	0xbd294ec1	-0.04133487
106	0xbddf568f	-0.109051816
107	0xbea78a06	-0.3272249
108	0x3ef5f02c	0.480348
109	0x3ee27dad	0.44236508
110	0xbd43a925	-0.04776873
111	0x3eac34c7	0.33634016
112	0xbe995728	-0.29949307
113	0x3e0fb1c8	0.14032662
114	0x3e29798a	0.1655027
115	0x3d949356	0.072546646
116	0x3e1c0ff9	0.15240468
117	0x3e9039b9	0.2816904
118	0xbeb060ee	-0.3444895
119	0x3f0a6fe1	0.54076964
120	0x3e0f2706	0.1397973
121	0x3d63f099	0.055649374
122	0x3dd13f14	0.10217109
123	0x3ddedd06	0.108820006
124	0x3d9bf7f9	0.076156564
125	0xbde8ee39	-0.11373562
126	0xbdec0efe	-0.11526297
127	0xbe65d6e5	-0.22445257
128	0x3ed4e1fc	0.41578662
129	0x3f001929	0.5003839
130	0xbe3342fe	-0.17506024
131	0xbf32d9ff	-0.69863886
132	0xbe10ff10	-0.14159799
133	0x3d24ec27	0.040264275
134	0xbe91014c	-0.28321302
135	0xbe1ac02d	-0.15112372
136	0xbe20f225	-0.15717371
137	0xbe664ca5	-0.22490175
138	0x3df44555	0.119272865
139	0x3d7cdd37	0.061734404
140	0x3e683549	0.22676577
141	0x3d93b451	0.07212127
142	0xbebf6644	-0.3738271
143	0xbebaa0fb	-0.36450943
144	0x3d8dc2bf	0.069219105
145	0x3d2fe881	0.042946342
146	0x3f185741	0.5950814
147	0x3d9f9f09	0.077940054
148	0xbf4047f0	-0.7510977
149	0xbe7d899f	-0.2475953
150	0x3ec8b995	0.39204088
151	0x3e3763b6	0.1790913
152	0x3e9f45a1	0.3110781
153	0x3ec6ef0a	0.38854247
154	0xbdb631b5	-0.088961996
155	0x3eb5e368	0.3552506
156	0x3ecf5dea	0.40501338
157	0x3e46906f	0.19391035
158	0xbee63f6e	-0.44970268
159	0xbe52a839	-0.20571984
160	0x3f2b517c	0.6692121
161	0x3e1619c5	0.14658268
162	0x3ee8e104	0.45484173
163	0x3d70ab5e	0.05875718
164	0x3e5a769a	0.21334305
165	0x3eade459	0.33963278
166	0xbe80bdf4	-0.25144923
167	0xbe8be516	-0.27323216
168	0x3b4d0cce	0.003128815
169	0x3e6ad52c	0.22932881
170	0xbef35b4d	-0.47530594
171	0xbdd0c38c	-0.101935476
172	0x3e54e924	0.20792061
173	0xbe58f571	-0.21187378
174	0x3ce4926b	0.027901849
175	0xbe871f4b	-0.26391062
176	0xbe27e562	-0.16396096
177	0xbefe8fe3	-0.49719152
178	0xbe73e4d8	-0.23817766
179	0x3ead928f	0.33900878
180	0xbe221a38	-0.15830314
181	0xbf1c0715	-0.60948306
182	0xbe90c663	-0.28276357
183	0xbdbf2e0f	-0.09334957
184	0x3e6c5b82	0.23081782
185	0xbea997c5	-0.33123603
186	0x3e4b7a14	0.19870788
187	0xbdb69fc4	-0.089171916
188	0xbf26a791	-0.65099436
189	0xbdabbe26	-0.08385877
190	0x3e6f0711	0.2334254
191	0xbe2327d8	-0.15933168
192	0xbec824bb	-0.39090523
193	0xbd91c8b9	-0.07118363
194	0xbea491ba	-0.3214243
195	0xbe69f76a	-0.22848287
196	0xbc8fd3de	-0.01755708
197	0xbeab7f2d	-0.33495465
198	0xbd21bd5d	-0.03948723
199	0xbf002cbd	-0.50068265
200	0x3eb3ef0a	0.3514331
201	0xbe6e69b0	-0.23282504
202	0x3ee313b1	0.4435096
203	0xbeed80a8	-0.4638722
204	0xbe893ffa	-0.26806623
205	0x3dc1362c	0.094341606
206	0x3e46b50d	0.19405003
207	0x3e2b9462	0.16755822
208	0xbe8451a5	-0.2584354
209	0x3e23a8e2	0.15982392
210	0xbe469d65	-0.19395979
211	0xbe325c06	-0.17417917
212	0xbe54d049	-0.2078258
213	0x3c61a520	0.013772279
214	0xbe99a4c0	-0.30008507
215	0x3e6bcace	0.23026583
216	0x3f1d5b78	0.61467695
217	0xbe91279c	-0.28350532
218	0xbe680a42	-0.22660163
219	0x3d5d7593	0.054067206
220	0x3e0ec7ad	0.13943358
221	0x3f2459b2	0.64199364
222	0xbdbf6aa8	-0.09346515
223	0xbe999ec5	-0.30003944
224	0xbe926d2f	-0.28598925
225	0x3e8b8f47	0.2725775
226	0xbcefead7	-0.029286785
227	0xbe2555fb	-0.1614608
228	0x3f172999	0.5904785
229	0x3dd8e985	0.10591415
230	0x3e9e6fa9	0.30944565
231	0x3dc396a3	0.09550216
232	0xbe7699ba	-0.2408208
233	0x3c710336	0.014710238
234	0xbe02cc84	-0.12773329
235	0xbd4e55b3	-0.050374698
236	0x3d3abcb1	0.045590106
237	0x3dfa5e09	0.12224967
238	0x3d1253f1	0.035724584
239	0xbe887304	-0.2665025
240	0x3e93d79f	0.28875443
241	0xbed30ed8	-0.41222262
242	0x3e7c954c	0.24666327
243	0xbd0f901f	-0.035049554
244	0x3ced750f	0.028986482
245	0x3e8faa63	0.28059682
246	0x3d830d76	0.06399052
247	0x3e32e334	0.17469484
248	0x3da8c235	0.08240167
249	0xbe4387f8	-0.19094837
250	0x3d0d7d46	0.0345433
251	0xbe6d0833	-0.23147659
252	0x3eef0a73	0.4668766
253	0xbd7d85d0	-0.06189519
254	0x3ef19160	0.47181225
255	0x3e0b17fe	0.13583371

categorical_proj.bias f4 [17]
0	0x3ae2855a	0.0017282174
1	0xb99ea85b	-0.00030261543
2	0xbb823f2c	-0.003974816
3	0x3bb05ac7	0.0053819153
4	0xbc295529	-0.010335245
5	0x3b8b56b4	0.004252279
6	0x3b0ddefd	0.0021647804
7	0x3b614d80	0.003437847
8	0x3ba8ee2d	0.005155346
9	0x3926c09b	0.00015902745
10	0xbb748ce7	-0.003731543
11	0x3b1507fd	0.0022740357
12	0x39b4c2f5	0.0003447753
13	0xbb966ea2	-0.004590825
14	0xbaa6c1e3	-0.0012722578
15	0x3882bd62	6.234158e-05
16	0x3a945e77	0.0011319657

combine_proj.weight f4 [128, 113]
0	0xbb67953c	-0.0035336753
1	0x3d24a396	0.04019507
2	0x3db98448	0.09058434
3	0xbd80acdc	-0.0628297
4	0xbdc8f978	-0.098132074
5	0xbdf09bca	-0.117484644
6	0xbc7bfb7f	-0.015379786
7	0xbdadb16b	-0.084811054
8	0xbdeda373	-0.11603441
9	0xbda29163	-0.079378866
10	0xbdbd624e	-0.09247266
11	0xbdfe7ded	-0.12426362
12	0x3e4e51f0	0.20148444
13	0x3d602685	0.054724235
14	0xbd9d02a0	-0.07666516
15	0xbdfb5ea4	-0.12273911
16	0xbd5e1710	-0.054221213
17	0x3d91f749	0.07127244
18	0x3d82fcad	0.0639585
19	0xbd2d6f88	-0.042342693
20	0x3c53ed83	0.012935045
21	0xbb8ce72f	-0.00430002
22	0x3d5c69b2	0.053811736
23	0xbda11d88	-0.07866961
24	0xbd737f7e	-0.059447758
25	0xbd89bfc6	-0.06726031
26	0xbd98db4e	-0.07463704
27	0x3d901487	0.07035165
28	0xbe06cbb4	-0.13163644
29	0x3db6599f	0.089038126
30	0x3d9422dd	0.07233212
31	0x3d1e1e5a	0.038603164
32	0xbd0ef47f	-0.03490114
33	0xbd597868	-0.053093344
34	0x3e2054c7	0.1565734
35	0x3dc05e4d	0.093929864
36	0xbe5164b4	-0.20448571
37	0xbe3cb7e9	-0.18429531
38	0xbdf6248a	-0.12018688
39	0xbc881239	-0.016610252
40	0x3cf5e28f	0.030015258
41	0x3e1ab0d4	0.15106517
42	0xbd6d131d	-0.057879556
43	0x3db31c1f	0.08745598
44	0xbb4c946a	-0.0031216391
45	0xbd9cd396	-0.07657544
46	0x3e0237bc	0.12716573
47	0xbd3f4850	-0.046699822
48	0x3df48a5c	0.119404525
49	0x3d6a6ee9	0.05723468
50	0xbde2b008	-0.110687315
51	0x3e24cdfc	0.16094202
52	0xbde1a6b6	-0.11018126
53	0xbd1d65b9	-0.03842709
54	0x3d50ae11	0.050947253
55	0xbd0c207b	-0.034210663
56	0xbe00f6d3	-0.12594156
57	0xbe005854	-0.12533695
58	0x3ba825f4	0.0051314775
59	0xbcd2df9d	-0.025741393
60	0xbe18bf7a	-0.14916793
61	0xbdbe71d1	-0.092990525
62	0xbd953748	-0.07285935
63	0xbdd4004b	-0.103516184
64	0x3ddd61d4	0.10809675
65	0x3d7ff4e4	0.062489405
66	0xbd1bf2df	-0.038073417
67	0x3e09f946	0.13473997
68	0xbe12da69	-0.1434113
69	0x3e24867c	0.16066927
70	0x3e01da30	0.12680888
71	0xbb0cadec	-0.002146597
72	0x3dc79b1c	0.09746382
73	0xbd682ef0	-0.056685388
74	0xbe294351	-0.16529585
75	0xbe38d897	-0.18051372
76	0xbe1cbdb2	-0.15306738
77	0xbb32f0f8	-0.0027304273
78	0xbd1c2eaa	-0.03813044
79	0xbca3411b	-0.019928506
80	0xbdc75627	-0.09733229
81	0xbda532d1	-0.08066333
82	0xbdf145f4	-0.117809206
83	0xbd201f79	-0.039092515
84	0x3dd1a1cd	0.10235939
85	0xbe302eed	-0.17205401
86	0x3d86296b	0.065508686
87	0x3c8bbc60	0.017057598
88	0xbe95b2c7	-0.2923796
89	0x3d7bc6ec	0.061469004
90	0x3e3b2344	0.18275172
91	0x3d5b5792	0.05355031
92	0xbe12b807	-0.14328013
93	0xbd9a2775	-0.07527057
94	0xbdd4bea7	-0.103879265
95	0x3ba11ba9	0.0049166274
96	0xbd6711df	-0.056413528
97	0x3d981cdc	0.074273795
98	0xbe4df435	-0.20112689
99	0xbe55e4d2	-0.2088807
100	0x3d3b3fe1	0.045715217
101	0x3dd0f724	0.10203388
102	0xbe0e9b0b	-0.13926332
103	0xbe4e0cca	-0.20122066
104	0x3e697caa	0.22801462
105	0xbe47df11	-0.19518687
106	0x3e918b87	0.28426763
107	0x3ea19bb6	0.3156411
108	0x3df60cfa	0.12014194
109	0xbe801606	-0.25016803
110	0xbd699aaa	-0.057032265
111	0xbe521d6e	-0.20519039
112	0x3ce5b935	0.028042415
113	0x3d9c9977	0.076464586
114	0xbc06a3b4	-0.008217741
115	0x3e14367f	0.14473914
116	0x3cf6df7f	0.030135868
117	0xbe054823	-0.13015799
118	0x3e0f85f6	0.14015946
119	0xbd7e9d3a	-0.06216166
120	0xbcc71167	-0.02430029
121	0xbbacac28	-0.005269546
122	0xbcc82a33	-0.024434185
123	0xbdd35fb0	-0.10320985
124	0x3d94aa93	0.07259097
125	0xbd8d1746	-0.06889205
126	0x3c9e735c	0.019342117
127	0x3d7bc9f1	0.061471883
128	0xbe46b09c	-0.19403309
129	0x3e3b1bca	0.1827232
130	0x3c954588	0.018221632
131	0x3bc21590	0.0059229806
132	0xbe3970ae	-0.1810939
133	0xbdba8652	-0.09107651
134	0x3ced4323	0.028962677
135	0xbe0a5283	-0.13508038
136	0x3ca176f9	0.01971005
137	0x3ca57352	0.02019659
138	0xbdf0d0b9	-0.11758561
139	0xbd3f01d7	-0.046632614
140	0xbdb21187	-0.08694749
141	0x3e06337f	0.13105582
142	0x3af8a5c0	0.0018970296
143	0xbb94026b	-0.00451689
144	0x3e0135ca	0.12618175
145	0xbd4116f7	-0.04714104
146	0xbdee9c34	-0.11650887
147	0xbe0fd87a	-0.14047423
148	0xbd127a6c	-0.03576128
149	0xbd1fd249	-0.039018903
150	0xbd472c04	-0.04862596
151	0xbd30d633	-0.043173026
152	0xbdd5152c	-0.10404429
153	0x3c2ac6c4	0.010423366
154	0xbe50df84	-0.20397764
155	0x3bdfea9f	0.006833389
156	0xbce024f4	-0.02736137
157	0x3d6f2427	0.058384087
158	0xbdd4288a	-0.10359295
159	0x3daca201	0.08429337
160	0x3ddbbe1c	0.1072962
161	0xbc172940	-0.009226143
162	0xbe10ed7e	-0.14153096
163	0xbca9df96	-0.020736497
164	0xbdca3d31	-0.098749526
165	0xbdbffbb6	-0.09374182
166	0x3e0bb8f1	0.13644768
167	0x3db06cc1	0.08614493
168	0xbcdc4286	-0.02688719
169	0x3dfbde9e	0.1229832
170	0x3d401422	0.0468942
171	0x3d962b37	0.07332461
172	0xbbebc5e5	-0.0071952217
173	0x3dce00ea	0.10058768
174	0x3e06712b	0.13129108
175	0xbdd79617	-0.10526674
176	0xbd2f4457	-0.042789783
177	0x3c959fd7	0.018264694
178	0xbdc56105	-0.09637646
179	0xbd3016c4	-0.04299046
180	0xbd9cea1c	-0.0766184
181	0xbd829f44	-0.06378034
182	0x3df36994	0.11885372
183	0x3e2277c0	0.15865993
184	0x3e0fa1b0	0.14026523
185	0xbdb0185c	-0.08598396
186	0xbcfd41d4	-0.030915178
187	0x3b14410a	0.0022621774
188	0x3dd3eb11	0.1034757
189	0x3c4b5769	0.012410977
190	0x3da598e8	0.08085805
191	0xbc0f27ec	-0.008737545
192	0x3d35af96	0.044356905
193	0xbbf29479	-0.007402953
194	0x3df123f9	0.11774439
195	0xbdcb4ea3	-0.09927108
196	0x3d62a1fe	0.05533027
197	0xbdabb2cf	-0.083837144
198	0x3dd7ae68	0.10531312
199	0x3e08aedc	0.13347954
200	0xbdd9f8a8	-0.106431305
201	0x3ea42a9a	0.32063752
202	0x3d8e22a0	0.06940198
203	0xbd5094e6	-0.05092325
204	0xbe4a96bf	-0.19784068
205	0xbd1c495b	-0.038155895
206	0xbd95c350	-0.073126435
207	0x3b974d1d	0.004617347
208	0x3e0df930	0.13864589
209	0x3e020322	0.12696508
210	0xbb6ee94c	-0.0036454974
211	0x3d958f3e	0.07302712
212	0x3cb8e7b3	0.02257142
213	0x3d53b673	0.05168767
214	0xbd042501	-0.032261852
215	0x3e5b44c7	0.21412955
216	0x3d33a084	0.04385425
217	0xbe24476e	-0.16042873
218	0x3d5c35c2	0.053762205
219	0xbe5c76f0	-0.21529746
220	0xbebc1fe6	-0.36743087
221	0x3e110d85	0.14165314
222	0x3e99c2df	0.30031487
223	0xbcc54974	-0.024082877
224	0x3e702540	0.2345171
225	0x3dc4fcd4	0.09618536
226	0x3d0248bb	0.031807642
227	0xbd69d9b6	-0.05709239
228	0xbd0d81c3	-0.03454758
229	0x3e052479	0.13002194
230	0x3b91a3ff	0.0044445987
231	0xbd3834be	-0.044972174
232	0x3c01b61b	0.0079169525
233	0xbe0f3d48	-0.1398822
234	0x3cbd60b0	0.023117393
235	0x3e2e9e9d	0.17052694
236	0xbd8c2ff3	-0.06845083
237	0xbdabf196	-0.08395688
238	0xbce05f3a	-0.027389158
239	0x3c2f5242	0.010700764
240	0x3e108aeb	0.14115493
241	0xbd1da55c	-0.038487777
242	0x3de54685	0.11195091
243	0xbd04fa08	-0.03246501
244	0x3df698c9	0.1204086
245	0xbceb3ace	-0.028714564
246	0xbe2d0141	-0.1689501
247	0x3d1015ab	0.035176914
248	0xbdd458be	-0.10368489
249	0x3e178ae0	0.1479907
250	0x3d80b21e	0.06283973
251	0x3d688cff	0.05677509
252	0xbe1bd12e	-0.15216514
253	0x3dce35ce	0.10068856
254	0xbd049ecc	-0.032378003
255	0xbcc4969b	-0.023997596

combine_proj.bias f4 [128]
0	0x38f565b7	0.00011701456
1	0xbb95537e	-0.004557072
2	0xba0df9d7	-0.0005415952
3	0xbb102cde	-0.00219994
4	0x3a6bdc4b	0.0008997365
5	0xb9e8023d	-0.00044252156
6	0xba32f453	-0.0006826568
7	0xbb52434c	-0.003208357
8	0x3ab8fd83	0.0014113638
9	0xba0f1e9d	-0.0005459579
10	0xbb19dbd9	-0.0023476987
11	0x3b2cf8bd	0.0026393377
12	0xb98dc529	-0.00027040511
13	0xba8b1db6	-0.0010613713
14	0xb97f5710	-0.00024351128
15	0x3ab2345b	0.0013595925
16	0xbb2e2098	-0.002656972
17	0x3b0bd148	0.0021334458
18	0xb9aa2b22	-0.00032457063
19	0x3a8b3d2d	0.001062309
20	0xba2061d7	-0.0006118095
21	0xbadb8d89	-0.0016750555
22	0xbac63cd5	-0.001512433
23	0x3a2b59bb	0.0006536503
24	0x356365b2	8.4712076e-07
25	0x39829b82	0.00024911395
26	0xba256eb5	-0.0006310747
27	0x3b15b7fd	0.0022845261
28	0xba7a3435	-0.00095445226
29	0xbac1a76a	-0.0014774625
30	0x38935daa	7.0269525e-05
31	0x398fca3a	0.00027425756
32	0xb8681d73	-5.5340537e-05
33	0x3b296f08	0.0025853533
34	0xbb073a64	-0.0020634169
35	0x3b4b6ecd	0.0031041384
36	0x3aa5b5d0	0.0012642685
37	0x39440bdf	0.00018696439
38	0x3a7a6e36	0.0009553166
39	0x397e552d	0.00024255058
40	0xbb813266	-0.0039427755
41	0x3ac32a0d	0.0014889851
42	0xbb98324b	-0.0046446673
43	0xb6306cfd	-2.6289483e-06
44	0xb782a41a	-1.5573623e-05
45	0xba20e68f	-0.00061378715
46	0xbaf7b51f	-0.0018898583
47	0xb9e93181	-0.00044478106
48	0xb99ecd4e	-0.00030289072
49	0xb9e9737e	-0.00044527272
50	0x3a008bf0	0.0004903665
51	0x3b52247d	0.0032065206
52	0x3a920912	0.0011141619
53	0x3a1c8f09	0.00059722416
54	0xb8da8b5c	-0.00010421008
55	0xba8f0cb4	-0.001091382
56	0x3ad3c607	0.0016157039
57	0x3ad1921b	0.0015988977
58	0xbb236ce7	-0.0024936737
59	0x3aa7ac53	0.0012792445
60	0xb98c3405	-0.00026741638
61	0xbaadb7da	-0.0013253645
62	0xba003e2d	-0.00048920774
63	0x3a047bf4	0.0005053871
64	0xba912c4a	-0.0011075821
65	0xbb421516	-0.002961462
66	0xba53ce1b	-0.00080797233
67	0x3932b806	0.00017043957
68	0x3a97e7e1	0.0011589491
69	0x3ab87dc3	0.0014075566
70	0x3a923e87	0.0011157551
71	0x39c35acc	0.00037260947
72	0x3a3ac767	0.000712505
73	0xbaeed12f	-0.00182203
74	0xb929fb38	-0.00016210682
75	0x3a40a7a9	0.0007349202
76	0xba176e10	-0.00057765935
77	0xb9924fe4	-0.00027906813
78	0x3b2616d4	0.0025343196
79	0x3996085e	0.00028616464
80	0x3a8baf39	0.0010657079
81	0x3a1366f6	0.00056229474
82	0xba818b04	-0.0009883349
83	0x39e1c21a	0.0004305996
84	0x3a50b4c0	0.0007961504
85	0x3a9e1b07	0.0012062498
86	0x3a747a59	0.00093260925
87	0xb8ad40a8	-8.261326e-05
88	0x3a55b0fd	0.00081516785
89	0xba48bfbd	-0.0007657966
90	0xb9f4439f	-0.00046589688
91	0xba4731d9	-0.00075986754
92	0x3b28895b	0.0025716636
93	0x3a2ae47c	0.0006519032
94	0x3ac8f9d1	0.001533324
95	0x3a908db6	0.0011028561
96	0xba74ac62	-0.00093335484
97	0x3b7028b6	0.003664536
98	0xba10235f	-0.0005498435
99	0x3b664c66	0.0035140752
100	0xb9f78446	-0.00047210063
101	0x3b213009	0.0024595282
102	0xba58eae3	-0.0008274747
103	0x399ee547	0.00030306933
104	0xba8367c4	-0.0010025431
105	0xb9f3dff9	-0.00046515444
106	0x3ae86378	0.0017729839
107	0xba7cb13f	-0.0009639449
108	0xbb2bdbea	-0.0026223608
109	0x3b476eba	0.0030430988
110	0xba99a563	-0.0011722263
111	0xbaf28e60	-0.0018505566
112	0x3a86cdef	0.0010284762
113	0x3ab6b5fe	0.0013939736
114	0x3aeb5088	0.0017953077
115	0x3a86a202	0.0010271671
116	0xba8e9237	-0.0010877316
117	0x3a8907f9	0.0010454647
118	0xbb490c46	-0.0030677482
119	0x39bda8c8	0.0003617464
120	0xbac48961	-0.0014994555
121	0xba9a9b58	-0.0011795564
122	0xbb14bce9	-0.0022695607
123	0x39045c81	0.00012622961
124	0xba60396c	-0.00085534784
125	0x3a344b6e	0.0006877695
126	0x3b1df94d	0.0024104894
127	0xb9cbe6f9	-0.00038891265

fc1.weight f4 [128, 128]
0	0xbdcdb281	-0.100438125
1	0x3db01454	0.08597627
2	0x3acd5bbe	0.00156676
3	0xbcb1f22b	-0.02172192
4	0xbe28821b	-0.16455881
5	0x3c55b9ca	0.013044784
6	0xbd66c249	-0.05633763
7	0xbe72cde9	-0.23711361
8	0x3c2b5930	0.010458276
9	0x3e8b0ad5	0.27156702
10	0xbdd33d4d	-0.103144266
11	0xbe0cf2bf	-0.13764475
12	0x3db4e5a0	0.0883286
13	0xbdf32355	-0.118719734
14	0xbe220a5a	-0.15824261
15	0xbe1d306a	-0.153505
16	0x3df55b7e	0.119803414
17	0x3e383559	0.179891
18	0xbe128bd2	-0.1431115
19	0xbe033eab	-0.12816875
20	0x3d20b746	0.039237283
21	0x3db14088	0.086548865
22	0xbe1d27c0	-0.15347195
23	0xbdef751a	-0.11692257
24	0x3e420a9c	0.1894936
25	0x3cd4ba21	0.02596766
26	0xbd1b0f95	-0.037856657
27	0x3daf6f7a	0.08566184
28	0x3d6a9ab6	0.05727645
29	0xbdd30c65	-0.103050984
30	0x3cf611e3	0.030037826
31	0x3d0f8d36	0.03504678
32	0xbdbb571e	-0.09147476
33	0xbd452795	-0.04813345
34	0x3e31f8f6	0.17380127
35	0x3e247f48	0.16064179
36	0x3d5cd5a9	0.0539147
37	0xbdd1df26	-0.1024764
38	0xbcdad787	-0.0267141
39	0xbd1f607d	-0.038910378
40	0x3d85c816	0.06532304
41	0xbe3b2184	-0.18274504
42	0xbd675358	-0.056475967
43	0x3e076a00	0.1322403
44	0x3dcdfda9	0.100581475
45	0xbad422af	-0.0016184653
46	0x3d6215ab	0.055196445
47	0xbdd919bf	-0.10600614
48	0xbd7a82a4	-0.061159745
49	0x3dd696c5	0.10477976
50	0xbd484fe9	-0.048904333
51	0xbc83d15d	-0.016091043
52	0xbd42ad7a	-0.04752872
53	0xbd271023	-0.040786874
54	0xbe196f99	-0.14983977
55	0x3e25f887	0.16208087
56	0xbc171b29	-0.009222784
57	0x3e2c3839	0.16818322
58	0x3da3b758	0.079939544
59	0xbd7ccded	-0.061719824
60	0x3cddbf6b	0.027068814
61	0xbda70ca9	-0.081567116
62	0x3c7abae7	0.01530335
63	0x3e47fa8f	0.19529174
64	0xbc938281	-0.018006565
65	0xbd65cc7c	-0.056103215
66	0x3e66bc5d	0.22532792
67	0x3ce2c6c8	0.027682677
68	0x3b6713ab	0.0035259526
69	0x3d16f775	0.036857087
70	0xbce6f474	-0.028192736
71	0x3d26aaab	0.040690105
72	0x3dd6109b	0.10452386
73	0x3e4c7ddc	0.19969887
74	0x3c70672b	0.014673035
75	0x39628469	0.00021602366
76	0xbd3f04ca	-0.046635427
77	0x3e3af1f6	0.18256363
78	0xbe07e401	-0.1327057
79	0x3d21acf9	0.0394716
80	0xbe02d7aa	-0.12777582
81	0x3dcae346	0.0990663
82	0x3db4a2de	0.08820127
83	0x3e664f79	0.22491254
84	0x3d015064	0.031570807
85	0xbdcf3b42	-0.101187244
86	0xbda69b73	-0.08135118
87	0x3d0759cc	0.03304462
88	0xbd88afed	-0.0667418
89	0xbe17b3d8	-0.14814699
90	0xbddee5f4	-0.10883704
91	0xbe50f89d	-0.20407338
92	0x3da5879d	0.08082507
93	0xbc87df1d	-0.01658588
94	0xbd7b7d95	-0.06139906
95	0xbcbdb65e	-0.023158249
96	0xbdf5a66c	-0.11994633
97	0xbe4db10b	-0.20087068
98	0xbd31c39d	-0.043399442
99	0xbdb2c09b	-0.08728143
100	0x3d2d32ea	0.042284884
101	0x3cbceedf	0.023063121
102	0x3da763e1	0.08173347
103	0xbd9f8db4	-0.077906996
104	0xbbd3ca99	-0.0064633605
105	0xbd175ed3	-0.036955666
106	0x3d6d9476	0.05800291
107	0xbd970edd	-0.07375882
108	0x3e3b74c3	0.1830626
109	0xbd2e9ed4	-0.04263194
110	0xbe2f56cb	-0.17122953
111	0xbbea3e7d	-0.0071485625
112	0x3df259e1	0.11833549
113	0x3d9f5e4a	0.07781656
114	0xbcf39763	-0.029735273
115	0x3d7b9b82	0.0614276
116	0xbe031bda	-0.12803593
117	0x3d1b4436	0.037906848
118	0x3debda31	0.11516226
119	0xbe074318	-0.13209188
120	0xbe36fc1b	-0.17869608
121	0xbc02f886	-0.007993823
122	0xbdb25202	-0.08707048
123	0x3d5d1c06	0.053981803
124	0xbe3a80ea	-0.1821324
125	0x3cb8d224	0.02256114
126	0xbe006489	-0.12538351
127	0xbd4ca64b	-0.049963277
128	0x3e006322	0.12537816
129	0xbd1dfed0	-0.038573086
130	0xbe78fabf	-0.24314402
131	0xbe07c292	-0.13257816
132	0x3cbd1aab	0.023084005
133	0xbdc5ea79	-0.09663863
134	0xbdb45078	-0.08804411
135	0xbd778268	-0.0604271
136	0x3eaf10a1	0.34192374
137	0x3e39f3ae	0.18159363
138	0x3c91ccb5	0.017797807
139	0x3e3a5454	0.18196231
140	0xbe27d6de	-0.16390559
141	0xbd6f42fb	-0.058413487
142	0x3d5163b2	0.051120467
143	0xbe002a81	-0.12516214
144	0x3d459909	0.04824165
145	0xbdd8ebbf	-0.1059184
146	0x3ddf8bb7	0.1091532
147	0x3de97548	0.11399323
148	0xbdc6fb0c	-0.09715852
149	0xbe2b94b4	-0.16755944
150	0x3c43c579	0.011948937
151	0xbcd0b7ec	-0.025478326
152	0x3dbc5bde	0.0919721
153	0x3d28fc8e	0.04125648
154	0x3eb40d42	0.35166365
155	0xbd34ba77	-0.04412314
156	0xbd94eaaa	-0.07271321
157	0xbdee485f	-0.116348974
158	0x3c5e9895	0.013586183
159	0xbe87ea05	-0.2654573
160	0x3e331445	0.17488201
161	0x3c71c460	0.014756292
162	0x3bfc4b44	0.007699402
163	0xbcbe730c	-0.023248218
164	0xbe1652c8	-0.14680016
165	0x3da24cb9	0.0792479
166	0x3d41f492	0.04735238
167	0xbc551744	-0.013006035
168	0xbdd2343b	-0.102638684
169	0xbdd93f49	-0.10607774
170	0x3c0384f5	0.008027305
171	0xbdb69d1f	-0.08916687
172	0xbe435da7	-0.19078694
173	0x3dd70337	0.1049866
174	0xbddb1e47	-0.10699134
175	0xbe94561f	-0.28971955
176	0x3c5ecd14	0.013598699
177	0x3c0cbf3d	0.008590517
178	0xbdc60357	-0.09668606
179	0x3dc06905	0.09395031
180	0x3ddabc67	0.10680466
181	0xbce55547	-0.027994765
182	0x3e018b53	0.12650804
183	0x3d8f10fa	0.0698566
184	0xbe1459bb	-0.14487354
185	0x3db1038f	0.08643257
186	0x3d58bffc	0.052917466
187	0x3e1d2c35	0.15348895
188	0x3d871dad	0.06597457
189	0x3d8827b1	0.066481955
190	0x3de67a82	0.11253835
191	0xbd1b407d	-0.037903298
192	0x3daa1ca5	0.08306245
193	0xbe4b5c70	-0.19859481
194	0x3c90bbb7	0.017667634
195	0x3d32d952	0.043664284
196	0xbd9befc1	-0.07614089
197	0xbd89c3fb	-0.067268334
198	0x3d6a2b22	0.05717004
199	0xbdd41048	-0.10354668
200	0x3cf890b9	0.030342447
201	0xbd600807	-0.054695155
202	0xbd7c1ba7	-0.06154981
203	0xbd034d58	-0.032056183
204	0x3da08e4a	0.078396395
205	0xbe30a5a4	-0.17250687
206	0xb9b11487	-0.00033775365
207	0x3c65f6d4	0.014035899
208	0xbe1b12c7	-0.15143882
209	0xbd3475bc	-0.044057593
210	0x3caf90f1	0.021431418
211	0xbcdb1d10	-0.026747257
212	0xbcc0d603	-0.023539549
213	0xbdb847d7	-0.08998077
214	0xbe3a79e8	-0.18210566
215	0x3e3f2319	0.18665732
216	0xbccb7438	-0.02483569
217	0xbd7f6a50	-0.062357247
218	0xbd1beb97	-0.038066473
219	0xbde74bb7	-0.11293738
220	0x3dd0f178	0.102023065
221	0xbd40a503	-0.047032367
222	0x3d2afade	0.04174315
223	0xbda321f7	-0.07965463
224	0x3e01d9e0	0.12680769
225	0xbe040079	-0.12890805
226	0x3d81a13f	0.063295834
227	0x3d9866d0	0.07441485
228	0x3dacf1fa	0.08444591
229	0xbe5d2120	-0.21594667
230	0xbd718992	-0.058969088
231	0xbdd74dd5	-0.10512892
232	0x3cf44f79	0.029823052
233	0xbdeec247	-0.11658149
234	0xbda8c798	-0.082411945
235	0xbe30eb52	-0.17277268
236	0x3daa8c11	0.08327497
237	0x3dcdfaa3	0.10057571
238	0x3d8f2a7a	0.06990524
239	0xbde0ea8a	-0.10982235
240	0xbd967459	-0.0734641
241	0x3e198664	0.14992672
242	0xbdf05834	-0.117355734
243	0xbe2efb63	-0.17088084
244	0x3c8d8cd6	0.01727907
245	0x3d812c2d	0.06307254
246	0xbe33bd0c	-0.17552584
247	0x3db88302	0.09009363
248	0xbe64fc8d	-0.22361965
249	0x3d3c3e6a	0.04595796
250	0xbdb006b5	-0.08595029
251	0x3dc375b3	0.09543934
252	0x3d7293c7	0.059222963
253	0x3cf8f73e	0.030391332
254	0x3d37a6a3	0.04483665
255	0x3d922374	0.071356684

fc1.bias f4 [128]
0	0xb9f75e07	-0.00047181567
1	0x3aa5ecdf	0.0012659094
2	0x3a9e54d9	0.001207973
3	0xb91a6c8f	-0.00014727026
4	0xb845d98a	-4.717106e-05
5	0x38acffaf	8.249224e-05
6	0x39fae056	0.0004785086
7	0x3b02bde8	0.0019949619
8	0xbb9d4d2a	-0.0048004584
9	0x3a8d357d	0.0010773387
10	0x39c2d254	0.0003715927
11	0x398ea3ab	0.00027206293
12	0x3a52ba0f	0.0008038589
13	0x3a84838b	0.0010110004
14	0xb8e5122f	-0.00010922958
15	0x390ebb4d	0.0001361195
16	0x3a0944e1	0.0005236399
17	0xb92082a8	-0.00015307462
18	0xba25ad1f	-0.00063200475
19	0x399c6fe1	0.00029837995
20	0x39b44494	0.0003438337
21	0x38871031	6.4403175e-05
22	0x3abe5e80	0.0014524013
23	0xbab3f50e	-0.0013729648
24	0x3a4204e5	0.0007401242
25	0xbb05df9c	-0.002042747
26	0xb93eea50	-0.000182071
27	0xba8432fc	-0.0010085995
28	0xb9e06538	-0.00042800023
29	0x3a2f7828	0.0006693625
30	0xb9feaa7f	-0.00048573685
31	0xbb0fb80c	-0.002192977
32	0xba0f0669	-0.0005455972
33	0x3b05327d	0.0020324283
34	0xbadf9e1e	-0.0017060672
35	0x3808e2fb	3.263632e-05
36	0x3a3b04aa	0.0007134179
37	0x3ab14d5f	0.0013527087
38	0xb9eceb6f	-0.0004518884
39	0xb9c56133	-0.00037647187
40	0xb93ecfd4	-0.00018197234
41	0x371863c8	9.083138e-06
42	0x3a0f9182	0.00054766994
43	0x3a097bfa	0.0005244609
44	0x3a344f69	0.0006878288
45	0xbab2e9bc	-0.001364998
46	0x3aa709a8	0.0012743967
47	0x38f3e28c	0.000116293406
48	0x3aecf1a7	0.0018077389
49	0xba8267c3	-0.0009949136
50	0x39b02b40	0.0003360156
51	0x3ab467d1	0.001376385
52	0xb72fbd50	-1.0474891e-05
53	0x3abf2cb0	0.0014585461
54	0xbabfd97e	-0.0014636961
55	0xb7939630	-1.7593702e-05
56	0xba2dcb9f	-0.0006629768
57	0x398c375c	0.00026744127
58	0xb9348995	-0.00017217391
59	0xba249155	-0.00062777597
60	0x3aaa4942	0.0012991803
61	0xba9154f9	-0.0011087946
62	0xb9a84dab	-0.00032101324
63	0xb908c99c	-0.00013045076
64	0x3808d418	3.2622454e-05
65	0x3a046e57	0.00050518423
66	0x38877665	6.459354e-05
67	0x3a836fef	0.0010027866
68	0xba3daad9	-0.0007235236
69	0xba4ec71e	-0.0007887947
70	0x3aae4747	0.0013296389
71	0x3aacb18b	0.001317547
72	0xb8bcae15	-8.996964e-05
73	0xbb446c38	-0.002997173
74	0xb9e8798d	-0.0004434105
75	0x3b049a9a	0.0020233751
76	0xbaec4a35	-0.0018027487
77	0x39e4e51d	0.00043658252
78	0x3986d3e0	0.0002571633
79	0x3a49efe9	0.0007703291
80	0x38b6f351	8.7237575e-05
81	0x3a4156ec	0.0007375318
82	0x3917fd7d	0.00014494914
83	0xb8b29a72	-8.516469e-05
84	0x3a6be7f0	0.00089991
85	0xba22a10e	-0.00062038086
86	0x3a3c5849	0.00071847864
87	0xbb2b5dac	-0.0026148362
88	0xb9faf773	-0.0004786808
89	0xbb326a27	-0.0027223916
90	0x3af1bdff	0.0018443464
91	0x3afcca6a	0.0019286398
92	0x39e3bda6	0.00043438113
93	0xba02d499	-0.0004990786
94	0xba38ac22	-0.0007044693
95	0x3a65cf95	0.0008766589
96	0xba004c6d	-0.0004894201
97	0xbacf9eef	-0.0015840213
98	0x3aa5d73d	0.0012652647
99	0xb8fe4429	-0.0001212436
100	0x39de3a90	0.00042386772
101	0x3a205169	0.00061156467
102	0xba25f679	-0.0006330978
103	0x39cfd7ce	0.00039642904
104	0x3a3686ec	0.0006962854
105	0xbab7ce5a	-0.001402329
106	0xb9ac191b	-0.00032825102
107	0x3a252567	0.0006299824
108	0x38a3a0a8	7.80237e-05
109	0x3a30489c	0.0006724687
110	0x39e83b03	0.00044294455
111	0xbabb023d	-0.0014267635
112	0xba4379c6	-0.00074568053
113	0x3ac7f8fc	0.0015256698
114	0x3af6f448	0.0018841112
115	0xb9f8a5b7	-0.00047425713
116	0xb94f405c	-0.00019765034
117	0x39c9bffb	0.00038480744
118	0xbb3e335c	-0.0029022312
119	0x39d4c8b1	0.00040585318
120	0xb9213866	-0.00015375167
121	0x3ab314fc	0.001366287
122	0x38bd9b02	9.041095e-05
123	0xb9a3c537	-0.0003123672
124	0x3a6fe3a3	0.0009151047
125	0x3aa3bcab	0.001249214
126	0x3815a252	3.567554e-05
127	0xb9c42636	-0.00037412503

bn1.weight f4 [128]
0	0x3f6ed4ff	0.93293756
1	0x3f802881	1.0012361
2	0x3f80ba17	1.005679
3	0x3f6b9515	0.92024356
4	0x3f6f8129	0.9355646
5	0x3f68f79c	0.9100282
6	0x3f6d494d	0.92689973
7	0x3f670c74	0.90253377
8	0x3f80edce	1.0072572
9	0x3f529acd	0.8226746
10	0x3f6ee1b9	0.93313175
11	0x3f770dcd	0.96505433
12	0x3f71e109	0.94484
13	0x3f84ceaa	1.0375569
14	0x3f5eb313	0.86991996
15	0x3f7cfc5b	0.98822564
16	0x3f572dfa	0.8405453
17	0x3f73b6ed	0.95201
18	0x3f7f4b0c	0.9972389
19	0x3f7e45bb	0.9932515
20	0x3f82cb17	1.0218228
21	0x3f80d238	1.0064154
22	0x3f78c5ca	0.971768
23	0x3f82ef7c	1.0229335
24	0x3f7e0210	0.992219
25	0x3f751ab4	0.9574387
26	0x3f7c766a	0.98618186
27	0x3f6e4795	0.93077976
28	0x3f6bb0b7	0.9206652
29	0x3f241aff	0.6410369
30	0x3f8379db	1.0271562
31	0x3f664712	0.89952195
32	0x3f76552d	0.9622372
33	0x3f7086a2	0.93955433
34	0x3f812c0a	1.0091565
35	0x3f73eb96	0.9528135
36	0x3f775e6f	0.9662847
37	0x3f73502f	0.95044225
38	0x3f7da30b	0.9907691
39	0x3f6b7d81	0.9198838
40	0x3f856814	1.0422387
41	0x3f67bad6	0.90519464
42	0x3f7a6548	0.9781079
43	0x3f4ced18	0.80049276
44	0x3f5c3b4e	0.8602799
45	0x3f7f12d6	0.99638116
46	0x3f704aa9	0.9386392
47	0x3f73c9c8	0.9522977
48	0x3f70fb04	0.9413302
49	0x3f71c783	0.94445056
50	0x3f66578c	0.89977336
51	0x3f6dc8b3	0.9288437
52	0x3f825215	1.01813
53	0x3f76632b	0.9624507
54	0x3f6d1a52	0.92618287
55	0x3f6c11c4	0.9221461
56	0x3f5b8aa1	0.85758406
57	0x3f7ef3a9	0.99590546
58	0x3f79cb9b	0.975763
59	0x3f825ff4	1.0185533
60	0x3f789305	0.97099334
61	0x3f7f93f6	0.99835145
62	0x3f679933	0.9046814
63	0x3f7d0b93	0.98845786
64	0x3f7307fe	0.9493407
65	0x3f857b9c	1.0428348
66	0x3f70c874	0.9405587
67	0x3f639f43	0.8891489
68	0x3f7ee197	0.9956297
69	0x3f6ded0e	0.9293984
70	0x3f4d1a51	0.8011828
71	0x3f6680d7	0.90040344
72	0x3f693000	0.9108887
73	0x3f780aa3	0.9689123
74	0x3f543109	0.8288732
75	0x3f4ba198	0.7954345
76	0x3f70405b	0.938482
77	0x3f70122e	0.9377774
78	0x3f6977fc	0.91198707
79	0x3f7027e0	0.93810844
80	0x3f7d3834	0.98913884
81	0x3f38742c	0.72052264
82	0x3f7eb5db	0.9949624
83	0x3f7f23b5	0.9966386
84	0x3f74a1ac	0.9555919
85	0x3f79b80a	0.97546446
86	0x3f6fc36a	0.93657553
87	0x3f70e265	0.9409545
88	0x3f7b794c	0.9823196
89	0x3f7b539c	0.9817445
90	0x3f6f8638	0.93564177
91	0x3f7b3953	0.98134345
92	0x3f7f89ab	0.9981944
93	0x3f7354ea	0.95051444
94	0x3f4795b2	0.7796279
95	0x3f7cc7d0	0.9874239
96	0x3f83913c	1.0278697
97	0x3f6d2673	0.92636794
98	0x3f817fee	1.0117166
99	0x3f65a28f	0.8970117
100	0x3f59245e	0.84821117
101	0x3f727d33	0.9472229
102	0x3f5e7f55	0.86913043
103	0x3f629a3b	0.88516587
104	0x3f79f647	0.97641414
105	0x3f529492	0.8225795
106	0x3f4d9b7d	0.8031538
107	0x3f7b26d8	0.98106146
108	0x3f5c59bf	0.8607444
109	0x3f66956c	0.9007175
110	0x3f686257	0.90775055
111	0x3f76c1e2	0.9638959
112	0x3f6ec945	0.9327586
113	0x3f6a78e2	0.915907
114	0x3f7a1c14	0.97699094
115	0x3f7bc14e	0.98341835
116	0x3f791b84	0.9730761
117	0x3f6d677c	0.9273603
118	0x3f79c301	0.9756318
119	0x3f815f65	1.0107237
120	0x3f723c13	0.94622916
121	0x3f827725	1.019261
122	0x3f4c1183	0.7971422
123	0x3f806486	1.0030677
124	0x3f7a67fb	0.9781491
125	0x3f748763	0.95519084
126	0x3f783947	0.969624
127	0x3f78f293	0.9724514

bn1.bias f4 [128]
0	0xbeb8943b	-0.3605059
1	0xbeb1a19c	-0.3469361
2	0xbe87d493	-0.2652937
3	0xbea66d77	-0.3250539
4	0xbeaf1f3d	-0.3420352
5	0xbe8be542	-0.27323347
6	0xbe5f27d2	-0.21792534
7	0xbeccea8b	-0.40022692
8	0xbebbb50c	-0.36661565
9	0xbe8bfbc1	-0.2734051
10	0xbeb38c17	-0.35067818
11	0xbe930c62	-0.28720385
12	0xbe9d67e4	-0.30743325
13	0xbe5cdd6c	-0.2156884
14	0xbebb9da9	-0.36643723
15	0xbe50e283	-0.20398907
16	0xbe8515aa	-0.2599309
17	0xbe8fba5e	-0.28071874
18	0xbea096f9	-0.31365183
19	0xbe9a1a18	-0.30098033
20	0xbeafe6ea	-0.3435586
21	0xbe689afd	-0.22715373
22	0xbe9619b6	-0.2931649
23	0xbec64ae7	-0.3872902
24	0xbea9e3e5	-0.33181682
25	0xbe4c01ac	-0.19922513
26	0xbe53ea32	-0.20694807
27	0xbe8910b3	-0.26770553
28	0xbe874e90	-0.26427126
29	0xbeab5f24	-0.33471024
30	0xbe7d8a49	-0.24759783
31	0xbea40972	-0.32038456
32	0xbe844f37	-0.25841686
33	0xbe9607f6	-0.2930295
34	0xbeaca27a	-0.3371771
35	0xbe89f408	-0.26943994
36	0xbe9d7966	-0.30756682
37	0xbe9a422b	-0.30128607
38	0xbea5ea5f	-0.32405373
39	0xbec01953	-0.3751932
40	0xbec48307	-0.38381216
41	0xbe48f2a6	-0.19623813
42	0xbe85f045	-0.26159874
43	0xbed2b1b1	-0.41151193
44	0xbec01808	-0.37518334
45	0xbe88c7ca	-0.26714927
46	0xbe29ca7b	-0.16581146
47	0xbe8907a6	-0.26763648
48	0xbe9399c5	-0.28828254
49	0xbecd8fb1	-0.4014869
50	0xbea91049	-0.33020237
51	0xbeac77f3	-0.33685264
52	0xbe93d04a	-0.2886985
53	0xbe75868f	-0.23977111
54	0xbef2809a	-0.4736374
55	0xbeab98f3	-0.33515128
56	0xbebce237	-0.36891338
57	0xbeb2439e	-0.34817213
58	0xbe985c45	-0.29757896
59	0xbe61895c	-0.22025055
60	0xbe5809f5	-0.21097548
61	0xbe892bb4	-0.26791155
62	0xbe84172b	-0.25798926
63	0xbea2e42f	-0.31814715
64	0xbeb2e03b	-0.349367
65	0xbebf8586	-0.37406558
66	0xbe94cd0b	-0.29062685
67	0xbe818243	-0.25294694
68	0xbeb5221f	-0.35377595
69	0xbe88f6b4	-0.2675072
70	0xbe7f86bc	-0.24953741
71	0xbea79411	-0.32730153
72	0xbeae02e2	-0.33986574
73	0xbec8b7d2	-0.39202744
74	0xbf036d72	-0.51338875
75	0xbed175a3	-0.40910062
76	0xbe89473a	-0.26812154
77	0xbea5cd43	-0.32383165
78	0xbea6ac99	-0.32553557
79	0xbe884a05	-0.26618972
80	0xbeba0b60	-0.36336803
81	0xbeda5bfb	-0.426483
82	0xbe093a2e	-0.134011
83	0xbebfa483	-0.374302
84	0xbe7e5516	-0.24837145
85	0xbe564052	-0.20922974
86	0xbe88185c	-0.26581085
87	0xbe6bd1da	-0.23029271
88	0xbec7c484	-0.39017117
89	0xbeebaa9f	-0.4602861
90	0xbe3d8173	-0.18506412
91	0xbea4ac8e	-0.321629
92	0xbea1b353	-0.31582126
93	0xbea21953	-0.31659946
94	0xbeb958b5	-0.3620049
95	0xbe9cee93	-0.30650768
96	0xbea8b968	-0.32953954
97	0xbe9d7715	-0.30754915
98	0xbeba6a1f	-0.3640909
99	0xbea0a314	-0.3137442
100	0xbed400b8	-0.41406798
101	0xbea60200	-0.324234
102	0xbed779b1	-0.4208503
103	0xbe9fb114	-0.31189787
104	0xbeab4b2d	-0.33455792
105	0xbe465f64	-0.19372326
106	0xbec3a2fd	-0.38210288
107	0xbeb44c29	-0.35214356
108	0xbed2ae18	-0.41148448
109	0xbec23a79	-0.37935236
110	0xbecd77a4	-0.4013034
111	0xbed1255b	-0.40848812
112	0xbe76b71c	-0.24093288
113	0xbe776864	-0.24160916
114	0xbea1ed2e	-0.31626266
115	0xbe85e5b7	-0.2615182
116	0xbe973827	-0.29535028
117	0xbe9b72ca	-0.30361015
118	0xbe8b0e5d	-0.27159396
119	0xbec6ac37	-0.38803264
120	0xbe848b4f	-0.25887534
121	0xbed2a0d2	-0.4113832
122	0xbec1e3c4	-0.37869084
123	0xbe8cffcb	-0.27538905
124	0xbe916bae	-0.28402466
125	0xbea5f41a	-0.32412797
126	0xbec9acba	-0.39389592
127	0xbea4920d	-0.32142678

bn1.running_mean f4 [128]
0	0xbd248291	-0.04016358
1	0x3d1efc87	0.038815048
2	0x3d6f8c6c	0.058483526
3	0x3cde22a9	0.027116137
4	0x3d055385	0.032550354
5	0x3d18b47d	0.037281502
6	0xbcf675cf	-0.030085472
7	0xbd23302c	-0.039840862
8	0x3d8604bb	0.06543871
9	0xbcead41b	-0.028665593
10	0x3df46b6b	0.11934551
11	0xbcbc8ea7	-0.02301724
12	0xbab1e70d	-0.0013572887
13	0xbd5495e0	-0.051900744
14	0x3c3171f7	0.010830394
15	0x3db96ae7	0.09053593
16	0xbda50940	-0.08058405
17	0xbcb26d9f	-0.021780787
18	0xbd561f73	-0.052276086
19	0x3e02f962	0.12790444
20	0x3da51e5e	0.08062433
21	0xbcbdbe94	-0.023162164
22	0x3dd484a4	0.10376862
23	0x3e0e892a	0.13919511
24	0x3d9428e6	0.07234363
25	0xbd742b97	-0.059611883
26	0x3c827096	0.015922826
27	0x3d22cd8c	0.039746806
28	0x3d93fb54	0.072256714
29	0x3d95f59e	0.073222384
30	0x3daeeb85	0.085410155
31	0x3bff2bb1	0.007787191
32	0x3d25eb2c	0.04050748
33	0x3dc406b3	0.0957159
34	0x3d0a2a6c	0.033731863
35	0xbda2b236	-0.07944147
36	0x3ca77d82	0.020445589
37	0xbd97419e	-0.07385562
38	0xbc5fea31	-0.013666675
39	0x3ccbf377	0.024896367
40	0xbd8d54c0	-0.069009304
41	0x3b227794	0.0024790512
42	0xbd973a42	-0.07384159
43	0xbd2c59e4	-0.042077914
44	0xbd758aa3	-0.059946667
45	0xbdcbb08b	-0.09945782
46	0x3d298894	0.041390017
47	0x3d96a223	0.07355144
48	0xbd3b5535	-0.045735557
49	0x3c8e2934	0.017353632
50	0xbd723bf1	-0.059139196
51	0xbd8ca273	-0.06866922
52	0xbd9e2242	-0.07721378
53	0x3db91497	0.0903713
54	0xbd7d64c6	-0.061863683
55	0xbd5242d5	-0.051333267
56	0xbc0b547a	-0.0085040275
57	0x3d0e5384	0.034747615
58	0xbd87a42b	-0.066231094
59	0xbbe2d886	-0.0069227843
60	0x3d657f9a	0.056029893
61	0xbd863388	-0.065527976
62	0xbbc0a01c	-0.0058784615
63	0xbd77d588	-0.060506374
64	0x3d9e9ee8	0.07745153
65	0x3d575a1d	0.052576173
66	0xbc8a6bd2	-0.016897116
67	0x3cf33f52	0.02969328
68	0xbd22f1d1	-0.039781395
69	0xbd73795b	-0.059441905
70	0xbd56a7ec	-0.052406237
71	0x3b2fd6e2	0.002683096
72	0xbd34f278	-0.04417655
73	0xbdbb7717	-0.09153574
74	0x3c33a0a9	0.010963597
75	0xbc7ebeaf	-0.015548392
76	0x3da154f4	0.07877532
77	0x3d871a2c	0.06596789
78	0x3cff10ce	0.031135943
79	0x3cf86a07	0.030323995
80	0x3dc717cf	0.09721338
81	0xbd528864	-0.051399603
82	0xbdb89f28	-0.09014732
83	0xbdb5138b	-0.08841618
84	0xbc5d042d	-0.013489765
85	0xbdaff8c9	-0.08592374
86	0x3cdfe7d6	0.027332228
87	0xbd9685f5	-0.07349769
88	0xbd5c5c41	-0.053798918
89	0xbd9142f0	-0.070928454
90	0xbd956c93	-0.072960995
91	0x3d948539	0.07251973
92	0x3d483153	0.048875164
93	0xbcca6536	-0.024706464
94	0x3b46c5ac	0.0030330224
95	0x3cb2bb9d	0.021817977
96	0xbd9e47ce	-0.077285394
97	0xbd74b1bf	-0.059739824
98	0xbd235458	-0.03987536
99	0x3d1f0c24	0.038829938
100	0xbd181dd3	-0.037137818
101	0xbd878593	-0.06617274
102	0x3d306ef3	0.04307456
103	0x3c236ae2	0.009974213
104	0x3d426763	0.04746188
105	0x3d42d83c	0.0475695
106	0xbc4133e1	-0.011792154
107	0x3d62bc60	0.05535543
108	0x3c88a5a5	0.016680548
109	0xbcf84b04	-0.030309208
110	0x3d9f33e1	0.07773567
111	0xbd6a9824	-0.057274
112	0xbda84032	-0.08215369
113	0x3d2196ed	0.039450575
114	0x3dd5db8d	0.104422666
115	0x3c93d6ca	0.018046755
116	0x3dd7cac1	0.10536719
117	0xbd65ebf9	-0.056133244
118	0x3d34bd1d	0.044125665
119	0xbda3c6e6	-0.07996921
120	0xbd1d7316	-0.038439833
121	0xbd44b1f1	-0.04802126
122	0xbc666833	-0.014062929
123	0x3d7633d3	0.060108017
124	0xbd67cbfb	-0.056591015
125	0x3cb21e07	0.021742834
126	0xbcf127d7	-0.029437942
127	0xbd064e48	-0.0327895

bn1.running_var f4 [128]
0	0x416e56d5	14.896199
1	0x41624063	14.140719
2	0x4184d69d	16.604792
3	0x41441c4e	12.25691
4	0x41194dd5	9.581502
5	0x41353e62	11.32773
6	0x415ad5c0	13.677185
7	0x41885e78	17.046127
8	0x414a28dc	12.634975
9	0x4137e36e	11.493025
10	0x417e3aa4	15.889317
11	0x41a5e621	20.737368
12	0x4105f64f	8.372634
13	0x418dd3cc	17.728416
14	0x41618be6	14.096655
15	0x41bbfecb	23.49941
16	0x4160a15f	14.039397
17	0x4186a54c	16.830711
18	0x41973bac	18.904137
19	0x41b5823b	22.68859
20	0x417c0233	15.750537
21	0x4180faa2	16.12238
22	0x41893a10	17.15335
23	0x419db52f	19.713469
24	0x4156b8a6	13.42008
25	0x41845c1f	16.544981
26	0x418bc7d0	17.472565
27	0x418277dc	16.308525
28	0x41956785	18.675547
29	0x4165d104	14.363529
30	0x4182d55e	16.354183
31	0x4133d766	11.2400875
32	0x419e9e8e	19.82742
33	0x417dc6ed	15.861066
34	0x41a7ef22	20.991764
35	0x41a201a6	20.250805
36	0x41797a9b	15.592433
37	0x41acd88c	21.605736
38	0x4165aace	14.3542
39	0x41988da5	19.069162
40	0x41b389d7	22.442305
41	0x418ee8f0	17.863739
42	0x4173ef6a	15.245951
43	0x4100972e	8.036909
44	0x4186c9a7	16.848463
45	0x418b92c3	17.446661
46	0x41710307	15.063239
47	0x4179dc52	15.616289
48	0x41664ab4	14.393238
49	0x415dab18	13.854271
50	0x4153a6f9	13.228265
51	0x4188ded2	17.108799
52	0x41888666	17.065624
53	0x416d8083	14.843875
54	0x418312e1	16.384218
55	0x41a7b95c	20.965508
56	0x4148e9a4	12.557041
57	0x414dadcf	12.854934
58	0x419c4b8c	19.536888
59	0x41ad016b	21.625692
60	0x41b86b83	23.052496
61	0x418bf5b7	17.494978
62	0x418c6495	17.549112
63	0x4196e048	18.859512
64	0x4152295c	13.1350975
65	0x41775274	15.45763
66	0x417834e3	15.512912
67	0x4186ef61	16.866884
68	0x4199d023	19.22663
69	0x4197a4ab	18.955404
70	0x412ad0ca	10.675974
71	0x419b1f3b	19.39025
72	0x4184d0b4	16.601906
73	0x418557ee	16.667934
74	0x4103543a	8.208063
75	0x414a8ef7	12.659904
76	0x418f515d	17.914728
77	0x4173fb04	15.248783
78	0x414a9db4	12.663502
79	0x415cf58b	13.809947
80	0x418dd25a	17.72771
81	0x410842e9	8.5163355
82	0x4159deda	13.616907
83	0x41aff009	21.992205
84	0x41c2faa7	24.372389
85	0x417de891	15.869279
86	0x4152aa87	13.166633
87	0x4182e61e	16.362362
88	0x418eca13	17.84867
89	0x41911709	18.136248
90	0x4174d8aa	15.3028965
91	0x416d1258	14.816978
92	0x41a94ac9	21.161516
93	0x41568dd6	13.409628
94	0x40aaf2c0	5.3421326
95	0x4190d960	18.10614
96	0x419c60f0	19.547333
97	0x41818a97	16.19267
98	0x41a9de0d	21.233423
99	0x416b3e2d	14.70268
100	0x410881fd	8.531735
101	0x4181cf60	16.226257
102	0x4138c1f9	11.547357
103	0x41286f98	10.527245
104	0x4150a22e	13.039595
105	0x41716ee4	15.089573
106	0x4141e370	12.118027
107	0x416d3d62	14.827486
108	0x4128559b	10.5209
109	0x4130cee7	11.050513
110	0x4178df04	15.554447
111	0x41951f3e	18.640255
112	0x4189e9c0	17.239136
113	0x413ed91f	11.928008
114	0x41860b9e	16.755672
115	0x417a2e42	15.636293
116	0x4166270c	14.384533
117	0x415e44a9	13.891763
118	0x41ac8d89	21.569109
119	0x41cb4331	25.407808
120	0x4179fc9a	15.62417
121	0x41a2591b	20.293509
122	0x40ffbcf1	7.991814
123	0x419abf35	19.343363
124	0x4184cdfe	16.600582
125	0x41389576	11.5364895
126	0x41a0463b	20.034292
127	0x41695bbd	14.584897
