models/hybrid_neurons_pretrained/MLP2_HUMAN_AE1DistliBERT_att_bm.pth (torch, 649278 bytes, 34 tensors)

embedding_proj.weight f4 [96, 1152]
00000000: e736 183e b2fe 1a3b a516 c13c bb00 043d
00000010: b17d 94bd b789 fa3c 8e75 093d 54a8 0b3e
00000020: 7bfa 99bd 07e5 0fbd 88f7 f63b 3931 113d
00000030: 74ba 933d 91ce 33bc b9c9 dfbd b686 62bd
00000040: 65ae 193c 3d22 233e 340e 85bc 4633 d53d
00000050: 2ac8 953c afbc 823d 2f5a 0f3c 4a55 a8bd
00000060: 44ca 9f3b 68ff 873c 917a 03bd 64d0 da3c
00000070: 4d83 78bc 5c52 82bd a95e 9fbd 7e8f a6bd
00000080: ddd4 efbd f3e2 a53c 9813 30bd 1914 913d
00000090: ae99 8b3c 77b4 313d 17d4 adbc 382c de3c
000000a0: dc5b 4cbd e547 133d 0ee7 963d 8c9f 1d3d
000000b0: 5975 ef3c b983 ab3b 66b2 4d3a 25c1 583d
000000c0: cad9 a3bd f696 15be db56 6ebd 231e 46bc
000000d0: 7f21 c43d d938 02bd ce95 a1bc 38b0 f8bc
000000e0: c59f 433d efac 6e3d 47c3 3cbd f52b 10bd
000000f0: f7f6 0dbe 1e01 0abd e7c8 b4bd fcd8 64bc
00000100: e11d 95bd e2c4 dbbb 6a75 3c3c 5b31 ef3c
00000110: 1672 79bc 716d 393e 4305 303d a522 83bd
00000120: 64d3 2bbc ccb2 003e 25af 9c3d e352 cb3b
00000130: 25cb babc 390b ba3d d9da b83d fe90 96bc
00000140: 63e2 89bd cfeb 9ebc 41e5 e4bc b320 14bd
00000150: 4f55 44bc 79a1 cebb eaef a73d 6e36 dfbd
00000160: 4281 48bc 1cf3 563d f133 74bd feb2 c2bc
00000170: c578 e83b fd03 c4bd 0809 193e 500b cfbd
00000180: e501 f4bb 0581 173e 0a87 0e3d 9577 323e
00000190: b69e c2bd b11c 1fbc 9aef 98bc 0ed3 64bc
000001a0: 05e1 0abe 62e6 6bbd 1a74 843d c187 8bbd
000001b0: 117c 3cbd c71b 5ebd ceb1 2e3c 29d5 ccbd
000001c0: 7628 7b3d f265 0abd aa38 11bc 8d37 8bbd
000001d0: 8773 fbbc 275a be3c 404c 0dbd 77b9 d8bd
000001e0: 9d86 c2b9 9630 903d 3d60 ffbd c515 493d
000001f0: 0b15 c3bd 1310 d4bd bb06 0fbd 958c a73c
00000200: 4a10 553e 4afe b1bd e50a c13d 9a2c de3c
00000210: 9bd4 833d a310 54bb 5b3e 80bc 9853 6f3d
00000220: dedc eb3d 6fc1 ea3d 2744 e8bc c338 9dbd
00000230: f1f0 cf3c 50f8 4a3e 25c2 c4bd 7709 7b3d
00000240: af79 e5bc 69bf cc3d f3d0 003e 4a91 983a
00000250: 71f7 6f3d 9eef b2bd f61b 6dbc 4d45 fa3b
00000260: 2719 d7bd 7817 0dbc bbec 313e 3fc7 b83d
00000270: ea3c bdbb 10a9 edbc eecf bebd da5e bbbb
00000280: 2fa1 07bd ba7e 8fbd 70f8 00bd f7e0 063e
00000290: 46ca 8d3d 10c5 aebc 1bea 7fbd 039b 673d
000002a0: 9b51 d5bd fac8 eb3c 64ce ca3d 35dc 01bd
000002b0: e2f8 623d 786e a23d bd9d af3d 0b23 963d
000002c0: 2c48 13bd 3b74 8c3c 80ff 01bd 26c0 7c3c
000002d0: ad08 f9bc 1e75 0ebb 7ee7 6f3c f460 d3bc
000002e0: f11c 823d 6524 cabd 32ce 2f3c 463a 3dbd
000002f0: 16db 173c 96f4 8fbd affd ccbc 0da6 a53d
00000300: 9192 163c 73b0 16bc 8285 823c 4b5e 55bc
00000310: 48e1 9c3d d4a5 60bd 2b9b 39bd 9374 83bc
00000320: 3571 a33d 4976 b73c 5df5 abbc 0cf8 09bc
00000330: f8bc ddbc 3a5a 673d 72f8 f93d 85ad 83bc
00000340: b31c ecbd b78f f13d 25d4 c73d 1472 c4bd
00000350: ea88 d03d 95d4 d9bc 43de e0bd 5501 b3bd
00000360: 33d1 a83d 32e6 623c 19e2 1dbd 7eb1 9cbd
00000370: 77f9 0c3e 843d 90bd 20c4 00bd 5605 c0bd
00000380: ae43 d9bd ef8e fe3d c1e2 16bd b828 95bd
00000390: bc13 f93d 24ab 46bd 906b c339 c98e 8bbd
000003a0: 49f4 08be 724a ba3d 26d8 5a3b bf02 a9bd
000003b0: 059b 84bd 36cc afbd 4722 30be 2020 c93d
000003c0: 8667 7fbd 82f3 813d ea4f d2bd ca6d 12bc
000003d0: 557b bf3c 0dd7 79bd 318c f93d 8259 1dbd
000003e0: 23dd 7abd ab9d b7bd d400 42bd 44cd 9a3d
000003f0: f6fc b23d 68bd a4bc e1ec c93d 55f4 013d
0.14864694 0.0023650345 0.023570368 0.03222726 -0.07250536 0.030583246 0.033559375 0.13638431
-0.075184785 -0.035130527 0.0075368322 0.035447333 0.072132975 -0.010974542 -0.109271474 -0.05530425
0.009379958 0.1593103 -0.016242124 0.1041017 0.018283922 0.06383645 0.008749529 -0.082193926
0.004876407 0.01660128 -0.03209931 0.026710697 -0.015168023 -0.06363365 -0.07781727 -0.08132838
-0.11710522 0.02024982 -0.042987436 0.070839114 0.017041054 0.043384995 -0.021219296 0.027120695
-0.04989229 0.035957236 0.07368289 0.038482234 0.02923076 0.0052342084 0.0007846713 0.052918572
-0.08000524 -0.14608368 -0.0581883 -0.012092146 0.095767014 -0.031792495 -0.019724753 -0.030357465
0.04775979 0.05827039 -0.04608467 -0.03519817 -0.13863741 -0.03369247 -0.088273816 -0.013967749
-0.072810896 -0.00670682 0.011502603 0.02919834 -0.015224954 0.18108155 0.042973768 -0.06403092
-0.010487411 0.12568206 0.07650594 0.006204949 -0.022801945 0.09084172 0.09026117 -0.018379685
-0.06732633 -0.019399552 -0.027941348 -0.036163997 -0.01198323 -0.00630587 0.08200057 -0.108990535
-0.012237849 0.05247794 -0.059619848 -0.02376699 0.007094475 -0.09571073 0.14944851 -0.101095796
-0.007446515 0.14795311 0.034796752 0.1742843 -0.09502928 -0.00971143 -0.018668938 -0.013966335
-0.135624 -0.057592757 0.06467457 -0.068130024 -0.046016756 -0.05422571 0.010662509 -0.100015946
0.061317883 -0.03378863 -0.008863607 -0.06797705 -0.030694736 0.023236347 -0.034496546 -0.105822496
-0.00037102858 0.07040517 -0.12469528 0.049093027 -0.09525498 -0.103546284 -0.034918528 0.020452777
0.20806995 -0.0869108 0.09425906 0.027120877 0.06437036 -0.003235855 -0.015654733 0.05842933
0.115167364 0.11462676 -0.02835281 -0.07676842 0.025383445 0.19821286 -0.09607343 0.061288323
-0.028012125 0.09997446 0.12579708 0.0011639979 0.058585588 -0.087371096 -0.014471998 0.007637656
-0.10502844 -0.008611552 0.17375462 0.09022378 -0.005775084 -0.02901128 -0.09317003 -0.0057180943
-0.0331127 -0.07006593 -0.03148693 0.13171755 0.06923346 -0.021334201 -0.06247912 0.056544315
-0.10415956 0.028782357 0.09902647 -0.031704146 0.055413134 0.079312265 0.08575008 0.07330903
-0.0359575 0.017145267 -0.031737804 0.015426671 -0.030399645 -0.0021737288 0.014642594 -0.025803067
0.063531764 -0.09870223 0.010730313 -0.046198152 0.009268543 -0.07029073 -0.02502331 0.08088312
0.009190218 -0.009197342 0.015932802 -0.0130229695 0.076601565 -0.054845646 -0.045313995 -0.016046798
0.07980577 0.02239527 -0.020991022 -0.008420955 -0.027067646 0.05648253 0.1220559 -0.016073951
-0.115289114 0.117949896 0.0975726 -0.09592071 0.10182364 -0.026590625 -0.10979893 -0.087404884
0.082430266 0.013848828 -0.0385457 -0.076510414 0.13767038 -0.07042983 -0.03143704 -0.09376018
-0.10608612 0.12429606 -0.036837343 -0.07283157 0.12161967 -0.048503056 0.0003727344 -0.068143435
-0.13374437 0.090962306 0.0033392995 -0.08252477 -0.0647488 -0.08583872 -0.17200576 0.098205805
-0.062354587 0.063452736 -0.10269149 -0.008937309 0.023374239 -0.060996104 0.121849425 -0.03841544
-0.06124605 -0.0896562 -0.04736407 0.075586826 0.08739655 -0.020109847 0.09859634 0.031727154

embedding_proj.bias f4 [96]
00000000: 7bd4 ba39 a438 8dba 89c0 b53a 4e54 c3b9
00000010: 40ce 03bb eedc c1ba 5533 c3ba f79f 7a3a
00000020: a770 46ba bffa 8c39 ad4f bc3a 9d13 0539
00000030: f330 8bb9 3db9 4db9 716b 603a d384 32ba
00000040: f81b d8ba 0b01 d7b9 2cb6 943a fece 093a
00000050: ed69 a839 3c41 91b9 8c8f 843a c822 a13a
00000060: 6257 033b 02b4 723a 3b29 033a 7934 c1ba
00000070: 2caf 5bba a748 51b9 2902 e239 0a6e 52ba
00000080: c3f8 98ba 2c91 5539 6fa1 e33b c20a 88ba
00000090: 7877 d83a caf1 bf3a 2868 5a39 9f65 89b9
000000a0: f05e 62ba cdaa a239 accb f939 af69 25ba
000000b0: 48de 1c3b 64dc daba 74e6 1cba 4e4c b8ba
000000c0: f855 383a 0dfc 553a 79da 623a c44f acbb
000000d0: e533 5bb9 4715 8bb9 b31e 0bbb 02bd a1b9
000000e0: d28e dd3a 3217 073b 2e22 34ba 6706 b8ba
000000f0: b424 bd3a 243f 853a 5a52 08ba 0620 e33a
00000100: 4383 f2ba d837 483b b55d db3a 3949 9aba
00000110: 8144 3fba 3b91 bd3a af69 b7ba 163c 56ba
00000120: d38f c0ba 9a15 e6b8 202e 213a 6777 8139
00000130: d23f 0c3a 0f3e 28ba a816 733b a495 af3a
00000140: c6b1 18bb a99d f5b7 21f9 9ab9 5a38 60bb
00000150: 143d 5fba 135b 5dba 1300 c639 7862 6d3a
00000160: 6ede 903a 0e3d 533a 7547 e93a a98d 60b8
00000170: 35b4 523a 66af 2a38 f35a 8bba a32e 0bbb
0.00035634995 -0.0010774327 0.0013866584 -0.0003725611 -0.0020111948 -0.0014790574 -0.0014892617 0.000956058
-0.0007569887 0.000268897 0.0014367007 0.00012691175 -0.00026548616 -0.0001961933 0.0008560932 -0.00068099535
-0.0016487828 -0.00041008773 0.0011345795 0.00052569795 0.00032122378 -0.0002770516 0.0010113581 0.0012293691
0.0020041098 0.00092583906 0.0005003397 -0.001474037 -0.00083802897 -0.00019958858 0.00043107689 -0.00080272614
-0.0011670816 0.00020367344 0.0069467346 -0.0010379183 0.0016515097 0.0014644202 0.00020828901 -0.0002620639
-0.00086353626 0.00031026304 0.00047644728 -0.00063099986 0.00239362 -0.0016697762 -0.0005985268 -0.0014060827
0.00070318533 0.00081628637 0.0008653771 -0.0052585322 -0.000209048 -0.00026528 -0.0021228015 -0.00030849135
0.0016903526 0.002061319 -0.0006871548 -0.0014039994 0.0014430494 0.0010165912 -0.00052002596 0.0017328269
-0.0018502254 0.0030550864 0.0016736301 -0.001177109 -0.00072962797 0.0014462838 -0.0013993288 -0.00081724057
-0.00146913 -0.00010971278 0.0006148536 0.0002469376 0.0005350086 -0.0006417939 0.0037092362 0.0013396037
-0.002329932 -2.9279692e-05 -0.00029558784 -0.0034213276 -0.0008515876 -0.0008444052 0.00037765558 0.00090555055
0.0011052617 0.0008058109 0.0017797785 -5.3537693e-05 0.0008037717 4.069451e-05 -0.0010631963 -0.0021237514

categorical_proj.weight f4 [17, 17]
00000000: 650a d03d 9546 00be 7f15 a3bb 8592 ccbe
00000010: a950 8c3e e22f aabe 8be2 e3bb 1b6f b33e
00000020: e02b 273e 5153 71be b6c8 433e 9389 08be
00000030: 64e9 4cbd 25e9 d0be f540 81bd 97e7 a1be
00000040: 4b56 513d 1f42 08bf 4873 633e 13f9 b53e
00000050: 8b9c 95bc 1008 9abe a808 c13d dc05 d43e
00000060: bd26 31be 2c7d c5be 95f6 e9bd 0ed7 57bf
00000070: db64 613e 5f6e 093d a190 19bd 1d9a 4a3e
00000080: 556d a73e bf4a 713c dff0 5abd 48c9 09be
00000090: 1740 0dbf 1f4e 87be 245b f53d bab4 dc3e
000000a0: ffee a43e a882 803e 84c3 d3be 9168 3b3e
000000b0: e15d 383e 8e89 b73e 60c1 223f 9fba fd3c
000000c0: a8b8 4abe 5f0c 44be 1fcc 06bf e0e4 f13e
000000d0: b244 abbe 5855 a33e dec4 86be b195 8d3e
000000e0: 4f0c 633e bf19 53bd b5bb 2e3f 12db b8be
000000f0: 3cf8 963e e136 4a3f 21e6 d53b d246 e1be
00000100: 0c27 15bc a912 0abe fa09 c8be 94c8 a1be
00000110: 121c 7bbe f1be c03d 7b26 29be 60fe ddbd
00000120: 6fc7 4bbe 2631 843e 7ac4 103e 9df2 39bf
00000130: 45d0 adbe be40 20be f2f7 3ebf 95b2 c43d
00000140: 520f 06bd 93d6 563d 976d 69be b42f d63e
00000150: 116e a2be 7a9c 1e3d 2135 d63e 1784 5a3e
00000160: 1805 173c 100d 843e d832 e8bc afac d33e
00000170: f92e 073f cecc d1be 68a0 5dbe 3161 243f
00000180: 8c29 8f3d c1c4 dd3e 3f05 b3be a4d2 643e
00000190: 0b8a 62be 3e6e 8d3d 6c15 783e e558 133e
000001a0: d257 77bd 8e73 923d cff3 5b3e 3265 54bd
000001b0: ffc2 113e 744b 213f 5867 583e 03a7 a03e
000001c0: d9c9 a03f 6275 9d3d 40d8 02bf 5b35 f3bd
000001d0: 200d 943d 79d0 ccbd b6df 623e c1f9 41be
000001e0: 5297 7d3e 3c95 953b 698b 41be 89d2 573e
000001f0: 5845 60be b5c0 ce3e 5287 d2bc 2068 df3e
00000200: 292c 3ebe 9990 75bf 9817 92be e73b b3bd
00000210: 3377 cc3e 779d f53e 6243 61be 0e11 513e
00000220: f283 493d b4dd a8be cf09 c6be dc35 463e
00000230: 8248 88be f6a9 fc3d 14d1 783e c2de adbd
00000240: 383b 03be 3a54 a73c f13c 66bf fbbb 263c
00000250: a363 cd3e 268b 71be 9bc7 47be c8bd 793e
00000260: 0beb 6d3b b68a 2ebf 5089 febe 1bb9 fe3e
00000270: 8fb1 a9bb beb7 cd3e 295d 973e 0963 87be
00000280: 0147 28be 9639 823e a09c 60be 8d6b 33be
00000290: 606a 92bd aa21 3abf 9387 5d3e 362d 29be
000002a0: 41e2 353e bbad ce3d ff7b 2e3d 6dec 5fbe
000002b0: 5cfc d93c d6b7 afbe 115b a03b b941 f63d
000002c0: 30df 89be db0f 4d3f 2cd0 1fbe 403e 67be
000002d0: b870 3b3f a0e4 8dbd 4096 54be b72f 33be
000002e0: 0967 f9bd d4d9 f23b 7253 bc3e 2415 78be
000002f0: 8e7e d63d b4ab 29be 387f bb3e 81ae 41be
00000300: 7b64 b73e 483c b2be 75cd 0bbe a52c 8bbd
00000310: e3e4 443e ebca 39bf f478 1dbe f8dd 103f
00000320: 8000 183e 8834 683e ad47 0cbe f1f1 3ebe
00000330: 2a97 54bd 9b4a 6dbe 2a59 a33e 1925 9e3e
00000340: 24ec b83e 059a bebe eb48 40bd 6da3 2d3f
00000350: e861 e5be f706 92be d1f4 903f fe98 733d
00000360: d156 1ebd 7d34 a93e c77e d0be 4765 5ebe
00000370: 5304 93bd 3bec 8d3e b91a 64be d745 c739
00000380: 1149 5a3c 3161 72be 9614 a33e 395e d63e
00000390: 917a 3a3e 9fe8 95be 65f9 2f3e 8b5c 163f
000003a0: a887 033f e63b 2abc 4057 cf3e 18ff f2be
000003b0: 2bae 9cbe c746 983e 7e6d 563d dc34 90be
000003c0: 8e5b b33d 4b4d b83e aa2d 2ebe 60f1 073e
000003d0: 2c4b 9d3e c5ed a73e 7c2c 463e 8af3 3dbd
000003e0: 217a a43e 5564 da3d 4dbd 123d cb43 043e
000003f0: edb8 b4be d19f ac3e 8ee4 4c3e 46cc e5bd
0.101582326 -0.12526925 -0.004976928 -0.39955536 0.2740529 -0.33239657 -0.0069544963 0.35045704
0.1632533 -0.23566939 0.19119534 -0.1333373 -0.050027266 -0.40802875 -0.06311218 -0.31622002
0.051107686 -0.5322589 0.22211945 0.3554159 -0.018263122 -0.30084276 0.09425479 0.4141072
-0.17299934 -0.3857206 -0.11423985 -0.8431252 0.2201113 0.033552524 -0.037491444 0.19785352
0.327006 0.0147272935 -0.05345237 -0.13455689 -0.5517592 -0.2642679 0.11980274 0.43106633
0.3221359 0.25099683 -0.41360104 0.18301608 0.18004562 0.35847133 0.63576317 0.030972777
-0.19797003 -0.19145344 -0.52655214 0.4724493 -0.33450848 0.3190105 -0.26322073 0.27653268
0.22172664 -0.051538225 0.6825517 -0.36104637 0.29486263 0.7898999 0.0065276776 -0.43999344
-0.009103548 -0.13483681 -0.39070112 -0.3159834 -0.24522427 0.09411419 -0.16518585 -0.10839534
-0.19900297 0.25818747 0.1413745 -0.72635823 -0.3394796 -0.15649697 -0.74597085 0.09604374
-0.032729454 0.052450728 -0.22795711 0.4183327 -0.317246 0.038723446 0.4183741 0.21339451
0.009217523 0.25791216 -0.028344557 0.41342685 0.5280605 -0.40976566 -0.21643221 0.642108
0.06990346 0.43314174 -0.3496494 0.22345978 -0.22122972 0.06905793 0.24226922 0.1438938
-0.060386486 0.071509466 0.21479724 -0.05185432 0.14234541 0.6300576 0.21133173 0.3137742
1.2561599 0.076884046 -0.5111122 -0.11875411 0.07229066 -0.100007005 0.22155651 -0.1894293
0.24764755 0.0045649093 -0.18900837 0.21076407 -0.21901453 0.403814 -0.025699291 0.4363413
-0.18571533 -0.95923764 -0.28533626 -0.0875166 0.39934692 0.479717 -0.21998361 0.20416662
0.0491981 -0.32981646 -0.38679358 0.19356483 -0.2661782 0.12337105 0.24298507 -0.08489753
-0.12815559 0.020425905 -0.8993674 0.010176654 0.4011508 -0.23588237 -0.19509737 0.24388802
0.0036303427 -0.68180406 -0.49714136 0.497506 -0.0051786373 0.40179247 0.29563263 -0.26442745
-0.16433336 0.2543456 -0.21934748 -0.17521496 -0.07149196 -0.7270762 0.21633749 -0.16521153
0.1776209 0.1009173 0.04259872 -0.21867533 0.026609592 -0.34319943 0.0048936685 0.12024254
-0.2692809 0.8010232 -0.15606755 -0.2258234 0.7321887 -0.069283724 -0.20760441 -0.1749867
-0.121778555 0.007411221 0.36782414 -0.24226815 0.10473357 -0.16569406 0.36620498 -0.18914224
0.35818848 -0.34811616 -0.13652594 -0.06795625 0.19227938 -0.72575253 -0.15378171 0.565887
0.1484394 0.22676289 -0.13699217 -0.18646981 -0.051901974 -0.23172991 0.31903964 0.30887678
0.3611766 -0.37226883 -0.04694454 0.6782749 -0.4480126 -0.2852094 1.1324712 0.059472077
-0.038657013 0.33047858 -0.40721723 -0.21718322 -0.07178559 0.27719292 -0.22275819 0.00038008273
0.013323084 -0.23669888 0.31851643 0.4186876 0.18210818 -0.29279038 0.1718498 0.5873496
0.5137887 -0.010390257 0.40496254 -0.47460246 -0.3060163 0.297415 0.052350514 -0.28165329
0.08757697 0.3599647 -0.17009607 0.13275671 0.30721414 0.3279859 0.19352907 -0.046374835
0.32124427 0.10663668 0.035825063 0.12916486 -0.35297337 0.3371568 0.20009062 -0.11220603

categorical_proj.bias f4 [17]
00000000: eb61 423b b59c 03bc 3940 a5ba 8f33 8c3b
00000010: ba22 16ba 9590 9dbb 1da4 ae3b e84e 373b
00000020: e875 09bb 844f 1d3b fa5a 7739 9023 9e3a
00000030: 6d57 12bc 8aba 80bb 9646 c8b9 bc00 1239
00000040: 631a 8eba
0.0029660414 -0.008032967 -0.0012607641 0.004278607 -0.00057272206 -0.0048084953 0.0053296224 0.0027970616
-0.0020974819 0.0024003694 0.00023589647 0.0012065042 -0.008931977 -0.003928487 -0.00038199563 0.00013923919
-0.0010841604

combine_proj.weight f4 [128, 113]
00000000: 5c84 673d 07b2 86bc f15b 223e f1ce 983d
00000010: 03b6 75be 3d7a d2bd 9aa2 1fbd 9e73 c2ba
00000020: 5475 40be b36b cd3d 0aba 69bd f1cb 6a3d
00000030: 04a9 adbc 1c7e 79bd d847 1c3d ae54 1bbd
00000040: 6fe9 903c 84fa 4f3e 5bc8 9d3d 8a39 d83d
00000050: 9841 adbd 94d4 00be f8b9 bb3d 6906 0bbe
00000060: 14fa 37bc 2b1a 6ebd 51cb a2bd 7ac4 27be
00000070: 2286 aeb7 fc0f 18be 7c90 f83d 48dd ac3b
00000080: 7e55 dc3d a5f0 2d3e 1b0e 3e3e 019c 37bd
00000090: 5d4e df3d 31a3 4cbe edc9 dcbc f2f7 943d
000000a0: 9ad8 333e aaaa 8ebd a81e 1bbd 14f9 afbd
000000b0: 7436 abbd cb1d f2bc c770 8a3c a706 c53d
000000c0: 14c4 18be 6e05 543e aa49 033d fac9 83bd
000000d0: 8d91 0d3d 2604 aa3d e0a6 213d aa24 f33d
000000e0: d93e 413e 08d7 42be 1ee3 4b3e d6a4 103e
000000f0: a3bb 0fbe ba14 653a 13ee a23d 4331 8d3d
00000100: a6df a2bd 7ff9 043e 9252 013e d255 e13d
00000110: 2a4f d6bd f764 a3bc 6453 433e a0db 6f3d
00000120: 0c6e fe3d cb4b 40bd 9242 933c fc87 10bd
00000130: b939 9d3c b157 1a3d c3e7 19be d550 533e
00000140: 7254 38bc e714 95bd 3565 4a3e 39f5 80bd
00000150: ad01 cfbd 36af 3fbe 91aa 03be fcda 9b3c
00000160: e259 38b8 f20d abbd cd48 7ebb 4a9f e9bd
00000170: 70be 093e e4d6 a83d 256f 6239 f837 1ebe
00000180: ae55 063e 513c 3bbd 1137 b2be d90c 81bd
00000190: c9bb d8be e6cb f83a 58f6 ba3e c4a4 843b
000001a0: baac c7be d5d5 5a3e 1afa 2b3e b5df adbe
000001b0: 1136 873e e5f1 e9bd 2227 1b3e 1eeb c8bc
000001c0: fa3e 923e ac78 7e3c 413d c3bd f34f 6c3d
000001d0: ca4e acbc 35b8 ba3c 71e2 a0bd 62ca 8fbd
000001e0: 1243 41be 793f 8e3d 1642 c73c 04b5 10bc
000001f0: 0140 adbd 89df bf3d a000 b63d 94cd 113e
00000200: 86f9 0cbe a882 813d 16ff 243b b281 68bc
00000210: 52a5 bfbd 6def 6d3d af89 043e 4b72 1bbe
00000220: 7e9e e5bd 0af2 d33d af12 fe3d 27c1 023e
00000230: 8439 223e 5bd3 613d a72a 7bbd 7334 f83d
00000240: af5d 81bd 59aa 0fbc c6da 643d dfd2 4e3e
00000250: 5033 cebd c5c3 dfbd 73a7 72bd e5ee 01bc
00000260: da2d 25bc e78b 32be b6bf e1bd 5adb 68bc
00000270: be9d acbd c634 7abd f212 343d 7868 2abd
00000280: 77c7 e9ba 93f7 debd 3406 9ebd 5d32 b2bc
00000290: 35ee 78bb e42e c13d 2ceb f33d bcb9 0e3d
000002a0: c613 4fbd 0848 993d f30a 523d 5160 71bd
000002b0: 34d1 22be 8056 85bd bb42 a2bd 57c2 9bbd
000002c0: 7d93 083e 0d5c 393d dba5 dcbd 527c 893d
000002d0: d237 61bb dfc2 59bd 5fe0 523c 048b df3d
000002e0: 49c4 78bd 4487 f93d fbd2 87bd 4534 3fbe
000002f0: 10ce 7a3d 40f9 a8bd d187 57bd 954d 19bd
00000300: 3d0d 8b3d 34fd 9d3d 09cf ed3d 0364 1bbe
00000310: b28f e4bd 865b d63d 7156 f1bd 2d99 a93d
00000320: 604a 753d 297e 3f3d 9762 d4bd fe98 c63d
00000330: 2584 973d 92ef adbd 35e0 37ba c8be f53d
00000340: 4225 ca3c 7588 28be e22a cfbd c3d1 f5bd
00000350: ea75 263d 30b1 95bd 2c5c aabd fe2e 4b3e
00000360: e203 3fbe de46 07bd f55a b7bc 9651 963c
00000370: 43de 473d a841 42bb bf89 13be a2c3 403e
00000380: 3048 72bd ffd1 0dbe 2f4f 01be b036 c03c
00000390: 2809 003e 10a9 0cbe d816 c83d 2617 a63c
000003a0: 100e 3abd bcf9 0abd 80b0 6bbd 18ec 0ebe
000003b0: 4973 2f3e 46d7 a0bb 1c31 0a3e 5f9d c63d
000003c0: 7cbe 81bd 68b2 8c3c 527b a73d 4d3a 8cbd
000003d0: abfe 173c 7d7d 6b3d b53b 79bd cb2c acbd
000003e0: e680 febd 0c25 aa3d 4693 29bc ffaa d8bd
000003f0: 2bd2 d13d d083 a9bd a499 41bd 7a26 abbd
0.056522712 -0.016442312 0.15855385 0.07461346 -0.23995213 -0.10277221 -0.03897343 -0.0014835482
-0.18794757 0.100303076 -0.057062186 0.0573234 -0.021198757 -0.060911283 0.038154453 -0.037922554
0.017689435 0.20310408 0.077042304 0.1055785 -0.08459777 -0.12581092 0.0916633 -0.13576664
-0.011229057 -0.058130424 -0.07948936 -0.16383544 -2.0804877e-05 -0.14849848 0.12136933 0.005275402
0.10758494 0.1698633 0.18560068 -0.04482651 0.109036185 -0.19984128 -0.026951754 0.07273854
0.17563096 -0.06966145 -0.037871033 -0.0859243 -0.083599955 -0.029555222 0.01689948 0.096204095
-0.14918548 0.20705196 0.032052673 -0.06435008 0.034562636 0.083015725 0.039465785 0.118722275
0.1887163 -0.1902734 0.19910857 0.1412538 -0.14036421 0.0008738745 0.07955565 0.068941616
-0.07952814 0.129858 0.12629154 0.11002697 -0.10464318 -0.019945605 0.1907478 0.05855906
0.124233335 -0.04694728 0.01797608 -0.035285935 0.019192563 0.037681285 -0.15029816 0.20636304
-0.011250602 -0.072793774 0.1976517 -0.062967725 -0.101077415 -0.18719181 -0.12858035 0.019025318
-4.395273e-05 -0.08352269 -0.0038800717 -0.11407335 0.13451552 0.08244112 0.00021594444 -0.15451038
0.13118622 -0.04571182 -0.34807637 -0.063012786 -0.4233077 0.0018981665 0.3651607 0.004047962
-0.38998967 0.21370633 0.16794625 -0.33959737 0.26408437 -0.11423091 0.15151647 -0.024526175
0.28563672 0.0155317 -0.09533168 0.057693433 -0.021033663 0.022792915 -0.0785569 -0.07021023
-0.18873242 0.069457 0.024323504 -0.00883222 -0.084594734 0.09368808 0.08886838 0.14238578
-0.1376706 0.06323749 0.0025176457 -0.014191078 -0.09357704 0.058089662 0.12943147 -0.15180318
-0.112118706 0.103489 0.12405907 0.12768994 0.15842253 0.055133205 -0.061319973 0.12119379
-0.06316697 -0.008768641 0.0558727 0.20197628 -0.10068381 -0.10926012 -0.059241723 -0.007930492
-0.010081733 -0.17436181 -0.11022894 -0.014212454 -0.084285244 -0.061085485 0.04396338 -0.041603535
-0.0017835934 -0.10887065 -0.07716027 -0.02175253 -0.003798378 0.09432772 0.1191009 0.0348451
-0.050555967 0.07484442 0.051279973 -0.058929745 -0.15900117 -0.06510639 -0.07922884 -0.07605427
0.13337512 0.045253802 -0.10773822 0.06713165 -0.0034365547 -0.05316436 0.012870877 0.10915187
-0.060734067 0.12184003 -0.06632038 -0.18672283 0.061231673 -0.08250666 -0.05261976 -0.037427504
0.067896344 0.0771431 0.116117544 -0.1517487 -0.1116022 0.104666755 -0.117840655 0.08281169
0.059885383 0.046751175 -0.10370367 0.0969715 0.073982514 -0.0849296 -0.00070143054 0.11999279
0.024675969 -0.16458304 -0.10115601 -0.120028995 0.040639795 -0.073091865 -0.08318362 0.19842145
-0.18653825 -0.03302657 -0.022382239 0.01834945 0.04879595 -0.0029641185 -0.14408015 0.18824628
-0.059150875 -0.13849638 -0.12627862 0.023463577 0.12503493 -0.13736367 0.09769982 0.02027471
-0.045423567 -0.03392957 -0.05754137 -0.1395725 0.17133822 -0.004908475 0.13495296 0.09697985
-0.0633516 0.017174914 0.08177818 -0.068470575 0.009277026 0.05749272 -0.060847957 -0.08406981
-0.12426929 0.083078474 -0.010350054 -0.1057949 0.102451645 -0.08277094 -0.047265664 -0.08356948

combine_proj.bias f4 [128]
00000000: 36d0 73b8 6994 85ba 41ed 8436 5160 1839
00000010: eb64 133a 9577 9439 3260 1838 871b ceb6
00000020: d81e b239 b83d c0b6 d8f2 f438 9c73 ed3a
00000030: 9003 37ba 0ca0 afb8 f65f 763a 74fe cbb9
00000040: a5a7 e8b9 213b 04ba bd1f a43a 6c8e 97b9
00000050: c145 7aba 8cf5 cb38 ceaf 6fb9 e9c7 2f3a
00000060: 7254 e0ba 4724 61b9 808e b038 bf24 7aba
00000070: b3a4 67b9 9bf2 e7b9 fcd8 78ba cd00 8439
00000080: 4166 3fba a47d 8bba e8d4 283a 9711 f33a
00000090: 4e71 c4ba d5f3 58ba 2f7d 4e38 67fb 943a
000000a0: b8bd 4c3a c6cb 3c3a afef c6ba 52c2 4fba
000000b0: 48f7 0cba 356c 15ba 2da4 10ba 8a11 bab9
000000c0: 1a54 273a bfa7 a53a c216 8739 e4eb 9b39
000000d0: 7244 9d39 8ea3 d1ba 8d2a ce39 7cfc 9d39
000000e0: b9e8 26ba 9aed 3ab8 2522 b039 c649 d2b9
000000f0: fe27 e3b9 bfe7 8739 8fb3 21ba bb65 b0b9
00000100: d490 f8b9 e35a 49ba 84b2 bfb9 894f f639
00000110: 0de2 0f3b daa1 2f38 3e05 fb39 8315 943a
00000120: 289a a7b9 3c17 9c3a b5c4 baba 9032 d7ba
00000130: 66bd e43a 3432 3dba fc55 3a3a e5ba e4b8
00000140: e86b 29ba 2343 7e3a f846 95b9 ce8f b339
00000150: 6cd4 17b9 ba75 8a39 84f3 55ba 3946 77ba
00000160: 880b 953a c62c 99ba 7885 f739 7c23 11b9
00000170: 69c3 aaba 4c1a 943a 9d09 1bba 6308 dfba
00000180: d58f 2bba 0004 3e39 99e9 2cba ab5c 94ba
00000190: c58d 63ba 5d02 a03a 44a7 813a 6945 2bba
000001a0: 22b6 3839 2404 2e3a cb6e 003a 7724 f0b9
000001b0: fa33 0ab9 d5de f1b7 cde3 9dba 2ad8 bb39
000001c0: ef61 80ba aeef 4d3a 0590 af37 a937 023a
000001d0: c978 b639 3303 b1b9 d1d4 b338 fa34 b8ba
000001e0: 7ba4 88ba 9a12 aab9 073f 6c3a 8261 f339
000001f0: d139 ae3a 9510 ea39 a0e5 0d3a 4473 9e3a
-5.8129626e-05 -0.0010191324 3.9615265e-06 0.0001453173 0.0005622643 0.00028317855 3.6329213e-05 -6.142483e-06
0.00033973786 -5.729231e-06 0.0001168006 0.0018116119 -0.0006981427 -8.374461e-05 0.00093984546 -0.0003890876
-0.00044375393 -0.0005044211 0.0012521666 -0.00028907077 -0.00095471373 9.725531e-05 -0.00022858309 0.0006705509
-0.001711501 -0.00021471186 8.418877e-05 -0.0009542219 -0.00022091232 -0.0004424051 -0.00094927824 0.000251776
-0.0007301309 -0.0010642302 0.0006440417 0.0018544671 -0.0014987381 -0.000827608 4.9230814e-05 0.0011366428
0.0007810253 0.00072019955 -0.0015177632 -0.00079253793 -0.0005377424 -0.0005700023 -0.0005517628 -0.00035489752
0.00063830765 0.0012638493 0.00025766162 0.00029739656 0.0002999637 -0.0015994178 0.00039323085 0.0003013349
-0.0006367076 -4.456714e-05 0.00033594776 -0.00040109287 -0.0004332661 0.0002592187 -0.0006168419 -0.0003364513
-0.00047410151 -0.00076810847 -0.00036563363 0.00046980035 0.0021954805 4.1873987e-05 0.00047878356 0.0011297915
-0.00031967578 0.001190878 -0.0014249297 -0.0016418267 0.0017451465 -0.00072172587 0.00071081496 -0.00010906699
-0.00064629177 0.0009699335 -0.0002847237 0.00034248683 -0.00014479615 0.00026409124 -0.0008161592 -0.0009432766
0.0011371234 -0.0011686317 0.00047210953 -0.00013841497 -0.0013028207 0.0011299341 -0.0005914213 -0.0017016049
-0.0006544565 0.00018121302 -0.0006596088 -0.0011319121 -0.0008680488 0.0012207736 0.0009891768 -0.0006533475
0.00017615457 0.000663819 0.0004899322 -0.00045803536 -0.00013180068 -2.8833203e-05 -0.0012046039 0.00035828474
-0.0009794811 0.00078558445 2.092869e-05 0.00049674005 0.00034803737 -0.00033762454 8.575025e-05 -0.0014053874
-0.0010424996 -0.00032438786 0.00090120774 0.0004642122 0.0013292377 0.00044644313 0.000541294 0.0012088795

fc1.weight f4 [128, 128]
00000000: 8aaf 7dbd 66d0 a43d ca68 62bc 1af4 e1bc
00000010: f0ed 09be 60dd 273e 2ed7 36ba ed50 debd
00000020: 4198 82bd 4d1f 17bd 3163 e0bd b5e2 00be
00000030: a47d a83c 3ed0 4dbd 02a3 0dbe e577 12be
00000040: 9f3a 723d 5f9d 30be 4390 e6bd 40b1 203e
00000050: 3c64 0dbe beb7 38be 4475 01bd b46e 15be
00000060: 5d9b 7e3c cc85 6a3e a1cf 5e3d 823e bbbd
00000070: 8ee1 8f3d 4847 523b 3408 833b a14f 06be
00000080: 3e56 033e 4689 7f3b 7079 1dbd 1d8f 93bb
00000090: 057b 35be efad e03d 0b93 a5bd 47de 333d
000000a0: 2adf ec3d 7635 263c 3f6d 213d 9d40 cebd
000000b0: de3c a03d efc4 10bc 59e9 2f3e f046 9a3c
000000c0: 9f27 44bd 153d 99bd 1b18 8b3d cada 6a3d
000000d0: b73a a83d 654e 27bd 6dba cabd 6d56 723b
000000e0: 2ece 4abd baa7 bcbd 79cb d1bd 9508 bb3d
000000f0: 7e94 73bd d6ec 5bbe ce4a 633e 2239 2b3e
00000100: ce4f 46bd 5cb9 453e 0126 9cbd ad66 03be
00000110: 5bfb c6bd b1ce 1f3d 099d e1bc b50f be3d
00000120: 6674 163d fac9 d7bd a897 e33d 6865 163d
00000130: 2b09 26be 3d0d 593e 4ab0 153b c62a 83bd
00000140: b3bb 2f3e a213 57bd e021 bebc 4e86 4dbe
00000150: 1c3a b0bd 4a83 e73d 7cee 193e 253b b2bd
00000160: ba95 9abd 5140 e1bc cbc6 b43b e4da 573e
00000170: 5b99 493e 4a17 ad3d 4578 debd 8775 923d
00000180: dc32 543d 2473 c9bb dffe fcbd 7818 7b3e
00000190: 738f 1bbd d7f8 aa3d bf33 df3d a02e 673e
000001a0: 5bdf e93d a719 0bbe ad45 103e 6d10 45be
000001b0: 3871 5e3e 139b fb3d e884 4fbd 3874 543d
000001c0: cbc4 debc 0980 1ebe 94e1 c33c 41ad 0cbe
000001d0: f35b 203d 220f 853d bf8f 9cbd 017f d93d
000001e0: 2006 e2bd 4b5f 453e 62a6 69bd e471 1dbe
000001f0: 5aaf c43b 9a86 283d 9e83 ae3c e552 c23c
00000200: 6ac3 ebbb 9acb 723d 9396 fdbc 9e91 393e
00000210: 08d2 b1bd 74f4 483e 5268 dfbd 2cfc a9bd
00000220: c8b1 c8bd cd85 78bd 1818 af3c 3691 f8bc
00000230: daea 1a3d 3aff cebc 8305 0cbe 2dc2 813d
00000240: 8ec3 28be c1e0 08be 602b 213d f47a b23d
00000250: 746d fbbd 8db7 c6bd 0ad5 b63d 9b59 15be
00000260: b439 e63c 5a0a c83d dac7 25bd 732f 9abd
00000270: 5618 973d ecb5 bebd afc6 573d 86f9 173d
00000280: 4067 123e c67b c9bd 46f6 4a3c 5348 c1bc
00000290: 083a 66bd 8db2 693e 93ae bc3d 0f75 37bd
000002a0: b4f9 28be 3016 a63d 6caa 91bc acaf 8d3d
000002b0: 6787 223e 8b39 243e 9bd7 fe3d f146 073e
000002c0: 1f9f 293c c1e2 aebd ba27 c6bd 9174 afbc
000002d0: c6bf db3d 0c80 063e 745d da3d 1a2f 8dbd
000002e0: 3f65 24be 9c81 bcbc 6c30 e0bd 1796 453d
000002f0: 17cd 383b e2b7 76be b7ee eb3d 1cb9 323e
00000300: 8705 df3d 4076 75bd 1656 fc3d 6b5c 26bd
00000310: 4fd9 683d 061d bd3d 7851 86bd ffac b3bb
00000320: 7320 1b3e 47de 133d 823c 4a3e 6584 5a3e
00000330: 9338 6abd 7f68 603e 4ae9 9abd 6a53 67bd
00000340: e46e 2cbd 0a1e dd3c 2a0c c13d a606 d9bb
00000350: 6343 1c3e 9d06 da3c 0e3e 22bc 0544 3c3d
00000360: d5e0 c13d fb6c 673e e3b2 ef3c 99a3 563e
00000370: 3d7e 063d df4c 333e 1640 31be 9a3f 25bd
00000380: 7dbe 963c 0a62 f13b 2d36 cbbd 6b8e 193e
00000390: 8e65 acbd 1fc5 623d 4e95 c7ba f97a 353e
000003a0: 7f81 d4bd caf6 7f3c 16bd 2b3e 8a36 11be
000003b0: 59ce b23d e145 61bc 4b05 d3bd 7e31 20be
000003c0: 2da2 003d 9366 493d 8242 cb3d 0c8c e43d
000003d0: 8813 cf3d e480 5dbd db34 183d c50f 8f3d
000003e0: beea ad3d 348c 233d 197f dabd e0bd 07be
000003f0: d989 633d f3b0 b73d 1d3e b83d cf9a 533c
-0.061934985 0.08047561 -0.013818929 -0.027582217 -0.13469672 0.16393042 -0.00069748133 -0.10855279
-0.063766964 -0.036895085 -0.10956419 -0.12586482 0.020567723 -0.050247423 -0.13831714 -0.14303549
0.059137937 -0.17247532 -0.112579845 0.15692616 -0.13807768 -0.18038842 -0.031605974 -0.14593011
0.015539971 0.22902602 0.05439723 -0.09142782 0.07025443 0.0032085944 0.0039987806 -0.13116314
0.12825868 0.0038991733 -0.03844589 -0.0045031444 -0.1772271 0.10970675 -0.08084687 0.043913152
0.11566003 0.010144582 0.039410826 -0.10070918 0.078241095 -0.008836015 0.17178859 0.018832654
-0.047889348 -0.074823536 0.06791707 0.05733756 0.08214324 -0.040846247 -0.09898839 0.0036977783
-0.049513035 -0.09211679 -0.102438875 0.09132496 -0.059467785 -0.21477064 0.22196504 0.16721013
-0.04841595 0.1930899 -0.07624436 -0.12832136 -0.09715911 0.039015476 -0.0275407 0.0928034
0.0367321 -0.10536571 0.111129105 0.036717802 -0.16214435 0.21196456 0.0022840672 -0.06404643
0.17161445 -0.052508958 -0.023209512 -0.20070764 -0.086048335 0.11304338 0.15032381 -0.08702687
-0.07548089 -0.027496489 0.005516862 0.21079594 0.19687407 0.08451708 -0.10862783 0.07151323
0.051806316 -0.006147759 -0.123533 0.24521053 -0.0379786 0.08348244 0.10898542 0.2257638
0.11419555 -0.13584004 0.14089079 -0.19244547 0.21722877 0.122854374 -0.05066386 0.051868647
-0.027193448 -0.15478529 0.023911275 -0.13737966 0.03915019 0.06497027 -0.07644605 0.10619927
-0.110363245 0.19274633 -0.05704344 -0.15375477 0.006002349 0.04114399 0.021302994 0.023721168
-0.007194926 0.0592762 -0.030955588 0.18121955 -0.086826384 0.19624501 -0.109085694 -0.08300051
-0.09799534 -0.060674477 0.021373793 -0.03034268 0.03782163 -0.025268186 -0.13673978 0.06335864
-0.16480848 -0.13366987 0.039348006 0.08714858 -0.12276736 -0.09702978 0.08927353 -0.14584963
0.028103687 0.097675994 -0.040473796 -0.075285815 0.073776886 -0.093120426 0.052679714 0.0371032
0.14297199 -0.09838061 0.012387818 -0.023594057 -0.056207687 0.22822018 0.09212985 -0.04478937
-0.16501504 0.08109701 -0.017781459 0.069182724 0.15871964 0.16037576 0.12443467 0.13210656
0.010352879 -0.085393436 -0.09675546 -0.021417888 0.10729937 0.13134784 0.10662356 -0.068937495
-0.16054247 -0.023011021 -0.10946736 0.04823884 0.0028198415 -0.24093583 0.115201406 0.17453426
0.10889726 -0.059927225 0.12321107 -0.04061548 0.056847867 0.092340514 -0.06558508 -0.005483269
0.15149097 0.036100652 0.19749644 0.21339567 -0.05718286 0.21914862 -0.075640276 -0.056476034
-0.04209794 0.026991863 0.09426148 -0.006623107 0.15260081 0.026614482 -0.00990249 0.045963306
0.094667114 0.22600166 0.029260105 0.20960845 0.032835234 0.17509793 -0.17309603 -0.04034386
0.018401379 0.0073664235 -0.099224426 0.14995734 -0.084178075 0.05536377 -0.0015226991 0.17722692
-0.10376262 0.015622804 0.1677135 -0.14180961 0.08730764 -0.013749571 -0.10303744 -0.1564388
0.031404663 0.049170088 0.09924795 0.11159524 0.10111147 -0.054077998 0.037159782 0.0698543
0.08492039 0.03992863 -0.10668773 -0.13256025 0.055551384 0.08969297 0.08996222 0.012915327

fc1.bias f4 [128]
00000000: 66ff c0b8 3b3c 4ab8 e393 0339 1742 10ba
00000010: a834 bcb9 fe84 c139 3df6 d638 5e54 5839
00000020: 67e5 6bb9 328e 2cba a396 3439 5f1e c3b8
00000030: 6e89 5d39 cc96 873a 4fd7 9839 4c18 c538
00000040: a390 8e39 1514 8bb9 9c32 3a3a abb1 0bba
00000050: d9ad 7439 d418 a539 8e80 18ba 12b6 383a
00000060: ba74 0e3a c156 4f3a 53e3 89b9 c4cf 073a
00000070: e06b 9c39 47a4 a139 8d34 c039 16c5 29ba
00000080: fc6d e339 5fcb 9c38 24e8 2b3a a50f 143a
00000090: a7d7 9e3a 9e6e d639 8ea8 8e3a c3b9 21ba
000000a0: 8c09 8f39 aa8c c8b9 cf9c 22ba 15c5 6cba
000000b0: 9ddf 4dba d414 0fba 278c 81b7 bc7a ebb6
000000c0: 2710 51ba 1b3a aaba 7869 fd39 4838 d1b9
000000d0: da75 a43a 24e8 a438 c625 a039 dfa2 163a
000000e0: e604 fa39 ceb0 a139 4a0d 44b9 6403 5bb9
000000f0: 78d3 243a 819b 053a 8400 c139 f604 17ba
00000100: 875a da39 eb53 033a 26a6 dab9 37fb 843a
00000110: 5788 8939 5278 8db9 a82d 02ba d4c5 76b8
00000120: 24a2 b0b8 e116 54ba 5c7e 243a 73c0 bab9
00000130: d96c 4ab9 b613 40b9 b4ff af39 d335 a2b9
00000140: 54db 7d39 05a2 55b7 8712 2c3a f27d 71ba
00000150: 441b 6e3a 9554 6e3a 3985 df39 b382 d1ba
00000160: 505d 003a 4e20 a73a f2eb 273a 3755 b5b9
00000170: 39b6 05ba b978 dfb9 20b7 22ba cb12 9737
00000180: 1051 fbb9 ccf5 84b9 7834 f9b9 ef05 2ab9
00000190: 820d 37ba 2dbb 31ba 10bc 6239 6abc 8939
000001a0: 0b72 ceb9 4cab 0bb9 b3b2 8fba b1ce 81b9
000001b0: 523d 7a39 283c 093a 1c84 433a 5916 fbb9
000001c0: df3f 0cba 4be2 7b3a dc0b 173a 5b91 bd39
000001d0: 20fd c839 981a 47b9 cba2 0db8 10e9 d0b9
000001e0: 7033 e037 3e2f 2db8 a0ba e939 c1e7 e339
000001f0: e21e fc38 5709 5dba f0ed 4539 ae61 6ab7
-9.202845e-05 -4.8216647e-05 0.00012548226 -0.0005503012 -0.00035897386 0.00036910916 0.00010250181 0.00020630794
-0.00022496805 -0.0006582468 0.00017222254 -9.303982e-05 0.00021127399 0.0010344624 0.00029152117 9.398218e-05
0.00027192113 -0.00026527108 0.00071028783 -0.0005328904 0.00023334417 0.0003148975 -0.0005817496 0.00070461736
0.0005434264 0.00079093507 -0.00026300046 0.0005180801 0.00029835012 0.0003083071 0.00036660247 -0.00064762065
0.0004337876 7.4765405e-05 0.0006557724 0.0005648083 0.0012118713 0.00040899677 0.0010883973 -0.0006169343
0.00027282198 -0.00038251776 -0.0006203176 -0.0009032053 -0.00078534504 -0.0005458121 -1.5443262e-05 -7.017834e-06
-0.0007975124 -0.0012987287 0.000483345 -0.0003990552 0.001254733 7.863369e-05 0.00030545722 0.00057463156
0.00047687365 0.00030840043 -0.00018696967 -0.0002088673 0.0006287615 0.0005096719 0.00036812213 -0.0005760932
0.00041647648 0.0005009758 -0.0004170399 0.0010145669 0.00026232257 -0.0002698326 -0.000496591 -5.8835212e-05
-8.422535e-05 -0.00080905674 0.00062749325 -0.0003562007 -0.0001930477 -0.0001831789 0.00033569115 -0.0003093915
0.00024209666 -1.2733512e-05 0.000656404 -0.0009212188 0.00090830424 0.0009091583 0.00042633133 -0.0015984386
0.0004896717 0.0012750716 0.0006405703 -0.000345865 -0.00051007007 -0.0004262382 -0.00062070973 1.8009354e-05
-0.00047934847 -0.00025360135 -0.00047532073 -0.00016214674 -0.0006982909 -0.00067799055 0.00021623098 0.00026271056
-0.0003937635 -0.00013319886 -0.0010963291 -0.00024758794 0.00023864702 0.0005235099 0.00074583455 -0.000478911
-0.00053500937 0.00096086104 0.000576196 0.00036157187 0.00038335565 -0.00018988026 -3.3768632e-05 -0.00039846497
2.6726833e-05 -4.1290412e-05 0.0004458027 0.00043469484 0.00012022049 -0.00084318727 0.00018876023 -1.397023e-05

bn1.weight f4 [128]
00000000: 6346 7e3f 830e 803f 3142 6f3f 343b 823f
00000010: 63bd 753f 48e3 703f e313 6c3f 4c62 543f
00000020: 6c91 833f 12d4 733f f5e8 803f ebf5 7f3f
00000030: b6ed 553f 0bbd 7f3f 5cfc 873f 29fe 653f
00000040: 56c3 633f 9b8f 523f 99ab 8a3f f7fc 6b3f
00000050: 09fa 853f e320 743f 6a15 693f 4ba2 883f
00000060: 6c3f 7c3f 43fc 773f dd85 683f e4b0 7a3f
00000070: 50c9 833f eeec 883f 1e0f 793f 6095 7b3f
00000080: e80e 793f 1f0d 853f 68d1 703f bcb6 843f
00000090: df0a 823f 53b0 733f 47b4 793f 7858 683f
000000a0: 3c9d 783f af6c 833f 432a 843f 0da0 7a3f
000000b0: 403d 893f 513c 7e3f 4a90 563f 62e3 7a3f
000000c0: 42b5 753f 0652 823f ea96 643f f014 753f
000000d0: 1a26 523f ecc8 713f ba89 623f f9bc 6c3f
000000e0: 6e6f 813f 0757 6a3f d21a 823f 70ca 753f
000000f0: 9a7a 733f add4 7e3f 269a 793f 2d15 5b3f
00000100: b13d 763f 328a 733f 75b3 613f 4544 5d3f
00000110: cad0 783f 0093 7a3f e6eb 673f 8d54 773f
00000120: 7797 5b3f d0e2 793f d8fc 7c3f 632b 863f
00000130: ce1e 733f 5a16 753f e09b 773f 0233 833f
00000140: 8b6b 583f 6eac 763f 7768 823f aa78 7f3f
00000150: fe2c 823f 4c51 723f 134b 703f 0415 833f
00000160: f3bf 723f ba28 733f 6f91 7e3f 0664 853f
00000170: 6694 843f 59c5 863f 8b7e 7d3f 4dfd 833f
00000180: ccdd 6c3f 0262 773f 071c 843f bdff 6a3f
00000190: f6dc 873f 5cc3 7d3f a8c0 6f3f 11d0 6f3f
000001a0: 45c7 793f d149 853f cfdd 7b3f eba0 7a3f
000001b0: 6442 7a3f d449 7e3f f249 6c3f 359d 743f
000001c0: 6d25 803f fd1a 833f 99c7 7e3f 62f8 803f
000001d0: d77d 6d3f 1c10 6f3f b41e 813f 40be 693f
000001e0: a2b2 813f 9066 693f c1c2 573f 6a21 573f
000001f0: bd7b 693f 1ef0 803f 1f19 6f3f efcc 893f
0.9932615 1.0004429 0.93460375 1.0174317 0.95992106 0.94096804 0.92217845 0.8296249
1.0278754 0.9524547 1.0071093 0.99984616 0.83565843 0.9989783 1.0623889 0.8984094
0.88969934 0.82250375 1.0833617 0.9218287 1.046693 0.9536268 0.910483 1.0674528
0.98534274 0.96869296 0.9082926 0.97926164 1.0295811 1.0697305 0.9728869 0.98274803
0.9728837 1.0394629 0.9406953 1.0368266 1.0159568 0.95190924 0.97540706 0.9075999
0.9711492 1.0267543 1.0325397 0.9790047 1.0721817 0.99310786 0.8381392 0.9800321
0.959797 1.0181282 0.89292777 0.95735073 0.8208939 0.9444721 0.88491404 0.9247585
1.0112131 0.91539043 1.0164435 0.9601202 0.9510895 0.9954327 0.97500837 0.85579187
0.96187884 0.95132744 0.88164455 0.86432296 0.97193587 0.97880554 0.9059433 0.9661339
0.8577799 0.97611713 0.9882331 1.048199 0.9496888 0.9573723 0.9672222 1.0249941
0.845391 0.96356857 1.018813 0.99793494 1.016998 0.946553 0.93864554 1.0240788
0.9482414 0.9498402 0.99440664 1.042115 1.0357788 1.0528976 0.99021214 1.0311676
0.92525935 0.96633923 1.0321053 0.91796476 1.0614307 0.9912622 0.93653345 0.9367686
0.97569686 1.0413152 0.9838533 0.9790179 0.97757554 0.993314 0.9230033 0.9555238
1.0011421 1.0242611 0.9952331 1.00758 0.9277014 0.93383956 1.0087495 0.91305923
1.013264 0.9117212 0.84281546 0.8403536 0.91204435 1.0073278 0.93397707 1.0765666

bn1.bias f4 [128]
00000000: 5250 97be 4710 61be 6490 9fbe aea4 e5bd
00000010: 0ad5 9dbe 6acb a8be 449f b0be 282d 8fbe
00000020: b2fa 26be ee5e 0ebe cec8 42be 275c 83be
00000030: 42d7 d7be cb4e 53be 91f7 63be 87d7 a4be
00000040: 8538 3fbe a600 a0be e7fe 52be f459 9ebe
00000050: f33c 36be 6fd2 a1be b4c4 93be ff8c 2abe
00000060: 4d5d 8bbe 431f 51be 5795 a4be 2be8 5fbe
00000070: dd00 7ebe e90b 36be 811a 33be 983e 10be
00000080: c164 33be 0ef1 5ebe c7c5 9fbe 09d8 05be
00000090: b409 52be fff1 d9bd 35bc 5cbe 11cf 49be
000000a0: 94e4 5abe d6dc 34be 7f1e 3bbe 8f7a 59be
000000b0: de61 c1bd 1029 87be 3cc9 c8be 1fb9 80be
000000c0: ff7e 9dbe 9d2d 54be 553a d0be fda8 63be
000000d0: c7a2 bebe c322 73be cc65 c7be 1db2 61be
000000e0: e933 29bd 7565 7abe 33dd 0ebe 855c aebe
000000f0: a87f 43be 8b06 89be e28c 5dbe 8483 c0be
00000100: ffaf aabe d290 5cbe 7038 b2be 96dc b7be
00000110: a5f9 9bbe 2f52 9dbe e82c b9be 78ce e9bd
00000120: bfab 9cbe 34fb 94be 56c6 39be b34f 63be
00000130: cf08 8dbe 22da 93be a9af 32be a8c1 6ebe
00000140: e9a6 b0be 639d 67be b2ab eabd b4c4 dcbd
00000150: 2468 5dbe 25f6 72be 3357 53be 324b 1fbe
00000160: 7796 33be 2b97 25be 1e01 a7be a627 e8bd
00000170: 2ba3 1abe 0e03 3fbe 8d9f 69be a982 50be
00000180: de98 dbbd 1713 88be 1053 72be 50f1 aebe
00000190: 5ddc 30be e83d 37be e150 41be 9aad abbe
000001a0: a58b 93be d1f8 04be 687d 29be be41 94be
000001b0: d169 28be a0cb 84be 4f4e 94be 47e9 91be
000001c0: 3c47 74be 6754 8bbe f31b 39be 8438 96be
000001d0: 7158 58be 84f7 7dbe ef1f 85be f854 9bbe
000001e0: 5c68 56be 3392 9ebe 3340 d7be 1268 aabe
000001f0: 5513 9dbe a38b 59be 9837 84be 56fa 75be
-0.29553467 -0.21978866 -0.3116485 -0.11213051 -0.30826598 -0.32967693 -0.3449651 -0.2796414
-0.1630657 -0.139034 -0.19021913 -0.25656244 -0.42156416 -0.20635526 -0.22262408 -0.32195684
-0.18673904 -0.31250495 -0.2060505 -0.30928004 -0.17796688 -0.3160586 -0.2886101 -0.16655348
-0.2721962 -0.20422082 -0.32145187 -0.21865909 -0.24805017 -0.17777981 -0.17490579 -0.14086378
-0.17518903 -0.21771643 -0.3120558 -0.13070692 -0.20511514 -0.1064186 -0.2155617 -0.19707896
-0.21376258 -0.17662367 -0.18273352 -0.21238159 -0.09442495 -0.26398516 -0.3921603 -0.25141236
-0.30760953 -0.20720525 -0.40669504 -0.22232433 -0.37233564 -0.2374373 -0.38944852 -0.22040601
-0.04130927 -0.24452765 -0.13951568 -0.34054962 -0.19091666 -0.26762804 -0.21635774 -0.37600338
-0.333374 -0.2153962 -0.34808683 -0.3591048 -0.304639 -0.30726764 -0.36167073 -0.11416334
-0.30599782 -0.29097903 -0.18142065 -0.22198372 -0.27545783 -0.2887736 -0.17449822 -0.23316061
-0.34502342 -0.22618632 -0.114585295 -0.10779706 -0.21621758 -0.23726709 -0.20638733 -0.15556028
-0.17537867 -0.16170947 -0.3261804 -0.11335687 -0.15101306 -0.18653509 -0.2281477 -0.20362343
-0.107225165 -0.26577064 -0.23664498 -0.34168482 -0.17271562 -0.17894709 -0.18878509 -0.33530885
-0.28817478 -0.12985541 -0.16551745 -0.28956407 -0.16446616 -0.25936604 -0.28965995 -0.2849829
-0.23855299 -0.2721283 -0.18077068 -0.29339993 -0.21127488 -0.24801451 -0.26000926 -0.30338264
-0.20938247 -0.30970916 -0.42041168 -0.33282524 -0.30678812 -0.21244673 -0.25823665 -0.24021277

bn1.running_mean f4 [128]
00000000: 05ca 3c3d e11c 48bd 7a65 cb3d c0e8 2a3e
00000010: 8b3c a53d 4142 be3d c506 323d 4e3b 4f3e
00000020: b9ab 083e 943f 4e3e 0f9d 263e b401 173d
00000030: c7e0 783e b136 103d 7f9d e9bc 43b1 003e
00000040: 7f28 243e c380 18bd 8f99 eb3d 5548 8d3d
00000050: 9ec2 683e cd66 333d f223 263d e8e6 4a3e
00000060: 1baa 9abd ccd7 63bd 25e7 6d3c 018b 473e
00000070: cdef b93d 9888 533e 3cfc 143e 06fc 0d3e
00000080: 4ff9 863e 7b02 98bd 4f87 953d a253 443e
00000090: 5e03 a23c 1405 e93d b377 013d c3bf 4f3d
000000a0: e0e5 073d 04b9 433d e84a 153b d82d ea3d
000000b0: 9eea 253e 8adb dc3b b7da 633e a49b 7fbc
000000c0: ebab c93c fcfb c13d 8d96 6e3e 6542 2f3d
000000d0: af6c 093e bb6d 5fbc da82 9b3e e4e0 3abd
000000e0: 9b4d 453e 427a f93c 4cf8 ee3d f6db b63c
000000f0: 1340 a43d 2ebd b83d 49e3 b73c 9b49 4a3e
00000100: 1776 923d 08ea 313d e426 78bd 60b9 223d
00000110: 941c 03bd 27ea 693d 1443 893e e8a1 5e3e
00000120: 3aa2 fd3d 77e8 943d ed8c 3a3e 3d1c 103c
00000130: 7fa4 a03d 3820 b63d b558 153d 8a3b 2abd
00000140: db2a 983d e83c 3abb ae72 423e 0a8d e53d
00000150: 885f 483d e264 f13c ded1 2e3e ee88 6c3e
00000160: 2d38 483e e256 3c3e a32f fc3d fd78 763d
00000170: 0215 a23d 7a11 543e f737 9b3d b79d 263d
00000180: 9a78 f53d 17f6 95bd 7211 a53d a86a 2c3e
00000190: 20ef 623e e3f8 023e aaa4 be3d 151f a4bd
000001a0: b4e0 a53d fa81 433e 0da1 6d3e 7859 9f3d
000001b0: 1a55 2c3e 49b7 a63c 7557 9b3d bf64 d3bb
000001c0: 1110 d6ba dd6f 17bd 522b 703e fd56 453d
000001d0: fe55 3a3e 65ce c63c e5fa bd3d 1d8a 0f3e
000001e0: d3b7 1cbd 4023 b4bc 5419 653e fd1d 553e
000001f0: e1ad 913d e26d 3e3e bec4 03bb c365 5bbb
0.0460911 -0.048855666 0.099314645 0.1669035 0.08068188 0.09289981 0.043463487 0.20237467
0.13346757 0.2014144 0.1627085 0.03686686 0.24304496 0.035208408 -0.028517483 0.1256762
0.16031073 -0.03723217 0.11503898 0.06898562 0.2273049 0.04379921 0.040561624 0.19814646
-0.07551976 -0.05562572 0.014520441 0.1948662 0.090789415 0.20657575 0.14549345 0.1386567
0.26362082 -0.07422348 0.07301199 0.19172528 0.019776996 0.11377922 0.031608295 0.050719988
0.03317821 0.047783867 0.0022780243 0.11434525 0.1620278 0.0067400383 0.22251402 -0.015601072
0.02461811 0.0947189 0.23299618 0.042787928 0.13420366 -0.013637002 0.3037327 -0.04562463
0.19267885 0.030453805 0.116684526 0.022321682 0.08020034 0.09020458 0.022447245 0.19754641
0.0715143 0.04343608 -0.060583964 0.03972757 -0.032009676 0.05710807 0.2680899 0.2174145
0.12384458 0.07270902 0.18217821 0.008795795 0.07843875 0.08892864 0.03646155 -0.041560687
0.07430049 -0.002841765 0.1898906 0.11208542 0.04891923 0.02946705 0.17072245 0.2309911
0.1955268 0.18392518 0.123137735 0.060173977 0.07914163 0.20709792 0.07579034 0.040677752
0.119858935 -0.073223285 0.08059968 0.16837561 0.22161531 0.12790255 0.09308751 -0.08013741
0.08099499 0.19092551 0.23205967 0.07780737 0.16829339 0.020351069 0.075850405 -0.006451219
-0.0016331692 -0.036971916 0.23454025 0.04817866 0.18196866 0.024268338 0.0927637 0.1401753
-0.038261246 -0.021989465 0.22372943 0.20812221 0.07113243 0.18596604 -0.002010628 -0.0033477403

bn1.running_var f4 [128]
00000000: b645 db43 5d99 0144 6c60 f243 7d95 f543
00000010: 5fc9 bd43 1cbb e043 7dda f943 957c 7243
00000020: 1564 f343 f398 9443 1a11 f543 7ae8 e143
00000030: 22ef 7243 fe72 bc43 9191 ec43 c67c 7743
00000040: e874 8643 9119 bc42 602c d643 d946 b643
00000050: b9d4 0844 4f80 aa43 aef6 d743 45d4 0044
00000060: 5c5c e243 fc14 ce43 109e d843 4a79 b843
00000070: 76ac fc43 afea f643 0253 da43 37a6 dc43
00000080: 7f73 bb43 03a4 0444 53bc ca43 6569 1744
00000090: 3133 e543 4b4b ed43 f199 ef43 01ce 9743
000000a0: 62d7 e143 8ec8 e943 aaac de43 45ce ce43
000000b0: 31e7 dc43 b187 f843 8fc7 9743 2936 cd43
000000c0: f4ff 9a43 72ab d643 a098 9a43 67f1 d543
000000d0: 303c 6143 9ed6 b543 54cd 9343 ff76 bf43
000000e0: d73d e543 5d1c 9643 6dbb cd43 6389 c343
000000f0: b7a7 0244 db4a bc43 825d be43 18e5 6443
00000100: dacd c543 60fa cb43 fd9f b043 3f0e b243
00000110: 28aa f343 f8e6 bf43 1cba 8843 8da4 e243
00000120: 817a 8243 2a26 9c43 af19 b243 9c7a c843
00000130: 3174 d343 a87b c543 c5ff b843 56ad d243
00000140: cd4b bf43 6e99 ec43 7ffe ce43 d23d d943
00000150: 4d3f 1044 066e b443 d24d b943 af89 ee43
00000160: 6f05 0944 01fc ff43 3199 e443 9f41 d443
00000170: ea41 d543 c000 0544 8b67 f943 1e0b a143
00000180: a0f9 9b43 a92b c943 d225 cd43 fa8c ce43
00000190: fe92 1544 1c6a dc43 fd63 c043 77bc 9c43
000001a0: ca5e db43 b643 0d44 21ac ec43 2fa1 0144
000001b0: 1773 fa43 41d7 0044 ed6c dd43 708f a643
000001c0: 56cb e643 a8e7 b243 9564 bd43 e6f2 f843
000001d0: 279a db43 740e bf43 9a52 cf43 0faf d143
000001e0: 4354 ed43 5939 dd43 790c 9043 5888 9e43
000001f0: 793d d943 98a8 fd43 33c7 d743 f31a 0f44
438.54462 518.3963 484.7533 491.16788 379.5732 449.4618 499.70694 242.48665
486.7819 297.19492 490.1336 451.81622 242.93411 376.89838 473.13724 247.4874
268.91333 94.049934 428.34668 364.5535 547.3238 341.0024 431.9272 515.3167
452.72156 412.16394 433.23486 368.94757 505.34735 493.83347 436.6485 441.29855
374.9023 530.5627 405.47128 605.6468 458.39993 474.58823 479.20267 303.6094
451.68268 467.56683 445.34894 413.61148 441.80618 497.0601 303.55905 410.42313
309.99963 429.33942 309.19238 427.88596 225.2351 363.6767 295.60413 382.92966
458.48312 300.2216 411.46426 391.07333 522.62054 376.5848 380.73053 228.8949
395.60822 407.95605 353.2499 356.1113 487.32935 383.80444 273.45398 453.28555
260.95706 312.29816 356.20065 400.9579 422.90775 394.96606 369.9982 421.3542
382.5922 473.19867 413.98825 434.48297 576.9891 360.85956 370.60797 477.07565
548.0849 511.96878 457.1968 424.51266 426.51495 532.0117 498.80893 322.08685
311.9502 402.3411 410.29547 413.10138 598.29675 440.82898 384.78116 313.47238
438.74054 565.058 473.34476 518.5185 500.89914 515.36334 442.85098 333.1206
461.58856 357.8098 378.7858 497.89764 439.2043 382.1129 414.64532 419.36765
474.6583 442.44803 288.09744 317.0652 434.48026 507.31714 431.55624 572.4211
