models/hybrid_neurons_pretrained/MLP2_HUMAN_AEtunedBERT_att_bm.pth (torch, 649190 bytes, 34 tensors)

embedding_proj.weight f4 [96, 1152]
00000000: 78a0 edbc 153f a13c ff27 3a3d 6a22 80bd
00000010: 1108 d03c f48d c93d 9e1e 823d 2354 953d
00000020: bbc9 23bb 1180 a43d 5232 2ebd 6529 063e
00000030: 063d 243b bc1f 853d 5134 13be 840f e03c
00000040: 4a4c 373d 3cd5 7ebc ab4a 6ebd 9f5a 92bd
00000050: 390f 10be 2544 67bc 5165 b0bd a4bd c03d
00000060: b2bd 33bc 0e98 51bc 9b9b 2abe 1b37 c6bd
00000070: 1b65 56bd 86ea ad3d 21fd bdbd 1163 1ebb
00000080: a03f 5dbe 1e3f babc d36a 73bc 79fd 62bd
00000090: 2b92 0b3d 749a 36be 2a1d db3d 76aa 31bd
000000a0: 9f11 adbd 4b73 1fbd 3990 eabd 44e8 703d
000000b0: f093 0ebd 5209 2c3c 4e2e 8cbd a05d 0fbc
000000c0: 0280 01be b309 95bc 6f5d e4bc 8be6 2cbd
000000d0: c3a4 9bbd 2483 df3d 5670 013d a06a e83c
000000e0: e850 c6bc 66c5 93bd 160d 9abc b77f 313d
000000f0: 4da0 db3c 65ed 483c 0c32 983d b854 f33d
00000100: b631 0ebd 5951 f93d de17 6ebc c7cc 8ebd
00000110: a36e 9f3d 1f57 f23a a51e 59ba 8d9e 63bd
00000120: dc22 0c3e 71ca 823c 437d d63c 185d 86bd
00000130: b35c dc3c c9a8 8f3c 1078 803a 2d36 4ebc
00000140: 4ed1 90bc e674 133e 6c1b 933b 3580 923d
00000150: eec2 abbd 4ba4 0bbd 48bc 63bb dd4a 11be
00000160: 6ffd 623d 8469 a53d f3b9 6cbc 4426 763d
00000170: bba7 a3bc cff6 8e3d 8410 d93d 4501 003e
00000180: 59b7 a13b 289d 293d a5ae 2cbd b4da 5b3d
00000190: 0a7d b0bd e278 b7bd eea7 70bd e740 e7bd
000001a0: cf59 36bc 6474 49bc b149 ccbd 7bb9 593c
000001b0: 456c 18be c9be 183e cee1 a4bc 06ed 163d
000001c0: bde9 633d 677b d53d 34e9 b23c 0a83 e13d
000001d0: 47e9 033d 45bd a33d 7da4 dc3b 4a90 23be
000001e0: 05c9 cc3d a55a 27bd 31e9 92bc d539 3a3d
000001f0: 237f 153e 7845 b0b6 c270 503c 3c2d db3c
00000200: 5447 843d 399d 06bd 3b0d 8cbd 1997 7cbd
00000210: 9811 8fbc a4c9 713d dd27 81bd 34a0 813d
00000220: 347b a9bd a7f1 3d3d c353 59bc 512d f53a
00000230: f56a 603c 521d b3bb ed1a e9bc 4076 ad3d
00000240: dd00 bd3c 38c5 a83d edd6 8bbc 3e3c ad3c
00000250: d547 a13d fcd6 9abd 513c 08bd e9eb 793d
00000260: f26a 1bbd 22e2 433d f46a 5d3d 74eb e6bc
00000270: 6962 ae3d 9f56 0abd 84f7 83bd 0ca7 38bd
00000280: 3185 93bc 957f 6dbd ae10 b6bc f340 143d
00000290: e4e3 08bd 0d5d c0bc 119c 633c f071 263c
000002a0: 5ccc 163d b3db 953d 7233 5b3d 85b2 babb
000002b0: 4531 1cbd d71a 7cbd 59c6 c23a 7e3f 573d
000002c0: ec3b a0bd 8440 2cbd 18af 253d ebaa 0dbc
000002d0: ed49 d93d 452c 0abe e41e 913d ea90 6e3d
000002e0: 0a9c f83d 970e 92bd b51c 68bd b42b 66bd
000002f0: 49ff 323d 398e 3bbe f493 a63c 748c 8f3d
00000300: 8b58 563d 93eb 6bbd 410a 8ebb f99f 033d
00000310: 140f 913d 1a8e e9bd 3dae 4dbd 8170 923d
00000320: 42ca e53d 78d7 f5bd ef72 703d 5fbf 91bb
00000330: 01ab c6bd eaa9 e0bc 9e99 97bd dab9 afbd
00000340: 3487 0bbd 84e4 b83c 628b d7bc 6a21 1b3c
00000350: 4055 4c3d 3a4b ac3d 81bf c33d 3051 853b
00000360: 7964 79bd 1f0e bcbd 39c9 723c aba9 e03a
00000370: 405a 863d d8f7 43bd 8855 b83c 49da ee3c
00000380: 6df7 d2bc 6352 cb3d 9fb4 1ebd ad53 023e
00000390: 9a0e 6d3d 0235 063d a251 183d e7c9 a43c
000003a0: dd0b ccbd c9ab ef3d 3413 eabc ded6 d53a
000003b0: 6587 adbd f90a 393d 6ac8 96bd fd49 003c
000003c0: 5c8e 7dbd 8b75 21bd e342 31be e982 1dbe
000003d0: f70e 4abd fad9 803b 80d0 fe3d fac7 be3d
000003e0: 8b28 2f3d ad73 79bc 1b25 d23d e702 87bd
000003f0: 1ffd 0f3e 5f2f 373d 3137 2c3d 2fa6 6cbc
-0.029007182 0.0196834 0.0454483 -0.06256564 0.025394471 0.098415285 0.06353496 0.072914384
-0.0024992067 0.08032239 -0.042528458 0.13101728 0.0025060787 0.065001935 -0.14375426 0.027351148
0.04475049 -0.015553769 -0.058176678 -0.07146191 -0.14068307 -0.014115368 -0.086130746 0.09411171
-0.01097052 -0.0127926 -0.16660921 -0.09678479 -0.052342515 0.084919974 -0.09276796 -0.0024167935
-0.21606302 -0.022735175 -0.014857012 -0.05541751 0.034074944 -0.17832357 0.10698922 -0.043375455
-0.084506266 -0.03892831 -0.114532895 0.058815256 -0.034809053 0.010500269 -0.068447694 -0.008750349
-0.12646487 -0.018193102 -0.027876584 -0.04221205 -0.07599785 0.10913685 0.031601273 0.028371155
-0.024208501 -0.07215385 -0.018805068 0.04333469 0.026809836 0.0122636305 0.07431421 0.11881393
-0.034715377 0.12173719 -0.014532058 -0.06972652 0.07784774 0.0018489099 -0.00082824595 -0.055571128
0.13685173 0.015965672 0.026182776 -0.06560725 0.026899671 0.017536538 0.0009801406 -0.012586159
-0.01767793 0.14400062 0.004489353 0.0715336 -0.08386789 -0.03409223 -0.0034749676 -0.14188714
0.055417474 0.08076766 -0.014448631 0.060095087 -0.019977441 0.06980669 0.10598853 0.12500484
0.004935187 0.04140964 -0.04215874 0.05367537 -0.08617599 -0.089586034 -0.0587539 -0.11291676
-0.0111298105 -0.012295816 -0.09974993 0.013288851 -0.14885052 0.14916529 -0.020127203 0.036847137
0.055642832 0.10423928 0.021839716 0.11011322 0.032204892 0.07995085 0.0067334757 -0.1597301
0.09999279 -0.04085793 -0.01793346 0.04546531 0.1459928 -5.253296e-06 0.012722196 0.026754968
0.06458917 -0.032864783 -0.06838461 -0.061667535 -0.017464444 0.05903019 -0.063064314 0.063293844
-0.08275452 0.046373036 -0.013264599 0.0018705522 0.013697376 -0.0054661417 -0.028455222 0.0846982
0.0230717 0.082407415 -0.017070258 0.02114689 0.07875029 -0.07560536 -0.033260647 0.061015997
-0.037943788 0.04782308 0.054057077 -0.028188445 0.08514864 -0.033774015 -0.06443694 -0.045081183
-0.018007847 -0.057983 -0.02222475 0.036194753 -0.03342046 -0.02348187 0.01389219 0.010159001
0.036815986 0.07317295 0.05351586 -0.0056975507 -0.038132925 -0.061549034 0.0014860138 0.052550785
-0.07823929 -0.042053714 0.040450186 -0.008646707 0.10609803 -0.1349345 0.0708597 0.05824367
0.12139137 -0.07131689 -0.056668002 -0.056194022 0.04370049 -0.18315972 0.020334221 0.07009211
0.052330535 -0.057597708 -0.0043347185 0.032134984 0.07082954 -0.11404057 -0.050214995 0.07150365
0.11220218 -0.12003988 0.05870336 -0.004447862 -0.09700585 -0.027424771 -0.07402347 -0.0858037
-0.034064487 0.022569902 -0.02631158 0.009468416 0.04988599 0.08412786 0.09558011 0.004068516
-0.060886834 -0.09182381 0.014818483 0.0017140409 0.065601826 -0.047843784 0.022501722 0.02915682
-0.025752747 0.099278234 -0.038746472 0.12727232 0.057875253 0.032765396 0.037187226 0.020115806
-0.099632 0.11702687 -0.02857361 0.0016314646 -0.0847309 0.04517648 -0.07362445 0.00783014
-0.061903343 -0.03941874 -0.17310672 -0.1538197 -0.049330678 0.003932235 0.12442112 0.09315486
0.042763274 -0.015225333 0.102609836 -0.065923505 0.14061402 0.04472291 0.042044822 -0.014443918

embedding_proj.bias f4 [96]
00000000: 9e98 4cb9 a181 e0b9 fc39 24ba ac2c bf39
00000010: af50 4fba 1c14 8eb9 9477 ae3a 5ca6 603a
00000020: 6919 a3ba 6579 8bb9 2010 893a 22b6 0d39
00000030: e6d9 02ba 9f65 f139 34a8 03bb 3c6d ac3a
00000040: f6dd 923a 9985 e93a ce92 853a 2fca 613a
00000050: 7936 34ba ad9d f0ba a55e 8e3a 4b39 baba
00000060: c670 953a 8ce5 55ba 81cc 873a 95d1 ebba
00000070: 9d9d 64ba c193 963a 4179 47ba 180e 323b
00000080: 0571 533a 249f aaba dbb8 293a 25f4 05ba
00000090: 5228 ad38 118b b1b9 2672 34ba 534c 153b
000000a0: 3548 d7b9 91f5 b93a a9f4 eab9 9a1e 8d3a
000000b0: f8dc 8839 daf7 c4b9 6643 39b9 ac19 bab9
000000c0: f323 23bb f13d 7f3a efd8 e239 b492 35b9
000000d0: 3b9d 1b3b c345 18ba 2a01 c6b9 2ca8 a73a
000000e0: 9f62 a7ba 24f9 213b c9a5 b8ba a01a f1ba
000000f0: 89de 983a 1751 f5ba 4cbc c6ba 9869 643a
00000100: 8713 573b 998b 9ab9 bc11 7b3a 4e61 053a
00000110: 4560 053a f970 db3a 382a 2dbb 80db ceba
00000120: 6533 9cb8 60a5 b3ba e346 013a b89a bd3a
00000130: d6f7 ab39 0e32 2738 c749 cb3a d5ca 913a
00000140: fea1 c13a 29a6 68ba bf2a eaba 0af9 663a
00000150: edc6 98ba 44d3 faba f262 b13a ef68 4cba
00000160: 1c31 38bb f7ba a93a 4707 a639 f877 4eba
00000170: d967 89ba ab52 a538 08b1 133b c176 9c3a
-0.0001951181 -0.0004282119 -0.0006264744 0.00036463642 -0.0007908446 -0.00027099333 0.0013310784 0.00085697114
-0.0012443486 -0.00026602592 0.0010457076 0.00013514658 -0.0004991576 0.00046042816 -0.002008927 0.0013155113
0.0011205066 0.0017816304 0.0010190846 0.00086131966 -0.0006874572 -0.0018357538 0.0010861947 -0.0014207748
0.0011401407 -0.00081595103 0.001036063 -0.0017991537 -0.0008720996 0.0011488126 -0.0007609316 0.0027169045
0.00080658525 -0.0013017398 0.0006474384 -0.0005109928 8.256793e-05 -0.00033863683 -0.00068834645 0.0022781088
-0.00041061794 0.0014187564 -0.00044814244 0.0010766566 0.00026104576 -0.00037568697 -0.00017668083 -0.00035495812
-0.0024893254 0.0009736708 0.00043267707 -0.00017316156 0.002374484 -0.0005808735 -0.0003776637 0.0012791208
-0.001277048 0.002471515 -0.0014087494 -0.0018394776 0.0011663 -0.0018716183 -0.0015162318 0.00087132445
0.0032818036 -0.00029477177 0.0009577533 0.0005088047 0.00050878926 0.0016742042 -0.002642287 -0.0015781969
-7.448233e-05 -0.0013705902 0.00049315224 0.0014465665 0.00032800314 3.986252e-05 0.0015509658 0.0011123071
0.0014773009 -0.00088748574 -0.0017865523 0.00088109134 -0.0011655964 -0.0019136448 0.0013533516 -0.0007797619
-0.0028105443 0.0012949397 0.0003166741 -0.0007876153 -0.001048322 7.883211e-05 0.0022535939 0.0011937247

categorical_proj.weight f4 [17, 17]
00000000: 41c7 c73e 51a6 483e 359d d53e e4a8 903e
00000010: e865 80be 606f 8cbe 5fac d03d 70a4 353f
00000020: ac48 b3be eb4d 913c d999 893f 190f dd3e
00000030: 6f69 76be c080 9dbb 0b93 83bd cfa3 cabe
00000040: 0fdb 91be a033 a2be b6c9 b63e c796 0abe
00000050: d804 3dbe 459e a43e ae96 853c f3c1 c53e
00000060: c674 f4be d96e 0dbf c1cc 40be b367 36bf
00000070: 2614 07be c1be 1e3f 4c95 76be 7ecf b3be
00000080: fe78 54be 4846 cb3e bdfb c53d 1067 943d
00000090: a6ac 7f3e 2643 323e fcb6 8fbe 2b5f 6e3d
000000a0: a0d0 fbbc b472 39bf 6558 64bd 97ae 8b3e
000000b0: 25b3 80bf 1e41 753e 1cfe 0f3e b297 aabe
000000c0: d93b e23e 9aa3 cd3d bc0a 5b3e 2031 6fbe
000000d0: 8219 123f 66b9 afbe 5b1b e9bc 65c3 b3be
000000e0: 7e86 15be 990b c0be 1d06 a93d b91a 5cbe
000000f0: d6de 6dbe 72bd da3e df64 00bf 0c27 0abf
00000100: cad2 833e 9cfa f83d 2883 803e f273 bcbd
00000110: ad5f ab3e b934 a93e 832e 2f3d 7510 c3be
00000120: eab3 0dbe 4b91 9e3e 7b20 fbbb 3e7e e9be
00000130: 395c c73d 7ac9 e53e b60f 72be 4514 053e
00000140: 7fef c8be 9cf2 cabe bcb5 aebe 4c62 7fbe
00000150: e341 c73e 6279 9ebd d815 aabd 9abb 7b3e
00000160: 27cd debd 7b69 8fbe f6dc 5f3e a9a9 c0be
00000170: 2c1b adbe 80b6 3f3e 6085 b73d 111a 82bf
00000180: 85a2 48be abe9 ea3e ddde 87be 22b8 a9bd
00000190: e797 20bd 3a97 9c3d b5c5 ce3e 8be3 623e
000001a0: f976 71be 63c6 ddbe 65c6 893e 76cc 233c
000001b0: 92ae c3be ac2d 193f 02e8 dabe 7c04 c83e
000001c0: 62ed 093e 3753 27be 69fe 3dbe 4a91 b03d
000001d0: 4d1e 1b3d 48c3 b9be c39b 7c3e fbbc 263f
000001e0: e21d 883e e1a9 e038 eb16 5c3e ccae 993e
000001f0: 1f75 d13e 414e 663c 0e87 c33e 221d e3be
00000200: 640a 0cbe 8fb9 493f 97c0 f4bd 9614 8d3d
00000210: bf59 c83e 284b dd3d 77ae b7be 3981 a53e
00000220: 1b07 23bd 0c58 063f 502d d6be 0c1d d8be
00000230: c844 64be aca3 003d e400 7b3d 6d42 f2be
00000240: 6d85 7f3e fa3d a43e 619b 54bf 7650 d2be
00000250: 70eb b5be 27e6 cc3e 98fc 893e 3979 a7be
00000260: ce13 92be c11b 64be a07e 803e 302d 8b3e
00000270: c99e 89bd 3ee4 b13d d9c2 aabd 3606 44bd
00000280: 5c95 3ebe aaa2 823e 2054 043e a78a 7abf
00000290: 84e1 7fbd cd0c 90be 2cfa afbe b30d 9c3e
000002a0: 89e7 b63c 78fb ce3e d96a bd3d f6c5 8abd
000002b0: 6455 6e3d 603b d13d 2209 a03e 9fdb 543b
000002c0: a11e 81be 4eb6 2bbf 1404 4ebc b47d 37be
000002d0: 5011 2cbf 25b9 42bd f3fd 253e cd52 41bc
000002e0: 1669 8ebe 9c1d da3e 49f7 68be b342 9ebd
000002f0: fea3 9b3e d9af 843e d3de 02be 367b bd3e
00000300: 909f d13c c708 993e c724 32bf 2e59 bfbe
00000310: 44e3 c8be 5f51 42bf d814 04be b251 b63e
00000320: 9cf3 9fbe 4de5 af3e 224f 1bbe 0d59 ac3e
00000330: b092 91be 2a74 dbbd b666 9bbe 8530 203e
00000340: 96bd dfbd 5920 91be b3ec a13d ee2a 8dbe
00000350: 3337 4bbc c712 c43e 350a b83d cee2 483e
00000360: e2db 3f3e 9039 183e 3c0a e4bd 9890 d2bc
00000370: 5f3f 8bbd 815b d93c bb4b d5be cbf8 8d3d
00000380: 0812 713e 5eb0 c43d 3edf 24bd b68f 34be
00000390: 226d c4be 2b71 c7bd c56b 96bd 6329 84bf
000003a0: 8aea 04be a888 0b3e e9df b5be 6569 a03e
000003b0: 7661 e93e 7d8e 7bbe 3b52 fe3e e470 2a3d
000003c0: cba4 bc3e ac8d 57bd 0c5a 9f3e 1827 cdbc
000003d0: 962e 4f3d c580 f03e 1a5b 1f3e fa78 aa3e
000003e0: 0f8e 3b3f cfbb a13e b0d5 18bf 3872 a6be
000003f0: 4300 803e 58c6 96be 175d 28be 321b 11bd
0.39019206 0.19594695 0.41721502 0.28253853 -0.25077748 -0.27428722 0.10189127 0.70954037
-0.35016382 0.01773735 1.0750076 0.4317558 -0.24063657 -0.004806608 -0.064245306 -0.395781
-0.2848744 -0.31680012 0.35700768 -0.1353408 -0.18458879 0.32152 0.016307201 0.38624534
-0.4774534 -0.55247265 -0.18828107 -0.7125198 -0.1319128 0.6200982 -0.2408039 -0.3511924
-0.2074928 0.39702058 0.09667156 0.0724622 0.24968204 0.17408428 -0.28069293 0.058196228
-0.030739129 -0.7244065 -0.055748362 0.2728164 -1.005467 0.23950621 0.14061779 -0.3331886
0.44186285 0.1004097 0.21390814 -0.23358583 0.5707017 -0.34321135 -0.028455427 -0.35110012
-0.14602086 -0.37508848 0.08253119 -0.21494569 -0.23229536 0.4272266 -0.5015392 -0.5396583
0.25746757 0.12157175 0.25100064 -0.09201802 0.33471432 0.33048037 0.042768966 -0.38098493
-0.13838163 0.30970225 -0.007663784 -0.45604128 0.09734387 0.44880277 -0.23638806 0.12996013
-0.3924522 -0.3963822 -0.34123027 -0.24939841 0.38917455 -0.07737996 -0.083049476 0.24583283
-0.108789735 -0.28010163 0.21861634 -0.3762944 -0.33809793 0.18721962 0.08960986 -1.0164205
-0.19593246 0.458814 -0.2653722 -0.08287074 -0.039207365 0.07646032 0.40385213 0.22157113
-0.2358054 -0.4331542 0.26909176 0.009997478 -0.38219124 0.59835315 -0.42755133 0.3906592
0.1346946 -0.16340338 -0.18554081 0.08621462 0.037870694 -0.362818 0.24668793 0.6513211
0.265853 0.00010712795 0.21493118 0.30016172 0.4090967 0.014056743 0.38188976 -0.44358164
-0.13675839 0.78798765 -0.11950796 0.06888692 0.3913097 0.108053505 -0.35875294 0.32325152
-0.0398017 0.524781 -0.41831446 -0.4220966 -0.22291863 0.03140609 0.061280146 -0.47316304
0.24953242 0.32078534 -0.8304959 -0.41077012 -0.35531187 0.40019342 0.26950526 -0.32709673
-0.28530735 -0.22276212 0.25096607 0.27182913 -0.06719739 0.08686112 -0.083379455 -0.047857486
-0.18611664 0.25514728 0.12922716 -0.97867817 -0.062470928 -0.28134766 -0.34370553 0.30479202
0.022327201 0.4042623 0.09248895 -0.06776039 0.058186904 0.10216403 0.31256968 0.0032479537
-0.2521868 -0.6707505 -0.0125742145 -0.17919046 -0.67213917 -0.04753985 0.16210155 -0.011799526
-0.2781455 0.42600715 -0.22750582 -0.077275656 0.30398554 0.2591541 -0.12780313 0.37008065
0.02558878 0.2988951 -0.6958737 -0.37372726 -0.3923589 -0.7590541 -0.12898576 0.35609204
-0.31240547 0.3435463 -0.15166906 0.3366169 -0.28432226 -0.10715516 -0.303518 0.15643509
-0.109248325 -0.28344992 0.07906475 -0.27571815 -0.012403297 0.38295576 0.08986322 0.19617769
0.18736222 0.14865708 -0.111347646 -0.025703713 -0.067991965 0.02653289 -0.4165934 0.06932219
0.23542035 0.09603952 -0.040251963 -0.17632946 -0.38364512 -0.09738382 -0.07344774 -1.032513
-0.12980095 0.13626349 -0.35522392 0.3133041 0.4558217 -0.24566074 0.49672112 0.041611567
0.36844477 -0.052625343 0.31123388 -0.025043055 0.050581537 0.46973243 0.15562096 0.33295423
0.7326364 0.315886 -0.5970106 -0.32509017 0.250002 -0.294482 -0.16441761 -0.035426326

categorical_proj.bias f4 [17]
00000000: cdca 2abb f0a5 0b3a aedb 4abc 4bca 09ba
00000010: 1500 c838 e418 3cbb b211 1aba a453 fa3a
00000020: e4f0 63bb b466 7e3a 8781 113c 3f15 a13a
00000030: 73a7 153b 768b d4bb 7590 723a 07e6 d43b
00000040: 1e34 adba
-0.002606082 0.0005327156 -0.012381477 -0.0005256279 9.5367584e-05 -0.002870136 -0.00058772706 0.0019098413
-0.0034781033 0.0009704635 0.008880979 0.0012289657 0.0022835403 -0.0064863516 0.0009253093 0.006497148
-0.0013214385

combine_proj.weight f4 [128, 113]
00000000: 113a 213c ddcf 9d3d bf41 a0bd c07f eabd
00000010: 30c0 b73d 3575 513d b662 12be 4b98 2c3d
00000020: 00a1 403d 6d89 8bbd 6e58 4a3d 35c1 b73d
00000030: 3cdd fb3d db13 5b3d 9b28 99bd b9e1 8f3d
00000040: 2385 a33c 9905 0ebd c8df 9b3d 404c ea3d
00000050: 9032 03bd e044 003e 57e0 be3d 0ec4 813d
00000060: 5b8f f1bd b51f 74bd 5efd 4a3d e82c 09be
00000070: a922 a2bc bee9 26be 9aeb b53d a191 03be
00000080: b39d efbb eb98 12be ce43 c2bd 99de 543d
00000090: 5c58 5ebc ce8c d33c 20ce 6a3d 0b06 413d
000000a0: 1613 acbd 88be b1bd 62d7 ae3d 70fc 8cbd
000000b0: 516d 133e 21e1 063c 01d9 843d 9110 f53d
000000c0: 5e6a 313d 34e2 8f3d 25c3 003e fe9f 433d
000000d0: f509 a33c 642c 06ba b3ea 833d 0d3e 02bd
000000e0: e30e 933d 1ab8 993d c1bd 683c d7b4 563d
000000f0: 74ba 18be ee8d 45bd c507 6dba db5b e43d
00000100: 015a f83d 891e 87bd f928 dbbc 4022 53bd
00000110: 87fc 5ebb f078 113e a392 183e d72d e2bd
00000120: 25ea a4bd 95cd 30be 6d11 d7bd 56ad b3bb
00000130: 7df4 b33d 838f f7bb e42b 1c3d dcb3 993d
00000140: 44d3 51bc e0f0 7cbd 95f9 f23d 747a 27be
00000150: 2e7e 20be 7999 5f3d c243 683d 2511 093d
00000160: 6d21 21be aca8 0bbd 760f 72bd 12e8 ee3d
00000170: 20e8 26be 37bc 0ebe 082c 0dbe 275f 513d
00000180: d768 523e c301 c33d 1c6d b4be 925b e23d
00000190: af3b 02be 187c 37be b106 623e 2b01 7e3e
000001a0: 67e8 06be 9955 b7be b6aa 06be c82a f63b
000001b0: 795b 13be 1bc8 a3be 6d1d 8d3d d6a4 c1ba
000001c0: 1e6b 5cbe a1ae 04be d48e 013d c4ba c8bd
000001d0: bcf5 963d 81fa dc3c 0795 abbd dae1 4abc
000001e0: 6346 11be 59fa a53d ad76 783c 4df7 b2bd
000001f0: 407f d63c 82c1 d83c cb1c d9bb 28cf e2bd
00000200: 7f6f 8dbd 5fbe bf3d c622 86bc 5922 7b3d
00000210: e8d2 05bd 6e24 893d 3e37 f4bd b41d a0bd
00000220: 86ea 76bd 3abf 0fbc 7042 a5bd 139f 41bd
00000230: d6eb 2c3d 678f 27be 7f1a 51bd 257d f5bc
00000240: 0511 3fbd 8afd d7bd 9595 8abd 7296 db3d
00000250: f67f 923d 2255 02be 76d4 aebd 86d7 8dbd
00000260: 20a2 28bd 0c36 28bd d168 14bc 85ed 0c3e
00000270: fe58 cbbc 3cbb f7bd e6da dbbc 50e7 993c
00000280: 9793 9e3d 5724 dd3d 9ecf ef3d 092f 28bc
00000290: 9735 cb3d 4236 c43c edf8 3fbd 00a9 6abd
000002a0: 6eef 2d3d 543a 313d b136 413d a98f 66bd
000002b0: baee 1f3d df15 8fbd 8c22 95bd 6263 f5bd
000002c0: d072 71bd aa3a 3d3d 2027 2d3d 76c2 99bd
000002d0: f20c d2bc ee01 debd 4c60 0abe f2c9 013e
000002e0: d5d5 8cbd 1319 583d 7856 bcbd dbf1 6f3d
000002f0: 6405 b13d e477 30bd bc1c 963d a602 b63d
00000300: 0a76 14be 8155 033e 6406 f4bd 9683 693c
00000310: b23d 1f3d a866 aa3b 5f7c f5bc cada 823d
00000320: e954 dc3d 4d94 363e 982e 39bd 318b ba3c
00000330: 3e06 bbbd f2cb cabc 0d23 83bd 4d84 f63d
00000340: 7b8a d9bd 5ce4 83be 661e a73e feca 043e
00000350: 469c 0dbe 4df9 d43b 11c3 5a3e cb24 af3d
00000360: f7b9 85be 0c62 393d eae7 603e bb2a ac3d
00000370: 0e38 093e 3e45 223e d980 553e 22c4 c7bd
00000380: db54 2c3d 0d94 aa3d 0a21 453e 4f2a dc3d
00000390: 1de5 fcbd 301e 43bd 5bcb 463e 1faf 24bd
000003a0: a22b 2a3e c07d c2bc 53c0 1f3d 5ae0 d9bc
000003b0: b28f 0bbd f6fa 00be bc67 d63d 389d f7bc
000003c0: 6b4a 87bd 41ab c13d 391c 4ebb a705 d23d
000003d0: 35f3 663e dbb9 183e 9bd8 3ebe cefa 3abc
000003e0: 9b85 263d b34c 62bc 863f 3f3e c14e 11bd
000003f0: cece 643d cb2e 69be 4dcd e03d 66ee 6cbd
0.009840504 0.077056624 -0.0782504 -0.11450148 0.08972204 0.051137168 -0.14295468 0.042137425
0.04702854 -0.06813321 0.04940074 0.08972398 0.122980565 0.053485733 -0.07478448 0.07025475
0.019960945 -0.034673307 0.07611042 0.11440325 -0.032030642 0.12526274 0.09320133 0.063362226
-0.11794921 -0.05960055 0.049558036 -0.13396037 -0.019791918 -0.16300103 0.08882828 -0.12848522
-0.0073125004 -0.14316146 -0.09485589 0.0519701 -0.013570871 0.025823977 0.057325482 0.047124904
-0.08402078 -0.08678919 0.08537175 -0.06884086 0.1439717 0.008232386 0.06486703 0.119660504
0.04331433 0.07025567 0.12574442 0.047760002 0.019902209 -0.0005118309 0.0644125 -0.031797457
0.07180574 0.07505818 0.014205397 0.052418556 -0.14914876 -0.048231058 -0.000904199 0.111503325
0.12126542 -0.06597621 -0.026752936 -0.051546335 -0.003402503 0.1420629 0.14899687 -0.110438995
-0.08052472 -0.17265923 -0.105013706 -0.0054833097 0.08786867 -0.0075549497 0.038127795 0.075050086
-0.012806717 -0.061753154 0.1186401 -0.16355306 -0.15673134 0.054589722 0.056705244 0.033463616
-0.15735407 -0.034096405 -0.059096776 0.11665358 -0.16299486 -0.13938986 -0.13786328 0.051116135
0.20547806 0.095218204 -0.35239494 0.11052622 -0.1271808 -0.17918432 0.22072865 0.24805133
-0.13174592 -0.35807493 -0.13151059 0.007512424 -0.14390363 -0.31988606 0.06890378 -0.0014773856
-0.21525237 -0.1295724 0.031630352 -0.09801248 0.07371089 0.026974918 -0.08378034 -0.012382949
-0.14187007 0.08104391 0.015165013 -0.08738575 0.026183724 0.02645946 -0.006625747 -0.11074668
-0.06906032 0.09362482 -0.016374003 0.061312053 -0.03267184 0.066964015 -0.11924599 -0.078181654
-0.060282253 -0.008773619 -0.080693126 -0.047270846 0.0422171 -0.16363297 -0.05105066 -0.0299669
-0.04664709 -0.105464056 -0.06766812 0.107220545 0.07153313 -0.12727788 -0.085366175 -0.069258735
-0.04117024 -0.041067168 -0.009058193 0.13762482 -0.024822708 -0.12096259 -0.026837777 0.018787056
0.07742994 0.10797947 0.11709522 -0.01026512 0.09922331 0.023951653 -0.046868253 -0.057290077
0.042464666 0.043268517 0.0471713 -0.05628935 0.039046027 -0.069865935 -0.0728198 -0.119818464
-0.058947384 0.046198525 0.04227364 -0.075077936 -0.025640938 -0.10840212 -0.13513297 0.12674692
-0.06876723 0.052758288 -0.0919618 0.05858026 0.08643606 -0.043083087 0.073296994 0.08887224
-0.14498153 0.12825586 -0.119152814 0.014252564 0.038877197 0.005200226 -0.029966531 0.06389387
0.10758383 0.1783001 -0.04521045 0.02277145 -0.0913205 -0.024755452 -0.0640317 0.12036953
-0.10622116 -0.25760162 0.3264038 0.1296806 -0.13829145 0.0064994455 0.21363474 0.085519396
-0.26118442 0.04525952 0.21963468 0.08406588 0.1340029 0.15846726 0.20849933 -0.09754206
0.042073112 0.0832902 0.19250885 0.10750257 -0.123483874 -0.04763621 0.19413511 -0.04020607
0.16618207 -0.023741603 0.039001774 -0.026596237 -0.034072585 -0.12595734 0.104690045 -0.030226335
-0.06605991 0.09456492 -0.0031449927 0.10254984 0.22553714 0.14914648 -0.18637316 -0.011412336
0.04065476 -0.013812232 0.18676576 -0.035475496 0.055861287 -0.22771756 0.10976658 -0.057844542

combine_proj.bias f4 [128]
00000000: 677f 1bba f601 f339 b551 e039 f1af e3ba
00000010: 9a2b 83ba 03eb 893a b145 3c39 1787 38ba
00000020: fa78 aa3a fbd7 d5b9 67b9 023a d5e4 5339
00000030: 51d7 96b9 014f 5339 b6d4 90ba aa92 093a
00000040: 1b3a 8d39 a8b5 7eba 84d1 59ba ac54 43ba
00000050: 92ab 8fb9 c9f3 0a3b b0b6 41ba 05b2 6b3a
00000060: a9b2 d8ba 7e28 0bb9 0fb5 a139 f4ae f538
00000070: 0469 bc38 dc30 5cb9 145d d4b8 3162 9539
00000080: 4694 04ba 774c 57ba f8f9 aeba f925 dcb9
00000090: b492 0c3a 0b63 03ba af8b 5c3a 20c8 123a
000000a0: 51da c639 b1ba 913a be49 87b9 f049 5b3a
000000b0: 4299 4939 48d1 a839 dc2a 043a 4eeb 5d39
000000c0: 41af 89ba 58dd 57b9 bb44 34ba 1c7f a93a
000000d0: cee7 47ba 0163 75b8 6bb8 6c3a e8f7 d1b9
000000e0: 2f03 0fba 7f8f 86b8 c010 293a 0212 0e3a
000000f0: 7727 7539 306a 1cba 582a 1838 759d b238
00000100: 016f 56b9 1e6b c0b9 f4fa 81b8 b63a cfb9
00000110: b5b9 0fba 64c2 acb8 8d03 84b9 0ad2 1b3a
00000120: 0158 3fba b38f 17ba 87e0 b2b8 e9b4 95b8
00000130: f3df 10ba 100f 8eba 7d1a 56ba 4da7 3c3a
00000140: 0f42 d5b9 5a7e 2b39 e5f3 713a f6af b33a
00000150: e249 563a 50f3 38ba 50da 0eba 35a6 2739
00000160: 39c8 73ba 665c 71b9 c1b5 3639 7470 4938
00000170: 5759 e339 6fa4 91b9 2f7c 613a b59a 293a
00000180: 3563 d639 5fb2 a039 3d82 02ba e105 11ba
00000190: 17f5 843a 8225 aa39 e827 35b9 b360 6b3a
000001a0: 7194 37b9 9f48 1ab9 be2b 7ab9 552c 17ba
000001b0: 4cb1 bc3a f09e 593a ed3c a039 a11d 9e3a
000001c0: 3bf7 bc38 8f20 e0b9 c8f0 b639 fbc9 bc39
000001d0: cd53 483a 9dec 89b9 b187 343a 4127 813a
000001e0: f551 4aba 01db 0fb7 b4d0 bbba 0163 dc3a
000001f0: 588e a436 fe26 7eb9 1806 fab9 55a6 ec38
-0.0005931765 0.00046350033 0.00042785486 -0.001737116 -0.0010007501 0.001052231 0.00017955039 -0.0007039173
0.0013006025 -0.00040787444 0.00049867335 0.00020207775 -0.00028770653 0.0002015196 -0.0011049721 0.000524799
0.00026936908 -0.00097164 -0.00083091133 -0.0007451277 -0.00027402915 0.0021202436 -0.0007389588 0.00089910656
-0.0016532737 -0.00013271158 0.00030843212 0.00011715098 8.984099e-05 -0.00020999036 -0.00010126285 0.00028492653
-0.0005057495 -0.0008212993 -0.0013349643 -0.00041989962 0.00053624366 -0.0005012012 0.00084131485 0.0005599279
0.0003792816 0.001111826 -0.0002580415 0.00083652046 0.00019225947 0.00032199384 0.0005041787 0.0002116386
-0.00105045 -0.00020586455 -0.0006876697 0.0012931558 -0.0007625789 -5.8504756e-05 0.0009030166 -0.0004004829
-0.00054554915 -6.416346e-05 0.00064493343 0.00054195535 0.00023379723 -0.0005966751 3.627906e-05 8.51703e-05
-0.00020449983 -0.00036700902 -6.197943e-05 -0.0003952586 -0.00054826896 -8.237807e-05 -0.00025179647 0.0005944079
-0.00072991854 -0.0005781606 -8.529523e-05 -7.138571e-05 -0.0005526535 -0.0010838229 -0.0008167399 0.00071965606
-0.00040675743 0.000163549 0.00092297635 0.0013709057 0.00081744615 -0.00070552994 -0.0005449401 0.00015988278
-0.000929955 -0.00023017972 0.00017424581 4.8026865e-05 0.00043363377 -0.00027779068 0.00086015736 0.00064698915
0.00040891176 0.00030650475 -0.00049785135 -0.0005532187 0.0010143843 0.00032452872 -0.00017276371 0.0008978948
-0.00017507539 -0.00014713638 -0.00023858153 -0.0005766799 0.00143961 0.00083015766 0.0003056297 0.0012063273
9.010589e-05 -0.00042748867 0.0003489314 0.00036008641 0.0007641882 -0.00026306967 0.00068866747 0.0009853618
-0.0007717901 -8.574455e-06 -0.0014329166 0.0016814173 4.904152e-06 -0.00024237853 -0.00047688256 0.00011284339

fc1.weight f4 [128, 128]
00000000: b6d0 d73c 8f95 8bbd c162 72bb c345 a2bc
00000010: 321f e43d 0e14 233c 2e3a 233d 39ef bf3d
00000020: c4f0 593d e96d eebc a129 863c 9b80 22bd
00000030: b9a1 b7bd 8edc bbbd 85f5 14bd 890b 283e
00000040: 09a6 b4bd 67ac 9cbd 0d3e 763c 962d 57be
00000050: 76d1 f6bd 0f25 e9bd 97c0 323e e94f 6abd
00000060: d2df 3e3d 2da3 d9bc 699c 363d 4722 15bd
00000070: 57a4 01be 3a99 333d aee6 8d3c deeb eabd
00000080: 1926 a63d e666 e1bd 5ef9 a83d 852f 163e
00000090: 640b c33d 3ca9 2cbb 00ff cfbd ab40 08bc
000000a0: 013d 823d 7f09 4ebd 4517 d6bd d4eb 7abe
000000b0: 486b 16bd f24e 5cbe c3a6 0a3e 165f 093d
000000c0: a2fd 80be 4c9c 2d3c 8f77 f93d 0ddd f9bc
000000d0: 861f 72bd 91b1 d3bd 9999 0b3e 05b8 01bd
000000e0: 040b 213e 0473 f53d a03d 683b 20c7 7bbd
000000f0: 7b51 853d 4da0 d13c c6a0 733d 2365 37bd
00000100: 8b8a c3bd fc5c 65bd b480 243e a17b d1bd
00000110: 5a9c 77be 5ece b93d 853d 8abd c2f3 bfbd
00000120: d5e3 503e d611 0ebe d306 6bbd 3178 a63d
00000130: 62e4 f3bd dfc0 96bc e88f 08be 71a5 653d
00000140: 7d25 9f3d 8e1c 1dbe 969d 7c3d e5b1 0c3e
00000150: 6f4d 21be 814e f03d ea60 9f3d be52 16be
00000160: b199 7dbd 1811 6e3e db38 d7bd ba04 c93d
00000170: 2ad8 8e3d 3827 66bd 1188 cc3c 7333 ce3d
00000180: b58b 24be c40c 913d 7671 2f3d 0017 06be
00000190: bd57 a13c 5047 26bd a82f 2fbc 2313 353d
000001a0: 6a39 1e3e c9a1 c03d ddf0 8b3d cca5 c53d
000001b0: 2617 54be e915 6d3d 7a71 01bd f242 9b3d
000001c0: 5563 8a3c b009 55be 14c5 653e 72ca 35be
000001d0: 73e0 153c f148 eb3d 3c04 403b 39c7 29be
000001e0: f4ec b93c 4d37 4e3c 98ae ca3b 0c9a a5bd
000001f0: 8840 a4bc b37b 4ebe f43d a4bc a7d8 eb3d
00000200: 174a a2bd fdcf ab3d cd29 feba 68ac b33c
00000210: 01f0 c13b 717b adbc dd3c be39 7849 f13c
00000220: 7726 223e d7c2 e63d f96a cc3d d7a6 c5bd
00000230: 11ab 3fbd 65b1 08be 1deb 3bbe 00cf ab3d
00000240: 9670 11be a9c2 b0bd feff d73d 477f 043d
00000250: 321a ffbd a8df 823d 801e 13bc 6f25 c73d
00000260: b0ad 323e 88a1 a4bd 7881 873c 6967 553b
00000270: 2128 59be d6cf d5bd 1cd6 38b8 b547 233e
00000280: ae60 64bc bdac d13d 0e98 1fbc 43d1 dabd
00000290: e53a 6fbd e231 0ebc 10f3 d03d e19e 713e
000002a0: c9ef eebd 8dde 68be c7c3 be3d f779 b53d
000002b0: bd34 213e 59bb e8bc 50e8 c7bb d5f6 fa3b
000002c0: ec7c 04be 496e d7bc 1801 a9bd 7eaa 88bc
000002d0: 5bb9 f53d 2eb3 f9bc 52d3 0abe a09b d83b
000002e0: fb6f 293e 1cdc abbc 9460 6ebd 3b4a 113d
000002f0: 5383 cf3c 2dbe 253e abc9 cfbd 9250 3a3e
00000300: 0c9e 273d a72a a43c 2f6b ed3d 3521 8abd
00000310: 4718 99bd 710b 193e 08d8 80be 1cf8 ffbd
00000320: 3527 043e 3f47 74bd 5392 55be 26d5 023d
00000330: 6dc2 5abd 9a1c 88bc 025b 1a3d 3b35 3e3e
00000340: 6230 7bbd 48a1 67bb 4406 053e 5ed8 973d
00000350: 8b60 af3d c689 4ebd a92f ecbd 2bfd 093e
00000360: 9f4a 43be da54 aeba 4681 b23c 05a1 7b3d
00000370: 170b fbbd 4f31 fb3b 19c6 78be 9efe 113d
00000380: 6eca a13c 472f 08bd 61f9 08be 40a0 3e3d
00000390: 5174 483d 2d0a 2fbc be78 a73d f21d f03d
000003a0: e698 1e3e bc66 28be f649 8b3c 5760 433d
000003b0: 9f34 53be ad55 893d 2d40 8dbd 6b3a e93d
000003c0: b85a 92bd 7e9d 453e 6efd 6e3d a4f0 c9bc
000003d0: c563 e03d 3c8a 26be 66fb 6abd 3020 d4bd
000003e0: be91 003d 8545 38bd d401 3c3e 1d78 dcbd
000003f0: 1689 ae3d 07eb 50be 63e5 a03c ee50 3fbe
0.026344638 -0.068156354 -0.0036985131 -0.019808656 0.111387625 0.009953512 0.039850406 0.093718
0.053208128 -0.029105144 0.016377272 -0.03967343 -0.08966393 -0.09172927 -0.03636696 0.1641065
-0.08820731 -0.07650071 0.0150294425 -0.21013483 -0.1205167 -0.113840215 0.1745628 -0.057205115
0.04660017 -0.026567066 0.044582758 -0.036409643 -0.12660347 0.0438473 0.01732191 -0.11470769
0.08112735 -0.110059544 0.08250688 0.14666565 0.09523657 -0.0026345989 -0.10156059 -0.008316199
0.06359292 -0.050302025 -0.10453657 -0.24504024 -0.036723405 -0.2151449 0.13540177 0.033537947
-0.25193506 0.010596346 0.12181007 -0.030500913 -0.059112094 -0.103366025 0.13632812 -0.031669635
0.15726858 0.11984828 0.0035437122 -0.061469197 0.06509682 0.025589133 0.059479497 -0.044774186
-0.09547909 -0.05599688 0.16064721 -0.102286585 -0.24180737 0.090725645 -0.06750015 -0.09372665
0.20399411 -0.13873991 -0.057379555 0.081283934 -0.11908795 -0.018402515 -0.13336146 0.05606598
0.07770822 -0.15342924 0.061673723 0.13739736 -0.15752195 0.117337234 0.07782157 -0.14680001
-0.06191415 0.23248708 -0.10508891 0.09815355 0.06974824 -0.056189746 0.024967225 0.10068407
-0.16068919 0.07082513 0.042832814 -0.13094711 0.019695157 -0.040595353 -0.0106925145 0.044207703
0.15451589 0.09405858 0.068330504 0.09650764 -0.20711955 0.057882223 -0.03160236 0.07581128
0.016893068 -0.20804477 0.2243846 -0.17753008 0.009147751 0.11488522 0.00292994 -0.16579904
0.022695996 0.012586427 0.006185364 -0.08086023 -0.020050302 -0.20164375 -0.020049073 0.115159325
-0.07924288 0.0838928 -0.001939112 0.021932796 0.0059185033 -0.021177026 0.0003628497 0.029453978
0.15834986 0.112676315 0.09981341 -0.09650963 -0.046794 -0.1334892 -0.18351407 0.083890915
-0.14203104 -0.086308785 0.105468735 0.032347944 -0.12456168 0.06390315 -0.00897944 0.09723937
0.17449069 -0.08038622 0.016541228 0.0032562858 -0.21206714 -0.10440032 -4.4068423e-05 0.15945323
-0.013939066 0.10238025 -0.0097408425 -0.10684445 -0.058405776 -0.008678885 0.102026105 0.23595764
-0.11666829 -0.22741146 0.09314685 0.088611536 0.15742774 -0.028409647 -0.006100692 0.007658819
-0.12938279 -0.026297705 -0.08252162 -0.01668286 0.119982444 -0.030480947 -0.13557175 0.006610349
0.16546623 -0.02097898 -0.058197573 0.035471182 0.025331175 0.16185828 -0.10145887 0.18194798
0.04092221 0.02003987 0.11592709 -0.06744615 -0.07475334 0.14945771 -0.2516482 -0.12498495
0.12905581 -0.059638258 -0.208566 0.031941555 -0.053408075 -0.0166152 0.037684448 0.18574993
-0.06132544 -0.0035343934 0.12990671 0.07414316 0.08563336 -0.05042436 -0.11532528 0.13475482
-0.19071434 -0.0013300434 0.021790158 0.061432857 -0.122579746 0.00766579 -0.24294318 0.035643212
0.019749846 -0.033248212 -0.1337638 0.046539545 0.048939053 -0.010683578 0.081773266 0.117244616
0.15488014 -0.1644544 0.01700304 0.0476993 -0.20625542 0.067057945 -0.06897006 0.113880955
-0.071462095 0.1929836 0.058347158 -0.02465088 0.109565295 -0.1626367 -0.05736866 -0.10357702
0.03138899 -0.044988174 0.18360072 -0.10765097 0.08522241 -0.20402156 0.01964063 -0.18683216

fc1.bias f4 [128]
00000000: 8b4f 82b9 4331 643a 436f 11b9 0c52 4c39
00000010: 5c45 0d3a da45 81b9 bfed c739 61c1 07b8
00000020: 9e6e abb9 c2e7 96ba 7683 71b8 dd33 40b9
00000030: ed04 cbb9 b0dd 723a 2f33 3b3a 2f1a 4ab9
00000040: 22e4 5f39 254e 2c39 9a52 eab9 0feb ce39
00000050: f01c 94b9 4a38 4bba c205 273a 34ac f5b7
00000060: 80d9 52b8 3ed2 8f39 7a8a ba39 63ea e235
00000070: 989f acb9 fb37 cdb9 e5f6 f639 a99a a8b9
00000080: f50e 69b9 b352 bb3a 33ae 0639 b168 f038
00000090: f418 9439 b3c1 15ba 990b 4bb9 b694 d6b8
000000a0: 3545 06ba 546c c138 d8c1 3939 eec6 da38
000000b0: 7f16 32ba 2502 f0b8 d743 5e3a f9db ea38
000000c0: c88a 7938 1867 01ba 8c8c f438 1e71 93b8
000000d0: cd7b de39 f7b5 4a39 210e 163a ff0a a539
000000e0: dd36 52b9 85ab f7b9 86db 0bba 6090 c8b8
000000f0: d635 b839 2f4b b038 e798 56ba d47b 0bba
00000100: f2de fab9 9529 8ab9 cdfc 8739 5b9a 6cb9
00000110: e880 8d39 dc60 08b9 65bb 8fba 2846 67ba
00000120: 0205 7e3a a459 eb39 8c78 2239 1413 abb9
00000130: 3706 1bba a468 1f39 e742 f0b9 73c7 d3b8
00000140: 72df 5cb9 fa38 4039 9e1b abb9 eab3 de38
00000150: 9811 bf38 8362 fb39 03f4 e9b6 3d47 10b9
00000160: 8356 413a e248 0eba 005a e1b9 b6ca cc39
00000170: 75b8 9839 0eb1 78b9 64cf d8b9 a8ab cbb9
00000180: de82 e839 51f3 8439 fe60 683a c05b 0439
00000190: bdd5 cdb8 8906 5eb8 4a97 4939 c13d 17ba
000001a0: 439f 023a 8967 e338 d64f d539 28ef f5b9
000001b0: 69c3 13b9 e051 9e39 3ba2 18ba 39a6 abb8
000001c0: f2bd 3539 e54e 013a 52b0 af3a bb19 5eb8
000001d0: 1c22 9339 9467 2db8 ba40 4a38 6d61 4435
000001e0: 3ecd 0dba ee5e e838 f1c7 9038 ba0f 20b9
000001f0: 2c9b 80b7 07ef fd39 c436 60ba 0f41 8a38
-0.00024854796 0.00087048503 -0.00013869726 0.00019485521 0.00053890585 -0.0002465684 0.00038133372 -3.2366606e-05
-0.00032698078 -0.0011513161 -5.758131e-05 -0.00018329867 -0.00038722847 0.00092646014 0.0007141111 -0.00019273975
0.00021351923 0.0001643231 -0.000446935 0.00039466514 -0.0002825032 -0.0007752223 0.00063714024 -2.9286464e-05
-5.0270464e-05 0.00027431728 0.00035579858 1.6906528e-06 -0.00032925303 -0.00039142356 0.00047104727 -0.00032158688
-0.00022226184 0.0014291614 0.0001284413 0.00011463592 0.0002824735 -0.00057127624 -0.00019363909 -0.00010232015
-0.0005122007 9.223135e-05 0.00017715187 0.000104321036 -0.00067935133 -0.00011444491 0.0008478737 0.000111989626
5.9495476e-05 -0.00049363216 0.000116610056 -7.030576e-05 0.00042435378 0.00019332008 0.0005724151 0.00031479445
-0.00020047599 -0.00047239303 -0.0005335141 -9.563635e-05 0.00035135326 8.406338e-05 -0.00081862364 -0.0005320881
-0.00047849823 -0.00026352392 0.00025937558 -0.00022564216 0.00026989658 -0.00013006054 -0.0010965882 -0.0008822405
0.0009690077 0.0004488948 0.00015494431 -0.00032629876 -0.0005913707 0.00015202403 -0.00045826213 -0.00010098414
-0.00021064075 0.00018331772 -0.00032636238 0.000106192965 9.110867e-05 0.00047947848 -6.972348e-06 -0.00013759448
0.0007375257 -0.00054277305 -0.000429824 0.00039060944 0.0002912913 -0.00023717081 -0.00041353249 -0.0003884707
0.00044347992 0.00025358287 0.00088645506 0.0001262268 -9.8149736e-05 -5.293501e-05 0.00019225213 -0.0005769395
0.0004982838 0.000108434884 0.00040686008 -0.00046908227 -0.00014091808 0.0003019711 -0.0005822514 -8.184877e-05
0.00017332265 0.00049327157 0.0013403988 -5.2952888e-05 0.00028063438 -4.134288e-05 4.8220834e-05 7.3157463e-07
-0.00054093066 0.00011080304 6.903697e-05 -0.00015264648 -1.5331047e-05 0.0004843401 -0.00085530826 6.592471e-05

bn1.weight f4 [128]
00000000: aeb0 853f b55e 793f 8ddf 7a3f 93d4 693f
00000010: 1f9c 763f aee5 783f 7f94 743f 4001 683f
00000020: 42ce 7a3f 59bf 763f 5936 5f3f 66bc 763f
00000030: 28ff 783f 5589 753f 98cb 6e3f a7a4 813f
00000040: c0b6 713f dc74 6b3f d2fb 7e3f 7016 763f
00000050: 73ee 7f3f f0db 743f 8e25 793f dbee 6c3f
00000060: 6f09 843f 9917 873f dd40 6c3f e8bc 7a3f
00000070: 7e23 7e3f 9946 543f 5917 763f eaea 823f
00000080: 1958 6c3f 5018 743f 1fb8 7d3f 45f2 6b3f
00000090: 715a 7a3f 98bc 6d3f d262 7b3f 0cbc 833f
000000a0: 126d 583f c91e 6f3f c445 723f 1f1a 6b3f
000000b0: c7e4 693f 73a9 763f c724 753f 7790 863f
000000c0: f904 7d3f 0fe7 6c3f 80fb 863f d491 693f
000000d0: 06ec 6a3f 8060 793f aa2a 7c3f 0de6 7a3f
000000e0: 6e59 713f 34f6 633f bf37 7c3f 70ef 6c3f
000000f0: d96d 843f 54cc 613f 0d32 803f 6af7 7d3f
00000100: fec3 6a3f 2552 803f 00c9 7a3f 7f7f 783f
00000110: 5d03 7e3f ed4e 7b3f 6028 723f 6e9d 833f
00000120: 0085 6e3f 9b65 703f 8790 5c3f f120 7a3f
00000130: 90ae 823f d8a5 733f 57ef 703f 9daf 7f3f
00000140: d0b7 743f 756b 5d3f 8504 743f 710b 6a3f
00000150: 3c19 663f e0f9 773f ba80 7a3f 7c9f 753f
00000160: 381c 7d3f 1311 613f 9b81 683f ee51 833f
00000170: 7409 753f 2292 753f 6d9d 7b3f d226 7a3f
00000180: 8ee6 7e3f 2e42 703f b2f2 7f3f 99da 7b3f
00000190: 2c11 733f 38f4 723f ee4a 733f 7597 683f
000001a0: 5ad0 653f 61e4 743f eb4f 7e3f e97f 823f
000001b0: 49e2 793f ac0b 653f 4f7f 703f 2873 6a3f
000001c0: 7e85 693f bf9e 833f 7d33 6d3f 79f2 783f
000001d0: b078 573f 4719 783f 67b2 733f d800 683f
000001e0: 11da 783f eefa 803f 2b36 7a3f 32d0 513f
000001f0: aec3 873f 6ddf 703f 7d23 783f e7fc 7b3f
1.0444543 0.97410136 0.9799736 0.9133999 0.9633197 0.97225463 0.9553909 0.9062691
0.97970974 0.96385723 0.871923 0.96381223 0.9726434 0.9591268 0.9327941 1.0128373
0.9441948 0.9197519 0.99603 0.96127987 0.9997322 0.956481 0.9732293 0.92551965
1.0315379 1.0554076 0.92286474 0.979445 0.99272907 0.82920223 0.96129376 1.022794
0.92321926 0.953496 0.9910907 0.9216655 0.9779425 0.92865896 0.9819766 1.0291762
0.8454143 0.9340635 0.94637704 0.9183673 0.9136471 0.9635231 0.9575924 1.0512837
0.9883571 0.9254007 1.0545502 0.9123814 0.91766393 0.9741287 0.985026 0.9800728
0.94277084 0.8904755 0.9852256 0.9255285 1.0346023 0.88202405 1.0015274 0.9920565
0.9170531 1.0025069 0.9796295 0.97069544 0.9922388 0.98167306 0.9459286 1.0282419
0.9317169 0.9390504 0.8615803 0.97706515 1.0209522 0.9517493 0.94115204 0.9987734
0.95592976 0.8649209 0.95319396 0.9142371 0.89882255 0.96865654 0.9785267 0.9594648
0.98871183 0.8791668 0.9082276 1.0259378 0.9571755 0.95926106 0.9828709 0.97715485
0.9957055 0.9385098 0.999797 0.9838043 0.9494808 0.949039 0.9503621 0.90856105
0.89771044 0.9566098 0.99340695 1.0195285 0.9761091 0.89470935 0.9394426 0.91581964
0.9121932 1.028282 0.9265669 0.97244984 0.8416853 0.9691357 0.95194095 0.9062629
0.9720774 1.0076578 0.97738904 0.81958306 1.0606592 0.9409092 0.9692915 0.98432773

bn1.bias f4 [128]
00000000: e621 8dbe 1a1c 93be cc23 a5be af20 a7be
00000010: 7311 96be 556e adbe 8947 9cbe 0a98 9fbe
00000020: f944 a6be 2650 7fbe 660f aebe 3161 96be
00000030: 5b2e 6cbe 4485 b6be af72 96be c1ff 17be
00000040: 4bf6 9dbe d98d 8bbe 8188 40be 8843 6bbe
00000050: e032 84be 154b 9fbe 2e82 a4be a5bd 9bbe
00000060: 1532 69be 40f8 40be e16e 7dbe 506a 4cbe
00000070: 2422 33be eb29 a8be 5055 69be 8264 4bbe
00000080: 7da9 acbe eab6 6ebe 86c1 c7be 3f65 bcbe
00000090: fedf 86be 4223 bbbe 50ca 86be 21c8 75be
000000a0: 5388 83be ca0d b9be ff3b 9bbe 11f3 83be
000000b0: 9304 66be 7858 9bbe adf0 84be dd90 97be
000000c0: b89f 65be b82a 9bbe 042a 4dbe 6250 acbe
000000d0: 9197 abbe 7ad2 85be e979 60be 3655 7dbe
000000e0: 740b 8dbe 2d2e cbbe cdff 7dbe b948 a9be
000000f0: 0957 9bbe ca90 c8be 2837 88be 55bf 9cbe
00000100: 2704 dbbe b9d4 90be e6a1 89be ca11 b3be
00000110: d3a1 8fbe 725d 9abe a797 91be 1394 b3be
00000120: fb29 b8be 1c13 90be a6ba aebe f4a4 adbe
00000130: 8e06 85be de99 92be 7757 abbe 44fe a0be
00000140: acdf aebe 21f0 e8be 1543 abbe 65bd 97be
00000150: d995 aebe 6587 b2be 460b 95be e9d7 69be
00000160: aff6 59be 0469 09be 3940 c4be 265f b7be
00000170: 5ed9 a1be 378c a1be dead c1be 5759 79be
00000180: fc45 9fbe 8e4a a6be a94b 95be 6da6 77be
00000190: afb8 c8be 06ae 7ebe ed31 97be 0981 99be
000001a0: c2db 88be fccb bbbe 70f2 40be b481 95be
000001b0: d814 82be 9c33 9ebe 18d9 b4be f71b b7be
000001c0: c03e b5be bb3a 54be 021b c6be f413 a8be
000001d0: 0a63 e5be f7ba 89be a05a a2be 3a13 aebe
000001e0: 9e64 91be 968a 32be 2419 9bbe 15ba 85be
000001f0: af83 61be 721a b3be ff00 a4be 0613 99be
-0.27564925 -0.28732377 -0.32253873 -0.32642123 -0.29310188 -0.3387324 -0.30523327 -0.31170684
-0.32474497 -0.24932918 -0.33996123 -0.29371026 -0.23064558 -0.3564855 -0.29384372 -0.14843656
-0.3085197 -0.2725666 -0.18802072 -0.2297498 -0.25820065 -0.3111197 -0.3213057 -0.30418125
-0.22773011 -0.188447 -0.24749328 -0.1996243 -0.17493492 -0.3284448 -0.2278645 -0.1986256
-0.3372306 -0.23311964 -0.39014834 -0.36795995 -0.26342767 -0.36550337 -0.26326227 -0.24002124
-0.25689945 -0.36143333 -0.3031921 -0.25771382 -0.22462682 -0.30340934 -0.2596487 -0.2960271
-0.22424209 -0.3030603 -0.20035559 -0.33655077 -0.33514073 -0.26137143 -0.21921505 -0.24739537
-0.275478 -0.39683667 -0.24804612 -0.33063295 -0.3033984 -0.39172965 -0.2660458 -0.30614725
-0.42776605 -0.28287295 -0.2688133 -0.3497451 -0.2805315 -0.30149418 -0.28436014 -0.3507391
-0.3596953 -0.2813958 -0.34126776 -0.33914912 -0.25981563 -0.28633016 -0.33465168 -0.3144399
-0.34155023 -0.45495704 -0.33449617 -0.29636684 -0.340987 -0.34868923 -0.29110163 -0.2283627
-0.21285509 -0.13418967 -0.38330248 -0.3581478 -0.3161115 -0.31552288 -0.37827963 -0.24350487
-0.3110808 -0.32478756 -0.29159287 -0.2418458 -0.39203402 -0.24871072 -0.29530278 -0.2998126
-0.26730162 -0.36679065 -0.18842483 -0.29200518 -0.25406528 -0.3089875 -0.3532188 -0.35763523
-0.35399437 -0.20725529 -0.3869248 -0.32827723 -0.44802123 -0.26900455 -0.31709766 -0.33999044
-0.28397077 -0.17435679 -0.30292618 -0.26118532 -0.2202289 -0.34981114 -0.3203201 -0.29897326

bn1.running_mean f4 [128]
00000000: b834 303e 29da 4abc 1844 063e 52e7 c3bd
00000010: bf99 343e d318 d1bd b748 e23d 9403 0f3c
00000020: 4347 0ebd cb93 423e 3a56 a5bc da36 153d
00000030: 2470 343e 4b50 ff3c a522 6f3e 101d 493d
00000040: c9fb 383e 6dc3 003e 64c4 233e e26b 033d
00000050: e994 d03d b583 bdbc 6296 3f3d 7c18 f4bd
00000060: 0d6c 143e 5d6e af3d 137c 8ebd c293 3a3c
00000070: 643a 8a3d bfcd 583d 9e1b 403e 2911 09bd
00000080: db1f 133e fa60 9a3d 4bef fcbd 5918 ffbd
00000090: f20b 013e 95af e7bd 0820 afbb 04d6 d0bc
000000a0: ac6a 8abc 9e0d 28be 4264 c2bd ed7f 053d
000000b0: 2209 7c3d c3f6 4ebd 18f7 843e aadf bd3d
000000c0: 8ed1 c83d f2c9 9fbd aefe 1d3d 8e03 ee3c
000000d0: 3c1e 033c 7dcf 5f3e 882b e73d a9dd 213c
000000e0: d56c 693e ad96 0bbe bbfe 2f3b 5f79 893d
000000f0: e5cf b9bd 1e4f 8dbd 3d4b 293e db9b ed3d
00000100: 0931 babd 78f7 4abd b516 adbd d0b2 b8bd
00000110: 1fdd 853d 41bb 103e a124 333d e345 08bc
00000120: 2285 b8bd 7d80 033e 2422 ebbd e11d e33d
00000130: dc5a dcbd 1638 ea3d 5d7e f83d 82ba 82bd
00000140: b1c5 193e 072e c43d 5025 333e c998 e9bd
00000150: 2684 5cbd fd0f 033e 3a6e 763d b795 c0ba
00000160: c80d 0fbd 831d 10bd a39f 02bd 60c9 e13a
00000170: e079 3c3c e654 d0bd 9348 6dbd 62da 1e3d
00000180: 75fd 773d d251 74bd 5051 b13d e8d9 22bd
00000190: 7be6 10be 6d33 f0bc 55b0 123e 8cb8 ce3c
000001a0: 3006 213e 85a5 b2bd 5475 253d a0af d03d
000001b0: a36c e03b 9a13 aa3c 4764 8abb 6bb2 66bd
000001c0: de6e d33d edcc 0d3e a82d adbd 0af5 963c
000001d0: 607b 00be 7fa3 acbd ae01 f23d 5961 13bd
000001e0: 334f 42bd be62 593e bf5c 273e 2087 7bbd
000001f0: faaa 81bd a141 9ebc dd39 cbbc 44cd 3c3d
0.1720761 -0.012381115 0.13111913 -0.09565605 0.17636774 -0.10209813 0.110490255 0.00872888
-0.03473593 0.19001691 -0.020182718 0.036429264 0.17620903 0.031166216 0.2335306 0.04909998
0.18064798 0.12574549 0.15992886 0.032085307 0.10184652 -0.023134092 0.046774276 -0.119187325
0.14494343 0.08565972 -0.06957259 0.011387767 0.067494184 0.05293059 0.18760535 -0.03346363
0.1436762 0.07538028 -0.12350329 -0.12455816 0.12602213 -0.113127865 -0.0053443946 -0.025492676
-0.016896568 -0.16411445 -0.09491779 0.032592703 0.061532147 -0.0505283 0.25969768 0.09271176
0.098055944 -0.0780219 0.03857296 0.02905443 0.008002814 0.21856494 0.112876 0.009879508
0.22795422 -0.13631697 0.0026854712 0.06712603 -0.09072856 -0.06899856 0.16532607 0.11601993
-0.09091384 -0.04955241 -0.08451597 -0.09018481 0.06536316 0.14133932 0.043736104 -0.008317444
-0.09009768 0.12841983 -0.11481121 0.11089683 -0.107595176 0.11436479 0.12133477 -0.0638323
0.1501682 0.095790915 0.17494702 -0.114060946 -0.053836964 0.12799068 0.060163714 -0.0014693056
-0.034925252 -0.035184395 -0.031890523 0.0017226152 0.011503667 -0.10172443 -0.05793054 0.038782485
0.06054445 -0.059648342 0.08658087 -0.039758593 -0.14150421 -0.029321397 0.14325078 0.025234483
0.15725017 -0.087229766 0.040395096 0.10189748 0.006848888 0.0207613 -0.00422338 -0.056322496
0.103238806 0.13847704 -0.08455974 0.01842739 -0.12547064 -0.08429622 0.118167266 -0.03598151
-0.04743881 0.21229073 0.16343974 -0.061408162 -0.06331439 -0.019318404 -0.024807865 0.046094194

bn1.running_var f4 [128]
00000000: c026 4744 1add 5644 3ce8 3444 e192 d843
00000010: 670e 2544 e62a 0344 20e9 2d44 7f26 fa43
00000020: e5bf 2744 4daa 3844 ecdd 0c44 8a38 e143
00000030: d32a 3d44 bf01 3944 cb5f ff43 6e47 2f44
00000040: f464 4044 1a18 4444 2c09 3d44 635f 1344
00000050: f55c 0c44 4673 2644 ae01 4144 70c9 0444
00000060: 0111 3944 d350 1444 946a 3044 7a3c 3444
00000070: 0baf 3d44 1ed6 b943 65d2 5444 f47a 0644
00000080: f0fd 0444 bc25 3c44 ecc1 1c44 bab8 f243
00000090: 27ae 1744 7be3 2544 0e00 0d44 3789 2c44
000000a0: f89f 3043 5843 1844 3bfc 1044 269c 1644
000000b0: 424a 3044 f779 3744 d53f 3544 6eed 1b44
000000c0: 983c 2e44 b607 3844 a8e9 6244 a7de 0d44
000000d0: d8cd ef43 c236 5444 0629 4344 2e51 4244
000000e0: 091d fc43 7212 0144 31f6 4344 70bd 0644
000000f0: 454c 3044 0376 1444 a7ce 3044 96cc 3c44
00000100: e0af 2544 3a57 3d44 5d73 1844 665c 4644
00000110: 2e8f 2a44 91eb 1644 7e8d 4144 9360 3c44
00000120: 2e8a 3944 089c 2144 cdde bc43 0230 1344
00000130: 6653 2244 5c71 2644 9ddd 2e44 b1d6 2f44
00000140: c611 3344 67a8 1344 3105 4644 85f9 d543
00000150: 17f6 4744 5d00 2844 c7c2 0944 05d1 2f44
00000160: 07d4 3944 d0dc 0544 1526 2744 37bb 4a44
00000170: efea 3944 9430 1844 2c7f c743 e5cd 1244
00000180: 6e8e 3044 9c6b 4244 85ef 2644 a2fc 4b44
00000190: 6b2e 0a44 322d 3b44 4176 2c44 8c2b 2144
000001a0: 6da8 f443 7c2b 3244 4715 1544 4ae4 2e44
000001b0: d0bf f443 f2aa 2944 1405 0e44 916d 2d44
000001c0: 75bd 0844 0ede 0044 6ebb 1844 8082 3444
000001d0: e620 f443 e4e6 1244 0406 3044 5827 5944
000001e0: 2760 2644 54b9 3044 ba3a 2f44 27c3 9c43
000001f0: cad4 9743 3a6d 1c44 ba35 c743 dd6c 5b44
796.60547 859.4547 723.62866 433.1475 660.22504 524.6703 695.6426 500.30075
670.99835 738.66095 563.4675 450.4417 756.6691 740.0273 510.74838 701.1161
769.5774 784.3766 756.1433 589.4904 561.45245 665.80115 772.02625 531.14746
740.2657 593.2629 705.6653 720.94495 758.73505 371.6728 851.2874 537.92114
531.9678 752.5896 627.03 485.44318 606.7211 663.5544 564.00085 690.144
176.62488 609.05225 579.9411 602.4398 705.1603 733.9057 724.9974 623.70984
696.9468 736.1205 907.6509 567.47894 479.60815 848.8556 780.641 777.26843
504.22684 516.2882 783.84674 538.95996 705.1917 593.84393 707.22894 755.19666
662.74805 757.3629 609.80255 793.4437 682.2372 603.6807 774.2108 753.509
742.15906 646.438 377.74063 588.7501 649.3031 665.77124 699.4627 703.35455
716.2777 590.6313 792.0811 427.94937 799.84515 672.0057 551.0434 703.2659
743.3129 535.4502 668.59503 810.92523 743.67084 608.75903 398.99353 587.2171
706.22546 777.6814 667.7425 815.9474 552.7253 748.7062 689.8477 644.6804
489.31583 712.67944 596.33246 699.567 489.49854 678.671 568.07935 693.712
546.96027 515.4696 610.9286 722.03906 488.25702 587.60767 704.094 868.61475
665.5024 706.89575 700.9176 313.52463 303.6624 625.70667 398.41974 877.701
