models/hybrid_neurons_pretrained/MLP2_HUMAN_BERT_3_att.pth (torch, 648774 bytes, 34 tensors)

embedding_proj.weight f4 [96, 1152]
0	0x3c631751	0.0138605395
1	0x3d8bea92	0.0683185
2	0x3c7d20b9	0.015449696
3	0xbcd77518	-0.026300952
4	0xbd892753	-0.066969536
5	0x3b1eac07	0.0024211423
6	0xbd8e39e6	-0.06944637
7	0x3ddeaabb	0.10872408
8	0xbd66b6ad	-0.056326557
9	0xbaf541c1	-0.0018711613
10	0xbd9f313c	-0.077730626
11	0xbda30e60	-0.07961726
12	0xbdc41511	-0.095743306
13	0xbddff350	-0.1093508
14	0x3db5d8ab	0.08879217
15	0xbda45ef4	-0.08025923
16	0xbd84d05d	-0.06485055
17	0xbc6f18c5	-0.014593308
18	0xbe1740f3	-0.1477087
19	0xbcb2cc74	-0.021826006
20	0xbdfb6e75	-0.122769274
21	0xbd89e841	-0.06733752
22	0x3db2f811	0.08738721
23	0x3c8e11d4	0.017342485
24	0xbd922d31	-0.07137526
25	0xbc2457f3	-0.010030734
26	0xbda385af	-0.079844825
27	0xbdb602be	-0.08887242
28	0x3e030980	0.12796593
29	0x3e270267	0.1630951
30	0xbd7c0ed2	-0.06153757
31	0x3d052319	0.032504175
32	0xbc1b83a7	-0.009491838
33	0x3d46df0b	0.048552554
34	0x3d0f548d	0.034992743
35	0xbc70a21a	-0.0146870855
36	0xbde5c3fa	-0.1121902
37	0x3d8ee598	0.06977385
38	0xbc859cee	-0.016310181
39	0x3d0c9b6f	0.03432792
40	0x3db3db80	0.08782101
41	0xbe0743fc	-0.13209528
42	0x3d899857	0.0671851
43	0xbb00ed02	-0.0019672518
44	0xbd8047d6	-0.062637016
45	0x3dfe1bc2	0.12407638
46	0xbc8c0e2f	-0.017096607
47	0x3d0140d3	0.03155596
48	0x3c85d1f1	0.01633546
49	0xbd25ae0c	-0.040449187
50	0xbcec3200	-0.028832436
51	0xbcf02a0f	-0.02931693
52	0xbd481691	-0.048849646
53	0xbc68cb71	-0.01420866
54	0x3d2edcd8	0.04269108
55	0xbd6f4f61	-0.05842531
56	0x3b9f2955	0.004857222
57	0xbc591d67	-0.013251639
58	0xbcb946f5	-0.022616843
59	0x3dacc280	0.084355354
60	0x3dc0cbda	0.094138816
61	0xbdd2ade8	-0.10287076
62	0xbcaef06a	-0.021354873
63	0x3df7201f	0.120666735
64	0x3d37933f	0.04481816
65	0xbe0db3aa	-0.13838068
66	0x3d7098d6	0.058739506
67	0xbd119030	-0.0355379
68	0xbb814f69	-0.003946234
69	0x3dcb5b54	0.09929529
70	0xbd18145c	-0.03712879
71	0x3b376d63	0.0027988784
72	0x3dae3a0b	0.085071646
73	0x3e2b8536	0.16750035
74	0x3c0c8cec	0.00857852
75	0xbcb9f480	-0.022699594
76	0xbcc83558	-0.024439499
77	0x3d930b16	0.07179849
78	0x3ddc1069	0.107453175
79	0x3d03e7a9	0.03220335
80	0x3d1a7b3f	0.037715193
81	0xbd64a67c	-0.055822834
82	0xbd1641a7	-0.036683705
83	0xbd979059	-0.07400579
84	0x3d56c01c	0.052429304
85	0xbbe53f23	-0.006996052
86	0xbd59b344	-0.053149477
87	0x3c70dc2e	0.014700932
88	0xbdd016dc	-0.1016061
89	0xbd8031ac	-0.06259474
90	0x3cb6d458	0.02231805
91	0x3d45700b	0.048202556
92	0x3c389b42	0.011267485
93	0xbd75eddf	-0.060041305
94	0x3d96fdbe	0.07372616
95	0xbd87b372	-0.06626023
96	0xbdacf8cc	-0.08445892
97	0xbcb39502	-0.021921638
98	0xbd958681	-0.07301045
99	0xbd3c334b	-0.045947354
100	0xbe0c919c	-0.1372742
101	0xbdc14f1e	-0.094389185
102	0xbb467eec	-0.0030288054
103	0x3cc8c7b6	0.024509292
104	0x3db974dc	0.09055492
105	0x3ceb2b6b	0.028707227
106	0xbdd13f0d	-0.10217104
107	0xbd407770	-0.046988904
108	0xbd210f4f	-0.03932124
109	0x3d50b07c	0.05094956
110	0x3dbf3ea7	0.09338122
111	0x3c9b0266	0.018922042
112	0x3d854870	0.06507957
113	0xbc76bcb8	-0.0150596425
114	0x3dfaba0a	0.122425154
115	0x3d7c85c3	0.061651003
116	0x3c8d2a98	0.017232224
117	0x3cc6a1c9	0.024247067
118	0x3dab0339	0.08350224
119	0xbcacbe2c	-0.021086775
120	0x3d980826	0.07423429
121	0x3db19349	0.086706705
122	0xbd19d5b3	-0.037557315
123	0xbdebc761	-0.11512638
124	0x3e006053	0.12536745
125	0xbdbf09ce	-0.09328042
126	0x3d621065	0.055191416
127	0x3bc8fcc1	0.0061336462
128	0x3cf4d063	0.029884523
129	0x3ddc2334	0.10748902
130	0x3c1017e6	0.00879476
131	0x3e042d04	0.12907797
132	0xbd193680	-0.03740549
133	0x3e7f392a	0.2492415
134	0x3cc5c7c7	0.024143113
135	0x3d8ae5d5	0.06782118
136	0xbcc11e82	-0.023574118
137	0xbda0c7fb	-0.07850643
138	0x3dfeb518	0.12436885
139	0x3cb944e1	0.022615852
140	0xbde13d3e	-0.10998009
141	0x3d01a7c9	0.031654153
142	0x3d950544	0.07276395
143	0x3d849e11	0.06475461
144	0x3dedf357	0.11618679
145	0x39e09b58	0.0004284035
146	0xbd72a940	-0.05924344
147	0x3d08fca8	0.033444077
148	0x3d427acc	0.04748039
149	0x3d45c868	0.048286825
150	0xbcbab58e	-0.02279165
151	0xbce8b642	-0.02840722
152	0xbd92d1f9	-0.07168955
153	0x3be2f7d0	0.006926514
154	0x3cfea6db	0.031085422
155	0x3cb3c20d	0.021943117
156	0x3dad085e	0.084488615
157	0x3d655837	0.05599233
158	0xbd5faeec	-0.054610178
159	0x3cec1768	0.028819755
160	0x3c5fb74e	0.013654543
161	0xbb7ba39b	-0.0038397077
162	0x3dc5ffcf	0.09667932
163	0xbbfea457	-0.0077710557
164	0x3bf8bea3	0.007591085
165	0xbd88cdf4	-0.066799074
166	0x3d567d71	0.052365724
167	0xbd9b1115	-0.075716175
168	0xbb3e5976	-0.0029045022
169	0x3d91a108	0.071107924
170	0x3dc2a687	0.09504419
171	0x3d1353b0	0.035968482
172	0x3db4c962	0.08827473
173	0xbde73538	-0.112894475
174	0xbb2f8f66	-0.0026788353
175	0xbd4cf10a	-0.05003456
176	0x3dcc52cc	0.0997673
177	0x3d8630aa	0.06552251
178	0x3cb47380	0.022027731
179	0xbcd6e514	-0.02623228
180	0xbd5e43b2	-0.054263778
181	0xbdcd115c	-0.10013077
182	0xbcda84f8	-0.026674733
183	0x3d04aa3f	0.03238892
184	0xbd1cba70	-0.03826374
185	0x3b123881	0.002231151
186	0xbdf71a0f	-0.12065517
187	0x3c5714bf	0.013127505
188	0x3e0a4b53	0.13505296
189	0xbcbccddb	-0.023047378
190	0x3dd4c54c	0.10389194
191	0xbc87d54c	-0.0165812
192	0xbd03d4e1	-0.03218544
193	0xbd1f7271	-0.0389275
194	0x3a4bd15f	0.0007775034
195	0x3d418879	0.04724929
196	0x3e2251fa	0.15851584
197	0x3ccfa862	0.025348846
198	0x3cbb96fc	0.022899143
199	0xbda5286a	-0.08064349
200	0xbcb34b9b	-0.021886637
201	0xbd42aa43	-0.047525655
202	0xbd57fb6c	-0.05273001
203	0x3c17a857	0.009256444
204	0x3d798e46	0.0609267
205	0x3df8e24b	0.12152537
206	0x3d13bad0	0.03606683
207	0x3d0bffb3	0.0341794
208	0x3dc9a4bf	0.09845876
209	0x3dc1a396	0.0945503
210	0xbc6d18a9	-0.0144712115
211	0x3d6e52e9	0.058184538
212	0x3bedeb2b	0.0072607
213	0x3babc2a5	0.0052417093
214	0xbe156893	-0.14590673
215	0x3e185d03	0.14879231
216	0xbd82845c	-0.06372902
217	0x3ccd0642	0.025027398
218	0x3d9bb25c	0.07602379
219	0xbe105ac2	-0.14097121
220	0xbb8b87ae	-0.0042581176
221	0x3cd57af4	0.026059605
222	0x3db61a61	0.0889175
223	0xbd09ea6e	-0.033670835
224	0x3bffeaef	0.0078099887
225	0xbd46ec78	-0.048565358
226	0x3ddeefc4	0.108855754
227	0x3e018824	0.1264959
228	0x3c9854d5	0.018595139
229	0xbc9bd5d7	-0.019022865
230	0x3dc7871c	0.09742567
231	0xbd6bc380	-0.05755949
232	0xbd780f63	-0.06056155
233	0x3d9ab77e	0.075545296
234	0xbbf65337	-0.007517244
235	0xbdc0e2bd	-0.09418247
236	0x3ce5c75a	0.02804916
237	0x3de8c7c3	0.113662265
238	0xbd459e02	-0.04824639
239	0xbdbed86c	-0.09318623
240	0xbd2126e7	-0.03934374
241	0xbd87dfef	-0.06634509
242	0xbaefb8d2	-0.0018289334
243	0x3d30f0e1	0.04319847
244	0x3d8a460a	0.0675164
245	0x3d16265e	0.036657684
246	0xbd2b4e52	-0.04182274
247	0x3d85505e	0.065094694
248	0xbd9b2466	-0.07575302
249	0xbde7cfca	-0.113189295
250	0xbe1e7476	-0.15474114
251	0x3d2c0a66	0.042002104
252	0x3dbb80b3	0.09155407
253	0x3d4c635b	0.04989944
254	0x3d210603	0.039312374
255	0xbd92c7af	-0.07166993

embedding_proj.bias f4 [96]
0	0x3a8cf511	0.0010754188
1	0xba28007b	-0.0006408763
2	0xbb6ab8af	-0.0035815646
3	0xba7fd82a	-0.0009759689
4	0x3b82874b	0.0039834133
5	0xb9a92eee	-0.00032269157
6	0xba1f213d	-0.00060703215
7	0x3b0c1051	0.002137203
8	0xb96490aa	-0.00021797666
9	0x39f0ac33	0.00045904666
10	0xbaa411b1	-0.001251748
11	0xba81780d	-0.0009877697
12	0xb9e4c0ce	-0.000436312
13	0x38bcb78e	8.998728e-05
14	0xb9f5b959	-0.00046868136
15	0xbb2285c1	-0.0024798962
16	0xbae6dac9	-0.001761281
17	0x3ae9f1fe	0.0017848609
18	0xbb7dbe79	-0.0038718267
19	0x3a306bbf	0.00067299226
20	0xb9a4e331	-0.00031449788
21	0x3ae453df	0.0017420015
22	0xbacbe365	-0.001555544
23	0x390aa4ee	0.00013222147
24	0x390876cc	0.00013014226
25	0x3b6ef514	0.0036461996
26	0xba96c8eb	-0.001150397
27	0x3b2c4b4d	0.002629
28	0x3b1084b9	0.0022051765
29	0xbb5815b8	-0.003297193
30	0xb90bc8ad	-0.0001333083
31	0xba092ab8	-0.0005232501
32	0x388e4961	6.7847555e-05
33	0x3a9a41ba	0.0011768856
34	0x3b2bfd69	0.0026243574
35	0xb9b81141	-0.0003510807
36	0x3a422426	0.0007405899
37	0x3b35dfe9	0.002775187
38	0x39a16653	0.0003078455
39	0xbaa92839	-0.0012905664
40	0x3a119383	0.0005553292
41	0xbaa94a45	-0.0012915811
42	0x38925a72	6.978669e-05
43	0xba4ad5de	-0.0007737557
44	0x39e4717e	0.00043572107
45	0xbacfcd31	-0.0015853998
46	0x3a293d78	0.0006455998
47	0x392a8df6	0.00016265348
48	0x39a8ace7	0.0003217228
49	0x39b63d57	0.00034759447
50	0x3b212064	0.0024585957
51	0xb936260b	-0.00017371045
52	0x3ab4e36e	0.001380069
53	0x3a13a3ba	0.0005632002
54	0x3a732b10	0.0009276131
55	0x3ab69bdd	0.0013931949
56	0xb9a1b3e0	-0.0003084233
57	0x3a24ebd4	0.00062912446
58	0xbad3f9ad	-0.0016172432
59	0x3976850f	0.00023509956
60	0x3a8a180a	0.0010535729
61	0x3b504e5d	0.003178499
62	0xb8f191ad	-0.0001151891
63	0x3aca52d5	0.0015436063
64	0x3b2d98fd	0.0026488893
65	0x3a659ab4	0.00087587093
66	0x39db48f3	0.00041825286
67	0xb9661a33	-0.00021944269
68	0xba53624d	-0.0008063659
69	0xb99d4130	-0.00029993942
70	0xba36a361	-0.00069670944
71	0x3ade9da7	0.001698424
72	0x3a9684cb	0.0011483667
73	0xb97f6caf	-0.00024359183
74	0x3963bcf5	0.00021718799
75	0xb9e9c514	-0.00044588058
76	0x3a22ac88	0.0006205519
77	0xbb3cd0e2	-0.0028811027
78	0xba43a3f1	-0.0007463089
79	0xb9b2e047	-0.00034117905
80	0x3a95386e	0.0011384615
81	0xba934ec8	-0.0011238689
82	0xbac7ddd9	-0.0015248611
83	0xb9dbaa31	-0.00041897738
84	0x38b259c9	8.504425e-05
85	0xba18d714	-0.0005830389
86	0x3b0b215f	0.0021229608
87	0x3aa898ba	0.0012862899
88	0xbb005c82	-0.001958639
89	0xba3f4820	-0.0007296819
90	0x39b550e7	0.00034583287
91	0x397ae0c4	0.0002392559
92	0xb9d7679f	-0.000410852
93	0x3ac730be	0.0015197021
94	0x3abb9886	0.0014312423
95	0xba97eeb5	-0.0011591526

categorical_proj.weight f4 [17, 17]
0	0xbedea36d	-0.4348406
1	0xbe11add2	-0.14226463
2	0xbecb96bc	-0.3976344
3	0x3e220e83	0.15825848
4	0x3ed05db3	0.40696487
5	0x3dc0d5bc	0.094157666
6	0x3e40f4d8	0.188434
7	0xbf19b317	-0.60038894
8	0xbe196033	-0.14978103
9	0xbd1197c5	-0.03554513
10	0xbf3bf5bf	-0.73421854
11	0xbed0f68a	-0.40813094
12	0x3ed4bbec	0.41549623
13	0x3cab0d98	0.020880505
14	0xbe0ffc50	-0.14061093
15	0x3e2eca9a	0.17069474
16	0x3e67caf1	0.2263601
17	0x3f55d7a3	0.8353216
18	0xbd3f9f6f	-0.046782907
19	0xbe8ef731	-0.27922967
20	0x3e149013	0.14508085
21	0xbe0ae6f8	-0.1356467
22	0xbc852c16	-0.016256373
23	0x3cec1503	0.028818613
24	0x3f47df5c	0.78075194
25	0xbf02822a	-0.50979865
26	0xbe1a1f5b	-0.15051024
27	0x3dd60704	0.10450557
28	0x3ed0e978	0.40803123
29	0x3f2d38de	0.676649
30	0xbec7dfcd	-0.39037934
31	0xbec8d2cc	-0.39223325
32	0x3e2fed49	0.17180361
33	0x3e5cdb18	0.21567953
34	0xbf05f4cc	-0.52326655
35	0x3e38c2e3	0.18043093
36	0x3ec2f09e	0.380742
37	0x3e3c98b6	0.1841763
38	0x3e9fef1e	0.3123712
39	0xbd2fcf74	-0.042922452
40	0x3e0db777	0.13839518
41	0xbf35844b	-0.7090499
42	0xbd861349	-0.06546647
43	0xbde46cdd	-0.111535765
44	0xbf62e8d2	-0.88636506
45	0xbe96c00b	-0.29443392
46	0xbd8a0cf6	-0.06740753
47	0xbe955067	-0.29162905
48	0x3e76a3f9	0.24085988
49	0x3e6fbf54	0.2341283
50	0x3e91728b	0.28407702
51	0xbe111438	-0.14167869
52	0xbe3d2960	-0.18472815
53	0xbea8570e	-0.32878917
54	0x3e84c5d1	0.25932172
55	0x3e8548b9	0.26032045
56	0x3cce91f4	0.02521608
57	0xbd48587b	-0.048912507
58	0xbf36daf6	-0.7142786
59	0x3ed395cb	0.4132522
60	0x3d0895ed	0.033346105
61	0xbf8155e0	-1.0104332
62	0xbd951970	-0.072802424
63	0x3e37640f	0.17909263
64	0x3e803dde	0.250472
65	0x3e4e6f42	0.20159629
66	0x3e6f742d	0.23384161
67	0x3dffc03b	0.12487837
68	0x3e541a44	0.20713145
69	0x3e854417	0.2602851
70	0x3db6acbb	0.089196645
71	0x3e56939d	0.20954747
72	0x3d9ed13d	0.07754753
73	0x3e03e45e	0.12880084
74	0xbe76f418	-0.24116552
75	0xbe00c4fa	-0.1257514
76	0xbeeef9b6	-0.4667489
77	0x3ed49528	0.41520047
78	0xbef30460	-0.47464275
79	0xbd1eddd4	-0.03878577
80	0x3f26ab33	0.6510498
81	0xbe3ee56a	-0.18642202
82	0xbec5b622	-0.3861552
83	0x3dd85ce0	0.105645895
84	0xbe0622cf	-0.13099216
85	0x3e416b23	0.18888526
86	0xbc3b4aff	-0.011431455
87	0xbea35d94	-0.31907332
88	0x3e789161	0.24274208
89	0xbebc30d2	-0.36755997
90	0x3e9935a5	0.2992374
91	0x37032b5b	7.818303e-06
92	0xbef4ac85	-0.47787872
93	0xbed89efe	-0.423088
94	0xbeb18c36	-0.34677285
95	0xbf8e2997	-1.1106442
96	0xbe105c2e	-0.14097664
97	0x3f374a8f	0.7159814
98	0xbe7ddafc	-0.24790567
99	0x3e85172c	0.2599424
100	0x3d92ef98	0.07174605
101	0x3df1f757	0.118147545
102	0xbb49cb5c	-0.0030791378
103	0x3df0a7ca	0.11750753
104	0x3c92b1dc	0.017907076
105	0xbeadc704	-0.339409
106	0x3d941dbd	0.072322346
107	0xbb03b673	-0.0020097762
108	0xbea2c82f	-0.31793353
109	0x3e7db5f5	0.24776442
110	0x3e37ca2d	0.17948218
111	0xbe45190f	-0.1924784
112	0xbf6b3ea3	-0.9189245
113	0xbdd4a279	-0.10382552
114	0x3bbca2c3	0.0057567074
115	0x3ec09fc4	0.37621891
116	0x3e2eb268	0.17060244
117	0x3e2b12fa	0.16706458
118	0xbdec48e3	-0.115373395
119	0x3dc92a27	0.09822493
120	0x3eb760fe	0.35816187
121	0x3e854181	0.26026538
122	0xbe134c53	-0.14384584
123	0x3d01df89	0.03170732
124	0x3da47865	0.08030776
125	0x3f059ac7	0.52189296
126	0x3e28707a	0.16449156
127	0x3e80cc2f	0.2515578
128	0xbd30038b	-0.04297213
129	0x3f15f057	0.58569854
130	0xbea039ed	-0.31294194
131	0x3e3879ac	0.18015164
132	0xbe9b26d7	-0.3030307
133	0xbe5a0ff9	-0.21295156
134	0x3c9b802f	0.018982021
135	0xbe0bf640	-0.13668156
136	0x3eae2bee	0.3401789
137	0x3e465ec6	0.1937209
138	0xbea95ce2	-0.33078676
139	0x3dcecac3	0.100972675
140	0xbeae48bd	-0.3403987
141	0x3e16c849	0.1472484
142	0xbe7b61c5	-0.24549015
143	0x3f270472	0.6524116
144	0xbd9c8077	-0.0764169
145	0xbd309462	-0.04311026
146	0x3f851f12	1.0400107
147	0xbc987da1	-0.018614592
148	0xbe7bfdb4	-0.24608499
149	0xbde996da	-0.11405726
150	0x3e179077	0.14801203
151	0xbe07d696	-0.13265452
152	0x3e21cb79	0.15800275
153	0xbe80a1d2	-0.2512346
154	0x3d6e9f14	0.058257177
155	0x3d6a7570	0.057240903
156	0x3bf38e67	0.007432747
157	0x3e83329b	0.25624546
158	0xbe8d5aaf	-0.2760825
159	0xbd7ce261	-0.06173933
160	0xbf05eec2	-0.5231744
161	0xbeb749c8	-0.35798478
162	0xbeb57aac	-0.35445154
163	0xbf4412de	-0.7659129
164	0x3e4fdf5b	0.20300047
165	0x3ed29d8e	0.4113583
166	0x3e87f6ed	0.26555577
167	0xbd123f48	-0.03570488
168	0xbe3564c5	-0.17714222
169	0x3e88adae	0.26695007
170	0x3dce34ea	0.10068686
171	0x3e7d5c84	0.24742323
172	0xbdba4e9a	-0.09097023
173	0x3e815fcd	0.25268403
174	0xbe8c9c55	-0.27463022
175	0x3ed8c58f	0.42338225
176	0xbdc7a0a4	-0.09747437
177	0x3f03ebf8	0.51531935
178	0xbc821398	-0.015878484
179	0xbe337ca3	-0.17528014
180	0x3f264f68	0.64964914
181	0xbe44c664	-0.19216305
182	0xbeefedf9	-0.46861246
183	0xbea23ff8	-0.3168943
184	0xbd04a0cf	-0.03237992
185	0x3eb2b9c7	0.34907362
186	0xbe0c9f46	-0.13732633
187	0xbdfab25b	-0.1224105
188	0x3e11f459	0.14253367
189	0x3e92889e	0.28619856
190	0xbe92c687	-0.2866709
191	0xbc354e12	-0.011065977
192	0x3e1eada7	0.1549593
193	0x3e1c5d46	0.15269956
194	0x3d00e34d	0.03146677
195	0x3e6a74ff	0.22896193
196	0xbeb838b5	-0.35980764
197	0xbf2bc40d	-0.67096025
198	0xbe6a3dee	-0.22875187
199	0x3f17939f	0.59209627
200	0xbe27f834	-0.16403276
201	0x3e349b29	0.17637314
202	0xbe0710cf	-0.13190006
203	0x3e2fe42c	0.17176884
204	0xbf2bfb27	-0.67180103
205	0xbeca86cf	-0.39555976
206	0xbe6708fc	-0.22562021
207	0xbd8e9c4d	-0.06963406
208	0xbeb4389f	-0.35199448
209	0xbd6f689c	-0.058449373
210	0x3e1f9a63	0.15586238
211	0xbee04dd8	-0.4380939
212	0xbe28e6e5	-0.1649433
213	0x3e5fe4a1	0.21864559
214	0xbe722f48	-0.23650849
215	0x3e17118e	0.1475279
216	0xbe82b980	-0.2553215
217	0x3dc85a4f	0.0978285
218	0xbdbbf60f	-0.09177791
219	0x3dd8afaa	0.1058038
220	0x3e89a2b4	0.26881945
221	0x3f0e14dc	0.5550058
222	0xbd1c1f78	-0.03811595
223	0x3e6bbd59	0.23021449
224	0xbee77c72	-0.45212132
225	0x3eaf015c	0.34180725
226	0x3e47c836	0.19509968
227	0x3edc4667	0.43022463
228	0x3eb7e178	0.35914207
229	0x3e9f86fb	0.3115767
230	0xbe5cf7ec	-0.2157895
231	0x3f2f4769	0.6846834
232	0xbe07c43a	-0.13258448
233	0x3eb7f8f6	0.3593213
234	0x3d950295	0.07275883
235	0x3e59b56b	0.21260612
236	0x3d7181f8	0.05896184
237	0x3e78a7c7	0.24282752
238	0xbdbd3e4a	-0.09240396
239	0xbe203f32	-0.15649107
240	0x3dcc6f7e	0.09982203
241	0x3eb4d6ff	0.3532028
242	0xbe222fb4	-0.1583851
243	0xbc2528e7	-0.010080553
244	0x3d89dd6c	0.06731686
245	0x3dc4d632	0.09611167
246	0xbec5d1a7	-0.38636515
247	0x3d14119e	0.036149614
248	0x3f31f4fb	0.69514436
249	0xbe9a574d	-0.3014473
250	0xbe988009	-0.29785183
251	0x3ddb2630	0.10700643
252	0x3e5544dd	0.2082705
253	0x3d4d4032	0.05011005
254	0x3d5944ad	0.05304401
255	0x3f04f3cd	0.5193451

categorical_proj.bias f4 [17]
0	0x3b01a170	0.0019780062
1	0x3b33e1c5	0.0027447802
2	0xbb255b0b	-0.0025231268
3	0xba5de7ed	-0.00084650406
4	0xba69d628	-0.00089201564
5	0xbb889815	-0.00416852
6	0x3b0ebf1f	0.0021781398
7	0xba67ab4d	-0.00088374765
8	0x3beba582	0.007191361
9	0xbb75c660	-0.0037502274
10	0x3b5b9405	0.0033504975
11	0xbb5559eb	-0.0032554816
12	0x3af3016f	0.0018539856
13	0x3a36ea32	0.0006977647
14	0xbb1a2080	-0.0023517907
15	0x3b925812	0.004466065
16	0xbac79742	-0.0015227573

combine_proj.weight f4 [128, 113]
0	0xbce783ff	-0.028261183
1	0x3d724f32	0.059157558
2	0x3e4befdb	0.19915716
3	0x3dcb0a19	0.09914035
4	0xbe3f7c05	-0.18699653
5	0x3d890f60	0.06692386
6	0xbc32f335	-0.010922243
7	0x3e18c38a	0.14918342
8	0x3e175585	0.14778717
9	0xbdf9f676	-0.12205212
10	0xbcba4174	-0.022736289
11	0xbd29996b	-0.041406076
12	0x3e0070fc	0.125431
13	0xbdebdbd4	-0.11516538
14	0x3dfe82f1	0.12427319
15	0x3ca3874e	0.01996198
16	0x3c727f2c	0.014800828
17	0xbe488c7f	-0.19584845
18	0x3e0aeb8e	0.1356642
19	0xbdd6a685	-0.1048098
20	0x3df2f5c6	0.11863284
21	0xbc7d0290	-0.0154425055
22	0x3d6c01a2	0.057618745
23	0xbe687407	-0.22700511
24	0xbdde3b05	-0.10851101
25	0x3df1f051	0.11813415
26	0x3db624d8	0.08893746
27	0x3dc97390	0.09836495
28	0xbc00da47	-0.007864541
29	0xbdd7200a	-0.10504158
30	0xbbbe516a	-0.005808045
31	0x3df1bb14	0.118032604
32	0x3ddf912a	0.1091636
33	0xbddcf5f6	-0.10789101
34	0xbe14321a	-0.14472237
35	0xbc19e0bf	-0.009391963
36	0xbdf34f34	-0.11880341
37	0x3db6db5c	0.08928558
38	0x3dddfef7	0.10839646
39	0x3d66993d	0.056298483
40	0x3d6905da	0.056890346
41	0x3d337a01	0.043817524
42	0x3c677c18	0.014128707
43	0xbd9994fb	-0.07499119
44	0x3d9702b6	0.07373564
45	0x3e04599d	0.1292481
46	0x3d1a9d48	0.03774765
47	0x3d9c80bf	0.07641744
48	0xbdf35fee	-0.118835315
49	0x3d90f57b	0.07078072
50	0x3dfbb29b	0.12289926
51	0x3e3463f7	0.17616259
52	0x3c8c4e1f	0.017127095
53	0x3d48e930	0.04905051
54	0xbe151a5d	-0.14560838
55	0x3d88ca58	0.06679219
56	0x3df7dd04	0.12102702
57	0xbe255b23	-0.16148047
58	0x3d86b8d8	0.06578225
59	0x3e264b9e	0.16239783
60	0xbde538af	-0.11192452
61	0xbd2558fe	-0.040368073
62	0x3e0f6352	0.14002731
63	0x3db20794	0.08692852
64	0x3d8d6cbb	0.06905504
65	0x3c882e21	0.016623558
66	0xbe10d203	-0.14142613
67	0xbe20bd3b	-0.15697186
68	0xbce9dba5	-0.028547117
69	0xbdda6e68	-0.106655896
70	0xbe023bed	-0.12718172
71	0xbe201243	-0.15631966
72	0xbd19c088	-0.037537128
73	0xbd7f957b	-0.062398415
74	0x3e2cd044	0.16876322
75	0x3d81c91f	0.06337189
76	0xbb1cf4e2	-0.0023949672
77	0xbda89b80	-0.08232784
78	0x3dc841c6	0.0977817
79	0xbcb008e0	-0.021488607
80	0xbdaf3eed	-0.08556924
81	0x3da19230	0.07889211
82	0x3d5e72c2	0.05430866
83	0x3daa3412	0.08310713
84	0xbd622f99	-0.055221174
85	0x3dc78238	0.09741634
86	0x3de283bb	0.11060282
87	0x3d9156f8	0.07096666
88	0x3d406d6c	0.046979353
89	0xbe046759	-0.12930049
90	0x3d5f35c6	0.05449464
91	0xbd52ebea	-0.051494516
92	0x3e0d098f	0.13773178
93	0xbcff1688	-0.031138673
94	0x3c90e705	0.017688284
95	0xbdb48a90	-0.08815491
96	0x3e9d652c	0.3074125
97	0x3d902d9c	0.07039949
98	0x3e3df720	0.18551302
99	0x3d67e45b	0.05661426
100	0xbd0184e7	-0.031620886
101	0x3e80d828	0.25164914
102	0xbdb96adb	-0.09053584
103	0xbd8f1f8d	-0.0698844
104	0xbdc594ad	-0.09647498
105	0x3e577206	0.2103959
106	0xbdff61d4	-0.12469831
107	0xbceed200	-0.02915287
108	0xbc7dc636	-0.015489152
109	0xbe645224	-0.22296959
110	0xbdde95d3	-0.108684205
111	0xbe844b88	-0.25838876
112	0xbc237e43	-0.009978834
113	0x3e48e053	0.19616823
114	0x3d5aee3f	0.053449865
115	0xbe4d86f6	-0.20071015
116	0x3cf88e15	0.030341187
117	0x3d23e71d	0.04001533
118	0x3c187036	0.009304097
119	0x3d06f24b	0.032945912
120	0x3e0b077e	0.13577077
121	0x3e0f9713	0.14022474
122	0x3ddb982c	0.10722384
123	0xbde42fb2	-0.1114191
124	0xbdd68b60	-0.104758024
125	0xbd74705c	-0.059677467
126	0x3c598a07	0.013277537
127	0x3d5a5202	0.053300865
128	0x3ccc844a	0.024965424
129	0xbd716e1f	-0.05894291
130	0x3b8bbc51	0.0042643924
131	0xbdb01773	-0.085982226
132	0xbe359adb	-0.17734854
133	0x3cef0bfc	0.02918052
134	0x3c96a0dd	0.018387252
135	0x3a8f531c	0.0010934803
136	0x3da5c583	0.08094313
137	0x3ccaa936	0.02473889
138	0xbb1e80e8	-0.002418572
139	0xbd69416c	-0.056947157
140	0xbda411e1	-0.08011223
141	0x3d85cf90	0.0653373
142	0x3e24173d	0.1602449
143	0xbe1e85ba	-0.154807
144	0x3dfafee7	0.1225565
145	0x3b2e42a9	0.0026590026
146	0xbde158b6	-0.110032484
147	0x3c11e3d7	0.008904419
148	0x3d003012	0.031295843
149	0xbe12efc6	-0.14349279
150	0xbd7fdc37	-0.062465873
151	0xbdc5aef7	-0.096525125
152	0x3ddc8a2c	0.10768542
153	0x3dc3ecda	0.0956666
154	0xbd8d44a6	-0.06897859
155	0x3e14ae0f	0.14519523
156	0x3deb323c	0.11484191
157	0x3e0e85bb	0.13918202
158	0xbdb8f24b	-0.09030589
159	0xbdcbdb6a	-0.09953959
160	0x3d003be6	0.031307124
161	0xbe056383	-0.13026242
162	0x3d3d8d4f	0.04627734
163	0xbe35c1bf	-0.1774969
164	0x3d199e53	0.037504505
165	0xbd8e876e	-0.06959425
166	0x3dff935b	0.12479278
167	0x3dcc0833	0.099625014
168	0xbd056e9d	-0.032576192
169	0x3d4a3e1c	0.04937564
170	0xbcc72498	-0.024309441
171	0xbd53390a	-0.05156807
172	0xbd5e36cb	-0.054251473
173	0x3da04bfe	0.07826994
174	0x3dadab9d	0.08479998
175	0x3dad7e10	0.0847131
176	0xbd9c3220	-0.07626748
177	0x3dad394b	0.084581934
178	0xbe0cf4cb	-0.13765256
179	0x3d949a48	0.07255989
180	0xbc9d7936	-0.019222837
181	0xbe23630a	-0.15955749
182	0xbe155100	-0.1458168
183	0xbe1909fb	-0.14945213
184	0x3d74f050	0.059799492
185	0xbe4b8d10	-0.1987803
186	0xbd9694b9	-0.07352585
187	0x3e14f6d3	0.14547281
188	0xbdbabf88	-0.09118563
189	0xbbe01eb5	-0.006839598
190	0x3e32ac29	0.17448486
191	0x3e099a9f	0.1343789
192	0xbde2fee1	-0.110837705
193	0xbe1657a7	-0.14681874
194	0x3e217cdc	0.15770286
195	0x3dab9484	0.083779365
196	0x3c844405	0.016145715
197	0xbe23512e	-0.15948936
198	0xbc639931	-0.013891504
199	0xbe0310ff	-0.12799452
200	0x3dec2e5a	0.11532278
201	0xbb61723c	-0.0034400364
202	0xbda21131	-0.07913435
203	0x3da0cfb1	0.07852114
204	0xbe159127	-0.14606152
205	0xbe16001d	-0.1464848
206	0x3d906e87	0.070523314
207	0xbe34cf97	-0.17657314
208	0x3daced2f	0.08443677
209	0x3dbb7599	0.09153289
210	0xbd5e980f	-0.054344233
211	0xbd6448ad	-0.05573337
212	0xbd0efa09	-0.03490642
213	0xbd430740	-0.047614336
214	0x3cfcc9b3	0.030857896
215	0xbe71c0bf	-0.23608683
216	0xbe148f78	-0.14507854
217	0xbd0c44f6	-0.034245454
218	0xbda1935c	-0.07889435
219	0xbd8f9fed	-0.07012925
220	0xbd298c1a	-0.041393377
221	0x3db077f2	0.08616628
222	0x3d8e6d84	0.06954482
223	0x3e65e04c	0.22448844
224	0xbc914958	-0.017735168
225	0x3d8c6821	0.068557985
226	0xbd255178	-0.040360898
227	0xbd83e2b9	-0.06439728
228	0xbc880a15	-0.01660637
229	0xbe4b0c6a	-0.19828954
230	0xbdbcab68	-0.09212381
231	0x3d1cbd5b	0.03826652
232	0xbd92f908	-0.07176405
233	0xbe15fb8b	-0.14646737
234	0xbe2157b7	-0.15756117
235	0x3e010c1d	0.12602277
236	0xbc1ec4ad	-0.009690446
237	0x3cd98e48	0.026557103
238	0xbd99aacf	-0.07503282
239	0x3d0ba1fb	0.034090023
240	0x3d28c4eb	0.04120342
241	0xbda67d11	-0.08129323
242	0xbd350ac5	-0.044199724
243	0x3e1b9c0a	0.15196243
244	0xbe0cef10	-0.1376307
245	0x3dca2527	0.098703675
246	0xbb7aafc6	-0.0038251742
247	0x3cb6786a	0.022274215
248	0xbc99383f	-0.018703578
249	0x3e064249	0.13111223
250	0x3d139877	0.036034074
251	0x3d51916e	0.051164083
252	0xbc4f5874	-0.012655366
253	0x3d13329f	0.035936948
254	0x3e727e6f	0.23681043
255	0xbc2b8cec	-0.01047061

combine_proj.bias f4 [128]
0	0xba3ab86e	-0.0007122819
1	0xb82adc3d	-4.073627e-05
2	0x3940d911	0.0001839141
3	0xba2ca558	-0.00065859174
4	0x3a6148fa	0.0008593943
5	0x39bb313a	0.00035704096
6	0xba03db3c	-0.0005029922
7	0xb8ffb444	-0.000121929246
8	0x3a4088de	0.00073446136
9	0x3a6c680c	0.000901819
10	0x39b8c80b	0.00035244258
11	0x3a311ede	0.0006756614
12	0x3a115669	0.0005544187
13	0xba62539f	-0.00086336763
14	0xb6baac05	-5.5632577e-06
15	0xb7a87641	-2.0082227e-05
16	0x38cc2c98	9.735784e-05
17	0x3a086e88	0.0005204459
18	0xbace2607	-0.0015727886
19	0x3b50be4b	0.0031851705
20	0x3ad66097	0.001635569
21	0x3a4a9c20	0.0007728953
22	0x39361b84	0.00017367123
23	0xb997ecfc	-0.00028977531
24	0x3ad67b4b	0.0016363648
25	0xb9ecbc8a	-0.000451539
26	0xbae58f9c	-0.0017514112
27	0xba9ff22a	-0.0012202908
28	0xba85995a	-0.0010192797
29	0xba995d45	-0.001170077
30	0x3a538fa2	0.0008070414
31	0x3a380375	0.0007019558
32	0xbac379e1	-0.0014913642
33	0xba53e06a	-0.00080824515
34	0x39a40ca6	0.0003128994
35	0xba2f41fa	-0.00066855515
36	0x3a3b48b3	0.0007144317
37	0xb8177f8d	-3.6119996e-05
38	0x3a680b10	0.0008851746
39	0x398e8d47	0.0002718961
40	0x3a8d3c16	0.0010775353
41	0x3a2b38cb	0.0006531595
42	0x395ab3ad	0.00020857035
43	0xbadade88	-0.00166984
44	0xba5dce78	-0.0008461247
45	0xba4f33ed	-0.0007904161
46	0xbaadd085	-0.0013260996
47	0x3b1dc7e9	0.0024075455
48	0x3ae34bec	0.0017341352
49	0x398f1140	0.00027287938
50	0xba087167	-0.00052048865
51	0x3a22ab58	0.0006205342
52	0xb88d4861	-6.7368856e-05
53	0x3a00b5e3	0.0004909916
54	0x38d012f6	9.921745e-05
55	0x3ac98500	0.001537472
56	0xba120e5c	-0.0005571598
57	0x3a50e522	0.0007968714
58	0xbabbcc9e	-0.0014327948
59	0xba4ed2bd	-0.0007889679
60	0xba7dbf86	-0.00096797233
61	0xba48af51	-0.0007655519
62	0x3acb2ff2	0.001550196
63	0x3ab3cb6c	0.0013717241
64	0x3a216d3c	0.000615794
65	0x394140e3	0.00018430086
66	0xbaa077f7	-0.0012242784
67	0xb8535004	-5.038084e-05
68	0xbaa5f52a	-0.0012661566
69	0x37210a0f	9.59869e-06
70	0xb9fe1f19	-0.00048469825
71	0x3a22eaee	0.0006214817
72	0x39829230	0.0002490445
73	0x3aeefc66	0.001823318
74	0x3aa569c8	0.0012620026
75	0xb990fc32	-0.0002765372
76	0xb9a96b88	-0.0003231431
77	0x3983dd9d	0.00025151382
78	0x3ad169e9	0.0015976998
79	0xb8953bef	-7.116037e-05
80	0x3a90dca5	0.0011052085
81	0x39b693b6	0.00034823798
82	0xb8fea3d7	-0.000121421814
83	0xb99b6204	-0.0002963693
84	0x3a58f883	0.0008276777
85	0x383e74a3	4.5408156e-05
86	0x39004445	0.00012232464
87	0x398872fc	0.0002602561
88	0xb9b50e70	-0.00034533767
89	0xba8e181d	-0.0010840927
90	0x39faa257	0.00047804668
91	0x384b6c64	4.849992e-05
92	0x3a10d274	0.0005524524
93	0x399b5083	0.0002962389
94	0xba79a8be	-0.0009523741
95	0xba708860	-0.0009175595
96	0xb9b188ea	-0.0003386208
97	0xba04a31c	-0.00050597056
98	0xb96acb80	-0.00022391789
99	0x3aa887e9	0.0012857887
100	0x399e8408	0.0003023448
101	0x3a2099a7	0.00061264116
102	0x3a8b9c30	0.0010651406
103	0xb974346b	-0.0002328918
104	0x3a8f3b37	0.0010927682
105	0xbad6e583	-0.0016395304
106	0x3aa4e8d4	0.0012581595
107	0x3ae4ce3b	0.0017456481
108	0x3a0f82ae	0.000547449
109	0xba1467c5	-0.0005661215
110	0xba0539b7	-0.00050821475
111	0xba057d0e	-0.0005092182
112	0x3a0d0677	0.00053796865
113	0xb7cfdccb	-2.4779138e-05
114	0xba6341d3	-0.00086691714
115	0x399a8a0f	0.0002947603
116	0xba5ee3e3	-0.00085025857
117	0x3abea30d	0.0014544443
118	0xba18de8a	-0.0005831501
119	0xba8d6791	-0.0010788311
120	0xba93e323	-0.0011282902
121	0x3908d4e5	0.0001304928
122	0xba48a0f7	-0.000765338
123	0xb7aa1fbb	-2.0280355e-05
124	0x383714b8	4.3649896e-05
125	0xbb10883c	-0.0022053858
126	0xb9b29778	-0.0003406366
127	0xba764241	-0.0009394028

fc1.weight f4 [128, 128]
0	0xbd8cd701	-0.06876946
1	0x3b91ed04	0.0044533033
2	0x3e2d7a41	0.16941167
3	0xbb62d92a	-0.0034614303
4	0xbe2987c5	-0.16555698
5	0x3e5cb8d0	0.21554875
6	0x3e240d95	0.16020806
7	0xbda237b9	-0.079207845
8	0xbd7e78d3	-0.062126946
9	0xbcf36c64	-0.02971477
10	0x3d91c38d	0.071173765
11	0x3d6c2970	0.057656705
12	0x3d40304c	0.04692106
13	0x3d35afb9	0.044357035
14	0xbcd8c71b	-0.026462128
15	0xbdb6e9e5	-0.089313306
16	0xbcb5b821	-0.022182526
17	0xbe0ec2d0	-0.13941503
18	0xba3966a3	-0.0007072484
19	0x3e00831c	0.12550014
20	0x3e0eedd8	0.13957918
21	0xbdd1b1ad	-0.10238967
22	0xbe0291e3	-0.12750964
23	0xbe42aff3	-0.19012432
24	0x3d7e31e4	0.0620593
25	0x3e0ae820	0.13565111
26	0xbdb7a0f2	-0.08966245
27	0x3dc6176d	0.09672437
28	0xbdc77acc	-0.097402185
29	0xbcd7ba6d	-0.026334012
30	0xbd167f2d	-0.036742378
31	0x3daab400	0.083351135
32	0xbcd74ca1	-0.026281657
33	0x3d84f25e	0.0649154
34	0x3d5208e7	0.05127802
35	0xbe174ffb	-0.14776604
36	0xbdd69a09	-0.104785986
37	0xbd933da1	-0.07189489
38	0x3de9b008	0.114105284
39	0x3d48f439	0.049061034
40	0x3d72c1aa	0.059266724
41	0x3e3d44f2	0.18483332
42	0x3d7c017a	0.061524846
43	0x3c087701	0.008329154
44	0xbdca3d56	-0.0987498
45	0x3df3d5f1	0.119060405
46	0x3e2d725e	0.16938159
47	0x3da99f56	0.08282344
48	0x3afa5b5d	0.0019100715
49	0xbe2ece10	-0.17070794
50	0x3e224e3d	0.15850158
51	0xbe564f2e	-0.20928642
52	0xbe002204	-0.12512976
53	0xbc1aedc1	-0.009456099
54	0x3cc120f4	0.023575284
55	0x3de5a456	0.11212985
56	0xbde89748	-0.113569796
57	0xbc9ca9b9	-0.019123899
58	0xbd8540a1	-0.065064676
59	0x3daa655b	0.08320113
60	0xbd4276c7	-0.047476556
61	0x3db862dc	0.09003231
62	0xbdf5c9bf	-0.12001371
63	0x3d90f278	0.07077497
64	0x3e90a8c9	0.28253773
65	0x3d24dd9d	0.04025041
66	0xbb9feecd	-0.004880762
67	0x3af8d4e7	0.0018984348
68	0x3e055260	0.13019705
69	0xbd660dea	-0.056165613
70	0x3de4bd04	0.11168864
71	0xbd7b39ea	-0.061334528
72	0x3e6bd2b2	0.23029593
73	0x3d5d07b9	0.053962443
74	0x3ce0b942	0.027432088
75	0x3dc34008	0.09533697
76	0x3d8ea12c	0.06964335
77	0xbe51ad62	-0.20476297
78	0x3de549c2	0.11195709
79	0x3dd1bf85	0.102416076
80	0x3d7320ea	0.05935756
81	0xbd8d908b	-0.06912335
82	0xbe29f105	-0.16595848
83	0xbc30f174	-0.010799754
84	0xbcdbc04a	-0.026825089
85	0xbdf2135a	-0.11820097
86	0x3dcd714a	0.10031374
87	0x3e071637	0.13192068
88	0x3da31fda	0.079650596
89	0x3cf468dd	0.029835159
90	0xbe343710	-0.1759913
91	0xbb9710fd	-0.0046101795
92	0x3e2f42fa	0.17115393
93	0x3e7368b2	0.23770407
94	0xbda640ca	-0.08117826
95	0x3acb757e	0.0015522686
96	0x3d80fc3f	0.06298112
97	0xbd4bb806	-0.049736045
98	0xbbf6dcb7	-0.0075336355
99	0x3e1c1982	0.15244105
100	0xbe3ea988	-0.18619359
101	0xbe380dfb	-0.17974083
102	0x3c1b5949	0.009481736
103	0xbbc0430f	-0.005867369
104	0x3d114d9a	0.035474397
105	0xbd936994	-0.07197872
106	0x3d0f12dc	0.034930095
107	0xbe272b43	-0.16325097
108	0xbd3bf67f	-0.045889374
109	0x3dd2d17a	0.10293861
110	0x3c11abee	0.008891089
111	0x3d9a0fc4	0.07522538
112	0x3d780ca4	0.06055893
113	0xbdb62afa	-0.08894916
114	0x3d3d0072	0.046143003
115	0xbdb13731	-0.08653105
116	0xbd7eb2e5	-0.062182326
117	0x3e4a387a	0.19748107
118	0xbce48e99	-0.027900027
119	0x3dd68620	0.10474801
120	0xbe0da548	-0.13832581
121	0xbda6a93d	-0.081377484
122	0x3dce1f9a	0.10064621
123	0x3e0f5e54	0.14000827
124	0xbc87f312	-0.016595397
125	0x3d0fc4e9	0.035099898
126	0xbbbc8e1a	-0.0057542445
127	0xbd527aec	-0.05138676
128	0xbc98863d	-0.018618697
129	0xbd463d30	-0.048398197
130	0x3d7273be	0.05919241
131	0xbd9d9fae	-0.07696472
132	0x3d67e70f	0.05661684
133	0xbd2a66ad	-0.041601826
134	0xbdaa6c91	-0.08321489
135	0x3d3c234f	0.04593211
136	0xbdf2f0fa	-0.11862369
137	0x3ce9c460	0.028536022
138	0x3d76bd1a	0.060238935
139	0xbde808cb	-0.11329802
140	0xbb0d753d	-0.0021584772
141	0xbd13f11b	-0.036118608
142	0xbdc84aad	-0.09779868
143	0xbe10c9c0	-0.14139462
144	0x3d848e99	0.06472511
145	0x3db8d256	0.090244934
146	0x3d5e1c6a	0.054226317
147	0x3e0c03bd	0.13673301
148	0x3db64b40	0.089010715
149	0xbd31cd6d	-0.0434088
150	0x3db5d391	0.08878244
151	0x3cb539bc	0.022122256
152	0xbdcbdc26	-0.09954099
153	0x3c6bbb83	0.014387968
154	0x3da3161c	0.079632014
155	0xbdc753a7	-0.09732752
156	0xbe156dd5	-0.14592679
157	0x3ca71532	0.020395849
158	0x3e1f8900	0.15579605
159	0x3dcc429e	0.09973644
160	0x3c27f4f0	0.010251269
161	0xbe16b464	-0.14717251
162	0xbbf0b197	-0.007345389
163	0xbda2344b	-0.0792013
164	0xbd78f61f	-0.060781594
165	0x3d872662	0.06599118
166	0x3e1c21c6	0.15247259
167	0xbe3fe535	-0.1873978
168	0x3c1dc900	0.009630442
169	0x3d9d2501	0.076730736
170	0xbd752d97	-0.05985793
171	0x3d0900c9	0.033448014
172	0xbc55be96	-0.0130459275
173	0xbe131c75	-0.14366324
174	0xbe233730	-0.15939021
175	0xbd4c90c2	-0.04994274
176	0xbdc4f2ee	-0.09616648
177	0xbe10057b	-0.1406459
178	0x3daed7bb	0.08537241
179	0xbe5a691d	-0.2132916
180	0xbe60e192	-0.21961048
181	0xbcf818bd	-0.030285234
182	0x3e3079b4	0.17233926
183	0x3dc8c863	0.09803846
184	0x3d9fccbe	0.07802723
185	0xbe13c298	-0.144297
186	0xbe052803	-0.13003545
187	0xbd1f34fe	-0.038868897
188	0x3d00ccad	0.031445194
189	0x3df85db8	0.121272504
190	0xbdce4bf0	-0.10073078
191	0x3e2a9564	0.1665855
192	0xbcf55eaa	-0.029952366
193	0x3df92e01	0.12166978
194	0xbd1bd8c6	-0.038048528
195	0xbd98d046	-0.074616
196	0x3ddc4e1f	0.10757088
197	0xbc668ecb	-0.01407213
198	0xbcd4dcc3	-0.025984174
199	0x3e24ba99	0.16086806
200	0xbc4953b8	-0.0122880265
201	0xbd8f48c9	-0.069963045
202	0xbdcc2019	-0.0996706
203	0xbd51f797	-0.05126151
204	0x3d0d6ab2	0.03452558
205	0x3dde2975	0.10847751
206	0xbdec8976	-0.11549656
207	0xbd63090c	-0.05542855
208	0x3dd9cb93	0.10634532
209	0x3db905bc	0.09034297
210	0x3aef0968	0.0018237056
211	0xba96ff8f	-0.0011520254
212	0xbe2cb5ee	-0.16866276
213	0xbe1251eb	-0.14289062
214	0x3cbd6e25	0.02312381
215	0xbdb0a4fe	-0.0862522
216	0x3de161b0	0.110049605
217	0xbbed029a	-0.007232976
218	0x3e1a742f	0.15083383
219	0xbd4d2680	-0.050085545
220	0xbd07c7c3	-0.033149492
221	0xbdb37e7d	-0.0876436
222	0xbccf4049	-0.025299208
223	0x3e3a2f23	0.18182044
224	0xbd8a0f4b	-0.06741198
225	0x3dbf2933	0.0933403
226	0xbd9653a4	-0.07340172
227	0xbd81fa5e	-0.06346582
228	0x3d5075b3	0.050893497
229	0x3d24cf37	0.040236678
230	0x3d606128	0.054780155
231	0x3ddc1807	0.1074677
232	0xbd684d3c	-0.05671428
233	0x3e07550d	0.13216038
234	0xbe12c13b	-0.14331524
235	0xbdfac619	-0.122448154
236	0xbcadd443	-0.021219378
237	0xbdc54634	-0.09632531
238	0xbbb4932e	-0.0055107092
239	0x3e192d46	0.14958677
240	0x3beb3053	0.0071773916
241	0x3e721f5b	0.23644774
242	0xbd7f8e6e	-0.06239169
243	0xbe6042fe	-0.21900555
244	0x3d9aa23e	0.075504765
245	0x3c2dff5c	0.010619964
246	0x3cd7bd4e	0.026335385
247	0x3d8611cc	0.06546363
248	0x3e00f725	0.12594278
249	0x3d4700bf	0.048584696
250	0xbda012bf	-0.078160755
251	0xbe022c70	-0.12712264
252	0x3cf225c1	0.029559018
253	0x3d7bbcc8	0.061459333
254	0xbe6daa37	-0.23209463
255	0xbe02cdaa	-0.12773767

fc1.bias f4 [128]
0	0x36bb5131	5.582486e-06
1	0x39b602d6	0.00034715858
2	0x39ec6f2d	0.0004509626
3	0x3705112e	7.931418e-06
4	0x3a204aa3	0.00061146374
5	0xb9e6f65c	-0.0004405257
6	0x39d461fb	0.00040508792
7	0xb9075742	-0.0001290711
8	0xb7e60454	-2.7420152e-05
9	0xb9d459a2	-0.00040502573
10	0x3a204a6c	0.00061146053
11	0xbb0591d4	-0.002038111
12	0xb97c13b3	-0.00024039931
13	0x3a90713e	0.0011020077
14	0x3aa5fe5c	0.0012664306
15	0xbaa34352	-0.0012455976
16	0xb8f61452	-0.00011733979
17	0x3a905538	0.0011011725
18	0x389042b5	6.87888e-05
19	0xba8f4784	-0.0010931347
20	0xb9a1af28	-0.00030838815
21	0xba0757a4	-0.0005162901
22	0x3a4f7734	0.0007914186
23	0xb9ccecd9	-0.00039086377
24	0x3a984f82	0.0011620375
25	0xba724d2e	-0.0009243068
26	0x3994d332	0.00028386113
27	0x387a41b2	5.966583e-05
28	0xb9c6e40c	-0.0003793541
29	0x3a265936	0.0006345691
30	0x3963c2db	0.00021720996
31	0x384722ad	4.747759e-05
32	0xb9c9ed16	-0.0003851435
33	0xb8dad3ef	-0.00010434526
34	0x3925bf3e	0.0001580687
35	0xb96f92d5	-0.00022847515
36	0xb98814f5	-0.00025955556
37	0xba081081	-0.00051904476
38	0xb9ca8dbc	-0.00038634043
39	0xba8caf1d	-0.001073334
40	0xbacd6b7d	-0.0015672293
41	0x3a120590	0.0005570287
42	0x3863e9d4	5.4338787e-05
43	0xb9f9f682	-0.00047676644
44	0x3a67b185	0.0008838403
45	0x3a0aa4e6	0.0005288854
46	0x3a38272c	0.000702488
47	0x39ac6ebc	0.000328889
48	0xbab66953	-0.0013916887
49	0xba5051db	-0.0007946768
50	0xba8c98c7	-0.0010726684
51	0xb879651f	-5.9460403e-05
52	0x3a497379	0.0007684748
53	0xbab54804	-0.0013830666
54	0xba0f0b3f	-0.0005456693
55	0x3a562446	0.00081688573
56	0x3737aee7	1.0948373e-05
57	0x3890aba7	6.898428e-05
58	0xb9fad99a	-0.00047845842
59	0x3a18b6bb	0.0005825569
60	0x39c3ac82	0.00037321827
61	0x39dcdaeb	0.00042124777
62	0x396139d5	0.00021479216
63	0x3a4a14d2	0.0007708791
64	0xb85b0cb4	-5.22255e-05
65	0x390be85c	0.00013342634
66	0xb86f43de	-5.7045247e-05
67	0x392adc02	0.00016294423
68	0x370c6e75	8.370368e-06
69	0x3a3e977b	0.0007270497
70	0xb8b097e7	-8.420628e-05
71	0xb92e9df0	-0.0001665277
72	0x38bdb2db	9.045537e-05
73	0x399bd09f	0.0002971934
74	0x39970d62	0.00028810935
75	0x3a3c00b6	0.0007171737
76	0xba1b531b	-0.00059251644
77	0x3a2510f2	0.00062967755
78	0x398c73ab	0.0002678906
79	0x3978b821	0.00023719716
80	0x34a8c440	3.143523e-07
81	0xb975c7cb	-0.0002343945
82	0xb98a4656	-0.00026373815
83	0xb983ece8	-0.00025162776
84	0xba944b53	-0.0011313952
85	0xb6f9d88e	-7.4459886e-06
86	0x38f70a16	0.000117797565
87	0xbac80365	-0.0015259801
88	0xb98c350f	-0.00026742413
89	0xbaa65b9b	-0.0012692095
90	0xb9a2ddf8	-0.00031064427
91	0xb9a3991c	-0.00031203858
92	0xb9b92993	-0.00035316925
93	0x378c2a30	1.6708946e-05
94	0x3a18db63	0.0005831031
95	0x3a992df8	0.0011686673
96	0x39d433ed	0.0004047448
97	0x3a108401	0.0005512834
98	0x3a220cc1	0.000618171
99	0xba4ebb5c	-0.0007886195
100	0x3a970f1b	0.0011524888
101	0x39af8ee5	0.00033485066
102	0xb96e3154	-0.00022715825
103	0xb9bae9be	-0.00035650836
104	0xb9fe472d	-0.00048499685
105	0xb9d28219	-0.00040151252
106	0xb951d2fd	-0.00020010392
107	0x3a770987	0.0009423722
108	0x3a685be9	0.00088637933
109	0xbabf91c8	-0.001461559
110	0x3a4ccc97	0.00078124687
111	0x39a522e3	0.00031497245
112	0xb9b0592b	-0.0003363577
113	0x3add87e1	0.0016901457
114	0x399ee457	0.00030306235
115	0xba68ea06	-0.000888497
116	0xb980bfa0	-0.00024556834
117	0x3a19ee43	0.00058719906
118	0x3aaef6c1	0.0013348685
119	0xb91090f1	-0.00013786905
120	0x39144331	0.0001413941
121	0x3a5a0053	0.00083160884
122	0x39c87d5a	0.00038240367
123	0x399cb2df	0.00029887908
124	0x399ee091	0.00030303423
125	0xbaa40cb8	-0.0012515998
126	0xb958108f	-0.00020605534
127	0x3ab368f3	0.0013687894

bn1.weight f4 [128]
0	0x3f7dcb79	0.991386
1	0x3f81e61a	1.0148346
2	0x3f67deb8	0.90574217
3	0x3f758691	0.9590846
4	0x3f789bb4	0.97112584
5	0x3f49c6b6	0.78818834
6	0x3f89d44c	1.0767913
7	0x3f87bab5	1.0603853
8	0x3f567945	0.8377879
9	0x3f7f6202	0.99758923
10	0x3f74a548	0.955647
11	0x3f82897f	1.019821
12	0x3f6df98e	0.92958915
13	0x3f816950	1.0110264
14	0x3f5b46ae	0.85654724
15	0x3f79178c	0.97301555
16	0x3f71791f	0.9432544
17	0x3f6617fe	0.8988036
18	0x3f642599	0.8911987
19	0x3f82f97e	1.0232389
20	0x3f6b698b	0.9195792
21	0x3f7fc76a	0.99913657
22	0x3f872412	1.0557883
23	0x3f73bab9	0.9520679
24	0x3f6fa0c9	0.93604714
25	0x3f88b280	1.0679474
26	0x3f75f2a5	0.9607337
27	0x3f6f6d74	0.9352639
28	0x3f7738fb	0.9657132
29	0x3f60118d	0.8752678
30	0x3f79d09e	0.9758395
31	0x3f56ff2d	0.8398312
32	0x3f7cb531	0.98713976
33	0x3f6ad216	0.91726816
34	0x3f65b262	0.89725316
35	0x3f6cccce	0.9250001
36	0x3f7de121	0.99171644
37	0x3f5f6958	0.87270117
38	0x3f7f48e8	0.9972062
39	0x3f7b71a8	0.982203
40	0x3f8c7c76	1.0975482
41	0x3f88d0ea	1.0688756
42	0x3f805dbf	1.0028609
43	0x3f580aa4	0.84391236
44	0x3f4ce166	0.8003143
45	0x3f75ed1d	0.9606493
46	0x3f70e957	0.9410605
47	0x3f7775ee	0.9666432
48	0x3f792be7	0.97332615
49	0x3f757f65	0.95897514
50	0x3f7a67c6	0.97814596
51	0x3f6a1935	0.9144471
52	0x3f880680	1.0626984
53	0x3f76d817	0.96423477
54	0x3f865ead	1.0497643
55	0x3f824dab	1.0179952
56	0x3f6c7063	0.9235899
57	0x3f81bbd9	1.0135452
58	0x3f80e0e1	1.0068628
59	0x3f86588e	1.0495775
60	0x3f5ce266	0.86282957
61	0x3f5dd8d0	0.86658955
62	0x3f843d5e	1.0331228
63	0x3f813ba7	1.009633
64	0x3f6147e7	0.8800034
65	0x3f57b391	0.8425837
66	0x3f58d761	0.8470364
67	0x3f70a9cf	0.9400911
68	0x3f6e3804	0.93054223
69	0x3f5b3594	0.8562863
70	0x3f7ce64d	0.9878891
71	0x3f6cac27	0.92450184
72	0x3f7dcbdf	0.9913921
73	0x3f4e6216	0.8061842
74	0x3f4ed7b0	0.80797863
75	0x3f581fd0	0.8442354
76	0x3f71cea9	0.94455963
77	0x3f7a980f	0.97888273
78	0x3f7e6f15	0.9938825
79	0x3f666fa7	0.9001412
80	0x3f88e98e	1.0696275
81	0x3f8c9759	1.0983688
82	0x3f7f83e2	0.9981061
83	0x3f6d9d82	0.9281846
84	0x3f8029df	1.0012778
85	0x3f6eefc3	0.933346
86	0x3f878a9d	1.0589176
87	0x3f7f2946	0.99672353
88	0x3f81d654	1.0143533
89	0x3f6050ea	0.87623465
90	0x3f6df2a6	0.9294838
91	0x3f74326b	0.9538943
92	0x3f7e3d34	0.9931214
93	0x3f89289e	1.071552
94	0x3f6fbb99	0.93645626
95	0x3f81d006	1.0141609
96	0x3f8c2b13	1.0950645
97	0x3f7b1847	0.9808392
98	0x3f6a282a	0.91467535
99	0x3f3453e3	0.704405
100	0x3f6cc1a6	0.92482984
101	0x3f89d3c3	1.076775
102	0x3f56a4d4	0.8384526
103	0x3f8387f7	1.0275868
104	0x3f6fec48	0.9371991
105	0x3f7f91fb	0.99832124
106	0x3f84e169	1.038129
107	0x3f6e7b43	0.9315683
108	0x3f770de6	0.9650558
109	0x3f5ddd3a	0.8666569
110	0x3f83ad3d	1.0287243
111	0x3f83b803	1.0290531
112	0x3f71e769	0.9449373
113	0x3f81f818	1.0153837
114	0x3f68c265	0.9092162
115	0x3f7cd7a9	0.9876657
116	0x3f55b6b9	0.8348194
117	0x3f646d25	0.8922904
118	0x3f6f877e	0.9356612
119	0x3f79873e	0.9747199
120	0x3f7b0390	0.9805231
121	0x3f4be392	0.7964412
122	0x3f6de430	0.9292631
123	0x3f59c9bd	0.85073453
124	0x3f872bfa	1.0560296
125	0x3f463910	0.7743082
126	0x3f7ccb03	0.9874727
127	0x3f710630	0.94150066

bn1.bias f4 [128]
0	0xbe99cfa9	-0.30041245
1	0xbe28c4c4	-0.1648131
2	0xbe8e123e	-0.27748293
3	0xbe578a1d	-0.2104878
4	0xbe883888	-0.2660563
5	0xbf000f36	-0.5002321
6	0xbe845711	-0.25847676
7	0xbe1156fb	-0.14193337
8	0xbeef418a	-0.4672969
9	0xbeada84b	-0.3391746
10	0xbe8f99d5	-0.28047052
11	0xbe57518c	-0.21027201
12	0xbe79cdad	-0.24394865
13	0xbea1554a	-0.31510383
14	0xbebcc86d	-0.36871663
15	0xbe853eea	-0.26024562
16	0xbeabdba3	-0.33566007
17	0xbeb2cb55	-0.34920755
18	0xbed56e79	-0.41685846
19	0xbe62bc01	-0.2214203
20	0xbea89013	-0.3292242
21	0xbe431592	-0.19051197
22	0xbe6c43cb	-0.23072736
23	0xbe9759f9	-0.2956083
24	0xbe924e86	-0.28575534
25	0xbe5c1780	-0.2149334
26	0xbe9c594b	-0.30536875
27	0xbe7bf42a	-0.2460486
28	0xbe814e82	-0.2525521
29	0xbe9e9ac1	-0.30977443
30	0xbe5a2221	-0.21302082
31	0xbeab03c6	-0.33401316
32	0xbe28b316	-0.16474566
33	0xbe8ab838	-0.27093673
34	0xbefb18b1	-0.49042276
35	0xbea18b7e	-0.31551737
36	0xbe933a54	-0.28755438
37	0xbefe7e85	-0.49705902
38	0xbe3a3dbb	-0.18187611
39	0xbe340070	-0.17578292
40	0xbe7424e8	-0.23842204
41	0xbe611dae	-0.21983978
42	0xbe9f5525	-0.31119648
43	0xbedd1d57	-0.43186447
44	0xbee902bc	-0.455099
45	0xbeb74655	-0.35795847
46	0xbea9a239	-0.3313158
47	0xbe9f558e	-0.3111996
48	0xbea5c16d	-0.32374135
49	0xbe93865a	-0.2881344
50	0xbeaf735c	-0.342677
51	0xbeb037a0	-0.34417439
52	0xbe2fa17b	-0.17151444
53	0xbe948054	-0.29004157
54	0xbe838421	-0.25686744
55	0xbe773d70	-0.2414453
56	0xbe482288	-0.19544423
57	0xbe9d5437	-0.30728313
58	0xbe9901f6	-0.2988431
59	0xbe27c887	-0.16385089
60	0xbef94a44	-0.48689473
61	0xbeea6778	-0.45782065
62	0xbe5858ee	-0.21127674
63	0xbe40f9e7	-0.1884533
64	0xbea81523	-0.32828626
65	0xbedd4179	-0.43214014
66	0xbeeb13b6	-0.45913476
67	0xbecd4d29	-0.4009793
68	0xbe8c8e3a	-0.2745226
69	0xbedd6e04	-0.43247998
70	0xbe4159b5	-0.18881877
71	0xbe8429e7	-0.2581322
72	0xbe8c5ce2	-0.27414614
73	0xbee4cd8f	-0.4468808
74	0xbebeca8a	-0.372639
75	0xbec77731	-0.38958123
76	0xbe84b8c5	-0.25922218
77	0xbe743763	-0.23849253
78	0xbe4c3526	-0.1994215
79	0xbed9b5be	-0.4252147
80	0xbe8f1d19	-0.27951887
81	0xbe56a5bc	-0.2096166
82	0xbe10cbca	-0.1414024
83	0xbeb04f92	-0.34435707
84	0xbeb9d660	-0.36296368
85	0xbea5a005	-0.32348648
86	0xbe1cd98a	-0.1531736
87	0xbe840e8a	-0.25792342
88	0xbe3bfba4	-0.18357712
89	0xbe934168	-0.28760839
90	0xbe3f0fbb	-0.18658344
91	0xbe3c0b22	-0.18363622
92	0xbe922cfb	-0.28549942
93	0xbe299695	-0.16561349
94	0xbea77b9c	-0.32711494
95	0xbe44201a	-0.19152871
96	0xbe2f29f0	-0.17105842
97	0xbe2bc3f3	-0.16773967
98	0xbe8ead09	-0.2786639
99	0xbe930754	-0.28716528
100	0xbe93f4cb	-0.288977
101	0xbe520c88	-0.20512593
102	0xbee9719b	-0.45594487
103	0xbe8c4973	-0.27399787
104	0xbe43d52a	-0.19124284
105	0xbe9ac3d9	-0.30227545
106	0xbe2fb927	-0.17160474
107	0xbece4ab4	-0.4029137
108	0xbdd8f3e0	-0.105933905
109	0xbeb81a80	-0.35957718
110	0xbe0ba638	-0.13637626
111	0xbe2d9ba5	-0.16953905
112	0xbeb801e1	-0.35938933
113	0xbe86628f	-0.2624707
114	0xbecff087	-0.40613195
115	0xbea1fd34	-0.3163849
116	0xbeae704c	-0.3407005
117	0xbeec3d7a	-0.46140653
118	0xbe3d58e2	-0.18490937
119	0xbe8029c2	-0.2503186
120	0xbe71a4e0	-0.23598051
121	0xbef01076	-0.4688756
122	0xbeb64267	-0.35597536
123	0xbec777ae	-0.38958496
124	0xbe85ff84	-0.26171505
125	0xbeaccfda	-0.33752328
126	0xbe0a3371	-0.13496186
127	0xbe817297	-0.25282738

bn1.running_mean f4 [128]
0	0xbdd32dfb	-0.103115045
1	0x3ef216ee	0.4728312
2	0xbcdb3e95	-0.02676324
3	0x3d145a32	0.03621883
4	0xbc9b7840	-0.018978238
5	0x3c8f15d1	0.017466458
6	0x3eeb938c	0.46011007
7	0x3efb2bad	0.4905676
8	0x3b9b5e67	0.0047414782
9	0x3d893c92	0.06701006
10	0x3d856304	0.06513026
11	0x3eef53a3	0.46743497
12	0xbd3d5e79	-0.046232674
13	0x3ceea330	0.029130548
14	0xbd069291	-0.03285462
15	0x3cd3575c	0.025798492
16	0xbdd11554	-0.10209146
17	0xbd10eb9b	-0.03538094
18	0x3d837420	0.064186335
19	0x3ef71294	0.4825636
20	0x3cc2f619	0.02379899
21	0x3ee95a16	0.45576543
22	0xbc8dc039	-0.017303573
23	0xbbd99b4c	-0.0066408273
24	0xbe28934b	-0.16462438
25	0x3f00f45e	0.50372875
26	0xbdd2591b	-0.10270902
27	0x3d7536ee	0.05986684
28	0xbd31614f	-0.04330569
29	0xbc0cfa60	-0.008604616
30	0x3ef0f9eb	0.47065672
31	0x3dcaed86	0.09908585
32	0x3effe34f	0.4997811
33	0xbe07ef3d	-0.13274856
34	0xbdb78482	-0.08960821
35	0xbdffb094	-0.124848515
36	0xbc9a570c	-0.018840335
37	0x3d1d7c02	0.03844834
38	0xbd0715b5	-0.032979686
39	0x3cbb10d6	0.022835176
40	0xbd246318	-0.040133566
41	0x3f14bbbf	0.5809898
42	0xbd38d0c2	-0.045120962
43	0xbc0e7255	-0.008694251
44	0x3dc1f2b3	0.09470119
45	0xbd6516c3	-0.05592991
46	0x3e152cdc	0.14567894
47	0x3cc59840	0.02412045
48	0x3d9df0dd	0.07711957
49	0x3e462330	0.1934936
50	0x3d3d3c36	0.0462
51	0xbe078dc0	-0.13237667
52	0x3ef9c2f0	0.48781538
53	0x3d2f16f1	0.042746488
54	0x3f01c866	0.5069641
55	0x3def205f	0.11676096
56	0x3bd0d4b2	0.0063730115
57	0xbe260fe1	-0.16216995
58	0x3d93f076	0.07223599
59	0x3eea863f	0.45805547
60	0x3c5ad9e6	0.013357615
61	0xbd06e529	-0.032933388
62	0xbd7949b0	-0.06086129
63	0x3f00d6d7	0.5032782
64	0xbe22a151	-0.1588185
65	0xbd43b60d	-0.04778104
66	0x3d2a1981	0.04152823
67	0x3d776142	0.060395487
68	0xbcd47500	-0.025934696
69	0x3dc52f1a	0.096281245
70	0x3ef5fddb	0.4804524
71	0xbdea2759	-0.11433286
72	0x3ce3bb84	0.027799375
73	0xbdaa2ac3	-0.083089374
74	0xbce58e8b	-0.028022071
75	0xbd598e60	-0.053114295
76	0xbcaffbab	-0.02148231
77	0xbdc296c8	-0.095014155
78	0x3f05f5ed	0.5232838
79	0xbe0e44fa	-0.138935
80	0xbd63ce4d	-0.055616666
81	0x3ef9521b	0.48695454
82	0x3eee2468	0.4651215
83	0xbd85a4d1	-0.06525577
84	0xbd34dfb3	-0.04415865
85	0xbd2ec8e1	-0.04267204
86	0x3efaa8b0	0.48956823
87	0x3cd5ac4c	0.026083134
88	0x3ede23dc	0.43386734
89	0x3d885fcd	0.066588975
90	0x3edb46ba	0.42827398
91	0x3eec2753	0.46123752
92	0x3dedacb6	0.116052076
93	0x3f0180c8	0.5058713
94	0xbd6fd300	-0.058550835
95	0x3ee47e91	0.44627813
96	0x3efdf8d8	0.49603915
97	0x3edb43ce	0.42825168
98	0xbdad31a2	-0.08456732
99	0xbd6c8f0c	-0.057753608
100	0xbd1e3870	-0.03862804
101	0x3ef375bd	0.47550765
102	0xbd62b058	-0.055343956
103	0xbdff8638	-0.12476772
104	0x3eda00f2	0.42578846
105	0xbda9b6f2	-0.08286847
106	0x3efe5889	0.49676922
107	0x3e0caa48	0.13736832
108	0x3eee9c56	0.4660365
109	0xbd9475d2	-0.07249035
110	0x3efe7b20	0.49703312
111	0x3f03c815	0.51477176
112	0xbdf56853	-0.11982789
113	0xbded3c3b	-0.11583754
114	0x3d64aed9	0.05583081
115	0x3dc071e8	0.09396726
116	0x3d3f0f61	0.046645526
117	0xbda755ea	-0.08170684
118	0x3ebfb7f7	0.37445042
119	0x3d8ec117	0.06970423
120	0xbda2dba4	-0.079520494
121	0xbcc74401	-0.024324419
122	0x3d775470	0.06038326
123	0xbd967d71	-0.07348145
124	0x3ce9eba3	0.028554743
125	0x3c9f2cb6	0.0194305
126	0x3ef3cb83	0.47616205
127	0xbe3f61b3	-0.18689613

bn1.running_var f4 [128]
0	0x43bbb1ef	375.3901
1	0x43ea8624	469.04797
2	0x439dfe2e	315.98578
3	0x43c53245	394.39273
4	0x43aea76b	349.30795
5	0x43c06163	384.76083
6	0x44237dd3	653.966
7	0x4410d37a	579.3043
8	0x43b9c744	371.55676
9	0x4383bc76	263.47235
10	0x43e74c7a	462.59747
11	0x4420a43d	642.5662
12	0x43ca98da	405.19415
13	0x43c44149	392.51004
14	0x4371fbbd	241.98335
15	0x4408f38b	547.80536
16	0x4398fbbf	305.96677
17	0x436ac3ed	234.76534
18	0x4374516c	244.31805
19	0x43ff9f9f	511.24704
20	0x43531fd4	211.12433
21	0x440165f4	517.593
22	0x4400fd54	515.95825
23	0x43a40129	328.00906
24	0x43b0ba50	353.45557
25	0x441b2eb0	620.7295
26	0x4396695c	300.82312
27	0x43a4abfb	329.3436
28	0x43dfbc20	447.46973
29	0x43180a36	152.03989
30	0x440f4141	573.0196
31	0x43c939d2	402.45172
32	0x440a4582	553.08606
33	0x437c2d25	252.17635
34	0x439d23a5	314.27847
35	0x43a86267	336.76877
36	0x43ca1175	404.13638
37	0x43a08ccc	321.09998
38	0x43f34dc3	486.6075
39	0x43b9d5d3	371.6705
40	0x43d38aa6	423.0832
41	0x4442250f	776.57904
42	0x43a1e1ff	323.7656
43	0x43989bff	305.21872
44	0x4319fe4a	153.99332
45	0x439ac190	309.5122
46	0x439d96c9	315.178
47	0x436ae38a	234.88882
48	0x438d9499	283.16092
49	0x439ae7bb	309.8104
50	0x43957cce	298.97504
51	0x43bd6b34	378.83752
52	0x440bbae5	558.9202
53	0x43ea0327	468.02463
54	0x441ded0a	631.70374
55	0x43c31121	390.13382
56	0x438594c2	267.16217
57	0x439686c2	301.0528
58	0x43b8f3b0	369.9038
59	0x4415148c	596.32104
60	0x43a67664	332.92493
61	0x43a8b92f	337.44675
62	0x43d260f0	420.75732
63	0x440eb7f5	570.8743
64	0x43a86640	336.79883
65	0x438dd8fa	283.69513
66	0x43a0ecd5	321.85025
67	0x43e1258a	450.29327
68	0x43a797f5	335.18716
69	0x439ba826	311.31366
70	0x44207c86	641.9457
71	0x43c853a7	400.65353
72	0x43add225	347.64175
73	0x438f483f	286.56442
74	0x4375a37d	245.63863
75	0x43841a9f	264.20798
76	0x43e53bae	458.46625
77	0x43d5986c	427.1908
78	0x442ac1da	683.02893
79	0x43c9c581	403.543
80	0x43f8596c	496.6986
81	0x4429d7a8	679.3696
82	0x440dd46d	567.31915
83	0x438f39b6	286.45087
84	0x43a055bc	320.6698
85	0x43e51f8b	458.24643
86	0x44167555	601.8333
87	0x43bff6ab	383.9271
88	0x43e98121	467.00882
89	0x43b28592	357.04352
90	0x43fce4de	505.78802
91	0x4422dbd1	651.43463
92	0x43c4f6e3	393.9288
93	0x441272c5	585.7933
94	0x438c50c2	280.63092
95	0x4406d435	539.31573
96	0x44082d3a	544.70667
97	0x43f043c2	480.52936
98	0x43a70841	334.06448
99	0x42958c29	74.77375
100	0x439a44c8	308.53735
101	0x44137ab2	589.9171
102	0x43afc221	351.51663
103	0x43e4fdda	457.98322
104	0x43fba0e6	503.25702
105	0x43aaa02e	341.2514
106	0x44118b48	582.1763
107	0x43c9f994	403.94983
108	0x441a386a	616.8815
109	0x431d6f9e	157.436
110	0x440e58bc	569.3865
111	0x44179b81	606.42975
112	0x43d9acb1	435.34915
113	0x43db3c57	438.4714
114	0x43a73848	334.4397
115	0x43e32d44	454.35364
116	0x439bc3ce	311.52972
117	0x4394f660	297.9248
118	0x43df79b6	446.95087
119	0x43d61a05	428.20328
120	0x439e27f5	316.31216
121	0x43a368bf	326.81833
122	0x43a2a65f	325.29977
123	0x4380471b	256.5555
124	0x43e9200d	466.2504
125	0x431ec6ed	158.77705
126	0x4411a35d	582.55255
127	0x43d1db2e	419.71234
