models/hybrid_neurons_pretrained/MLP2_HUMAN_BERT_1_att.pth (torch, 648774 bytes, 34 tensors)

embedding_proj.weight f4 [96, 1152]
0.1555912 -0.09507476 0.04697065 0.0206956 -0.10674637 -0.07998827 0.040082783 0.08175752
0.031178785 0.018476145 0.03279183 -0.12424085 0.0070911082 -0.14252293 0.03214934 0.005132809
-0.041534107 -0.075065546 -0.10247081 -0.029515361 -0.078853086 -0.01593724 -0.11567902 -0.10944166
0.09967731 0.03837455 0.11704325 -0.117462054 0.103848696 0.069570154 0.008599744 0.14706564
0.0076593487 0.016310928 -0.12907635 0.035873376 -0.07520036 -0.06440785 0.012640866 0.021510983
-0.09771917 0.01203525 0.097316645 0.0077887797 -0.117462695 -0.06712565 -0.014830357 0.14211953
-0.074493855 -0.07556873 0.036460344 0.079752594 -0.1834721 -0.07219621 0.030038798 -0.026784414
0.038666483 -0.04931936 -0.1716736 -0.08216366 0.06941222 0.014499202 -0.024479847 -0.13632096
0.0066929944 -0.121176876 0.0348541 -0.009089192 -0.025123404 0.09154441 0.020309692 -0.0052281944
-0.024537921 0.07401391 0.033085134 0.13404152 0.02922661 0.06297794 -0.00493042 -0.15175429
0.059459373 -0.06727012 0.009548917 -0.05960927 0.031188646 0.0080288565 -0.057645008 0.06620171
0.13350165 -0.04673256 -0.07943337 0.015537202 0.024905408 -0.045917008 0.09217886 -0.021450665
-0.09067529 0.035559297 0.048799355 -0.17064828 -0.086313285 0.010720243 0.058881253 -0.005762934
-0.15395105 0.14866187 -0.021918446 0.021652123 -0.029034998 0.09670712 0.031741537 0.114888325
0.0640851 0.07198369 -0.082552046 -0.076271445 0.03090002 -0.13344738 0.005755702 0.04854352
-0.11150654 -0.08091756 -0.062337156 -0.0049386527 -0.13256143 0.111653924 0.04819807 -0.20068112
0.0015923951 0.05118801 -0.034387168 -0.15343812 0.026699057 -0.014257881 0.016649809 -0.05554808
0.17787595 0.05572348 -0.07694185 0.09393612 0.10918155 -0.025983185 0.045525733 0.020991737
0.00707844 0.084966525 0.07312574 -0.07083973 0.115867876 0.048015527 0.13543504 -0.0011987328
0.00027552032 -0.029141037 -0.029162465 -0.06378802 -0.031195536 0.015582277 0.15706357 0.049921513
0.18573186 -0.088980876 0.014399855 0.020837355 -0.020642463 0.1031338 -0.17804877 -0.11298539
-0.091312416 0.030410917 -0.012197879 0.11543094 0.049312033 0.08971892 -0.050741993 0.10050679
-0.043066677 0.12952875 0.13095233 0.15991934 0.078604646 0.043159373 -0.0054153474 -0.116882004
-0.10239346 -0.057926953 -0.11115126 0.0014965382 -0.04173831 -0.098634385 -0.08615126 0.05083259
-0.013535801 -0.09151937 -0.031182462 -0.097386196 0.16391127 0.007467928 0.062490217 -0.05067147
-0.048113834 -0.08728501 0.034334667 0.074035026 0.02880965 -0.023384525 0.08071705 0.029739263
-0.028291823 0.14178634 0.10040679 -0.09852403 -0.16873628 0.19443049 -0.008262631 -0.14286183
-0.10696306 0.09101712 -0.03009773 -0.001366065 -0.022213701 0.033774324 -0.071971506 -0.1034286
-0.11758104 0.15101148 -0.026180184 -0.031766955 -0.12517536 0.022780126 0.05537369 0.020215146
0.025913939 -0.049154896 0.093681864 0.06705481 -0.047085308 0.031084053 0.04463844 -0.14782748
0.11695774 -0.1571566 0.07492387 0.20060755 0.115057915 0.054822855 0.014012375 0.007469197
-0.06865193 -0.06918034 0.045685254 -0.13245876 -0.07550122 0.0718354 0.15472597 -0.1321792
00000000: 4d53 1f3e 8eb6 c2bd 4c64 403d d289 a93c
00000010: d79d dabd e4d0 a3bd d82d 243d 7d70 a73d
00000020: a76a ff3c 495b 973c ba50 063d fd71 febd
00000030: 875c e83b 88f1 11be 07af 033d 1f31 a83b
00000040: ab1f 2abd f7bb 99bd 37dc d1bd 33ca f1bc
00000050: ba7d a1bd d18e 82bc 1fe9 ecbd f322 e0bd
00000060: 9e23 cc3d a22e 1d3d 5fb4 ef3d f28f f0bd
00000070: a0ae d43d cc7a 8e3d f1e5 0c3c 6098 163e
00000080: 46fb fa3b 7f9e 853c 972c 04be f6ef 123d
00000090: a502 9abd 43e8 83bd a31b 4f3c cd37 b03c
000000a0: fd20 c8bd 7f2f 453c f34d c73d 0539 ff3b
000000b0: 4890 f0bd 2c79 89bd 07fb 72bc c887 113e
000000c0: 3c90 98bd c7c3 9abd 7157 153d 5455 a33d
000000d0: 1ce0 3bbe 9bdb 93bd ed13 f63c fd6a dbbc
000000e0: bf60 1e3d 1903 4abd 34cb 2fbe 6c45 a8bd
000000f0: fe27 8e3d 108e 6d3c f689 c8bc b997 0bbe
00000100: e850 db3b 952b f8bd 2cc3 0e3d d6ea 14bc
00000110: 99cf cdbc a37b bb3d 8360 a63c 4651 abbb
00000120: c003 c9bc 9b94 973d 4784 073d 2e42 093e
00000130: a56c ef3c 94fa 803d 5c8f a1bb 7a65 1bbe
00000140: ac8b 733d ebc4 89bd 1073 1c3c da28 74bd
00000150: 557f ff3c 778b 033c 2c1d 6cbd c394 873d
00000160: a8b4 083e a46a 3fbd f6ad a2bd c08f 7e3c
00000170: 6d06 cc3c 7913 3cbd 45c8 bc3d 4eb9 afbc
00000180: f7b3 b9bd a0a6 113d d5e1 473d 6cbe 2ebe
00000190: 05c5 b0bd f5a3 2f3c 782d 713d ffd6 bcbb
000001a0: 58a5 1dbe d13a 183e 508e b3bc cb5f b13c
000001b0: ceda edbc 620e c63d 6a03 023d 924a eb3d
000001c0: 0d3f 833d 2f6c 933d 0c11 a9bd 3434 9cbd
000001d0: 0a22 fd3c 6ea6 08be 549a bc3b 92d5 463d
000001e0: 8a5d e4bd 1bb8 a5bd 3f55 7fbd 6cd4 a1bb
000001f0: 2fbe 07be d0aa e43d 576b 453d 5a7f 4dbe
00000200: eab7 d03a 85aa 513d 8fd9 0cbd e21e 1dbe
00000210: fbb7 da3c e399 69bc 2e65 883c 6286 63bd
00000220: 1d25 363e 4e3e 643d b093 9dbd 9561 c03d
00000230: 949a df3d b0da d4bc 3179 3a3d ddf6 ab3c
00000240: 42f2 e73b ee02 ae3d f3c2 953d 6c14 91bd
00000250: 234c ed3d eeab 443d 7caf 0a3e cc1e 9dba
00000260: b673 9039 2fb9 eebc 1fe6 eebc 4ba3 82bd
00000270: c88d ffbc cf4c 7f3c 46d5 203e 807a 4c3d
00000280: 7e30 3e3e 9b3b b6bd 5fed 6b3c 1ab3 aa3c
00000290: 621a a9bc d037 d33d 6b52 36be e264 e7bd
000002a0: 0102 bbbd 5120 f93c 9dd9 47bc 0f67 ec3d
000002b0: 6afb 493d 8ebe b73d d6d6 4fbd 81d6 cd3d
000002c0: af66 30bd 2fa3 043e 5e18 063e e5c1 233e
000002d0: 79fb a03d e2c7 303d 3a73 b1bb d55f efbd
000002e0: aab3 d1bd d044 6dbd 46a3 e3bd 7d27 c43a
000002f0: caf5 2abd d300 cabd 1270 b0bd d535 503d
00000300: 44c5 5dbc 826e bbbd 5d72 ffbc 6a72 c7bd
00000310: 5bd8 273e 85b5 f43b bef5 7f3d e38c 4fbd
00000320: 0313 45bd 7cc2 b2bd 82a2 0c3d ad9f 973d
00000330: 3702 ec3c e790 bfbc fb4e a53d c19f f33c
00000340: 41c4 e7bc 7030 113e 13a2 cd3d f7c6 c9bd
00000350: 34c9 2cbe c918 473e fc5f 07bc 5f4a 12be
00000360: 730f dbbd 2f67 ba3d 848f f6bc 890d b3ba
00000370: 82f9 b5bc f256 0a3d cc65 93bd 60d2 d3bd
00000380: 54ce f0bd c1a2 1a3e d377 d6bc 111e 02bd
00000390: f82d 00be 639d ba3c 86cf 623d 3c9a a53c
000003a0: 7849 d43c a556 49bd 47dc bf3d 0854 893d
000003b0: 86dc 40bd fca3 fe3c ccd6 363d 1660 17be
000003c0: 8a87 ef3d a9ed 20be b071 993d 116c 4d3e
000003d0: 7ca3 eb3d ee8d 603d 2994 653c 2ac0 f43b
000003e0: 6299 8cbd 6cae 8dbd 7620 3b3d 45a3 07be
000003f0: 62a0 9abd 701e 933d 7c70 1e3e fc59 07be

embedding_proj.bias f4 [96]
0.000506016 -0.0020027822 0.0018568457 -0.0017517696 0.0011851398 -0.0009405062 -0.0012986495 -0.0010817415
0.00079176406 -0.0019362341 0.0009115785 -5.708586e-05 0.0002704552 0.00096231984 -0.00035315444 -0.0010682759
-0.0010991602 -0.0013303679 -0.00013850926 -0.0012572599 0.00097533676 0.00023058438 -0.0016210795 -0.0019328129
0.0003771587 0.0009902369 -0.0011270349 -0.0020086402 -0.00059309445 0.0007176571 -0.0015140843 -0.0006073001
-0.0016197149 0.00092282594 -0.0010724878 -0.00042307895 0.0010052295 0.0007045382 -0.0034155448 0.00058825494
0.00053373 -0.00077313645 0.0008885359 0.00021949114 0.0012241978 0.00039426665 -0.0016159988 -0.00079208484
-9.548115e-05 -0.00010197172 -9.760778e-05 0.0009871357 -0.0013881027 0.0016218348 -0.00016362469 -0.00024386392
-0.001651375 0.000571457 0.0016893046 0.0024469753 -1.2070117e-05 -0.00046387015 -7.364605e-05 0.0012726176
-0.0011450594 1.3319528e-06 9.21702e-06 0.001047155 -0.0001207231 9.390831e-05 0.0004925729 -0.00023365546
-0.00090196345 -0.001883539 -0.0010857487 -0.00063368306 0.0011394207 -0.00017923141 -0.002296164 0.00093060394
-0.00024492457 -9.148437e-05 0.0004656654 -0.00072491093 -0.0007810089 0.0017262314 0.0010805789 0.0007269736
0.000117025964 -0.0005104261 -0.00017372915 0.0009725252 0.0015683861 0.0017565378 -0.0023796044 -0.000964293
00000000: 29a6 043a 1c41 03bb 6761 f33a a29b e5ba
00000010: b156 9b3a 4d8c 76ba 7237 aaba 39c9 8dba
00000020: 638e 4f3a 3cc9 fdba fff6 6e3a 7a6f 6fb8
00000030: e2cb 8d39 3144 7c3a 9627 b9b9 6405 8cba
00000040: b211 90ba bd5f aeba cc3c 11b9 a4ca a4ba
00000050: bead 7f3a 06c9 7139 677a d4ba 7056 fdba
00000060: 62bd c539 d6ca 813a 04b9 93ba 64a3 03bb
00000070: e579 1bba 2721 3c3a 3d74 c6ba 3833 1fba
00000080: 9d4c d4ba cde9 713a b892 8cba b2d0 ddb9
00000090: e8c1 833a c2b0 383a 55d7 5fbb 1f35 1a3a
000000a0: 04ea 0b3a 4fac 4aba a3ec 683a 3427 6639
000000b0: 4375 a03a 93b5 ce39 eccf d3ba eaa3 4fba
000000c0: 0d3d c8b8 a6d9 d5b8 c7b2 ccb8 c762 813a
000000d0: fff0 b5ba bf93 d43a ab92 2bb9 b9b5 7fb9
000000e0: f372 d8ba d5cd 153a a86b dd3a 6f5d 203b
000000f0: c280 4ab7 9933 f3b9 6c72 9ab8 f6cd a63a
00000100: d115 96ba 8dc5 b235 cda2 1a37 b140 893a
00000110: b92c fdb8 a4f0 c438 0220 013a 6901 75b9
00000120: be71 6cba 15e1 f6ba ae4f 8eba c01d 26ba
00000130: 9d58 953a 11f0 3bb9 3d7b 16bb c6f3 733a
00000140: 3869 80b9 4cdb bfb8 8d24 f439 f307 3eba
00000150: 9fbc 4cba b742 e23a 36a2 8d3a 5f92 3e3a
00000160: d66b f538 1ece 05ba 102b 36b9 10f1 7e3a
00000170: 4e92 cd3a a13b e63a 23f3 1bbb 9cc8 7cba

categorical_proj.weight f4 [17, 17]
-0.28270712 -0.39920548 0.3785048 0.36359388 0.26138738 -0.43537813 0.207924 0.018912416
0.2799069 0.06410126 0.8862655 0.1400335 -0.4175994 -0.13049078 0.1644669 -0.49824417
0.17723785 0.2984318 0.07976725 -0.4794371 0.17564464 -0.043661695 -0.051690757 0.3635865
-0.21767521 -0.20573092 0.37928486 -0.11282911 -0.1510376 0.17350864 -0.14769396 0.08340306
0.20951642 0.24662176 -0.1778426 0.010565001 -0.14806616 0.29614678 0.06727895 -0.20384718
-0.14023465 0.38780838 0.022942616 -0.042918142 0.6096609 -0.3046232 -0.28445643 0.2666239
-0.24401787 0.24965605 0.19847675 -0.25729012 -0.08542241 0.3582748 0.31476045 0.038819887
0.11513741 -0.060509782 -0.22855076 0.60829645 0.5351096 -0.13478467 -0.34371674 -0.2867231
0.051773325 -0.07660246 -0.20274678 0.017259924 0.49910232 -0.14363006 -0.060227007 -0.15192538
-0.096243285 0.066742755 -0.1897715 0.39593577 -0.2743713 0.12606509 1.0755578 0.17308924
-0.61669046 0.13248353 0.18338098 -0.49982524 -0.25653085 0.11835419 -0.18582182 0.08051381
-0.3188899 -0.20945731 0.13548665 -0.14491163 -0.30323726 0.27570367 0.1140367 -1.1053427
-0.14792897 0.40371415 0.4192326 -0.019990927 -0.09220462 -0.30852512 0.033684175 -0.41493917
0.16482744 0.10781351 0.025313672 0.09387783 -0.34652036 0.3832424 -0.31680602 0.2863148
0.37782565 0.48042902 -0.46299803 0.16033055 0.21399038 0.2559836 -0.20826507 -0.11956094
-0.38975003 0.119394235 0.68080956 0.40150627 0.23715508 -0.5099852 -0.13202791 -0.26410937
-0.03318976 0.47226647 -0.30693036 -0.1813905 -0.318598 0.24748512 0.1708516 -0.4711855
0.15354277 0.16967645 0.14271396 -0.44105172 0.15219995 -0.022761095 0.34854218 -0.29471174
0.16716658 -0.48852605 -0.11705815 0.290121 0.32909346 0.2160869 -0.3305495 0.45872933
0.094180904 -0.020137558 0.12960975 0.23319449 -0.08355523 0.3848153 0.45391935 0.29773736
-0.1942065 -0.21199445 -0.12304812 -0.44400328 -0.060250707 0.65272665 0.18870299 0.0777446
0.24144419 0.30145875 -0.023731567 0.18694475 -0.24883212 0.34800068 -0.034272935 0.10272678
-0.4343421 -0.06274165 -0.29440403 -0.28388757 0.8808367 0.020234006 -0.29690814 0.22345565
0.054551043 -0.09807538 0.252056 -0.15197638 -0.29806364 -0.051854093 -0.072473764 -0.38640112
0.40496573 0.10142052 -0.8467532 0.028638344 -0.050299883 -0.72059983 -0.25780016 -0.003897055
-0.14677626 -0.026447156 -0.108788684 -0.15940766 -0.33016527 -0.31772417 0.10734414 0.25053018
-0.26096058 0.098927 -0.13006961 0.118200585 -0.29785767 0.10626481 -0.693502 0.31762075
-0.0037413007 0.13624673 0.3174649 -0.066740125 -0.35288292 -0.084373295 -0.3149702 0.4520531
0.026612224 -0.22863665 -0.029008219 0.31508416 0.59759885 0.35192248 0.19641075 1.0137789
0.41773096 -0.066142984 0.05466828 -0.37882763 -0.12195393 -0.1444342 -0.67239606 -0.22446157
0.043016877 0.38558012 -0.23126759 0.14643183 0.41469756 -0.65975404 0.027708165 0.009116161
-0.7223931 -0.16584562 0.40440264 -0.025425946 -0.33965883 -0.20089558 -0.07476633 0.6422705
00000000: fdbe 90be a964 ccbe 62cb c13e fa28 ba3e
00000010: 91d4 853e e2e9 debe 07ea 543e 36ee 9a3c
00000020: f54f 8f3e 8547 833d 4ce2 623f f164 0f3e
00000030: 97cf d5be 609f 05be 036a 283e dc19 ffbe
00000040: d77d 353e 0ecc 983e 035d a33d c878 f5be
00000050: 30dc 333e 9bd6 32bd b0b9 53bd 0228 ba3e
00000060: 40e6 5ebe 20ab 52be a031 c23e f312 e7bd
00000070: 9aa9 1abe 40ac 313e 163d 17be 39cf aa3d
00000080: 798b 563e 6a8a 7c3e 5f1c 36be d318 2d3c
00000090: a89e 17be 8da0 973e 8cc9 893d 51bd 50be
000000a0: ac99 0fbe d28e c63e 27f2 bb3c efca 2fbd
000000b0: bd12 1c3f 92f7 9bbe 46a4 91be ee82 883e
000000c0: d2df 79be d6a5 7f3e 7d3d 4b3e 88bb 83be
000000d0: f2f1 aebd cb6f b73e 4828 a13e 9a01 1f3d
000000e0: 2acd eb3d 1bd9 77bd 3609 6abe 51b9 1b3f
000000f0: f1fc 083f fe04 0abe a4fb afbe 5fcd 92be
00000100: 4410 543d c0e1 9cbd da9c 4fbe af64 8d3c
00000110: 578a ff3e c213 13be 98b0 76bd 5492 1bbe
00000120: 331b c5bd 6db0 883d 7653 42be 18b8 ca3e
00000130: 657a 8cbe 3517 013e e1ab 893f 4e3e 313e
00000140: 6ddf 1dbf c3a9 073e 39c8 3b3e 18e9 ffbe
00000150: 0358 83be ae63 f23d 1348 3ebe 6de4 a43d
00000160: 8945 a3be fa7b 56be 03bd 0a3e b763 14be
00000170: ea41 9bbe 0829 8d3e 138c e93d df7b 8dbf
00000180: b17a 17be 9fb3 ce3e a8a5 d63e 03c4 a3bc
00000190: c7d5 bcbd 01f7 9dbe 6bf8 093d e872 d4be
000001a0: 86c8 283e 54cd dc3d 9e5e cf3c 0543 c03d
000001b0: 1e6b b1be 5938 c43e 6634 a2be da97 923e
000001c0: 5d72 c13e cbfa f53e 140e edbe b12d 243e
000001d0: 4b20 5b3e 4810 833e 7043 55be 5edc f4bd
000001e0: 518d c7be f784 f43d 8949 2e3f 3b92 cd3e
000001f0: c8d8 723e 648e 02bf 5332 07be 5839 87be
00000200: fcf1 07bd e9cc f13e fa25 9dbe 6ebe 39be
00000210: 471f a3be bd6c 7d3e b9f3 2e3e 3a3f f1be
00000220: 513a 1d3e aabf 2d3e 9c23 123e 88d1 e1be
00000230: 4eda 1b3e 7a75 babc 1f74 b23e 75e4 96be
00000240: b72d 2b3e 1620 fabe 2fbc efbd bd8a 943e
00000250: f07e a83e e245 5d3e c93d a9be 92de ea3e
00000260: ebe1 c03d 85f7 a4bc 6bb8 043e 89ca 6e3e
00000270: 011f abbd 8306 c53e 1e68 e83e 0871 983e
00000280: 12de 46be 1315 59be a700 fcbd 6654 e3be
00000290: 72c9 76bd 1819 273f 5b3b 413e 9038 9f3d
000002a0: 253d 773e cd58 9a3e b468 c2bc 726e 3f3e
000002b0: d9cd 7ebe 252d b23e c761 0cbd 6b62 d23d
000002c0: 1662 debe b27e 80bd 20bc 96be b659 91be
000002d0: 847e 613f c9c1 a53c 5804 98be 8fd1 643e
000002e0: ea70 5f3d bfdb c8bd 7c0d 813e b29f 1bbe
000002f0: cc9b 98be f564 54bd 206d 94bd 5ed6 c5be
00000300: ab57 cf3e 90b5 cf3d d1c4 58bf f69a ea3c
00000310: 4007 4ebd 3b79 38bf 62fe 83be bc65 7fbb
00000320: 844c 16be b5a7 d8bc 9acc debd c33b 23be
00000330: 6c0b a9be beac a2be 3fd7 db3d 7e45 803e
00000340: a09c 85be 3d9a ca3d f830 05be 2613 f23d
00000350: cd80 98be 5da1 d93d 5989 31bf 309f a23e
00000360: 9c30 75bb 4384 0b3e c28a a23e 0caf 88bd
00000370: 12ad b4be e8cb acbd c643 a1be 8173 e73e
00000380: e101 da3c ba1f 6abe a5a2 edbc b652 a13e
00000390: 3dfc 183f 2f2f b43e e61f 493e 82c3 813f
000003a0: d5e0 d53e f975 87bd d9eb 5f3d b2f5 c1be
000003b0: fbc2 f9bd 8fe6 13be 2622 2cbf 41d9 65be
000003c0: 7732 303d c26a c53e 69d1 6cbe 3af2 153e
000003d0: 3d53 d43e a4e5 28bf 3cfc e23c f35b 153c
000003e0: c1ee 38bf 6fd3 29be dd0d cf3e 134a d0bc
000003f0: c3e7 adbe 92b7 4dbe 171f 99bd d76b 243f

categorical_proj.bias f4 [17]
-0.0015456273 0.00066847 -0.000201254 -0.0007997351 0.010029263 -0.0017268361 0.0034204272 0.0033715712
0.0016881565 -0.0027184163 0.005082936 -0.0021875445 -0.0015346867 0.009101729 0.007362798 0.012006976
0.0035855072
00000000: a596 caba 433c 2f3a b607 53b9 50a5 51ba
00000010: c751 243c 0157 e2ba 3f29 603b 94f5 5c3b
00000020: 2245 dd3a 7527 32bb c28e a63b e85c 0fbb
00000030: 8a27 c9ba 6b1f 153c a043 f13b e8b8 443c
00000040: d4fa 6a3b

combine_proj.weight f4 [128, 113]
-0.08371963 -0.117448494 -0.003934406 0.08823491 -0.044315852 0.016312256 0.027969675 0.16512412
0.21469325 0.08317976 -0.17236456 0.039184023 0.14413421 -0.16842002 0.034342084 0.10294085
-0.010709748 0.30727148 -0.22638671 0.008359654 4.464477e-05 -0.03482352 0.017486533 0.07948557
-0.006974617 0.043030452 -0.24076016 0.0075575775 0.012386198 0.19260345 0.03288733 -0.1975393
0.0863315 -0.07047505 -0.0022383907 0.04808154 -0.032124627 0.13522828 -0.08196559 -0.049540713
-0.13238527 0.050212294 0.094233714 -0.09050698 0.17523454 0.0252508 0.033874415 0.042689614
0.12841788 0.09767106 0.21702735 -0.18280865 -0.10496946 0.16258265 0.13181594 0.077552095
-0.105849534 0.0070696725 0.031121176 0.21116555 -0.07426155 0.09189109 -0.014611762 0.0275149
-0.072506934 0.019414514 0.2009839 0.0233151 -0.049928818 -0.074525364 -0.15657347 0.08244164
0.0110866595 0.1047845 -0.008253203 0.037572257 0.05972139 -0.095654294 0.153416 0.1413508
0.027918756 0.13231322 -0.0266474 -0.0017294141 -0.06966917 0.12272581 0.06433162 -0.08271766
0.116541356 0.021695541 0.17351374 0.28102148 0.045258135 0.0271918 -0.061701037 0.03488728
-0.03770301 0.19518538 0.088140436 0.040680137 0.24106282 -0.21973869 0.23054041 0.16604558
-0.11103805 -0.120785095 0.1709057 -0.07710874 0.115551546 0.084300786 -0.13235113 0.14986505
0.28626633 0.09176004 0.093152694 -0.12964828 0.012716336 0.02317324 0.12564774 -0.055405267
0.113243684 -0.02470635 0.002286718 -0.031497687 0.13897023 0.053345658 0.0619937 0.21006376
0.023021428 0.01823717 -0.0042054863 -0.097731695 -0.079337485 -0.085477985 0.14558204 -0.11825702
0.014049082 -0.06602638 0.18494923 0.112296775 0.030090693 0.009146597 0.015380946 -0.050540984
0.07589742 0.011237318 0.048304338 0.043953348 -0.1424791 -0.008796477 -0.0024337063 0.14447121
-0.10497875 -0.014562642 -0.09907556 0.06547322 0.015123477 -0.06138644 -0.06738556 -0.027379023
0.0061572045 -0.03336154 0.0053680297 0.0042449827 -0.004031705 -0.14531513 0.031666555 -0.059479516
0.08000012 -0.048991203 -0.07397831 0.03705589 -0.08321605 -0.107134335 0.009493638 -0.15472268
0.07794311 0.023608912 0.04538749 -0.10474414 -0.06096963 -0.09901997 -0.020586006 -0.14983177
-0.057945672 -0.11691397 -0.08531938 -0.015871681 0.001545077 0.051812965 0.012948827 -0.109600574
0.12639327 -0.017240077 0.060802862 0.19032793 0.01543008 -0.019041419 0.14254656 -0.14446013
-0.043861613 0.008798011 0.018278074 0.022494558 -0.14517933 0.1067815 0.03248949 -0.1658766
-0.13007735 0.15890762 0.17558348 0.16493653 0.010385448 0.085475236 0.09321701 -0.097116575
0.1218083 0.051979594 -0.2736823 0.021601152 -0.12459036 -0.11294525 0.0071902587 -0.10675749
0.12226836 0.14181094 -0.003835706 0.080111325 0.080235556 -0.03522292 -0.025074195 0.041167736
0.062138952 -0.07994412 -0.011706642 0.12469764 0.078940086 -0.046722412 -0.13269208 0.02465672
0.07997625 0.00968414 -0.1168013 -0.16300441 0.00018282725 -0.018224891 -0.039991073 -0.0033200474
0.02753293 -0.06760816 -0.04251249 -0.113821976 -0.118445836 -0.14630386 -0.08621101 0.18890849
00000000: 3375 abbd d688 f0bd 31ec 80bb 81b4 b43d
00000010: 8a84 35bd 48a1 853c a920 e53c 4c16 293e
00000020: 8cd8 5b3e 265a aa3d 5680 30be 6d7f 203d
00000030: eb97 133e 4c76 2cbe 49aa 0c3d a7d2 d23d
00000040: f077 2fbc b052 9d3e ebd1 67be eef6 083c
00000050: f540 3b38 1ba3 0ebd eb3f 8f3c 55c9 a23d
00000060: 548b e4bb b340 303d d589 76be 8ea5 f73b
00000070: 7bef 4a3c d739 453e ddb4 063d be47 4abe
00000080: 92ce b03d 3955 90bd f7b1 12bb 26f1 443d
00000090: 1d95 03bd 4879 0a3e 93dd a7bd 34eb 4abd
000000a0: 0190 07be 68ab 4d3d 9bfd c03d b95b b9bd
000000b0: af70 333e c4da ce3c e6bf 0a3d 4edb 2e3d
000000c0: fa7f 033e c407 c83d 6b3c 5e3e 3132 3bbe
000000d0: 3afa d6bd 117c 263e c2fa 063e a2d3 9e3d
000000e0: a4c7 d8bd b6a8 e73b d6f1 fe3c c83b 583e
000000f0: 7116 98bd 6531 bc3d 2c66 6fbc ed66 e13c
00000100: 847e 94bd 300b 9f3c b9ce 4d3e 4fff be3c
00000110: 2982 4cbd c1a0 98bd cc54 20be 2ad7 a83d
00000120: d2a4 353c 4299 d63d 7138 07bc 5ee5 193d
00000130: 6b9e 743d 66e6 c3bd 1519 1d3e 44be 103e
00000140: e0b5 e43c 1e7d 073e a64b dabc 82ad e2ba
00000150: b6ae 8ebd ab57 fb3d 4cc0 833d e067 a9bd
00000160: 3cad ee3d d9ba b13c 96ad 313e 0ce2 8f3e
00000170: 9860 393d 56c1 de3c 3aba 7cbd f7e5 0e3d
00000180: 796e 1abd adde 473e f982 b43d 37a0 263d
00000190: 2cd9 763e 2e03 61be c912 6c3e da07 2a3e
000001a0: eb67 e3bd 2d5e f7bd e701 2f3e 30eb 9dbd
000001b0: 4aa6 ec3d e4a5 ac3d 0e87 07be 3976 193e
000001c0: 8091 923e b0ec bb3d d7c6 be3d 85c2 04be
000001d0: 2e58 503c ced5 bd3c cda9 003e a2f0 62bd
000001e0: 4eec e73d f964 cabc c3dc 153b b803 01bd
000001f0: 364e 0e3e fa80 5a3d 1bed 7d3d f41a 573e
00000200: 6f97 bc3c 1e66 953c 2dce 89bb 8e27 c8bd
00000210: b17b a2bd 150f afbd 7513 153e bd30 f2bd
00000220: 1f2e 663c d738 87bd 5563 3d3e dafb e53d
00000230: c280 f63c 9cdb 153c 5d00 7c3c 1004 4fbd
00000240: 1b70 9b3d ba1c 383c c5da 453d 6d08 343d
00000250: 0be6 11be 191f 10bc d17e 1fbb 43f0 133e
00000260: 19ff d6bd 2698 6ebc 21e8 cabd d316 863d
00000270: 76c8 773c 5970 7bbd 7101 8abd f949 e0bc
00000280: 60c2 c93b 1ca6 08bd 4ce6 af3b 7f19 8b3b
00000290: 651c 84bb 7dcd 14be cab4 013d cba0 73bd
000002a0: 1ad7 a33d 00ab 48bd f181 97bd ebc7 173d
000002b0: 2d6d aabd 3f69 dbbd 348b 1b3c 9f6f 1ebe
000002c0: a3a0 9f3d 7a67 c13c 3ce8 393d 1884 d6bd
000002d0: 4abb 79bd fbca cabd fca3 a8bc 806d 19be
000002e0: 7158 6dbd 9770 efbd edbb aebd 5405 82bc
000002f0: 2e84 ca3a d539 543d 5127 543c 4476 e0bd
00000300: 3d6d 013e 103b 8dbc 6c0c 793d 53e5 423e
00000310: 72ce 7c3c c0fc 9bbc baf7 113e 5bed 13be
00000320: 3ca8 33bd 8825 103c e6bb 953c 8246 b83c
00000330: e4a9 14be 42b0 da3d b313 053d 8edb 29be
00000340: ff32 05be aeb8 223e 28cc 333e 1fe5 283e
00000350: ba27 2a3c a40d af3d 8fe8 be3d 0ee5 c6bd
00000360: a176 f93d 8ee8 543d 1620 8cbe e6f4 b03c
00000370: 3b29 ffbd d74f e7bd 439c eb3b aca3 dabd
00000380: d567 fa3d e336 113e 7860 7bbb 6811 a43d
00000390: 8a52 a43d e945 10bd 6668 cdbc 809f 283d
000003a0: 6a85 7e3d beb9 a3bd 37cd 3fbc 7a61 ff3d
000003b0: 57ab a13d 0060 3fbd 6fe0 07be e4fc c93c
000003c0: 97ca a33d 3aaa 1e3c 8535 efbd a1ea 26be
000003d0: 51b5 3f39 5e4c 95bc aecd 23bd 2795 59bb
000003e0: bd8c e13c 2676 8abd 9421 2ebd 7f1b e9bd
000003f0: bb93 f2bd aed0 15be 668f b0bd 3a71 413e

combine_proj.bias f4 [128]
-0.00026875327 -0.00075091125 0.00018012036 0.00022309809 0.0004126474 -0.0021143446 0.00090683554 0.0010013523
4.5618242e-05 0.0009526531 -5.0309005e-05 7.011196e-05 -0.0008452054 -0.0006904074 0.00046443183 -0.00019586096
-5.4782136e-06 0.00016864976 -0.0005796581 0.00036712768 -0.00020839329 0.0015209045 0.0008876753 0.00031473878
0.0001826508 0.0001516956 -0.00036212854 -0.0005214343 -0.0013759668 0.00073155225 4.3608088e-05 -0.00072747155
-0.0005912848 -0.00040303118 0.00014007959 0.00033091506 0.00044071345 -0.0001684981 0.000617088 0.00013692694
-6.472929e-05 2.457318e-05 -0.001100077 0.0003373682 -5.098901e-05 -0.00015418956 0.0018869229 -0.00046483453
0.0016552785 0.00065134966 -0.0003626424 -0.0013356983 2.524994e-05 0.00030121396 2.456146e-05 0.00049257686
0.0002048893 0.00012396515 -0.00046634095 -0.0009122975 0.00013784238 -0.0005517491 -0.0007959914 -8.548048e-06
0.0003726605 0.00051052385 0.000860968 -0.00042529305 -3.8327547e-05 0.0013271833 4.8968162e-05 -0.0001883061
0.0017691085 -0.00046398732 0.0009841581 -0.0012613743 0.0010501336 -0.00029231337 0.00092987955 -0.0006988391
0.00021579297 7.1847026e-05 -0.00028882604 7.738062e-05 0.00053737516 0.00092498324 -0.0011108124 -0.000373225
-0.00026697732 0.0009913163 -0.0010648071 0.0003779945 0.0011188756 0.0008098154 -0.0001261637 -0.0005889512
-0.000766617 0.000488699 0.00042033326 -0.0008368404 -0.0009917595 -0.0018218438 0.0004966426 0.00064612296
0.0009709703 0.0006307238 0.0003083846 -0.0002642963 0.0009583778 0.0013934092 0.00031811954 0.0009910554
-0.0013774355 0.00091943075 0.0018776216 1.2391824e-05 -0.0009975932 -4.9825438e-05 -0.00052109984 -0.0015221525
-0.0014953029 -0.0005500802 0.00032213726 -0.0009008695 7.809068e-06 -9.975029e-05 0.00036548515 0.0009507124
00000000: 74e7 8cb9 cdd8 44ba b1de 3c39 70ef 6939
00000010: 9958 d839 d190 0abb b4b8 6d3a cf3f 833a
00000020: 3756 3f38 78bb 793a e202 53b8 1209 9338
00000030: c690 5dba 75fc 34ba fc7e f339 0760 4db9
00000040: 7fd1 b7b6 93d7 3039 32f4 17ba 0b7b c039
00000050: 2684 5ab9 1659 c73a e2b2 683a 8603 a539
00000060: f385 3f39 7a10 1f39 12dc bdb9 ddb0 08ba
00000070: c959 b4ba a4c5 3f3a d4e7 3638 cab3 3eba
00000080: 7400 1bba ee4d d3b9 54e2 1239 ab7e ad39
00000090: 8f0f e739 ddae 30b9 13c4 213a 0c94 0f39
000000a0: 46bf 87b8 8122 ce37 7530 90ba cbe0 b039
000000b0: 08dd 55b8 f2ad 21b9 a052 f73a 09b5 f3b9
000000c0: eef5 d83a 56bf 2a3a 0a21 beb9 9912 afba
000000d0: d5cf d337 41ec 9d39 5509 ce37 4620 013a
000000e0: 8dd7 5639 a4fc 0139 397f f4b9 4027 6fba
000000f0: c889 1039 41a3 10ba 14aa 50ba 9669 0fb7
00000100: a561 c339 add4 053a 96b2 613a def9 deb9
00000110: e4c1 20b8 e2f4 ad3a 2a63 4d38 0974 45b9
00000120: 6ee1 e73a 5343 f3b9 defe 803a b354 a5ba
00000130: a3a4 893a a341 99b9 29c3 733a 4c32 37ba
00000140: 7c46 6239 94ac 9638 936d 97b9 6747 a238
00000150: a3de 0c3a 937a 723a ae98 91ba 69ad c3b9
00000160: 17f9 8bb9 0eef 813a ff90 8bba 902d c639
00000170: 3ca7 923a cb49 543a cf4a 04b9 d963 1aba
00000180: ccf6 48ba 091c 003a 2d60 dc39 695f 5bba
00000190: edfd 81ba efca eeba 1f31 023a 9460 293a
000001a0: b788 7e3a 2857 253a aeae a139 4091 8ab9
000001b0: a53b 7b3a 0ea3 b63a 48c9 a639 4de6 813a
000001c0: 118b b4ba f405 713a 871a f63a 7be6 4f37
000001d0: acc1 82ba a8fb 50b8 6b9a 08ba f682 c7ba
000001e0: 0afe c3ba 4233 10ba 88e4 a839 5428 6cba
000001f0: b103 0337 0731 d1b8 969e bf39 3b39 793a

fc1.weight f4 [128, 128]
0.063089296 0.1092413 0.06324366 -0.052816838 -0.07166918 0.11665374 0.18833487 -0.16803282
0.054350693 -0.05644909 -0.07289943 -0.10890582 0.034695324 -0.028635457 0.13806115 -0.10159094
0.031225918 -0.058451254 -0.11516359 -0.086770475 0.17754537 -0.016728668 0.10760336 0.098067686
0.16957209 -0.029520473 -0.13886307 -0.09405962 -0.17843358 0.17133382 0.008950682 0.103429236
-0.17947273 0.15999003 0.06920801 -0.095445454 0.01877624 -0.06017824 -0.05492885 0.12650007
0.04320197 -0.037734143 0.030996365 0.0072222464 0.00031193104 0.13646482 0.067746446 0.04159172
-0.10033565 0.033805333 -0.00146963 0.06489441 -0.0862426 0.028836071 -0.033360507 -0.044523228
0.13390812 0.048017666 -0.05884425 -0.019861963 -0.007490858 -0.00938803 -0.024349973 0.13474129
0.06877968 -0.038891137 0.064210735 -0.018778747 -0.082684964 -0.051076923 0.09768892 0.027781641
-0.16413876 0.11033731 -0.10706451 -0.19315034 -0.13105002 0.20165518 0.019126933 -0.03062171
0.0539156 -0.07536705 0.037718438 0.10774002 -0.19896682 0.03861731 -0.18393305 -0.059074175
-0.18620001 0.020336058 0.07642705 -0.046885196 0.0009548025 -0.049410947 -0.052195895 0.01624578
-0.20644514 -0.02010584 0.13617897 0.1599947 0.14516024 -0.19475707 -0.032810234 -0.18183751
-0.03742505 0.085641034 -0.18317153 0.12965101 0.110538416 -0.00052579626 -0.077647775 -0.152259
0.08440085 0.042340215 -0.14620101 -0.07837122 -0.10964062 0.038472053 -0.17332591 -0.028829996
0.10401823 -0.10824877 -0.02475235 -0.04785511 -0.13597688 0.09585834 -0.30566964 -0.00643053
0.11598512 -0.018128062 0.037978258 0.053818762 -0.033912946 0.1764131 0.19335616 -0.0978037
0.1083985 -0.009888679 0.045495607 -0.13986516 0.07925965 0.07249746 0.1304532 -0.045917608
0.09994158 -0.11730406 0.050947346 -0.04117093 0.055005055 0.12789048 -0.12856112 0.011165408
-0.012297149 -0.11328591 0.06749502 0.00053956744 -0.010484013 0.028726513 -0.046807867 0.21452464
0.16680716 -0.07233553 -0.036669206 -0.06242224 0.16611628 -0.20151871 0.028764049 0.06575833
-0.003689159 -0.07295999 -0.074316055 0.04012421 0.028009562 0.03425895 0.16994509 -0.31132028
-0.12957756 0.04850157 0.17537497 -0.06298549 0.0752145 0.17956854 0.14085875 -0.06403771
0.019217733 -0.09138872 0.09171301 -0.19472545 0.067801885 0.07317815 -0.17381237 -0.06755355
-0.13374196 -0.12480405 -0.051330365 0.0651186 -0.07463941 -0.087797455 0.07874445 -0.10024565
-0.07307647 -0.036117468 0.048878744 -0.025445601 -0.10812969 0.0286027 0.18295796 0.0021536346
0.12324517 -0.06673049 0.053584624 -0.16857724 -0.13969584 0.17289026 0.01476431 -0.08057906
0.07549408 0.16652669 0.24968119 0.026203535 0.0556547 0.15647243 -0.043576334 -0.17488956
0.047322676 -0.027094422 0.032275468 -0.09451402 0.20765118 0.1482938 0.0783263 0.03029778
0.08524509 0.051864192 0.077977456 -0.12715587 0.0046531265 -0.07854885 -0.03151396 -0.133826
-0.07032864 0.10452407 0.033481523 -0.027952999 -0.18326782 -0.16083492 -0.15273537 -0.022417882
-0.024915652 -0.18347628 -0.12605275 0.043951064 0.16321008 0.104475446 -0.23606068 0.077337995
00000000: f634 813d e7b9 df3d e485 813d 7856 58bd
00000010: 4bc7 92bd 28e8 ee3d dbda 403e cc10 2cbe
00000020: d59e 5e3d 2937 67bd 4c4c 95bd 040a dfbd
00000030: af1c 0e3d e894 eabc e75f 0d3e e90e d0bd
00000040: 7fcd ff3c 956a 6fbd e3da ebbd b8b4 b1bd
00000050: 74ce 353e 8f0a 89bc 275f dc3d b6d7 c83d
00000060: 4ea4 2d3e ebd4 f1bc 1f32 0ebe 54a2 c0bd
00000070: 4bb7 36be 2272 2f3e e2a5 123c b5d2 d33d
00000080: b3c7 37be 6dd4 233e eebc 8d3d e878 c3bd
00000090: a1d0 993c 757d 76bd 13fd 60bd 3c89 013e
000000a0: 8df4 303d 1e8f 1abd 17ec fd3c 98a8 ec3b
000000b0: ad8a a339 6fbd 0b3e a6be 8a3d 145c 2a3d
000000c0: c77c cdbd 7677 0a3d 9aa0 c0ba 5ce7 843d
000000d0: f69f b0bd a039 ec3c 07a5 08bd fd5d 36bd
000000e0: 361f 093e 2cae 443d ab06 71bd 8eb5 a2bc
000000f0: df75 f5bb 40d0 19bc 9879 c7bc 9ff9 093e
00000100: 5cdc 8c3d 504c 1fbd eb80 833d e3d5 99bc
00000110: bc56 a9bd 0936 51bd 2111 c83d 5396 e33c
00000120: fe13 28be 87f8 e13d a344 dbbd 34c9 45be
00000130: fa31 06be b27e 4e3e 16b0 9c3c 61da fabc
00000140: 9bd6 5c3d 0a5a 9abd a67e 1a3d cda6 dc3d
00000150: f5bd 4bbe 2f2d 1e3d f258 3cbe c3f7 71bd
00000160: 37ab 3ebe ce97 a63c c985 9c3d b10a 40bd
00000170: b64b 7a3a 2263 4abd 5dcb 55bd df15 853c
00000180: 5b66 53be 01b5 a4bc 8072 0b3e a7d5 233e
00000190: e3a4 143e 666e 47be 0664 06bd 9d33 3abe
000001a0: 024b 19bd 9164 af3d 5191 3bbe 3cc3 043e
000001b0: f761 e23d 97d5 09ba cc05 9fbd c9e9 1bbe
000001c0: 5ada ac3d ef6c 2d3d b8b5 15be 1781 a0bd
000001d0: 438b e0bd df94 1d3d 597c 31be e22c ecbc
000001e0: 8307 d53d 88b1 ddbd 71c5 cabc b803 44bd
000001f0: 863d 0bbe 6151 c43d bb80 9cbe 32b7 d2bb
00000200: 9b89 ed3d 4d81 94bc 178f 1b3d 1071 5c3d
00000210: 4de8 0abd a3a5 343e 28ff 453e 4e4d c8bd
00000220: 0800 de3d 2004 22bc 9a59 3a3d d038 0fbe
00000230: e252 a23d 8c79 943d 8695 053e 1a14 3cbd
00000240: 2cae cc3d 1c3d f0bd 2aae 503d d9a2 28bd
00000250: fb4c 613d b9f5 023e 87a5 03be 1eef 363c
00000260: fb79 49bc 7102 e8bd d43a 8a3d c271 0d3a
00000270: 23c5 2bbc dd53 eb3c 9bb9 3fbd 59ac 5b3e
00000280: 7fcf 2a3e a624 94bd 7332 16bd 76ae 7fbd
00000290: 631a 2a3e ec5a 4ebe 95a2 eb3c 4eac 863d
000002a0: d1c5 71bb 0c6c 95bd 0433 98bd 4959 243d
000002b0: 4f74 e53c 1d53 0c3d 1606 2e3e 5f65 9fbe
000002c0: fbaf 04be 95a9 463d 7f95 333e 89fe 80bd
000002d0: 0f0a 9a3d d1e0 373e 473d 103e 3426 83bd
000002e0: 826e 9d3c 022a bbbd 08d4 bb3d 1c66 47be
000002f0: b7db 8a3d 6dde 953d dffb 31be 8459 8abd
00000300: a7f3 08be 4499 ffbd ca3f 52bd e75c 853d
00000310: 8cdc 98bd 27cf b3bd c544 a13d 974d cdbd
00000320: 1ea9 95bd e9ef 13bd 1435 483d 4b73 d0bc
00000330: 1973 ddbd 3650 ea3c 5559 3b3e fe23 0d3b
00000340: f767 fc3d ffa9 88bd 8d7b 5b3d 839f 2cbe
00000350: 6d0c 0fbe 250a 313e 01e6 713c a206 a5bd
00000360: a49c 9a3d f985 2a3e 6dac 7f3e cca8 d63c
00000370: 2ff6 633d 4f3a 203e 197d 32bd 4016 33be
00000380: 6cd5 413d 1ff5 ddbc 4833 043d 9190 c1bd
00000390: 83a2 543e 54da 173e 8a69 a03d 0d33 f83c
000003a0: fa94 ae3d 8c6f 543d a5b2 9f3d 2635 02be
000003b0: 4179 983b 38de a0bd c814 01bd af09 09be
000003c0: 7608 90bd b710 d63d ec23 093d b0fd e4bc
000003d0: 8faa 3bbe e9b1 24be a966 1cbe b5a5 b7bc
000003e0: e91b ccbc 35e1 3bbe f913 01be 0806 343d
000003f0: 8b20 273e 39f7 d53d e4b9 71be 6263 9e3d

fc1.bias f4 [128]
-0.00015595356 0.00021763281 -0.0010628146 -0.00013045037 0.00021700567 -0.00025340673 -0.0008488862 0.0006489979
0.00093629415 5.4495737e-05 -0.00064945366 -0.00040198534 0.0001803823 0.00044840237 0.00066572183 -8.491593e-05
2.4864357e-05 -0.0009931255 0.00037440634 -0.00026018746 0.00027304085 0.00072736474 0.0002468772 0.0002306693
-0.00047989204 -0.00023116881 4.1915213e-05 0.00015182873 0.00043792737 0.0012070239 0.00016603734 -0.0008517235
0.00038052863 -0.0003171756 -2.4883324e-05 0.000647261 -0.00013071675 -0.00016098995 3.4327615e-05 -9.729564e-05
-0.00068383204 -0.0007946921 -0.00031211533 0.00040876016 -2.6474201e-05 -0.00035512962 -2.618856e-05 -9.9749495e-06
-1.1155592e-05 -0.00050104747 -0.00021702018 0.0006199897 0.0005642388 0.0006365159 0.0010990775 0.0003095972
-0.00012401694 0.0003192163 -0.0004419065 -0.00039585878 -0.00018339771 -0.00051552034 -0.00041579106 -0.0003480714
0.00073609216 -0.0008076571 -0.00036936524 0.00025647934 -2.9450663e-05 -0.0007960503 0.00019279425 0.00026371455
0.00041293926 -3.536241e-05 5.5545934e-05 -0.0016813403 -0.00056876533 -6.927325e-05 -0.00029589515 0.00037344152
-0.00030339995 0.0006471693 -0.00015163477 0.0001923961 -0.0012078803 -0.00018084663 0.00060757867 -0.00056772644
-0.00010743605 0.0012331828 -0.0005188846 -0.00010598333 -1.40879265e-05 2.6972428e-05 5.5059063e-05 0.00043495971
0.00030861908 0.00016392424 0.00025451113 0.00031572438 0.00046606033 -0.00018570187 0.0012725833 0.0006331866
0.00043352088 -0.00011581166 -0.0011066695 0.0001691426 0.0006426994 0.0003895798 -2.7443655e-05 0.00053008547
0.00032314536 2.774813e-05 -0.00010158835 0.0006430578 0.00037031612 0.00017686849 5.8599064e-05 -0.0004143218
-0.00016123208 -0.00011234175 0.001253114 -0.00084351737 -0.0002894049 -3.1766224e-06 -0.00012240096 0.0005751274
00000000: 7787 23b9 5d34 6439 244e 8bba 81c9 08b9
00000010: 048c 6339 addb 84b9 ca87 5eba 8321 2a3a
00000020: a371 753a 5a92 6438 1940 2aba 8fc1 d2b9
00000030: 0125 3d39 8c17 eb39 d683 2e3a e514 b2b8
00000040: cd93 d037 c32b 82ba f84b c439 c569 88b9
00000050: ec26 8f39 9fac 3e3a 4c6f 8139 d2df 7139
00000060: 059a fbb9 e865 72b9 1ece 2f38 3734 1f39
00000070: 9e99 e539 0035 9e3a 4f1a 2e39 3246 5fba
00000080: b081 c739 974a a6b9 88bc d0b7 f3ac 293a
00000090: 0311 09b9 69cf 28b9 fffa 0f38 330b ccb8
000000a0: 3143 33ba e252 50ba 69a3 a3b9 dc4e d639
000000b0: ea14 deb7 b130 bab9 81af dbb7 155a 27b7
000000c0: e728 3bb7 ba58 03ba e98f 63b9 ce86 223a
000000d0: 6de9 133a dcdb 263a ec0e 903a 6f51 a239
000000e0: 8b0a 02b9 7d5c a739 b0af e7b9 448b cfb9
000000f0: 734e 40b9 fc23 07ba 88fe d9b9 5a7d b6b9
00000100: 4ff6 403a f3b8 53ba 5da7 c1b9 1378 8639
00000110: d10c f7b7 08ae 50ba d028 4a39 2b43 8a39
00000120: c57f d839 1952 14b8 fef9 6838 6b60 dcba
00000130: 3219 15ba cb46 91b8 6022 9bb9 79ca c339
00000140: a711 9fb9 cca6 293a 2600 1fb9 efbd 4939
00000150: bd51 9eba a6a1 3db9 ea45 1f3a 7ad3 14ba
00000160: 4a4f e1b8 c0a2 a13a c205 08ba 5e43 deb8
00000170: 2f5b 6cb7 d942 e237 38ef 6638 4e0b e439
00000180: 27ce a139 14e3 2b39 e86f 8539 cf87 a539
00000190: 8f59 f439 f7b8 42b9 cfcc a63a 6ffc 253a
000001a0: 304a e339 e9df f2b8 ab0d 91ba df5b 3139
000001b0: d47a 283a 8440 cc39 cd36 e6b7 6ff5 0a3a
000001c0: d66b a939 a8c4 e837 d50b d5b8 e192 283a
000001d0: fd26 c239 c675 3939 44c8 7538 5539 d9b9
000001e0: 6810 29b9 0599 ebb8 873f a43a 7e1f 5dba
000001f0: 45bb 97b9 f52d 55b6 c258 00b9 25c4 163a

bn1.weight f4 [128]
0.87829006 0.9501226 0.99468863 0.9644797 0.94419396 0.9224081 0.8527391 0.8617443
1.0002029 1.0151842 0.98700094 0.9918571 0.8975714 0.940499 1.0448506 1.019037
0.9423567 1.0042697 1.0098772 0.9789917 0.99357533 1.0190152 0.83095384 0.9465675
1.0079153 1.0200146 1.0673597 0.9964983 0.9703476 0.9474299 0.8285171 1.0167705
0.8355673 0.9863871 0.983059 0.7802162 0.68160725 1.0302246 0.9724842 0.95660806
0.9577742 1.016435 0.9951831 0.9095488 0.8388811 0.87986785 0.9512035 0.83034486
0.9878674 0.9415769 1.0166894 0.8559912 0.96428615 0.8835565 0.92877173 1.139386
0.923731 0.97092664 0.87877226 1.0075253 0.94180363 0.9312466 0.94426733 0.92580575
1.0075343 0.9768457 1.0471115 1.0084877 1.0473624 1.069304 0.8514749 1.0030017
0.94334424 0.78087044 0.98095274 1.0108169 0.9659755 1.0068178 0.9937027 0.9360839
0.8356473 1.0144994 0.9731858 0.88947123 1.010245 0.99800897 0.87485033 0.9618331
0.840079 0.98944145 0.93897563 0.75308156 0.9287115 0.9560842 0.9985815 0.99590784
0.93709517 0.92903775 0.88338953 0.95969397 0.8938053 0.9373396 0.9948824 0.964246
0.8916979 0.9453983 0.9086943 1.0026152 1.0086905 0.9710754 0.92053145 1.0518818
0.94897133 0.99106795 0.9661068 0.832704 1.043996 0.97129864 0.9671023 0.9157721
0.95996827 1.051348 0.93699896 0.9030627 0.95607394 1.022655 1.0366787 0.9940574
00000000: 9ed7 603f 3c3b 733f eaa3 7e3f 24e8 763f
00000010: b2b6 713f f022 6c3f 1c4d 5a3f 469b 5c3f
00000020: a606 803f 8ef1 813f 18ac 7c3f 59ea 7d3f
00000030: 3dc7 653f 8bc4 703f aabd 853f ce6f 823f
00000040: 4a3e 713f e98b 803f a843 813f 339f 7a3f
00000050: f45a 7e3f 176f 823f 64b9 543f 3f52 723f
00000060: 5e03 813f d78f 823f 3e9f 883f 831a 7f3f
00000070: b368 783f c48a 723f b219 543f 8925 823f
00000080: bde7 553f dd83 7c3f c1a9 7b3f 40bc 473f
00000090: d07d 2e3f 66de 833f b9f4 783f 44e4 743f
000000a0: b130 753f 8b1a 823f 52c4 7e3f 31d8 683f
000000b0: e9c0 563f 053f 613f 1382 733f 7b91 543f
000000c0: e1e4 7c3f 2f0b 713f e122 823f 3d22 5b3f
000000d0: 75db 763f c230 623f fcc3 6d3f 67d7 913f
000000e0: a379 6c3f a68e 783f 38f7 603f 97f6 803f
000000f0: 0b1a 713f 2d66 6e3f 81bb 713f 9b01 6d3f
00000100: e2f6 803f 8f12 7a3f c007 863f 2016 813f
00000110: f90f 863f f4de 883f 42fa 593f 5c62 803f
00000120: 027f 713f 20e7 473f b81f 7b3f 7362 813f
00000130: 2c4a 773f 68df 803f 4d63 7e3f 32a3 6f3f
00000140: fbec 553f 1edb 813f b422 793f 63b4 633f
00000150: b54f 813f 847d 7f3f 31f6 5f3f b23a 763f
00000160: 6b0f 573f 094c 7d3f b560 703f f4c9 403f
00000170: 09c0 6d3f efc1 743f 0aa3 7f3f d1f3 7e3f
00000180: 78e5 6f3f 6bd5 6d3f d125 623f 81ae 753f
00000190: 6dd0 643f 7df5 6f3f 9db0 7e3f d3d8 763f
000001a0: 5046 643f 9f05 723f 31a0 683f b255 803f
000001b0: c51c 813f 6698 783f f3a7 6b3f 10a4 863f
000001c0: c9ef 723f a1b6 7d3f c652 773f 172c 553f
000001d0: a9a1 853f 07a7 783f 0494 773f 0a70 6a3f
000001e0: 7bc0 753f 9292 863f 2adf 6f3f 1e2f 673f
000001f0: 43c1 743f 5ce6 823f e3b1 843f 8c7a 7e3f

bn1.bias f4 [128]
-0.37855172 -0.37370852 -0.2957049 -0.31551307 -0.2722025 -0.29077268 -0.5438547 -0.29804775
-0.1410059 -0.2823414 -0.31796062 -0.28375018 -0.5170758 -0.26812732 -0.26716253 -0.26052874
-0.37734094 -0.20899035 -0.33879605 -0.2868166 -0.26431707 -0.2544608 -0.49298075 -0.31992084
-0.2559826 -0.2662748 -0.103761636 -0.26088148 -0.18978134 -0.2966299 -0.36041343 -0.049822416
-0.41268253 -0.38064906 -0.28592426 -0.46622273 -0.34337696 -0.19678488 -0.28823245 -0.34452143
-0.346334 -0.25651377 -0.25922 -0.5108579 -0.38673317 -0.48631626 -0.31390986 -0.50453806
-0.25503245 -0.3193303 -0.2513427 -0.45637703 -0.35289317 -0.37837467 -0.34366813 -0.032109268
-0.077031046 -0.3692217 -0.43354598 -0.31499764 -0.2552745 -0.29004982 -0.29085344 -0.024472483
-0.24694386 -0.25044122 -0.23265162 -0.19960345 0.014996327 -0.07389948 -0.36350003 -0.04738056
-0.33407658 -0.5699728 -0.2683539 -0.29012915 -0.30709004 -0.294461 -0.03402188 -0.30013323
-0.4631352 -0.23167689 -0.34540778 -0.29807717 -0.22144702 -0.26122445 -0.37656313 -0.33967316
-0.42789203 -0.37938127 -0.28544882 -0.4518008 -0.29717383 -0.34506637 -0.25904962 -0.20788996
-0.3440448 -0.30788013 -0.38637108 -0.3232381 -0.40584698 -0.36068678 -0.28631917 -0.3830717
-0.38536876 -0.27549046 -0.3257944 -0.326794 -0.055637565 -0.32105112 -0.38967335 -0.034906514
-0.31171533 -0.040785063 -0.2379899 -0.4739124 -0.1929502 -0.27432546 -0.34946528 -0.30362156
-0.32349312 -0.24610521 -0.30344683 -0.054713517 -0.32379192 -0.2943634 -0.30279943 -0.3111904
00000000: 88d1 c1be b956 bfbe a266 97be ee8a a1be
00000010: 205e 8bbe 28e0 94be 103a 0bbf b799 98be
00000020: da63 10be 0d8f 90be bccb a2be b447 91be
00000030: 145f 04bf fc47 89be 87c9 88be 0664 85be
00000040: d532 c1be 9101 56be ad76 adbe a0d9 92be
00000050: 9154 87be b048 82be f967 fcbe aacc a3be
00000060: 2710 83be 2c55 88be fb80 d4bd 4292 85be
00000070: 0a56 42be e0df 97be 1c88 b8be 9712 4cbd
00000080: 204b d3be 6fe4 c2be aa64 92be bfb4 eebe
00000090: 1bcf afbe fa81 49be 3493 93be 1d65 b0be
000000a0: b152 b1be c655 83be 7cb8 84be 95c7 02bf
000000b0: e401 c6be 72fe f8be cbb8 a0be 6829 01bf
000000c0: 9d93 82be 437f a3be feaf 80be 40aa e9be
000000d0: 6aae b4be 53ba c1be 45f5 afbe 0285 03bd
000000e0: 74c2 9dbd a00a bdbe bdf9 ddbe 5f47 a1be
000000f0: 57b3 82be 6981 94be beea 94be 847a c8bc
00000100: dade 7cbe d539 80be 3a3c 6ebe d964 4cbe
00000110: 28b3 753c 9c58 97bd ad1c babe 1e12 42bd
00000120: 160c abbe bde9 11bf af65 89be cf8b 94be
00000130: e83a 9dbe 98c3 96be 875a 0bbd 10ab 99be
00000140: 0f20 edbe b53c 6dbe 4ad9 b0be 929d 98be
00000150: 02c3 62be 36bf 85be e2cc c0be a4e9 adbe
00000160: aa14 dbbe 433e c2be 5926 92be 6f52 e7be
00000170: 2b27 98be 8aac b0be 27a2 84be 1be1 54be
00000180: a426 b0be 77a2 9dbe 6ed2 c5be 777f a5be
00000190: 2dcb cfbe f0ab b8be 6d98 92be f921 c4be
000001a0: 0e4f c5be 160d 8dbe 86ce a6be 8b51 a7be
000001b0: 37e4 63bd d060 a4be 4483 c7be 22fa 0ebd
000001c0: 2799 9fbe 3d0e 27bd a0b3 73be a5a4 f2be
000001d0: bd94 45be 6374 8cbe 1ded b2be 4974 9bbe
000001e0: e4a0 a5be 0103 7cbe 625d 9bbe 481b 60bd
000001f0: 0ec8 a5be cdb6 96be 8708 9bbe 5954 9fbe

bn1.running_mean f4 [128]
-0.35071912 -0.079683855 -0.28423044 -0.118408106 -0.16079806 -0.13618673 -0.46922517 -0.1825637
-0.22556989 -0.24697003 -0.27102435 -0.19593269 -0.4361718 -0.22379953 -0.1490038 -0.1200521
-0.20357691 -0.016198657 -0.047527075 -0.12821421 -0.30950493 -0.06625758 -0.25935215 -0.31465018
-0.14072803 -0.16050792 0.44231614 -0.2372932 -0.2117389 -0.18772805 -0.32716545 0.36743236
-0.38508 -0.12772118 -0.20782226 -0.27236438 0.13935024 -0.30166516 -0.116005085 -0.1935065
-0.27041513 -0.09125863 -0.0032930968 -0.47238192 -0.24865839 -0.39769349 -0.3030939 -0.4017748
-0.111978516 -0.20171455 -0.084750585 -0.40372488 -0.049785268 -0.30394286 -0.24906184 0.42740822
0.3588136 -0.18071629 -0.29414964 -0.20723271 -0.015003875 -0.19520625 -0.24311206 0.32326615
-0.12366828 -0.16935034 0.08347804 -0.057836343 0.37392515 0.36842167 -0.3280965 0.40816388
-0.07020818 -0.3366982 -0.1542138 -0.17341955 -0.11522212 -0.16311236 0.37497148 -0.06408088
-0.30282876 -0.15624656 -0.1529592 -0.19044471 -0.1266883 -0.012584362 -0.27061945 -0.050741825
-0.16005416 -0.16428496 -0.06812013 -0.26651877 -0.35246262 -0.14188935 0.011725964 -0.08116856
-0.1573183 0.0359502 -0.29737833 -0.17504983 -0.17115816 -0.26345074 -0.17481858 -0.108930625
-0.27879345 -0.16867784 -0.34568003 -0.09022264 0.34847993 -0.28968793 -0.37380373 0.41409606
-0.23727229 0.33896428 -0.12273444 -0.3949112 -0.05187129 -0.13130575 -0.1545407 0.06818628
-0.27671215 -0.123150185 0.01625249 0.28931063 -0.24615543 -0.087686054 -0.11794152 -0.1265343
00000000: 7591 b3be 4a31 a3bd a786 91be f37f f2bd
00000010: 3fa8 24be 8974 0bbe 483e f0be fbf1 3abe
00000020: cbfb 66be b6e5 7cbe b4c3 8abe 94a2 48be
00000030: e951 dfbe b42b 65be 7494 18be e0dd f5bd
00000040: 7776 50be 0cb3 84bc c0ab 42bd 964a 03be
00000050: 6e77 9ebe 0eb2 87bd cec9 84be d419 a1be
00000060: 021b 10be 305c 24be 4377 e23e fdfc 72be
00000070: 15d2 58be c83b 40be 3b82 a7be 1820 bc3e
00000080: 3529 c5be 57c9 02be 5ccf 54be 5873 8bbe
00000090: d4b1 0e3e db73 9abe 1394 edbd 9126 46be
000000a0: da73 8abe cee5 babd ffd0 57bb 0bdc f1be
000000b0: 4ea0 7ebe 7b9e cbbe 202f 9bbe 6db5 cdbe
000000c0: fe54 e5bd 428e 4ebe b791 adbd 07b5 cebe
000000d0: a3eb 4bbd 669e 9bbe 110a 7fbe 40d5 da3e
000000e0: 6bb6 b73e b10d 39be c89a 96be d034 54be
000000f0: d0d2 75bc 26e4 47be 5ef2 78be 2483 a53e
00000100: cc45 fdbd 2d6a 2dbe 89f6 aa3d cde5 6cbd
00000110: 1e73 bf3e c4a1 bc3e 44fc a7be dbfa d03e
00000120: 4ec9 8fbd b563 acbe 39ea 1dbe e594 31be
00000130: 93f9 ebbd ed06 27be 43fc bf3e d63c 83bd
00000140: 5f0c 9bbe 19ff 1fbe 56a1 1cbe f003 43be
00000150: 94ba 01be a42e 4ebc a28e 8abe a9d6 4fbd
00000160: 3de5 23be 513a 28be 9182 8bbd 2675 88be
00000170: fb75 b4be 714b 11be 421e 403c b43b a6bd
00000180: 0c18 21be 8440 133d f941 98be 4340 33be
00000190: 1644 2fbe 04e3 86be a403 33be 0517 dfbd
000001a0: 04be 8ebe e2b9 2cbe f9fc b0be a6c6 b8bd
000001b0: f66b b23e fa51 94be 3463 bfbe 6604 d43e
000001c0: 82f7 72be ba8c ad3e 325c fbbd cd31 cabe
000001d0: fd76 54bd 0475 06be eb3f 1ebe 40a5 8b3d
000001e0: 37ad 8dbe 2a36 fcbd f123 853c 8620 943e
000001f0: 2b10 7cbe bf94 b3bd 538b f1bd 3592 01be

bn1.running_var f4 [128]
323.58826 499.2162 536.51825 537.2476 415.58914 412.1798 451.60242 211.27536
664.0045 547.866 571.8862 651.4265 440.63818 604.41754 519.7469 661.7262
648.92554 459.90622 518.26434 637.0012 713.86725 557.8592 382.00293 615.00287
509.19055 470.80865 492.94675 511.74396 494.79126 537.1047 420.4066 425.42078
345.46088 507.42804 638.54846 330.89966 171.90167 388.5564 585.7445 441.65787
529.3294 307.1783 454.4118 526.09015 352.99774 344.54813 557.5624 495.28073
499.64383 463.1738 483.66794 362.0315 411.11295 455.8494 470.63953 420.1761
374.17947 418.11572 437.16348 856.8383 532.84326 602.59534 529.6574 285.1708
533.1581 547.95325 425.4649 532.9098 463.2552 378.23083 444.88208 462.65472
480.3186 378.62613 612.5438 654.83704 519.5892 568.7102 353.48206 538.08527
327.52267 764.6563 652.2916 545.97296 583.79987 505.63666 352.359 536.5703
388.93604 400.4679 437.46652 329.96094 386.97223 700.106 658.2678 580.5084
617.5801 375.9637 290.16476 428.57355 403.7627 477.4063 574.0407 506.18948
323.4123 374.76495 590.2557 761.0476 339.50696 460.39798 626.66046 459.9577
524.091 334.08304 525.90326 336.69345 561.2914 556.92017 502.10004 456.1067
415.91797 586.2534 409.92587 258.9149 538.73865 576.41846 539.7289 593.2739
00000000: 4ccb a143 ac9b f943 2b21 0644 d94f 0644
00000010: 69cb cf43 0417 ce43 1ccd e143 7e46 5343
00000020: 4a00 2644 6df7 0844 b8f8 0e44 4cdb 2244
00000030: b051 dc43 b91a 1744 cdef 0144 7a6e 2544
00000040: 3c3b 2244 fff3 e543 eb90 0144 1440 1f44
00000050: 8177 3244 fd76 0b44 6000 bf43 2fc0 1944
00000060: 6498 fe43 8267 eb43 2f79 f643 3adf ff43
00000070: 4865 f743 b346 0644 0b34 d243 dcb5 d443
00000080: feba ac43 cab6 fd43 1aa3 1f44 2873 a543
00000090: d4e6 2b43 3847 c243 a66f 1244 35d4 dc43
000000a0: 1555 0444 d396 9943 b634 e343 c585 0344
000000b0: b67f b043 2946 ac43 fe63 0b44 efa3 f743
000000c0: 69d2 f943 3f96 e743 7fd5 f143 0804 b543
000000d0: 758e cd43 b9ec e343 dc51 eb43 8a16 d243
000000e0: f916 bb43 d00e d143 ed94 da43 a735 5644
000000f0: f835 0544 1aa6 1644 136a 0444 dd95 8e43
00000100: 1e4a 0544 02fd 0844 82bb d443 3a3a 0544
00000110: aaa0 e743 8c1d bd43 e870 de43 ce53 e743
00000120: c828 f043 2550 bd43 ce22 1944 92b5 2344
00000130: b5e5 0144 742d 0e44 b4bd b043 7585 0644
00000140: e7c2 a343 012a 3f44 aa12 2344 457e 0844
00000150: 31f3 1144 7ed1 fc43 f42d b043 8024 0644
00000160: d077 c243 e43b c843 b7bb da43 00fb a443
00000170: 727c c143 c906 2f44 2491 2444 8a20 1144
00000180: 2065 1a44 5bfb bb43 1715 9143 6a49 d643
00000190: a0e1 c943 02b4 ee43 9b82 0f44 4118 fd43
000001a0: c6b4 a143 ea61 bb43 5d90 1344 0c43 3e44
000001b0: e4c0 a943 f132 e643 45aa 1c44 96fa e543
000001c0: d305 0344 a10a a743 cf79 0344 c358 a843
000001d0: a652 0c44 e43a 0b44 ce0c fb43 a80d e443
000001e0: 80f5 cf43 3890 1244 83f6 cc43 1b75 8143
000001f0: 46af 0644 c81a 1044 a6ee 0644 8851 1444
