models/hybrid_neurons_pretrained/MLP2_HUMAN_BERT_2_att.pth (torch, 648774 bytes, 34 tensors)

embedding_proj.weight f4 [96, 1152]
000000 0c c5 6e bd fe 01 59 3c a6 06 cd bb 09 02 15 bc
       -0.058293387 0.013245104 -0.006256896 -0.0090947235
000010 50 4b bd bc 22 50 f8 bc 31 e2 e0 3d f3 c6 0e bc
       -0.0231072 -0.030311648 0.109806426 -0.008714425
000020 ae cc a5 bd 4b 3b 5c bd cb 89 83 3d 1b d7 da bd
       -0.0809568 -0.053767484 0.06422766 -0.10685559
000030 c0 d3 79 bc a7 c5 71 bd c5 68 c1 bc bc a1 8a 3a
       -0.015248239 -0.059026387 -0.023609528 0.0010576765
000040 b4 3a d3 3c c1 d7 7d 3c c5 85 19 bd 3e 36 bd 3c
       0.025784828 0.015493334 -0.03748109 0.023097154
000050 07 49 8a 3c 70 1a 8f 3d f9 c2 03 be c6 78 b9 3c
       0.016880525 0.069874644 -0.12867345 0.022640597
000060 b5 12 65 bc 26 51 b4 3d c3 06 d2 3d ae ee 2e 3a
       -0.013981511 0.0880454 0.10255196 0.0006673139
000070 40 e6 d2 bc 81 ab 48 3e 4b c8 05 3c 36 37 24 3c
       -0.025744557 0.19596674 0.008165429 0.010022929
000080 ec 49 ca bb 81 64 95 3d 27 e8 0d 3e 0a 4c 37 3d
       -0.006173363 0.0729456 0.1385809 0.04475025
000090 96 fe 5a 3d 92 52 d6 bd e6 33 f0 bb 00 00 07 3e
       0.05346545 -0.10464968 -0.0073304055 0.13183594
0000a0 7a 65 40 be 24 68 c1 3d c9 b7 83 3c 48 e7 ab bd
       -0.1878871 0.094436914 0.016078847 -0.08393723
0000b0 fb ee 05 bb f3 2b 8c bd 52 c8 01 be 3c db 53 bd
       -0.0020436633 -0.0684432 -0.12674072 -0.05172275
0000c0 72 29 1e 3d 29 a7 f2 3a 45 ef 76 bd ea 64 cd 3d
       0.038613744 0.0018512952 -0.06028678 0.100290135
0000d0 7e 90 67 bd 29 8e cd 3c 5a 4f 18 3d 54 26 51 3d
       -0.056534283 0.025092201 0.03718505 0.051061943
0000e0 c4 e9 e3 bc 3b ca a1 3d 87 52 42 3d 96 33 a3 bd
       -0.02782143 0.078999005 0.047441985 -0.079688236
0000f0 b0 46 8e bc 46 2e 6b bd 6b b7 bd 3c ea 84 95 3d
       -0.01736769 -0.057417177 0.02315875 0.07300742
000100 37 da b8 bd 77 9c 20 3e ca 75 b9 3d ac 37 c9 bd
       -0.09025996 0.15684687 0.090556696 -0.09825072
000110 88 29 0e bd 0f 2d 84 bd 20 55 32 be 20 7d a9 3b
       -0.034707576 -0.06453907 -0.17415285 0.0051723868
000120 02 2a 26 bd 94 28 ce bd 77 b4 b7 bd 66 22 88 3d
       -0.040567406 -0.100663334 -0.08969968 0.06647186
000130 57 4f 74 bd 91 7d 15 be 62 d3 23 3d 94 34 39 3c
       -0.059645977 -0.14598681 0.039996512 0.0113040395
000140 8e b1 60 b9 50 2c d9 3d 11 39 ee 3d 9d de 15 bd
       -0.00021428449 0.10604155 0.11631978 -0.036589254
000150 1b 97 82 3d 1c b9 59 bd 82 28 1b be a8 3f 59 3d
       0.06376477 -0.05315505 -0.15152171 0.053039223
000160 29 ce 9e bc 98 2c ed 3d 36 61 45 3e 93 bc 00 3d
       -0.019385414 0.11580771 0.19275364 0.03142984
000170 64 4e 44 bd 6f bb dd 3d cb 23 b7 bd e4 21 3e bd
       -0.04792632 0.10826766 -0.08942374 -0.04641904
000180 11 cf 1a bd 5e b2 08 be 88 2f c1 bd 6b 04 2c be
       -0.03779513 -0.13349292 -0.09432894 -0.1679856
000190 2e c7 76 bc c4 89 05 3e 6f 5a 41 3e 04 61 ad 3b
       -0.015062137 0.13040835 0.18882154 0.005291106
0001a0 46 9c 7a 3c 0c 28 35 3d 1a 5e a5 bd f9 49 d3 bc
       0.015296048 0.044227645 -0.08074589 -0.025792109
0001b0 8c 51 be 3c 1d d9 bb 3d 42 22 96 bc f7 3d b0 bd
       0.023232244 0.091722704 -0.018326882 -0.08605569
0001c0 ee e6 b2 bd 0c 37 22 3d 92 af 21 be 02 1a 10 bd
       -0.087354526 0.039603278 -0.15789631 -0.035181053
0001d0 e8 22 cb 3d d3 b1 b6 3d aa 56 b8 3c 40 32 9c 3b
       0.09918767 0.08920636 0.022502262 0.0047667325
0001e0 a8 e4 94 bc 32 91 18 be 06 11 30 3e b8 12 e8 bd
       -0.018175438 -0.14899138 0.17193994 -0.11331695
0001f0 8f 17 64 bd 5a 26 08 3e 3b 09 25 3e 2d c2 55 bc
       -0.05568653 0.1329588 0.16116802 -0.013046783
000200 d8 e7 db bd 41 eb 5c be e7 56 20 3d cb 2c 06 3d
       -0.1073758 -0.21574117 0.039145377 0.03275756
000210 1c 32 b1 bd 47 8a 1e bd 4f 82 8c bd 9e 8b 4b bc
       -0.08652136 -0.03870609 -0.06860792 -0.012423424
000220 f9 01 62 3c a7 37 91 bd c1 d4 bc bc e2 b6 16 be
       0.013794416 -0.07090693 -0.023050668 -0.14718202
000230 cd 32 1e 3d dc 29 4b be c1 e5 1c bd 28 ca 80 3d
       0.038622666 -0.19840187 -0.038305048 0.06288558
000240 14 f7 53 bc 6a 9f 6a be c7 32 07 be 4f f1 b8 3d
       -0.012937326 -0.22912374 -0.13202964 0.09030401
000250 6f 60 9b 3b 2f 1c be 3d ae cb b8 3c 84 e3 95 3d
       0.0047417204 0.09282719 0.02255806 0.07318786
000260 1d 7d 34 bd 14 21 0f bd 86 44 9d bc bf 74 9b ba
       -0.04406463 -0.034943655 -0.019197714 -0.0011860355
000270 a6 01 18 bd 55 f9 77 3d f6 64 a4 3d 19 06 9b 3d
       -0.037110947 0.060540516 0.08027069 0.075695224
000280 40 25 47 bd 28 d2 8a 3d 6d a6 36 39 d5 bf 14 3b
       -0.04861951 0.067783654 0.00017418871 0.0022697349
000290 57 08 6e 3c 57 b4 3f 3e 0f f0 39 3c cb 1d 0c 3d
       0.014528356 0.18721138 0.011348738 0.0342081
0002a0 7a 66 8e bd df 76 94 bd 1f d6 b1 3d ae d4 20 3d
       -0.069531396 -0.07249235 0.086834185 0.039265327
0002b0 b8 4f 62 bd c4 00 ea 3c 62 b7 78 3d 28 5b c3 3d
       -0.055251807 0.028564818 0.060721762 0.09538871
0002c0 6d fe ed 3c 01 51 a1 3d 37 23 39 3e bf 5e 26 bc
       0.029051984 0.078767784 0.1807984 -0.010154425
0002d0 0e b4 55 3c e5 e8 5b 3c 11 76 8b 3c fe 48 81 bb
       0.013043417 0.013422226 0.017024072 -0.003945469
0002e0 18 86 3a bc 44 a4 91 3d a7 12 7f 3c 9b 97 15 3c
       -0.0113845095 0.07111409 0.015568412 0.009130384
0002f0 4d b1 fc 3c 0f 96 1e bd 92 c5 04 3e ad 90 e1 bc
       0.030846262 -0.038717326 0.12965992 -0.027534807
000300 9d 83 dc 3d e0 47 ab 3c c7 b6 36 3d f9 90 7d bd
       0.10767291 0.020908296 0.044607904 -0.061905835
000310 c1 33 74 3b a3 60 4e 3d 58 c4 54 3e eb 70 bc bc
       0.0037262293 0.05038513 0.20778024 -0.023003062
000320 36 5c b7 3d bc 00 20 bd 13 67 0b 3c 88 6a b2 3d
       0.08953135 -0.0390632 0.0085084615 0.087117255
000330 87 f7 02 bd f0 81 a1 bd cc bb 05 be 47 4e 49 3c
       -0.03197434 -0.07886112 -0.1305992 0.012286729
000340 ce b8 91 3c ed c2 95 bd 0d 1b 3f 3d b9 11 67 bc
       0.017788317 -0.0731257 0.046656657 -0.0141033465
000350 3b 9f 4f bd ef 5d 67 3d c9 de 81 3d 29 35 63 bc
       -0.050688963 0.056486066 0.06341321 -0.013867655
000360 0f 2f 16 bd ed 44 f3 3d 1f ee 3e 3d 88 10 ed 3d
       -0.036665972 0.11878381 0.04661381 0.11575419
000370 b7 45 12 3d 35 b8 10 bd ac 73 cc bd 98 cf a1 3c
       0.035711017 -0.035331924 -0.09983 0.019752309
000380 2d 53 0f 3e 2f 9b 13 bd db 81 d3 3c 6b f9 f5 bc
       0.13996573 -0.036036666 0.025818756 -0.030026158
000390 08 0e a9 3d 52 51 0f 3d 03 44 13 be 41 8e 21 be
       0.082546294 0.034989662 -0.14381413 -0.15776922
0003a0 c7 ac c8 3d 34 33 38 bd b1 38 a8 3d d4 04 ed ba
       0.0979858 -0.044970706 0.08213938 -0.0018083104
0003b0 4b 5e 58 bd 7c d0 ec 3d 4a 86 40 3d 41 bb c2 bd
       -0.0528243 0.11563203 0.047003068 -0.09508372
0003c0 9b 2d 01 3e 8a 83 e9 bd 9d d1 49 3c 9a b5 c6 3c
       0.12615053 -0.11402042 0.012318042 0.024256516
0003d0 4d b9 33 bd bf 40 5c bd fb 80 1a bd df c3 fe 3d
       -0.04387789 -0.053772684 -0.03772066 0.12439703
0003e0 d8 87 da bd 65 d7 a2 3b 57 b8 a4 3d 28 54 92 3d
       -0.106704414 0.0049695247 0.080429725 0.07144958
0003f0 f0 30 84 3d 7a b7 f3 bc 7a 59 c1 3a 14 f3 37 bd
       0.064546466 -0.029750574 0.0014751398 -0.04490955

embedding_proj.bias f4 [96]
000000 1c 24 7e ba 96 85 f8 3a 94 c8 5e ba 65 be 4e 39
       -0.0009694712 0.001896071 -0.00084985164 0.00019716618
000010 92 63 5e 3a eb 8b 50 bb 60 dd 64 b8 2c 16 33 ba
       0.0008483465 -0.003182168 -5.4565608e-05 -0.0006831612
000020 e1 39 26 b8 cd c7 94 ba 58 e2 10 ba 52 cf 97 bb
       -3.9631388e-05 -0.0011351049 -0.0005526892 -0.004632869
000030 f7 9b 94 b9 bb 54 14 3a 61 1a 36 3b 4a 4b b7 ba
       -0.00028344963 0.0005658378 0.002778672 -0.001398423
000040 05 90 65 3b 80 0a 50 3b 5a 19 31 3b b4 81 bc 39
       0.003502847 0.003174454 0.0027023167 0.0003595479
000050 7b 01 58 ba b4 35 ab 3a eb a1 33 b8 7e f9 12 b9
       -0.00082399667 0.001306227 -4.2827724e-05 -0.00014016588
000060 39 92 7f 3a 99 d8 56 3a 7e cb 0f 3b 3f b5 45 ba
       0.0009749267 0.0008195728 0.002194136 -0.00075419614
000070 c2 eb bc 3a a1 d6 db ba b5 dc 86 3a e3 4c 6b 38
       0.0014413523 -0.0016772338 0.0010289164 5.6099972e-05
000080 ec 3f 9e 3a f7 04 d2 38 6c d8 10 bb 37 79 2b ba
       0.0012073494 0.00010014505 -0.0022101654 -0.0006541195
000090 4a ca 89 3a 4a 8f a3 3a c0 cc 46 b9 73 35 63 ba
       0.0010512557 0.0012478617 -0.00018959027 -0.00086673273
0000a0 1c 6e 40 3a 72 29 a9 b9 5b 3b 5e 3b 0e 3b b3 ba
       0.00073406263 -0.0003226507 0.003390989 -0.0013674216
0000b0 b4 b7 d7 b9 c1 d2 10 b8 3f 8f 5f bb 2e 06 10 bb
       -0.00041144865 -3.4528555e-05 -0.003411248 -0.002197634
0000c0 cc f2 77 ba 7c c4 07 3a dc b8 07 39 d0 1f b9 3a
       -0.0009458482 0.000517912 0.00012943469 0.0014123861
0000d0 f9 1c 5d 3a cc cd e9 3a 39 75 0c ba b5 13 cd b9
       0.0008434798 0.0017837822 -0.00053580437 -0.0003911533
0000e0 02 59 2d 3b 65 8a 3c 3a 17 e4 e0 ba 05 b0 dd ba
       0.0026450758 0.0007192253 -0.001715782 -0.001691342
0000f0 da 91 a5 3a a5 62 c1 ba 74 ae 32 bb c1 55 e9 ba
       0.0012631968 -0.001475413 -0.0027264627 -0.0017802046
000100 98 d4 28 3a 67 7f 41 3a 55 a0 0d bb d7 ba 12 ba
       0.00064403703 0.000738135 -0.0021610458 -0.00055972993
000110 31 eb de ba 88 c8 85 ba 58 4f 97 3a c5 c0 33 3b
       -0.0017007348 -0.0010206858 0.0011544032 0.0027428132
000120 0c 2d 9e b9 c1 bf ab 3a d5 3d f3 3a 5f 9b 26 bb
       -0.0003016967 0.0013103412 0.0018557856 -0.0025422198
000130 15 c5 9d 39 93 a2 8b ba 68 14 6c 39 1a 3d 72 3a
       0.0003009221 -0.0010653309 0.00022514316 0.0009240672
000140 d0 3c 24 bb 96 73 a8 3a 07 67 9a 3a 32 05 82 3a
       -0.002506066 0.001285183 0.0011779972 0.0009919761
000150 fb 56 bf 3a 26 70 15 3b aa 90 ee 3a b9 19 e6 37
       0.0014598066 0.0022802441 0.0018201072 2.7430115e-05
000160 41 eb db ba a4 5f 85 3a 48 0e d0 b9 aa 9f c5 3a
       -0.0016778485 0.0010175598 -0.00039683492 0.0015077491
000170 bb 57 41 3b 74 8e b2 3a 7c e5 37 3b ed 14 88 39
       0.0029501754 0.0013622777 0.0028060367 0.00025955532

categorical_proj.weight f4 [17, 17]
000000 67 df 82 3e 10 77 a3 3e 33 b7 b3 bd 9c e2 0f 3f
       0.25561067 0.31926775 -0.08775177 0.56205153
000010 5f 2e cc be 6a d1 b2 3d 64 4d 1a 3e 56 b1 b9 bd
       -0.39879128 0.08731349 0.15068585 -0.09067027
000020 e0 bc 97 be 71 51 db bc e2 4b 53 3f ab 3e a8 3e
       -0.29636288 -0.026772233 0.82537663 0.32860312
000030 22 75 0a bf d0 24 05 3c 0a 00 d5 be 84 1c dd 3d
       -0.5408498 0.008126453 -0.41601592 0.107964545
000040 b0 43 b4 3e 14 18 bd 3e c5 fe f8 be 0f b4 87 3e
       0.3520789 0.36932433 -0.48631874 0.2650456
000050 07 89 38 3e ea dc 19 3e 22 f3 a2 be ae ca 9b bd
       0.18021022 0.15025678 -0.3182612 -0.076070175
000060 d0 9b 87 3e bb cd ef bd 4d 69 15 3e 1c 4d fa bd
       0.26486063 -0.11709162 0.1459095 -0.12221739
000070 38 b9 8e 3e 97 47 59 be 74 e0 17 3e 5c a0 d8 3e
       0.27875686 -0.21218716 0.14831716 0.42309844
000080 d0 20 9d 3d d8 b8 bf 3d b1 49 0d bf ec fc 9c 3c
       0.07672274 0.09361428 -0.5519057 0.019163571
000090 fb 48 a7 bd 5d 36 0c bf 41 3d ae bd e4 d8 8f 3e
       -0.08168217 -0.5477045 -0.08507777 0.28095162
0000a0 30 55 03 bd c0 62 25 be aa 8a 91 3e cb 6b 01 3e
       -0.032063663 -0.16150951 0.28426105 0.12638776
0000b0 1a 36 66 bf 26 8f 8c 3d 48 e2 9d 3e 4c 24 17 bd
       -0.899263 0.06863241 0.308367 -0.03689985
0000c0 e8 fb 07 3e ca 85 13 3c ba eb 04 be f5 84 2c be
       0.13279688 0.009004066 -0.12980548 -0.16847594
0000d0 d9 2d 64 3b 4c 50 9f 3e 37 33 b3 bd 27 db 2e be
       0.0034817366 0.3111595 -0.08750003 -0.17075787
0000e0 2d 08 d7 3e b8 5c c8 be 21 b5 ab be 53 8c 51 3d
       0.41998425 -0.3913324 -0.33536628 0.051159214
0000f0 b8 ad c2 be b2 17 3d 3f db 8a 7b bd f0 e2 ae be
       -0.38023162 0.7386428 -0.06141172 -0.34157515
000100 54 af 7c 3e c3 57 68 3e 7f 95 0b bf 0a f0 53 be
       0.24676257 0.22689728 -0.5452499 -0.20697036
000110 4f 2d b1 3e 7e ef be 3e 44 15 bc be bf 69 dd be
       0.3460488 0.37292093 -0.36734974 -0.4324474
000120 33 01 ad 3e 24 11 ee 3c 5d a5 49 be 9e f6 f2 3e
       0.33789977 0.029060908 -0.19691987 0.4745378
000130 cb 51 f5 3d 1c af aa 3e f4 8c 4a 3f 01 ee ce 3e
       0.119784914 0.33336723 0.7912133 0.40415958
000140 a1 0f 28 be 3b b0 73 3e 7f b3 d3 bd 23 65 99 be
       -0.16412212 0.23797695 -0.103369705 -0.29959974
000150 22 f4 29 3d 47 95 c4 3e 10 5f 45 3e 27 af 88 3e
       0.04149259 0.3839514 0.19274545 0.2669613
000160 fc b2 87 be 0e b9 8f 3e ab 31 30 be 34 6c 96 3e
       -0.26503742 0.28070873 -0.17206447 0.29379427
000170 cd ef 42 3f d3 7b 2a bf 69 b5 c0 3e d2 78 39 3f
       0.76147157 -0.6659519 0.37638405 0.7244998
000180 37 a3 6c 3e 19 0f 55 3e 24 d4 b4 3e eb 8d f2 bd
       0.23109137 0.2080654 0.353181 -0.11843475
000190 ec ad d2 be 51 32 b3 3d 5b bc d4 3e 44 a3 c1 bc
       -0.41148317 0.087498315 0.41549954 -0.023637421
0001a0 ec 9f 8d 3e 6b 70 16 bd 91 6d 9a be 13 2c 9c bb
       0.27661073 -0.036728304 -0.30161718 -0.0047659962
0001b0 ae 89 34 be b4 9a eb be 05 2f b7 3e a5 ad e5 be
       -0.17630646 -0.46016467 0.3577806 -0.44859043
0001c0 c5 53 18 3f 3b 14 d1 3e 71 d2 07 bf fb 3f c9 be
       0.5950282 0.40835747 -0.53055483 -0.39306626
0001d0 ec de 34 be 1b db ed be 90 0e 57 bd 4d db c6 be
       -0.17663163 -0.46456227 -0.052504122 -0.38839188
0001e0 ba 27 72 3d a5 e0 92 3e 9e 4d 9a be 28 6e be bc
       0.059119917 0.28687015 -0.30137342 -0.023245886
0001f0 d8 7a 0d be 44 c1 95 bd 4c 47 82 bd bb a6 8d be
       -0.13816392 -0.07312253 -0.06361255 -0.27666268
000200 69 c3 3b be 06 43 a8 be 7b 2b 3a be 37 6c 4c 3d
       -0.18336262 -0.32863635 -0.18180649 0.04990789
000210 b1 61 51 3e ee 89 b5 be 05 83 6f 3d 1e b8 92 3e
       0.20447423 -0.35456795 0.05847456 0.28656095
000220 97 b4 5a bd f6 5f d9 3e 31 fb 96 3e 7e 98 3c be
       -0.05339488 0.42456025 0.2948852 -0.18417546
000230 9b f5 92 bc 1f 36 c5 3d e6 f2 0a be 35 26 15 bc
       -0.01793938 0.096294634 -0.13569221 -0.009103348
000240 53 5f a4 3e 7f f0 33 be 4a 3f 42 bf 1b cb 70 be
       0.32103977 -0.1757221 -0.7587782 -0.23514979
000250 54 02 0c 3f 41 8f b7 be 65 6e 00 be c3 7d 4b be
       0.5469105 -0.35851482 -0.12542112 -0.19872193
000260 7b 46 8b 3e 87 e7 1e bd 36 30 58 be 95 ff 04 3e
       0.2720221 -0.03879502 -0.21112141 0.12988122
000270 d2 46 e2 bb af eb 04 bd d6 fe 9f 3e 8c cd 62 be
       -0.006905415 -0.032451328 0.31249112 -0.22148722
000280 52 71 a9 3d 0e 93 b3 3e 9b d0 20 be e0 17 b9 be
       0.08273567 0.3507313 -0.15704577 -0.36151028
000290 94 b2 b0 be 60 7c 22 3f 68 f2 64 3c 1a 29 e0 3e
       -0.34511244 0.6347103 0.01397381 0.43781358
0002a0 47 f9 1c 3e e2 0a 5d bd 99 50 08 bd 54 dd 54 bd
       0.15329467 -0.053965457 -0.03327999 -0.051968887
0002b0 b5 65 73 3d b8 fb 5f be 6d 9f a3 be 08 dd 58 be
       0.059423167 -0.21873367 -0.3195757 -0.21178067
0002c0 c2 6f 38 3e 98 d1 74 bd 00 58 8c be 73 42 82 3e
       0.18011382 -0.059770197 -0.2741089 0.25441322
0002d0 c7 19 7c 3f 16 24 e3 3d 28 43 49 bf 63 f7 97 3d
       0.98476833 0.11090867 -0.786181 0.07420232
0002e0 d4 82 3f bd 46 32 df be ba 4e bb 3e 0c 38 8a be
       -0.046755627 -0.43593043 0.365835 -0.26995885
0002f0 f0 b7 81 3e 7f 5c 88 be 3f b8 b3 be 9a 9c 72 3d
       0.25335646 -0.2663307 -0.35101506 0.05923138
000300 d2 27 c6 3e 13 e7 51 3e c6 77 bc 3d 05 0e f2 be
       0.38702255 0.20498304 0.092025325 -0.4727632
000310 49 d7 87 bd 1f 3e 0e be dc 9b 04 be d4 2f 2e 3e
       -0.06632859 -0.13890885 -0.1295008 0.17010432
000320 0b 48 b1 3e e1 42 5f be c3 67 8d be da 8a e2 bd
       0.34625277 -0.21802856 -0.27618226 -0.1106164
000330 60 c6 c9 3d 8b 21 95 3c 40 25 e5 3d a6 71 49 3d
       0.0985229 0.018204471 0.111887455 0.04918065
000340 cf 01 7c 3e e1 6a 21 3e be a0 6f be 66 df f5 be
       0.24610065 0.15763427 -0.23401162 -0.48022002
000350 ec 6d 9e be 3b 05 5b be 4c 3b 7b bf 3a 3d c0 3e
       -0.3094324 -0.21388714 -0.98137355 0.37546712
000360 33 8e 4b 3f ab 67 9f be 2e d9 7e 3e 82 72 3a 3e
       0.79513854 -0.3113378 0.24887535 0.18207744
000370 f1 c7 cb be b5 9e 01 3d fc 7d de 3d 2d c3 4c bd
       -0.3980098 0.031645495 0.10863873 -0.04999082
000380 dd ff 81 3e 90 b8 28 3e 0c 11 7c bd 77 e0 cd be
       0.2539052 0.16476655 -0.061539695 -0.40210316
000390 a5 d5 87 3e 30 9e 3e 3c 12 18 cf bd 0e 93 4e 3f
       0.26530185 0.0116343945 -0.10112013 0.8069314
0003a0 48 2d 9f 3e ba 77 b0 be 99 a2 b2 be 61 cb b0 be
       0.31089234 -0.34466344 -0.34889677 -0.34530166
0003b0 29 cf 60 bd 1e b8 fc 3c de 6f b2 bd a5 f3 fb be
       -0.054885063 0.030849513 -0.08712743 -0.49209324
0003c0 22 7f 8a be 30 ed 99 3e 19 36 cb 3e 88 da de be
       -0.2705012 0.30063772 0.3968971 -0.435261
0003d0 db 50 de 3d 78 88 1f bf 8a cf c7 3e e4 fc 84 3a
       0.10855266 -0.6231761 0.39025527 0.0010146168
0003e0 50 17 4c 3f f5 93 86 bd 82 35 3e 3e ce f9 97 bd
       0.7972307 -0.06571189 0.18575099 -0.07420693
0003f0 d3 65 e1 3d 47 9b e7 3d 60 c6 8a 3e 75 1e 10 3e
       0.110057496 0.11308914 0.27104473 0.14074118

categorical_proj.bias f4 [17]
000000 54 f4 c2 3b 05 19 54 ba 15 b4 8e ba 54 c8 49 3b
       0.0059495363 -0.00080908864 -0.0010887409 0.003078957
000010 5e 17 c9 b9 d6 4f 6d b9 a7 e3 39 bb 9e 31 fe b8
       -0.00038355117 -0.00022631823 -0.002836445 -0.00012120906
000020 06 81 f6 39 9f 90 c8 3b 4e 68 18 bc a5 33 de 3a
       0.00047016906 0.006120756 -0.009302212 0.0016952647
000030 9c b7 c8 3a 04 9f 88 3a c0 1b f0 ba 31 f9 a5 b8
       0.0015313509 0.0010423367 -0.0018318817 -7.9142286e-05
000040 68 5c 94 3b
       0.0045276172

combine_proj.weight f4 [128, 113]
000000 8b 24 ce 3c d1 ce dd bd 22 0c d6 bd 84 0f 5c be
       0.02516391 -0.10830463 -0.10451533 -0.21490294
000010 8e 4c 51 be 7c ba f4 3d ad df 3b 3d cc fa b1 3d
       -0.2043936 0.119496316 0.04586761 0.08690414
000020 d6 bc 8c bd 1d 3f 05 bd 08 50 ff bd 44 14 f0 bb
       -0.06871955 -0.032530893 -0.124664366 -0.0073266346
000030 41 39 9f 3c d6 cb 07 bd 5a 00 53 3c cd cd f6 3d
       0.01943648 -0.033153377 0.012878502 0.12050972
000040 7d 23 1f be 0d 34 79 3d f1 88 33 3d 13 df ca bd
       -0.15540881 0.060840655 0.04383177 -0.09905829
000050 cb 73 63 bd 63 32 aa bc 60 86 11 3b f3 c2 11 3d
       -0.05553035 -0.02077598 0.0022205338 0.03558631
000060 17 1d 03 3e a6 ea 1a bd b6 99 19 be 0b ef 84 3c
       0.12804066 -0.037821434 -0.15000042 0.016227266
000070 29 0e d2 3d 18 fb 49 3c 06 88 89 bd 92 a6 98 3d
       0.10256607 0.012327932 -0.067153975 0.07453646
000080 03 f8 7b 3d a2 23 e8 bd 5a 64 98 bd ce a6 3f 3c
       0.06151582 -0.113349214 -0.074410155 0.011697484
000090 4d f7 da bd 45 5b fe 3c e0 3f 09 be 2c 42 13 3d
       -0.106917 0.03104938 -0.13403273 0.03595178
0000a0 8c 82 ec 3c e3 32 2b be 50 0d 6d bd 84 6e 16 3c
       0.028870843 -0.1671863 -0.057874024 0.009181622
0000b0 2a 76 41 3c 0b 56 c2 3d 9c 36 1a 3d bb 69 e2 3c
       0.011807958 0.09489068 0.037649736 0.027638307
0000c0 e6 1a 4a 3d fb ab 13 bc 5a 68 c3 bd 95 25 27 3d
       0.04934206 -0.009013171 -0.09541388 0.040807325
0000d0 9a a5 0e 3e 0c e7 c9 bd bd 08 c8 3d 83 71 6a 3d
       0.1393036 -0.09858522 0.09767292 0.05723716
0000e0 e6 3b 3a 3e d4 98 ae 3d ec 41 eb bd 7b 02 7b bc
       0.18186912 0.085252434 -0.11487183 -0.015320416
0000f0 18 e3 6d 3d e4 c1 23 3c 25 0b ba 3d e1 34 32 be
       0.0580779 0.009994958 0.09084157 -0.17402984
000100 04 0a 9b bc cb 8c fe bd 6b 4a 9d bd b7 46 2b 3e
       -0.018925674 -0.12429198 -0.0768021 0.16726194
000110 1d 84 3b bd 0f c3 ff bd fb 19 be bb dd a1 35 be
       -0.04578029 -0.12488376 -0.005801437 -0.17737527
000120 cb 9c 32 3e 25 43 fa 3d b1 da 03 3e 08 a1 8f 3a
       0.17442624 0.12219838 0.12876393 0.0010958025
000130 9f 53 e4 3d f2 28 1e bd 09 d4 6c bd b0 49 2c 3e
       0.11148762 -0.038613267 -0.0578194 0.16824985
000140 d6 c4 a5 3c c3 49 f9 3d a7 49 02 be 64 99 12 3e
       0.02023546 0.12172272 -0.12723409 0.14316326
000150 89 c7 18 3e 6e 42 0b be d0 43 5a 3d 63 d1 54 bc
       0.14919867 -0.1359956 0.053287327 -0.012989375
000160 3e 27 85 bd 1c 07 27 be a5 52 1c 3e 02 01 fd 3d
       -0.065016255 -0.16311306 0.15265901 0.12353708
000170 f5 a7 d7 bb 7a 13 22 3d f0 35 7f 3c e2 1e 59 3d
       -0.0065813013 0.039569356 0.015576825 0.053007968
000180 f2 fa b6 3d af 11 ce 3b 10 9c ca be a9 29 2c 3e
       0.08934583 0.006288729 -0.3957219 0.16812767
000190 ef 2f 40 3e db 61 fe 3b 2e ad 46 3e 40 ee 60 bd
       0.18768285 0.00776313 0.19402 -0.054914713
0001a0 fa 73 b9 be 72 21 21 3d 2b f8 e6 3e 71 f5 84 bd
       -0.36221296 0.039338537 0.45111212 -0.06492127
0001b0 dd e4 23 be 4c a0 be 3e fd a7 70 3e 08 ed bd bc
       -0.16005273 0.37231672 0.23501582 -0.023184314
0001c0 01 33 af be 77 6d fc 3d 46 2b 23 3e 5d b2 e8 bd
       -0.342186 0.12325566 0.15934476 -0.11362145
0001d0 ec 0c 2d 3d 75 ba e6 bb 7f 2d 36 bd 74 2d 20 bc
       0.04224865 -0.0070412704 -0.044476982 -0.009776462
0001e0 6b fc b0 3d 7e 5a 2e bc 41 aa 86 bd bc 23 bf bc
       0.08641895 -0.010641692 -0.06575442 -0.02333247
0001f0 16 0b 8c 3d b1 b6 c0 3d 0b 85 3b 3d 52 87 52 3d
       0.06838052 0.094098456 0.045781177 0.051398583
000200 05 cc 8e bd 53 b9 7c 3d c1 fd 83 bd aa 69 0f 3c
       -0.069725074 0.061700176 -0.06444884 0.00875322
000210 55 d1 af bd 27 e9 c2 bd f4 a8 e0 3c 00 64 d0 bd
       -0.08584849 -0.095171265 0.027424313 -0.101753235
000220 11 88 2c 3d b0 eb d8 3b 42 65 81 3e b4 26 2d be
       0.04212195 0.006619893 0.25272566 -0.16909295
000230 dd ef 78 bc cd d4 2e bd 21 8b fb bd e8 5a c9 bd
       -0.015193907 -0.04268341 -0.12282396 -0.09831792
000240 a2 75 3f bd 3f 3f b4 bd b5 ef da bd b2 f2 c0 3c
       -0.046743043 -0.08801126 -0.10690252 0.023553226
000250 cd fa 23 3e b6 a9 d3 3d a9 68 b5 3d 5c 36 d8 bc
       0.16013642 0.10335104 0.08857853 -0.026393108
000260 26 41 95 bd 00 96 d5 bd ab d2 9d bc de b1 15 be
       -0.07287817 -0.10429001 -0.019265493 -0.14618632
000270 f3 ff 8e bd 64 bd a4 bd 22 c0 ac bd 0f a7 2a be
       -0.06982412 -0.08043936 -0.08435084 -0.1666529
000280 88 87 26 be 70 66 ff bc 53 86 a1 bb db a6 b9 bd
       -0.16262639 -0.031176776 -0.004929343 -0.09065028
000290 e5 bc 74 3d 9b 61 a9 3d 7c ed af ba 17 a5 d6 bd
       0.059750456 0.0827057 -0.0013422216 -0.10480707
0002a0 97 e5 cc bb 23 cb fb 3c 52 6d ce bd cb 76 e9 3c
       -0.006252955 0.030736512 -0.10079445 0.028499028
0002b0 c3 de b9 bc 21 44 a6 bd cd 64 13 3d 33 90 ed 3d
       -0.022689229 -0.08118463 0.035984803 0.115997694
0002c0 6f 11 2d 3d b4 fc ab 3d 27 2f fd 3d 7b 96 89 bb
       0.042252954 0.08397809 0.12362509 -0.004198847
0002d0 81 e4 25 3e 7b 2d c3 3d a9 ef aa 3d 59 3d ca bc
       0.16200449 0.09530159 0.08346493 -0.024687456
0002e0 52 4a 0a be de 90 ce 3c 0b 28 24 3e 79 c3 41 be
       -0.13504913 0.025215562 0.160309 -0.18922223
0002f0 24 f0 c0 bc f4 f2 d5 bc 05 2a 4b bd 59 40 46 3d
       -0.023552008 -0.026116826 -0.04960062 0.04840121
000300 98 e3 01 3c b0 30 c2 bc 9c a9 13 3e a4 09 df bc
       0.007927798 -0.023704857 0.1442017 -0.027226277
000310 0a 90 f5 3d 19 13 a4 bd 04 7b 30 bc 25 f8 d6 3d
       0.11990364 -0.08011455 -0.010771517 0.104965486
000320 5a e1 72 3c c8 68 e9 3d 2c 03 9a bc f4 ac b0 bd
       0.014824236 0.113969386 -0.01880034 -0.08626738
000330 50 b4 22 bd 87 1d b0 3d 0f bc df 3d 71 77 4e 3c
       -0.03972274 0.08599382 0.10924541 0.012601719
000340 ec c6 49 3e 65 90 2a bd 50 c3 6c 3d c7 f2 5f bd
       0.19704789 -0.04164161 0.057803452 -0.05467489
000350 11 29 dd 3b e6 e9 20 be 49 d2 0b 3e f7 63 07 be
       0.0067492803 -0.15714225 0.13654436 -0.13221727
000360 6e 7e 46 3d 1e 95 86 bc 17 0c fc 3d 2c 65 ac 3b
       0.048460416 -0.016428526 0.123069935 0.005261084
000370 b5 57 e6 3c 69 04 ec 3d 2c 90 00 be 78 91 c7 3c
       0.028117994 0.11524279 -0.12554997 0.024361357
000380 d0 48 89 be cb 8b b2 be 40 3e 99 bd 74 30 bd 3d
       -0.26813364 -0.3487228 -0.07482576 0.09237757
000390 ad bf 2a 3d 96 6a 32 3e 0f 99 a0 bd 34 82 c7 bc
       0.041686703 0.17423472 -0.078416936 -0.024354078
0003a0 21 fb 0a be 27 70 22 be 5a a6 d5 bd b2 84 e9 3b
       -0.1357236 -0.15863095 -0.1043212 0.007126414
0003b0 05 c9 06 be 3f d1 9a bc 37 47 04 bd d9 36 01 3e
       -0.1316262 -0.018898604 -0.03229448 0.12618579
0003c0 b5 d6 cb 3d d3 45 9c 3d ff 27 fb 3d ed e8 f3 3d
       0.099530615 0.076305054 0.12263488 0.119096614
0003d0 af 8b 3e bd fd 98 be 3d 79 f0 cf bd 73 d0 fd 3d
       -0.04651993 0.09306524 -0.101532884 0.12393274
0003e0 cb 88 73 bd 55 4a 03 3d a1 7c 90 3d 24 bc 5c 3e
       -0.059456628 0.03205331 0.07055021 0.21556145
0003f0 45 55 07 3e 4a 1a 78 bd 25 3c 3a bd e0 e5 f5 bd
       0.13216121 -0.060571946 -0.045467515 -0.12006736

combine_proj.bias f4 [128]
000000 83 c8 20 ba 53 37 de 37 f5 2f f7 3a 7e e1 81 b9
       -0.0006133394 2.6490225e-05 0.0018858897 -0.00024772802
000010 c0 9d 0c b9 f3 88 90 b9 66 6a 59 3a 61 8d 9c b9
       -0.00013410207 -0.00027567855 0.00082937477 -0.00029859974
000020 4f 2d 8f 38 93 2f 32 ba 15 68 d8 b9 58 e7 3a b9
       6.827211e-05 -0.000679725 -0.00041276278 -0.00017824525
000030 5c da b9 39 90 ba 04 3a a4 3a ff b8 b0 a2 21 3a
       0.0003544864 0.00050632004 -0.0001217027 0.0006165905
000040 d3 48 c6 39 0f f7 3e 39 e4 d5 0b 3b 4a 5d 3f 39
       0.0003781976 0.00018211849 0.0021337206 0.00018249932
000050 5b f2 14 3a 50 01 34 39 fc 5c c8 ba e3 af 9f b9
       0.0005681866 0.00017166627 -0.00152865 -0.0003045789
000060 47 f7 0a ba 84 7a 08 ba e6 bb 05 39 5e fd 8d 38
       -0.00053011294 -0.00052062445 0.00012753866 6.770597e-05
000070 09 77 b5 38 78 c7 a0 ba 3e 95 17 3a 56 90 b1 b6
       8.6529246e-05 -0.0012266478 0.00057824317 -5.291814e-06
000080 3b 21 d0 b9 bd 4f 9d ba 02 a3 8d 39 99 60 00 3a
       -0.0003969761 -0.0012001913 0.00027015066 0.00048972067
000090 28 20 e1 39 66 18 d7 b9 f2 16 92 ba 02 86 b9 ba
       0.00042939303 -0.00041026174 -0.0011145754 -0.0014154317
0000a0 df d8 f6 ba 95 af aa 3a 28 ba 3d ba b4 bd 94 3a
       -0.0018832943 0.0013022298 -0.0007237517 0.001134804
0000b0 e0 0b 33 b9 d7 fc 99 b9 23 25 ec b8 af 44 bb 3a
       -0.00017075194 -0.00029370814 -0.00011260274 0.0014287437
0000c0 25 c8 77 b9 43 ac 8f ba 38 41 61 ba c8 1c 8f ba
       -0.00023630315 -0.0010961372 -0.0008592787 -0.0010918612
0000d0 81 fa db b7 a8 ca 8c b9 52 20 24 bb ae 46 4c 3a
       -2.6223484e-05 -0.00026853872 -0.0025043678 0.00077925145
0000e0 28 09 2f b9 e1 a0 d0 b9 7f dc 02 38 24 62 2a 3a
       -0.00016692712 -0.00039792716 3.119977e-05 0.00064996094
0000f0 16 c7 33 ba 81 3b 8b ba 9c 30 89 38 c0 6f 21 b9
       -0.0006857974 -0.0010622592 6.541723e-05 -0.00015395787
000100 5e 38 e0 38 0d e5 e7 ba 14 55 89 3a 47 af ae ba
       0.000106916516 -0.0017692164 0.0010477626 -0.0013327383
000110 5a 12 9e ba b6 94 9e ba 53 be 34 3a 60 9e 48 3a
       -0.0012059913 -0.0012098763 0.00068948156 0.0007652994
000120 bb 33 7c ba ca 1b ce 3a b8 53 ca 3a 10 0a 84 ba
       -0.00096207455 0.0015724835 0.0015436327 -0.00100738
000130 b1 62 8a ba 26 05 ac 3a 57 b0 98 3a 7b 74 29 38
       -0.0010557977 0.0013124093 0.0011649233 4.040122e-05
000140 27 82 02 3a e7 ed 8c 3a d9 ca a1 3a c8 f2 75 ba
       0.00049785007 0.0010752053 0.0012343779 -0.00093821855
000150 c0 d8 ac 3a 14 54 59 ba 68 47 35 3b cd d6 28 3a
       0.0013187155 -0.00082904217 0.002766097 0.0006440699
000160 b7 bb 8c 38 12 cf d0 3a d8 b6 f3 b9 28 b6 a9 ba
       6.710685e-05 0.0015930852 -0.000464848 -0.0012947964
000170 95 90 26 3a 31 50 30 ba b3 e6 2a 3a 7f b8 49 b9
       0.0006353942 -0.00067258166 0.0006519362 -0.00019237584
000180 b9 da 68 38 64 01 50 39 1b d3 2b 3a eb 07 21 3a
       5.551681e-05 0.00019836944 0.00065545895 0.00061428425
000190 6d 26 aa b9 26 2a d3 3a 20 4b 80 ba 98 7d 76 b9
       -0.00032453556 0.0016110584 -0.0009788014 -0.00023507176
0001a0 a5 3b 45 ba 51 f9 15 bb 41 ab 84 39 f8 c3 41 ba
       -0.00075238413 -0.00228842 0.00025304596 -0.00073915673
0001b0 a2 db 85 3a fb 3a a3 39 e5 0d ee b9 17 dd 85 3a
       0.001021255 0.00031133727 -0.0004540525 0.0010212985
0001c0 7d 3f 1a ba d5 77 8b 3a 1a 0b 05 3b 50 53 e1 39
       -0.0005884094 0.0010640571 0.0020300807 0.00042977417
0001d0 43 42 52 3a 21 34 01 ba 67 55 0f 38 07 18 9d 3a
       0.0008020738 -0.0004928727 3.4173394e-05 0.001198531
0001e0 41 d0 31 38 3d 9a 83 39 b0 47 c1 ba 05 cc 9b 39
       4.239404e-05 0.00025101184 -0.0014746096 0.0002971591
0001f0 ae b9 e2 39 b2 69 fa b7 ab 44 df 3a 46 65 02 3a
       0.0004324442 -2.985154e-05 0.0017034014 0.00049741974

fc1.weight f4 [128, 128]
000000 9f 46 2f be 20 40 98 3d dd e8 7f 3c 1b a0 18 3b
       -0.17116784 0.07434106 0.015619484 0.002328879
000010 b8 4f 88 3d 55 14 32 bd fe 6c 00 3d 3a 6e 84 bc
       0.0665583 -0.04347642 0.031353943 -0.016165841
000020 39 88 11 3e 38 11 8c bd aa 3e f7 bd d3 8d c5 bd
       0.14212121 -0.06839222 -0.12072499 -0.096461914
000030 15 76 13 3e 82 71 90 3d 03 7a 8b bd 14 2f d7 3d
       0.14400513 0.070529 -0.06810381 0.10507026
000040 d2 36 0f 3d d1 fe 30 3d b3 a1 6e bd bb 24 af 3c
       0.03496439 0.04321176 -0.058259677 0.02137982
000050 75 50 e1 3d 4d 4a 31 3e 08 45 27 bd 11 78 c7 3d
       0.11001674 0.173135 -0.040837318 0.09739698
000060 c7 b0 81 bc a1 00 62 3e f6 16 4c 3c b5 ab 9d 3d
       -0.015831364 0.22070552 0.012456646 0.07698766
000070 18 2d ec bc e1 c5 f6 3d e2 20 75 3c 19 58 e5 bc
       -0.028830096 0.12049461 0.014961453 -0.02799611
000080 43 fb ec bb 52 0f 3a 3d 9a bf e3 3d 17 02 6a 3d
       -0.007232101 0.045424767 0.111205295 0.0571309
000090 2b b2 5a 3d b3 ef 32 3a 5d 71 f3 3c a7 12 03 be
       0.05339257 0.0006825879 0.029717142 -0.12800084
0000a0 8b 97 67 bd 3e 80 0e 3e 48 80 aa bc 74 75 76 bd
       -0.056541007 0.13916108 -0.020813122 -0.060170606
0000b0 c7 c1 33 3d 3c 60 8c 3d da 6a 04 3e 26 55 cc 3c
       0.043885972 0.06854293 0.12931386 0.024942946
0000c0 d2 86 46 3e 10 4c 12 be 60 04 1f be da 17 2c bd
       0.19387367 -0.14286828 -0.15529013 -0.042014934
0000d0 78 52 be bd 2b de 24 3e 6f b8 57 bd 10 5c 08 be
       -0.092930734 0.16100375 -0.052666124 -0.13316369
0000e0 70 74 6c bd e8 24 13 be 5b a0 52 3d e4 37 de bc
       -0.05772823 -0.14369547 0.05142246 -0.02712626
0000f0 a6 e0 f2 bc 79 e8 81 bc 4f ef 1c 3e 7e de 07 bd
       -0.029648136 -0.015857922 0.15325664 -0.03317117
000100 aa 89 60 3d c3 cb 1e be f7 84 b4 3d 09 ee ab 3d
       0.054818787 -0.15507416 0.088144235 0.08395011
000110 f3 95 3a 3e 71 d7 aa bc b0 b3 af bc b4 70 03 be
       0.18221264 -0.020854684 -0.021447986 -0.12835962
000120 56 41 cc bc 10 60 8a 3d fc 97 6b bd 8a 5e 16 be
       -0.024933498 0.06756604 -0.05751799 -0.14684501
000130 a8 75 bc bd 5f 1f fb bc 3a b0 08 3e fc 03 1a bd
       -0.09202129 -0.030654607 0.13348475 -0.037601456
000140 4a e6 20 be e8 15 03 3d 95 8e 74 bc b8 85 b9 bd
       -0.15712848 0.032003313 -0.014926572 -0.09058708
000150 75 1e f0 bd a0 63 9f 3d e2 6a 0b 3e e5 63 95 3c
       -0.11724559 0.07782674 0.13614991 0.01823611
000160 6b 97 28 be 9d 34 bb 3d 08 e0 b5 bc 1c 90 05 be
       -0.16464011 0.091408946 -0.022201553 -0.13043255
000170 31 7b 28 3e b3 e2 bb 3d d3 d6 16 3e a0 c3 d7 bd
       0.16453244 0.09174099 0.14730386 -0.105353594
000180 e5 e9 01 be 3a 8f 77 bd 24 4e 5c 3e 6f 02 b0 bb
       -0.1268688 -0.060439326 0.21514183 -0.005371384
000190 1d 9c 47 bd b0 08 9a 3e bf 3f a5 bd 36 d0 85 bd
       -0.048732866 0.30084753 -0.08068799 -0.06533854
0001a0 7f fb f1 bd a5 b2 3c bd 64 75 7e bc f6 2c 06 bd
       -0.11815547 -0.046068806 -0.015530918 -0.03275772
0001b0 50 7d 98 3d 34 66 16 3e 97 b7 89 bd 96 28 bf 3d
       0.074457765 0.14687425 -0.0672447 0.09333913
0001c0 9c 35 3b be 25 49 86 bc e7 1e 88 be 41 33 bd bc
       -0.18282169 -0.0163923 -0.26586077 -0.023095729
0001d0 08 71 50 ba 25 02 0b be a4 e7 63 bd ea 03 bc bc
       -0.0007951413 -0.13575037 -0.05564083 -0.022951085
0001e0 d8 00 ae 3d 82 ad b8 bd e6 b5 ff 3b 68 54 6a bd
       0.08496255 -0.09017469 0.0078036664 -0.057209402
0001f0 a8 f7 18 3d 9e 82 a5 3b 6d 75 91 3d a4 5f ed 3c
       0.03734556 0.005050971 0.07102475 0.028976269
000200 7b aa 46 3e 37 e1 02 bb 53 57 0c bd e7 dd c0 bc
       0.1940097 -0.0019970664 -0.034262966 -0.023543311
000210 5e 30 16 3e 53 c4 5e be e8 de e1 ba 7b 7f c4 bc
       0.14666888 -0.21754579 -0.0017232569 -0.023986569
000220 c1 0b 4c bd 82 56 3f 3e 5d e7 fd bd a4 1f 80 3a
       -0.049815897 0.18685344 -0.12397645 0.0009775055
000230 6e de c1 3d f3 db fa 3d 9f b6 c1 bd d2 3d 01 be
       0.09466253 0.12248983 -0.0945866 -0.12621239
000240 41 36 a9 bd cd 30 28 3e 80 7e 06 3e e9 db 35 3d
       -0.08262301 0.16424866 0.13134193 0.044399176
000250 67 dd 3c 3d d2 69 02 be 9e f3 bf bd d3 f3 1b be
       0.046109583 -0.1273568 -0.09372638 -0.1522973
000260 ee b3 da bc 5a c5 b6 3c 91 44 38 be 34 83 03 be
       -0.026697125 0.022310901 -0.17994906 -0.12843019
000270 67 31 1e 3e 4c c0 20 3d cc 7d dd 3d 0d 48 ca 3b
       0.15448533 0.03924589 0.108150095 0.00617314
000280 c8 2b 4e 3d dc 2e 95 bd 06 22 2e 3e c0 df 0f 3d
       0.05033472 -0.07284328 0.17005166 0.035125494
000290 c9 3d 32 bc a5 3c a5 3c 17 d4 f5 3d 48 3f 12 bb
       -0.010878989 0.02017052 0.120033436 -0.002231555
0002a0 64 0d 60 be a5 2a 96 3c 07 48 c5 3b 3e cb 90 3d
       -0.21880108 0.018330881 0.006020549 0.07070015
0002b0 00 a4 29 3e 68 73 35 bb d9 d0 a5 bd 13 6d 40 3e
       0.16566467 -0.0027687196 -0.08096475 0.18791609
0002c0 a4 4f a7 bc ab bf ed 3d 0a 32 4d 3d be e5 f6 3a
       -0.020423718 0.116088234 0.05009655 0.0018836779
0002d0 af 45 07 bd 32 4d 9b 3d 49 f2 8f 3d 55 a0 ef 3d
       -0.03302544 0.07583083 0.07028634 0.11700503
0002e0 45 e2 44 bd 55 1b 5a be 68 76 f1 3d 73 ec 02 3e
       -0.04806735 -0.21299489 0.11790162 0.1278551
0002f0 cb 4f 85 3d 75 b3 48 bd 57 94 67 3d 1b f2 ce bd
       0.0650936 -0.04899927 0.056537952 -0.10104772
000300 38 39 db bc e8 0b 91 3d 48 89 37 be 6a e5 8a 3d
       -0.026760682 0.07082349 -0.17923462 0.067820385
000310 9d 97 ed 3d b5 2e 04 3e 32 2c bc bd 78 b9 55 bd
       0.116011836 0.12908442 -0.09188117 -0.05217883
000320 ce 95 1d be 32 75 21 3e 3d 95 07 3e 27 2b 89 bd
       -0.15389177 0.15767363 0.13240524 -0.06697684
000330 33 a8 65 bd 32 49 3e bd 4b 35 3b 3e 72 06 12 be
       -0.05606861 -0.046456523 0.18282048 -0.14260271
000340 4a 97 23 3e af 5b 22 3d 8a 03 a8 3d 71 56 8e 3e
       0.15975681 0.039638218 0.082038 0.27800325
000350 94 6d 28 bd 8e 97 5e 3d 1c 77 35 be af 65 ad 3d
       -0.041120127 0.054343753 -0.17721218 0.0846666
000360 a4 16 7f 3d 31 b5 3c be 80 36 15 3e 6d e3 d0 bd
       0.06227745 -0.18428494 0.14571571 -0.10199628
000370 83 25 f4 bc 83 e5 28 be f4 fd ae 3d 71 be 23 3d
       -0.029803043 -0.16493802 0.085445315 0.03997654
000380 f6 5c 1e 3e 48 af f1 3d f0 32 aa 3c 2a cc bb bc
       0.1546515 0.1180101 0.020776242 -0.022924501
000390 ec 4f fb bc 4d a0 05 3d 0d 8d 5f bc d1 a1 6c 3c
       -0.030677758 0.032623578 -0.013644469 0.014442877
0003a0 d8 ab f8 bc cd 2c dc 3d 12 db b7 3d 7f ec e5 3d
       -0.030355379 0.107507326 0.08977331 0.11226749
0003b0 b4 5b 5a bd 24 4a b7 39 81 0c ec bc 98 ad dc bc
       -0.05331011 0.0003495972 -0.028814556 -0.026938245
0003c0 9d 1b ba 3b d8 bb fe 3d 20 5f 2c 3d 02 bb 8e bd
       0.0056795613 0.12438172 0.042082906 -0.06969263
0003d0 9f 53 8f be b8 39 1c be dc b6 0d 3e 56 4f 69 bd
       -0.27993485 -0.15256393 0.13839287 -0.056960426
0003e0 15 6d 29 be 66 c6 34 3e 02 a4 ad 3d 4b 4f 08 3e
       -0.16545518 0.17653808 0.08478548 0.13311498
0003f0 f8 b7 95 bd 5f 54 06 3d 22 8b 87 bc 5c cd ca bd
       -0.0731048 0.032795306 -0.016545836 -0.099024504

fc1.bias f4 [128]
000000 5b d2 ce 39 b6 ab 14 3a 64 ab 0b ba 88 33 76 38
       0.0003944811 0.0005671339 -0.00053279684 5.8698963e-05
000010 01 77 bb 39 87 4c ba b9 58 a5 e8 39 c0 dd ba 39
       0.00035756084 -0.00035533702 0.0004437368 0.000356419
000020 e5 b5 5d 39 72 23 87 38 19 b7 01 ba 31 5f e5 ba
       0.00021143963 6.443904e-05 -0.0004948243 -0.0017499683
000030 fc d6 bc 3a 44 4a 34 b9 c2 d5 58 ba 20 4a a2 39
       0.0014407332 -0.00017193804 -0.00082715985 0.00030954275
000040 b0 aa 35 38 59 0d c6 39 51 b7 5f ba 1b 79 1b b9
       4.3312728e-05 0.00037775448 -0.0008534091 -0.00014827067
000050 b2 df ef b8 8d 82 b8 39 5f 69 1b ba 62 18 10 ba
       -0.000114380746 0.00035192483 -0.0005928482 -0.00054967974
000060 88 83 e2 b9 65 7a 86 b9 03 31 9f ba 59 f5 05 b8
       -0.00043204078 -0.00025649663 -0.0012145344 -3.193817e-05
000070 a4 2a 4a b7 af 25 96 b8 83 6a c4 b9 4c 37 d5 39
       -1.2050066e-05 -7.1595765e-05 -0.0003746339 0.00040667725
000080 ca e4 81 b9 44 57 56 b9 19 fb b1 3a e8 5e 60 ba
       -0.00024775258 -0.0002044114 0.0013578861 -0.0008559064
000090 74 d6 88 3a 4d b2 2c 3a 64 f4 0a 3a bd 82 3d b9
       0.0010439889 0.0006587848 0.0005300699 -0.00018073148
0000a0 d6 b2 17 ba 1d b0 82 3a 65 31 29 ba cf 32 a3 38
       -0.00057868415 0.0009970699 -0.0006454199 7.7819095e-05
0000b0 c2 c3 c8 b9 4e d5 4e 3a 03 dc 8c 38 14 39 aa 3a
       -0.00038292824 0.0007890061 6.7167006e-05 0.0012986981
0000c0 e9 58 22 ba 78 0e 6a b8 b7 fb 84 ba 18 52 79 b9
       -0.0006193058 -5.5803423e-05 -0.0010145818 -0.00023777073
0000d0 03 a4 36 b9 51 60 2b 39 25 14 b5 b9 90 2a 5a b9
       -0.00017417972 0.00016343711 -0.0003453802 -0.00020805956
0000e0 48 08 10 39 33 70 81 ba fe 4d 95 38 1d 97 10 b9
       0.00013735995 -0.0009875357 7.119401e-05 -0.00013789204
0000f0 a9 a7 71 39 2d 6d 5a ba 4d be bf b9 b7 e4 84 39
       0.0002304601 -0.00083323085 -0.00036572144 0.00025347408
000100 8e 25 eb ba 15 4b a7 ba 6f 1e 75 ba ff ca c3 39
       -0.0017940269 -0.0012763465 -0.0009350543 0.00037344542
000110 1a 61 f6 b9 2b 46 7e b9 79 b1 93 37 5e 2c ee b8
       -0.00046993123 -0.00024249467 1.7606408e-05 -0.000113569884
000120 e6 d9 88 ba 43 3c c2 b9 06 43 2c ba 4e c4 df 38
       -0.0010440915 -0.00037047462 -0.00065712666 0.00010670033
000130 c8 d2 50 ba 76 4d 60 3a 9d 24 2c 39 6a eb ad ba
       -0.0007965979 0.00085564645 0.00016416838 -0.0013269011
000140 8e ac 31 3a 4e 7f 95 b8 56 c6 2c 3a 9b 38 33 3a
       0.0006777727 -7.128586e-05 0.00065908337 0.0006836743
000150 27 01 2d ba 7e 93 59 3a bd 5a 0b ba bb 60 29 ba
       -0.0006599598 0.0008299871 -0.000531595 -0.00064612523
000160 52 f8 8d b9 50 b7 9f b8 53 02 98 3a 7f 66 db b9
       -0.0002707863 -7.6158554e-05 0.0011597372 -0.000418473
000170 e1 3b a2 b8 06 bc 74 39 41 ae 8f 38 5e b1 e5 b9
       -7.735915e-05 0.00023339698 6.851229e-05 -0.00043810433
000180 09 2d 91 37 92 41 a3 39 27 a4 b7 38 fe 2b a9 ba
       1.7306318e-05 0.00031138636 8.756696e-05 -0.0012906787
000190 24 88 72 39 96 75 ba b9 b2 c1 e7 b8 46 f5 5f 3a
       0.00023129635 -0.00035564293 -0.00011051017 0.00085433235
0001a0 1f 03 63 ba bb 87 6a 39 f0 13 88 37 f2 53 6c ba
       -0.0008659828 0.00022366543 1.6221748e-05 -0.00090151944
0001b0 4b bd 21 b9 f1 9a f3 39 0a 79 4f b9 90 77 4c b8
       -0.00015424674 0.00046464012 -0.00019786149 -4.874874e-05
0001c0 a7 49 e1 39 62 8a b6 ba 2f b1 84 3a 96 8b 82 38
       0.0004297022 -0.0013926739 0.0010123606 6.224883e-05
0001d0 e0 f1 11 b9 8d 90 29 39 2b 20 88 b8 3c 49 10 b9
       -0.00013918383 0.00016170945 -6.490977e-05 -0.00013760192
0001e0 04 7d 3c 3a e3 34 58 3a d6 6b c0 b9 44 b6 40 3a
       0.00071902596 0.0008247627 -0.00036701438 0.00073513784
0001f0 a7 c8 39 b9 1f 9f fd b9 b7 2e 02 ba 91 51 4c b9
       -0.00017717724 -0.00048374475 -0.00049660675 -0.00019485342

bn1.weight f4 [128]
000000 5c ac 79 3f bc e6 85 3f 0f 9e 6f 3f 82 31 6e 3f
       0.97528625 1.046104 0.93600553 0.9304429
000010 88 02 69 3f 4d 40 6e 3f ef 2c 5f 3f b2 f3 4c 3f
       0.9101949 0.93066865 0.8717794 0.8005935
000020 0e 8c 5f 3f 62 ba 7a 3f 0c 33 78 3f 6a eb 70 3f
       0.8732308 0.9794065 0.9695289 0.94109213
000030 ca 96 67 3f f8 22 45 3f 80 3c 68 3f ba 04 76 3f
       0.9046446 0.77006483 0.90717316 0.9610096
000040 9a 65 6a 3f 4c cb 5e 3f d1 79 6a 3f 42 9a 6f 3f
       0.9156128 0.87028956 0.9159213 0.93594754
000050 40 72 8c 3f 8a b3 87 3f a4 09 76 3f eb da 61 3f
       1.0972366 1.0601666 0.9610846 0.8822467
000060 55 18 64 3f ba a3 77 3f 88 47 70 3f 94 5e 4c 3f
       0.8909963 0.967342 0.9385915 0.79831815
000070 6b 0b 75 3f 68 78 5a 3f d7 99 79 3f 62 ab 72 3f
       0.9572055 0.85339975 0.97500366 0.9479276
000080 e9 29 69 3f 03 ac 77 3f ac a5 64 3f 0a 65 8b 3f
       0.91079575 0.96746844 0.89315295 1.089021
000090 10 15 7b 3f 6e b5 84 3f 86 09 73 3f 30 75 5b 3f
       0.98079014 1.0367868 0.94936407 0.8572569
0000a0 a6 1a 5f 3f ec db 89 3f ef fe 7d 3f 8e f9 61 3f
       0.8715004 1.077024 0.9921712 0.88271415
0000b0 78 ed 6c 3f 88 7e 7b 3f 0f 68 80 3f fa 23 78 3f
       0.9254985 0.98239946 1.0031756 0.96929896
0000c0 54 f7 90 3f e2 e5 6f 3f 64 93 67 3f 59 47 67 3f
       1.1325479 0.9371015 0.90459275 0.9034324
0000d0 de 2d 70 3f 8f 7f 66 3f e1 9b 6d 3f 6b 8e 72 3f
       0.9381999 0.9003839 0.9281598 0.9474856
0000e0 80 ee 57 3f f4 13 98 3f 3c 5b 78 3f 5a ac 80 3f
       0.843483 1.1881089 0.9701421 1.0052598
0000f0 dd 1e 88 3f c0 24 78 3f 23 27 6f 3f 6a 2c 64 3f
       1.0634419 0.96931076 0.9341909 0.8913027
000100 b9 51 7a 3f ed f7 6e 3f d2 38 69 3f 33 91 6b 3f
       0.9778095 0.93347055 0.91102326 0.9201843
000110 3c 5f 64 3f 92 c9 7f 3f c3 5c 8c 3f f6 4b 74 3f
       0.89207816 0.99916947 1.0965809 0.9542841
000120 5f 07 70 3f 15 8b 64 3f 72 94 6d 3f 78 07 57 3f
       0.9376125 0.8927472 0.92804635 0.8399577
000130 18 bc 6a 3f c1 22 7a 3f 30 0b 75 3f a3 2b 79 3f
       0.9169326 0.9770928 0.95720196 0.9733221
000140 06 a2 6a 3f 06 bc 7e 3f 02 57 64 3f 1a 7e 5f 3f
       0.9165348 0.9950565 0.89195263 0.8730179
000150 d0 e4 82 3f 3a 3a 66 3f 57 43 74 3f 54 f6 62 3f
       1.0226078 0.89932597 0.9541525 0.88657117
000160 a4 0a 8c 3f 9d 0c 5f 3f 84 d1 6a 3f 9c b4 6b 3f
       1.0940747 0.8712862 0.91725945 0.92072463
000170 32 ee 5e 3f 4b 07 62 3f de d8 87 3f e3 5f 72 3f
       0.8708221 0.8829238 1.0613058 0.9467756
000180 b9 4e 6f 3f 0d fc 7a 3f 1c d0 73 3f 9d ad 7c 3f
       0.93479496 0.9804085 0.95239425 0.9870241
000190 69 60 6d 3f 06 0a 7b 3f 3a 1c 5d 3f 93 ec 74 3f
       0.92725235 0.9806217 0.86371195 0.95673484
0001a0 e3 d7 60 3f 97 4a 7e 3f 69 5f 73 3f 52 02 71 3f
       0.87829417 0.99332565 0.9506746 0.94144166
0001b0 dc ba 61 3f 2a 32 7b 3f 07 7e 6f 3f 00 dc 64 3f
       0.8817575 0.9812342 0.9355168 0.89398193
0001c0 0f 72 6b 3f 8a 6c 6e 3f 38 25 72 3f c0 e8 58 3f
       0.91970915 0.9313437 0.9458804 0.8473015
0001d0 2f b5 6c 3f 6f 40 59 3f b1 0d 86 3f e5 2c 6c 3f
       0.92463964 0.8486394 1.0472928 0.92256004
0001e0 f3 17 70 3f cd d1 5b 3f 48 cd 5e 3f 0c e9 6d 3f
       0.93786544 0.85867006 0.87031984 0.92933726
0001f0 e7 99 76 3f 98 63 7a 3f bf 8f 72 3f 62 a0 70 3f
       0.96328586 0.9780822 0.9475059 0.93994725

bn1.bias f4 [128]
000000 65 0e c7 be aa 9a 50 be 87 76 c0 be 6c 12 aa be
       -0.3887817 -0.203715 -0.3759043 -0.3321718
000010 df d2 dd be 9d e1 c5 be 21 2e c2 be dc 2d 9d be
       -0.43324944 -0.38648692 -0.3792582 -0.3069905
000020 33 50 d2 be ab 59 cd be 72 53 ad be e6 71 bb be
       -0.41076812 -0.40107474 -0.33852726 -0.36610335
000030 7f 2b a9 be 10 2c aa be ea d8 a6 be c3 48 b6 be
       -0.33040997 -0.33236742 -0.32587367 -0.35602388
000040 54 aa db be 37 15 e4 be 75 61 c7 be a3 a9 ca be
       -0.42903388 -0.44547436 -0.3894154 -0.39582548
000050 09 32 88 be 3d a4 f5 bd 48 6b bb be 37 87 da be
       -0.26600674 -0.119942166 -0.36605287 -0.42681286
000060 92 0c d6 be 43 99 92 be 9e b5 d7 be df 34 a3 be
       -0.41806465 -0.28632554 -0.4213075 -0.31876275
000070 97 7e b4 be fa 13 c6 be 43 e0 86 be 83 7b 8b be
       -0.3525283 -0.38687116 -0.26342973 -0.2724267
000080 12 bb b1 be 55 ef c3 be f7 00 aa be 29 dd 80 be
       -0.34713036 -0.38268533 -0.3320386 -0.25168732
000090 36 11 a8 be ed f6 75 be 73 21 a4 be 34 05 c6 be
       -0.3282563 -0.24019976 -0.3205677 -0.38675845
0000a0 1d 2c b3 be 3d ff 40 be b6 73 af be cd f8 d5 be
       -0.34994593 -0.18847366 -0.34267968 -0.41791382
0000b0 c4 dc 94 be 20 a9 d6 be f8 30 ca be cd e6 ac be
       -0.2907468 -0.41925907 -0.39490485 -0.33769837
0000c0 32 57 6c be e7 5f bb be 08 91 d6 be fd 61 a3 be
       -0.23080137 -0.36596605 -0.41907525 -0.31910697
0000d0 3f 05 b7 be aa d7 b8 be c1 ef c3 be d3 34 e1 be
       -0.3574619 -0.3610204 -0.38268855 -0.43985614
0000e0 6e f1 04 bf 4d 56 3d be e9 d5 8c be 01 52 a2 be
       -0.5193089 -0.18489952 -0.2750695 -0.3170319
0000f0 6c 8a 59 be 93 77 bd be 46 b1 b7 be 49 3b e2 be
       -0.2124421 -0.3700529 -0.35877436 -0.44185856
000100 50 e4 cc be ac 13 be be 21 e2 bd be 85 cf bb be
       -0.4001794 -0.37124383 -0.37086585 -0.36681762
000110 72 c1 f0 be 6d 64 91 be ee 2f 2c be 9c 68 b3 be
       -0.47022587 -0.2839693 -0.16815159 -0.35040748
000120 ad 36 ca be 1d e4 a3 be 70 74 d3 be bc 9b a8 be
       -0.3949484 -0.32009974 -0.41299772 -0.32931316
000130 2a e6 f4 be aa 7e be be b6 bf 9b be 22 5a 9a be
       -0.4783185 -0.37206012 -0.304197 -0.3014689
000140 a0 36 b6 be fc 9c 82 be bc 8e ca be 6e 2c d1 be
       -0.3558855 -0.25510395 -0.39562023 -0.4085421
000150 d2 f3 b4 be 4f c0 ab be 42 f8 98 be 8e 46 bf be
       -0.3534227 -0.33545157 -0.29876906 -0.37358516
000160 50 d9 79 be bd 95 e9 be f9 ee 7f be b7 5f d3 be
       -0.24399304 -0.45622054 -0.24993505 -0.41283962
000170 f7 35 ca be ec ac c3 be fe 38 42 be 50 4d a7 be
       -0.39494297 -0.38217866 -0.18967053 -0.32676172
000180 6d b6 b0 be 61 23 af be ae 16 c6 be d8 28 94 be
       -0.3451418 -0.3420668 -0.38689178 -0.2893741
000190 61 db d0 be 09 aa ab be f1 b3 ce be f7 64 e4 be
       -0.40792373 -0.33528164 -0.4037166 -0.4460828
0001a0 dd 9d bf be 61 c4 99 be 4e 39 d5 be 1d 42 a9 be
       -0.37425128 -0.30032638 -0.41645283 -0.33058253
0001b0 d0 98 c4 be 10 b0 c2 be 26 63 b0 be 83 ca c3 be
       -0.38397837 -0.3802495 -0.34450644 -0.38240442
0001c0 51 ea dc be 41 53 be be e4 78 a6 be 57 21 a9 be
       -0.4314752 -0.37172893 -0.32514107 -0.3303325
0001d0 22 db c6 be 34 23 cd be 7c f5 31 be 7b e0 c5 be
       -0.3883906 -0.4006592 -0.17378801 -0.38647828
0001e0 b1 52 ae be 8b 85 b3 be 3c 28 b8 be 3f 8e ef be
       -0.34047464 -0.35062823 -0.35968196 -0.46788213
0001f0 5c 8a cf be 4c 98 a2 be a6 ef a1 be 5d 77 dc be
       -0.40535247 -0.31756818 -0.3162815 -0.43059817

bn1.running_mean f4 [128]
000000 d8 c0 5a 3e 9f 7d 9e be b0 fa ad 3c 92 b8 e5 bd
       0.21362627 -0.30955216 0.021237701 -0.112168446
000010 f7 c4 23 3c b1 7c 8a 3e 78 d3 77 bc 92 31 a5 3c
       0.009995691 0.27048257 -0.015126102 0.020165239
000020 71 7a 11 be a7 f1 5c 3e 74 1d 45 3e ef 2e 2d 3e
       -0.14206864 0.21576558 0.19249517 0.16912435
000030 f3 de cf 3d 36 e2 d2 3d a0 0a ab 3e db c8 c3 3e
       0.10149946 0.102970526 0.33406544 0.38239178
000040 98 de df bb f3 19 8b 3e ef 28 be ba 62 db 2a bc
       -0.006831955 0.27168235 -0.0014508049 -0.0104282815
000050 28 f9 9f be 57 54 7a be ef 5f 3d 3c b6 22 d5 3e
       -0.3124478 -0.24446236 0.011558517 0.41628045
000060 05 4e 03 3e 20 8b 83 3e 21 de 9d 3e a8 f2 66 3e
       0.12822731 0.2569208 0.30833533 0.22553504
000070 8b 0d b6 3e 87 cc 3c 3d 15 06 9d 3e 87 8d 37 3e
       0.35557207 0.04609349 0.30668703 0.17925082
000080 39 de 11 be 43 5b 84 3d f2 8b bf 3e 13 bc 7d be
       -0.14244927 0.06462719 0.37411457 -0.24778776
000090 20 e3 81 3e 5a e6 9b 3e c4 4a 12 3f 39 18 79 be
       0.25368595 0.30449182 0.57145333 -0.24325646
0000a0 f8 90 d7 3d 2c f0 8e be ee 25 33 3e 24 a5 cb 3d
       0.105256975 -0.27917612 0.17494938 0.099436074
0000b0 b1 19 fc bb 6c 02 45 3e 8a 04 91 3e a8 5f 93 3e
       -0.0076934923 0.19239205 0.28323776 0.28783917
0000c0 a5 38 b2 be 9b ef 97 3e 0d 8c be 3e 2f b1 98 3e
       -0.3480884 0.29674992 0.37216225 0.2982268
0000d0 fe 7a 8e 3e 88 cc 85 3e eb 23 61 3e 21 15 ef 3e
       0.2782821 0.26132607 0.21986358 0.46695808
0000e0 e7 8d fa 3d 57 37 94 be 4d 71 f9 3e bf 0c a9 3e
       0.12234097 -0.2894847 0.48719254 0.33017537
0000f0 c2 04 81 be 15 b3 2a 3e 23 51 59 3e ba 4e 0d be
       -0.25198942 0.16669877 0.21222357 -0.13799563
000100 b5 d4 8a 3e a7 92 b3 3e 79 dd 0f 3e ec 80 64 3e
       0.27115408 0.35072824 0.14049329 0.22314805
000110 0f 20 05 3e 60 8a 44 3e 78 00 88 be dc 2d d7 3d
       0.1300051 0.19193411 -0.26562858 0.10506794
000120 f0 42 af 3e ed ca 92 bc da 58 a3 3d d8 5e 0e 3e
       0.34230757 -0.017919028 0.079759315 0.13903368
000130 d3 89 46 3d 0a 91 b3 3e 71 e1 03 3f 99 4f c6 3e
       0.048471283 0.35071594 0.5151587 0.38732603
000140 3b 1c 73 3e e5 46 c6 3e 5f ad 33 3e ac e2 33 be
       0.23741238 0.38725963 0.17546605 -0.17566937
000150 57 69 1d 3e 4f 39 87 3e 9d a5 31 3e a5 55 cb 3d
       0.15372215 0.2641091 0.17348333 0.09928445
000160 b2 67 a3 be 73 ed ea 3e c9 5f 4b be 30 4d 04 be
       -0.3191505 0.45884284 -0.19860758 -0.1292007
000170 3b 30 19 3d b7 eb 46 3e 23 32 9d be 44 64 48 3d
       0.03739951 0.19425856 -0.30702314 0.048923746
000180 b7 ee 45 3e e8 60 6d 3e 0d 3e 54 3e 17 c2 9c 3d
       0.19329344 0.23181498 0.20726795 0.07654207
000190 8e 8f 0b 3e ac 22 90 3e 8e 3d 3f 3e 1b 2d 75 3e
       0.1362898 0.28151453 0.18675825 0.23942988
0001a0 30 d9 3b bd fe fa 92 3e d4 d1 85 3e 4c d4 a8 3e
       -0.045861423 0.28707117 0.2613665 0.3297447
0001b0 46 53 8c 3e 80 79 85 bd 60 87 94 3e 86 bb cd 3d
       0.27407283 -0.06517315 0.29009533 0.10045533
0001c0 ae 89 4d 3d 79 64 8a 3e bf 17 62 3e fe b7 da 3e
       0.05018013 0.2702978 0.22079371 0.427185
0001d0 b6 cf 8f 3e de 5d 19 3e 0d f4 93 be 34 41 a3 bc
       0.28088158 0.14977214 -0.28897133 -0.019928552
0001e0 13 b5 5f 3e 48 90 e7 bd 3a ec 90 3e 7d 2b 04 3e
       0.21846418 -0.11306816 0.28305227 0.12907214
0001f0 09 a6 79 3e 8e 9d de 3e 4a b4 ed 3e 70 92 5c be
       0.24379744 0.4347958 0.46426612 -0.21540236
