models/hybrid_neurons_pretrained/MLP2_HUMAN_d2v_3_att.pth (torch, 207514 bytes, 34 tensors)

embedding_proj.weight f4 [96, 3]
00000000: d070 553b d6b6 a13c e7fa 803b a0da 253d
00000010: ab65 cd3b d10f 8bbb 3111 cb3d db6a 40bc
00000020: 580b 2fbd 36f2 57bd 97ba 8fbd cf5a 5fbd
00000030: 90ef 143e 8e0b 173e 57ff 503d 7e22 643d
00000040: 81a3 0cbe 2a51 0dbe 94d5 2e3c 173a 9f3c
00000050: 1406 bd3d c527 75bc 65e4 373d 7e57 0d3e
00000060: e037 053c e928 cd3d 4d84 adbc d95b d33b
00000070: 1b8b 8ebc 4c8c 9c3d 2271 9fbd 25b1 7cbc
00000080: 4b7e a13d 0700 9e3d 9a09 0d3b 74f5 213d
00000090: f8ac 11bd 704c d3bd 3003 12be d710 07be
000000a0: 572c 24be 9b33 a9b9 7c43 55bd 9d97 e039
000000b0: 4c65 f53c e4a8 e23c ed33 253b f9d5 c13d
000000c0: 82d1 b8bd acfc d0bc 0fc2 2b3e 2132 febd
000000d0: 7354 943d 7a6c 383e fcd8 113d 50d1 afbc
000000e0: 0738 df3d d89f b6bc ab26 073e 58e3 2cbd
000000f0: 8f7d ebbd 4144 82bd e402 30be bcc8 c8bd
00000100: 77f9 97bd bdfc 64bd 1c91 963c de69 ab3d
00000110: 213d 82bb 42a1 b8bb 337d 86bd 2f01 24bd
00000120: 71ec 563c b06f 94ba a786 81bc 3de6 113e
00000130: c438 11be 7d0b 84bd 7270 93bc a704 00bd
00000140: 8acc 683b a81e 5d3d 718c 503d 6461 b8bd
00000150: 9d01 413d d0f0 c9bc 8fee d4bc 3e9e 943d
00000160: 1c2d 33bd e252 153e 956f 6dbd 82d6 e33d
00000170: c38d 03bd 4231 0dbe 13ce a7bd c71a 91bd
00000180: 259a be3d 955f 70bd 53f1 92bd 4b74 0b3e
00000190: 7835 98bd d1a8 ab3d f5bd e93d d87b 7fbd
000001a0: e416 fc3d 713b 893d 3d56 c2bd ca0a 1f3d
000001b0: feff 493d d6e7 d63c ecde 22bd 28d9 16bd
000001c0: a72a a4bd b078 173d ea37 943d d5a0 5dbd
000001d0: 83e9 163d 6e5e 323e 3f5c 013d cd6c ec3d
000001e0: 299c a83d 113c ff3c ee49 03bb 1276 40bd
000001f0: 00ff d7bd 5136 77bd 8d0f b53d 6492 3b3e
00000200: 88e6 283e 75bb 623d 3d6e 823d 9933 783d
00000210: 34b4 0bbe ffcf db3c cdbc a83d 0323 adbc
00000220: 01f7 b3bd fff6 0bbd 71c6 c83c 388c e13d
00000230: ab33 a4bd a2fb adbd f360 e73b 04ed 773d
00000240: 618e 3e3c b072 ef3d 5dec 94bd df00 853b
00000250: 51f4 8abb 1279 063c 7fdc 413c ab69 b23d
00000260: 42eb ddbd 4b2f 723d f956 e3bd 1faf 1d3c
00000270: 9238 69bd 9cc8 fb3d 9ff3 abbd 343b ed3b
00000280: 2953 6a3d 6d8f 92bc 32fd e6bb 2243 233d
00000290: f329 ccbd 4169 6ebc 16ac a7bb 9390 77bc
000002a0: 2a5d 7ebc 2f80 5ebd efd3 ab3d 057c 0fbe
000002b0: 5665 89bd 2ac4 643d 1a27 20be effc 54bd
000002c0: cc0e 16be cf97 1b3d d6ab 8b3c 4e72 d4bc
000002d0: dbab d9bd 1cf7 313e d51a fa3d 2b87 183c
000002e0: c733 adbd faa2 733a 8433 b33d b0b0 f1bc
000002f0: 669e b9bd d5aa 7c3d f331 383e a618 a6bd
00000300: c91b 02be 6c28 e7bd 6fbb f4bd b045 a0bd
00000310: 1c09 ea3c 6066 cf3d 7515 84bd fc59 173e
00000320: 75ed 263e aa1c 7b3b 1823 673d 66f9 a0bd
00000330: b5db dcbd 0ea1 2a3d 2744 9dbc 3993 e2bd
00000340: 2919 0fbd e9a2 e73d 0852 1ebd 31d0 883d
00000350: 7733 f93d c352 5138 e943 26bc d5f1 0d3c
00000360: a3e0 38bc a2d9 17bc 6f99 fbbd 1fc0 793c
00000370: f812 a53c e069 c73c d62d 1fbe 4b86 24bd
00000380: 507e bf3d 5e01 11be 2743 0dbd 93e1 9f3d
00000390: 0a24 04be 225a 183e bc75 6bbc 9e99 cdbd
000003a0: e763 c83d 1e01 0e3b d4e2 00bd 525c bebd
000003b0: 256a 9ebd 249e d0bd 6c84 54bd 7ef0 9abd
000003c0: 10cf 1c3e 38b9 9cbc ad24 10be effc 263e
000003d0: 252d 81bd 908b 90bd 53ce cd3d f94a 0cbe
000003e0: 2c93 92bb 55ec 18be 53d3 2ebc e1c7 41bd
000003f0: 409b 94bc 9edf 163e dea8 19be 36bc 073e
0.0032568462 0.019740503 0.00393616 0.0404917 0.0062682233 -0.004243829 0.099153884 -0.011744226
-0.042735428 -0.052721225 -0.07018011 -0.05452996 0.14544511 0.14750502 0.05102476 0.055696957
-0.13734247 -0.13800493 0.010671038 0.01943688 0.09229675 -0.014963095 0.04489555 0.13802907
0.008130997 0.100175686 -0.02118125 0.006450158 -0.017400315 0.07643947 -0.0778525 -0.015423094
0.078854166 0.07714849 0.0021520616 0.039540723 -0.035565346 -0.10317314 -0.14259028 -0.13190018
-0.1603254 -0.0003227264 -0.05206631 0.0004283757 0.029955529 0.027668424 0.0025207952 0.0946464
-0.090243354 -0.025511108 0.16773246 -0.12411905 0.0724267 0.1801013 0.035607323 -0.021462113
0.10899358 -0.022293016 0.13198344 -0.042209 -0.11498558 -0.06360675 -0.17188603 -0.09803912
-0.074206285 -0.055905093 0.01837974 0.08369802 -0.0039745723 -0.005634458 -0.065668486 -0.04004019
0.013117895 -0.0011324789 -0.015811278 0.14247985 -0.1418181 -0.06447504 -0.017997954 -0.031254437
0.0035522305 0.053984314 0.050915185 -0.09002951 0.04712068 -0.024650961 -0.02599266 0.07256745
-0.04374419 0.14582399 -0.05796774 0.111248985 -0.032117616 -0.13788322 -0.081936024 -0.070851855
0.093067445 -0.058684904 -0.07174935 0.13618581 -0.07432073 0.083818085 0.114131846 -0.062373966
0.123090535 0.06700791 -0.09489105 0.03882865 0.0493164 0.026233595 -0.039763376 -0.03682819
-0.08015948 0.03698033 0.07237227 -0.05410846 0.036843788 0.17418835 0.031582113 0.115441896
0.0823291 0.031156572 -0.002003308 -0.0469876 -0.10546684 -0.060354535 0.08840857 0.18317562
0.1649419 0.055354554 0.063686825 0.060596082 -0.13642961 0.026832579 0.08239136 -0.021134859
-0.08787347 -0.0341711 0.024508687 0.11013073 -0.080176674 -0.08495261 0.007061118 0.06052877
0.011630625 0.11691797 -0.07271645 0.0040589417 -0.0042405506 0.008207576 0.0118323555 0.08711561
-0.108358875 0.059127133 -0.11100573 0.009624272 -0.056938715 0.122941226 -0.083960764 0.0072397236
0.057208214 -0.017890656 -0.007049226 0.039858945 -0.09968939 -0.014551462 -0.00511695 -0.015110153
-0.015525142 -0.054321464 0.083900325 -0.14012153 -0.067087814 0.05585114 -0.15639916 -0.05199903
-0.14654082 0.037986573 0.017049711 -0.025933411 -0.10628482 0.17379421 0.12212149 0.00930957
-0.08457141 0.0009294 0.0875006 -0.029503196 -0.09063415 0.061686356 0.17987804 -0.0811017
-0.12705912 -0.11287007 -0.119498126 -0.07825792 0.028568797 0.10126948 -0.06449405 0.1478042
0.1630152 0.0038316646 0.056429952 -0.07860069 -0.10784093 0.0416575 -0.019197537 -0.11063237
-0.034936104 0.113103695 -0.03865245 0.06680334 0.12168019 4.990656e-05 -0.010148027 0.008663614
-0.011284026 -0.009268196 -0.122851245 0.015243559 0.020150647 0.024342477 -0.15544829 -0.040167134
0.09350264 -0.14160678 -0.03448787 0.07806697 -0.12904373 0.14878133 -0.014371332 -0.10039066
0.0978468 0.0021668146 -0.03146632 -0.092949525 -0.07735089 -0.10186413 -0.0518841 -0.075654015
0.15313363 -0.019131288 -0.1407649 0.16307424 -0.06307439 -0.070578694 0.10049119 -0.13700475
-0.0044731107 -0.14933904 -0.010670501 -0.04730976 -0.018140435 0.1473374 -0.15005824 0.1325539

embedding_proj.bias f4 [96]
00000000: d398 97bb 0e5b 95bb b135 433a bb04 a53a
00000010: c94f 0ebb 4ee6 7cbb 2bd5 d6ba 27f1 903b
00000020: ed1f 0cbb 9e07 89bb 8b19 33bb 5463 e7b9
00000030: dcc9 e73b 1857 e03a bb74 9dbb aab1 55bb
00000040: 17a7 b7b7 e74f 8bbb bc4e 24bb 6b8f 52bb
00000050: d743 e9ba e2ae 75bb 739d c8bb b9cc 16bb
00000060: 462d 57bb 8908 1a3b 2777 f1bb d91b 86bb
00000070: 2ddf 15bb 1e0f 213b 7369 faba 38e3 16bb
00000080: 67a7 f83a 6124 863b f608 2b3b 351e 003b
00000090: 730e d4bb 6f57 983b f292 60bb d1d2 923a
000000a0: e746 feba 6df9 3ebb dfad b4ba a1a9 333b
000000b0: 898e ae3b 3332 47ba 4b32 c6ba 73ab 1fbb
000000c0: 7b01 26bb 3a95 af3b 7897 f1b7 9c23 81ba
000000d0: a3d8 103b 7404 cebb 4c92 d53b 1a9d 17bb
000000e0: a04b c9bb d513 273b ec48 9a3b b7bf 0bba
000000f0: 5a93 e3ba 863e 18bb 15fc 333c 2d94 9a39
00000100: b03b 4a3b 87ab 48bb 65c3 843b 75dd 9bbb
00000110: 5241 7bba 03ea a83a 8ee1 87bb d78e 8eb9
00000120: 4eba 0ebb 2414 f03b 67eb a6bb b077 94bb
00000130: bc0a b8bb 756a 4dbb eced 833a 2093 e6ba
00000140: 6682 94ba 0ec8 ae3b 9dd0 f23a f955 eb3a
00000150: c543 43ba 9dfc ccbb e5ff fc39 a9c2 eb3b
00000160: 7e92 9eba 111f 623a 60dc 72bb 67c3 243a
00000170: d8f5 e9bb 4d43 a5bb f68a a5bb b15b 713b
-0.0046263724 -0.0045579737 0.00074466603 0.0012589911 -0.0021715036 -0.003858942 -0.0016390433 0.004423279
-0.0021381334 -0.0041818162 -0.0027328457 -0.0004413376 0.007073624 0.00171158 -0.004805175 -0.0032607117
-2.1893107e-05 -0.0042514685 -0.0025071343 -0.003212894 -0.0017796707 -0.0037488271 -0.006122285 -0.0023010208
-0.0032833382 0.0023503623 -0.0073689404 -0.004092675 -0.0022868619 0.002457566 -0.0019104913 -0.0023023617
0.0018970788 0.004093692 0.002609787 0.0019549255 -0.006471449 0.004649095 -0.0034267274 0.0011201744
-0.0019399793 -0.0029140369 -0.0013784728 0.002741434 0.00532705 -0.0007598728 -0.001512119 -0.0024363666
-0.0025330472 0.0053583654 -2.8799972e-05 -0.0009852531 0.0022101782 -0.006287152 0.006517684 -0.0023134411
-0.0061430484 0.0025493999 0.0047084 -0.0005330997 -0.001736264 -0.0023230626 0.010985394 0.00029483569
0.003085833 -0.0030619816 0.004051613 -0.0047566243 -0.00095846236 0.0012887124 -0.0041467613 -0.00027190775
-0.0021778527 0.0073266197 -0.00509398 -0.0045308694 -0.005616514 -0.003134397 0.0010065413 -0.0017591454
-0.0011330366 0.005333907 0.0018525306 0.0017954699 -0.0007448758 -0.0062557 0.00048255842 0.007194836
-0.0012098101 0.0008625845 -0.0037057623 0.0006285221 -0.0071399026 -0.0050434233 -0.005051966 0.0036828334

categorical_proj.weight f4 [17, 17]
00000000: 513f bf3d 2adc cabd b666 4b3b 6e8d 4abe
00000010: 8101 de3d f760 40be 35a7 7b3e 40cb 4e3e
00000020: 258c 63be 9b00 553e 1d06 eb3e 14b3 693e
00000030: 8c10 633e 2313 d8bd d4e8 173e 55fc edbc
00000040: 3225 b43e 20e5 b0bd f327 863b dc31 7ebe
00000050: 230c 4ebe f9c8 8a3e 3027 303e 2759 33be
00000060: cd15 b53e 4713 cdba da7d 3bbe e622 823e
00000070: 7869 303e 0921 b63e d831 7ebe 6cef 3c3e
00000080: 1c3d 82be 6a4e 20be 1dc2 0e3f 4dda 0a3d
00000090: 7b19 a33e 9dfd 7dbe ca44 80be ecea 7d3d
000000a0: 419e 6dbd 2743 a13e f5f4 cdbd 7b7a 87be
000000b0: bf04 9c3e c5f4 673e 8563 21bf d9e8 b63e
000000c0: e208 963e abff 39be 8afa 11be d748 94be
000000d0: 45e1 02bf fe81 78be b94b 9a3e 05b4 a0bc
000000e0: 7f58 d13e 04a9 8bbe e445 b6be c383 28be
000000f0: 6ff2 a33d 0b96 be3e b187 8dbe b794 21bf
00000100: 164e 5cbe 2693 aebe 177a 993d d6dc ac3e
00000110: f608 0cbf 484f b1bc 1ca4 f23d 3d89 57be
00000120: fd0f c5bd 6f9b 6b3e fb03 0bbe ce29 a8be
00000130: f115 debd 80d2 db3d 4268 23bf de2c 82be
00000140: c446 163f 1016 0e3d 87cc 1bbd 2dee dbbd
00000150: 285a 523d 7d29 0bbf 24e7 9d3e 6ef5 f8bc
00000160: a140 5bbe 8afb b83e 6ffc 28be 44ba 5dbe
00000170: dcb7 69be a79a 423e 41b7 a9be 36eb fcbe
00000180: a987 123e afa8 963e 5e44 453e 46e8 95bc
00000190: 4ef2 12be 2fc2 973e 82e7 fbbd ab50 603d
000001a0: 92f8 45be 43ad e6bd 8420 903e f469 593e
000001b0: f644 d03d bf9a 6bbe 83cf 5ebd cafd da3e
000001c0: dc8d 603e 539e 543e 6530 e0be 3270 953e
000001d0: 6da9 1e3e 5b5d fb3d 06a7 b33e 969c a63e
000001e0: ccd6 23be fc41 6c3e 45be 6ebe 2c34 553d
000001f0: 3e46 9cbe 3576 a6be 4abf afbd 7c6a 163e
00000200: 4625 5ebe 78b9 c93e a03b af3e d9bb 3fbf
00000210: 2e65 25be c65c b1be e96e 22bd 64aa b73e
00000220: d206 05bf 1795 65bd 520f bebe 2c0a 84be
00000230: a6ea 933e 09a8 743e d83f 01be 8048 6d3d
00000240: 1cee e83e 419e 063c 762e 0ebf 0511 123e
00000250: c91a d7be 68aa 07bd 39a3 9fbe 55f3 e9bd
00000260: 0380 a53e b7e7 bb3e 4e61 dabb 2018 393e
00000270: 73ef 29be 2bec 833d 8bca a93e 8c90 1d3e
00000280: c43f 023d 3de5 003e 47ac 66be a0bf 0f3f
00000290: 40c6 843e efd8 293e abcc 963e d07d ddbe
000002a0: 213c c3be 9ccb 903e f864 d2be 4c16 553e
000002b0: 4624 0abe 26b0 acbe 7b2c 853e 8b06 59bd
000002c0: cda0 89be 09e5 37be b0d3 393e 66c7 4ebe
000002d0: 98dc 943e dec0 cabd eea7 f7be ccb6 bebe
000002e0: da7b c0be 195a 39be bc40 ab3d 4167 463f
000002f0: 6293 32be a1da 5b3e 8752 703d 71b3 96be
00000300: 8785 73bd e083 713e af25 343d 181d 4bbd
00000310: 6e8f 843e 1ea9 b13e ca63 ccbe f3e4 10bd
00000320: a814 823e fd5e 9dbd 12b2 81be 49d6 b8be
00000330: cbe7 56be c1c3 453e 7b09 05be bcf4 57be
00000340: c82b 90be 8c02 57be 3088 243e 2fe0 75bc
00000350: 64ae febc 24aa 563d 6e1b 01bf 3f3d 043f
00000360: add0 fabe 6d11 983e e9f1 7abe 5341 993e
00000370: ee5b f0be 72ed 8dbe 5d8c b9be a14d 9cbd
00000380: b3f1 23be d791 8cbd 30ee 2dbf 15ef 83be
00000390: 40f3 01be ff98 a1be cbc3 10be cec2 fbbe
000003a0: a353 93be 42c3 133e 6265 9e3c 5a10 923e
000003b0: 195d 9cbc befb c83e a4ca 4e3e ccee fdbd
000003c0: e0c4 0bbe d64f 703e 5591 ac3e 6e11 34bf
000003d0: 18f2 33bc 9d94 6b3e 9ea5 773d e9c9 1bbc
000003e0: 0720 483e abaa 81be b07b 163d 3c2f e2bd
000003f0: 569e 1bbe 331e 3b3e bd6d 7b3d 47cc b3bd
0.093382485 -0.09905274 0.0031036562 -0.19780514 0.108401306 -0.18786989 0.24575503 0.20194721
-0.2222143 0.20801012 0.45903102 0.22822219 0.22174281 -0.10550525 0.1483491 -0.029050985
0.35184628 -0.08637452 0.004094118 -0.24823707 -0.20121817 0.27106455 0.17202449 -0.17514478
0.35368195 -0.0015646004 -0.18309727 0.2541725 0.17227733 0.3557208 -0.24823701 0.18450707
-0.25437248 -0.15654913 0.55764943 0.033899594 0.31855378 -0.24803777 -0.25052482 0.061991617
-0.05801225 0.31496546 -0.100564875 -0.26460633 0.3047237 0.22651966 -0.6304248 0.35724524
0.29303652 -0.18163936 -0.1425573 -0.28961822 -0.51124984 -0.24268338 0.30135897 -0.01961709
0.4088783 -0.27277386 -0.35600197 -0.16456513 0.08005225 0.3722385 -0.27642587 -0.63117546
-0.21514162 -0.3409664 0.0749399 0.33762234 -0.54701173 -0.02164425 0.11847708 -0.21048446
-0.0962219 0.23008512 -0.13575737 -0.32844394 -0.10844029 0.10733509 -0.6383096 -0.25424856
0.5870173 0.03468901 -0.03803685 -0.10738788 0.05135551 -0.5436018 0.3084041 -0.030390467
-0.21411373 0.3612941 -0.16502546 -0.21653086 -0.22824043 0.19004308 -0.33147624 -0.49398202
0.14309563 0.2942557 0.19264361 -0.018299233 -0.14350244 0.29640338 -0.12300016 0.05476443
-0.19333103 -0.11263516 0.28149807 0.21231824 0.10169403 -0.2300825 -0.054397117 0.4277175
0.21929115 0.20763521 -0.43786922 0.2918716 0.15494318 0.122736655 0.35088366 0.3254134
-0.15999907 0.23072046 -0.2331477 0.052051708 -0.3052234 -0.3251206 -0.08581407 0.14689058
-0.21693906 0.39399314 0.34225178 -0.7489601 -0.16151878 -0.34641093 -0.039656553 0.35872185
-0.5196353 -0.056050386 -0.37121063 -0.2578901 0.2888996 0.23892225 -0.1262201 0.05793047
0.45494163 0.008216442 -0.55539644 0.14264305 -0.42012623 -0.033121496 -0.31179217 -0.11423365
0.32324228 0.36700222 -0.0066644317 0.18075609 -0.16595249 0.0644153 0.3316234 0.15387172
0.031799093 0.12587447 -0.22526656 0.5615177 0.25932503 0.1658666 0.29453024 -0.4326005
-0.38131812 0.28280342 -0.41092658 0.20809287 -0.134904 -0.3372814 0.26010498 -0.052984755
-0.26880494 -0.17958464 0.18147159 -0.20193252 0.2907455 -0.09900068 -0.48370308 -0.37248838
-0.3759449 -0.18100776 0.083619565 0.775013 -0.17439035 0.21470119 0.058672454 -0.29433778
-0.059453513 0.23585463 0.04398125 -0.049588293 0.25890678 0.3469934 -0.39919883 -0.035374593
0.25406384 -0.07684133 -0.2533117 -0.36100987 -0.2098686 0.19312955 -0.12991898 -0.21089453
-0.28158402 -0.20997065 0.16067576 -0.015007063 -0.031089015 0.052408352 -0.5043248 0.51655954
-0.48987332 0.29700795 -0.24506344 0.2993265 -0.46945137 -0.2772022 -0.362399 -0.07631994
-0.1601017 -0.06863754 -0.6794157 -0.25768343 -0.12690449 -0.3156204 -0.14137189 -0.49172062
-0.28774747 0.14429954 0.019335452 0.285281 -0.019087361 0.39254564 0.20194489 -0.123990625
-0.1364932 0.23467955 0.3370463 -0.70339096 -0.010983013 0.2300591 0.06046068 -0.009508588
0.19543467 -0.25325522 0.03673905 -0.110441655 -0.15197119 0.18273239 0.06138395 -0.08779197

categorical_proj.bias f4 [17]
00000000: e6b9 e93b 2573 a938 edb4 fcba 0f9a 143b
00000010: 6294 123c 0a74 bfbb 9ea1 b238 7b61 283a
00000020: 5c06 07ba f3d0 173b 8994 77bb 911b ca3a
00000030: 052c 94ba 44b0 dcbb 7c63 25bc 5f76 b7bb
00000040: ab9a 583a
0.0071327565 8.079995e-05 -0.0019279994 0.0022674834 0.00894651 -0.0058426904 8.517805e-05 0.0006423217
-0.0005150789 0.0023165315 -0.0037777743 0.0015419592 -0.0011304623 -0.0067348797 -0.01009452 -0.0055988277
0.00082627934

combine_proj.weight f4 [128, 113]
00000000: 8225 bebd 4a70 8ebd 4469 13be 99d3 a93d
00000010: 1034 14be 3335 72bd 7c8d e1bd 0a85 90bd
00000020: 2aa1 f43d bb44 7b3d 3a67 c23d 5a0d f2bd
00000030: 4897 283e 9c0b 75bd 6e4b 3f3c a8d9 42bd
00000040: 05e6 0bbe 2c9c 8e3d c2ac b53d b4f5 143e
00000050: 86fd ec3c 84ed e4bd 81b1 40bd 9499 593b
00000060: 9c97 f0ba 2d0c f73d 8463 793c 680d 84bd
00000070: 15ef fa3c 1ecf 84bd 130d 58bd 76bb 2fbc
00000080: 9e7b 19be 5918 30be 48e7 8fbd 9f1d cf3d
00000090: d5c3 ffbd a656 07be b5c7 e03d 5ba5 423c
000000a0: 49f8 8dbd 6eda 05bc ea9d f4bd b027 08bc
000000b0: 8c9d 52bc b783 b53c 0f91 013e ad5b 6a3d
000000c0: 9c10 1c3e f7b7 843d 011a aabd 98ea 95bd
000000d0: 55f5 24bd 1fc6 f23d 3ff7 313e eb76 dfbd
000000e0: 2930 24be 46f6 f3bd ea86 05bc 5827 81bd
000000f0: 288f debc e6c3 7d3d 96ac 1d3e 4f1e b3bb
00000100: 54c7 e83d 275c d33d e382 83bd 3ac6 e73d
00000110: dba3 aebd ce84 fd3d 1a57 ceba ba21 7f3d
00000120: a4b5 abbd fe47 663d 97a2 58bd c4b0 533c
00000130: 11c2 68bd ad2e 3bbd 8f8f f43c 8286 1c3e
00000140: 02e6 bfbd 6b9a 853c 9f4b 03be 1ec3 a2bd
00000150: bde8 373d 3952 46bd 1c75 21bd 0c4b e63c
00000160: 6db1 c73d 3157 1dbe 3e7e c83c 58a4 0cbe
00000170: 3f41 9ebd a19c c23c 2fbf 09be 85a3 f93b
00000180: 19ca 95bd 169f 6fbe 0a6b 1a3e c1ce 0f3d
00000190: 85b5 7e3c eac6 c5bd 4edb b53d cacc 4e3e
000001a0: 2b80 3e3d c9ed dfbd 1f5b bebd 4717 873d
000001b0: 69ee 0abd 0ab7 fd3d d843 e43d 6291 b43b
000001c0: b980 923a 52e2 8e3c 715b f2bd 78ad c0bd
000001d0: ec9a a3bd 5b36 d33c 4a5f 56bc eb44 e33d
000001e0: 6a59 06be 2b33 87bd 7606 043e 56cb 02be
000001f0: c73d 25bd 46c7 95bd 3e8a 14bd 8b51 06be
00000200: ac9b 61bc 2987 103e 4829 e7bc a731 03be
00000210: 9901 d1bd 4879 813d 4200 bdbc aee4 a5b9
00000220: a146 11be 161c a2bd 5fd0 09be 8140 4a3d
00000230: a7f9 bd3d 5dbe 20be 69a7 9d3d 0472 8b3c
00000240: dcff 76bc 7959 ac3d f0a3 52be 975c a9bd
00000250: f207 8b3d 9b64 be3b 2802 2dbe 75f3 b6bb
00000260: 64b3 38be ffc4 fe3d df03 453d edfd 9fbd
00000270: 584e 09be b6ad 42bc 42d4 a33d de24 41bd
00000280: 710f 783d 0369 b5bb 4464 d3bb 3d06 fabd
00000290: efa7 8abd df04 0bbd 629f 0bbd cb87 88bd
000002a0: 7f3a 8f3d 1ee2 16be a959 513d ac69 7c3d
000002b0: 883c 583d efa3 083e f979 4f3d d650 a53c
000002c0: 774b 433d a9d3 803c 2c36 01be 45cd 5abc
000002d0: 794e abbd e4de 923d 487b 893c 8d29 3dbd
000002e0: 857e 23bd be5d b13d 355b 93bd b6b1 353e
000002f0: 9de1 abbd 9dfa 73bd 0004 303e 95d0 8c3d
00000300: f20e efbd df45 883d 2481 09ba 6da4 3bbc
00000310: 030f b8bd 0173 16bd 6a2f 13be 5b9c 0d3e
00000320: 3ae6 b0bd 2012 9c3d a08e 14be 73a2 653d
00000330: e560 633c 214b 9bbd de62 9fbd ffd5 803d
00000340: 1614 2b3e 0da3 333d 14b3 41be a565 24bd
00000350: 1511 31bd 9e50 9b3d e7b7 603d 0817 903d
00000360: 4aaf 243e c814 e73d 5dbb 58bd d573 cfbd
00000370: 76b6 513d 061a 123e ece0 45bb 6eea 223e
00000380: edd7 2cbe 8c7f 2c3d 7805 cbbd f641 0e3d
00000390: 0c3c b2bd 62a0 2a3e 27cb 49bd 2154 8abd
000003a0: 7478 bbbc 7966 12be 2dc0 c13c 4a4e 92bd
000003b0: ef24 5f3a 0013 9a3d 4ccb d7bb 1dcc 1b3e
000003c0: a9e5 0abe 8c23 92bd 89f7 b3bd 98f9 15be
000003d0: e3e8 fa3b 77fd f03c 6568 f3bc d222 e9bd
000003e0: d54b c1bd 5d63 f13d f312 61bd fd8f 523d
000003f0: a608 e53d 1087 a5bd a96b 2dbd a2fe 5dbd
-0.09284498 -0.06955011 -0.14395624 0.08292312 -0.14472985 -0.059132766 -0.11013314 -0.07056625
0.11944802 0.061344843 0.09492345 -0.11818953 0.16463959 -0.059825525 0.011675699 -0.047570854
-0.13661964 0.06963381 0.088708416 0.14546853 0.028929483 -0.11178115 -0.04704428 0.0033203112
-0.001835573 0.12062869 0.01522148 -0.064478695 0.030631581 -0.06484817 -0.052746844 -0.0107258465
-0.14988562 -0.17196788 -0.07026535 0.10113072 -0.12488524 -0.13216648 0.10975591 0.011880244
-0.06932122 -0.0081697535 -0.11944182 -0.0083102435 -0.012854945 0.022157533 0.12652992 0.057216335
0.15240711 0.06480401 -0.08305741 -0.07320136 -0.04027303 0.11854195 0.17379473 -0.10911354
-0.16033997 -0.11912207 -0.008149842 -0.06306332 -0.027167872 0.0619544 0.15397868 -0.0054662596
0.11366144 0.10320311 -0.06421449 0.113171056 -0.08527347 0.12378846 -0.0015742511 0.062288024
-0.083842546 0.056221 -0.052889433 0.012920562 -0.0568257 -0.04569881 0.02985361 0.15285686
-0.093700424 0.016308984 -0.12821816 -0.07947372 0.04489969 -0.048418257 -0.039418325 0.028111957
0.09750638 -0.15365292 0.02447426 -0.13734567 -0.077272885 0.023756327 -0.13451837 0.00761837
-0.07313938 -0.2340053 0.15079895 0.035109285 0.015546207 -0.096570805 0.0887972 0.20195308
0.04650895 -0.10934026 -0.09294724 0.06596237 -0.033918772 0.123884276 0.11145753 0.005510495
0.0011177278 0.017441902 -0.11833847 -0.094080865 -0.079885334 0.025782755 -0.013084242 0.110971294
-0.13120046 -0.066015564 0.1289309 -0.12772879 -0.04034212 -0.07313399 -0.03626465 -0.13117044
-0.013770025 0.1411406 -0.028217927 -0.1281191 -0.10205383 0.06321961 -0.023071412 -0.00031641632
-0.14187099 -0.07915513 -0.13458394 0.049377922 0.09276133 -0.15697618 0.076979466 0.01702214
-0.01507565 0.08415503 -0.2057035 -0.08269613 0.06788625 0.005810333 -0.16895354 -0.0055832216
-0.18037182 0.12439918 0.048099395 -0.078121044 -0.13408792 -0.011882236 0.07999469 -0.0471543
0.0605616 -0.0055362 -0.0064511616 -0.12208221 -0.06770312 -0.033940192 -0.034087546 -0.066665255
0.06993579 -0.14734694 0.051110897 0.061624214 0.052792102 0.13343786 0.05065343 0.020180147
0.04767939 0.015725927 -0.12618321 -0.013354604 -0.08364577 0.07171419 0.016782418 -0.046182204
-0.03991558 0.08660458 -0.07195131 0.17743573 -0.08392642 -0.059565175 0.17189026 0.06875721
-0.116727725 0.06653952 -0.00052453787 -0.011452776 -0.08987238 -0.03673077 -0.14373556 0.13829176
-0.08637662 0.076206446 -0.14507532 0.056063127 0.013878082 -0.07582689 -0.07782529 0.062908165
0.16706881 0.04385667 -0.18915969 -0.040136 -0.04322918 0.07583736 0.054862883 0.07035643
0.16082492 0.112832606 -0.05291306 -0.10129515 0.0511994 0.1426774 -0.0030193878 0.1590974
-0.16879244 0.042113826 -0.099131525 0.034730874 -0.08702859 0.16662744 -0.049266007 -0.067543276
-0.022884585 -0.14296903 0.023651207 -0.07143839 0.00085122784 0.07523155 -0.006585514 0.15214582
-0.13564171 -0.07135686 -0.08787448 -0.14645994 0.007657157 0.029417736 -0.029712865 -0.113835946
-0.09438292 0.1178653 -0.054949712 0.05140685 0.1118329 -0.08082402 -0.042339 -0.054197915

combine_proj.bias f4 [128]
00000000: 1b57 0d3b 9db1 193a 0fd9 e13a 01e3 ea3a
00000010: 2667 49bb 4e6f 10bb e5e9 023b 0bba d1bb
00000020: 73a5 993a 3657 3d3b 84b7 113a 1b62 8eb9
00000030: f8c3 ecba 11bb 77bb 5c0b 873b 7372 83bb
00000040: 08aa ae3b 610b cb3a 0009 53bb 491b 933b
00000050: 05be 283a a097 caba 4b0d 91bb dee6 c13a
00000060: d78d 9bba 0136 c13a 57c7 26bb 3c04 b137
00000070: 9322 6fbb 2a79 46bb 1996 5eba 3d33 0c3a
00000080: 0082 193b 09cd bc3a e07c 2fbb 8df6 f9ba
00000090: 06d3 953b 5498 4f3b 747a 9b3a 1cb7 b23a
000000a0: d712 11bc f2ee dd3b 301d a5ba 8714 5dba
000000b0: ca11 283a 3d0a 1d38 fdef beb9 740f e43a
000000c0: b0b2 a23a cdf9 543b bd2e 52bb 9b9e 2f3b
000000d0: 5bc0 8ebb d997 fcba 73a5 cebb d897 843a
000000e0: 8075 823b 7d3e 6f3b e29e 453a 2117 373b
000000f0: 1888 19bb f1bb c2bb aeb5 31ba 83d4 43bb
00000100: 9a40 d4bb f352 133b 742a 0e3b 7172 ccba
00000110: 3bc4 8abb 7fa7 f3ba 7f4c 8cbb 41d8 05bb
00000120: 4ea8 a13b 0137 a7bb 4fe4 8c3b bdde 2dba
00000130: 1b36 43bb f63b a33b 14b2 dd3a a9ba 4ab9
00000140: fe20 aaba af1e e93b 5e23 a83b a000 ffb9
00000150: c3cc a1b9 7c76 e53a f75a 3e3a ae71 9339
00000160: 8d26 533a 8985 01ba dcf9 893a e7b6 a2bb
00000170: ee1a f7ba fe07 a5bb d7f2 8c36 45ce fa38
00000180: 7a03 7b3a 4786 6e3a 9cff cc3b 15b3 b239
00000190: 8373 f2ba 4528 8f3b 81c8 12bb 0d30 04bb
000001a0: 4932 f33a f2b4 2a3b b8a0 0dba 52d2 abb9
000001b0: 981b 53ba f2e8 8e3a cd35 d1bb fe49 76ba
000001c0: bbb0 273a dcec 233b e98a 69ba 9a52 76bb
000001d0: 058e d43b 7e5a 833b 08a1 54bb 284c a1bb
000001e0: 1eaa 56bb 7029 a03b 1f09 66bb b8a9 01bb
000001f0: 87e3 b33a c0b0 283b 6b6a 08bb 2c1c 3c3a
0.0021566811 0.0005862953 0.0017230826 0.0017920436 -0.0030731647 -0.0022039 0.0019975838 -0.006400352
0.0011722281 0.0028891093 0.0005558657 -0.00027157445 -0.0018063774 -0.003780071 0.004121227 -0.004011446
0.005330328 0.0015491062 -0.003220141 0.0044893366 0.00064370065 -0.0015456565 -0.0044266335 0.0014793535
-0.0011867833 0.0014740826 -0.0025448406 2.1102016e-05 -0.0036489114 -0.0030284622 -0.0008490994 0.0005348211
0.0023423433 0.0014404367 -0.0026777312 -0.001907067 0.004572275 0.0031676488 0.0011862055 0.0013634893
-0.008854589 0.0067728693 -0.00125972 -0.000843354 0.0006411342 3.7441252e-05 -0.0003641843 0.0017399625
0.0012412872 0.0032497526 -0.0032071315 0.0026797417 -0.0043564267 -0.0019271328 -0.006306344 0.0010116054
0.0039812922 0.0036505752 0.0007538629 0.002793737 -0.0023427065 -0.0059428145 -0.00067790865 -0.0029881306
-0.0064774277 0.0022479862 0.0021692785 -0.0015598071 -0.0042348183 -0.0018589346 -0.00428158 -0.0020423087
0.0049333936 -0.0051029925 0.0042996774 -0.0006632617 -0.0029786888 0.004981513 0.0016914033 -0.00019333758
-0.0012979803 0.0071142535 0.005131169 -0.00048637856 -0.00030860872 0.0017506625 0.00072614796 0.00028122723
0.0008054756 -0.0004940858 0.0010526734 -0.0049656513 -0.001885263 -0.005036353 4.2005954e-06 0.0001195935
0.0009575408 0.00090989884 0.006256057 0.00034084232 -0.001849756 0.004368814 -0.0022397342 -0.0020170242
0.0018554415 0.0026047793 -0.0005402672 -0.00032772362 -0.0008053123 0.0010903163 -0.0063845874 -0.0009395181
0.00063968793 0.0025013005 -0.0008908944 -0.0037585855 0.0064866566 0.0040085902 -0.0032444615 -0.0049224086
-0.0032755206 0.0048877522 -0.0035100651 -0.0019784998 0.0013724425 0.0025740117 -0.0020815383 0.0007175829

fc1.weight f4 [128, 128]
00000000: 96b3 9fbd ca42 fdbb b20a 063e 9664 153c
00000010: c814 0f3d 552b f43d 4f71 253d 7685 d8bd
00000020: 0bcf c8bc f747 98bd 4e14 c7bd b85b 85bd
00000030: 654f 8d3d 60c4 c73c 7b07 d9bd 7148 953c
00000040: 916d cc3c 9dff 0fbd 5440 69bd 9f7a a3bd
00000050: 6a40 6bbd 834d 543d 808d 7d3d ba2a ab3d
00000060: db3b 35be 702f 943d 8fd3 debc dcad c73d
00000070: 0c8b 103e 9d34 80bd 528a c43d 59cb 4abe
00000080: aa5c 90bc 1693 143e 6df4 543e 7be3 f2bd
00000090: 4a9c 863b de7b fe3d cd21 f73d 8141 e4bd
000000a0: ab04 213d 046d 16bd c91b ab3b e8c0 a53c
000000b0: ff3a 5a3d 0881 7e3c 868c 4bbe f01d 243e
000000c0: a443 7abd 0a9d 1abc e7ab 903d b013 adbd
000000d0: 8324 dfbd fdd7 533d 71b0 e0bb c83e e03d
000000e0: 8dc5 1cbd e013 f1bd 01f8 2bbc 043d 023e
000000f0: 25b9 cabc 62eb 07be c534 153e 63c5 093e
00000100: 7355 0ebe b99b 95bd ddf3 f53b eadc f1bd
00000110: 7f34 0f3e cd48 893c 9d28 16be a418 adbd
00000120: 3af8 bcbd e64e 493d ed9d ccbd e886 ef3c
00000130: 8a98 7abc c36a 093e 5d33 77bd e168 0f3e
00000140: e5a4 f13d e25f 10bb 256a e13d d8a6 1d3d
00000150: 9c51 80bd cd9e 95bd 2865 2e3d 2929 003e
00000160: 0b18 d03c a1fe 083e 7d81 4c3d 5a16 723c
00000170: c5a3 21bd 910a f13d cbc5 aabd 0001 1bbd
00000180: 47ce 42be 619d 283e f421 3e3e ab94 0fbe
00000190: 7db6 2f3c f08b efbd 2a75 25be f391 b23d
000001a0: cb66 f2bd d0e3 bd3d e907 b53d d708 6bbd
000001b0: 2a79 c63d 7b04 d13b c0b8 d9bd d5a2 86bd
000001c0: af4f 2e3d 3c7c f03d 0b57 513c 3756 03be
000001d0: 5fb3 a53d 53a2 96bd 26cf 123e b90e 94bd
000001e0: b57e f03d bc12 41bd 6ee0 873d 0e32 23be
000001f0: a235 07be 2fab d1bd 789c 54be 235f d63d
00000200: 03d1 28be 31ac 27be 6854 803d 4a1a b7bd
00000210: c057 d3bc 106a ebbc b7c9 efbd f0a2 94bd
00000220: 7267 823d a324 82bd ac45 003c e47b ca3d
00000230: 4580 a8bd 73f6 3dbd bf16 efbd 305b 36be
00000240: cb4d ccbd d701 efbd 16e9 bcbc 855d f3bc
00000250: 0690 1ebe c371 84bc 8a48 023d 06f0 e73d
00000260: f416 d0bd 07c8 aebd 5513 53bb 35f2 4fbe
00000270: e4c7 b73d 4c6a 8c3d 7abb d7bd eb50 36be
00000280: 7995 03be b001 08be f520 d83d b8a4 1abd
00000290: c7f4 ed3b 0b96 453e ae21 7e3d 48f4 7f3c
000002a0: 09a8 c83c 68a0 18be 0798 d039 c707 423d
000002b0: eb1f 1bbe 504c f0bc 4f6b febd a88b 023c
000002c0: d1d4 9dbd 69c0 c43d 5808 983d f3c7 b7bd
000002d0: 1bc3 b63d 88a3 79bc c28a 12be 365d 6c3d
000002e0: 1da2 2bbe 62a0 95bd 6260 2fbc e338 ac3c
000002f0: 287b afbd 5fd7 313d 80c0 9c3d 986b 2fbd
00000300: a8c0 b3bd 8e60 f0bd 591f c73d 852d 8fbd
00000310: f0bf cfbd 6e0b 7cbe bfb8 223d 86d4 e23d
00000320: 20d1 12be 72fe 7c3d 0490 09be 08a5 083e
00000330: c57f 153e e1be 1ebe e6af c83d e66a 0f3e
00000340: 656c 96bd 813b 853c 105f 02be f2f3 873c
00000350: e5de 0bbe 7299 efbd 5ee7 c53d e32c 7fbd
00000360: b4ae 9b3c 35ff c13d 539b 0f3d f297 64bc
00000370: 821b f33d 2c29 a23d 0cba d63d b24b ac3c
00000380: 69e8 a43d 590a bc3d 4c8f 373e 62d2 343e
00000390: 8bdf b93c 2451 913d fb18 ae3d e9a9 fc3d
000003a0: 4879 6e3d eb83 adbc 67c8 dfbc c235 0ebe
000003b0: 6705 9b3c dc84 213b f79a 103e 34f2 85bd
000003c0: edab a8bc 5413 e93d 2319 edbc f7d0 2abb
000003d0: 5a38 bfbd 96d3 12be 8ec2 853b 9ac0 3ebd
000003e0: 0296 6bbd aab4 9c3d 4d82 9e3d e675 023e
000003f0: 151b 093e 1e62 aabd 2b6c 9c3d e647 de3c
-0.07797925 -0.007728909 0.13090017 0.00911822 0.034931928 0.119223274 0.040391263 -0.10572331
-0.024512788 -0.07435601 -0.0972067 -0.065116346 0.06899909 0.024385631 -0.1059713 0.01822302
0.02495459 -0.03515588 -0.056946114 -0.079823725 -0.057434477 0.051831733 0.061902523 0.08357759
-0.17698614 0.072356105 -0.027200488 0.09749958 0.14115542 -0.06260035 0.09596695 -0.19804133
-0.01762231 0.14509234 0.20796366 -0.11859795 0.0041079866 0.124259695 0.12066994 -0.111453064
0.039311092 -0.03672506 0.005221818 0.020233586 0.05327892 0.015533693 -0.19877824 0.16027045
-0.061099663 -0.009436855 0.07064038 -0.08451021 -0.10895636 0.051719654 -0.006856971 0.109494746
-0.038274337 -0.11771369 -0.01049614 0.12718588 -0.024746487 -0.13273385 0.14570911 0.13454203
-0.13899784 -0.07305092 0.0075058774 -0.11809714 0.1398487 0.016758347 -0.1466393 -0.084519655
-0.09227033 0.04914751 -0.099910595 0.029239133 -0.015295157 0.13419633 -0.06035172 0.14004852
0.11799029 -0.0022029807 0.110065736 0.038489193 -0.06265566 -0.073056795 0.04257694 0.12515701
0.02540209 0.13378383 0.049928177 0.014775837 -0.039462823 0.117695935 -0.08338507 -0.03784275
-0.19024001 0.16466285 0.1856764 -0.14021556 0.010724661 -0.11696613 -0.16157976 0.08719244
-0.118360125 0.092719674 0.08839399 -0.057381477 0.09691079 0.006378708 -0.106309414 -0.065740265
0.04255646 0.11742446 0.0127771 -0.12825857 0.08090853 -0.0735518 0.14336833 -0.072293706
0.117429174 -0.047137007 0.066346034 -0.15937063 -0.13204053 -0.10237729 -0.20762813 0.10467365
-0.16485982 -0.1637428 0.06266099 -0.08940561 -0.025798678 -0.028737098 -0.11708396 -0.0725764
0.06367387 -0.06354644 0.007829111 0.098869115 -0.082275905 -0.04637761 -0.1167426 -0.17808223
-0.09975775 -0.11670273 -0.023060363 -0.02970768 -0.15484628 -0.016167527 0.03180746 0.11325078
-0.10160628 -0.08534246 -0.0032207568 -0.20307238 0.08973673 0.06856212 -0.10533805 -0.17804305
-0.12849988 -0.13281894 0.10553161 -0.037754744 0.0072618457 0.19295518 0.06204384 0.015622206
0.024494188 -0.1490494 0.0003978612 0.0473707 -0.15148894 -0.029333264 -0.12422811 0.007967867
-0.07706607 0.09607012 0.074234664 -0.08973684 0.08923932 -0.015236743 -0.14310744 0.05770608
-0.1676106 -0.07305981 -0.010704132 0.02102322 -0.08568412 0.043418285 0.07653904 -0.04282722
-0.08776981 -0.11737166 0.09722776 -0.06991104 -0.10144031 -0.24613735 0.03972697 0.11075692
-0.14337587 0.061766095 -0.13433844 0.13344204 0.14599521 -0.15502502 0.09799175 0.14005622
-0.07344893 0.016263725 -0.12731576 0.016595814 -0.13659246 -0.11699189 0.096632704 -0.062298667
0.019004203 0.09472505 0.035060238 -0.013952242 0.11870481 0.07918009 0.104847044 0.021032188
0.08052141 0.09181661 0.17925757 0.1765838 0.022689601 0.070955545 0.085008584 0.12337095
0.05822113 -0.021181067 -0.027317239 -0.13887694 0.018923474 0.002464584 0.14121614 -0.06540337
-0.020589793 0.1138064 -0.02894265 -0.0026064494 -0.0933692 -0.14338526 0.0040820306 -0.046570398
-0.057516105 0.076516464 0.07739697 0.12740287 0.13389237 -0.083194956 0.07637819 0.027133893

fc1.bias f4 [128]
00000000: 6dd5 8eba 7d01 f438 7b31 7eba bd86 beb8
00000010: f8d1 0b3b 4a91 aeba 720b 21bb 4fa2 4abb
00000020: bc43 8aba 2a62 9dbb ba91 f2ba 2498 4abb
00000030: dbfa 0a3a db33 c1b8 c0b1 54ba 747c 2abb
00000040: 8952 a33a c6ee 84ba 4301 ee3a 47fa c1b9
00000050: b462 4d3a 6794 a539 7a35 ffb9 890d 9238
00000060: 717a 3a3b b9d5 a43a 2964 dc3a eaf0 97b8
00000070: 083a 23bb 0382 57bb 260a 9d3a d138 30bb
00000080: a851 87bb fefb df3b 0569 533b 25ce da3a
00000090: a58c b2b9 c0b4 423a 3f40 c8ba da8f c23a
000000a0: eb0e 293b ca4d 593a df43 32b9 dfbc 9cbb
000000b0: bc7c 74ba 9731 0f3b b658 353a 763e 0b3a
000000c0: 6bd5 bc3a b08b e23a 4e30 a33a eb8e 32bb
000000d0: a814 8bbb 66f4 393b f2b2 da39 01ec 153a
000000e0: 419d 99ba 9ecd a2ba 7483 c43a 573f 17b8
000000f0: 2cf7 3d3a 6b8a 81bb f6b9 18bb 9efd 2abb
00000100: 4e4b f0b9 d0dd 8b3b b1cd ed39 7fd7 10bb
00000110: 9542 e13a 6a9e 32bb 59d1 11bb e8bc 14bb
00000120: a53a 9c3b 78fc 463a 80c3 0c3a 0b4c c3ba
00000130: 77d2 ea39 e01e 2f3a 9cb6 583b 36b9 533a
00000140: a317 a53a b21e 023b 2ecc 94ba 2092 8bba
00000150: 6e16 0fbb 0605 a53b 7bd5 c8b9 0c7e b3ba
00000160: 07db 9dba 1107 04ba ed0e feba 51d7 823b
00000170: 614c b93a c3e0 a5ba 7668 293b 0a6a ed39
00000180: 04ea 27ba 5f4a 3f3b f38b 093b 97c0 7eba
00000190: ccef 433b 821d 84b9 1fa9 df3a 276f b0b9
000001a0: 5fda 93b8 e4a9 193b d80a 70ba bd17 7439
000001b0: d780 57bb fca5 3d3b 8d4a 50bb a9c3 483a
000001c0: da5d 00bb c23e 44bb 0aae e03a d007 56b9
000001d0: 998d d5bb c9d2 9b3a 4cec 743a 6e31 74ba
000001e0: 1dd8 86bb 62f2 e03b 7d3e f03a 5bd0 ce3a
000001f0: 1696 d3b8 27d4 38bb c251 d0b8 430c 74ba
-0.0010897346 0.00011635104 -0.0009696704 -9.085003e-05 0.0021334868 -0.0013318446 -0.0024573472 -0.0030919497
-0.0010548751 -0.004802962 -0.0018506565 -0.0030913437 0.00053016626 -9.212616e-05 -0.0008113645 -0.0026014121
0.001246051 -0.0010141961 0.0018158335 -0.000369983 0.00078348373 0.0003158182 -0.00048677233 6.9643436e-05
0.0028454328 0.0012575901 0.0016814518 -7.245115e-05 -0.0024906415 -0.003288389 0.0011981174 -0.0026889334
-0.004129607 0.0068354597 0.0032258641 0.0016693516 -0.00034055594 0.00074274465 -0.0015277936 0.0014843896
0.0025796245 0.00082894845 -0.00017000687 -0.0047832574 -0.0009326448 0.0021849626 0.0006917821 0.00053117366
0.0014406865 0.0017284062 0.0012450309 -0.002724583 -0.004244406 0.0028374433 0.00041713525 0.0005719066
-0.0011719839 -0.0012420898 0.0014992789 -3.6060195e-05 0.00072466093 -0.0039532683 -0.00233042 -0.002609111
-0.00045832474 0.0042683855 0.00045357415 -0.0022101102 0.0017185981 -0.0027255067 -0.0022250025 -0.0022695605
0.004767733 0.00075907214 0.0005369708 -0.0014899982 0.00044788767 0.0006680321 0.0033067828 0.000807661
0.0012595545 0.0019854722 -0.0011352354 -0.0010648407 -0.0021833437 0.005035999 -0.00038306028 -0.0013694181
-0.0012043425 -0.00050364534 -0.001938311 0.003992953 0.0014137143 -0.0012655485 0.0025849617 0.00045283168
-0.00064054155 0.0029188616 0.0020987957 -0.0009718029 0.0029897569 -0.00025198987 0.0017063952 -0.0003365215
-7.050181e-05 0.002344721 -0.0009156889 0.00023278497 -0.003288319 0.0028938046 -0.0031782717 0.000765855
-0.001958719 -0.0029944633 0.0017141711 -0.00020411541 -0.006517124 0.001188838 0.00093430723 -0.0009315227
-0.004115118 0.006864832 0.001832917 0.0015778648 -0.0001008922 -0.0028202625 -9.9334415e-05 -0.00093096885

bn1.weight f4 [128]
00000000: 75ac 693f e4a3 8a3f 01d3 723f 6c5b 843f
00000010: 0595 6d3f 0f48 743f 2015 753f 9243 853f
00000020: 5701 723f dc61 823f c202 823f cbe0 6b3f
00000030: bafc 7b3f a0fb 763f c01e 703f 46f8 823f
00000040: 5f33 743f 2fd0 7f3f c0b1 653f 7414 523f
00000050: f217 6b3f 94b0 453f ee45 993f 4c6a 6f3f
00000060: 33d4 7a3f 433a 6d3f 39de 6c3f 81f8 713f
00000070: 6f98 6b3f 6782 8d3f 8127 5f3f 8e40 653f
00000080: a7cc 793f b41d 6d3f 326a 813f b062 683f
00000090: f07c 5a3f 5937 883f bc57 843f af3e 833f
000000a0: 3b78 753f 769d 8f3f 0fe3 813f 8261 6f3f
000000b0: 9d46 963f 64a7 883f 5baa 803f c3a2 873f
000000c0: 8814 833f 5d36 743f de29 833f 16a7 8c3f
000000d0: 8214 863f 0aef 713f 8d6d 8b3f 21c3 933f
000000e0: e252 4c3f 84b4 8f3f 809d 753f 2f8a 983f
000000f0: 3499 813f 5ef8 7e3f c36d 8f3f 6bda 713f
00000100: 4bca 753f 6928 8b3f 0284 6d3f abcd 863f
00000110: ec24 803f 5cc0 643f 0c2e 853f f1ba 823f
00000120: a265 713f a307 843f aa04 823f 1b32 603f
00000130: ce49 823f b925 983f ee45 573f e17d 753f
00000140: caab 7f3f 8506 853f f101 6e3f 114f 6e3f
00000150: 0ddb 673f 38cc 7d3f 37de 883f d06c 6e3f
00000160: f885 a13f a259 863f 8033 813f 16ab 7f3f
00000170: 1920 7e3f aac5 903f aeeb 593f 69ef 853f
00000180: 8229 743f 133d 813f 8ee7 533f 3936 8b3f
00000190: 490a 753f 2d6a 803f 6315 883f 3879 8c3f
000001a0: 4250 923f d357 8c3f 3391 823f 0412 7b3f
000001b0: 61e1 673f 5d88 813f 8e3e 863f f570 7a3f
000001c0: 0c24 7b3f 9778 7b3f c55d 773f 3ea3 913f
000001d0: d21c 813f 3492 883f 9e3d 453f dbbf 793f
000001e0: b896 7e3f a9a8 803f c4c9 853f 7e4e 833f
000001f0: 8af5 523f 69a2 693f 3c79 8c3f f41e 7b3f
0.91278774 1.0831265 0.94853216 1.03404 0.9280551 0.9542245 0.9573536 1.0411246
0.94533294 1.0186114 1.0157092 0.9213988 0.98432505 0.964777 0.9379692 1.0232017
0.95390886 0.9992704 0.8972435 0.8206246 0.9183341 0.7722256 1.1974466 0.9352157
0.9798004 0.92667025 0.92526585 0.9451981 0.9202947 1.1055421 0.87169653 0.8955163
0.975779 0.9262345 1.0110533 0.90775585 0.8534689 1.0641891 1.0339274 1.0253505
0.9588658 1.1219928 1.0147418 0.9350816 1.17403 1.0676084 1.0051988 1.0596546
1.0240641 0.9539545 1.0247152 1.098849 1.0475008 0.9450537 1.0892807 1.1543924
0.7981397 1.1226964 0.9594345 1.191717 1.0124879 0.9959773 1.1205372 0.94473904
0.960118 1.0871707 0.9277955 1.0531515 1.0011268 0.8935602 1.0404677 1.02133
0.94295704 1.031483 1.0157673 0.87576455 1.0178773 1.1886512 0.8409108 0.958952
0.99871504 1.0392615 0.9297171 0.93089396 0.9056862 0.9913974 1.0692815 0.93134785
1.2619009 1.0496104 1.0093842 0.9987043 0.9926773 1.1310322 0.85125244 1.0463687
0.95375836 1.0096763 0.827752 1.0875922 0.9571882 1.0032402 1.0631527 1.0974493
1.1430743 1.0964302 1.0200561 0.98074365 0.90578276 1.011974 1.048784 0.9782861
0.9810188 0.9823088 0.96627456 1.1377943 1.008692 1.0669618 0.77047145 0.97558373
0.9944873 1.0051471 1.0452199 1.0258329 0.8240591 0.91263443 1.0974498 0.98094106

bn1.bias f4 [128]
00000000: 9c75 18bd be3a 7bbd 2047 6cbe 9239 47bd
00000010: 3192 79be 8609 36be 29d7 553c e389 89bd
00000020: 52bb 43be 5e45 f1b9 242a 59be 775e b1bd
00000030: 415b 03be d966 14be 5c3d 45be 9c83 c9bd
00000040: eedb 7abe 090a 35be 004b 1fbe c4ed 4dbe
00000050: 38fd 8bbe 58a5 82be 54c1 8abd 66a0 1abe
00000060: b2b6 35be b442 33be b118 19be 8549 313b
00000070: 8840 36be 5f3b c0bd 5718 14bd 3cd7 54be
00000080: 3815 e1bd ad2a 16be 73ff 2cbe ee32 3cbe
00000090: 4598 2fbe e5c5 85bd 6c41 9cbc e325 f2bb
000000a0: 1482 25be c592 b0bd 58e6 d1bd 4189 d3bc
000000b0: 146d b0bd 848e 9fbd 5eec 03be e078 f7bd
000000c0: 94ff 0dbe d0e1 16bd 8702 18be 36fb f0bd
000000d0: ec7b 28bd 07f9 e6bd 8334 39bd a1d6 1bbd
000000e0: 67dc 78be 8e2e f9bc cb9d 13be ad95 263a
000000f0: 10f9 98bd 42fd a9bd 5e47 c4bd 1d29 80bd
00000100: e5d1 4fbe 2ad4 ecbd a73e 21be 5359 23be
00000110: aba7 0ebd 1089 5cbe 8fbd 20be 47b4 30bd
00000120: 7a8d 16be 49fa 79be 7665 00be 3861 89be
00000130: 77b2 4fbe 363a 2ebd 2ad5 ffbd ce57 0cbd
00000140: 21e4 8dbe 2aa8 ddbd 049e 70be cbdc 23be
00000150: 040f 86bd e372 26be ccaf 9cbd 6bc7 31be
00000160: 260c 45bd 1d52 0cbe 2b8c 31bb 8a76 f2bd
00000170: d72f 15be 9945 9dbd 60ec b3be f2e9 ebbd
00000180: a437 eebd 39dd b8bd 70ce 80be da0e b4bc
00000190: f3bc b6bb cc6d 00bd 3dc8 1bbe 09c5 b1bd
000001a0: 0354 a9bd 29cf b6bd b45f 07be e0a3 b43d
000001b0: b22c bfbd 3286 3ebe 83ee 11bd 4e34 19be
000001c0: faa0 063d d894 36be c55f 5abe 3863 d3bd
000001d0: 130e 86bd adf0 81bd eb8f 81be e1df 27be
000001e0: a416 d0bd e1d6 19be 5bd6 e8bd 986d 82bd
000001f0: d971 04be e0d1 09be 8e82 68bd 4adc dc3b
-0.037221536 -0.061335318 -0.23074007 -0.048638888 -0.24372174 -0.1777707 0.013051786 -0.06715753
-0.19114426 -0.00046018785 -0.21207482 -0.08660596 -0.1282778 -0.14492358 -0.19261688 -0.098395556
-0.24497959 -0.1767961 -0.15555954 -0.20110232 -0.27341628 -0.25516772 -0.06775156 -0.1510025
-0.17745474 -0.17505914 -0.14950825 0.0027051878 -0.17798054 -0.09386324 -0.036156025 -0.2078523
-0.10990375 -0.14664717 -0.16894321 -0.18378803 -0.1714793 -0.06531886 -0.019074164 -0.0073897704
-0.16162902 -0.08621744 -0.10249013 -0.025822284 -0.08614555 -0.077908546 -0.12883136 -0.12083602
-0.13867027 -0.036836445 -0.14844714 -0.11766665 -0.041133806 -0.11277967 -0.045216095 -0.038046483
-0.24302827 -0.030417707 -0.14415662 0.0006354701 -0.0746938 -0.08300258 -0.09583925 -0.06257842
-0.20294912 -0.115639046 -0.15746556 -0.15952043 -0.03482787 -0.2153666 -0.15697311 -0.043140676
-0.14702407 -0.24411882 -0.12538704 -0.26831985 -0.20282923 -0.042535983 -0.1249183 -0.034263425
-0.2771311 -0.108230904 -0.23497778 -0.16002195 -0.06545833 -0.16254763 -0.07650718 -0.17361228
-0.04810729 -0.13703199 -0.0027091603 -0.11839016 -0.1456903 -0.0767929 -0.35141277 -0.11519231
-0.11631706 -0.0902657 -0.251575 -0.021979738 -0.0055767237 -0.03135471 -0.15213104 -0.086801596
-0.08267977 -0.089262314 -0.13220102 0.08820319 -0.09334697 -0.18605879 -0.035627853 -0.14961359
0.032868363 -0.17830217 -0.21325596 -0.10321659 -0.06545653 -0.063447334 -0.25305113 -0.16393997
-0.10160568 -0.15023376 -0.1136901 -0.063685596 -0.12934054 -0.13458967 -0.05676513 0.0067401277

bn1.running_mean f4 [128]
00000000: eae5 253d f4b2 3ebd 4c5d 69bc b3ba 6abd
00000010: 7de2 213d 4fd7 203d d41d 0d3d 0b34 8dbd
00000020: b336 d93c 57ab b43c ec59 833c 8eb2 ae3c
00000030: 0f1a a83d f978 ff3c 657b c13c 70ec 003d
00000040: 7b39 1a3d 79bb 633d 2f07 64bc 74fd 0b3d
00000050: 730a 503c 599b 61bc 9128 68bd 90a5 393d
00000060: b97a cd3c 5be6 843d 4fa1 3d3d 454b 543c
00000070: 8574 08bd b831 86bd c7e3 1abd f9e5 34bc
00000080: 1994 1a3d 977d 2b3b f599 453d be5d 1b3d
00000090: 65f1 d3bc ace3 83bd 6323 59bd 2f72 9a3c
000000a0: 00af 1a3d b5a3 69bd e9d2 803d cde0 483d
000000b0: 45f7 70bd a8b4 84bd 83eb 443d ac85 563d
000000c0: 7037 813d ee6b 9e3d de17 913d 24a6 3dbd
000000d0: 8733 073d cb2f ef3c 00f1 393d 2fa8 47bd
000000e0: 8987 0ebd 9b44 85bd ea99 fe3c 72f3 4abd
000000f0: 98a4 843d c9f8 8c3c 714e 70bd 8204 8d3b
00000100: 6508 233d f408 a63d 8dba 1f3d 565c 3e3d
00000110: cbcc 0c3d 9187 363d b55d 08bd 4f12 113d
00000120: 5abf 0d3d 8442 783d 28b8 c03c ed10 3bba
00000130: f36b 213c ecc9 5abd dec0 96bc 9fec 633d
00000140: ebab 593d 27d2 6cbd 5f47 17bd 54e0 22bd
00000150: f1ac 433c 300e d9bc d62c 20bd c7a9 363d
00000160: 1a26 77bd 9625 19bd 57c3 4d3d 1e86 3b3d
00000170: 9f72 333d 6e4e 5abd f0e8 bcbb 7f8e 393d
00000180: 4a5a febc b41b 5dbd 11e6 3c3b a6ec 5bbd
00000190: 9626 5d3d 0d30 e93c e6bb 5c3d cc2b 6dbd
000001a0: 2452 9cbd a736 8ebd a118 d33c 94ec 643d
000001b0: b199 313d fd4d 7dbc 6b01 3e3d 6976 363d
000001c0: 7f37 f83c 62d9 0e3d 9b37 803d 5451 64bd
000001d0: 7583 313d d7c2 4abd 01c0 30bd e9a2 6a3d
000001e0: 15c0 653d c77e 5e3d 2e17 5b3d d771 1e3d
000001f0: a992 5e3b d7d1 dbbc 96b4 9fbd 8e29 463d
0.040502466 -0.04655738 -0.014243435 -0.057306956 0.039522637 0.039267834 0.034452274 -0.06894692
0.02651534 0.022054357 0.016034089 0.021325376 0.08208095 0.031185614 0.02361841 0.031475484
0.037652474 0.05559871 -0.013917728 0.03417726 0.012697804 -0.013769948 -0.056679312 0.04532391
0.025082933 0.06489249 0.046296414 0.012957399 -0.033314247 -0.06552452 -0.03781488 -0.011041158
0.037738893 0.0026167387 0.048242528 0.037931196 -0.025871942 -0.06439909 -0.053012263 0.018853275
0.03776455 -0.05704089 0.06290228 0.04904251 -0.058829565 -0.0647977 0.048076164 0.052373573
0.06309402 0.0773543 0.070846304 -0.046301022 0.033008125 0.029197594 0.04539585 -0.048744377
-0.034797225 -0.06507226 0.031079251 -0.049548574 0.06476706 0.017208474 -0.058668558 0.004303516
0.039802928 0.081071764 0.038996268 0.046474777 0.034374993 0.04456288 -0.03329249 0.03541785
0.034606315 0.06061031 0.023525313 -0.0007136006 0.009852397 -0.053415224 -0.018402513 0.05564558
0.05314247 -0.057817604 -0.0369333 -0.039764717 0.011943088 -0.026496023 -0.03910526 0.044595506
-0.06033907 -0.03738936 0.05023512 0.0457822 0.043810483 -0.053297453 -0.005765073 0.04530191
-0.031048913 -0.053981498 0.0028823654 -0.053692482 0.053991877 0.028465295 0.05389013 -0.057903096
-0.076328546 -0.06944018 0.02576858 0.05588968 0.043359462 -0.015460488 0.04638807 0.04454652
0.0302999 0.03487528 0.06260606 -0.055741623 0.043338258 -0.04950222 -0.04315186 0.05728427
0.056091387 0.054320123 0.053488903 0.038682785 0.0033961928 -0.026833458 -0.07798116 0.048379473

bn1.running_var f4 [128]
00000000: 27ca 4340 7ee1 9b40 9467 cf3f 184b 9c40
00000010: 3dc3 4840 d742 1e40 6e75 4440 4bf1 a740
00000020: 2e6d 0c40 2b10 6b40 7561 2640 db89 3f40
00000030: 8173 6340 96ef 8940 e3cb 5840 7b6a 4640
00000040: e868 3340 f65b 6b40 365d c63f eb15 1940
00000050: a7b9 3940 daa6 6b3f 95f4 ea40 9b63 2440
00000060: 97cc 0740 5f93 6940 9c5c 1440 797f 1940
00000070: afe8 a03f d02e dd40 014b 3c40 850b b73f
00000080: 618b 4240 a57b 0040 121f 0e40 fa96 2440
00000090: fae8 e93f ae25 d240 3046 ac40 b232 fd3f
000000a0: fab6 df3f 97c8 c440 39c9 3e40 04c0 3d40
000000b0: b0b4 a340 c22d c640 b2a7 5e40 6e4c 5e40
000000c0: e7bf 1c40 1128 4a40 dc67 5440 1536 b740
000000d0: 8c7b 0a40 a050 4140 bdba 4340 9e38 a540
000000e0: 203d db3f e3e5 e440 2cb5 e73f 22c8 b040
000000f0: 69a0 8340 28be 4640 6a53 ba40 22c0 3340
00000100: 9719 4840 e550 8440 2db6 0340 0564 3b40
00000110: f6fe 3b40 4838 0e40 7720 1240 006f 6f40
00000120: c2e3 1c40 6b5a 7b40 9529 fa3f 7c7d 0d40
00000130: c416 6b40 bd97 ae40 70d6 2040 11cd 1740
00000140: 7538 4140 7245 a140 e10c e23f ffce df3f
00000150: ad91 2e40 0bae 1d40 932a 7e40 596c 0b40
00000160: c83e df40 400c 1e40 c37b 6540 8634 0240
00000170: e629 2940 fae8 b840 4768 0e40 028c 4b40
00000180: 800a de3f 54ce b740 bc06 0d40 14c5 a740
00000190: d44a 3840 ae63 3d40 29b5 5c40 784d b740
000001a0: df15 c640 b92a f540 c0d9 6940 fc3b 4040
000001b0: 57c2 fb3f c6ac f73f 0381 4140 0c33 1840
000001c0: 11ec 7240 9143 2140 4b84 4940 5de2 e140
000001d0: 610f 8040 1353 bc40 c5b5 ee3f 2e8f 4140
000001e0: faa9 6740 c29e 2040 9be4 7740 6794 4a40
000001f0: c6c6 f73f 7525 ed3f 31eb b740 9ecc 5340
3.0592134 4.871276 1.6203485 4.8841667 3.1369164 2.4728296 3.0696673 5.2482047
2.1941638 3.6728618 2.5996983 2.992789 3.5539248 4.3104963 3.3874443 3.100249
2.803278 3.6774879 1.5497196 2.3919628 2.9019563 0.9205147 7.342356 2.5685794
2.1218622 3.6496198 2.3181524 2.3984053 1.2571009 6.9119644 2.9420779 1.430039
3.039757 2.0075467 2.2206464 2.5717149 1.8274224 6.5670996 5.383568 1.9781096
1.7477715 6.149486 2.9810317 2.9648447 5.1158066 6.1930857 3.4789853 3.473415
2.4492128 3.1586955 3.318839 5.725352 2.1637907 3.020546 3.0582726 5.1631613
1.7128029 7.1530623 1.8102164 5.5244303 4.1133313 3.1053562 5.8226824 2.8086019
3.1265619 4.134875 2.0579941 2.9279797 2.9374366 2.2221851 2.2832315 3.74115
2.4514012 3.9273937 1.954394 2.210784 3.6732645 5.4560227 2.5130882 2.3718913
3.0190709 5.039727 1.766018 1.7485045 2.7276413 2.4637477 3.9713485 2.178488
6.9764137 2.4694977 3.5856788 2.0344558 2.6431823 5.7784395 2.2251146 3.1804204
1.7346954 5.7439365 2.203536 5.2428074 2.8795671 2.959209 3.4485571 5.7282066
6.19017 7.661465 3.6539154 3.0036612 1.9668683 1.9349601 3.0234993 2.3781157
3.7956583 2.519749 3.1486995 7.058882 4.0018773 5.885141 1.8649222 3.024364
3.6197495 2.5096898 3.873328 3.1653078 1.9357536 1.8527056 5.74746 3.3093638
