models/hybrid_neurons_pretrained/MLP2_HUMAN_AE1BERT_3_att.pth (torch, 229642 bytes, 34 tensors)

embedding_proj.weight f4 [96, 60]
-0.11789543 -0.18625091 -0.17961763 -0.012949635 0.034701455 0.14337204 0.054040015 0.17149284
0.06793332 0.08073357 0.015942186 0.0028079692 0.046762343 0.01897773 0.012185848 -0.14576688
-0.075127326 0.073137954 0.07002035 -0.12309543 -0.11388608 -0.0037305434 -0.102590635 -0.13428561
0.1673247 -0.08051345 -0.029700957 0.120595165 0.08319833 0.049825 -0.09964701 0.0011962102
0.046479043 0.025873642 0.14663368 0.052391898 0.13084958 0.1487459 -0.0055469032 -0.063994184
-0.07946535 -0.15827525 -0.21206295 -0.124740645 0.24346092 -0.012085154 -0.110750414 0.09252549
-0.1684986 0.16663511 0.15472929 -0.123633474 0.028188925 -0.3177407 0.13115092 -0.13710624
-0.18924929 -0.03240443 -0.028819982 0.012164511 -0.0716316 0.07013162 0.12758608 0.01719384
-0.058321245 -0.12035981 -0.054507162 0.10485499 -0.22207516 0.04360647 -0.19126444 -0.06104116
-0.023308305 0.00054893683 -0.07557146 -0.07045847 -0.009220729 -0.15641722 -0.080198795 -0.056812692
-0.030045565 0.019030884 0.067218944 0.13246544 0.024032187 0.21308967 0.16230121 -0.121040486
0.0066099614 0.121470444 0.07175794 -0.028911473 0.053832486 0.1154208 -0.073113665 -0.08719292
-0.17655228 0.09915138 0.17875554 0.082106866 -0.21938159 -0.05558226 0.030293498 -0.1692643
-0.03802282 0.05209315 0.06976004 -0.07487068 -0.034424577 0.13297376 0.011986265 -0.03461227
-0.22786178 0.055531237 -0.13859437 -0.22390385 0.17832823 0.048912946 0.21667671 -0.11208935
0.115651585 0.13884738 0.013251153 -0.029460207 -0.032124132 0.009642238 0.05349641 -0.035193596
0.061682425 -0.10525871 0.02249567 0.073659986 -0.1290666 -0.0068471865 0.07481068 0.002408713
-0.04688856 -0.17146581 0.32644743 -0.08478138 -0.07633339 0.08050223 -0.014250363 -0.15597938
-0.15596128 -0.08965811 -0.1486314 0.016518539 0.162432 0.018853229 -0.12383596 -0.14878225
-0.19601941 -0.053994283 0.026896974 0.12613371 0.1390898 0.15852174 0.027260138 -0.052025232
0.19021566 -0.024383463 0.09245274 -0.21758175 -0.09277859 0.0731086 -0.10923517 0.17150438
-0.17778896 -0.10207104 0.14321953 -0.09310685 0.0945734 -0.14609562 -0.13498035 -0.040022362
-0.102698214 0.02114562 0.14038095 -0.119739436 0.21106973 -0.07061161 0.09723501 -0.14663245
-0.05406124 -0.02712493 0.003135762 -0.23592354 0.18411966 -0.09784943 0.109511204 0.026055973
-0.16259733 -0.12721252 -0.048290033 0.14792092 -0.17100091 0.19654387 -0.0733092 -0.20616351
0.15220751 -0.31759223 -0.098808125 -0.078997165 -0.06666211 0.011189936 -0.15183905 0.08419177
-0.017678319 0.12153708 0.14803983 0.17722173 -0.061056305 -0.15029423 -0.13906376 -0.12895459
0.020676464 0.098815046 -0.028818622 -0.1185243 -0.12835923 -0.1696902 -0.12458873 0.063718155
0.014681066 0.13677058 -0.1373487 -0.14384988 0.050304964 -0.012629333 -0.07150488 -0.020344358
0.0033768017 -0.056597073 -0.15967998 -0.019937059 -0.0458371 0.23455954 -0.17402324 -0.0973495
-0.07416487 0.11257031 0.039771948 0.070159875 0.09367516 -0.04356935 -0.15728839 -0.025168896
-0.0011395218 -0.07740307 -0.04710903 0.252713 0.052957572 -0.060780797 0.15638888 0.24812652
00000000: 2973 f1bd 8fb8 3ebe afed 37be b52a 54bc
00000010: 1d23 0e3d 1fd0 123e 1059 5d3d d29b 2f3e
00000020: a020 8b3d a457 a53d 3099 823c e805 383b
00000030: df89 3f3d 2f77 9b3c 27a7 473c ea43 15be
00000040: 5bdc 99bd 5ac9 953d d466 8f3d 7519 fcbd
00000050: 1b3d e9bd 227c 74bb 0a1b d2bd 2b82 09be
00000060: 2b57 2b3e 3ce4 a4bd 6c4f f3bc 99fa f63d
00000070: e363 aa3d 4d15 4c3d bb13 ccbd 27ca 9c3a
00000080: cf60 3e3d f6f4 d33c 2427 163e e398 563d
00000090: 6ffd 053e d850 183e ccc2 b5bb 620f 83bd
000000a0: bbbe a2bd e812 22be 0827 59be 0678 ffbd
000000b0: d24d 793e cf00 46bc 1dd1 e2bd 017e bd3d
000000c0: e68a 2cbe 65a2 2a3e 5b71 1e3e 8c33 fdbd
000000d0: 76ec e63c e9ae a2be 6d4c 063e 9465 0cbe
000000e0: 91ca 41be 82ba 04bd e217 ecbc a84d 473c
000000f0: 97b3 92bd 2ba1 8f3d eda5 023e 19da 8c3c
00000100: 42e2 6ebd 347f f6bd e742 5fbd 37be d63d
00000110: ac67 63be b39c 323d d3da 43be 4c06 7abd
00000120: 0ff1 bebc 87e6 0f3a 36c5 9abd 884c 90bd
00000130: 8a12 17bc d62b 20be 443f a4bd 6db4 68bd
00000140: 1e22 f6bc a8e6 9b3c 16aa 893d 05a5 073e
00000150: 26df c43c 2e34 5a3e 4a32 263e 13e4 f7bd
00000160: 6098 d83b 7fc5 f83d d4f5 923d c1d7 ecbc
00000170: 747f 5c3d be61 ec3d 9ebc 95bd 3492 b2bd
00000180: 1fca 34be e10f cb3d b10b 373e a527 a83d
00000190: 91a5 60be 39aa 63bd 122a f83c 9f53 2dbe
000001a0: d1bd 1bbd a05f 553d 5ade 8e3d cd55 99bd
000001b0: c900 0dbd 462a 083e 0a62 443c 98c5 0dbd
000001c0: 9954 69be b974 633d afeb 0dbe 0d47 65be
000001d0: ad9b 363e f158 483d 80e0 5d3e 1a8f e5bd
000001e0: bdda ec3d 022e 0e3e 5d1b 593c 8856 f1bc
000001f0: 9894 03bd 7afa 1d3c 0d1f 5b3d 2927 10bd
00000200: b6a6 7c3d e191 d7bd d748 b83c 0cdb 963d
00000210: 092a 04be 5d5e e0bb 5736 993d 80db 1d3b
00000220: 380e 40bd bc94 2fbe 1e24 a73e dca1 adbd
00000230: ae54 9cbd 5ade a43d 5b7a 69bc 0fb9 1fbe
00000240: 50b4 1fbe ac9e b7bd d432 18be e351 873c
00000250: 9354 263e 1672 9a3c b59d fdbd 605a 18be
00000260: 50b9 48be 1c29 5dbd 0b57 dc3c 3229 013e
00000270: 8e6d 0e3e 8653 223e a750 df3c 6918 55bd
00000280: e5c7 423e d4bf c7bc dd57 bd3d c0cd 5ebe
00000290: b402 bebd f6b9 953d b0b6 dfbd d89e 2f3e
000002a0: 4f0e 36be 9f0a d1bd 24a8 123e ceae bebd
000002b0: b3af c13d 179a 15be 4a38 0abe 7dee 23bd
000002c0: 7153 d2bd 9439 ad3c 06c0 0f3e f339 f5bd
000002d0: aa22 583e d29c 90bd 2623 c73d d126 16be
000002e0: 526f 5dbd 1a35 debc 5b81 4d3b f195 71be
000002f0: dd89 3c3e 4865 c8bd 6947 e03d 5673 d53c
00000300: ea7f 26be 0044 02be c5cb 45bd 9578 173e
00000310: dd1a 2fbe cc42 493e 2223 96bd 871c 53be
00000320: 49dc 1b3e 739b a2be ea5b cabd 44c9 a1bd
00000330: 2586 88bd fe55 373c b27b 1bbe bc6c ac3d
00000340: 1fd2 90bc 6fe8 f83d c197 173e 9d79 353e
00000350: 2d16 7abd bbe6 19be bb66 0ebe ac0c 04be
00000360: b061 a93c 8b5f ca3d 0815 ecbc debc f2bd
00000370: 9a70 03be 45c3 2dbe 6028 ffbd aa7e 823d
00000380: db88 703c 960d 0c3e 23a5 0cbe 624d 13be
00000390: 940c 4e3d 43eb 4ebc 2771 92bd 36a9 a6bc
000003a0: 554d 5d3b 55d2 67bd 2683 23be 0b53 a3bc
000003b0: afbf 3bbd 6030 703e 2633 32be 2d5f c7bd
000003c0: c0e3 97bd 438b e63d e9e7 223d fbaf 8f3d
000003d0: c3d8 bf3d c675 32bd 3510 21be 002f cebc
000003e0: 025c 95ba 8085 9ebd 66f5 40bd 9963 813e
000003f0: 0aea 583d 49f5 78bd 6824 203e e114 7e3e

embedding_proj.bias f4 [96]
0.0034529397 -0.0022037735 0.004776601 -0.0008662357 -0.0025171158 -0.0011959933 -0.0002591635 0.0017669919
0.0032030998 0.005625175 0.00081877795 -0.004755157 -7.561709e-05 5.832868e-05 0.0009141869 0.002150583
0.0006862516 0.0006192963 -0.0019222404 -0.003859637 0.0034172595 -0.0018500825 -0.0019742935 -0.009130125
-0.0019860882 -0.003953672 -0.00396098 -0.0022551515 0.0027662453 0.0015980507 0.0032509197 0.0037282251
0.0038488416 -0.0023555183 -6.929312e-05 0.0015520478 0.0015680282 0.0018780312 0.00021654459 0.005108137
-0.002565913 0.0027768295 0.0064813476 -0.004608071 0.0070840796 -0.004552307 -0.00013306046 -0.00028292643
-0.0005181872 0.0020845074 0.006024379 -0.0018089712 -0.0024485344 -0.0017420833 -0.00252186 -0.0046538296
0.0016848377 -0.0035785255 0.0051164385 -0.0026763096 -0.004404744 -0.0028860227 0.00069219613 0.002597258
0.0010114299 -0.0020905288 0.001022622 -0.0012875273 0.0021921264 0.0028408458 -0.00020508259 -0.002247636
-0.0044267783 -0.006168928 -0.00096464826 -0.0029139197 -0.0002916141 0.00019174058 -5.0232484e-05 -0.0031329237
-0.0009293408 0.00030084193 -0.0016720687 0.0013684541 -0.003235253 0.0017713142 -0.00042312228 -0.004083085
-0.0018529928 -0.00014493952 0.0044366713 -0.0017573852 0.0021239428 0.0029687437 -0.0029329476 0.0014328875
00000000: b74a 623b 2f6d 10bb 0985 9c3b 1814 63ba
00000010: 32f6 24bb e0c2 9cba 56e0 87b9 699a e73a
00000020: 19eb 513b 6353 b83b 42a3 563a 26d1 9bbb
00000030: 9e94 9eb8 f1a5 7438 0ba6 6f3a ccf0 0c3b
00000040: 91e5 333a 4558 223a aff3 fbba f7f1 7cbb
00000050: 1af4 5f3b 787e f2ba 2663 01bb 8596 15bc
00000060: 0829 02bb ce8d 81bb 1ccb 81bb 2acb 13bb
00000070: e549 353b af75 d13a 620d 553b 3d55 743b
00000080: d93c 7c3b 0a5f 1abb 7651 91b8 156e cb3a
00000090: 4c86 cd3a 4528 f63a 3f10 6339 2962 a73b
000000a0: e028 28bb 78fb 353b 7c61 d43b 4dff 96bb
000000b0: 9121 e83b 852b 95bb 2586 0bb9 be55 94b9
000000c0: f4d6 07ba 3b9c 083b 2768 c53b 001b edba
000000d0: 9777 20bb 9e56 e4ba ca45 25bb 277f 98bb
000000e0: c6d5 dc3a b285 6abb cca7 a73b 0665 2fbb
000000f0: ac55 90bb 6d23 3dbb 7f74 353a c236 2a3b
00000100: f591 843a 4101 09bb 8009 863a 3fc2 a8ba
00000110: c7a9 0f3b 7c2d 3a3b 700b 57b9 134d 13bb
00000120: 820e 91bb b824 cabb 73e0 7cba 76f7 3ebb
00000130: c8e3 98b9 f80d 4939 b8b0 52b8 bd51 4dbb
00000140: 019f 73ba 52ba 9d39 5129 dbba b35d b33a
00000150: 8a06 54bb 712b e83a 83d6 ddb9 66cb 85bb
00000160: 1fe0 f2ba e8fa 17b9 7f61 913b 1058 e6ba
00000170: d931 0b3b 418f 423b b236 40bb bacf bb3a

categorical_proj.weight f4 [17, 17]
-0.090776615 -0.32987553 0.19281846 -0.028102145 -0.13819236 -0.098706365 0.33539873 0.3070129
-0.21922843 -0.29824802 -0.62658966 -0.48211575 0.32836705 0.09427948 -0.2587663 -0.3823605
0.29361978 -0.49463063 -0.19435993 0.20717946 -0.06467473 0.29304454 0.12102722 -0.20026833
-0.1477157 0.22248635 -0.21626298 -0.69895434 0.19819151 -0.084026955 0.25854635 0.18999982
0.44130725 0.028539252 0.102948986 -0.34791723 0.2533649 0.053175945 -0.31001776 -0.4677274
-0.26851815 0.10156186 -0.3698733 -0.28541055 0.16389452 0.39794338 -0.1942928 0.41793188
0.08861405 -0.31516486 0.15473644 -0.0458466 0.16667633 -0.121847644 0.011790609 -0.20963295
0.007322687 -0.07094147 -0.26630345 0.2589759 -0.41634008 0.38939562 0.21584243 -0.5319234
0.24531557 0.05459252 -0.15889962 0.030888062 -0.16441904 -0.16595727 0.41619697 0.19065192
0.1171085 -0.036510974 0.3796588 -0.24434128 -0.024925102 -0.22326286 0.43319094 0.0653319
-0.69792604 0.36653242 0.18370347 -0.08429717 0.2760643 -0.17967127 -0.28992546 0.3072116
-0.27157182 0.38884327 0.053633172 -0.09809974 -0.05634018 -0.0047881505 -0.23434162 -0.75539184
0.05063501 0.15654321 0.31933638 0.41223177 0.17887716 -0.118764825 0.2757101 -0.07645643
0.3140744 -0.2762472 -0.088254966 -0.223725 -0.0056972275 0.030451529 -0.29496062 -0.36508727
0.19899401 -0.019024665 -0.26626715 -0.07152265 0.15642868 0.36928335 -0.48853937 -0.18509708
-0.3863328 0.031057734 -0.23587675 0.23198904 -0.06944184 -0.31267226 -0.3002459 0.2621549
-0.3402525 0.30464914 0.094555385 -0.29220763 0.22756135 -0.07702952 -0.020077575 -0.16374777
-0.060823563 -0.31713167 0.4382673 0.37530345 -0.18342997 0.3997587 0.13793762 -0.058517396
-0.21142685 0.23731424 0.518716 0.12648201 -0.07032219 0.33203295 -0.43645588 0.18617079
-0.31488705 -0.25582182 0.31904587 0.36420622 0.2770428 0.14826703 0.1272861 0.3057712
-0.35109264 0.17566621 -0.1517957 -0.49074405 -0.0132054165 0.6274495 0.06532927 0.08995396
-0.34949225 -0.26545566 0.20929527 0.2830018 0.2341812 0.29599813 0.31242165 0.039577823
-0.3273988 0.059497863 -0.24352789 0.32524318 0.3863546 -0.31161317 -0.57248306 0.13233605
-0.1281772 0.39137086 0.1130951 -0.34632793 0.2587694 0.13723145 0.28691643 0.35405988
-0.3219269 -0.2673143 -0.14805345 -0.23861118 -0.011028794 -0.1852132 0.24369563 -0.20681544
-0.27019715 0.16173781 -0.41908672 -0.11014789 -0.4869066 0.12780726 -0.3158099 0.05956931
-0.3850308 -0.28332114 0.2299791 -0.5598932 0.32328808 0.064325325 -0.72894645 -0.553993
-0.3673692 -0.1149838 -0.3034156 0.23552753 -0.26138607 0.13627876 -0.13750458 -0.18521361
0.10538774 0.2797312 0.0610172 -0.17096685 0.07216619 0.14091586 -0.09466611 -0.102339834
-0.300656 -0.22471695 -0.10273937 0.39302042 -0.24560402 0.11666663 -0.068593346 0.4039375
-0.1329886 -0.14078102 0.286174 -0.43244982 0.14011289 0.25163278 -0.2093773 0.09316201
-0.601982 -0.13133954 0.8010391 0.27387404 0.30274257 0.1512602 0.1528058 -0.26194182
00000000: 17e9 b9bd 72e5 a8be 3472 453e 7836 e6bc
00000010: 4c82 0dbe 9026 cabd 62b9 ab3e cb30 9d3e
00000020: 6b7d 60be f7b3 98be 2e68 20bf e0d7 f6be
00000030: ba1f a83e 9a15 c13d 047d 84be c1c4 c3be
00000040: 5555 963e 3a40 fdbe 4a06 47be da26 543e
00000050: 2f74 84bd ef09 963e 1edd f73d 2413 4dbe
00000060: c942 17be 76d3 633e 0b74 5dbe acee 32bf
00000070: b7f2 4a3e 5316 acbd 3060 843e 508f 423e
00000080: 06f3 e13e 26cb e93c ebd6 d23d 3522 b2be
00000090: 0bb9 813e 05cf 593d a6ba 9ebe f779 efbe
000000a0: 367b 89be aaff cf3d 0860 bdbe 5521 92be
000000b0: f7d3 273e 3cbf cb3e b1f4 46be 2bfb d53e
000000c0: 487b b53d 4a5d a1be 3b73 1e3e a5c9 3bbd
000000d0: 33ad 2a3e 428b f9bd 662d 413c 05aa 56be
000000e0: 27f3 ef3b c349 91bd ed58 88be 7d98 843e
000000f0: 872a d5be dd5e c73e cc05 5d3e 222c 08bf
00000100: 0134 7b3e 689c 5f3d 95b6 22be f608 fd3c
00000110: 775d 28be b4f0 29be c517 d53e 423a 433e
00000120: 95d6 ef3d 888c 15bd a362 c23e 9a34 7abe
00000130: ba2f ccbc 059f 64be 34cb dd3e bbcc 853d
00000140: 48ab 32bf 23aa bb3e c31c 3c3e ffa3 acbd
00000150: 4d58 8d3e bffb 37be 1c71 94be d74a 9d3e
00000160: 760b 8bbe 7716 c73e 75ae 5b3d 84e8 c8bd
00000170: f6c4 66bd ebe5 9cbb 40f7 6fbe 5c61 41bf
00000180: a866 4f3d dd4c 203e 0f80 a33e 0b10 d33e
00000190: 932b 373e f93a f3bd e029 8d3e 3095 9cbd
000001a0: 5cce a03e 4670 8dbe 05bf b4bd 2b18 65be
000001b0: cfaf babb 7c75 f93c 1405 97be b8ec babe
000001c0: 16c5 4b3e 9dd9 9bbc 2b54 88be 787a 92bd
000001d0: d72e 203e b512 bd3e d521 fabe 178a 3dbe
000001e0: 6acd c5be ca6c fe3c ad89 71be 898e 6d3e
000001f0: 8637 8ebd 9416 a0be d5b9 99be 2b39 863e
00000200: 9335 aebe f9fa 9b3e 41a6 c13d 3d9c 95be
00000210: d805 693e a7c1 9dbd ba79 a4bc 7fad 27be
00000220: 2122 79bd 155f a2be 9264 e03e c627 c03e
00000230: 11d5 3bbe 2cad cc3e 853f 0d3e f0af 6fbd
00000240: 4880 58be 8102 733e 92ca 043f 8084 013e
00000250: 1505 90bd 3900 aa3e 2577 dfbe 8ea3 3e3e
00000260: e038 a1be 14fb 82be fb59 a33e 3d79 ba3e
00000270: 8ed8 8d3e 50d3 173e 4a57 023e 0b8e 9c3e
00000280: 6ac2 b3be d8e1 333e 5570 1bbe ce42 fbbe
00000290: 885b 58bc 88a0 203f 5acb 853d c839 b83d
000002a0: a6f0 b2be cee9 87be 8051 563e 9de5 903e
000002b0: 32cd 6f3e 118d 973e bbf5 9f3e 5b1c 223d
000002c0: d1a0 a7be 08b4 733d 605f 79be 4686 a63e
000002d0: 45d0 c53e c38b 9fbe 408e 12bf 1a83 073e
000002e0: e240 03be c361 c83e 679e e73d e551 b1be
000002f0: 6c7d 843e 6786 0c3e b6e6 923e 5647 b53e
00000300: 9ad3 a4be 6cdd 88be 539b 17be 7d56 74be
00000310: 1db2 34bc 87a8 3dbe 598b 793e 6dc7 53be
00000320: 4857 8abe 999e 253e 8992 d6be 3895 e1bd
00000330: d24b f9be e8df 023e d6b1 a1be f3fe 733d
00000340: c222 c5be 780f 91be a47f 6b3e 2955 0fbf
00000350: 0486 a53e ffbc 833d 3c9c 3abf 7cd2 0dbf
00000360: d117 bcbe a07c ebbd 4a59 9bbe 212e 713e
00000370: 65d4 85be a98c 0b3e 00ce 0cbe a3a8 3dbe
00000380: 87d5 d73d ee38 8f3e 2ced 793d ef11 2fbe
00000390: decb 933d 3f4c 103e 4ee0 c1bd 8c97 d1bd
000003a0: 95ef 99be 331c 66be 0569 d2bd f939 c93e
000003b0: 9f7f 7bbe eaee ee3d ab7a 8cbd e5d0 ce3e
000003c0: 2a2e 08be e628 10be 6685 923e 106a ddbe
000003d0: c179 0f3e 03d6 803e 0167 56be b9cb be3d
000003e0: 7e1b 1abf df7d 06be e610 4d3f 3839 8c3e
000003f0: 1301 9b3e f4e3 1a3e 2079 1c3e 3d1d 86be

categorical_proj.bias f4 [17]
0.011656363 0.0028262553 0.0034973319 -0.0023423836 0.0008502801 0.0006143351 -0.0055037756 0.0024157215
0.0013995633 -0.004256767 0.009612206 0.006424367 -0.0024114032 0.006757324 0.005095434 -0.002901355
-0.0006549425
00000000: 54fa 3e3c b238 393b 7e33 653b ad82 19bb
00000010: 55e5 5e3a 550b 213a 0459 b4bb 1551 1e3b
00000020: 8d71 b73a 5a7c 8bbb 847c 1d3c 7f83 d23b
00000030: a208 1ebb 8b6c dd3b 99f7 a63b a924 3ebb
00000040: 72b0 2bba

combine_proj.weight f4 [128, 113]
-0.05704669 -0.13426477 0.14239885 0.053618755 0.075400375 -0.070821494 0.030813916 -0.15845855
0.13426061 -0.08429326 0.016928043 0.15970382 -0.0070299394 0.16123958 -0.09548603 0.049808998
0.15161046 0.053018354 0.18928832 0.044068888 0.16531424 -0.07924739 0.012274728 0.0503796
-0.013937785 -0.009046478 -0.13239838 -0.023750829 -0.0060169683 -0.044507038 -0.19867119 0.1365053
-0.09777421 -0.09071608 0.08943971 0.049190007 -0.116714835 0.1560831 -0.107877575 0.17649755
-0.013476006 -0.044781726 -0.08221805 0.061247498 0.1331898 0.017739724 0.052174143 0.042130467
0.05929448 0.05813023 0.040297236 -0.11039987 -0.09093922 0.15945955 -0.086102836 -0.12488795
0.004752815 -0.07390701 -0.07030565 0.12591922 -0.0776776 -0.013337326 -0.047379192 -0.10163045
0.061415315 0.0042784186 0.10453672 -0.10174803 -0.12281079 -0.06968874 -0.13598457 0.1316526
-0.14583014 0.122598305 -0.008528988 0.059582558 -0.0015411327 -0.05765492 -0.03863968 -0.16800396
0.12483572 -0.037445635 0.08380003 -0.099568985 0.05863526 -0.08187514 0.111184195 -0.06986236
-0.033828564 -0.09627746 -0.0005088706 -0.022129646 -0.021014249 0.10015563 -0.043995876 -0.12128885
0.14011662 0.26726207 -0.03199021 -0.028207712 0.094992116 0.26563716 -0.20804515 -0.13898143
-0.0049524945 0.1263173 -0.14124645 -0.02619635 0.19954988 -0.0754017 0.21654989 0.22076313
0.02117054 0.012631184 0.060726155 0.15006611 -0.060659952 0.043135706 -0.070312396 -0.12234216
-0.037960585 0.041558344 -0.011777126 0.07165438 -0.15060215 0.12942635 -0.096535854 -0.0069286027
-0.045111354 0.12453086 -0.07673825 0.15832761 -0.15109721 0.12233807 0.1269448 -0.07172654
-0.031997435 0.038424354 0.004655586 -0.01754914 0.048584033 0.021169899 0.09217807 -0.13915919
0.022516664 0.10722031 -0.051892575 -0.0801064 -0.07277568 -0.019803884 -0.13421178 0.088844165
0.1615081 -0.054530732 -0.10805479 -0.028484456 0.10304766 -0.051273987 -0.038613793 -0.08406551
-0.042241298 -0.06399863 -0.067636184 -0.0985314 -0.047595207 0.16981524 -0.107678466 0.04623753
0.12839772 0.06982254 0.15281405 -0.12629917 0.102676295 0.0019492643 0.1040662 -0.1509699
0.15916435 0.011922266 0.019668305 0.05030311 -0.16310051 -0.15427676 0.070965484 0.006115646
0.005644541 -0.19154458 0.061780095 0.2069905 0.16597326 0.07872078 -0.044459686 -0.11313557
0.07373499 -0.022446832 -0.101845056 -0.065378666 0.054282278 0.07868867 0.07219392 0.0776852
-0.04597197 -0.0036139314 -0.057571013 -0.114821926 -0.11337206 -0.16096278 -0.09133738 0.07551355
0.027502425 -0.042918958 0.17947295 0.0648341 0.1619444 0.17590612 0.0012647605 -0.097851396
-0.005997126 -0.104368456 0.15119088 0.13419004 0.012559569 -0.19350408 -0.09964874 0.019266544
0.20281506 -0.1680186 0.15306436 -0.10230169 -0.10687644 -0.051923543 -0.09013363 0.15067898
-0.1234413 -0.083781496 0.03404209 -0.016937867 -0.03004331 0.075602606 0.116809115 -0.03606925
0.10177671 0.12875846 -0.030558169 0.053722065 -0.0025004977 -0.14738199 -0.21707878 -0.11995556
0.034924813 -0.14566137 0.0797742 -0.06808447 -0.110980935 -0.08760069 0.15661049 -0.05000986
00000000: caa9 69bd b47c 09be 01d1 113e 579f 5b3d
00000010: 836b 9a3d dc0a 91bd 776d fc3c f542 22be
00000020: 9d7b 093e f2a1 acbd aeac 8a3c 6689 233e
00000030: 685b e6bb fd1b 253e 2e8e c3bd 8504 4c3d
00000040: c63f 1b3e c629 593d ccd4 413e 9481 343d
00000050: 2348 293e 754c a2bd f11b 493c d75a 4e3d
00000060: 4f5b 64bc ae37 14bc 7193 07be 1991 c2bc
00000070: fd29 c5bb 034d 36bd 7670 4bbe 0cc8 0b3e
00000080: d83d c8bd 5ac9 b9bd 2b2c b73d 767b 493d
00000090: 3008 efbd 40d4 1f3e ebee dcbd c6bb 343e
000000a0: 77ca 5cbc 0b6d 37bd f061 a8bd a8de 7a3d
000000b0: e862 083e e652 913c 8eb4 553d ff90 2c3d
000000c0: c5de 723d f719 6e3d b70e 253d 5419 e2bd
000000d0: 573e babd 5d49 233e af56 b0bd 41c5 ffbd
000000e0: 80bd 9b3b 8f5c 97bd 69fc 8fbd f8f0 003e
000000f0: 6f15 9fbd cd84 5abc af10 42bd a023 d0bd
00000100: a08e 7b3d fa31 8c3b 5917 d63d 4561 d0bd
00000110: 3984 fbbd f8b8 8ebd 8a3f 0bbe f0cf 063e
00000120: 7f54 15be d214 fb3d 2bbd 0bbc d70c 743d
00000130: d5ff c9ba 9127 6cbd a444 1ebd 3b09 2cbe
00000140: dfa9 ff3d 9860 19bd 5a9f ab3d d3ea cbbd
00000150: 872b 703d 27ae a7bd 8ab4 e33d ff13 8fbd
00000160: d28f 0abd 1e2d c5bd ba65 05ba 3b49 b5bc
00000170: 1326 acbc 651e cd3d 0535 34bd 4a66 f8bd
00000180: bb7a 0f3e 93d6 883e 2b08 03bd dc13 e7bc
00000190: 3a8b c23d 9801 883e ca09 55be 2651 0ebe
000001a0: 8948 a2bb 5359 013e e9a2 10be ba99 d6bc
000001b0: ce56 4c3e 356c 9abd 41bf 5d3e bb0f 623e
000001c0: d76d ad3c 07f3 4e3c fdbb 783d eeaa 193e
000001d0: 9276 78bd 11af 303d f2ff 8fbd 878e fabd
000001e0: 8f7c 1bbd 1539 2a3d d9f4 40bc 88bf 923d
000001f0: 7337 1abe 5788 043e 97b4 c5bd 5509 e3bb
00000200: afc6 38bd 090a ff3d f228 9dbd a220 223e
00000210: 3ab9 1abe 628c fa3d d1fd 013e 5de5 92bd
00000220: be0f 03bd db62 1d3d e38d 983b 37c3 8fbc
00000230: 0d00 473d 7f6c ad3c dbc7 bc3d bf7f 0ebe
00000240: de74 b83c 5296 db3d 4f8d 54bd d30e a4bd
00000250: 6a0b 95bd c13b a2bc d06e 09be eef3 b53d
00000260: 6162 253e 9e5b 5fbd d44b ddbd 3c58 e9bc
00000270: a70a d33d ac04 52bd 7f29 1ebd 8a2a acbd
00000280: 3605 2dbd b711 83bd d784 8abd d5ca c9bd
00000290: 31f3 42bd 0ce4 2d3e 8786 dcbd 9063 3d3d
000002a0: b17a 033e 1fff 8e3d 497b 1c3e 9254 01be
000002b0: f347 d23d 757e ff3a a920 d53d da97 1abe
000002c0: fbfb 223e 9c55 433c 6d1f a13c a20a 4e3d
000002d0: d203 27be bafa 1dbe 5a56 913d c265 c83b
000002e0: d7f5 b83b 4324 44be 200d 7d3d 51f5 533e
000002f0: e5f4 293e 5c38 a13d 5c1b 36bd 9fb3 e7bd
00000300: 5f02 973d 6be2 b7bc 2494 d0bd 40e5 85bd
00000310: 1857 5e3d 8727 a13d 68da 933d 6b19 9f3d
00000320: 1b4d 3cbd b5d7 6cbb 95cf 6bbd c227 ebbd
00000330: 9c2f e8bd 6dd3 24be 180f bbbd d9a6 9a3d
00000340: c44c e13c cacb 2fbd c2c7 373e bec7 843d
00000350: c1d4 253e bc20 343e 52c6 a53a 5066 c8bd
00000360: 8a83 c4bb 21bf d5bd c8d1 1a3e 1d69 093e
00000370: a7c6 4d3c ef25 46be a314 ccbd dfd4 9d3c
00000380: c0ae 4f3e 110d 2cbe e7bc 1c3e 8c83 d1bd
00000390: 09e2 dabd c8ad 54bd fb97 b8bd 974b 1a3e
000003a0: cbce fcbd a295 abbd b86f 0b3d 48c1 8abc
000003b0: 631d f6bc 8ad5 9a3d 9e39 ef3d 5abd 13bd
000003c0: 4f70 d03d 42d9 033e 2055 fabc ab0b 5c3d
000003d0: 64df 23bb 4eeb 16be e649 5ebe 43ab f5bd
000003e0: 520d 0f3d 4128 15be a860 a33d df6f 8bbd
000003f0: f949 e3bd fe67 b3bd 805e 203e 24d7 4cbd

combine_proj.bias f4 [128]
0.0001853124 0.0028174855 0.0016270896 0.0040738964 0.0006875082 -0.002775611 -0.0020270627 0.0016168737
-0.0015749702 -0.0002893519 -0.0014619022 -0.0022405994 0.00061198825 0.0024787588 0.0015097231 0.0023941384
0.0017381645 -0.0007635403 -0.00040952227 0.001759038 -0.0013746574 -0.0029679015 0.000121153804 0.0021666244
-0.0010184045 0.0027110346 -0.0008819173 0.0002757459 0.0010617622 -0.0015800492 0.0018119692 -0.0011718093
-0.0018503 -0.00073619233 0.0030355973 0.0039127925 6.7888825e-05 -0.0010194922 -0.0008622222 -0.0020317154
-0.0007341064 0.0013421257 -0.0023808563 0.0013949911 0.0008734498 -0.00021218539 0.0029565536 0.0006352038
0.00073089707 -0.0004110046 0.0036636791 -0.00079999404 -0.00086721923 -0.0023711298 0.0013510998 0.0033322107
0.0065978565 -0.0003847111 0.0016109402 0.0029049283 -0.001833372 -0.0030942361 0.0029908272 -0.0024898306
-0.00091245596 -0.0010226421 -0.0028387234 0.0015672431 -0.00047920662 -4.857936e-05 0.0010579645 0.004771074
0.0004184583 -0.0030222111 -0.0019388419 0.001088628 -0.001109565 0.00037048387 0.0031747539 -0.0016610002
-0.00043474158 0.0014207027 0.000112152535 0.00022379086 0.001493306 0.00072822307 -0.0023005032 0.002990943
-0.0031980302 0.0023579176 0.0026409663 0.00042781094 0.0010248774 0.003371317 -0.00091407134 0.0015293675
-0.0011914638 -0.003365676 0.0018548573 0.0004600674 -0.0007459428 0.0010209698 0.0010106015 0.002388519
-0.0018582523 0.00079511135 0.0018341329 0.001961289 -0.00075812417 0.0007432892 -0.00040795226 0.003101262
0.0007945265 -7.000288e-05 0.0012794432 -0.0022481207 -0.0030038906 -0.0009115886 0.0020258955 -0.00465917
-0.0007398187 -0.0011686661 -0.00095961813 0.0020072022 0.0014264098 0.0003776476 0.00030390493 -0.0028481719
00000000: 6b50 4239 90a5 383b 1144 d53a 527e 853b
00000010: e539 343a 06e7 35bb 78d8 04bb 47ed d33a
00000020: 3b6f ceba 28b4 97b9 4c9d bfba 05d7 12bb
00000030: d66d 203a ac72 223b e7e1 c53a fae6 1c3b
00000040: 1fd3 e33a 5228 48ba 26b5 d6b9 858f e63a
00000050: d92d b4ba 2081 42bb f413 fe38 edfd 0d3b
00000060: fc7b 85ba 9dab 313b 7830 67ba fd91 9039
00000070: d42a 8b3a a719 cfba 997f ed3a 6597 99ba
00000080: c485 f2ba 08fd 40ba dff0 463b e236 803b
00000090: 895f 8e38 7ba0 85ba c106 62ba 8726 05bb
000000a0: 0c71 40ba 44ea af3a 2408 1cbb 22d8 b63a
000000b0: 39f8 643a 157e 5eb9 bdc2 413b ce83 263a
000000c0: ac99 3f3a 1b7c d7b9 561a 703b b1b6 51ba
000000d0: 1956 63ba f564 1bbb 6317 b13a 3861 5a3b
000000e0: d532 d83b 0db3 c9b9 2f26 d33a 9c60 3e3b
000000f0: c24d f0ba abc8 4abb c101 443b 6d2c 23bb
00000100: e231 6fba 2d0a 86ba e009 3abb f46b cd3a
00000110: 063e fbb9 b1c1 4bb8 66ab 8a3a ab56 9c3b
00000120: 8664 db39 4a10 46bb bd20 feba 4bb0 8e3a
00000130: d36e 91ba 813d c239 880f 503b ebb5 d9ba
00000140: 07ee e3b9 df36 ba3a 6f33 eb38 67a9 6a39
00000150: 09bb c33a 39e6 3e3a 0ac4 16bb b203 443b
00000160: 0b96 51bb 4b87 1a3b 1014 2d3b d04b e039
00000170: 2e55 863a 50f1 5c3b 4a9e 6fba 0f75 c83a
00000180: e42a 9cba ac92 5cbb af1e f33a 3335 f139
00000190: 608b 43ba 10d2 853a 2976 843a b388 1c3b
000001a0: 9a90 f3ba 056f 503a 4a67 f03a f888 003b
000001b0: dabc 46ba 4bd9 423a 6de2 d5b9 8b3e 4b3b
000001c0: c547 503a 83ce 92b8 fdb2 a73a 3555 13bb
000001d0: ecdc 44bb adf7 6eba e3c4 043b f3ab 98bb
000001e0: 64f0 41ba ed2d 99ba e28e 7bba 448b 033b
000001f0: 5ff6 ba3a 01ff c539 6e55 9f39 65a8 3abb

fc1.weight f4 [128, 128]
-0.079659864 -0.064417094 -0.17828476 -0.10898237 -0.052069284 0.052374106 0.010670511 -0.06412637
0.07492289 0.13249676 0.08760555 -0.05805827 -0.056481086 0.1218572 0.13443196 0.022490524
0.14770506 0.07045239 0.102819614 0.021581512 0.09313976 0.11920759 -0.036401965 0.026875664
-0.061982512 -0.12158492 0.13001606 -0.02497858 -0.14173327 -0.11497211 -0.086701274 0.05898388
-0.09594763 -0.07132586 -0.047614872 -0.1658927 -0.1944045 -0.06292872 0.12876894 -0.15629786
0.050297473 0.09211895 0.06511897 -0.08960469 -0.120053306 0.04613165 -0.022170732 0.04222637
-0.036665812 0.03965706 0.07558829 -0.0068811653 0.084929965 -0.036790065 0.057165522 0.079944685
0.13778026 0.0482385 0.114913754 -0.140782 -0.11312688 -0.08783305 -0.11961198 -0.25180855
-0.14715046 -0.17890832 0.017694637 -0.07955125 -0.064269565 -0.13986123 -0.1313322 0.13401107
-0.1491537 -0.10502982 -0.09781416 0.11817035 -0.07667999 0.01602722 -0.017702717 0.049967125
-0.10176669 -0.12659635 -0.17335369 0.1333409 0.12460881 -0.03837023 -0.068665 -0.17161986
0.09425966 -0.1252472 -0.1122319 0.05974403 -0.051444147 0.2369734 0.071220644 -0.04616154
0.10188077 -0.11690705 0.10738512 0.10950385 -0.11531698 0.0916651 -0.12053686 -0.021617265
0.12664142 0.14247486 0.05214675 0.059452515 0.04569153 -0.23109812 0.13124058 -0.06094766
-0.07098034 -0.0423629 -0.04712971 -0.10773524 -0.08956975 0.041366894 0.025890045 -0.10681471
0.15259328 -0.08904433 -0.029302774 0.072928004 -0.1208379 -0.002042254 -0.12479067 -0.01876352
-0.2701393 0.02915644 -0.19072351 -0.023384528 -0.033540465 0.0042154468 0.10743047 0.1018737
-0.07773375 -0.21244052 -0.11008629 -0.0038333542 -0.072332434 0.19059265 -0.1003138 0.057511404
0.033920925 0.09448081 0.022204008 0.18604799 -0.23364021 -0.17487335 -0.02503118 0.10940041
0.08196194 -0.002432007 0.056174334 -0.170653 0.11915793 0.047662795 0.03444853 0.14429478
-0.09176139 -0.015418052 0.059193444 -0.054108992 -0.15470493 0.18590543 0.090685256 0.0981954
-0.13745636 0.1186896 -0.053836353 0.1521727 0.13753133 -0.1252597 0.08465344 0.054906044
-0.1505882 0.09879405 -0.2922303 -0.03572713 0.021860326 -0.113268755 0.1990918 0.19470604
-0.038649097 0.09916569 -0.010167837 -0.18286972 0.06575035 0.20213951 -0.023034923 0.015688112
-0.07220484 -0.0157797 0.04371615 -0.005679098 -0.1694407 0.11816148 0.19723934 0.32011905
-0.10710704 0.024268886 0.21042039 0.0387734 -0.097590476 0.002914963 -0.021760134 0.08653928
-0.07951082 0.0031833863 -0.107858494 -0.009787393 -0.11397455 -0.061968166 -0.010275512 0.061050665
0.07219877 -0.023683878 0.013750849 -0.10080726 -0.08200557 -0.07954505 0.17171742 -0.034771983
-0.05140292 -0.034058347 0.019111307 -0.0374925 -0.0030590675 -0.008201679 -0.07003414 -0.06902416
-0.025170749 0.07680814 -0.009212535 0.092566974 -0.053666297 -0.11894261 -0.03263999 -0.053231932
0.2408116 -0.09887389 -0.07417263 -0.07147933 0.20937468 -0.0109909205 -0.011352869 0.03196051
-0.17006263 -0.030856153 0.03592462 0.10672248 -0.04758569 -0.12775347 0.03923409 0.008597372
00000000: b624 a3bd 1ced 83bd 4890 36be 2632 dfbd
00000010: 9a46 55bd 3b86 563d 5ed3 2e3c b054 83bd
00000020: 2c71 993d 3bad 073e 8a6a b33d 82ce 6dbd
00000030: b658 67bd 4590 f93d 88a8 093e 0c3e b83c
00000040: ff3f 173e 5849 903d 1793 d23d b6cb b03c
00000050: 0fc0 be3d 1c23 f43d 3a1a 15bd 5a2a dc3c
00000060: 60e1 7dbd 8401 f9bd ee22 053e e19f ccbc
00000070: 8722 11be 7f76 ebbd 7090 b1bd 1599 713d
00000080: 3180 c4bd 4b13 92bd d007 43bd c7df 29be
00000090: f911 47be c6e0 80bd 01dc 033e 8c0c 20be
000000a0: b904 4e3d dca8 bc3d 185d 853d aa82 b7bd
000000b0: 82de f5bd 8bf4 3c3d 659f b5bc 8ff5 2c3d
000000c0: e42e 16bd 716f 223d 09ce 9a3d 667b e1bb
000000d0: c3ef ad3d 2eb1 16bd 6526 6a3d 0aba a33d
000000e0: 4516 0d3e bc95 453d e757 eb3d 2829 10be
000000f0: 11af e7bd d0e1 b3bd 20f7 f4bd 0ded 80be
00000100: 9cae 16be be33 37be 58f4 903c c4eb a2bd
00000110: c39f 83bd c837 0fbe f37b 06be 333a 093e
00000120: bfbb 18be e019 d7bd ca52 c8bd 4c03 f23d
00000130: 660a 9dbd 844b 833c 4a05 91bc 54aa 4c3d
00000140: 0e6b d0bd 79a2 01be a183 31be 848a 083e
00000150: e732 ff3d 1a2a 1dbd 3ca0 8cbd 1ebd 2fbe
00000160: 350b c13d cd40 00be d7d9 e5bd 28b6 743d
00000170: 19b7 52bd 28a9 723e 21dc 913d e213 3dbd
00000180: dda6 d03d f76c efbd bbec db3d 8e43 e03d
00000190: 4f2b ecbd e9ba bb3d 07dc f6bd b116 b1bc
000001a0: 4aae 013e eee4 113e d597 553d 7b84 733d
000001b0: 0b27 3b3d fca4 6cbe ee63 063e 41a4 79bd
000001c0: 245e 91bd b884 2dbd 150b 41bd 4ba4 dcbd
000001d0: 5870 b7bd 5570 293d 5c17 d43c acc1 dabd
000001e0: 6a41 1c3e e05c b6bd 5f0c f0bc 475b 953d
000001f0: dc79 f7bd 56d7 05bb 4092 ffbd f4b5 99bc
00000200: b34f 8abe 7dd9 ee3c 064d 43be e990 bfbc
00000210: ba61 09bd bb21 8a3b 8204 dc3d 29a3 d03d
00000220: df32 9fbd 028a 59be ec74 e1bd 0339 7bbb
00000230: 0723 94bd b82a 433e 5271 cdbd 1491 6b3d
00000240: abf0 0a3d 287f c13d 2ee5 b53c 5d83 3e3e
00000250: 613f 6fbe 0012 33be 300e cdbc 520d e03d
00000260: a9db a73d 4f62 1fbb 0f17 663d a9bf 2ebe
00000270: 1309 f43d 103a 433d e719 0d3d 03c2 133e
00000280: 65ed bbbd ff9b 7cbc d374 723d 64a1 5dbd
00000290: f86a 1ebe fe5d 3e3e 31b9 b93d ab1a c93d
000002a0: 5cc1 0cbe 8813 f33d 8283 5cbd 29d3 1b3e
000002b0: 03d5 0c3e 1444 00be c85e ad3d 29e5 603d
000002c0: cb33 1abe 8954 ca3d 369f 95be 9c56 12bd
000002d0: 6d14 b33c 73f9 e7bd b9de 4b3e 0561 473e
000002e0: 844e 1ebd 6217 cb3d 0097 26bc 3342 3bbe
000002f0: 1fa8 863d a9fd 4e3e bcb3 bcbc 5b84 803c
00000300: 22e0 93bd 6e44 81bc b50f 333d ba17 babb
00000310: dd81 2dbe a5fe f13d 1cf9 493e a5e6 a33e
00000320: f05a dbbd 8bcf c63c 7178 573e dbd0 1e3d
00000330: 84dd c7bd f708 3f3b 4f42 b2bc 823b b13d
00000340: 92d6 a2bd 5ca0 503b eae4 dcbd 4d5b 20bc
00000350: 7d6b e9bd 55d2 7dbd 9f5a 28bc 4310 7a3d
00000360: f3dc 933d b104 c2bc 3e4b 613c 0974 cebd
00000370: 89f2 a7bd 84e8 a2bd b1d6 2f3e 116d 0ebd
00000380: de8b 52bd c480 0bbd 518f 9c3c bc91 19bd
00000390: a37a 48bb 5660 06bc 0f6e 8fbd 8a5c 8dbd
000003a0: e332 cebc 964d 9d3d 2cf0 16bc c193 bd3d
000003b0: 31d1 5bbd 2f98 f3bd 83b1 05bd ba09 5abd
000003c0: 5197 763e 657e cabd d2e7 97bd c163 92bd
000003d0: 5166 563e 4313 34bc 6201 3abc 06e9 023d
000003e0: e624 2ebe 0bc6 fcbc b225 133d 5191 da3d
000003f0: 36e9 42bd ced1 02be edb3 203d fedb 0c3c

fc1.bias f4 [128]
0.00046281205 -0.0017756817 0.00041696912 -0.00059496716 -0.000683934 0.0007450422 -0.0015019209 0.0026208737
-0.0008328359 -0.0019066145 0.0024098959 -0.001329342 0.0014820383 0.0007700144 -0.0007485802 -0.0003885468
0.0004206196 0.0005190067 -0.0005505822 -0.0005314816 0.0005440731 -0.00037614198 -0.0010248526 0.00016138298
0.001222198 -0.0005857862 0.00031019645 0.0005335292 0.0002976312 -6.6061248e-06 0.0005217731 0.0011045673
0.0009732379 -0.0012708806 0.0009876263 -0.0016178542 0.002075327 -0.0012357661 0.00023085029 -0.00022214053
-0.00020577594 -0.0020876136 0.0011559969 0.00043728272 -0.0010192435 0.0019753615 -0.00047929218 -0.000842064
-0.0010306112 0.00028416017 -0.0009449423 -0.00073119724 0.00086487475 -0.0019972785 0.0010167772 0.0020337037
0.0012541447 0.00028875298 -0.0011357671 -0.00039645607 0.0006049716 -0.00057355827 0.0021205088 0.0014603484
0.0020211618 0.00034465487 -0.0003896533 -3.8235532e-05 0.0013904579 0.00014603986 0.0007531635 0.0007721489
0.001091117 -0.0015861265 -0.00028223096 -0.0007096694 -0.0039941836 0.0034818158 -0.00032953173 0.0007085592
-0.0022174122 -0.0006479552 -0.0007381625 -1.6036036e-05 0.0012895518 -0.00029639504 -0.0009491342 -0.00067309715
0.0031127962 0.0005729322 -0.00041044757 -0.0016169753 -0.0010651649 0.00045724743 -2.0141933e-05 -0.0012806073
-0.00029745433 0.00064474373 0.00058015797 0.00027142634 -0.00034709243 -3.7037737e-06 0.00100193 0.0016360215
0.00018546455 -0.0011417755 -0.002303308 8.685969e-05 -6.5735953e-06 -0.00067002914 -0.0027466484 -6.388371e-05
-0.0004220323 0.0012568667 0.0013837966 0.0013671436 -0.001772485 0.00063155615 -0.001799683 0.0015225173
0.0010704761 1.7824701e-05 0.00282311 0.0011746428 -0.0015651461 0.00053257775 0.0016136573 0.0034893763
00000000: 95a5 f239 febd e8ba a69c da39 92f7 1bba
00000010: 094a 33ba f04e 433a 1adc c4ba f7c2 2b3b
00000020: ac52 5aba 5ee7 f9ba 58ef 1d3b 513d aeba
00000030: f440 c23a cbda 493a 5e3c 44ba deb5 cbb9
00000040: 9b86 dc39 f30d 083a f254 10ba 2053 0bba
00000050: 21a0 0e3a ec34 c5b9 5954 86ba ea38 2939
00000060: 2932 a03a 728f 19ba dda1 a239 8adc 0b3a
00000070: 620b 9c39 2eaa ddb6 9ac7 083a 21c7 903a
00000080: e420 7f3a ad93 a6ba 3d73 813a 2e0e d4ba
00000090: 3602 083b 6ef9 a1ba 6710 7239 65ee 68b9
000000a0: 8fc5 57b9 58d0 08bb d284 973a 1843 e539
000000b0: 2398 85ba 1175 013b 8249 fbb9 f5bd 5cba
000000c0: 9315 87ba 55fb 9439 01b6 77ba d1ad 3fba
000000d0: c3b8 623a c6e4 02bb 6245 853a e347 053b
000000e0: 1d62 a43a c563 9739 05de 94ba 6fdb cfb9
000000f0: f596 1e3a d85a 16ba 3cf8 0a3b 2969 bf3a
00000100: 7875 043b cbb2 b439 614a ccb9 175f 20b8
00000110: 0640 b63a 4722 1939 f26f 453a 096a 4a3a
00000120: d003 8f3a 93e5 cfba 66f8 93b9 1b09 3aba
00000130: a4e1 82bb 2d2f 643b 00c5 acb9 9abe 393a
00000140: 0152 11bb 8adb 29ba 3f81 41ba 2085 86b7
00000150: 2e06 a93a 7865 9bb9 51cf 78ba c972 30ba
00000160: 0e00 4c3b d430 163a 5731 d7b9 b0f0 d3ba
00000170: 019d 8bba b6ba ef39 79f6 a8b7 0dda a7ba
00000180: a5f3 9bb9 0504 293a be15 183a 3a4e 8e39
00000190: f5f9 b5b9 598e 78b6 3153 833a c66f d63a
000001a0: 4379 4239 a1a7 95ba 19f3 16bb 7128 b638
000001b0: c192 dcb6 e5a4 2fba 1d01 34bb 4ef9 85b8
000001c0: 3744 ddb9 73bd a43a 8260 b53a ba31 b33a
000001d0: ba52 e8ba 048f 253a 57e3 ebba 348f c73a
000001e0: 384f 8c3a 4186 9537 ed03 393b 79f6 993a
000001f0: 9725 cdba b09c 0b3a 5b81 d33a 05ae 643b

bn1.weight f4 [128]
0.9618337 1.1719525 1.0352792 0.93998647 0.9495479 0.98154485 0.9667183 1.2236887
0.8947809 0.9959934 0.9084697 0.8607275 0.97309923 0.94056785 1.1675191 0.98668057
1.0456551 0.98507875 0.9623382 0.93677443 0.93547887 0.9346225 0.88892984 0.9362556
0.8810189 0.98913425 1.1392806 1.034685 0.9185718 0.94927317 0.9182741 0.89464056
0.98032 0.9505177 1.1453156 0.925729 0.97501725 0.91411346 0.9192228 0.90293616
0.8438853 0.98619896 0.9282278 0.9704996 0.8984241 0.9052152 0.9045829 0.9337471
1.2070276 0.9902678 0.89207137 1.0127108 1.06662 0.97527117 0.9245394 1.2164049
0.96466863 0.976478 0.94109666 0.9400975 0.8931705 0.96799123 0.98876977 0.93794495
0.9418729 1.0612038 0.9745827 0.8343092 1.0022571 0.96142155 0.9511843 0.98368657
0.8786282 0.9668806 0.94265085 0.81352085 0.9160711 0.9386253 0.96871465 0.98118556
0.9768078 0.965045 1.0216017 0.92958033 0.97571504 0.93856335 0.9255317 0.94673485
0.9308866 0.97901773 0.9020522 0.94256973 1.1446925 0.9731169 0.90176654 0.8941585
0.9627089 0.98643553 0.91729325 0.8760241 0.9682619 0.884388 0.8839757 1.2166827
0.9313138 0.73256356 0.8935825 0.9710404 0.938862 0.91092026 0.9470652 0.98696685
0.9857144 0.91986895 0.8820396 0.90471745 0.93490994 0.9760797 1.0340756 0.9705989
1.0171354 0.85567045 1.221533 0.9136304 0.86352134 0.9814777 0.91941726 0.93958414
00000000: bc3a 763f 8a02 963f 0784 843f f4a2 703f
00000010: 9215 733f 8646 7b3f da7a 773f d5a1 9c3f
00000020: 5c10 653f 6cf9 7e3f 7891 683f a358 5c3f
00000030: 081d 793f 0ec9 703f 4471 953f 1997 7c3f
00000040: 07d8 853f 1f2e 7c3f cc5b 763f 73d0 6f3f
00000050: 8b7b 6f3f 6c43 6f3f e890 633f 72ae 6f3f
00000060: 748a 613f e737 7d3f f2d3 913f 8f70 843f
00000070: 8627 6b3f 9103 733f 0314 6b3f 2a07 653f
00000080: 40f6 7a3f 2155 733f b499 923f 93fc 6c3f
00000090: bb9a 793f 5703 6a3f 2f52 6b3f d326 673f
000000a0: de08 583f 8977 7c3f 56a0 6d3f a972 783f
000000b0: 1fff 653f 2fbc 673f bf92 673f 0d0a 6f3f
000000c0: e17f 9a3f 3182 7d3f ca5e 643f 82a0 813f
000000d0: 0187 883f 5fab 793f 9dae 6c3f 28b3 9b3f
000000e0: 86f4 763f 76fa 793f b6eb 703f 3baa 703f
000000f0: d2a6 643f 46ce 773f 0420 7d3f 291d 703f
00000100: 951e 713f 87d5 873f 407e 793f 4a95 553f
00000110: f649 803f b91f 763f d080 733f e2d2 7b3f
00000120: c7ed 603f 7d85 773f 9151 713f e742 503f
00000130: a383 6a3f bf49 703f affd 773f fa2e 7b3f
00000140: 1310 7a3f 300d 773f d8c3 823f faf8 6d3f
00000150: 76c8 793f b045 703f a5ef 6c3f 375d 723f
00000160: 964e 6e3f e8a0 7a3f e5ec 663f 404c 713f
00000170: 4985 923f 301e 793f 2cda 663f 92e7 643f
00000180: 1774 763f 0a87 7c3f bbd3 6a3f 1e43 603f
00000190: 03e0 773f 4167 623f 3b4c 623f 42bc 9b3f
000001a0: 956a 6e3f 4989 3b3f d3c1 643f 1b96 783f
000001b0: 4359 703f 1232 693f dd72 723f dca9 7c3f
000001c0: c757 7c3f 887c 6b3f 59cd 613f 909b 673f
000001d0: 4256 6f3f 5ce0 793f 975c 843f 2b79 783f
000001e0: 7e31 823f 380d 5b3f 315b 9c3f afe3 693f
000001f0: bc0f 5d3f 1f42 7b3f ee5e 6b3f 9688 703f

bn1.bias f4 [128]
-0.43884367 -0.119463675 -0.040968835 -0.28868285 -0.41684896 -0.28919974 -0.20158629 -0.06682303
-0.4565617 -0.3175 -0.34591386 -0.330909 -0.26838502 -0.4180452 -0.13555893 -0.05718497
-0.23803389 -0.37941468 -0.23987536 -0.36848527 -0.3723666 -0.31447896 -0.461674 -0.3574722
-0.096689835 -0.3225746 -0.094374724 -0.23239638 -0.29639795 -0.41873068 -0.13298634 -0.34381983
-0.23514897 -0.25666887 -0.09737547 -0.46198806 -0.27935806 -0.3766783 -0.31407762 -0.29480615
-0.3532505 -0.35476258 -0.26162958 -0.31453004 -0.3649617 -0.30031922 -0.3056119 -0.37107784
-0.115445696 -0.31110844 -0.38896626 -0.19802421 -0.020567486 -0.3531441 -0.25494432 -0.08222996
-0.3868303 -0.37534302 -0.3553062 -0.36468038 -0.41053322 -0.29281557 -0.37823743 -0.36463317
-0.3164071 -0.13044687 -0.22277533 -0.39169514 -0.28013435 -0.14780606 -0.39957058 -0.28150412
-0.3314948 -0.33133665 -0.36419672 -0.35316297 -0.307932 -0.35140076 -0.28757572 -0.48086265
-0.2926012 -0.37888396 -0.32945678 -0.36755025 -0.36540148 -0.27057227 -0.30921695 -0.29940197
-0.34734467 -0.31906426 -0.30412593 -0.36922455 -0.019971078 -0.45200014 -0.25458136 -0.3612575
-0.3335463 -0.26570758 -0.33816296 -0.28904802 -0.34370458 -0.28267717 -0.42311686 -0.07950963
-0.29780582 -0.26209852 -0.35278413 -0.37852618 -0.3856236 -0.3495676 -0.33667412 -0.36386988
-0.2678397 -0.2245557 -0.3389193 -0.41642454 -0.46939135 -0.35347694 -0.253938 -0.21186982
-0.04539643 -0.39386058 -0.08962818 -0.2973621 -0.2727231 -0.37908813 -0.38615823 -0.27898505
00000000: 1eb0 e0be 5fa9 f4bd f0ce 27bd 3dce 93be
00000010: 3a6d d5be fd11 94be a36c 4ebe 83da 88bd
00000020: 75c2 e9be 5c8f a2be 9f1b b1be e86c a9be
00000030: c369 89be 050a d6be f6cf 0abe c93a 6abd
00000040: 28bf 73be a442 c2be e3a1 75be 1aaa bcbe
00000050: d6a6 bebe 6303 a1be 8960 ecbe 9906 b7be
00000060: 5205 c6bd 7f28 a5be 8947 c1bd 51f9 6dbe
00000070: 79c1 97be de63 d6be 922d 08be 2709 b0be
00000080: e4ca 70be 1a6a 83be ca6c c7bd b389 ecbe
00000090: 0508 8fbe fadb c0be c8ce a0be d5f0 96be
000000a0: 40dd b4be 71a3 b5be 50f4 85be 150a a1be
000000b0: 43dc babe 71c3 99be 2a79 9cbe eafd bdbe
000000c0: cb6e ecbd 9b49 9fbe 9626 c7be dcc6 4abe
000000d0: 257d a8bc 4ecf b4be 1088 82be 2e68 a8bd
000000e0: 9f0e c6be f62c c0be b2ea b5be 63b7 babe
000000f0: 6931 d2be eceb 95be 56a8 c1be 33b1 babe
00000100: 1d00 a2be dd93 05be 371f 64be 448c c8be
00000110: c56d 8fbe 795a 17be 8494 ccbe 4f21 90be
00000120: b0b9 a9be f5a4 a9be fe77 babe c7d1 b4be
00000130: 43a9 9dbe cdea b3be 203d 93be a133 f6be
00000140: d3cf 95be 14fd c1be 8fae a8be 8c2f bcbe
00000150: e715 bbbe 7388 8abe af51 9ebe 374b 99be
00000160: 29d7 b1be 645c a3be 65b6 9bbe 000b bdbe
00000170: 639a a3bc 906c e7be 7d58 82be bef6 b8be
00000180: 95c6 aabe d30a 88be b223 adbe 1afe 93be
00000190: 0cfa afbe 10bb 90be c6a2 d8be f2d5 a2bd
000001a0: 017a 98be c731 86be 1fa0 b4be 2fce c1be
000001b0: 7570 c5be 86fa b2be 8d60 acbe 274d babe
000001c0: 4922 89be eef1 65be d586 adbe 9935 d5be
000001d0: 1054 f0be eefa b4be 2904 82be 67f4 58be
000001e0: 9bf1 39bd 18a8 c9be fb8e b7bd d83f 98be
000001f0: 5da2 8bbe d717 c2be 88b6 c5be 21d7 8ebe

bn1.running_mean f4 [128]
-0.0153808 -0.049078997 -0.06341952 -0.0033916498 0.043962035 -0.049295552 0.0326641 -0.031242909
-0.018625729 0.029598149 0.014317969 0.0774233 0.0609152 -0.040585767 -0.045418676 -0.018295841
-0.01811557 0.06261893 -0.0061235568 0.061218757 0.02721776 0.03565368 0.038812123 0.026035283
-0.039909866 0.064351134 -0.024501057 0.039592512 0.0662279 0.04500315 0.030659951 0.03737333
0.048131064 0.0005425755 -0.016023073 0.017973889 -0.07174082 0.076272056 0.046878826 0.03413771
-0.02438828 -0.054863464 -0.01804623 0.06887545 0.029201496 -0.001042915 0.03794188 -0.06829156
-0.01768216 0.07244763 -0.04066735 0.041362472 -0.039797988 0.030522974 0.028971119 -0.021797063
-0.0007996499 0.027967468 0.042275947 0.06371025 -0.050788112 -0.05079396 0.059643846 0.06627645
0.038174383 -0.039949894 0.08780534 0.052094884 0.011268335 0.043845735 0.009715254 0.030609407
0.019020762 0.022812678 -0.020135036 -0.024948666 0.029710205 0.04795418 -0.009293127 0.035377227
0.07096284 0.049856406 -0.050561085 0.11239936 -0.050192524 0.03853552 -0.044763062 -0.022212699
-0.010295315 0.040230952 -0.037316937 -0.0014619823 -0.03575521 0.07059193 0.017317872 0.043950167
0.02480858 0.10837321 -0.041102067 0.044775683 -0.04317828 -0.019210244 0.014090155 -0.029537799
0.035569113 -0.01344791 0.02119859 0.041984387 0.09138616 0.039397612 0.014282535 -0.040305927
0.050759982 0.088701054 0.052308522 0.039943196 -0.08601689 -0.0006823913 0.08588062 -0.013609258
-0.0147397 0.080603644 -0.033692703 -0.03549963 0.019273713 0.004646069 0.028557746 0.09145602
00000000: c0ff 7bbc 0f07 49bd 18e2 81bd 7146 5ebb
00000010: 8911 343d 22ea 49bd cbca 053d 21f1 ffbc
00000020: fc94 98bc d177 f23c ea95 6a3c 1b90 9e3d
00000030: 3782 793d 433d 26bd ef08 3abd 29e1 95bc
00000040: 1b67 94bc 5b3e 803d 1ea8 c8bb 85c0 7a3d
00000050: c8f7 de3c 9809 123d 76f9 1e3d f247 d53c
00000060: 8778 23bd 87ca 833d 71b6 c8bc c22b 223d
00000070: 7ea2 873d 3955 383d 942a fb3c c714 193d
00000080: 1425 453d a03b 0e3a d242 83bc fa3d 933c
00000090: daec 92bd 8634 9c3d 0304 403d fcd3 0b3d
000000a0: eec9 c7bc 83b8 60bd b0d5 93bc 920e 8d3d
000000b0: fa37 ef3c 6cb2 88ba f268 1b3d 72dc 8bbd
000000c0: 2dda 90bc 6c5f 943d cf92 26bd b26b 293d
000000d0: 3703 23bd 510b fa3c d754 ed3c c18f b2bc
000000e0: 999f 51ba 081c e53c 8b29 2d3d 857a 823d
000000f0: 3207 50bd 540d 50bd 1b4d 743d f3bb 873d
00000100: be5c 1c3d 80a2 23bd 49d3 b33d 7261 553d
00000110: d39e 383c 9697 333d bb2c 1f3c 94c0 fa3c
00000120: 6ed1 9b3c a7e1 ba3c 3bf2 a4bc 2561 ccbc
00000130: d162 f33c 9a6b 443d 3342 18bc b6e7 103d
00000140: f754 913d 3b36 4c3d 2419 4fbd a331 e63d
00000150: ad96 4dbd 6cd7 1d3d 7959 37bd 68f7 b5bc
00000160: aead 28bc 36c9 243d a5d9 18bd fc9f bfba
00000170: 0e74 12bd 8092 903d 36de 8d3c 1705 343d
00000180: 5d3b cb3c c6f2 dd3d a45a 28bd b566 373d
00000190: b5db 30bd cd5e 9dbc 65da 663c 41f9 f1bc
000001a0: ebb0 113d 9f54 5cbc aaa8 ad3c d2f7 2b3d
000001b0: ab28 bb3d 645f 213d 4b01 6a3c d417 25bd
000001c0: b3e9 4f3d e6a8 b53d 7641 563d 7a9b 233d
000001d0: a029 b0bd 81e2 32ba 2ee2 af3d 5ef9 5ebc
000001e0: c87e 71bc 8613 a53d 5c01 0abd 0f68 11bd
000001f0: e8e3 9d3c 0d3e 983b eff1 e93c 4b4d bb3d

bn1.running_var f4 [128]
12.855819 24.384243 21.759533 14.621614 15.350366 12.970591 11.459057 29.722939
10.952591 16.121359 14.018734 14.569796 14.393285 13.040012 27.960592 10.552071
15.426066 17.582277 13.477927 16.702362 14.720477 15.3871155 14.087523 16.12984
12.118743 11.129638 26.030895 17.868452 12.755765 13.9720125 16.549921 12.341925
16.642807 13.269824 25.043137 14.078099 13.542469 15.01346 9.626812 7.8414545
17.100657 16.425255 14.824956 12.251542 9.838482 10.761566 9.146845 13.361066
25.561794 16.966402 8.552099 17.095163 22.736908 13.310195 11.2953 26.73974
8.53065 7.5049896 8.797949 14.024821 14.90123 10.477535 12.333852 15.806758
15.076186 18.110498 14.744074 11.393415 15.968792 14.669237 10.382867 17.248817
8.224072 16.331413 13.704136 9.049083 16.114582 9.153189 14.39444 15.271301
18.233034 16.442816 15.093435 10.482008 12.977743 11.513203 13.558121 12.202135
12.4186125 19.952019 16.221962 16.876736 20.878038 11.142659 7.457794 7.588595
18.986145 14.075153 10.401077 13.409248 12.400035 9.241565 12.682519 24.86461
12.795121 12.691578 15.483081 16.157936 16.994373 10.270809 12.194478 16.404997
17.513027 11.12978 10.028867 14.357115 13.079238 20.854137 14.602108 15.057675
16.796904 9.035948 27.009361 10.694126 8.145229 20.387825 11.64466 13.332035
00000000: 6fb1 4d41 ee12 c341 8613 ae41 22f2 6941
00000010: 199b 7541 8a87 4f41 4c58 3741 94c8 ed41
00000020: d03d 2f41 8bf8 8041 bc4c 6041 e21d 6941
00000030: e54a 6641 e4a3 5041 4baf df41 48d5 2841
00000040: 2bd1 7641 81a8 8c41 97a5 5741 709e 8541
00000050: 1387 6b41 a031 7641 7f66 6141 ea09 8141
00000060: 5fe6 4141 ff12 3241 463f d041 97f2 8e41
00000070: 9d17 4c41 5d8d 5f41 3d66 8441 8678 4541
00000080: 7824 8541 3351 5441 5858 c841 e53f 6141
00000090: f4ad 5841 2237 7041 6c07 1a41 32ed fa40
000000a0: 25ce 8841 ec66 8341 0533 6d41 5106 4441
000000b0: 6c6a 1d41 602f 2c41 7a59 1241 edc6 5541
000000c0: 8e7e cc41 31bb 8741 66d5 0841 e5c2 8841
000000d0: 30e5 b541 8ff6 5441 8cb9 3441 fdea d541
000000e0: 8b7d 0841 e028 f040 66c4 0c41 ab65 6041
000000f0: 706b 6e41 fca3 2741 7557 4541 7be8 7c41
00000100: 0f38 7141 4de2 9041 bae7 6b41 6e4b 3641
00000110: 2c80 7f41 32b5 6a41 3920 2641 94fd 8941
00000120: cd95 0341 bca6 8241 2444 5b41 0bc9 1041
00000130: aaea 8041 7673 1241 a04f 6641 4057 7441
00000140: 41dd 9141 e38a 8341 b67e 7141 4eb6 2741
00000150: d6a4 4f41 1436 3841 10ee 5841 f23b 4341
00000160: a3b2 4641 bc9d 9f41 94c6 8141 8e03 8741
00000170: 3906 a741 5548 3241 40a6 ee40 c5d5 f240
00000180: a0e3 9741 d433 6141 d06a 2641 488c 5641
00000190: 8b66 4641 73dd 1341 99eb 4a41 b9ea c641
000001a0: d1b8 4c41 b410 4b41 b3ba 7741 7443 8141
000001b0: 7af4 8741 3c55 2441 951c 4341 6f3d 8341
000001c0: ae1a 8c41 9413 3241 3d76 2041 beb6 6541
000001d0: 8f44 5141 46d5 a641 3ca2 6941 3dec 7041
000001e0: 0f60 8641 3e93 1041 2c13 d841 241b 2b41
000001f0: dc52 0241 441a a341 8750 3a41 0450 5541
