models/hybrid_neurons_pretrained/MLP2_HUMAN_d2v_1_att.pth (torch, 207514 bytes, 34 tensors)

embedding_proj.weight f4 [96, 3]
-0.119065076 -0.039649125 0.015070233 -0.050923146 0.09447562 0.028525583 0.05987535 0.028224863
0.055480544 0.16411819 -0.12856606 -0.086626045 -0.14561073 -0.11857267 0.13757944 -0.096088864
-0.084630355 -0.053857636 0.059414048 -0.022756573 -0.127611 0.11363312 -0.083283864 0.031554308
0.063119784 -0.15214212 0.108381115 0.066716 0.056318205 0.11433056 0.18668233 0.11845571
-0.043090735 0.117936514 -0.121305905 -0.016528163 0.036007598 0.06245523 -0.13728389 -0.10432926
0.013134493 0.042451218 -0.101551585 0.060470846 -0.05980569 0.005041982 0.12555812 0.010347357
-0.09424399 -0.0002681675 0.03347434 0.05997653 -0.01957928 0.019223787 0.015496272 0.08854715
0.032020614 -0.09848561 0.15289237 0.08457663 -0.062470622 0.0009743575 -0.028720468 0.045844782
0.18063885 0.122754544 0.06353712 0.025266884 0.04002004 -0.021331543 -0.09049478 0.099921264
0.04603996 0.004107493 0.03644257 -0.04353838 -0.10941443 0.08229048 -0.15442382 -0.054177567
0.16783309 -0.13401884 0.06145094 -0.15616769 -0.12430273 0.071914755 -0.013944882 -0.039492927
-0.14614639 -0.080046386 -0.04634578 0.05992959 0.016387489 0.08320596 -0.071875386 0.008641409
0.049738243 0.063914515 -0.06040229 0.05055608 -0.12020166 0.042316522 0.04677978 -0.08426811
0.0732132 -0.10418272 0.009464809 0.06751377 -0.05017059 0.0312015 0.048668228 0.006944778
0.15598941 0.1161687 0.035780765 0.019938098 -0.046928912 -0.020805042 0.05042474 -0.003720318
0.04585155 -0.03085654 -0.033138935 0.0034386744 -0.05586325 -0.13203093 -0.092418455 -0.040059913
-0.02350632 0.00800506 0.0013474821 0.053376347 -0.070750766 0.121853985 0.06254384 0.041866306
-0.07058735 0.052602626 -0.02389793 0.0061769714 0.16982616 0.12639241 -0.09387967 -0.022276781
-0.15890296 -0.19896974 0.08871673 -0.13606972 0.04829083 0.044488702 -0.053511027 0.15948609
-0.055758383 -0.041840196 0.055993907 -0.027362011 0.11205712 0.1548101 -0.019213995 0.13898274
-0.21125317 0.099414535 0.11633209 0.1342274 0.07326586 0.15861657 0.11191502 0.013945631
0.036843173 -0.06513929 0.030806897 0.09820663 -0.19197144 0.12846118 -0.12879395 0.11551353
0.11749606 -0.13409099 -0.022812862 0.14198829 0.17712072 0.038733676 -0.013522336 -0.08792292
0.106886685 0.021075916 0.11617694 -0.19243641 0.10696807 -0.0033130818 -0.10056398 -0.07140953
0.028389363 0.110724 0.058682755 0.08517838 0.08324858 -0.059296943 0.17851701 -0.0746855
0.07162127 0.17986095 -0.06380409 0.14159963 0.12670007 0.034242276 -0.13544829 -0.04975459
-0.18012449 0.0710894 -0.07140138 -0.12157644 -0.02652049 -0.056292575 -0.035633806 -0.004227389
0.018437523 0.068810575 -0.026224883 0.12871084 0.15095307 -0.040080097 -0.054057807 0.15697774
-0.067673445 0.062053967 -0.1286045 0.055329617 -0.006814597 0.044931613 -0.043095037 -0.01030632
-0.029465972 0.055262778 -0.045594912 -0.01707142 -0.1276185 -0.11145195 0.051323388 0.14723828
0.12202094 -0.11396015 0.04652218 0.10447359 0.025755834 0.10357266 0.16132183 0.167183
-0.009763122 -0.024479358 -0.010761176 0.014828756 0.053293075 0.09690382 -0.018171217 0.09027856
00000000: 64d8 f3bd 1f67 22bd 23e9 763c ca94 50bd
00000010: 6f7c c13d 7cae e93c db3f 753d d437 e73c
00000020: 913f 633d 990e 283e d2a6 03be ff68 b1bd
00000030: fb1a 15be 3ad6 f2bd a0e1 0c3e 3dca c4bd
00000040: ae52 adbd d399 5cbd 255c 733d fe6b babc
00000050: 75ac 02be 7bb8 e83d bb90 aabd 173f 013d
00000060: f244 813d 25cb 1bbe ebf6 dd3d 66a2 883d
00000070: ebad 663d 2426 ea3d a729 3f3e e898 f23d
00000080: e97f 30bd b388 f13d 3b6f f8bd 1266 87bc
00000090: b47c 133d 0ed1 7f3d 2694 0cbe 94aa d5bd
000000a0: 0e32 573c 54e1 2d3d 47fa cfbd 47b0 773d
000000b0: d0f6 74bd 3637 a53b 4f92 003e f687 293c
000000c0: fe02 c1bd d598 8cb9 641c 093d f3a9 753d
000000d0: ba64 a0bc 347b 9d3c 13e4 7d3c 3558 b53d
000000e0: 0c28 033d d3b2 c9bd d18f 1c3e 8336 ad3d
000000f0: 32e1 7fbd 066c 7f3a 3047 ebbc bdc7 3b3d
00000100: 64f9 383e bc66 fb3d c01f 823d 7ffc ce3c
00000110: 0eec 233d 7dbf aebc 5455 b9bd 85a3 cc3d
00000120: 6694 3c3d 2698 863b ce44 153d 4d55 32bd
00000130: ac14 e0bd e987 a83d 4721 1ebe 4ce9 5dbd
00000140: 70dc 2b3e 3c3c 09be fbb3 7b3d 6cea 1fbe
00000150: 6e92 febd 0b48 933d 1379 64bc 56c3 21bd
00000160: 66a7 15be 5cef a3bd 13d5 3dbd bb78 753d
00000170: 0e3f 863c e367 aa3d 6733 93bd b294 0d3c
00000180: 54ba 4b3d 9de5 823d 6468 77bd e413 4f3d
00000190: 4a2c f6bd 1754 2d3d 289c 3f3d c294 acbd
000001a0: cdf0 953d c05d d5bd 4912 1b3c a944 8a3d
000001b0: ad7f 4dbd 4a9a ff3c 5658 473d 0591 e33b
000001c0: b0bb 1f3e dbe9 ed3d da8e 123d 3955 a33c
000001d0: 8838 40bd 566f aabc 2c8a 4e3d 94d0 73bb
000001e0: d6ce 3b3d dbc6 fcbc b1bc 07bd 625b 613b
000001f0: ddd0 64bd 1e33 07be e345 bdbd dd15 24bd
00000200: 5390 c0bc a827 033c ff9d b03a 28a1 5a3d
00000210: c7e5 90bd 958e f93d fc16 803d 017c 2b3d
00000220: 1a90 90bd da75 573d 97c5 c3bc 3168 ca3b
00000230: e9e6 2d3e 036d 013e fc43 c0bd cc7d b6bc
00000240: 75b7 22be b9be 4bbe 1eb1 b53d dc55 0bbe
00000250: 9bcc 453d c939 363d 612e 5bbd 5250 233e
00000260: e762 64bd a060 2bbd de59 653d 4c26 e0bc
00000270: 347e e53d 8a86 1e3e ab66 9dbc 7e51 0e3e
00000280: c052 58be d999 cb3d 853f ee3d e872 093e
00000290: 690c 963d 626c 223e b433 e53d 377c 643c
000002a0: dee8 163d c067 85bd bf5e fc3c 8f20 c93d
000002b0: 2994 44be 548b 033e 90e2 03be 5c92 ec3d
000002c0: c6a1 f03d 264f 09be 0ae2 babc 6165 113e
000002d0: 225f 353e 34a7 1e3d ca8c 5dbc ef10 b4bd
000002e0: 68e7 da3d 66a7 ac3c 2dee ed3d 0d0e 45be
000002f0: 1312 db3d 4a20 59bb 7df4 cdbd 293f 92bd
00000300: cf90 e83c 44c3 e23d 545d 703d 0172 ae3d
00000310: 3b7e aa3d 5ae1 72bd 2acd 363e b6f4 98bd
00000320: 2cae 923d 782d 383e b8ab 82bd 7eff 103e
00000330: aabd 013e a141 0c3d f5b2 0abe 78cb 4bbd
00000340: 8e72 38be 5297 913d e33a 92bd 12fd f8bd
00000350: 8041 d9bc 0b93 66bd c1f4 11bd e985 8abb
00000360: 4a0a 973c 8fec 8c3d 91d5 d6bc c6cc 033e
00000370: 7193 1a3e 072b 24bd b86b 5dbd c6be 203e
00000380: 6098 8abd 4d2c 7e3d e6b0 03be 4fa1 623d
00000390: fc4c dfbb 360a 383d 6c84 30bd d7db 28bc
000003a0: 9f62 f1bc 395b 623d bbc1 3abd 5dd9 8bbc
000003b0: 6dae 02be ec40 e4bd 7938 523d a2c5 163e
000003c0: 1de6 f93d f063 e9bd 0b8e 3e3d 40f6 d53d
000003d0: e6fd d23c e71d d43d 8d31 253e 0532 2b3e
000003e0: 80f5 1fbc ef88 c8bc a54f 30bc 50f4 723c
000003f0: d749 5a3d 8375 c63d cedb 94bc f7e3 b83d

embedding_proj.bias f4 [96]
0.005059406 -0.006411634 -0.0018967772 -0.0023729787 0.005519114 -0.0052425223 -0.0010090127 0.0011631227
0.0070762057 0.0030369835 -0.0054064374 -0.0012495217 -0.0021885287 0.002048497 0.00075904833 0.003397495
0.0054278225 -0.00068520627 -0.0017805478 0.0033545755 0.00024695726 -0.0063977945 0.0037175934 0.0057021813
0.0024408086 -0.0037893527 0.0013659431 -0.007656668 0.0018244291 -0.004704641 0.002965105 0.004443367
-0.0044036284 -0.0020902378 -0.004284844 -0.0008945657 0.005198835 -0.0006060387 0.0058386982 0.0025928163
-0.0017743877 -0.002900852 -0.0011192852 0.007077252 0.0063047544 -0.0062182657 -0.005446159 -0.0010995091
-0.012667865 0.0058944277 0.0051330365 -0.00039710148 -0.0027226035 -0.0028911436 -0.0002405101 0.0045187045
0.0023428148 0.0003995837 0.0036318887 -0.0060481513 0.0025915978 0.0033440469 -0.00554031 -0.0019053657
-0.01209293 -0.000103270795 -0.0013232226 0.005677916 -0.006523566 -0.0031419063 0.00086811197 -0.0008163485
-0.0009451854 0.001428853 -0.0052609406 -0.0027668548 -0.0019596047 0.0010093387 0.003766178 0.0027586857
0.0051845578 -0.0014806425 -0.0004731232 0.006104079 0.00020605685 -0.0040463638 -0.0027635084 -0.0054718805
-0.00018219739 -0.002467395 0.004210366 0.0045311055 0.0037553036 0.006305097 -0.0015535341 -0.0059541236
00000000: 60c9 a53b af18 d2bb 489d f8ba fa83 1bbb
00000010: afd9 b43b 77c9 abbb d940 84ba ec73 983a
00000020: 84df e73b 2108 473b 7c28 b1bb fec6 a3ba
00000030: 6b6d 0fbb 1440 063b dffa 463a 82a8 5e3b
00000040: e0db b13b 6a9f 33ba 4561 e9ba 70d8 5b3b
00000050: 0b7a 8139 97a4 d1bb dea2 733b 5dd9 ba3b
00000060: f9f5 1f3b ca56 78bb 7209 b33a c9e4 fabb
00000070: af21 ef3a 6429 9abb 3552 423b aa99 913b
00000080: 504c 90bb 5ffc 08bb e067 8cbb 4a81 6aba
00000090: fd5a aa3b 92de 1eba 8d52 bf3b 3dec 293b
000000a0: 9292 e8ba 381c 3ebb fbb4 92ba 4be8 e73b
000000b0: 1d98 ce3b 98c2 cbbb b175 b2bb 671d 90ba
000000c0: e08c 4fbc 0b26 c13b 0833 a83b 0f32 d0b9
000000d0: b56d 32bb 5779 3dbb 7031 7cb9 a411 943b
000000e0: e989 193b 377f d139 fb04 6e3b 922f c6bb
000000f0: ccd7 293b cc27 5b3b 7d8b b5bb 77bd f9ba
00000100: 6d21 46bc 1693 d8b8 fc6f adba d00d ba3b
00000110: a3c3 d5bb 71e8 4dbb 0292 633a 3800 56ba
00000120: 52c6 77ba 5a48 bb3a f863 acbb 1f54 35bb
00000130: b66c 00bb c94b 843a fbd1 763b 11cb 343b
00000140: 39e3 a93b 1e12 c2ba 850d f8b9 ba04 c83b
00000150: f710 5839 5c97 84bb fa1b 35bb 764d b3bb
00000160: 3d0c 3fb9 05b4 21bb 1cf7 893b ab79 943b
00000170: 8a1b 763b fd9a ce3b f49f cbba cf1a c3bb

categorical_proj.weight f4 [17, 17]
-0.58731186 0.17643897 0.167321 0.34592488 -0.29531488 -0.378689 -0.24048734 -0.57649183
-0.29434127 0.09608093 -0.15328828 -0.05134276 -0.063443266 -0.36194366 0.072353795 0.3567128
0.022919888 -0.2496429 -0.13962351 0.17139417 -0.3780951 -0.29714972 0.1617331 -0.001888027
-0.4245839 -0.28139368 0.27170497 -0.5835149 -0.027280202 0.4973975 0.36408103 0.05058053
-0.23827519 0.33256522 -0.18993238 0.40899017 -0.18818036 -0.33565593 0.021771142 -0.18832043
0.39448443 -0.05138694 0.05443866 -0.42793533 -0.23516457 -0.34118193 0.5997554 -0.093063295
0.201844 -0.20821333 -0.11649883 0.39023808 0.4657456 0.10508313 0.010753964 0.36405167
0.07883031 0.3537805 0.408007 0.19905862 -0.16550511 0.19395442 -0.31078547 0.3086869
0.044674195 0.25439075 -0.23410091 0.10723189 -0.02916356 -0.08249741 0.12634596 -0.25763243
0.2930273 -0.23878008 0.13639487 -0.13960156 -0.060981248 -0.079953186 0.61165607 -0.14782682
-0.80364555 0.21960938 -0.23815012 -0.34797174 0.18366495 0.010516987 -0.42112842 0.1364683
-0.0020852608 -0.11448329 -0.64790577 0.3268753 0.17153493 0.26827535 0.3506341 -0.0010265927
-0.31157705 0.29682004 0.16179043 0.073267385 -0.33211723 0.20098132 0.2708582 0.14789219
-0.12095624 -0.036064863 0.0910594 -0.19970722 -0.08448579 0.025366576 0.079127006 -0.4021032
-0.44676876 0.16018398 0.71151346 -0.09473168 -0.35464647 0.054515496 -0.07020655 0.17393269
-0.19062315 0.23900564 0.07010212 0.07074209 0.56639034 -0.116711736 -0.3978658 -0.16202034
-0.22431967 -0.09762295 -0.020074986 0.28992394 0.09672749 -0.442021 -0.32133317 0.37867022
-0.2367319 -0.1607643 0.28741175 -0.1561265 0.14760911 0.022393284 0.15699686 0.25862864
0.096812576 0.060537122 -0.20456329 0.04042753 0.30781525 -0.016160412 0.22747684 -0.04019733
-0.21204959 -0.41712672 0.12858297 0.3733907 0.12680683 0.3456098 0.08956306 -0.26101685
-0.5569381 0.17294325 0.14652644 -0.39894316 0.13213018 -0.14708354 -0.3486513 0.04337545
0.14413615 -0.15821011 0.2532392 0.35943913 0.078651786 0.26481512 -0.07622527 -0.44067588
0.27992877 -0.013374156 0.06609475 0.12855335 -0.7248565 -0.17118761 -0.39656273 -0.23197411
0.13499409 0.0836591 0.26147994 0.20859268 -0.13499768 -0.045617342 -0.27267173 -0.39201754
0.14691453 -0.3045419 0.25270027 -0.064513825 0.17429212 -0.43627375 -0.27970392 -0.42791697
-0.12818323 -0.44588703 -0.18089591 0.115510665 -0.36049283 0.12806052 -0.23942417 -0.086041674
-0.24728741 0.07608588 0.35473105 0.21853638 -0.35703856 0.1828154 -0.46959445 -0.2291816
-0.17490223 -0.29007822 -0.24148686 0.04673879 -0.32887465 -0.13218597 0.414958 0.12570031
0.29238272 0.17419352 0.1090123 0.33776596 0.3984217 0.085124165 0.23986124 -0.040215366
0.22578815 0.57422805 -0.36507377 0.14779699 -0.29540312 0.23169002 -0.58314854 -0.048252348
-0.37237614 -0.2046727 -0.17956822 0.3193946 0.067135125 -0.4933451 0.2667899 -0.15329622
-0.5434575 -0.23090748 -0.24126528 -0.27131346 -0.1602631 -0.02272459 -0.24762815 -0.07636684
00000000: 125a 16bf 6bac 343e 3256 2b3e 111d b13e
00000010: 8333 97be 86e3 c1be 5042 76be f894 13bf
00000020: e6b3 96be 14c6 c43d 9af7 1cbe c94c 52bd
00000030: 8bee 81bd ae50 b9be 3a2e 943d 0fa3 b63e
00000040: 7dc2 bb3c 63a2 7fbe 77f9 0ebe f481 2f3e
00000050: ae95 c1be 0224 98be 5d9d 253e ac77 f7ba
00000060: 1063 d9be d512 90be ea1c 8b3e 3c61 15bf
00000070: bb7a dfbc e3aa fe3e d468 ba3e 882d 4f3d
00000080: 69fe 73be fd45 aa3e a27d 42be 2967 d13e
00000090: 5ab2 40be 18db abbe 6559 b23c 12d7 40be
000000a0: ddf9 c93e 1d7b 52bd 13fb 5e3d 571a dbbe
000000b0: fbce 70be 66af aebe 9289 193f f897 bebd
000000c0: 32b0 4e3e e035 55be f096 eebd 49cd c73e
000000d0: 3576 ee3e d335 d73d 6531 303c fb64 ba3e
000000e0: c971 a13d b822 b53e 4be6 d03e 06d6 4b3e
000000f0: 2c7a 29be fd9b 463e 461f 9fbe 360c 9e3e
00000100: 4afc 363d 813f 823e 26b8 6fbe 659c db3d
00000110: 6be8 eebc 67f4 a8bd d660 013e 66e8 83be
00000120: ad07 963e c482 74be 19ab 0b3e b6f3 0ebe
00000130: 79c7 79bd 7fbe a3bd 7e95 1c3f ea5f 17be
00000140: b7bb 4dbf 48e1 603e a0dd 73be 5a29 b2be
00000150: aa12 3c3e 714f 2c3c 259e d7be 59be 0b3e
00000160: dfa8 08bb 3776 eabd 27dd 25bf 335c a73e
00000170: daa6 2f3e 635b 893e 5086 b33e bc8e 86ba
00000180: 0787 9fbe ccf8 973e 64ac 253e 360d 963d
00000190: 450b aabe 0cce 4d3e edad 8a3e 0d71 173e
000001a0: e8b7 f7bd c0b8 13bd 5a7d ba3d 0d80 4cbe
000001b0: e306 adbd 91cd cf3c 570d a23d 78e0 cdbe
000001c0: e0be e4be 4507 243e bf25 363f af02 c2bd
000001d0: 3994 b5be a44b 5f3d 74c8 8fbd 691b 323e
000001e0: b732 43be e5bd 743e b391 8f3d 3be1 903d
000001f0: f5fe 103f 9006 efbd 11b5 cbbe a9e8 25be
00000200: 0eb4 65be 8bee c7bd 4c74 a4bc e970 943e
00000210: 1019 c63d 9450 e2be c885 a4be 10e1 c13e
00000220: d969 72be 669f 24be a227 933e a0df 1fbe
00000230: d826 173e 1f72 b73c c9c3 203e f96a 843e
00000240: ac45 c63d c6f5 773d 0a79 51be 5697 253d
00000250: f699 9d3e d762 84bc b0ef 683e f5a5 24bd
00000260: 8723 59be a291 d5be 41ab 033e 112d bf3e
00000270: a6d9 013e c5f3 b03e d66c b73d 00a4 85be
00000280: 7f93 0ebf 0918 313e 070b 163e 4742 ccbe
00000290: 224d 073e 119d 16be 6c82 b2be 75aa 313d
000002a0: 6d98 133e d501 22be 92a8 813e 6808 b83e
000002b0: 3014 a13d d995 873e ff1b 9cbd 45a0 e1be
000002c0: d352 8f3e 471f 5bbc af5c 873d 7da3 033e
000002d0: 3290 39bf ce4b 2fbe 450a cbbe 9f8a 6dbe
000002e0: e43b 0a3e 7655 ab3d b3e0 853e 5299 553e
000002f0: d53c 0abe 40d9 3abd a19b 8bbe 86b6 c8be
00000300: c370 163e eaec 9bbe ee61 813e d31f 84bd
00000310: a279 323e 465f dfbe 5a35 8fbe ef17 dbbe
00000320: 7742 03be 4e4b e4be c73c 39be db90 ec3d
00000330: 8492 b8be 4c22 033e 9c2b 75be 9e36 b0bd
00000340: e938 7dbe ead2 9b3d 4f9f b53e 00c8 5f3e
00000350: c2cd b6be f633 3b3e af6e f0be 95ae 6abe
00000360: 9219 33be 2285 94be 5548 77be 2c71 3f3d
00000370: 4262 a8be c25b 07be 6075 d43e 95b7 003e
00000380: 30b3 953e c95f 323e d741 df3d a9ef ac3e
00000390: eefd cb3e 9455 ae3d 2f9e 753e deb8 24bd
000003a0: 0235 673e 9c00 133f f3ea babe 1858 173e
000003b0: 143f 97be 2640 6d3e 3949 15bf 41a4 45bd
000003c0: 16a8 bebe b895 51be bbe0 37be b087 a33e
000003d0: 247e 893d bb97 fcbe b098 883e aff9 1cbe
000003e0: 0820 0bbf 0373 6cbe 3f0e 77be 99e9 8abe
000003f0: 031c 24be eb28 babc 3c92 7dbe 3866 9cbd

categorical_proj.bias f4 [17]
-0.0058806487 -0.010062607 -0.0038466973 -0.0017481261 -0.009931481 7.632677e-05 0.008989098 0.015391921
-0.0043499493 -0.0059402194 -0.0008281359 0.006046663 0.000871684 0.002076123 -0.0023101764 -4.125614e-05
0.0046411683
00000000: 75b2 c0bb a2dd 24bc df18 7cbb 6121 e5ba
00000010: a7b7 22bc 9f11 a038 0247 133c 652e 7c3c
00000020: 058a 8ebb 2ca6 c2bb 4217 59ba 1623 c63b
00000030: b981 643a 900f 083b 5466 17bb 710a 2db8
00000040: f114 983b

combine_proj.weight f4 [128, 113]
-0.0682043 0.094478965 -0.1005377 -0.14948562 -0.10723039 0.067542866 0.12939902 -0.012085785
0.13080539 -0.09662393 -0.03343111 0.11283073 0.021119703 -0.1499548 0.009203864 0.07638875
0.008928406 -0.029372893 0.13384975 0.14545017 0.024116807 0.0755969 0.12040363 0.17168231
0.15549809 -0.04874675 0.0798478 0.094690785 -0.17193319 -0.087755814 0.07511169 0.05078415
0.14576173 0.13923293 0.15429601 -0.0047427574 0.08150869 0.07254958 -0.06360889 -0.025788577
-0.009470987 0.07620862 0.08512304 0.07839964 -0.1415397 0.17896375 -0.08338211 -0.12978716
0.018850666 -0.11099163 -0.090339735 -0.18161383 0.0040558744 -0.122002184 0.12615298 0.082908586
-0.111300096 -0.10798221 -0.066535726 0.110062 0.13232858 -0.082997106 0.15536644 0.05934594
-0.10041496 -0.14599603 0.082218975 -0.1218572 -0.096522465 -0.0693656 0.04350814 0.006649152
0.057209473 -0.053417202 -0.0070813615 -0.0127672255 0.09871083 0.14030947 0.116156764 0.15028618
-0.12571701 -0.10341848 0.043132395 0.079230554 0.012821066 -0.08980477 0.08758359 0.11491096
-0.15981534 0.09004623 -0.020611465 0.04428377 -0.14630046 0.02127674 -0.13874197 0.09813111
0.08052565 -0.1265501 -0.1830654 0.07264821 -0.07053375 0.20387174 0.09988689 -0.23143642
0.14553666 -0.10036386 -0.12595153 0.012327576 -0.107032 -0.1600145 -0.18055521 0.17604382
-0.034235388 -0.008129405 0.03423184 0.107992075 0.096521735 0.0004047305 -0.03530271 -0.005208175
-0.053162348 -0.16695951 -0.16555412 -0.1149133 -0.0030548114 0.16793478 0.016707301 0.16394643
-0.121540606 -0.08567579 0.075456746 0.11085454 -0.009496954 -0.113048844 0.008137899 0.04814706
-0.14888026 -0.045296922 -0.089549564 0.056566346 -0.03014805 -0.030366154 -0.08553328 0.117802404
0.13079749 -0.062244553 -0.07050364 6.557943e-05 -0.17400816 0.0122798495 -0.09540528 -0.04721723
0.05228304 0.015459651 0.035926685 0.084574774 0.01424136 -0.0044739023 0.010821631 0.08201448
0.11509689 -0.04410803 0.08189079 0.08755232 -0.07081639 -0.06796993 -0.047608264 0.053487983
-0.1445833 0.06739599 0.08975714 0.005647947 0.0023793145 -0.10398827 0.008780364 0.13730535
0.1798145 0.0022983172 -0.11366231 -0.15031345 -0.113894 -0.12503247 0.11482948 -0.048022863
-0.0015747419 -0.045421474 -0.027660638 0.03171065 -0.015006823 0.106077395 -0.009090607 0.049665015
0.044074744 0.0020566406 0.044694696 -0.10259435 -0.11286208 -0.023054441 -0.18227626 0.11274577
0.039439023 -0.045000948 0.01092112 0.021246051 -0.104352176 -0.100733645 -0.09287434 -0.14091496
-0.0998263 -0.06907817 0.037708864 0.18180233 0.10878354 -0.18055633 -0.18080442 0.14148913
0.04105583 -0.06304947 0.06858669 -0.1230838 0.050684255 0.0019944874 0.19818066 -0.12574036
-0.16559036 0.1349812 0.06891762 -0.05544213 0.009195549 0.04546784 -0.07358728 -0.07365512
0.07449046 -0.02009458 -0.052724663 -0.16248259 -0.13412404 -0.060567815 -0.07946627 0.18096344
-0.018709902 -0.13640316 -0.09759292 -0.05543495 -0.0138427485 0.07556229 -0.072372764 0.09306064
-0.17336641 0.1241474 -0.16515464 0.0142343715 -0.0768836 -0.14180166 0.1445726 -0.08898974
00000000: b2ae 8bbd 307e c13d b6e6 cdbd c212 19be
00000010: 9b9b dbbd ea53 8a3d 2d81 043e 7503 46bc
00000020: d9f1 053e c4e2 c5bd 0fef 08bd cc13 e73d
00000030: 3a03 ad3c c08d 19be cecb 163c b471 9c3d
00000040: 7348 123c 6c9f f0bc e90f 093e e4f0 143e
00000050: 9c90 c53c 8cd2 9a3d 2e96 f63d 7dcd 2f3e
00000060: e43a 1f3e acaa 47bd 3e87 a33d 3eed c13d
00000070: 410f 30be 52b9 b3bd 28d4 993d 0a03 503d
00000080: 9042 153e 1493 0e3e c6ff 1d3e 2269 9bbb
00000090: 07ee a63d e094 943d 6145 82bd 9142 d3bc
000000a0: 332c 1bbc 4413 9c3d fd54 ae3d fe8f a03d
000000b0: c8ef 10be 4642 373e 3dc4 aabd ede6 04be
000000c0: b66c 9a3c 944f e3bd 0a04 b9bd faf8 39be
000000d0: 24e7 843b 48dc f9bd 3f2e 013e facb a93d
000000e0: 4ef1 e3bd c725 ddbd e243 88bd 3068 e13d
000000f0: 2581 073e 63fa a9bd 6118 1f3e ba14 733d
00000100: 5ca6 cdbd fc7f 15be 6c62 a83d 4590 f9bd
00000110: 92ad c5bd 8d0f 8ebd 9735 323d 21e1 d93b
00000120: 7b54 6a3d ffcb 5abd c40a e8bb a02d 51bc
00000130: e728 ca3d 49ad 0f3e 99e3 ed3d 9fe4 193e
00000140: f6bb 00be 11cd d3bd 98ab 303d a143 a23d
00000150: 730f 523c 90eb b7bd 065f b33d 7056 eb3d
00000160: a2a6 23be 286a b83d 60d9 a8bc e662 353d
00000170: cacf 15be 8f4c ae3c 6012 0ebe f7f8 c83d
00000180: a2ea a43d 5996 01be 7f75 3bbe 96c8 943d
00000190: 0074 90bd c1c3 503e 7f91 cc3d abfd 6cbe
000001a0: 9007 153e 918b cdbd 70f9 00be 9af9 493c
000001b0: 9833 dbbd d7da 23be 77e3 38be d544 343e
000001c0: 683a 0cbd 3231 05bc b036 0c3d f32a dd3d
000001d0: 30ad c53d 0232 d439 9399 10bd 57a9 aabb
000001e0: c3c0 59bd 6ff7 2abe 0587 29be aa57 ebbd
000001f0: 3b33 48bb 18f7 2b3e c0dd 883c 93e1 273e
00000200: 48ea f8bd ca76 afbd 1189 9a3d b407 e33d
00000210: 1d99 1bbc 2786 e7bd d354 053c da35 453d
00000220: 1174 18be 4489 39bd c365 b7bd 1db2 673d
00000230: 0bf9 f6bc 71c2 f8bc 132c afbd 6342 f13d
00000240: c7ef 053e 25f4 7ebd 3664 90bd b087 8938
00000250: 322f 32be 6c31 493c d863 c3bd db66 41bd
00000260: be26 563d 7a4a 7d3c dc27 133d 8a35 ad3d
00000270: 9854 693c d099 92bb 364d 313c 35f7 a73d
00000280: ebb7 eb3d 9faa 34bd 5cb6 a73d a14e b33d
00000290: 2f08 91bd d233 8bbd e200 43bd 3716 5b3d
000002a0: a50d 14be e906 8a3d 97d2 b73d 6a12 b93b
000002b0: 46ee 1b3b cdf7 d4bd 84db 0f3c c699 0c3e
000002c0: 4b21 383e 5d9f 163b c9c7 e8bd c5eb 19be
000002d0: 4241 e9bd 8308 00be b82b eb3d 9fb3 44bd
000002e0: 9267 ceba de0b 3abd 9098 e2bc 07e3 013d
000002f0: 2edf 75bc 1b3f d93d c5f0 14bc 8b6d 4b3d
00000300: b887 343d b4c8 063b c911 373d fd1c d2bd
00000310: 3c24 e7bd abdc bcbc a1a6 3abe 41e7 e63d
00000320: d08a 213d ea52 38bd 7fee 323c 330c ae3c
00000330: 98b6 d5bd 714d cebd e734 bebd 034c 10be
00000340: bb71 ccbd db78 8dbd 9c74 1a3d 642a 3a3e
00000350: e8c9 de3d c2e3 38be cb24 39be 87e2 103e
00000360: 282a 283d 1520 81bd 2e77 8c3d 5c13 fcbd
00000370: 4b9a 4f3d f2b5 023b dfef 4a3e 15c2 00be
00000380: 8590 29be 8338 0a3e ae24 8d3d 4917 63bd
00000390: eea8 163c 7c3c 3a3d eeb4 96bd 7fd8 96bd
000003a0: 748e 983d 639d a4bc d1f5 57bd d661 26be
000003b0: d057 09be f515 78bd 36bf a2bd 7b4e 393e
000003c0: 8245 99bc 45ad 0bbe ccde c7bd c20f 63bd
000003d0: b2cc 62bc 67c0 9a3d 2c38 94bd 9496 be3d
000003e0: f786 31be fe40 fe3d 4c1e 29be 4837 693c
000003f0: 2675 9dbd 7434 11be d70a 143e 4140 b6bd

combine_proj.bias f4 [128]
-0.0015576206 -0.005448684 0.002201239 -0.0031842955 0.0069325697 0.0030053458 0.0039362344 0.0029818616
-0.00031706996 0.0024904814 -0.0029537065 -0.001143501 5.500255e-05 0.0029777018 -0.0015904431 -0.0042965366
-0.0067587113 -0.0040813847 -0.0022655656 0.0016229437 -0.0009602037 -0.0057668434 0.00020790307 -0.0064476747
-0.0011825019 -0.0034872522 -0.0026169186 -0.0017365986 -0.00052791025 -0.00033015094 0.0015562309 -0.0011445984
-0.0017034129 0.0025976032 -0.0010853716 -2.4465835e-05 0.0009297449 -0.0007483813 -0.003624205 0.0031952804
-0.001178888 0.004518139 -0.0035034344 0.0012695224 -0.0020727862 -0.0009781872 -0.001582068 -0.0015439917
0.0036407956 -0.00074708275 -0.003087504 0.0009271429 0.0035613503 -0.0048469305 -0.001639215 0.0059894845
-0.0034054208 0.0009813018 -0.00036384675 -0.00011614367 0.0015743463 0.001022329 0.000747123 0.0025757856
0.0014666189 -0.005854658 -0.0023885 -0.0002599472 0.0015554416 -0.0030909516 -0.0005532847 -0.0036056845
0.0039495616 -0.0037683004 -0.0008552748 -0.0010300685 8.6309235e-05 0.00036662884 0.0019177138 -0.0035558906
0.0011457693 -0.0043343278 -0.0006270539 3.0617153e-05 -0.0011541488 -0.004468345 -0.00057618396 -0.006088166
0.0015620849 0.0012164066 -0.0004953084 0.0011501237 0.0037870342 -0.0015622491 -0.0015734104 -0.006156637
0.0015515768 0.0017791382 -0.00040376792 -0.0010331381 0.0019567045 -0.00022926358 0.004125798 -0.004937607
-0.004326031 0.0010511632 0.0044545326 0.004080647 0.0002677561 0.0024302816 0.0028241999 -0.0009322773
0.0012957028 0.0021442415 0.00042055582 -0.0017140454 0.0009475976 0.0053759813 -0.0029695418 -0.0033369642
-0.0013223833 -0.00029258078 0.0038009654 0.003290389 -0.003479537 -0.0024810792 -0.0013217735 -0.0015129359
00000000: 1329 ccba e08a b2bb aa42 103b 9daf 50bb
00000010: 9c2a e33b 56f5 443b 87fb 803b 566b 433b
00000020: 693c a6b9 5837 233b f992 41bb 87e1 95ba
00000030: 8ab2 6638 8c25 433b 6a76 d0ba f6c9 8cbb
00000040: 2e78 ddbb 23bd 85bb e279 14bb f4b8 d43a
00000050: 2eb6 7bba caf7 bcbb 8e00 5a39 0447 d3bb
00000060: 2efe 9aba 628a 64bb 9c80 2bbb 949e e3ba
00000070: 7563 0aba 1c18 adb9 72fa cb3a 5906 96ba
00000080: 0d45 dfba 8d3c 2a3b 0743 8eba fb3b cdb7
00000090: 20ba 733a 052f 44ba 1284 6dbb e967 513b
000000a0: eb84 9aba e60c 943b e099 65bb 1a66 a63a
000000b0: 95d7 07bb 8436 80ba 655d cfba c45f caba
000000c0: 6a9a 6e3b e0d7 43ba b957 4abb 820b 733a
000000d0: 8b65 693b 00d3 9ebb eeda d6ba 7043 c43b
000000e0: 7b2d 5fbb 069f 803a afc2 beb9 2892 f3b8
000000f0: 4c5a ce3a abff 853a 93da 433a 83ce 283b
00000100: 903b c03a 6ed8 bfbb 6188 1cbb 8649 88b9
00000110: f6df cb3a 9091 4abb 4f0a 11ba 594d 6cbb
00000120: 536b 813b 97f5 76bb 8534 60ba 5d03 87ba
00000130: eb00 b538 1738 c039 cc5b fb3a f209 69bb
00000140: a32d 963a fa06 8ebb e060 24ba eb6a 0038
00000150: cf46 97ba 326b 92bb 0d0b 17ba 3d7f c7bb
00000160: dfbe cc3a d56f 9f3a 96d7 01ba bfbf 963a
00000170: e42f 783b 62c4 ccba e43a ceba 9dbd c9bb
00000180: 475e cb3a f931 e93a d0b0 d3b9 5d6a 87ba
00000190: 0e3c 003b 7966 70b9 b431 873b a6cb a1bb
000001a0: 61c1 8dbb 2fc7 893a 54f7 913b f3b6 853b
000001b0: 9e61 8c39 5c45 1f3b 3616 393b 1264 74ba
000001c0: 92d4 a93a 6786 0c3b 0c7e dc39 d2a9 e0ba
000001d0: 3368 783a 0029 b03b a59c 42bb f8b0 5abb
000001e0: d253 adba 8765 99b9 9e19 793b 91a3 573b
000001f0: f208 64bb 9a99 22bb 5c3f adba b44d c6ba

fc1.weight f4 [128, 128]
-0.11284657 0.09180495 0.03416873 0.11292952 0.07772448 -0.009288727 0.03372123 0.11923961
-0.064343184 0.16167843 -0.09293594 -0.22648145 -0.067544915 -0.09739168 0.032841247 -0.12236184
-0.16242531 -0.18027978 0.12747757 -0.0977049 0.051547848 -0.15655689 0.13688792 0.0048356443
-0.030203212 -0.11891086 0.006457359 0.19841763 0.00020034697 0.069055006 -0.025291754 -0.18712737
-0.043123487 -0.059069544 0.10489457 -0.058945715 0.08577019 -0.044071738 0.050627414 -0.048312016
0.21775885 0.06391729 0.0015088558 -0.029791329 0.143584 0.16482241 -0.02949383 0.048483666
0.076383285 0.032422308 0.12871747 0.09290229 0.12710524 -0.06823438 -0.13804206 -0.20914464
0.085750274 -0.0374432 -0.08558554 -0.102317646 -0.119621605 0.045693196 -0.026288494 0.11035914
0.13489921 -0.16751967 0.015506005 0.035981275 -0.011927907 -0.018257577 0.021336487 -0.079595774
0.08817682 0.11171937 0.095950164 0.0012945133 0.10436276 0.09497279 0.053266637 0.03625968
0.0048836465 -0.051667243 -0.0564248 -0.092524536 0.1253826 0.10199535 -0.02591495 0.08654325
-0.11086651 0.03903079 0.085223414 0.050922845 0.057268042 -0.0070341523 0.06188357 -0.04481801
0.0016123175 -0.14084034 0.0046014455 -0.17243403 0.05898649 -0.09744376 0.011491022 -0.14897238
0.078193925 0.034196567 0.00879215 0.0037092557 -0.03678591 0.06053688 0.024878826 0.09507531
-0.09854334 -0.039468054 0.13935491 0.14631385 0.10283793 0.07096226 -0.06805882 0.038310956
-0.095476106 -0.07365933 0.15373802 -0.054079752 0.055554416 -0.018419728 -0.09765615 0.028715039
-0.04678217 -0.09047383 -0.085922316 -0.017352853 -0.020837005 -0.064426064 -0.17948836 0.02309682
-0.02965119 0.026305057 -0.07496311 0.016138645 0.008610887 0.062435538 -0.082920074 0.12320373
0.012014405 0.04646709 0.038164373 0.03575637 0.1439307 -0.03725917 0.050202407 0.0070550037
0.031041095 -0.11839124 -0.008157287 0.06302448 -0.053557716 -0.06425115 -0.04243825 0.04457954
-0.0046494696 -0.13151811 0.18293959 0.115750715 0.0072717876 0.09310966 0.039762784 0.10810318
-0.038544968 -0.020023875 0.17857058 0.0045779794 0.10755736 0.04448478 0.03839604 0.034131598
0.03501793 0.0063631157 0.109123185 -0.061125282 0.10156599 -0.13038912 0.021290291 -0.038984578
-0.17646295 0.2575256 0.14537545 -0.016001474 -0.027223509 -0.036344845 -0.06992693 -0.14447775
0.0035522326 -0.08386082 0.06333304 0.08052333 -0.1462259 -0.08091235 -0.0037938019 0.07345916
0.048767105 -0.0358982 -0.109699905 0.06884441 -0.2258087 -0.24335846 -0.13857488 0.15576476
-0.04714224 -0.073677145 -0.03509227 -0.12763742 0.14274174 -0.09441361 -0.016724216 -0.16414677
-0.061179303 -0.03707734 -0.05367282 -0.07980017 -0.11623025 0.04448227 0.15752666 0.17227145
0.077387705 -0.037348874 -0.10281586 -0.046999387 0.039026707 0.04549071 -0.15168832 -0.009324646
-0.21742974 0.050044756 0.0868956 0.098687716 -0.19291058 0.023767553 0.019101245 -0.024205193
0.11256094 0.10468311 0.08147734 -0.085603304 -0.017010055 0.08678169 -0.12111278 -0.13804023
-0.125431 0.14723918 0.14908373 0.11868807 0.03222221 -0.15082291 -0.017707149 -0.0069136266
00000000: 1a1c e7bd 3c04 bc3d 83f4 0b3d 9847 e73d
00000010: 032e 9f3d bf2f 18bc 461f 0a3d e633 f43d
00000020: 5cc6 83bd 088f 253e 3355 bebd c1ea 67be
00000030: fd54 8abd 4a75 c7bd 8b84 063d d898 fabd
00000040: d252 26be 439b 38be 7b89 023e 8219 c8bd
00000050: d623 533d 7350 20be 592c 0c3e 5374 9e3b
00000060: ba6c f7bc 8987 f3bd 4198 d33b fe2d 4b3e
00000070: 3b14 5239 b66c 8d3d a730 cfbc 519e 3fbe
00000080: 41a2 30bd e8f2 71bd f7d2 d63d 1071 71bd
00000090: 48a8 af3d 9184 34bd b15e 4f3d d2e2 45bd
000000a0: 2dfc 5e3e 11e7 823d cdc4 c53a f20c f4bc
000000b0: af07 133e 35c7 283e 0b9d f1bc cf96 463d
000000c0: d76e 9c3d 41cd 043d 83ce 033e 8e43 be3d
000000d0: e027 023e 77be 8bbd e65a 0dbe 032a 56be
000000e0: d79d af3d 0a5e 19bd 7947 afbd ea8b d1bd
000000f0: 2cfc f4bd ca28 3b3d f85a d7bc f903 e23d
00000100: 0523 0a3e 478a 2bbe e60c 7e3c 1a61 133d
00000110: 456d 43bc ea90 95bc dbc9 ae3c 1c03 a3bd
00000120: 0c96 b43d 20cd e43d 8581 c43d a9ac a93a
00000130: 25bc d53d 1881 c23d 1e2e 5a3d 0885 143d
00000140: ff06 a03b 08a1 53bd b11d 67bd 817d bdbd
00000150: 4c64 003e f0e2 d03d 974b d4bc 963d b13d
00000160: fb0d e3bd c0de 1f3d 9d89 ae3d 7994 503d
00000170: e591 6a3d bf7e e6bb a079 7d3d 1793 37bd
00000180: 6654 d33a 7338 10be b9c7 963b 8c92 30be
00000190: d19b 713d 9890 c7bd d744 3c3c 378c 18be
000001a0: 2324 a03d b311 0c3d f30c 103c fc16 733b
000001b0: d3ac 16bd 85f5 773d aece cb3c d8b6 c23d
000001c0: 17d1 c9bd 41a9 21bd 0eb3 0e3e 4cd3 153e
000001d0: b19c d23d a954 913d 6c62 8bbd f3eb 1c3d
000001e0: fa88 c3bd b4da 96bd 806d 1d3e bb82 5dbd
000001f0: 078d 633d f8e4 96bc f3ff c7bd cd3b eb3c
00000200: a99e 3fbd 584a b9bd 0af8 afbd 9227 8ebc
00000210: 5eb2 aabc d0f1 83bd cccb 37be 8b35 bd3c
00000220: 0de7 f2bc b47d d73c 4286 99bd 3135 843c
00000230: ae14 0d3c 68bc 7f3d 00d2 a9bd 3d52 fc3d
00000240: 11d8 443c 4654 3e3d 3f52 1c3d 4575 123d
00000250: 9262 133e 129d 18bd 0aa1 4d3d a92d e73b
00000260: e549 fe3c 1b77 f2bd 24a6 05bc fb12 813d
00000270: 565f 5bbd 1b96 83bd bbd3 2dbd 0999 363d
00000280: 945a 98bb afac 06be 8454 3b3e b60e ed3d
00000290: 2d48 ee3b 47b0 be3d 4dde 223d 3365 dd3d
000002a0: 54e1 1dbd 1c09 a4bc 35db 363e e002 963b
000002b0: 0847 dc3d ac35 363d 2b45 1d3d 93cd 0b3d
000002c0: f66e 0f3d af81 d03b fa7b df3d 815e 7abd
000002d0: d401 d03d ba84 05be fa68 ae3c 4bae 1fbd
000002e0: b4b2 34be 65da 833e 4ddd 143e 8615 83bc
000002f0: d603 dfbc 55de 14bd da35 8fbd faf1 13be
00000300: 93cc 683b 39bf abbd c1b4 813d 6ae9 a43d
00000310: 3ebc 15be 60b5 a5bd 6fa1 78bb c271 963d
00000320: 04c0 473d fe09 13bd 58aa e0bd 4cfe 8c3d
00000330: 653a 67be f632 79be 93e6 0dbe cc80 1f3e
00000340: 3918 41bd 0be4 96bd e9bc 0fbd 62b3 02be
00000350: e42a 123e ec5b c1bd 3901 89bc 1716 28be
00000360: 2697 7abd 69de 17bd 08d8 5bbd 466e a3bd
00000370: 200a eebd 0a33 363d ab4e 213e ed67 303e
00000380: 727d 9e3d 22fb 18bd 1f91 d2bd 6e82 40bd
00000390: 78da 1f3d 7754 3a3d 2f54 1bbe 66c6 18bc
000003a0: e7a5 5ebe bbfb 4c3d 52f6 b13d c91c ca3d
000003b0: 5a8a 45be 2cb4 c23c 377a 9c3c f849 c6bc
000003c0: 5a86 e63d 1964 d63d 97dd a63d c950 afbd
000003d0: ac58 8bbc 99ba b13d fa09 f8bd 6b5a 0dbe
000003e0: fc70 00be dec5 163e 68a9 183e bb12 f33d
000003f0: 70fb 033d 5271 1abe 950e 91bc b48b e2bb

fc1.bias f4 [128]
-0.0017056003 0.0033852442 -3.915204e-05 -0.00068371906 0.0021529417 -0.0012050663 0.0011710983 -0.0012877565
0.0015205054 -0.0020684998 -0.00080892304 -0.0009878308 0.003624751 8.4302184e-05 7.585014e-05 0.00040539991
-0.00058381073 -0.00012206927 -0.0017134495 -0.00037932023 -0.0023545579 0.0007640394 -0.0006657405 0.00039928168
-0.0012644383 0.0022534349 0.00011606922 -8.309919e-05 -0.0023686856 0.00045398646 0.0037257904 -0.0033025048
-0.0002686551 -0.0014050648 -0.0034715426 7.9389276e-05 -0.0026266542 -0.0024929612 -5.929455e-05 0.0015113439
-0.0012596723 -0.0002255899 0.00027118227 -0.0034435524 -0.0017610562 -0.0018893125 -0.001959787 0.0006011175
-0.0039887563 -0.00027267216 0.0012200179 0.0023079587 0.0004972469 0.0007788584 0.0040109893 0.0001910191
-0.0031681198 1.9778994e-05 0.002073449 -0.006108326 -0.0016535408 0.0021166815 0.0023090634 0.0022120753
0.002998069 -0.0033293108 0.0033089365 -0.0007947957 8.844034e-05 0.0027912147 -0.0013863409 0.0027292976
0.0012251826 0.00076707377 0.0022406478 0.0011579182 0.0015954878 -0.0007702524 -0.000865833 -0.001181326
-0.0020810848 0.0006474142 -0.0013096215 -0.0003406377 -0.0023624327 -0.0019442767 -0.0012882809 0.00127324
-0.00018054448 0.0009886506 0.00016161067 0.0013500081 -0.002116392 0.00047192693 -0.0005884079 0.0008513684
-0.0016760638 0.0033128392 -0.0030665763 -0.00037451598 0.0009172947 6.9059366e-05 -3.6762645e-05 -0.0003872448
0.0043629147 0.0004811506 -2.8549535e-05 0.0017554716 0.00030930142 0.0019431532 -0.0001331374 -0.00022767168
-0.0025333532 0.0006990944 0.0050526913 0.000849966 -0.00046491952 0.0022096613 0.0026487878 0.001317488
0.0028493085 0.0017976057 -0.002080189 0.002880576 -0.00306736 0.003402713 0.0025412499 0.004397564
00000000: 738e dfba f9da 5d3b 2f37 24b8 9c3b 33ba
00000010: 5e18 0d3b 51f3 9dba 8a7f 993a f0c9 a8ba
00000020: b24b c73a ab8f 07bb e80d 54ba 1a7a 81ba
00000030: 3b8d 6d3b 64cb b038 bc11 9f38 db8b d439
00000040: e00a 19ba 71ff ffb8 d395 e0ba 80df c6b9
00000050: ed4e 1abb d149 483a 1785 2eba ae56 d139
00000060: 82bb a5ba 5dae 133b 306a f338 8a45 aeb8
00000070: f33b 1bbb 0805 ee39 642c 743b d66e 58bb
00000080: 47da 8cb9 272a b8ba d282 63bb cb7d a638
00000090: f223 2cbb f360 23bb 0ab3 78b8 4918 c63a
000000a0: 971b a5ba 548c 6cb9 782d 8e39 39ad 61bb
000000b0: 3ed3 e6ba cfa2 f7ba c56f 00bb 5094 1d3a
000000c0: 1db4 82bb 70f5 8eb9 02e9 9f3a 1f41 173b
000000d0: ad59 023a 4d2c 4c3a 9e6e 833b 4d4c 4839
000000e0: 3ba0 4fbb 11eb a537 b4e2 073b 5a28 c8bb
000000f0: 9fbb d8ba 06b8 0a3b a853 173b 77f8 103b
00000100: 407b 443b 9130 5abb beda 583b d659 50ba
00000110: 0c79 b938 d0ec 363b e2b5 b5ba 04de 323b
00000120: 4e96 a03a 7315 493a d5d7 123b 4ac5 973a
00000130: b01f d13a c3ea 49ba 12f9 62ba b9d6 9aba
00000140: cf62 08bb 3bb7 293a 9ba7 abba 9e97 b2b9
00000150: 0bd3 1abb 1ad7 feba 89db a8ba d8e2 a63a
00000160: 8a50 3db9 9c95 813a 0976 2939 c1f2 b03a
00000170: 2ab3 0abb f66c f739 633f 1aba 5e2e 5f3a
00000180: 5eaf dbba 381c 593b 9df8 48bb af5a c4b9
00000190: 9b76 703a f7d3 9038 9731 1ab8 1e07 cbb9
000001a0: c8f6 8e3b f142 fc39 a97d efb7 da17 e63a
000001b0: bc29 a239 67b1 fe3a cc9a 0bb9 27bb 6eb9
000001c0: 9d06 26bb 6e43 373a 0c91 a53b 41d0 5e3a
000001d0: 71c0 f3b9 f7cf 103b 4997 2d3b 90af ac3a
000001e0: 77bb 3a3b a39d eb3a c853 08bb 0cc8 3c3b
000001f0: c305 49bb 0d00 5f3b 198b 263b 7119 903b

bn1.weight f4 [128]
1.1179658 1.0313622 1.0662165 1.000769 0.88807106 1.0392016 1.0756104 0.8752404
0.937646 1.0204315 0.91895866 1.014335 1.0427768 1.046866 0.9839195 1.0606706
0.9914731 1.0180893 0.940947 1.0611001 1.0122514 0.9077346 1.0463758 0.99192
0.9641317 1.0293621 1.0169859 0.9857978 0.9309691 0.97636783 1.0706611 0.9735619
1.1252803 1.0403429 1.023835 0.9741617 0.9322165 1.023248 0.99249893 1.0524493
1.0176011 1.0125239 0.99085605 0.9415215 0.9614712 0.99408686 0.9177343 0.9680668
0.9439668 1.0364995 0.98319 1.011641 0.9943016 1.0130891 1.0066621 0.85032433
0.8913876 0.91400784 0.9782706 0.93317455 1.0068899 0.9756786 1.0289776 0.99826634
1.0437549 0.8821946 0.99407464 0.98960465 0.89202076 0.98049104 1.0739692 0.9915582
0.934363 0.98173946 1.0515889 1.0621887 1.0792078 0.8499782 0.880347 1.032213
0.9557037 1.0725306 0.94074297 1.0148785 1.020729 0.9697368 0.94104916 0.96619326
1.0665463 0.9716407 1.0299519 0.9536601 0.9661389 0.9767521 1.0398252 0.9306312
0.98590195 0.9105182 0.8792551 0.94662523 0.9099324 0.9505692 0.9959056 0.9953984
0.9869844 1.0162965 1.0372401 1.0461041 1.0136881 0.8776938 0.8832311 0.9171005
0.8757034 1.0369622 0.9329673 0.9153018 0.992076 0.858837 1.0560415 1.0665952
0.9338336 0.89321893 1.0749792 1.015944 1.0145056 0.9585481 1.0452684 0.92293406
00000000: 8119 8f3f ad03 843f c879 883f 3319 803f
00000010: a058 633f 8f04 853f 9aad 893f c10f 603f
00000020: 9109 703f 809d 823f e040 6b3f bbd5 813f
00000030: b679 853f b5ff 853f 26e2 7b3f 0ec4 873f
00000040: 2ed1 7d3f c050 823f e7e1 703f 21d2 873f
00000050: 7491 813f 4b61 683f a4ef 853f 78ee 7d3f
00000060: 56d1 763f 23c2 833f 982c 823f 3f5d 7c3f
00000070: fe53 6e3f 3ef3 793f 6c0b 893f 5a3b 793f
00000080: 2f09 903f f529 853f 060d 833f a962 793f
00000090: bea5 6e3f caf9 823f 6914 7e3f a9b6 863f
000000a0: c140 823f 629a 813f bea8 7d3f 8e07 713f
000000b0: fa22 763f 7a7c 7e3f a3f0 6a3f 3ad3 773f
000000c0: cfa7 713f 04ac 843f 57b2 7b3f 747d 813f
000000d0: 8d8a 7e3f e7ac 813f 4eda 803f dbae 593f
000000e0: fa31 643f 6bfc 693f f16f 7a3f 87e4 6e3f
000000f0: c5e1 803f 13c6 793f 8ab5 833f 628e 7f3f
00000100: c399 853f 81d7 613f ad7b 7e3f bb56 7d3f
00000110: 795b 643f 7601 7b3f d377 893f c2d6 7d3f
00000120: 6a32 6f3f 4753 7b3f 779a 863f cdf5 873f
00000130: 7b23 8a3f 2c98 593f 6c5e 613f 8e1f 843f
00000140: ffa8 743f af48 893f 88d4 703f 8ae7 813f
00000150: 3fa7 823f ac40 783f 99e8 703f 7158 773f
00000160: 9784 883f 72bd 783f 77d5 833f 1123 743f
00000170: e154 773f 6d0c 7a3f fe18 853f d93d 6e3f
00000180: 1264 7c3f b917 693f dd16 613f 0856 723f
00000190: 54f1 683f 8158 733f abf3 7e3f 6ed2 7e3f
000001a0: 02ab 7c3f 0116 823f 49c4 843f bde6 853f
000001b0: 88c0 813f 8ab0 603f 6f1b 623f 19c7 6a3f
000001c0: 192e 603f 2dbb 843f f2d6 6e3f 3851 6a3f
000001d0: b1f8 7d3f bedc 5b3f 5e2c 873f 3186 883f
000001e0: b80f 6f3f ffa9 643f eb98 893f 740a 823f
000001f0: 52db 813f 6963 753f 5bcb 853f 6845 6c3f

bn1.bias f4 [128]
-0.12640622 -0.017603597 -0.18388174 -0.36757302 -0.14619333 -0.09579485 -0.15535402 -0.1751598
-0.015740892 -0.0020104651 -0.1708497 -0.011224288 -0.005407385 0.1315643 -0.49402112 -0.0032759183
-0.17913997 -0.33382577 -0.018889623 -0.06211221 -0.053660627 -0.326473 0.027360834 0.049263377
-0.03773217 0.044412483 -0.2766318 0.00026596323 -0.040453225 -0.13777341 -0.112888604 -0.25333047
-0.0038522508 -0.04100123 -0.47106335 -0.16375329 -0.14369483 -0.3688788 -0.44424453 -0.008286694
-0.058227412 0.06298513 -0.030586513 -0.15109783 -0.013235175 -0.40329668 -0.20965642 -0.11683858
0.10953857 0.008683531 -0.36524543 -0.24929965 -0.25119734 -0.08448828 -0.26634684 -0.2409593
-0.13585646 -0.08111477 0.012383019 0.009256722 -0.058006234 -0.01973826 -0.1754976 -0.10499314
-0.30908123 -0.23902215 0.039711345 -0.11478391 -0.16327558 -0.09812718 -0.09448326 -0.27038985
0.025404627 0.012536081 -0.12925285 -0.13548583 -0.08785075 -0.17426382 -0.2244022 0.014356769
-0.061127055 -0.142205 -0.3983958 -0.07414858 -0.032648843 -0.0005737291 -0.07844745 -0.051225603
-0.098657355 -0.030508738 -0.040535774 -0.07396193 -0.13985774 -0.06289834 0.0355614 -0.1737032
-0.2628564 -0.36762097 -0.12482605 0.01964348 -0.19777226 -0.1265727 -0.0126804 -0.055058286
-0.18461885 -0.059602357 0.015444351 -0.19729711 -0.1928814 -0.1809472 -0.13587406 -0.22869155
-0.11470704 -0.35158667 -0.21839139 -0.17076223 -0.04120518 -0.19581331 -0.17352957 0.023178726
0.0025341855 -0.07917072 -0.4429552 -0.36426342 -0.42906052 -0.11364608 -0.10096544 -0.18933022
00000000: a270 01be 6b35 90bc 7f4b 3cbe 8832 bcbe
00000010: b4b3 15be 1730 c4bd 2015 1fbe 175d 33be
00000020: 0bf3 80bc 02c2 03bb 39f3 2ebe 13e6 37bc
00000030: 6f30 b1bb cbb8 063e 56f0 fcbe cab0 56bb
00000040: 7870 37be 36eb aabe 69be 9abc 5f69 7ebd
00000050: 3fcb 5bbd 7827 a7be d423 e03c 65c8 493d
00000060: 0c8d 1abd dde9 353d afa2 8dbe fb70 8b39
00000070: 48b2 25bd 7914 0dbe 2432 e7bd 88b4 81be
00000080: 0b76 7cbb e8f0 27bd 372f f1be f1ae 27be
00000090: bd24 13be afdd bcbe 0574 e3be eac4 07bc
000000a0: de7f 6ebd 59fe 803d 9190 fabc 64b9 1abe
000000b0: 59d8 58bc e77c cebe 2cb0 56be 1149 efbd
000000c0: c255 e03d 5e45 0e3c 7301 bbbe 6848 7fbe
000000d0: f09c 80be 3108 adbd 9d5e 88be 09be 76be
000000e0: f51d 0bbe 801f a6bd 25e2 4a3c 82a9 173c
000000f0: f297 6dbd 22b2 a1bc a5b5 33be a506 d7bd
00000100: e53f 9ebe 39c2 74be 5da8 223d d413 ebbd
00000110: b731 27be e7f6 c8bd 7080 c1bd 8a70 8abe
00000120: 5d1d d03c 2264 4d3c dc5a 04be ccbc 0abe
00000130: 18eb b3bd 3772 32be b1c9 65be a738 6b3c
00000140: 5d60 7abd 309e 11be 89fa cbbe 36db 97bd
00000150: cbba 05bd 4f66 16ba 0fa9 a0bd f0d1 51bd
00000160: de0c cabd 76ed f9bc d708 26bd 5a79 97bd
00000170: de36 0fbe d8d0 80bd d5a8 113d 40df 31be
00000180: 1d95 86be d138 bcbe cda4 ffbd 5deb a03c
00000190: d084 4abe 469c 01be 74c1 4fbc cc84 61bd
000001a0: b90c 3dbe 9a21 74bd 4e0a 7d3c 4108 4abe
000001b0: b482 45be 394a 39be 9222 0bbe 1e2e 6abe
000001c0: 86eb eabd 2b03 b4be fea1 5fbe 4bdc 2ebe
000001d0: c3c6 28bd 4983 48be bcb1 31be 50e1 bd3c
000001e0: 9414 263b 4224 a2bd 06cb e2be bc80 babe
000001f0: d2ad dbbe 47bf e8bd f8c6 cebd c8df 41be

bn1.running_mean f4 [128]
0.056625307 0.002587125 0.044672426 0.032734565 -0.0027424537 -0.021485185 0.06810145 0.026134921
-0.0066099996 -0.022859951 -0.008980959 -0.025244212 -0.038416553 0.0057871486 0.015177551 -0.02018618
0.04138581 0.038176637 0.049474653 0.0038418677 -0.031729233 0.020424578 -0.036171086 -0.01413825
-0.02604412 -0.021658968 0.010042237 -0.026444662 -0.013403691 0.015690133 0.056324653 0.0326288
0.0042420207 -0.028388327 0.0070026224 0.030998243 -0.0035363194 0.015754325 0.0019494423 -0.01838632
-0.028841073 -0.016375888 -0.023639265 0.04116035 -0.028484106 -0.0006929827 -0.010195761 0.00011894235
-0.009898734 -0.034236092 0.02294452 0.026425635 0.0128552085 0.030251717 0.023883926 0.02501174
-0.0016870365 0.012841572 -0.028071031 -0.009806837 -0.0055058426 0.006108994 0.07263941 -0.023287958
0.046776403 0.023241552 0.0015543599 0.020291964 -0.0028314237 0.0107562775 2.7038628e-05 0.013256401
0.006398403 -0.01735773 0.054640576 0.06726758 0.047480367 -0.028251536 0.008775184 -0.01312703
-0.016464075 0.061464734 0.013906275 -0.018903375 -0.01166624 -0.02347475 0.0055138976 -0.0020538098
0.0434816 0.029155908 -0.018206935 0.033757903 0.042524144 -0.0051238984 0.049247265 0.023542048
0.0035013107 0.019306865 0.011891675 -0.0012849648 0.06027495 -0.032441087 -0.00818804 -0.015112697
0.015584682 -0.0043208366 -0.019235821 0.06423127 -0.018287163 0.018154588 0.04023003 -0.018303668
-0.007434211 0.010162372 0.0032711169 0.024223207 -0.0084355585 -0.0041713766 0.037720375 0.042124327
-0.02051472 0.00842924 0.029530335 0.031936683 -0.012193406 0.048056606 0.044925615 0.016675781
00000000: f0ef 673d c18c 293b 6ffa 363d ae14 063d
00000010: bdba 33bb b301 b0bc c678 8b3d e718 d63c
00000020: b298 d8bb cb44 bbbc df24 13bc f3cc cebc
00000030: ad5a 1dbd 1fa2 bd3b 43ab 783c 7d5d a5bc
00000040: 2b84 293d 1b5f 1c3d efa5 4a3d d8c7 7b3b
00000050: 83f6 01bd 7251 a73c 2228 14bd 1ea4 67bc
00000060: 7a5a d5bc 266e b1bc 3288 243c 7aa2 d8bc
00000070: 289b 5bbc 9888 803c aeb4 663d c7a5 053d
00000080: a600 8b3b a38e e8bc 4176 e53b 07f0 fd3c
00000090: 98c1 67bb 370f 813c 6e84 ff3a e89e 96bc
000000a0: 1d44 ecbc ba26 86bc 22a7 c1bc c197 283d
000000b0: 8057 e9bc 48a9 35ba 1f0c 27bc b070 f938
000000c0: 4d2e 22bc 253b 0cbd 25f6 bb3c 937a d83c
000000d0: a79e 523c 73d2 f73c 39a8 c33c 6ce5 cc3c
000000e0: 8d1f ddba 7565 523c 38f5 e5bc dbac 20bc
000000f0: 5b6a b4bb f52d c83b f9c3 943d 63c6 bebc
00000100: 9d98 3f3d 1165 be3c aabb cb3a 553b a63c
00000110: 688f 39bb 193b 303c 03d1 e237 6031 593c
00000120: b2a9 d13b cc31 8ebc ccce 5f3d 96c3 893d
00000130: c67a 423d c46f e7bc cac5 0f3c c112 57bc
00000140: abdf 86bc 72c2 7b3d 25d7 633c 40db 9abc
00000150: c223 3fbc 1e4e c0bc edad b43b 3699 06bb
00000160: c319 323d 5fd8 ee3c b626 95bc ba45 0a3d
00000170: cc2d 2e3d 60e6 a7bb 80b7 493d 41db c03c
00000180: 3f76 653b 6e29 9e3c 4dd5 423c 446c a8ba
00000190: dee2 763d f2e0 04bd 2127 06bc 3f9b 77bc
000001a0: e556 7f3c ce95 8dbb 7194 9dbc af8b 833d
000001b0: f6ce 95bc eeb8 943c 3ec8 243d 93f1 95bc
000001c0: af9a f3bb 1480 263c 3c60 563b bf6f c63c
000001d0: 4c35 0abc 0bb0 88bb ae80 1a3d 8f8a 2c3d
000001e0: 7c0e a8bc cc1a 0a3c 9ae9 f13c 0ad0 023d
000001f0: dac6 47bc 01d7 443d ec03 383d a69b 883c

bn1.running_var f4 [128]
4.4389524 2.9027216 5.063272 2.1310842 1.615565 3.2444658 4.890368 2.5894916
3.3495517 5.491307 3.4049437 5.8271637 4.724094 3.7761064 3.144211 3.0523486
3.308538 2.6290278 3.7425997 3.3781009 3.5056515 2.2069468 5.6970053 4.435947
3.5399733 5.429674 2.9769232 3.8820572 4.399073 3.6089766 4.9243593 1.7197018
3.005923 3.012348 2.0699492 2.1781793 3.5636606 2.7882323 2.4119458 5.4355893
3.6841812 4.6122155 4.231351 3.9528604 3.2207947 2.049194 1.915204 2.3236203
3.667384 5.032511 2.4745173 2.185449 2.1622362 4.0423 2.2488043 1.5133706
1.1723483 1.7395416 4.5881505 3.4768226 4.147276 3.8601954 3.9036262 2.7761297
2.5756004 1.6346556 4.449676 2.3398995 1.647704 2.1107962 4.0122037 3.080503
2.6571174 4.722806 5.039717 5.783965 4.306917 3.7757075 1.4537739 3.4922073
4.374278 5.727188 1.723572 2.4919994 5.289016 4.6027703 1.874775 4.2808113
3.992416 1.7427852 3.7456405 2.7359955 4.243696 4.451424 3.8632011 2.5014048
2.3839633 2.2267253 1.5780278 4.3934727 4.24417 1.533014 4.1804366 4.4837575
3.5278862 2.9955378 4.3739676 4.454659 3.0942168 0.7185615 2.626322 1.5423529
2.5243938 2.7118595 2.819577 1.8875961 5.647584 1.7692213 3.9568899 5.589264
4.532451 1.6915956 3.4223619 1.9664943 2.9720447 3.7303317 4.530247 1.4145426
00000000: e60b 8e40 31c6 3940 5306 a240 af63 0840
00000010: d5ca ce3f 54a5 4f40 e57d 9c40 3bba 2540
00000020: 0e5f 5640 c9b8 af40 99ea 5940 2078 ba40
00000030: c72b 9740 baab 7140 c13a 4940 ae59 4340
00000040: 16bf 5340 fe41 2840 c186 6f40 ce32 5840
00000050: 985c 6040 9e3e 0d40 de4d b640 47f3 8d40
00000060: ec8e 6240 e4bf ad40 e985 3e40 a073 7840
00000070: 35c5 8c40 79f9 6640 5a94 9d40 301f dc3f
00000080: 0b61 4040 4fca 4040 0c7a 0440 4a67 0b40
00000090: 0413 6440 6672 3240 525d 1a40 59f0 ad40
000000a0: a0c9 6b40 4597 9340 3a67 8740 aafb 7c40
000000b0: 8021 4e40 ff25 0340 6825 f53f 32b6 1440
000000c0: 6bb6 6a40 550a a140 7e5e 1e40 65de 0b40
000000d0: 1462 0a40 865a 8140 69ec 0f40 21b6 c13f
000000e0: 820f 963f 4da9 de3f 21d2 9240 4384 5e40
000000f0: 7cb6 8440 710d 7740 03d5 7940 1cac 3140
00000100: a3d6 2440 653c d13f bf63 8e40 eac0 1540
00000110: f7e7 d23f 4917 0740 f963 8040 f626 4540
00000120: 360e 2a40 3a21 9740 5d45 a140 3e16 b940
00000130: 44d2 8940 31a5 7140 4315 ba3f 5380 5f40
00000140: 16fa 8b40 2045 b740 029e dc3f eb7c 1f40
00000150: 9e3f a940 e549 9340 a1f8 ef3f 68fc 8840
00000160: be83 7f40 9613 df3f 93b8 6f40 8d1a 2f40
00000170: 5ccc 8740 1172 8e40 b03e 7740 0417 2040
00000180: db92 1840 ab82 0e40 d1fc c93f 5497 8c40
00000190: 3ed0 8740 ce39 c43f 23c6 8540 f17a 8f40
000001a0: e3c8 6140 e4b6 3f40 8bf7 8b40 918c 8e40
000001b0: a607 4640 a5f3 373f a915 2840 d26b c53f
000001c0: ab8f 2140 1b8f 2d40 f373 3440 c09c f13f
000001d0: 02b9 b440 d875 e23f af3d 7d40 40db b240
000001e0: d709 9140 3486 d83f fa07 5b40 16b6 fb3f
000001f0: fb35 3e40 c1bd 6e40 c9f7 9040 bb0f b53f
