models/hybrid_neurons_pretrained/MLP2_HUMAN_d2v_2_att.pth (torch, 207514 bytes, 34 tensors)

embedding_proj.weight f4 [96, 3]
0.004601418 -0.1292246 -0.106925435 -0.11344786 0.165986 -0.011097696 -0.012081233 0.035871573
-0.090023264 -0.08256701 0.05878099 -0.022871112 0.05173784 -0.0747798 -0.06663823 -0.017782334
0.042510506 0.04039894 0.03242096 -0.13495068 -0.09569147 0.1493494 -0.046405748 -0.10417138
-0.079701826 -0.048476726 -0.13060784 0.14015487 -0.044226978 -0.034922313 -0.07965456 -0.060351044
0.0766911 -0.06900047 0.051235992 -0.058362156 -0.08357569 0.12691012 -0.11879174 -0.08650275
-0.064453155 0.12632523 0.021416776 -0.11223134 0.110242374 0.12741265 0.09947767 -0.14097159
-0.056659624 0.115138575 0.07955976 -0.10129105 0.14623332 0.11243265 0.15778765 0.04424223
-0.049546413 0.041674547 -0.13036315 -0.09275617 0.035209745 0.052498624 0.08328832 -0.105908655
0.016087959 0.16006464 -0.06898212 0.009807207 0.017424578 -0.17476645 -0.01887063 0.08157849
-0.037850592 0.0809578 0.0006761599 -0.018856538 0.17014237 0.14471497 -0.13375983 0.03244755
-0.15170963 0.07830615 0.14749636 0.09857548 0.10982972 -0.013950774 0.09515115 -0.0189062
-0.0025528679 -0.02041987 0.16525285 -0.029792022 -0.05530313 0.043486033 -0.026984021 0.01803744
0.11763144 0.052519254 -0.09533022 0.021352679 0.09724091 -0.09695034 0.04323445 0.05807473
-0.09572946 -0.034474913 -0.17476705 -0.007269397 0.07940422 -0.12848148 -0.11891994 0.10119634
-0.05352818 -0.13006718 -0.14748205 0.03833073 0.05765322 -0.15232654 0.11276355 0.16109715
-0.01958154 -0.12985878 -0.027203295 -0.0038888308 0.1514299 -0.18852343 -0.0015032334 0.15453313
-0.12275482 0.06693067 -0.092576735 0.13410728 0.1367793 -0.0010373378 -0.030105732 0.06827607
-0.20278631 0.086316004 -0.04095313 0.0005247708 0.10684806 0.16989496 -0.0043907566 -0.109758556
0.04600674 -0.10087798 -0.07213817 0.071349174 0.068535015 -0.14662771 -0.023047442 -0.0042356234
-0.069777496 -0.049460974 0.14514644 -0.048293874 0.16120572 -0.092878975 -0.032578275 -0.009346651
0.021715613 0.030140767 0.15497416 -0.061328236 -0.0065076067 0.044093404 -0.12320954 0.0043670256
-0.048350826 0.06958012 0.015330986 -0.09275291 0.0368839 0.03251715 0.14378226 -0.04844501
-0.08301569 -0.14455396 -0.15808553 -0.004946706 0.0699118 0.038380574 0.01987421 0.023849105
-0.026349546 -0.007317805 0.040145982 0.055825364 -0.04340935 0.04812703 0.0060314327 -0.06998746
-0.021172043 -0.082097024 0.05447525 -0.18483198 0.12629876 0.090770334 -0.03560039 0.00525195
0.009605726 0.18880506 -0.14387448 0.042689107 0.048674557 0.028166581 -0.10208859 0.16190638
0.097738296 -0.12703195 0.06000241 0.12714197 0.038869392 -0.03985237 0.084190875 -0.006187247
0.16915254 0.13721207 -0.09947036 -0.041742343 0.13145179 -0.046841 -0.0085692275 0.06493144
0.12423366 -0.05237603 0.0062239636 -0.10264005 0.13105612 -0.16668177 0.07379772 -0.07089157
0.045287684 0.12754254 0.066264994 -0.12560011 0.13088249 0.030421173 0.040175766 -0.077945
0.15793543 -0.18624768 0.05736562 0.029247755 -0.02434737 0.051301733 -0.1017717 -0.08739229
0.106371656 0.032488734 0.02122289 -0.020436592 -0.04504175 0.035723317 -0.0016594105 -0.12737784
00000000: 7ec7 963b 7453 04be b9fb dabd 5a57 e8bd
00000010: 3cf8 293e 1cd3 35bc 5df0 45bc 12ee 123d
00000020: 1e5e b8bd e418 a9bd 56c4 703d 335c bbbc
00000030: 0feb 533d 2726 99bd a079 88bd 42ac 91bc
00000040: 7f1f 2e3d 5c79 253d d7cb 043d 8330 0abe
00000050: e4f9 c3bd 0def 183e f413 3ebd ce57 d5bd
00000060: b63a a3bd 888f 46bd 10be 05be c284 0f3e
00000070: 5927 35bd b30a 0fbd ee21 a3bd a832 77bd
00000080: 3910 9d3d 1e50 8dbd d5dc 513d 280d 6fbd
00000090: bb29 abbd baf4 013e 1549 f3bd 5b28 b1bd
000000a0: 0400 84bd 675b 013e 3c72 af3c 8bd9 e5bd
000000b0: c1c6 e13d 7678 023e f3ba cb3d db5a 10be
000000c0: ec13 68bd c6cd eb3d 3af0 a23d af71 cfbd
000000d0: 30be 153e 1743 e63d 1693 213e 5737 353d
000000e0: 2ef1 4abd eeb2 2a3d eb7d 05be f2f6 bdbd
000000f0: 1838 103d cc08 573d 1193 aa3d a3e6 d8bd
00000100: e5ca 833c fce7 233e 7f46 8dbd 68ae 203c
00000110: fdbd 8e3c faf5 32be 9496 9abc a012 a73d
00000120: 3909 1bbd 34cd a53d 5340 313a 0779 9abc
00000130: cd39 2e3e 2930 143e 56f8 08be b9e7 043d
00000140: c559 1bbe fa5e a03d 4909 173e f1e1 c93d
00000150: 67ee e03d ca91 64bc 9bde c23d 2de1 9abc
00000160: 044e 27bb 9247 a7bc 0b38 293e 660e f4bc
00000170: 8985 62bd 691e 323d 980d ddbc 41c3 933c
00000180: c1e8 f03d 6e1e 573d 7e3c c3bd d0eb ae3c
00000190: 3e26 c73d e68d c6bd 9b16 313d c5df 6d3d
000001a0: cf0d c4bd 9135 0dbd 22f6 32be 1f34 eebb
000001b0: ae9e a23d a690 03be 4c8c f3bd 0740 cf3d
000001c0: 5d40 5bbd 5530 05be 8905 17be af00 1d3d
000001d0: c825 6c3d 7dfb 1bbe 93f0 e63d a7f6 243e
000001e0: 7769 a0bc b3f9 04be 72d9 debc c1db 7ebb
000001f0: 7110 1b3e 490c 41be 2508 c5ba ef3d 1e3e
00000200: e166 fbbd f212 893d df98 bdbd 6b53 093e
00000210: df0f 0c3e 48f7 87ba 4ca0 f6bc 53d4 8b3d
00000220: 37a7 4fbe 72c6 b03d 78be 27bd c690 093a
00000230: 28d3 da3d f2f8 2d3e 56e0 8fbb 18c9 e0bd
00000240: 9071 3c3d 1d99 cebd 2dbd 93bd 841f 923d
00000250: 165c 8c3d 9325 16be fdcd bcbc fcca 8abb
00000260: 81e7 8ebd 9797 4abd 45a1 143e cccf 45bd
00000270: 1d13 253e 5537 bebd cc70 05bd b222 19bc
00000280: f1e4 b13c c5e9 f63c 8cb1 1e3e 5133 7bbd
00000290: c33d d5bb 499b 343d 4955 fcbd 4419 8f3b
000002a0: 840b 46bd 0680 8e3d d12e 7b3c 3df5 bdbd
000002b0: 9313 173d b430 053d a83b 133e 466e 46bd
000002c0: 2104 aabd f405 14be 2ce1 21be fa17 a2bb
000002d0: eb2d 8f3d f334 1d3d 3dcf a23c 335f c33c
000002e0: 01db d7bc 33ca efbb 1d70 243d 23a9 643d
000002f0: 01ce 31bd d920 453d 53a3 c53b 9655 8fbd
00000300: fe70 adbc 7c22 a8bd 7121 5f3d 9844 3dbe
00000310: 7654 013e cce5 b93d b7d1 11bd 8d18 ac3b
00000320: 5661 1d3c 1d56 413e d553 13be c6da 2e3d
00000330: f95e 473d 9abd e63c d313 d1bd c9ca 253e
00000340: 042b c83d aa14 02be 16c5 753d 8131 023e
00000350: 8335 1f3d 3d3c 23bd 446c ac3d 64be cabb
00000360: 5336 2d3e 5281 0c3e 1eb7 cbbd 05fa 2abd
00000370: 4c9b 063e 59dc 3fbd f265 0cbc c6fa 843d
00000380: 386e fe3d 3f88 56bd 64f2 cb3b f234 d2bd
00000390: 9333 063e a0ae 2abe 4223 973d 992f 91bd
000003a0: 947f 393d 839a 023e f1b5 873d 519d 00be
000003b0: 0f06 063e d335 f93c 588f 243d a1a1 9fbd
000003c0: d3b9 213e b6b7 3ebe 36f8 6a3d fd98 ef3c
000003d0: 2374 c7bc c421 523d ae6d d0bd bbfa b2bd
000003e0: 62d9 d93d e812 053d a0db ad3c a46a a7bc
000003f0: b37d 38bd 9d52 123d 9480 d9ba 566f 02be

embedding_proj.bias f4 [96]
0.0038958353 0.0095191905 0.0056115105 0.0050184154 -0.0005790972 -0.0020492517 0.0010079409 0.0010495252
-0.0053523052 0.006153456 0.0020354968 -0.00045725875 0.002413306 0.004301191 -0.012405615 0.0031232054
0.00022011028 -0.0019906242 -0.00019129695 -0.00055637787 -0.0068215895 0.0011187504 -0.0033709381 -0.001998277
0.001689052 0.009010309 -0.003282571 0.0010075317 -0.0066339783 -0.0035102433 -0.005324013 -0.0022028503
0.00018734409 0.005561365 -0.0034014431 -0.0029324635 -0.008391589 0.005284765 0.012377682 0.0015611083
0.0026323637 0.00670376 0.00063735055 0.0067228233 0.004805498 -0.003939106 -0.0048760017 -0.0034475985
0.007693957 -0.0038874957 0.0028101068 0.0023340627 0.0011271286 0.0006092595 -0.0043981783 -0.0012089446
-0.000567888 -0.0033599245 0.001005953 -0.001336011 0.0049050325 0.0047334116 -0.001665505 0.0031166074
-0.00674373 0.004521442 0.0007889501 0.0048501967 0.002929817 -0.00085054804 0.002316901 0.0030149852
-0.0011027782 0.009028668 -0.007408324 0.0033536025 -0.0015270193 -0.0009773425 0.008178087 -0.0026941164
0.00012278008 -0.0076074833 -0.007895128 0.0015856699 -0.0010582117 -0.0014102777 0.0018949794 0.0042226547
0.0028208662 -0.0034747028 -0.010272181 0.0017423729 -0.0047451053 0.00062369194 0.00023364862 -0.004600788
00000000: 4551 7f3b 61f6 1b3c c3e0 b73b 8571 a43b
00000010: 8ece 17ba bd4c 06bb e21c 843a 3990 893a
00000020: 6462 afbb eea2 c93b f865 053b 3bbc efb9
00000030: 8e28 1e3b 01f1 8c3b ec40 4bbc b1ae 4c3b
00000040: 67cd 6639 2275 02bb e296 48b9 e3d9 11ba
00000050: a487 dfbb 09a3 923a f5ea 5cbb 86f5 02bb
00000060: 2e63 dd3a fa9f 133c 6720 57bb 270f 843a
00000070: d861 d9bb 1c0c 66bb 0f75 aebb b25d 10bb
00000080: cc71 4439 1c3c b63b bfea 5ebb 932e 40bb
00000090: e07c 09bc d22b ad3b c3cb 4a3c 1a9e cc3a
000000a0: bc83 2c3b 37ab db3b df13 273a 214b dc3b
000000b0: 7077 9d3b 9e13 81bb dec6 9fbb 1bf1 61bb
000000c0: 971d fc3b 5bc5 7ebb c529 383b 13f7 183b
000000d0: 29bc 933a b7b6 1f3a 981e 90bb 7375 9eba
000000e0: 52de 14ba 2e32 5cbb 2eda 833a 171d afba
000000f0: 65ba a03b bc1a 9b3b 134d daba ff3f 4c3b
00000100: 82fa dcbb 9b28 943b 8cd1 4e3a 66ee 9e3b
00000110: 2c02 403b 50f7 5eba 26d7 173b 0f97 453b
00000120: 198b 90ba faec 133c 87c1 f2bb 1dc8 5b3b
00000130: 4426 c8ba 2c1a 80ba 62fd 053c c68f 30bb
00000140: 87be 0039 3248 f9bb 915a 01bc 41d6 cf3a
00000150: b1b3 8aba 11d9 b8ba f560 f83a 325e 8a3b
00000160: 48de 383b d7b7 63bb a64c 28bc 5560 e43a
00000170: d47c 9bbb 427f 233a 93ff 7439 35c2 96bb

categorical_proj.weight f4 [17, 17]
-0.42168605 -0.2849951 0.14575739 0.27393013 0.14671281 -0.29298416 -0.079171255 0.35510603
-0.13921368 0.3106981 -0.4250615 0.3858542 0.54375595 0.102096744 -0.22795106 0.17901196
0.13452119 0.46986774 -0.12558301 -0.02179217 0.1644615 0.11514524 -0.35410953 0.3591681
0.2880985 -0.3048893 -0.0059362547 0.45346054 -0.3110954 -0.10614194 0.37540507 0.018728184
-0.21724465 0.3213283 -0.4321639 0.20241465 -0.07361591 0.07506016 0.19170716 0.5848496
0.26842958 0.15109341 0.08224997 0.16749206 -0.0033523845 0.29355848 -0.64828056 0.082280494
0.26312712 -0.11506901 -0.16512945 -0.59461033 0.23776601 0.28367928 -0.10158979 -0.09189277
0.25168642 -0.058806486 0.11090827 -0.11991134 -0.0539023 -0.18834893 0.22533698 -0.38700086
-0.30343056 -0.30646807 -0.09229017 0.2548303 0.18129341 -0.32892898 0.09067551 -0.16467261
0.10552558 -0.20112193 -0.2871874 0.07994612 0.1008902 0.055462603 0.58722126 0.23961234
-0.31243515 -0.06227862 -0.32228318 0.15493797 -0.22786549 -0.4045604 0.031901084 -0.10861159
0.3301987 0.27117062 -0.11245535 -0.16137742 0.4567735 -0.18130732 0.33235016 -0.429051
0.14435233 -0.7083223 0.36617714 0.038454045 0.02369239 0.12753572 0.63283813 -0.024830513
0.34040174 -0.11049255 0.038445204 0.35229084 -0.12353825 0.10190906 -0.09564231 0.04537247
0.2878574 0.11212116 -0.4353547 0.0168276 -0.32434416 -0.34874687 0.054926485 -0.041167933
-0.042665683 0.25199652 0.19326271 0.34450275 0.6059508 -0.053616054 0.13861352 0.40568063
-0.27811232 -0.3148063 0.1476192 0.6912977 -0.18643261 0.058716808 -0.0066258125 -0.22645925
-0.46347496 0.43188006 0.1696208 -0.07941328 0.28870884 0.06749898 -0.057503533 -0.28594428
-0.21251224 0.06549835 -0.33366016 0.09742799 0.7840398 -0.3815232 0.11313047 -0.15278368
-0.26925352 -0.018219767 0.14485484 0.17253649 -0.08974761 -0.028636616 0.08156273 -0.11701058
-0.023442104 -0.24783139 -0.267103 -0.4565267 -0.30026507 -0.07563265 0.3440058 -0.1365233
-0.19663562 -0.009751548 -0.5518031 0.14580448 -0.09751623 -0.24359067 0.11403607 -0.115581326
0.25232413 -0.1352428 -0.21019888 -0.21115415 -0.66551715 0.14689597 -0.24793044 0.19786224
0.37879935 0.44872043 0.16282828 -0.27438682 -0.0030964059 -0.090360165 0.14527133 -0.07019594
-0.45344743 0.2757059 0.21473023 0.28396964 -0.16451363 -0.07607537 -0.4008949 0.24467716
-0.091644965 0.4593925 0.026832161 0.04170302 -0.32871965 -0.34458965 -0.38054484 0.06275719
0.20971738 0.3383496 0.1404148 -0.42777923 -0.2092775 -0.25928533 -0.540664 0.038362492
-0.06539377 -0.08835059 -0.2994399 0.017543456 0.3441246 -0.46499363 0.014102188 -0.18984799
0.20573133 -0.11565987 0.43953258 0.31143433 0.42452437 -0.11624515 0.35679108 0.095326714
0.21813343 0.48510274 0.07852305 -0.06146243 0.36829364 -0.060662206 0.295614 -0.23846895
0.27135947 0.12831655 -0.10975298 -0.14002408 -0.16955295 -0.24811338 0.0040546227 0.2212747
-0.59928536 -0.29107213 -0.4216909 0.3860606 -0.3575303 -0.18990977 0.19342616 0.0959542
00000000: 3ce7 d7be e1ea 91be 6d41 153e 9240 8c3e
00000010: e23b 163e 0502 96be 8a24 a2bd 75d0 b53e
00000020: 088e 0ebe d213 9f3e a9a1 d9be af8e c53e
00000030: 9733 0b3f 1918 d13d 016c 69be e94e 373e
00000040: ecbf 093e 8192 f03e d598 00be 7e85 b2bc
00000050: 9868 283e 45d1 eb3d d84d b5be e2e4 b73e
00000060: a681 933e 731a 9cbe ea84 c2bb fb2b e83e
00000070: e547 9fbe f260 d9bd 1835 c03e d96b 993c
00000080: 6275 5ebe 2585 a43e 9644 ddbe c945 4f3e
00000090: f0c3 96bd 24b9 993d e24e 443e b4b8 153f
000000a0: 9a6f 893e 3bb8 1a3e ac72 a83d 0a83 2b3e
000000b0: aeb3 5bbb 4c4d 963e b7f5 25bf ad82 a83d
000000c0: 99b8 863e 4da9 ebbd b217 29be 6238 18bf
000000d0: ef78 733e 693e 913e 4f0e d0bd 4732 bcbd
000000e0: 0bdd 803e 12df 70bd e023 e33d 1494 f5bd
000000f0: a8c8 5cbd 8bde 40be bdbe 663e fa24 c6be
00000100: 405b 9bbe 62e9 9cbe a102 bdbd 1e79 823e
00000110: fba4 393e 6169 a8be 15b4 b93d f09f 28be
00000120: cc1d d83d e8f2 4dbe 3a0a 93be cbba a33d
00000130: 859f ce3d c12c 633d 2254 163f f05c 753e
00000140: 80f7 9fbe de17 7fbd 4d02 a5be 0fa8 1e3e
00000150: 9255 69be 8a22 cfbe b6aa 023d c16f debd
00000160: ce0f a93e e0d6 8a3e fe4e e6bd 1f40 25be
00000170: 37de e93e a0a8 39be cd29 aa3e 93ac dbbe
00000180: 19d1 133e 9c54 35bf 927b bb3e fd81 1d3d
00000190: 8b16 c23c b998 023e ae01 223f 5c69 cbbc
000001a0: 2349 ae3e eb49 e2bd b878 1d3d 775f b43e
000001b0: 9f01 fdbd b2b5 d03d 1ee0 c3bd 7cd8 393d
000001c0: 0c62 933e c79f e53d d0e6 debe 09da 893c
000001d0: 7010 a6be f38e b2be 98fa 603d b59f 28bd
000001e0: 36c2 2ebd b005 813e a9e6 453e aa62 b03e
000001f0: 971f 1b3f 829c 5bbd b4f0 0d3e 5fb5 cf3e
00000200: bd64 8ebe 4b2e a1be 7d29 173e e3f8 303f
00000210: 31e8 3ebe 0981 703d 581d d9bb efe4 67be
00000220: 974c edbe 621f dd3e 13b1 2d3e 6ea3 a2bd
00000230: a5d1 933e e83c 8a3d d388 6bbd 4a67 92be
00000240: cf9c 59be 0024 863d 81d5 aabe 5388 c73d
00000250: d5b6 483f 0257 c3be f3b0 e73d 5373 1cbe
00000260: 99db 89be 9f41 95bc d454 143e 68ad 303e
00000270: 98cd b7bd 5697 eabc 5c0a a73d 3ea3 efbd
00000280: a809 c0bc 83c7 7dbe b9c1 88be debd e9be
00000290: 58bc 99be 4ae5 9abd 8721 b03e c4cc 0bbe
000002a0: d95a 49be f5c4 1fbc f842 0dbf c54d 153e
000002b0: 97b6 c7bd d56f 79be be8b e93d e7b5 ecbd
000002c0: a130 813e 177d 0abe 603e 57be cb38 58be
000002d0: 555f 2abf e66b 163e 7ae1 7dbe 669c 4a3e
000002e0: fdf1 c13e afbe e53e 75bc 263e 6e7c 8cbe
000002f0: 12ed 4abb c00e b9bd 02c2 143e e4c2 8fbd
00000300: 432a e8be 5329 8d3e 3ee2 5b3e 7864 913e
00000310: 4376 28be 67cd 9bbd 1942 cdbe a68c 7a3e
00000320: 5bb0 bbbd 7e35 eb3e 1fcf db3c c9d0 2a3d
00000330: f14d a8be 0e6e b0be c6d6 c2be d786 803d
00000340: 27c0 563e 293c ad3e e6c8 0f3e e105 dbbe
00000350: d74c 56be 0cc1 84be f568 0abf fd21 1d3d
00000360: 2bed 85bd 27f1 b4bd 3050 99be 4bb7 8f3c
00000370: 1931 b03e a513 eebe dd0c 673c 8367 42be
00000380: 3cab 523e 15df ecbd 6a0a e13e 5274 9f3e
00000390: 425b d93e f011 eebd 52ad b63e a73a c33d
000003a0: 5f5e 5f3e 635f f83e b1d0 a03d 07c0 7bbd
000003b0: fc90 bc3e ef78 78bd b85a 973e 3431 74be
000003c0: a1ef 8a3e 6a65 033e 2cc6 e0bd 7962 0fbe
000003d0: 4a9f 2dbe 6f11 7ebe a4dc 843b d695 623e
000003e0: c46a 19bf 6807 95be dfe7 d7be bca9 c53e
000003f0: 360e b7be b577 42be 8211 463e a383 c43d

categorical_proj.bias f4 [17]
-0.004887134 -0.00013721296 -0.0017907992 -0.0045941807 0.0025883175 0.021841515 -0.008311378 0.00093916577
0.012478479 0.0027081876 -0.009032984 0.008283101 0.015373786 -0.007424991 0.0028676856 -7.618511e-05
-0.0050620837
00000000: 4024 a0bb d3e0 0fb9 40b9 eaba c88a 96bb
00000010: c3a0 293b faec b23c 722c 08bc 5932 763a
00000020: 8972 4c3c d97b 313b 15ff 13bc d8b5 073c
00000030: 55e2 7b3c 574d f3bb c8ef 3b3b 92c5 9fb8
00000040: d6df a5bb

combine_proj.weight f4 [128, 113]
-0.09602091 0.099254 0.07688613 -0.048087094 -0.04109128 0.067826994 0.09468329 -0.057151172
0.10425685 0.019598925 0.16155529 0.12058926 0.08502877 0.13645372 -0.10592118 -0.16645828
0.024689185 0.04874947 -0.090276755 -0.021388048 0.032081872 0.15752394 0.07256284 0.14879248
-0.048969213 -0.027984863 0.06309922 -0.0563767 -0.06059569 0.08537015 0.009491681 0.054700337
-0.14523508 -0.1305886 0.055266246 -0.084793255 0.07163113 0.09195182 -0.07036336 -0.08503756
-0.06864593 -0.061707944 0.08416581 0.062123124 -0.05920365 0.16277488 0.045155775 0.06964231
0.08751513 -0.1337325 -0.09460202 0.014574054 0.026384132 0.024496596 0.1064781 0.07219863
-0.10337988 0.07644317 0.071482055 -0.08959188 -0.1686971 0.0724631 0.1034434 0.11724667
-0.09361952 0.11008711 0.04528624 -0.13063613 -0.08940949 0.02044849 0.06353899 0.035667144
-0.1707412 0.021609386 0.10418737 0.0792118 0.07882287 0.12780106 -0.11937293 0.012292912
-0.0074541 -0.00080591644 0.04095862 0.0953148 -0.13678923 -0.104004554 0.035936344 -0.11928905
0.024720987 0.123001106 -0.052154265 -0.12977509 -0.039813563 -0.13369635 -0.104829356 -0.039352465
-0.1243409 0.0977657 0.06722753 -0.16888109 0.09487155 -0.07523149 0.04532869 -0.0075639877
-0.15000352 -0.07745922 -0.012797793 -0.07357149 0.022136195 -0.16065195 0.18353035 -0.043201584
0.06915957 0.05947429 0.0675195 0.024100283 -0.054604948 -0.12789343 0.10100292 -0.08904276
-0.088238314 -0.041129284 0.039722234 -0.09211724 0.072709545 0.048635967 0.037993506 0.062593386
-0.08386329 0.10055264 -0.017463025 -0.15480225 0.030828182 -0.071905695 0.06783368 0.14803359
0.013852894 -0.060703043 -0.13677879 -0.063247815 -0.13750167 -0.13532096 -0.06918553 0.10959542
0.06646324 0.13806143 0.06484205 -0.05556225 -0.0482022 0.081152566 0.02293468 0.13277832
-0.08312047 0.049439378 -0.06667935 -0.1100867 -0.071751885 -0.12716076 0.1052837 0.14579308
0.13272381 -0.042563237 0.10096416 0.002497281 -0.16453743 -0.12761368 -0.096815154 -0.04305125
0.1511735 -0.090857066 0.12289812 -0.031127587 -0.047473643 0.09098341 -0.062729456 0.124831215
-0.016207341 0.14620943 -0.078496926 0.08236468 0.13685046 0.106898464 0.048700325 0.1002134
-0.05365668 -0.023546206 -0.13607661 0.11073634 0.09316215 0.006962062 -0.025467267 0.03036513
-0.1505202 0.09572105 0.010044401 0.044257104 0.07886713 -0.1293045 -0.043398593 0.038314294
0.06466783 -0.078206435 -0.062173374 -0.034702428 0.047765028 -0.052099664 0.12500452 -0.13653994
0.12108373 0.10017368 0.1916096 0.1073675 0.0034002373 0.10538221 0.22105284 -0.14654064
-0.21980426 -0.13542756 0.16599211 -0.015430729 0.14411342 0.039022658 -0.18283266 -0.010258795
-0.02969409 -0.10605369 0.092597395 0.014870764 0.15092686 -0.036043014 0.08554635 0.113078035
-0.10224016 -0.13496083 0.12503254 -0.13833833 -0.05474965 0.0017929742 0.036840163 -0.08760219
0.06714518 -0.013308174 0.039942432 0.01698999 -0.10142572 0.10290194 0.13736916 -0.12304408
-0.031890802 0.12236511 0.15626252 -0.07454986 0.010936525 -0.13793966 -0.042647656 0.14945117
00000000: 9ca6 c4bd ae45 cb3d 7a76 9d3d f9f6 44bd
00000010: 544f 28bd e1e8 8a3d 50e9 c13d 5917 6abd
00000020: 9e84 d53d ed8d a03c c06e 253e 80f7 f63d
00000030: 9023 ae3d 86ba 0b3e 34ed d8bd 0a74 2abe
00000040: f940 ca3c 86ad 473d 05e3 b8bd fd35 afbc
00000050: 4868 033d f54d 213e d49b 943d 0e5d 183e
00000060: f193 48bd 8340 e5bc 2a3a 813d 41eb 66bd
00000070: 3033 78bd 8cd6 ae3d ff82 1b3c 760d 603d
00000080: 81b8 14be 05b9 05be dc5e 623d 16a8 adbd
00000090: 58b3 923d 3c51 bc3d aa1a 90bd 2c28 aebd
000000a0: 3d96 8cbd 78c1 7cbd 205f ac3d d174 7e3d
000000b0: 877f 72bd 75ae 263e 43f5 383d a1a0 8e3d
000000c0: 223b b33d 2cf1 08be b4be c1bd 03c8 6e3c
000000d0: 8923 d83c 16ad c83c 3111 da3d e0dc 933d
000000e0: d5b8 d3bd 3d8e 9c3d 2f65 923d f37b b7bd
000000f0: efbe 2cbe 8967 943d 22da d33d 061f f03d
00000100: 97bb bfbd 5a75 e13d 107e 393d 7ac5 05be
00000110: 531c b7bd 9783 a73c bb20 823d b617 123d
00000120: c8d6 2ebe 2b06 b13c 3060 d53d cc39 a23d
00000130: e36d a13d 48de 023e cb79 f4bd 3668 493c
00000140: 8641 f4bb 2344 53ba 3ac4 273d 6834 c33d
00000150: 7a12 0cbe 5700 d5bd fd31 133d d14d f4bd
00000160: ab83 ca3c 01e8 fb3d b69f 55bd c3e3 04be
00000170: 8c13 23bd b2e7 08be c6b0 d6bd 0d30 21bd
00000180: 71a6 febd 6239 c83d 96ae 893d 2aef 2cbe
00000190: 044c c23d f812 9abd 94aa 393d 54db f7bb
000001a0: 869a 19be f1a2 9ebd d6ad 51bc a6ac 96bd
000001b0: f756 b53c f281 24be 61ef 3b3e 25f4 30bd
000001c0: 88a3 8d3d 509b 733d aa47 8a3d f56d c53c
000001d0: 70a9 5fbd 7ff6 02be 9eda ce3d 0d5c b6bd
000001e0: 4ab6 b4bd 2e77 28bd c8b3 223d f7a7 bcbd
000001f0: bee8 943d 8236 473d 149f 1b3d f630 803d
00000200: 84c0 abbd 8bee cd3d 9e0e 8fbc 7b84 1ebe
00000210: 628b fc3c 4b43 93bd 62ec 8a3d 1e96 173e
00000220: 40f7 623c c1a3 78bd bd0f 0cbe 1288 81bd
00000230: 3dcd 0cbe 9491 0abe 25b1 8dbd 9073 e03d
00000240: e11d 883d fa5f 0d3e e9cb 843d 3e95 63bd
00000250: ac6f 45bd 5133 a63d 83e1 bb3c 0af7 073e
00000260: 113b aabd f280 4a3d 2f8f 88bd 2375 e1bd
00000270: a7f2 92bd 6e36 02be fb9e d73d c84a 153e
00000280: c0e8 073e ca56 2ebd 4cc6 ce3d 6ca9 233b
00000290: 807c 28be 29ad 02be 0647 c6bd 8256 30bd
000002a0: 3acd 1a3e 4513 babd 02b2 fb3d 48ff febc
000002b0: b973 42bd 8355 ba3d 4d78 80bd 82a7 ff3d
000002c0: 42c5 84bc edb7 153e ffc2 a0bd d0ae a83d
000002d0: 8722 0c3e 95ed da3d fe79 473d af3c cd3d
000002e0: 1bc7 5bbd f9e3 c0bc ab57 0bbe bcc9 e23d
000002f0: cccb be3d 0222 e43b bba0 d0bc 4bc0 f83c
00000300: f821 1abe 6609 c43d 4591 243c f046 353d
00000310: 1785 a13d 6668 04be b9c2 31bd 73ef 1c3d
00000320: 9170 843d b22a a0bd 82a9 7ebd 2224 0ebd
00000330: 43a5 433d 7566 55bd 2f01 003e 20d1 0bbe
00000340: bffa f73d dc27 cd3d 4f35 443e 7ee3 db3d
00000350: 84d6 5e3b a1d2 d73d ad5b 623e c00e 16be
00000360: 5e14 61be 86ad 0abe d6f9 293e 2bd1 7cbc
00000370: 7892 133e 39d6 1f3d 7c38 3bbe 8114 28bc
00000380: 0541 f3bc ad32 d9bd b4a3 bd3d 81a4 733c
00000390: 928c 1a3e d7a1 13bd ed32 af3d 7595 e73d
000003a0: 4a63 d1bd 2c33 0abe 8808 003e 90a8 0dbe
000003b0: 2b41 60bd 3b02 eb3a b6e5 163d c768 b3bd
000003c0: 6a83 893d 870a 5abc ad9a 233d 972e 8b3c
000003d0: 4ab8 cfbd 41be d23d 80aa 0c3e 89fe fbbd
000003e0: ee9f 02bd 8f9a fa3d 4803 203e 99ad 98bd
000003f0: 1c2f 333c 0e40 0dbe 4faf 2ebd ba09 193e

combine_proj.bias f4 [128]
-0.000745683 -0.00082245027 0.00040854074 -0.0001365782 0.0064974464 -0.0067998874 0.0044884025 -0.0012878486
0.0021903005 0.0024909743 -0.0006155588 -0.002255261 0.00096592074 -0.0006868328 -0.00018313526 -0.0012344663
-0.00088138855 -0.0024855745 0.0046984577 -0.0021418822 0.0009815651 0.006963351 0.00011627386 0.00417708
0.0032250904 0.0033564721 -0.00067070103 -0.0011541923 0.00035660926 -0.0050483188 -0.002181657 0.003908203
-0.00017561272 -0.0019976718 0.0017069103 0.0027665305 -0.0026283476 0.00595753 -0.002343739 0.0026821306
-0.003614005 -0.0010256078 -0.00091597403 -0.00062568247 0.002000881 0.0018020795 -0.0037762423 -0.0038898503
-0.0031509283 0.0035279754 -0.0012437135 0.0027234557 -0.00081472326 -0.0039771916 0.000890417 0.0027147208
0.0048890277 0.0023331016 -0.0017842584 -0.0058072894 8.050986e-05 -0.0025890109 0.0016780697 0.002284625
-0.00327769 0.001056515 0.0010761361 -0.005224588 -0.006003535 -0.0036810057 -0.0013505816 -0.0074788863
0.008641776 -0.0010106602 0.003423005 -0.0020309584 -0.0018386394 -0.0026274952 -0.00012646703 0.0007752216
-0.0022637423 -0.0011649684 -0.0012460857 -0.0031468552 0.0036452154 0.0023375065 -0.0015408803 -0.004505015
-0.006082181 -0.0015968002 -0.003431567 0.0025790478 0.0010742118 -0.00038518457 -0.002971761 -0.00031984624
0.0031255318 8.151126e-05 0.0009548152 -0.0022039146 -0.0034787066 -0.002656511 0.0022505776 0.008566966
-0.00084166025 -0.004420456 0.004150807 -0.0038667775 0.0016153171 -0.0037224516 0.00014458103 -0.0019144401
0.0004034495 0.0033677449 0.005530354 -0.00015773675 -0.0070743244 0.00963482 -0.0010283098 0.00045957748
0.0060516284 0.004793466 -0.0005646427 -0.0005785239 0.002538863 0.0026326384 -0.0038288482 0.0021604325
00000000: f079 43ba b499 57ba 6931 d639 6e36 0fb9
00000010: 88e8 d43b 97d1 debb 7313 933b 07cd a8ba
00000020: 258b 0f3b 9d3f 233b 745d 21ba 00cd 13bb
00000030: d835 7d3a 920c 34ba ff07 40b9 d1cd a1ba
00000040: fc0c 67ba 05e5 22bb 85f5 993b d25e 0cbb
00000050: dca7 803a d22c e43b 0ed8 f338 e3df 883b
00000060: 0a5c 533b 42f8 5b3b fcd1 2fba 4448 97ba
00000070: 49f7 ba39 5e6c a5bb 21fa 0ebb 6210 803b
00000080: ae24 38b9 5feb 02bb 68ba df3a ae4e 353b
00000090: 5b40 2cbb 6237 c33b 6a99 19bb afc6 2f3b
000000a0: f1d8 6cbb b06d 86ba fa1d 70ba d704 24ba
000000b0: 3621 033b c133 ec3a d57a 77bb dcec 7ebb
000000c0: ce7f 4ebb 9b35 673b 1a04 a3ba 017c 323b
000000d0: 2793 55ba 1a53 82bb e06a 693a 75e9 313b
000000e0: 2334 a03b f3e6 183b c7dd e9ba 134b bebb
000000f0: 67d7 a838 65ac 29bb adf2 db3a a6b9 153b
00000100: 83ce 56bb c37a 8a3a 230d 8d3a 0533 abbb
00000110: 4db9 c4bb 073d 71bb 0006 b1ba 7211 f5bb
00000120: 3c96 0d3c 2178 84ba 7f54 603b d419 05bb
00000130: 80fe f0ba 0e32 2cbb 3c9c 04b9 3e38 4b3a
00000140: 4b5b 14bb dab1 98ba b353 a3ba 783b 4ebb
00000150: 91e4 6e3b da30 193b 5df7 c9ba ce9e 93bb
00000160: 084d c7bb b94b d1ba 24e4 60bb 3e05 293b
00000170: 91cc 8c3a 99f2 c9b9 e0c1 42bb 09b1 a7b9
00000180: b9d5 4c3b 06f1 aa38 904c 7a3a 8d6f 10bb
00000190: 03fb 63bb dc18 2ebb 6d7e 133b 765c 0c3c
000001a0: dda2 5cba 79d9 90bb 7e03 883b c369 7dbb
000001b0: 0cb9 d33a 60f4 73bb ad9a 1739 f3ed faba
000001c0: 1386 d339 62b5 5c3b f937 b53b 2366 25b9
000001d0: bccf e7bb 5ddb 1d3c 5ac8 86ba 72f3 f039
000001e0: bd4c c63b 8212 9d3b 8804 14ba 15a8 17ba
000001f0: 0e63 263b 5888 2c3b 6aed 7abb 0b96 0d3b

fc1.weight f4 [128, 128]
-0.02773078 -0.16531461 -0.1752522 -0.2118451 -0.024923384 -0.076523036 0.13771798 0.1058782
0.05456896 -0.11671358 -0.13077652 0.08121908 -0.04635674 0.033762686 0.090523645 -0.17155062
-0.034345403 -0.16283509 0.10333212 -0.013104268 -0.069026016 -0.05204359 9.8391014e-05 0.28139082
-0.07862726 -0.14939874 0.1407834 0.09510472 -0.07569964 0.15799876 0.017933251 -0.09414389
-0.03914689 -0.08323676 -0.088977754 0.064294554 -0.13054554 -0.1448113 0.041910347 -0.11749032
-0.11773086 -0.1261325 0.05125999 -0.1269151 0.029267935 -0.026157284 0.15757167 -0.12244908
0.08376055 -0.13625033 -0.022660175 0.14256598 0.05907364 0.011273111 0.102122545 0.06262074
-0.041453492 -0.07887174 -0.05341831 0.07501043 0.15816885 -0.06425367 -0.0005859554 0.08044187
-0.04775097 -0.040530156 -0.16083553 -0.095732614 -0.03128998 -0.06030082 -0.11490381 0.029425673
-0.13819541 0.17541765 0.10143459 0.097697474 -0.061054155 0.10073358 0.10451634 -0.047071192
-0.11850115 -0.035063714 -0.08515945 -0.052871242 -0.076954015 -0.120113134 -0.025222057 -0.20108537
0.15606797 0.02103698 -0.10841228 -0.1194723 -0.03656135 -0.20007372 -0.020214563 0.10708137
-0.17366539 0.009580409 -0.046303052 0.10218032 -0.1344364 -0.061762318 0.14510559 -0.1093332
0.025954295 0.015023862 0.0009369426 -0.0075981496 0.047065336 0.14090157 -0.050828576 -0.084320016
-0.03728922 0.09221545 0.05108532 -0.03962022 -0.16004042 -0.06647631 0.025709556 0.11413827
-0.017628638 -0.0138609875 0.061956126 -0.10794424 -0.10628632 -0.002843193 -0.06921121 -0.17118229
-0.17466739 -0.022413084 0.10999255 0.0746029 -0.21264239 0.11739368 -0.16044149 -0.13267994
-0.07014784 -0.05036812 -0.10141977 0.11323638 -0.13955018 0.059928715 -0.0273471 0.102811284
0.15685533 -0.1032378 -0.06780714 0.17180878 -0.09524233 0.11639485 0.07098271 -0.04695946
-0.11049841 0.0024097806 -0.056796964 -0.05654988 -0.020607827 -0.14603731 0.12706281 -0.17420073
-0.01477581 -0.0689495 -0.014911297 -0.084024854 -0.15817761 0.0074699707 0.103565365 0.07084663
0.103384964 -0.14258301 0.0039748377 0.10225838 0.10952253 -0.15947938 0.18257417 -0.121295735
-0.075723015 0.18797083 0.05315719 -0.1337025 -0.03468935 -0.1165223 -0.029981855 0.0774694
-0.029563555 0.2568643 0.03651151 0.23723847 -0.05508185 -0.11224234 -0.143824 -0.13944738
-0.0416876 -0.030419735 -0.16139393 -0.07954283 0.05938613 -0.10406291 -0.006457156 0.052512094
-0.18614498 0.024649885 -0.16871046 0.2580789 -0.022603145 -0.017608004 -0.031524003 0.21616113
0.05661274 0.050697494 0.10966243 0.10485177 -0.055466942 -0.11183025 0.0982894 0.079054564
0.1317571 0.15289694 -0.069415845 0.019914197 -0.009437776 -0.04997761 -0.053591482 -0.044996586
0.061325077 0.07893346 -0.01782378 0.10585016 0.06492872 0.023742229 -0.07568335 -0.02991364
0.0051866383 0.091560304 -0.06581845 0.10650853 0.029319182 -0.16524225 -0.047106374 -0.012373438
0.046560552 -0.090438105 -0.13266757 -0.011987146 -0.19735326 -0.011176617 -0.22561762 0.13509859
-0.050171297 0.038887426 -0.055196013 0.16313566 0.034377005 0.035834208 0.012752199 -0.026762407
00000000: a92b e3bc 3c48 29be 5075 33be eced 58be
00000010: 202c ccbc 1cb8 9cbd f105 0d3e abd6 d83d
00000020: b483 5f3d 8807 efbd 48ea 05be 3056 a63d
00000030: 91e0 3dbd be4a 0a3d 7664 b93d f7aa 2fbe
00000040: c4ad 0cbd 3ebe 26be ca9f d33d 49b3 56bc
00000050: 835d 8dbd a92b 55bd 4657 ce38 7512 903e
00000060: 5407 a1bd fcfb 18be 8629 103e 43c6 c23d
00000070: 6a08 9bbd 6dca 213e c1e8 923c 83ce c0bd
00000080: 7d58 20bd 0978 aabd f839 b6bd ddac 833d
00000090: bbad 05be 6a49 14be 2faa 2b3d c49e f0bd
000000a0: e11c f1bd e128 01be fff5 513d 08f6 01be
000000b0: 4fc3 ef3c cd47 d6bc 785a 213e 95c6 fabd
000000c0: a78a ab3d 3585 0bbe d5a1 b9bc d1fc 113e
000000d0: 33f7 713d dbb2 383c a025 d13d 4d3f 803d
000000e0: 23cb 29bd 8287 a1bd 28cd 5abd 119f 993d
000000f0: 04f7 213e 6e97 83bd cd9a 19ba b5be a43d
00000100: 8596 43bd f302 26bd 12b2 24be 760f c4bd
00000110: ec29 00bd fefd 76bd b052 ebbd 1c0e f13c
00000120: 1983 0dbe afa0 333e f0bc cf3d 9d15 c83d
00000130: ec13 7abd 684d ce3d aa0c d63d b9cd 40bd
00000140: bbb0 f2bd f89e 0fbd 1468 aebd 848f 58bd
00000150: 119a 9dbd e0fd f5bd 7d9e cebc 53e9 4dbe
00000160: 48d0 1f3e bf55 ac3c 4207 debd e5ad f4bd
00000170: 5bc1 15bd 20e0 4cbe 0399 a5bc 7a4d db3d
00000180: 57d5 31be 26f7 1c3c 45a8 3dbd ea43 d13d
00000190: b2a9 09be 7cfa 7cbd 8f96 143e 16ea dfbd
000001a0: 1a9e d43c a526 763c 279d 753a e6f9 f8bb
000001b0: 95c7 403d 8048 103e a031 50bd f9af acbd
000001c0: 95bc 18bd 74db bc3d d73e 513d d048 22bd
000001d0: a3e1 23be bb24 88bd d99c d23c 53c1 e93d
000001e0: ef69 90bc 3219 63bc b5c5 7d3d df11 ddbd
000001f0: a4ac d9bd dd54 3abb 9bbe 8dbd 694a 2fbe
00000200: 02dc 32be a59b b7bc c643 e13d 68c9 983d
00000210: edbe 59be 196c f03d c64a 24be 40dd 07be
00000220: aca9 8fbd cd4e 4ebd 2bb5 cfbd 7ae8 e73d
00000230: 3ee6 0ebe d077 753d 0707 e0bc b98e d23d
00000240: af9e 203e 576e d3bd 78de 8abd a4ee 2f3e
00000250: 690e c3bd 6c60 ee3d 625f 913d 9058 40bd
00000260: fe4c e2bd 69ed 1d3b efa3 68bd d9a0 67bd
00000270: bfd1 a8bc ce8a 15be c11c 023e ad61 32be
00000280: 3d16 72bc 6535 8dbd 834e 74bc 3915 acbd
00000290: 50f9 21be a8c6 f43b 141a d43d 0a18 913d
000002a0: 7fbb d33d 4801 12be 5b3f 823b d76c d13d
000002b0: 594d e03d 904e 23be b9f4 3a3e e669 f8bd
000002c0: ab14 9bbd 6d7b 403e 5bbb 593d 4fe9 08be
000002d0: 6b16 0ebd 3ea3 eebd 829c f5bc 47a8 9e3d
000002e0: 452f f2bc b883 833e 188d 153d a4ee 723e
000002f0: 829d 61bd 50df e5bd 9946 13be 4bcb 0ebe
00000300: 9ec0 2abd cf32 f9bc 7344 25be 5ae7 a2bd
00000310: df3e 733d ef1e d5bd 8d96 d3bb ec16 573d
00000320: ca9c 3ebe 8eee c93c 6fc2 2cbe eb22 843e
00000330: 3b2a b9bc a93e 90bc 501f 01bd 5859 5d3e
00000340: c3e2 673d 2da8 4f3d b296 e03d 86bc d63d
00000350: 4e31 63bd 4207 e5bd f44b c93d 5ce7 a13d
00000360: 55eb 063e 0491 1c3e e529 8ebd 1923 a33c
00000370: e7a0 1abc 53b5 4cbd be82 5bbd 574e 38bd
00000380: 0130 7b3d dea7 a13d 2d03 92bc f8c7 d83d
00000390: 59f9 843d 107f c23c dfff 9abd 730d f5bc
000003a0: adf4 a93b f883 bb3d d3cb 86bd 2521 da3d
000003b0: c82e f03c 4435 29be 9df2 40bd f6b9 4abc
000003c0: 47b6 3e3d 9d37 b9bd 02da 07be bc65 44bc
000003d0: f916 4abe 211e 37bc 4e08 67be 4957 0a3e
000003e0: 6b80 4dbd 6c48 1f3d 3715 62bd 090d 273e
000003f0: e7ce 0c3d e4c6 123d 99ee 503c d63c dbbc

fc1.bias f4 [128]
0.00043427502 -0.0008234691 -0.0007534342 -0.003309322 0.0019944252 -0.0051548462 -0.0036174385 0.0015779074
0.0012269843 -0.0005103128 -0.0029800867 0.0035441949 0.004039997 -0.005942608 -4.4226064e-05 0.0026591434
-0.003869817 -0.0007371304 0.0016208952 0.0023510654 0.0001298947 0.0034754174 -0.002583632 -0.0018016918
-0.0026716345 -0.0017258639 0.00070580473 0.0059214383 -0.0008234024 -0.0013067983 -0.0031906907 -0.0026141277
0.00088915625 -0.0052373973 0.006291717 -1.08766435e-05 -0.00085630163 0.0037892235 0.0021800743 0.00057365856
-0.0040517263 -4.9327788e-05 -0.002646802 0.0009460153 -0.002726838 -0.0064632203 -0.0008913762 0.0038913337
-0.001976734 -3.4266355e-05 -0.0031856573 0.0032105602 -0.00086918904 0.0010971788 -0.0005523913 -0.0018237468
0.0045467503 -0.0054014083 0.0017214319 -0.0022114266 -2.8045477e-05 0.0014092049 -0.0007297527 0.0037547331
-0.0022092399 0.006331029 0.0021601303 -0.003382813 0.0054881433 0.0005187607 -0.0005807434 0.0003922365
0.0016546475 -0.0013220235 0.0020945186 1.3745454e-05 0.0034954902 -0.00029151503 0.0024105532 -0.0006941026
-0.00029456502 -0.0015929122 -1.6991855e-05 0.0052927225 -0.0025520895 0.0012336248 0.0024190526 0.0008741318
0.0023986679 -5.2893927e-05 0.0009801461 -0.0026380839 9.3287854e-05 -0.0037450702 -4.7853077e-06 0.003122467
0.0007357758 -0.002744018 -1.5156623e-05 0.0036162934 -0.0030398723 -0.00034401607 -0.0021861317 0.0008644089
0.0020924346 0.0019476514 3.1669604e-06 -0.0015141115 0.0045513767 0.00029497698 -0.0038150218 0.0033739924
-3.74147e-05 3.3427696e-05 0.003349146 -0.0027543698 0.0009936448 0.0035043561 -0.0008485159 -0.0030336282
-0.0018958895 -0.0043292353 0.0016226304 5.52689e-05 -0.0021129411 0.0004758546 9.160588e-05 -0.002531846
00000000: 68af e339 13de 57ba 1d82 45ba 36e1 58bb
00000010: e7b4 023b fce9 a8bb 8c12 6dbb c9d1 ce3a
00000020: c3d2 a03a 83c6 05ba 8f4d 43bb b945 683b
00000030: f361 843b 36ba c2bb 607f 39b8 0645 2e3b
00000040: c19c 7dbb fc3b 41ba 3874 d43a 5514 1a3b
00000050: 5834 0839 d4c3 633b 2752 29bb bf26 ecba
00000060: 9716 2fbb 6236 e2ba c105 393a a008 c23b
00000070: 9ad9 57ba e048 abba e81a 51bb c951 2bbb
00000080: 4416 693a 799e abbb bf2a ce3b d47a 36b7
00000090: 6e79 60ba 9f54 783b 94df 0e3b 9361 163a
000000a0: 58c4 84bb 4fe5 4eb8 f875 2dbb 03fe 773a
000000b0: c0b4 32bb 6cc9 d3bb 3fab 69ba bf05 7f3b
000000c0: 188c 01bb 38b9 0fb8 76c6 50bb 4368 523b
000000d0: 4ada 63ba 36cf 8f3a 5ace 10ba ca0a efba
000000e0: e8fc 943b 4cfe b0bb aba1 e13a 95ed 10bb
000000f0: 3443 ebb7 12b5 b83a e04c 3fba f811 763b
00000100: e5c8 10bb 8574 cf3b f990 0d3b 2fb2 5dbb
00000110: e2d5 b33b 71fd 073a 083d 18ba 18a5 cd39
00000120: c2e0 d83a bf47 adba 3144 093b 479c 6637
00000130: 9814 653b 7cd6 98b9 5ffa 1d3b 70f4 35ba
00000140: d96f 9ab9 44c9 d0ba bb89 8eb7 936e ad3b
00000150: f540 27bb 94b1 a13a f888 1e3b fe25 653a
00000160: f832 1d3b 6cda 5db8 3f78 803a b4e3 2cbb
00000170: 89a3 c338 da6f 75bb 7b91 a0b6 4ea2 4c3b
00000180: 14e1 403a fcd4 33bb 3349 7eb7 56ff 6c3b
00000190: 9838 47bb 0e5d b4b9 3445 0fbb 8099 623a
000001a0: 3a21 093b 5648 ff3a f787 5436 2775 c6ba
000001b0: b723 953b 24a7 9a39 7205 7abb 331e 5d3b
000001c0: baed 1cb8 b734 0c38 597d 5b3b a882 34bb
000001d0: 303d 823a 57a9 653b f06e 5eba d6cf 46bb
000001e0: 7f7f f8ba 42dc 8dbb 71ae d43a 88d0 6738
000001f0: 4579 0abb 207c f939 881c c038 54ed 25bb

bn1.weight f4 [128]
0.9852196 1.2256992 1.2279351 0.9049677 1.1698886 1.1482788 1.0121324 0.89372534
0.95479804 1.0109253 0.9649495 0.9321794 0.9370217 1.0558566 0.978421 1.1491164
0.98769206 0.98879546 0.98975426 0.9577554 0.88919806 1.070001 0.93248487 0.96998733
1.1203228 1.0366979 1.0413946 1.0559449 1.0518069 1.0591743 0.9307689 1.1662196
1.0572256 1.0382118 1.0343432 0.9344375 0.90224284 1.0719423 0.99741775 1.0031722
0.97806704 0.7500524 1.0443797 1.0129107 0.9655034 1.2506163 0.9652681 1.079922
0.9659716 0.9447889 0.9652607 1.0408528 1.3172343 0.98733646 1.0312626 1.0896802
1.0560523 1.0769471 0.8744814 0.9210169 0.93979985 1.3211803 1.0061526 1.0895245
0.9012444 0.9628474 0.93840563 0.9752 1.1384751 0.92835313 0.8972701 0.9342862
1.0509918 0.8781049 1.0031967 0.9824913 0.8465502 0.97675943 0.88897455 1.0052723
0.9659131 1.0061609 0.9488162 0.9306465 0.97834474 1.0175091 0.9208364 0.8017963
0.957103 0.8542895 0.96865726 0.9362089 1.0428843 1.2014495 0.81267476 1.1608241
0.83483386 0.90334135 1.1817377 1.0817535 0.9780147 0.92782193 0.9610739 0.98252875
0.9880804 0.9436071 0.9088439 1.0093794 0.96998876 0.97445786 0.8790328 1.0836978
1.0039748 1.0010178 1.0214983 0.77162653 0.984282 0.9592566 0.9076307 1.0098728
0.9321922 0.99315006 1.0306597 1.0282104 0.9436528 1.204063 0.84533656 0.9955693
00000000: 5a37 7c3f b6e3 9c3f fa2c 9d3f f7ab 673f
00000010: e9be 953f cdfa 923f 8e8d 813f 2fcb 643f
00000020: a56d 743f 0066 813f ee06 773f 4fa3 6e3f
00000030: a7e0 6f3f 4f26 873f cc79 7a3f 3f16 933f
00000040: 63d9 7c3f b321 7d3f 8960 7d3f 752f 753f
00000050: 7ca2 633f cbf5 883f 54b7 6e3f 1751 783f
00000060: bd66 8f3f 84b2 843f 6b4c 853f 3429 873f
00000070: 9ca1 863f 0693 873f df46 6e3f af46 953f
00000080: 2b53 873f 20e4 843f 5c65 843f 4c37 6f3f
00000090: 63f9 663f 6835 893f c556 7f3f f267 803f
000000a0: 9a62 7a3f 6f03 403f 3cae 853f 0fa7 813f
000000b0: 3b2b 773f 3214 a03f cf1b 773f e23a 8a3f
000000c0: ea49 773f afdd 713f 531b 773f aa3a 853f
000000d0: 229b a83f 15c2 7c3f 6a00 843f a47a 8b3f
000000e0: b92c 873f 67d9 893f 03de 5f3f c3c7 6b3f
000000f0: b996 703f 701c a93f 9cc9 803f 8a75 8b3f
00000100: f4b7 663f 2b7d 763f 5a3b 703f b5a6 793f
00000110: 8db9 913f 8da8 6d3f 7eb3 653f 612d 6f3f
00000120: e686 863f 7ccb 603f c068 803f 8d84 7b3f
00000130: 84b7 583f e80c 7a3f d693 633f c3ac 803f
00000140: 1546 773f e1c9 803f 9ee5 723f d93e 6e3f
00000150: cd74 7a3f bd3d 823f efbb 6b3f 8642 4d3f
00000160: b404 753f b7b2 5a3f ecf9 773f 63ab 6f3f
00000170: 3c7d 853f 19c9 993f 740b 503f e295 943f
00000180: acb7 553f 6141 673f 2e43 973f e676 8a3f
00000190: 2c5f 7a3f bd85 6d3f f008 763f 0187 7b3f
000001a0: d6f2 7c3f 3c90 713f fea9 683f 5833 813f
000001b0: 2f51 783f 1276 793f 4b08 613f 9cb6 8a3f
000001c0: 3f82 803f 5a21 803f 75c0 823f 5189 453f
000001d0: e8f9 7b3f d791 753f 7c5a 683f 8343 813f
000001e0: 26a4 6e3f 153f 7e3f a8ec 833f 669c 833f
000001f0: 3b93 713f bd1e 9a3f fa67 583f a1dd 7e3f

bn1.bias f4 [128]
-0.030008767 0.034413196 0.027324263 -0.062205743 -0.080263294 0.03293309 -0.075109825 -0.19896102
-0.2016318 -0.00038881987 -0.23111007 -0.029898884 -0.14691004 0.006081243 -0.05392348 -0.26931155
-0.17952713 -0.09046689 -0.048158966 -0.062688276 -0.058328453 -0.1270484 -0.05619996 -0.05787567
-0.03684022 -0.05604655 -0.21213064 -0.0600208 -0.18227448 -0.20605658 -0.074060544 0.010614599
-0.17921919 -0.16818523 -0.091635525 0.015136261 -0.086599655 -0.1980615 0.070019834 -0.016463
-0.18783082 -0.33237377 -0.01018137 -0.11758983 0.044242725 -0.0144372815 -0.104533814 -0.27043438
-0.16838193 -0.13842393 -0.09612024 -0.013703489 -0.044358365 -0.013615243 -0.02450007 -0.096042015
-0.13067983 -0.16963862 -0.08882012 -0.32430407 -0.058195606 -0.059576113 -0.23009187 -0.007433724
-0.052939568 -0.103654 -0.18538779 -0.0447223 -0.018847374 -0.12191041 -0.090651244 -0.10733007
-0.12423229 -0.20487596 -0.12846763 0.008674373 -0.09590294 0.0018697057 -0.1714848 -0.12492868
-0.05655135 -0.11210574 -0.21141878 -0.07643047 -0.042743165 -0.0075323475 -0.117002055 -0.17559828
-0.04026642 -0.20136036 0.038660113 -0.17817102 -0.10278376 -0.04297717 -0.23603407 0.012889163
-0.23078343 -0.15278736 0.0027718518 -0.057634797 -0.015032078 -0.065792106 -0.08313866 -0.045536924
-0.006426675 -0.16011803 -0.007702464 -0.15201406 0.06251774 -0.0024323605 -0.20158274 -0.15680115
-0.18049642 -0.08701951 -0.15958142 -0.27015513 -0.17398018 -0.030693099 -0.16901343 -0.023986993
0.037644695 -0.024560718 -0.14940275 -0.022814509 -0.16369244 -0.103211634 -0.1181998 -0.11313065
00000000: f2d4 f5bc daf4 0c3d 22d7 df3c 73cb 7ebd
00000010: 1561 a4bd d9e4 063d 2ed3 99bd 70bc 4bbe
00000020: 9178 4ebe 85da cbb9 1ea8 6cbe 81ee f4bc
00000030: 966f 16be 2a45 c73b dede 5cbd 34e3 89be
00000040: f6d5 37be b446 b9bd 5642 45bd b662 80bd
00000050: d1e9 6ebd fa18 02be ee31 66bd 0a0f 6dbd
00000060: c5e5 16bd 1191 65bd c638 59be 5fd8 75bd
00000070: 29a6 3abe 7f00 53be 0ead 97bd dbe8 2d3c
00000080: 3c85 37be c038 2cbe 68ab bbbd 14fe 773c
00000090: 295b b1bd a2d0 4abe 8f66 8f3d 6add 86bc
000000a0: b956 40be e52c aabe c3cf 26bc f0d2 f0bd
000000b0: dc37 353d 598a 6cbc d315 d6bd 6076 8abe
000000c0: 506c 2cbe 01bf 0dbe b0da c4bd 9984 60bc
000000d0: 1eb1 35bd 7812 5fbc 5fb4 c8bc adb1 c4bd
000000e0: efd0 05be bfb5 2dbe 53e7 b5bd 2f0b a6be
000000f0: 845e 6ebd 1506 74bd 349d 6bbe 9996 f3bb
00000100: 29d7 58bd 8c48 d4bd 4cd6 3dbe bb2e 37bd
00000110: cf65 9abc 2aac f9bd 5ca7 b9bd decf dbbd
00000120: 806d febd 01cb 51be 058d 03be f51e 0e3c
00000130: c368 c4bd ea10 f53a b699 2fbe 9cda ffbd
00000140: 63a2 67bd b297 e5bd 2a7e 58be 9487 9cbd
00000150: 7513 2fbd e9d1 f6bb c69e efbd 09d0 33be
00000160: 67ee 24bd 6931 4ebe 115a 1e3d 7772 36be
00000170: 4b80 d2bd d408 30bd eab2 71be 112d 533c
00000180: 7e52 6cbe 4a74 1cbe f5a7 353b 7712 6cbd
00000190: 1b49 76bc 03be 86bd 9a44 aabd ed84 3abd
000001a0: db96 d2bb fbf5 23be f364 fcbb 93a9 1bbe
000001b0: 4d09 803d 3d68 1fbb b56b 4ebe 7b90 20be
000001c0: 0ed4 38be 4937 b2bd 5069 23be c651 8abe
000001d0: dc27 32be 1870 fbbc db11 2dbe 5f80 c4bc
000001e0: 5331 1a3d 8f33 c9bc 09fd 18be 7ee5 babc
000001f0: fe9e 27be 9f60 d3bd bd12 f2bd 0bb1 e7bd

bn1.running_mean f4 [128]
0.06497892 -0.07108241 -0.055767175 -0.02526242 -0.048403453 -0.07511337 0.045349274 -0.05077034
0.07986365 0.0799549 0.04742892 -0.0020664327 0.013269874 0.06907622 -0.02796984 -0.007382469
0.018208228 0.088989094 0.016490357 0.09924921 0.004061521 0.10208236 0.0048158937 0.030090796
-0.038045745 0.07620351 -0.034462415 0.10005694 0.034135018 0.03668087 0.020655062 -0.0731026
-0.0071270415 0.029760264 0.10060449 0.0034834098 0.05850639 0.042530656 -0.01017903 0.06120357
0.013560554 -0.028630076 0.06441193 0.04934543 -0.03283811 -0.06644208 -0.048564993 0.022660762
0.06716537 0.039943937 0.027168531 0.08728684 -0.064358935 -0.0020988046 0.076122865 0.107411906
0.12718762 0.09157029 0.019333234 0.03799639 -0.05549756 -0.059737086 -0.0012390314 0.06731762
-0.059424784 -0.0020577435 0.07136899 -0.010157945 -0.035561718 -0.0042263903 -0.011999808 0.01090047
0.08276265 0.047524408 0.03768059 -0.015139334 0.056564294 0.038657177 0.067082085 0.059067827
0.011827647 0.09916605 -0.051967517 0.014634409 -0.0066793207 0.018459087 0.030499881 -0.03736728
-0.0082199555 -0.021407684 0.0046098707 0.01576833 -0.009019023 -0.056635916 0.07572094 -0.05958612
-0.033021472 0.04101035 -0.06917826 0.07649966 0.0811724 0.008621009 -0.045230992 -0.040135674
0.0063186847 0.05439482 0.03061881 0.089528404 0.0260656 -0.018838702 -0.0018388821 0.06742066
0.081411414 0.08703518 0.09193369 -0.067826934 0.037603278 -0.021594958 0.03320938 0.05669788
-0.03174571 0.052106567 0.09427922 0.072064705 0.024270566 -0.04488205 -0.03176551 0.080884896
00000000: ab13 853d a893 91bd 1f6c 64bd 22f3 cebc
00000010: b342 46bd 0ad5 99bd 29c0 393d 8ff4 4fbd
00000020: 8e8f a33d 65bf a33d d444 423d fd6c 07bb
00000030: e369 593c d577 8d3d 0221 e5bc a3e8 f1bb
00000040: 6c29 953c ea3f b63d c916 873c 2b43 cb3d
00000050: 8216 853b 8e10 d13d a5ce 9d3b f980 f63c
00000060: dbd5 1bbd 9610 9c3d 7628 0dbd a7ea cc3d
00000070: 29d1 0b3d ae3e 163d ce34 a93c d1b6 95bd
00000080: f589 e9bb cccb f33c ba09 ce3d eb49 643b
00000090: 65a4 6f3d a034 2e3d f2c5 26bc 98b0 7a3d
000000a0: 162d 5e3c 9f89 eabc 67ea 833d 6f1e 4a3d
000000b0: 4181 06bd c912 88bd 16ec 46bd 10a3 b93c
000000c0: ff8d 893d 419c 233d 8a90 de3c 71c3 b23d
000000d0: 9ece 83bd 198c 09bb 4ee6 9b3d c6fa db3d
000000e0: 793d 023e 3489 bb3d bb60 9e3c 1aa2 1b3d
000000f0: 6951 63bd e0ae 74bd ff66 a2ba d2dd 893d
00000100: 6767 73bd 35db 06bb e829 923d 826d 26bc
00000110: 2aa9 11bd 887d 8abb d89a 44bc e397 323c
00000120: 777f a93d f4a8 423d f656 1a3d f80a 78bc
00000130: f6af 673d fd56 1e3d 5562 893d 1bf1 713d
00000140: bfc8 413c 9217 cb3d e4db 54bd 29c5 6f3c
00000150: 34de dabb 8337 973c e3da f93c 6f0e 19bd
00000160: feac 06bc 2b5f afbc 660e 973b 962c 813c
00000170: 86c4 13bc 10fb 67bd 9513 9b3d 9310 74bd
00000180: 8641 07bd 78fa 273d 55ad 8dbd dbab 9c3d
00000190: b73d a63d 223f 0d3c 2244 39bd 4e65 24bd
000001a0: f80c cf3b 1acd 5e3d 4cd4 fa3c ab5a b73d
000001b0: 8687 d53c 9f53 9abc a506 f1ba d813 8a3d
000001c0: 07bb a63d 803f b23d bb47 bc3d d9e8 8abd
000001d0: e505 1a3d e9e7 b0bc 8f06 083d 093c 683d
000001e0: ca07 02bd b26d 553d 7715 c13d a996 933d
000001f0: 11d3 c63c 3ed6 37bd 8d1c 02bd fba6 a53d

bn1.running_var f4 [128]
4.9737673 6.44937 5.6447716 4.282724 5.1788173 5.937149 4.160564 4.730518
3.5130274 4.3942003 2.5018058 5.753334 3.1920648 3.290636 5.6605053 2.4317107
3.1813319 3.4006195 3.5881236 5.619865 2.311593 5.2598295 1.8051538 3.5453837
5.8632812 6.753442 2.1497037 6.2374115 3.806428 2.9548976 3.2075202 6.091189
2.3644817 4.0831614 5.1886454 5.8166866 3.2630389 4.6390214 4.203669 2.768827
3.1750116 2.9167216 4.372095 4.019057 6.884848 6.7664347 4.3864827 1.8398327
3.9116104 3.6274166 3.3969276 5.09742 5.7437162 6.030259 3.574924 6.6989026
7.3265367 5.6340766 1.675287 4.113988 4.310278 6.499816 3.43335 4.2477317
3.7585232 2.7333238 2.2178922 4.6736746 4.4184365 2.6121943 4.3803864 2.9402575
4.448565 2.954005 3.6422298 4.978899 1.6902729 2.9488337 2.0400918 3.7736495
4.729647 5.5061874 4.2371716 4.099365 3.4570744 3.3301048 2.845414 2.2183275
5.1529727 2.1804302 3.0291357 3.7746768 3.1831627 4.6484494 1.870382 4.8691087
1.9325852 3.5651884 7.142964 4.108909 4.7803144 3.2616792 7.384243 5.858914
4.899724 4.279727 3.1532907 5.2431064 3.7086651 6.4774485 3.2993038 5.69923
4.5594406 3.5831025 4.3031187 2.2812803 3.6451383 5.404507 4.4431405 3.811385
3.2675533 3.141068 6.252596 4.814058 4.1161265 5.6937747 3.5789547 5.3311095
00000000: 1a29 9f40 3d61 ce40 f8a1 b440 130c 8940
00000010: dfb8 a540 20fd bd40 5723 8540 6760 9740
00000020: 71d5 6040 4a9d 8c40 961d 2040 501b b840
00000030: ca4a 4c40 c899 5240 dc22 b540 26a1 1b40
00000040: f19a 4b40 c0a3 5940 d1a3 6540 efd5 b340
00000050: 24f1 1340 8650 a840 480f e73f 91e7 6240
00000060: 00a0 bb40 321c d840 bf94 0940 e098 c740
00000070: 849c 7340 0b1d 3d40 0348 4d40 05eb c240
00000080: ab53 1740 42a9 8240 6209 a640 4c22 ba40
00000090: a1d5 5040 dd72 9440 7584 8640 7634 3140
000000a0: 6433 4b40 91ab 3a40 34e8 8b40 1d9c 8040
000000b0: ad50 dc40 a286 d840 115e 8c40 a37f eb3f
000000c0: d357 7a40 9827 6840 4367 5940 111e a340
000000d0: 86cc b740 e2f7 c040 8ecb 6440 695d d640
000000e0: fd72 ea40 5b4a b440 ce6f d63f caa5 8340
000000f0: cced 8940 7efe cf40 02bc 5b40 6bed 8740
00000100: a58b 7040 c7ee 2e40 f2f1 0d40 be8e 9540
00000110: d563 8d40 312e 2740 202c 8c40 2e2d 3c40
00000120: a55a 8e40 6b0e 3d40 4b1a 6940 2453 9f40
00000130: dd5a d83f b1b9 3c40 dd90 0240 7983 7140
00000140: 4559 9740 b032 b040 e996 8740 002e 8340
00000150: b540 5d40 7020 5540 431b 3640 14f9 0d40
00000160: 27e5 a440 2b8c 0b40 5cdd 4140 4e94 7140
00000170: f0b8 4b40 19c0 9440 ad68 ef3f bdcf 9b40
00000180: f45e f73f 0c2c 6440 2993 e440 2f7c 8340
00000190: 56f8 9840 5abf 5040 b84b ec40 397c bb40
000001a0: 8aca 9c40 86f3 8840 84cf 4940 87c7 a740
000001b0: c55a 6d40 4247 cf40 cb27 5340 1860 b640
000001c0: f0e6 9140 8d51 6540 26b3 8940 7f00 1240
000001d0: f249 6940 b9f1 ac40 352e 8e40 bbed 7340
000001e0: 981f 5140 4207 4940 4415 c840 c30c 9a40
000001f0: 4fb7 8340 6733 b640 980d 6540 7398 aa40
