code/embedder/results/models/AE1_W2V_model.pth (torch, 222984 bytes, 8 tensors)

encoder.0.weight f4 [256, 96]
000000 ff 7e 03 bd f6 0c a6 bc 65 53 36 3d cc a9 13 3e
       -0.032103535 -0.020269852 0.044513125 0.14420241
000010 bb 07 14 bd ee b7 2f be 4d 49 08 be 66 b9 b0 3d
       -0.036140185 -0.17160007 -0.13309212 0.08629112
000020 b9 73 b6 3d 7f 0e d3 bc 85 1f 84 3d 2b 31 75 3e
       0.08908791 -0.025763748 0.064513244 0.23944537
000030 f1 49 69 be f6 c6 ac 3d 4b 3f 8a 3d db 24 66 3e
       -0.22782113 0.08436386 0.067503534 0.22474997
000040 08 84 6d bc 18 5f 75 be 23 4b 4f be a9 29 4a 3c
       -0.014496811 -0.23962057 -0.20243506 0.012339034
000050 08 09 02 3e f9 ea 48 bc 6d 18 04 bc b0 85 2c be
       0.12698758 -0.012263053 -0.008062464 -0.16847873
000060 8f 98 b4 bd 56 93 35 3d 3f 04 62 3c ec c5 9c be
       -0.08818161 0.044329964 0.013794958 -0.30619752
000070 cb bd db 3d 56 72 53 be fb 70 d2 3d 12 2d 03 3c
       0.107295595 -0.20649084 0.102754556 0.008006351
000080 1b 27 67 bd 4f a0 28 be 96 80 93 3d 41 29 06 3c
       -0.05643378 -0.16467403 0.0720226 0.008188547
000090 76 81 0f be 87 fa 17 be 29 ae ea 3d 18 22 07 be
       -0.14014229 -0.14841662 0.11459 -0.131966
0000a0 bf c2 96 3d cb 58 21 3e 43 7a 8c 3d fa 04 02 3e
       0.073613636 0.15756528 0.06859257 0.12697211
0000b0 fa 4b 3b be 46 56 e3 3c f9 05 81 3c 99 26 91 bd
       -0.18290702 0.0277511 0.015749918 -0.0708744
0000c0 6d b5 28 3e a8 64 10 be 01 0e 33 be 5d f9 17 3d
       0.16475458 -0.14100897 -0.17485811 0.037103046
0000d0 de cf ec bd 88 f6 e0 bc fe 7a ab bd 3c 62 24 3d
       -0.11563085 -0.027461305 -0.08373068 0.040132746
0000e0 16 ad 81 bd 89 88 7d 3d fa 8c 3e 3e 5b b4 0f be
       -0.06331842 0.06189779 0.18608466 -0.14033644
0000f0 52 33 db bd ab e2 f9 3c b5 48 02 be 78 8c eb bd
       -0.10703148 0.030503592 -0.12723048 -0.11501402
000100 80 4a 4a 3b 4e ff e0 3d 11 58 14 be 62 b2 ec 3d
       0.003086716 0.109861955 -0.1448672 0.11557461
000110 c8 f2 1f 3d 91 33 26 bd 21 71 96 bc 38 6d e0 bd
       0.039049894 -0.04057652 -0.018364491 -0.10958332
000120 15 dc 86 3d e1 b9 91 bc ae fb 34 3d cf ef f9 3d
       0.06584946 -0.01778883 0.044185333 0.12203943
000130 cc 51 ba bd 10 e8 46 bd 81 b9 ad bd 62 c8 b1 bd
       -0.09097633 -0.048561156 -0.08482648 -0.08680798
000140 7e 79 77 3e 8b 32 12 bd b7 5b 76 3e 65 08 bb bb
       0.2416744 -0.035692733 0.24058424 -0.005707788
000150 55 f3 b8 3d fc 60 0c be 65 8e 80 bc f1 04 9a bc
       0.09030787 -0.13708872 -0.015692899 -0.018801184
000160 ae 1d 26 bd a8 6b e3 3d 3a 5f 0d bd ad be 05 be
       -0.04055565 0.11104518 -0.034514643 -0.13061018
000170 4f 4d ea 3d f6 af a8 bd 03 ea ac 3d ab e2 6d bc
       0.11440527 -0.08236687 0.08443072 -0.014519374
000180 42 ee 82 3d 9a 7d 04 be ee 0a 7f 3d 72 27 09 bd
       0.063931 -0.12938538 0.062266283 -0.033484884
000190 a4 09 07 3e 8b 42 81 bd d4 ab 95 3d 5c eb 04 3e
       0.13187271 -0.0631152 0.07308164 0.12980407
0001a0 b5 1b af 3d a1 9b 9f bd 41 38 e6 3d 02 d3 ed bd
       0.085502066 -0.07793356 0.11241198 -0.11612512
0001b0 d8 2a 2d bd e9 a7 72 3e 3b 73 29 be e7 49 3f 3d
       -0.042277187 0.23696865 -0.16547863 0.04670134
0001c0 27 ff 9d bd 09 4c bd 3d 96 61 a6 3d 6b 60 a4 bb
       -0.07714682 0.09243018 0.08124082 -0.0050163767
0001d0 7c 28 06 3e 3a 2f 3b 3e 7a eb d0 bd b6 83 a1 bd
       0.13101381 0.18279734 -0.102011636 -0.0788645
0001e0 a2 66 c2 bd 60 cf 09 be 3d 70 cc bd 27 0c 82 bd
       -0.09492232 -0.13458014 -0.09982345 -0.06349974
0001f0 89 c2 15 bd 0e 96 72 3d b2 bd ce 3a 5f 4e 05 3e
       -0.036562476 0.059225135 0.0015773086 0.13018177
000200 be 4e 2d 3c eb 3b d8 3d 47 aa 6f 3d 5a 86 ca 3c
       0.010577856 0.105583034 0.058512 0.024722267
000210 64 2d 78 bc c7 a2 78 bd 5f 9b 3f 3c 8a cb db 3c
       -0.015147541 -0.06070211 0.011694758 0.026830453
000220 5c 53 5d bc c1 ac c7 3d 21 ca 5f 3d 7b 2f 65 bd
       -0.013508644 0.09749747 0.054636125 -0.055953484
000230 eb 1f 61 39 48 67 31 3d 01 90 48 bd 60 ca 86 bd
       0.00021469562 0.043311387 -0.048965458 -0.06581569
000240 4a e5 00 3d 90 24 fd ba 80 50 77 3d ba d5 9d 3c
       0.031468667 -0.0019313265 0.060379505 0.019266952
000250 a3 93 3a 3e 4e 2b b1 3d 37 85 86 3b fc 87 0a 3e
       0.18220381 0.08650838 0.004105236 0.13528436
000260 e1 c0 64 bc a8 6f 36 bd af df a9 3c 85 89 cd bd
       -0.013962002 -0.044540077 0.020736543 -0.100359954
000270 a5 91 d5 3c 5e 1e c7 3c 0a fc c8 bd 87 c3 48 bd
       0.026070425 0.024306472 -0.09813698 -0.049014594
000280 b1 bd c9 3d be 8d fb bd 48 ca 73 3d e2 8b a8 bb
       0.09850634 -0.122828946 0.059519082 -0.0051436285
000290 db c7 f9 38 26 bd c6 bd 23 6c 57 bb f2 05 22 3e
       0.00011910471 -0.09704046 -0.003287085 0.1582258
0002a0 48 56 01 bd 17 5a 1a 3c 52 66 19 bc 5e 58 bf bd
       -0.031576425 0.009420893 -0.009362774 -0.093430266
0002b0 c9 c2 de bd a1 7f a4 3d a0 69 0c be eb 31 5d bd
       -0.10876996 0.08032156 -0.13712168 -0.054002684
0002c0 30 e6 d3 bd fb 52 bd 3c 07 d3 3f bd 60 c1 1b 3e
       -0.10346639 0.023110857 -0.04683211 0.15210485
0002d0 16 bf 67 be e8 ee 8f 3d c6 26 77 bc bd da d0 bd
       -0.22631487 0.070279896 -0.015084928 -0.10197971
0002e0 0f e0 61 be 76 67 e7 3d 0d 28 f7 3c c8 e4 9e 3d
       -0.22058128 0.112990305 0.030170465 0.0775848
0002f0 90 8a 0c 3b e1 a5 9e 3d 03 b5 59 3d f9 78 58 bd
       0.0021444894 0.07746483 0.05315114 -0.052849744
000300 0f 8a ad bd f5 7b da bc 44 34 83 bd 31 26 82 3d
       -0.08473598 -0.026670435 -0.06406453 0.06354941
000310 9e 10 15 be 40 c3 61 bb e0 11 08 3e 38 c3 83 be
       -0.1455712 -0.0034448653 0.13288069 -0.25734878
000320 08 2c 83 3c d2 fa 34 3c ad 6a 08 be 61 b9 89 3d
       0.016012207 0.011046128 -0.13321944 0.06724811
000330 c2 cd e8 3d 41 d2 4d bd b4 51 33 3d d0 97 a2 bd
       0.1136737 -0.050249342 0.04377909 -0.07939112
000340 24 94 ae bd e1 57 45 be 26 8a a1 bd 1c ed 2b bc
       -0.08524349 -0.19271804 -0.07887678 -0.010493543
000350 5e e4 e7 bd f1 7e 40 bd 7f a3 db 3d f2 a5 20 be
       -0.113228545 -0.04699606 0.10724544 -0.15688303
000360 3d 67 71 be 11 cd 89 3e 72 fc 38 3b 64 2d 8d be
       -0.23574539 0.26914266 0.002822664 -0.27573693
000370 25 f4 2c 3e 79 2e 32 3e 6c 7a 66 be cb 1d a3 3c
       0.16890009 0.1740054 -0.22507638 0.019911667
000380 60 b1 6f 3e f3 95 02 3e 51 a2 f6 bc b6 58 74 3d
       0.23407507 0.12752514 -0.030106695 0.059654914
000390 21 4a 52 be a7 f7 a5 3c c9 a1 21 bd c0 8f a4 bb
       -0.2053609 0.020259691 -0.03946093 -0.005022019
0003a0 6f c7 a6 3d 06 ad 30 be b4 09 f5 bd f5 b6 86 bc
       0.08143508 -0.17253503 -0.11964741 -0.016444663
0003b0 8d de 5e 3e ad da c0 bd 58 fc c7 bd 5f 0e 2d 3c
       0.21764584 -0.09416709 -0.097649276 0.010562508
0003c0 62 4a 14 be bd 3c 64 be d1 4e 21 bd 1f 9d 8a 3d
       -0.144815 -0.22288795 -0.039381806 0.0676825
0003d0 92 b7 d3 bd 05 cf d5 bc d5 ef db bb 27 0c 5b 3d
       -0.10337748 -0.026099691 -0.00671194 0.053478386
0003e0 ef 98 32 be 75 4a 8b bd d0 27 08 3e d3 99 8b 3c
       -0.17441152 -0.06801311 0.13296437 0.017041123
0003f0 77 f6 58 be 94 31 2e bd 50 e9 e6 bc 6b 92 93 3c
       -0.21187769 -0.04252775 -0.028187424 0.018014153

encoder.0.bias f4 [256]
000000 9e 8a 16 3c 95 14 a6 bd 27 b0 2a be 86 8f 93 bd
       0.009188322 -0.081093945 -0.1666876 -0.07205109
000010 b7 4d e5 be 3d 60 94 be 3c 65 b4 bd 35 e2 29 be
       -0.44785854 -0.28979674 -0.088083714 -0.16590197
000020 34 9e b8 bd a6 e7 04 bf 8d 88 c5 be dd 32 59 be
       -0.0901455 -0.5191597 -0.38580742 -0.21210809
000030 d9 ef e7 bc 94 81 05 3d 5e cf 6e be 09 9b 68 bb
       -0.02831261 0.03259428 -0.23321292 -0.0035492799
000040 41 3f bf bd 31 be ea 3c 9d 43 8e 3e c2 f5 3c 3d
       -0.093382366 0.028655143 0.2778596 0.04613281
000050 9b 25 2e 3e 7a ee 02 be 55 1b 18 be e1 92 10 bf
       0.17006533 -0.12786284 -0.14854176 -0.5647412
000060 fc 68 00 3d a9 4e 77 be b4 5b ce bd 35 da 06 bf
       0.03135012 -0.241511 -0.10076085 -0.5267671
000070 44 74 90 be 36 2e 0d be f6 78 c8 bd b8 de b2 be
       -0.28213704 -0.1378716 -0.097886965 -0.34935546
000080 96 cc ec be 1e 66 0b be 80 bd ae be 95 c5 80 bd
       -0.46249837 -0.13613173 -0.34128952 -0.06287686
000090 28 03 ee 3d 77 72 8b be 8c 1c de 3d 48 32 d1 be
       0.11621696 -0.27235767 0.10845289 -0.40858674
0000a0 2d 94 78 be 1a 91 3a 3e e6 04 5d 3e 8a ab 1c be
       -0.24275275 0.18219414 0.215839 -0.15299812
0000b0 29 c4 d1 be b1 1b 11 be 90 df c0 be b5 50 6c be
       -0.4096997 -0.1417072 -0.37670565 -0.23077662
0000c0 11 6e f6 bd 35 a5 96 be c9 21 4f 3e 07 c9 15 3e
       -0.12032712 -0.29422918 0.20227732 0.14627467
0000d0 a7 77 54 be f4 ca 1a 3e 29 68 8e be a3 18 c9 be
       -0.20748769 0.15116483 -0.27813843 -0.3927661
0000e0 3d ce 01 be b1 ca f8 3c 36 29 17 be 65 bd d9 3d
       -0.1267633 0.030370088 -0.14761814 0.10631827
0000f0 67 0a d2 bd 4f 35 fd 3c ad af 06 3d d3 ca fb be
       -0.1025589 0.030909209 0.03288238 -0.4917818
000100 30 0e 8a bd a4 80 81 bd ab 78 29 be 90 70 31 bc
       -0.06740987 -0.063233644 -0.16549937 -0.01083006
000110 0e 47 1e 3e c7 a6 31 be 70 5b 77 3d c0 5c c2 bd
       0.15456793 -0.17348777 0.060389936 -0.09490347
000120 b3 f3 91 3c 6d ce b9 bd 0d 35 19 be dd 7c 9e bd
       0.0178164 -0.09072576 -0.14961644 -0.077386595
000130 f9 0b b0 bd 22 a4 95 bd b5 55 cc bd 64 39 17 be
       -0.085960336 -0.073066965 -0.09977285 -0.14767987
000140 e0 71 00 be 84 bf b9 be cd 7f 9c be c4 b2 a2 bd
       -0.1254344 -0.36278927 -0.30566254 -0.07944253
000150 01 48 68 3c d6 03 bf bd 66 6a 12 be 87 d5 71 3d
       0.014177323 -0.093269035 -0.142984 0.059041526
000160 6c 72 c7 be 51 92 1e bf f1 2a a2 be 6d 24 a8 bd
       -0.38954484 -0.6194201 -0.31673387 -0.08210073
000170 3d 49 b5 be 64 43 9d 3e 78 48 ee bc 91 8f ca 3d
       -0.3540744 0.30715477 -0.02908729 0.09890664
000180 45 b3 7d be a6 74 ee be 42 4d ed bc 3b b4 ad 3d
       -0.24775417 -0.4657337 -0.028967503 0.08481642
000190 2a 14 7d be b7 8e 59 be df 20 35 bd 92 88 1c bc
       -0.24714723 -0.21245848 -0.0442208 -0.009554045
0001a0 38 fe e7 bd 2d 2f fd be 3f 81 b6 bd a3 b8 75 be
       -0.11327785 -0.49450055 -0.089113705 -0.23996215
0001b0 18 88 bf bd 85 a0 54 be 0b 9c 57 bc d8 a9 a2 3d
       -0.0935213 -0.20764358 -0.013159762 0.079425514
0001c0 4b 12 41 be 0a e2 e5 be 5a 09 83 3d 92 3f 06 bd
       -0.18854634 -0.44899017 0.06398268 -0.03277547
0001d0 6d 0b 8f bd e4 b3 37 3d 5b 67 0d bf 10 54 13 3e
       -0.06984601 0.04484929 -0.5523583 0.14387536
0001e0 f7 f2 76 be 7e 32 e8 be d2 95 2b 3d f4 23 2b bd
       -0.24116121 -0.45351022 0.041890927 -0.041782334
0001f0 6a 56 9c be 27 be 61 be 5a 33 1f 3d 82 d8 77 be
       -0.3053468 -0.22045194 0.038867332 -0.24203685
000200 1b 8c ff bd 8a 9b b4 3d 80 7d 61 be a6 2b 0c be
       -0.12477895 0.08818729 -0.2202053 -0.13688526
000210 3c 68 a5 3e db df 4e be 8c 78 02 bf 56 3e 74 be
       0.32306087 -0.20202582 -0.5096519 -0.23851904
000220 32 f5 68 bd c8 22 f5 be 9f 4c e4 bd 44 13 59 be
       -0.05687446 -0.47878098 -0.11147427 -0.21198756
000230 bf 33 58 be ac 9f 18 bd e9 e5 bb bb 91 86 8b be
       -0.2111349 -0.03726165 -0.0057341945 -0.27251104
000240 3d d8 17 3e a6 0f 4c 3d e2 7c 19 be 95 c1 7b be
       0.14828582 0.04981961 -0.14989045 -0.24585564
000250 15 3f ef be 48 a4 48 3d 21 93 61 3e f0 e8 2a bc
       -0.46727815 0.048984796 0.22028781 -0.010431513
000260 52 70 9a bc c3 1d 33 3d 9e 3e a2 be 43 c7 8a bd
       -0.018852387 0.043729555 -0.31688398 -0.067762874
000270 ea c9 5e be b6 bf 56 be 79 63 93 bd de 78 a8 3d
       -0.21756712 -0.2097157 -0.07196707 0.082261786
000280 2f 21 ab bd 0d 01 8e be ff 1a 24 3e 26 93 2c be
       -0.08355939 -0.27735177 0.16025923 -0.16853008
000290 b1 1f 22 bf 5c 16 d6 bd 82 21 c1 bd 80 89 8f be
       -0.6332961 -0.104534835 -0.09430219 -0.28034592
0002a0 0a cc e4 bc b1 5d 1b 3e e0 b8 18 3e 51 56 3b 3e
       -0.027929325 0.15172459 0.14914274 0.18294646
0002b0 41 fc e6 be 01 12 6c be ef 65 9f be ed a1 31 bf
       -0.4511433 -0.23053743 -0.31132457 -0.69387704
0002c0 4f 0e b4 be 7b c8 32 be c1 df 5b 3b 51 05 06 bf
       -0.35167167 -0.1745929 0.0033550116 -0.5235186
0002d0 3c 29 5e 3e 4f e6 91 bb 29 5d 4c bc 3e d3 bb be
       0.21695417 -0.0044525038 -0.012473383 -0.36684602
0002e0 98 3c 40 3e 71 65 b3 bd c8 46 1c 3e e1 39 6a be
       0.18773115 -0.08759583 0.15261376 -0.22873642
0002f0 57 ca 48 bd 2c b0 a3 bd 64 7b eb be 81 04 05 bf
       -0.04902109 -0.079925865 -0.45992577 -0.5196
000300 c3 d6 cd bc 46 aa 18 be 99 92 2c bf b7 f7 8e be
       -0.02512682 -0.14908704 -0.6741119 -0.27923366
000310 7b 5f 8a 3e fb 39 80 be 37 49 e6 3d c1 65 d2 3c
       0.2702597 -0.25044236 0.112444334 0.025683286
000320 b4 09 8f 3d 7d 4f 4c be 67 e0 11 be ff eb 3f 3d
       0.069842726 -0.19952197 -0.14245759 0.046855923
000330 5b d8 0d 3e 93 ee 5d 3d ef a6 6f 3d 32 4f 8f bd
       0.13852064 0.0541826 0.05850881 -0.06997527
000340 3a 1d 2c be 88 58 82 be 65 72 80 3d 0b 70 3c be
       -0.16808024 -0.2545817 0.06271819 -0.18402116
000350 24 3d b4 be 0e 63 c6 be f4 71 03 bd aa 16 40 3e
       -0.35202897 -0.38747448 -0.032091096 0.18758646
000360 2a 5b e5 bd 95 9d 96 3d fb 4e 87 be a5 b7 af be
       -0.11199029 0.07354275 -0.26427445 -0.34319797
000370 0c bf 06 be fc 78 8c bd f2 71 62 3c c0 47 7e 3d
       -0.13158816 -0.068590134 0.013821112 0.062080145
000380 6f 6e b1 3c f2 2f a0 bd 59 a3 53 bd 2f f7 85 3d
       0.021659104 -0.07821645 -0.051669452 0.06541287
000390 b1 03 47 3e 97 5c 39 be f1 9a 70 be 9d 60 f4 3c
       0.19435002 -0.18101726 -0.23496605 0.029831225
0003a0 9a ee a9 3b 5c 54 fb be 4d f9 38 be a4 83 1f 3d
       0.005185914 -0.490878 -0.1806385 0.0389439
0003b0 dd d4 b9 bd 32 44 60 3c b0 e4 a0 3d 90 54 f7 bc
       -0.090738036 0.013688134 0.07856119 -0.03019169
0003c0 d4 bd 2e be 5b 2c 2b 3e 9c ef 67 be ce 59 ad bd
       -0.17064601 0.16716139 -0.22649997 -0.084643945
0003d0 c8 04 ec bd 39 82 fb bd 76 c2 b9 be 8f 27 b6 38
       -0.115243495 -0.122806974 -0.36281174 8.685805e-05
0003e0 d8 9d 36 be 91 94 de bd 56 1c 16 bf 4f ea 3a 3c
       -0.1783365 -0.108681805 -0.5863699 0.011408403
0003f0 b7 e4 94 be 25 80 29 be 9e 0d b8 bd 84 25 5e bd
       -0.29080746 -0.1655279 -0.08986972 -0.054234996

encoder.2.weight f4 [10, 256]
000000 cd ae 07 bc 03 02 ec 3c 2c c2 58 3d 9c c1 c6 3d
       -0.008281422 0.028809553 0.05291955 0.09704897
000010 82 11 e1 bb 04 1c 1b 3d ba 4d 2e 3d 01 39 74 3d
       -0.006868542 0.037868515 0.042554595 0.059624676
000020 ea 6b af bd d5 30 a3 3d 3e b3 8b bd 6a 25 55 3c
       -0.08565505 0.07968298 -0.06821297 0.0130094085
000030 0e 74 19 bd 6c 64 10 be b5 05 e2 3c 4e 2c 7e 3d
       -0.037464194 -0.14100808 0.027590612 0.06205397
000040 d4 d7 bb 3d 21 f9 fa 3b 6d 03 41 3d e1 a9 0a 3d
       0.09172025 0.007659093 0.047122408 0.033853415
000050 b6 a7 2a bd c5 8f c7 3c db 04 47 bd ba 7b 7b 3c
       -0.041663848 0.024360547 -0.048588615 0.015349323
000060 47 67 2f 3d ab 0d 53 bd f8 13 45 3d 5f a3 56 3c
       0.042823102 -0.051526707 0.048114747 0.013100474
000070 1f 82 f3 3b a6 5a 1b 3e 71 25 28 bd f0 de 11 bc
       0.007431283 0.15171298 -0.041051332 -0.00890325
000080 fe 9d 8e 3d 56 ec a5 39 0e bf 10 b8 42 71 4b bc
       0.06963728 0.00031647336 -3.451021e-05 -0.0124171395
000090 5e f2 b9 bd d6 27 a4 3d 74 ed 08 3e 15 8d 34 3d
       -0.09079431 0.080154106 0.13371831 0.04407986
0000a0 5f 24 3c 3e 94 e6 04 3d 8d 8c a9 3c fe 4c c0 bd
       0.1837325 0.03244646 0.020696903 -0.09389685
0000b0 99 d0 3c 3e 7c 10 2b 3e 0f 22 41 3e 6d 61 47 3d
       0.18438949 0.16705507 0.18860649 0.048676897
0000c0 9d 93 23 be d7 a9 e2 bd ce 5c cd 3b 6d a6 1d bc
       -0.15974279 -0.11067551 0.0062671667 -0.0096221985
0000d0 bf 58 57 be 2c d6 e0 bd 5d 5c 85 bc b2 2a af 3c
       -0.21029948 -0.1097835 -0.016279394 0.021382663
0000e0 99 60 1d 3b a6 99 0a 3e 1e d0 da bc 16 33 e9 3d
       0.0024013876 0.13535175 -0.026710566 0.11386697
0000f0 a4 1b c0 3d 2e 1c 96 3d f5 0d 73 3d f7 32 3f be
       0.09380272 0.073295936 0.059339482 -0.18671785
000100 38 7c 9d 3d c6 d2 63 bd e2 4e 0a 3d 1f aa 48 3c
       0.076897085 -0.05562093 0.033766635 0.012247591
000110 97 4a 4b 3d 7f 15 e4 bd 50 4f 03 3d ed ec d6 3c
       0.04963168 -0.111369126 0.03205806 0.026236022
000120 68 7d 98 bc 04 b1 24 bc 60 08 97 3d ba 29 7e bd
       -0.018614486 -0.010051969 0.07374644 -0.062051512
000130 60 49 c1 bd f3 81 26 3c 92 89 5d 3b b9 47 10 3e
       -0.09437823 0.010162818 0.0033803922 0.1408986
000140 d7 f3 84 bc 33 e5 83 3e e0 91 c0 bc 97 75 d3 3d
       -0.016229553 0.25760803 -0.023507059 0.10325163
000150 f1 4f 1d bc 87 15 b1 3d 99 94 8f bd 1f a5 a5 bd
       -0.009601579 0.08646684 -0.07010765 -0.08088135
000160 c7 48 22 be e7 62 11 bd 6d 7d e4 3d b3 c0 0e be
       -0.15848075 -0.03549471 0.111567356 -0.13940696
000170 7f 22 42 be 86 67 c6 3d 2f c2 81 3b 35 02 5d 3d
       -0.18958472 0.09687714 0.003959916 0.053957183
000180 13 16 73 3d bc 5c d0 3d 3b 17 37 bc 19 b5 1a be
       0.059347223 0.10173938 -0.011174972 -0.15108146
000190 e9 34 38 3c 72 01 d9 3b 00 67 fe 3c d1 9c 48 3d
       0.0112430835 0.0066224867 0.031054974 0.048977677
0001a0 7b e1 c6 bd 6e 4d 5f 3a 2c a2 cd bd 2f 9a a1 3b
       -0.09710976 0.0008518313 -0.100406975 0.00493171
0001b0 48 39 53 bd b6 56 a9 bd ab 5b 9c bd 36 2f 65 ba
       -0.0515683 -0.08268492 -0.07634672 -0.0008742692
0001c0 26 d5 fe 3d 5a 7e 68 3e 45 be c1 ba 79 ec 3e 3e
       0.124429986 0.2270445 -0.0014781436 0.18644895
0001d0 e9 8b c8 bc e2 10 48 bd c1 88 f0 3d 9c b2 87 3d
       -0.024480777 -0.048844226 0.11744834 0.06625864
0001e0 24 d4 93 bd 43 08 e5 3d 5a ee 91 bd 5c 62 82 bb
       -0.07218197 0.111832164 -0.0712554 -0.0039790105
0001f0 a9 e3 89 bc 0f 72 14 3c 09 1a b5 bd ec fe a4 bd
       -0.01683219 0.009060397 -0.088428564 -0.08056435
000200 e4 7b e6 3d ba 1d 18 bd c1 9d c8 bd 2e 0b 41 bd
       0.11254099 -0.037137724 -0.09795714 -0.047129802
000210 50 00 68 bd 78 50 76 3d d6 16 b8 3d 9b 5e df 3d
       -0.056640923 0.060135335 0.089887306 0.109067164
000220 e6 48 69 3d c6 a1 ae 3e 82 c8 d3 3c bc b6 a5 bd
       0.056954287 0.34107798 0.025852446 -0.080914944
000230 b9 1c a2 bd 90 71 98 3d 90 dd bd 3d 56 06 71 bd
       -0.07915635 0.07443535 0.09270775 -0.058843933
000240 7d d8 85 3d 15 72 10 3d 97 2b fb bc f4 55 05 3e
       0.065354325 0.035265047 -0.030660434 0.1302107
000250 ba 68 e4 bc 82 92 8c 3d b3 2b 3c bc 5c 4d 78 bd
       -0.027881969 0.06863882 -0.011485028 -0.06062065
000260 9e 74 cb 3d fd 1a e6 3d 2d e7 18 3e f9 16 9a bb
       0.09934352 0.11235616 0.14931937 -0.0047024456
000270 e9 95 86 3d e3 3c 8a 3d ed f8 d5 3d b0 1d 27 3b
       0.06571562 0.067498945 0.104478694 0.0025499873
000280 04 e6 03 bd fd 94 15 bd 02 ca b7 bd bd 55 aa 3d
       -0.032201782 -0.03651904 -0.08974077 0.083171345
000290 72 31 0f 3e 01 01 22 3b 3d 89 94 bd d9 82 2f be
       0.13983706 0.0024719837 -0.072527386 -0.17139758
0002a0 a6 18 ac bc c9 65 80 bd fd d4 d8 bd e3 78 d2 3c
       -0.021007847 -0.06269414 -0.10587499 0.025692409
0002b0 3c d7 65 3d 17 74 76 bd cf 18 87 bd 48 20 9e 3e
       0.056113467 -0.060169306 -0.06596529 0.30884004
0002c0 88 d1 c5 3d fa dc 9d 3d 08 41 14 bd ce 4d 92 3d
       0.096591055 0.077081636 -0.03619483 0.07143746
0002d0 e0 8a a8 bd 67 e4 16 bc d9 66 71 bd 04 a9 f6 bc
       -0.08229613 -0.009209729 -0.058935974 -0.03010989
0002e0 72 04 f2 bb 4e b3 47 bc 46 09 c8 3a 18 e6 8a bd
       -0.007385784 -0.012188746 0.0015261553 -0.06782168
0002f0 ff 25 ad 3b f6 b2 07 bd e9 68 34 3e 87 05 aa 3d
       0.0052840705 -0.033129655 0.17618145 0.083018355
000300 e7 ce 51 3d 00 e1 ef bd fa c0 16 be 16 50 c4 3c
       0.051222708 -0.11712837 -0.14722052 0.02396397
000310 24 8c 09 bb 00 b4 93 3c af e3 9e bd 57 75 e0 3d
       -0.0020988071 0.018030167 -0.07758271 0.10959881
000320 32 f5 1a 3d fc 53 d2 bd 12 7f d7 bd 31 71 97 bd
       0.037831493 -0.10269925 -0.105222836 -0.073946364
000330 1d 6c 87 bd 34 bc 87 3d c1 86 48 bd 66 17 ec bd
       -0.06612418 0.06627694 -0.048956636 -0.115279004
000340 41 cc df 3d 2e f9 3c 3a d3 99 79 bd 3d 17 0f 3d
       0.1092763 0.00072087615 -0.060937714 0.03493427
000350 98 fd e8 3d a6 7d e0 3d 7f a8 06 3e 58 83 15 3d
       0.11376494 0.109614655 0.13150214 0.036502212
000360 b0 fb 0d 3d ec da f8 3c d7 cc 9b bd c8 db 07 be
       0.034663856 0.030377828 -0.076074295 -0.13267434
000370 f5 ab cc 3c a9 ad c2 bc df 10 6d bd 41 59 74 bd
       0.02498434 -0.023764448 -0.057877418 -0.05965543
000380 1f f0 00 be 6e 57 08 be 0d 08 66 bd 46 b7 07 3d
       -0.12591599 -0.13314602 -0.05616002 0.033133768
000390 5e 6c 0e 3d f3 66 0d be 67 e1 05 bd 74 67 7d bd
       0.034771316 -0.13808803 -0.032685664 -0.06186624
0003a0 44 01 11 3e 79 38 07 3c 0a fa b1 3c df 27 18 3c
       0.14160639 0.00825321 0.021725673 0.00928685
0003b0 8c 33 1c bd 76 fc 44 3d c4 9a 55 bd c8 06 d9 bd
       -0.038135096 0.048092328 -0.05214955 -0.105969965
0003c0 ed 70 a9 3d 82 12 08 3b 6d da 95 3d fd c1 f8 bd
       0.08273492 0.0020762985 0.07317052 -0.12146375
0003d0 b8 ad 23 bd 3b b9 3e bd d5 24 ef bd af 04 18 3e
       -0.039960593 -0.04656337 -0.11676947 0.14845537
0003e0 c6 7b 78 bd f5 aa 14 3e 20 bf 7b bd 3a 87 ba bd
       -0.060664915 0.1451834 -0.061461568 -0.09107824
0003f0 16 9a 19 bc 47 50 3c 3c 69 e5 0c 3e cd 94 8c 3d
       -0.009375116 0.011493749 0.13759388 0.06864319

encoder.2.bias f4 [10]
000000 36 69 af ba 6a 65 d9 bd 82 06 52 3d a4 6f 3a 3e
       -0.0013382796 -0.10615046 0.051275738 0.1820665
000010 5e 53 43 be 83 e7 92 bd 3f dd e4 3d ed 78 ea bc
       -0.19074771 -0.071730636 0.11175012 -0.028622115
000020 fb b0 56 be c5 d7 51 bd
       -0.2096595 -0.051231164

decoder.0.weight f4 [256, 10]
000000 a3 b1 93 3e b2 76 78 bd 7c b0 0b 3d 4e 0a 79 be
       0.28846464 -0.06066007 0.034103855 -0.24320337
000010 de 64 b4 bc c8 81 a9 be 67 34 28 be d1 e4 41 be
       -0.022020753 -0.33106828 -0.1642624 -0.18934943
000020 ef e2 e1 bd 29 8e dc 3d 47 cd 4e be 83 2e 08 3f
       -0.11029612 0.107693024 -0.20195495 0.5319597
000030 de 33 d3 be 11 7d 80 3d 0a 7a 3e bd de 7b a8 be
       -0.4125051 0.062738545 -0.046503104 -0.32907003
000040 be 9a a9 be 73 ae 4d 3e 91 50 96 3e 75 5b 24 bd
       -0.3312587 0.20086078 0.29358342 -0.040126283
000050 6f 34 1c 3d 3d b4 35 be 7b c7 5d 3e 20 3c 61 bb
       0.038135942 -0.17744537 0.21658127 -0.0034368113
000060 44 00 dd bd 0e 72 c4 3e 37 a0 65 be 36 eb 53 be
       -0.10791066 0.38368267 -0.22424398 -0.20695195
000070 47 7a 0c 3e 74 72 87 3d ba 79 ef ba 1b 88 00 be
       0.1371852 0.06613627 -0.001827053 -0.1255192
000080 a7 04 21 be a9 94 c7 be 86 c7 36 bd 11 04 85 be
       -0.15724431 -0.38980606 -0.044623874 -0.25979665
000090 9f f0 5c 3e c6 60 05 bc 4d ce ce bb 70 05 1b 3e
       0.21576165 -0.008140748 -0.006311214 0.15138793
0000a0 ec 5d 20 3d 51 f3 3d be 5c af 8c be 5d 0c 3e be
       0.03915207 -0.18549849 -0.2747754 -0.18559404
0000b0 d0 54 65 be f2 c7 30 be eb db 9c bd 98 58 cd bd
       -0.22395635 -0.17263773 -0.076591335 -0.100266635
0000c0 c3 a4 5c be 74 29 6e 3e c2 f7 3d be ee e1 97 bc
       -0.21547227 0.23258 -0.18551543 -0.018540349
0000d0 6d 44 43 3e a4 e2 3c be 47 cd 77 3e 66 39 2f 3e
       0.19069071 -0.18445832 0.24199401 0.1711174
0000e0 d0 6f 78 3e 34 b0 d9 3d 9f 99 86 3d 7c 8a ff bd
       0.24261403 0.10629311 0.0657227 -0.12477586
0000f0 45 35 b8 3d ee b2 83 3e 94 b2 35 3e 9a dd 36 3e
       0.08994535 0.2572245 0.17743903 0.17857972
000100 1d 16 79 be fc 60 84 3e 5b 7b 16 be b7 96 e1 bd
       -0.24324842 0.25855243 -0.14695494 -0.11015075
000110 a8 cf 6e bd 65 63 20 be df 02 82 bd 67 4c 6e 3e
       -0.058303505 -0.15662916 -0.06348204 0.23271333
000120 bb a4 2f be aa 10 8c be 0b 67 91 3d 10 9a e6 be
       -0.17152683 -0.27356464 0.07099732 -0.45039415
000130 01 dc da 3e fe 74 98 3e cf bb 61 be a0 75 50 3e
       0.42745975 0.29776758 -0.220443 0.2035737
000140 16 51 a3 bd 82 ea 46 3e d7 3a df 3e 8b 5e 5c bd
       -0.0797445 0.19425395 0.4359958 -0.0538011
000150 03 c4 d3 3d f6 2d da be 4f 4f 55 bd 28 c1 02 3e
       0.10340121 -0.4261319 -0.052077588 0.12768996
000160 f8 f2 7f be b8 a0 08 3b cb 01 b5 3d 68 a7 b3 be
       -0.24995029 0.002084775 0.088382326 -0.35088658
000170 12 5e 01 be d8 58 d1 bd a1 b6 d2 bd 38 14 10 3e
       -0.12633541 -0.10222024 -0.1028874 0.14070213
000180 0d 76 93 bd 70 8f 47 3c 29 24 83 bd f3 6c 7c 3e
       -0.07200251 0.012180194 -0.064033814 0.24650936
000190 2c 98 07 3e 2e f4 a9 3d 8b 93 aa be 48 97 81 be
       0.13241643 0.08298527 -0.3331569 -0.2531073
0001a0 a4 6f cc 3e 81 13 47 3e a9 10 b1 be db bb df 3e
       0.39928925 0.19441034 -0.34583023 0.4369801
0001b0 44 d3 11 bd a8 20 f4 3e ca 79 c7 bd 36 b4 03 bd
       -0.03560187 0.47681165 -0.09740026 -0.032154284
0001c0 9d 3b 92 bd 5f 67 52 be 02 bb dd 3c f5 5e 3d be
       -0.071402766 -0.20547245 0.027066711 -0.18493254
0001d0 9f ee 91 bd 1b c9 0f 3e ab 17 39 be 90 f2 6d bd
       -0.071255915 0.1404156 -0.18075435 -0.058092654
0001e0 42 75 98 3e f0 2f 1c be 6c 9d de 3d 2d c7 3f be
       0.2977696 -0.15252662 0.108698696 -0.18728323
0001f0 1d b4 f9 3d 56 ae 6a 3b 43 3c f5 3d cd 5d 02 be
       0.12192557 0.0035809479 0.11974385 -0.12731095
000200 96 e9 02 be 55 4d ef 3c af c3 b2 be 8a 56 b8 3e
       -0.12784418 0.02921168 -0.3491492 0.36003524
000210 2c c5 49 3e 81 0d 2c be 6c d3 9f be 88 e3 55 be
       0.19704121 -0.16802026 -0.3121599 -0.20887578
000220 a3 ac ec bd 28 bf 1f be dc c6 85 3e 04 9e 4a 3e
       -0.11556365 -0.15600264 0.2612828 0.1978684
000230 5a 09 ac 3c 5b 8b 91 bd 42 04 93 be 93 0d 1c be
       0.021000553 -0.07106658 -0.28714186 -0.15239553
000240 00 23 a7 bd 83 3e 1a 3e 47 00 b7 be f3 0d 04 be
       -0.081609726 0.15062909 -0.357424 -0.12895946
000250 16 74 3f 3b 1a 94 a4 be 32 30 62 3e a3 8f 0d 3e
       0.002921348 -0.32144243 0.22088698 0.13824324
000260 c9 29 22 3d 21 78 67 be 8e 5f 44 bd aa ec 88 b9
       0.03959063 -0.2260442 -0.04794269 -0.0002611627
000270 21 b6 4f be fe 7a 7d 3e 84 43 c5 bd 67 46 86 be
       -0.2028432 0.24753949 -0.09632018 -0.26225588
000280 cb 10 d2 bd 4c ae ad be da b1 6c 3b 90 04 47 be
       -0.10257109 -0.3392204 0.003611675 -0.19435334
000290 fb 25 41 bd e3 27 20 be 71 4d 8e 3d 9d a8 0c 3c
       -0.04715536 -0.15640216 0.069483645 0.008585122
0002a0 1c 61 82 be bc 28 1c 3e 6d aa d0 3e 50 5a 90 3a
       -0.25464714 0.15249914 0.40755025 0.0011013243
0002b0 77 51 be 3c 4d 43 58 be fe 76 a3 3e c5 e5 dd 3d
       0.023232205 -0.21119423 0.3192672 0.10834841
0002c0 7c 6e 13 be 4d 59 64 3e d3 6c ec 3e a9 2a 4b 3e
       -0.14397615 0.2229969 0.46176776 0.19840492
0002d0 38 8b 51 3e ea 70 19 bd a6 59 f1 bd da 8b 2e 3d
       0.20463264 -0.0374612 -0.11784677 0.04261384
0002e0 08 1c e9 3e 57 ef d3 bc bb 68 bf be e9 26 e2 3d
       0.455292 -0.025870962 -0.3738459 0.11042578
0002f0 72 eb 5d 3b 61 92 8f 3e 05 d4 8a 3c 86 e3 b0 3e
       0.003386226 0.28041366 0.016946802 0.34548587
000300 f9 d0 07 3e a2 6f dc be 62 c2 08 be 94 17 a7 3d
       0.1326331 -0.4305392 -0.13355401 0.08158794
000310 c5 06 f9 bd 84 9b 43 3e 75 a2 66 3e de 6e 42 be
       -0.12159494 0.19102293 0.2252291 -0.18987605
000320 00 85 be 3b 0c 20 09 3e d4 b8 36 3e 2b 12 ee 3d
       0.0058141947 0.13391131 0.17843944 0.11624559
000330 6e b2 a4 be 6f 16 80 3e 35 88 10 3f cf ed 6d be
       -0.3216738 0.25017115 0.56457835 -0.23235248
000340 04 8e fd 3e a0 87 da 3c 64 70 8b bc 60 ef 3f 3e
       0.49522412 0.026676 -0.017021365 0.18743658
000350 18 52 ce be 45 54 73 bd f6 a1 95 be b6 23 0e be
       -0.40297008 -0.059406538 -0.2922513 -0.1388081
000360 bc 82 33 be 4f 8c 48 3e dc a9 bd be 9e 58 8b 3e
       -0.1753034 0.19584773 -0.37043655 0.27216047
000370 9d 84 05 be c3 f6 a9 3e 0c ff e8 be 4a d0 30 3d
       -0.13038869 0.33196077 -0.45507085 0.04316739
000380 d1 fe 40 3d e8 31 46 3e 6b 11 76 be f3 7f b5 3d
       0.04711801 0.19354975 -0.24030082 0.08862295
000390 d7 a9 d2 3e 5b aa a0 bd 62 3d ac be 46 57 9a 3e
       0.41145203 -0.07844993 -0.3364058 0.3014471
0003a0 99 1b 50 3e 12 f6 66 3e 1d af 33 be ae 51 38 be
       0.20323028 0.22554806 -0.17547269 -0.17999908
0003b0 1c e2 25 3f d9 63 65 3e b3 7e 34 3e 2f d2 3d bd
       0.6479814 0.2240137 0.17626457 -0.046343025
0003c0 98 f5 2d be 46 77 69 3d 17 87 6b 3e 88 0f 87 3d
       -0.16988218 0.056998514 0.23000751 0.06594759
0003d0 23 62 80 be 3a 94 9f be 15 d0 ce 3c fb 70 7f bd
       -0.25074872 -0.31167775 0.025245706 -0.062363606
0003e0 29 33 f3 bd 01 86 3f 3e 18 88 da 3c 1a c5 02 3e
       -0.118749924 0.18703462 0.026676223 0.12770501
0003f0 b5 85 02 3d b3 10 4f be b3 f1 43 3e eb a5 82 bd
       0.031865794 -0.20221214 0.1913517 -0.063793026

decoder.0.bias f4 [256]
000000 08 fa d5 3d 7b ba 29 bf ec 8f a2 3e 4b 0c b4 3e
       0.1044808 -0.6630017 0.3175043 0.3516563
000010 0f 39 95 bb 62 19 4c 3f 75 fc f9 bc fb 37 18 bf
       -0.004553921 0.7972623 -0.030515889 -0.5946042
000020 f1 10 4c 3e d1 1d a3 bd 22 84 5f bf 4e 57 25 3f
       0.19928338 -0.079646714 -0.87310994 0.6458634
000030 96 85 36 be 75 6e 96 3e c7 d8 a9 3d 95 e8 89 be
       -0.17824396 0.29381147 0.082933 -0.26935259
000040 a4 e7 90 bf 45 d8 18 be 58 7a b5 bd c0 c2 0e bf
       -1.1320691 -0.1492625 -0.08861226 -0.55765915
000050 ca 7e cc be a4 7c 5d bf 40 f6 b9 3e c4 1b ad be
       -0.39940482 -0.8651831 0.36320686 -0.33810246
000060 09 33 2f 3e 81 02 9d 3d bb 74 91 be 35 96 60 bf
       0.17109312 0.07666493 -0.2840937 -0.877292
000070 ce 39 b1 bd 29 04 ed 3e c8 6d 4e bf 47 dc 35 be
       -0.086536035 0.46292236 -0.8063626 -0.1775981
000080 b7 28 24 bf 5f 11 49 be 0f 1e 5e 3f db 48 d3 3e
       -0.64124626 -0.19635533 0.86764616 0.41266522
000090 d4 a0 87 3e c6 86 8a bf 69 e2 a6 be f5 13 c4 3e
       0.2648989 -1.082238 -0.32594612 0.38296476
0000a0 5e 9e 04 bf c3 23 b3 3e 8b 15 f7 be 68 32 03 be
       -0.5180415 0.34988222 -0.48258623 -0.12812197
0000b0 36 da a0 3c 2d 25 fa 3e f1 09 e7 bd 70 85 07 be
       0.019635301 0.48856488 -0.11281193 -0.13234496
0000c0 a3 30 06 bf 92 d9 ab be 52 4e 0e bf 20 f7 97 3e
       -0.52417964 -0.3356443 -0.5558826 0.2968073
0000d0 2f cf 19 3e f9 20 c2 3e b5 2f 88 be 8c 9e 74 3e
       0.1502044 0.3791578 -0.26598898 0.23888606
0000e0 57 b1 64 3e 3e 00 89 3e fb 34 36 be 0d 8d 22 bf
       0.22333275 0.26757997 -0.17793648 -0.63496476
0000f0 5c e6 66 be b0 93 a9 be 10 64 d6 be 27 a2 c2 be
       -0.22548813 -0.3312049 -0.41873217 -0.38014337
000100 3e 54 9f be 3a 42 7c be 03 9a 1b 3f 11 a5 5d be
       -0.3111896 -0.24634638 0.6078188 -0.21644999
000110 2e 97 41 3e 8f 77 6a bf fe 24 3b bf f1 fd 3c bd
       0.18905327 -0.9158868 -0.7310332 -0.046140615
000120 65 23 c1 3e 1b 40 64 be 40 41 ea be f1 d8 9c be
       0.37722316 -0.2229008 -0.45752907 -0.30634263
000130 97 63 90 bf 7f 54 90 be fa 97 fc 3e ed 2f 06 bf
       -1.1280392 -0.28189465 0.493347 -0.5241688
000140 0b 70 eb 3f 36 b2 bf 3d 26 b5 7c 3d 92 37 fc 3d
       1.8393568 0.09360163 0.061696194 0.12315287
000150 3e 2e 05 bf 55 c6 b1 3c 7b af 08 3f b4 c9 25 be
       -0.52023685 0.021701017 0.5339276 -0.16190225
000160 1c b6 e1 3e 4c 88 f9 be 20 7e b1 bd 4d 68 c9 3e
       0.4408425 -0.487368 -0.086666346 0.39337388
000170 a2 3e 00 be 1c a8 1d 3f 68 f4 bf be 29 db 04 bf
       -0.12523893 0.6158464 -0.37491155 -0.5189691
000180 ca 1c fc 3d c7 8c 3b 3e 64 07 9a bd 1c 83 23 3f
       0.123101786 0.18315421 -0.07520941 0.6387193
000190 30 ab af 3e 3b 47 23 be 70 91 c1 bd 3e 64 5a be
       0.34310293 -0.15945141 -0.09451568 -0.21327302
0001a0 06 16 0a be a7 e7 30 3e 52 7d ed 3e dc 14 34 bf
       -0.13484964 0.17275868 0.46384674 -0.7034433
0001b0 70 7f e3 bd 8e e6 54 bf 2b 8f 6c bf 88 14 50 be
       -0.11108291 -0.831643 -0.92405957 -0.20320332
0001c0 e0 6a 4b 3f fb 1c 05 3f 5d 78 7c be 3a c0 84 be
       0.79459953 0.51997346 -0.2465529 -0.25927907
0001d0 34 df 21 be 0a 7d 9a 3e ad 54 c2 3c 95 e6 ff 3e
       -0.15807801 0.30173522 0.023722017 0.49980608
0001e0 e8 b6 cf 3d 9e 42 4a 3e c5 92 4c be d8 22 80 bf
       0.101423085 0.19751975 -0.19977863 -1.0010633
0001f0 61 c2 33 be ed 07 75 be ed 5c 55 bc 8e 24 5d 3f
       -0.17554618 -0.23928805 -0.0130226435 0.86383903
000200 ed bf 19 3f 7f 02 bf 3e 20 f6 9a be 42 7e 6b bf
       0.6005848 0.37306592 -0.30265903 -0.9198953
000210 2b 6c 89 3c ec 72 1b bf 69 79 84 3e 0b 0b eb bd
       0.016775211 -0.6072223 0.2587388 -0.11476716
000220 23 71 b6 3e ee 42 41 bf 7e 67 74 be 7e 21 49 bf
       0.3563319 -0.7549275 -0.23867604 -0.7856673
000230 05 39 dd 3e 2d be 02 bf e1 57 e4 be 5a bf cd 3e
       0.43207565 -0.51071435 -0.44598296 0.40185052
000240 70 39 71 3e 2b 8c 71 bf 6f 5c f6 3b 44 01 bb be
       0.23557067 -0.94354504 0.007518343 -0.36524403
000250 e9 4c f5 3e 15 ee ef be 06 a0 ab bd bb 3d 9a be
       0.4791024 -0.4686133 -0.083801314 -0.30125222
000260 7a 3e fd be d8 f4 34 be 85 fe 56 be df d1 81 3d
       -0.49461728 -0.17671525 -0.20995529 0.06338858
000270 14 cc 99 3e 76 83 2a 3f bf cc f2 bc a8 1e b8 3e
       0.30038512 0.66606843 -0.029638646 0.3596089
000280 2b 46 04 be 76 a7 39 bf a1 79 57 be 2c c1 42 bf
       -0.12917392 -0.7252115 -0.21042491 -0.76076007
000290 8d a3 9b 3d cf 78 1c 3d a2 dc 60 bf a1 3c e6 be
       0.07599554 0.03820115 -0.8783666 -0.4496813
0002a0 5f 79 37 bf 0d 20 7a 3e b9 d4 8d 3e 86 bf e0 be
       -0.7166957 0.24426289 0.27701357 -0.4389612
0002b0 44 9e 83 bf 10 dd 4b 3e 00 31 9e 3e 25 8a 8f be
       -1.0282674 0.19908547 0.3089676 -0.28035083
0002c0 af 2c a9 3e 54 1e fe bd 8e 25 d2 be e5 9e 1f 3d
       0.33041903 -0.124081284 -0.41044277 0.038969893
0002d0 89 ec 8e 3e e9 8b 40 bf 5f 10 c3 3e 8e 86 05 3e
       0.27914837 -0.75213486 0.38098428 0.1303961
0002e0 23 2a b4 3e 4b c5 47 bf a6 c7 53 be 0e fb c3 be
       0.35188398 -0.7803542 -0.20681629 -0.38277477
0002f0 4c d5 69 bf ce e1 c4 be 1d bb 12 bf 61 1c 85 3d
       -0.9134109 -0.38453525 -0.5731676 0.064995535
000300 00 d4 12 bf c3 9a f0 bd 57 c0 81 bd 6b db 87 3c
       -0.57354736 -0.117482685 -0.06335514 0.016584119
000310 04 c0 80 bb 2b 69 10 be 2e 57 40 bf ee 30 36 bf
       -0.00392914 -0.14102618 -0.75133026 -0.7116841
000320 7b b6 06 bf 23 f0 cb be ab 1f f9 be fa cd f5 be
       -0.52622193 -0.39831647 -0.48656973 -0.4800871
000330 65 cc 0e 3f b7 36 03 3f 20 04 e6 3d 74 23 0c 3f
       0.5578063 0.51255363 0.112312555 0.547416
000340 a2 9e 4e 3d 3f 4c 70 3e e0 e5 5f bf 65 e1 00 3f
       0.050444253 0.23466586 -0.87460136 0.50343925
000350 6e 92 b2 3e 2e 06 37 bf a4 0c 5d bd 0f 0b 80 bd
       0.34877342 -0.71493804 -0.053967133 -0.06252109
000360 b6 23 83 be 4d ab c8 3e 89 53 fa 3e 42 bb 69 bf
       -0.25613183 0.39193192 0.48891857 -0.9130136
000370 30 cc 97 be 07 5a e9 3e 4c 3c 8b 3d 57 26 37 3e
       -0.2964797 0.45576498 0.0679861 0.17885719
000380 0e 91 e7 3e 0c 13 02 be d5 22 c8 3e 4a ad 53 3d
       0.45227855 -0.12702578 0.39089075 0.051678933
000390 c0 f7 cc 3e f1 95 2f 3b 9f d3 2b be 14 34 4d be
       0.40032768 0.0026792253 -0.16779946 -0.20039397
0003a0 2e d1 3b bd dd ba 11 bf 99 09 cb be cd 27 fa 3e
       -0.045853786 -0.56925756 -0.3965576 0.4885849
0003b0 0a 40 b5 be 92 4d 72 be fd 33 82 3e 0d 59 ea bd
       -0.3540042 -0.23662403 0.2543029 -0.11442766
0003c0 ad 1e 6d bf 09 d9 ba 3e 18 91 53 bf 40 fd 1f 3f
       -0.9262493 0.3649371 -0.8264327 0.62495804
0003d0 1b bf 05 bf 28 9a 79 bf 72 da 93 3c fb e9 1a 3e
       -0.5224473 -0.9750085 0.018048499 0.15128319
0003e0 f3 88 c3 bd 43 66 ab 3c 06 a4 0e be b4 da b4 3e
       -0.09547605 0.020922786 -0.13929757 0.35323107
0003f0 5f 32 27 bf 4f 3d b2 3e c6 2f e1 3e 92 93 14 3c
       -0.65311235 0.348124 0.4398176 0.009068387

decoder.2.weight f4 [96, 256]
000000 4f 5d 39 bd b2 78 0b 3e 97 fc b3 3d 75 be 1b 3e
       -0.045255 0.1362026 0.08788412 0.15209372
000010 13 9f e1 bd 1a 30 24 3d 8d 5f 49 3e d4 98 3d 3d
       -0.11016669 0.040084936 0.19665356 0.046288326
000020 4a ce 84 ba 42 5f 78 3c e9 02 f6 bb cd b5 21 be
       -0.001013228 0.01515943 -0.007507671 -0.15792008
000030 92 cd ad 3c e4 2a 8a 3d 07 e3 ab 3c 3a 8b 08 3e
       0.021216188 0.06746462 0.020982279 0.1333436
000040 73 e9 6d bc ae 10 49 be ce ff 41 3e 0f b6 2c bc
       -0.014520991 -0.19635269 0.18945238 -0.010541453
000050 ca 03 b0 bd fe 77 1d bc 8c 50 aa 37 10 73 a1 3c
       -0.08594473 -0.009611128 2.0303087e-05 0.019708186
000060 4c ab 0e bd 9b 5f d7 3d f2 ac 8a 3e ae 77 8d be
       -0.03483133 0.10516282 0.27085072 -0.2763037
000070 52 3c 86 be 44 8a 7d 3b b8 ef 3c be f0 5f 19 3e
       -0.26217896 0.003868715 -0.1845082 0.14978004
000080 0f db 00 3e 33 c4 ab 3c de d9 cd 3d a4 69 14 3d
       0.12583564 0.020967579 0.100513205 0.03623356
000090 53 f8 60 3e 29 2b 01 be 16 38 1a bd fe 29 d0 bd
       0.21969728 -0.1261412 -0.037651144 -0.101642594
0000a0 93 85 43 3e e7 f5 00 3e e3 74 74 bd b8 32 0f bd
       0.19093923 0.12593804 -0.059681784 -0.03496048
0000b0 2d e7 d2 3c 9a 2c 81 3e 92 c2 89 3c e0 d3 6e 3e
       0.025744999 0.2522934 0.016816411 0.23323011
0000c0 df e2 03 3e fc 4d e8 bd 5e fd 31 3e 9d ca 99 3d
       0.12879513 -0.11342999 0.17381808 0.075093485
0000d0 3b 73 80 be 25 ae 38 3d d5 79 e9 bd e6 0b 4e be
       -0.25087914 0.045087952 -0.11400191 -0.20121726
0000e0 be da 1f 3e ba 86 05 3d cd bd 98 3c 2a 72 41 be
       0.15610787 0.03259919 0.018645192 -0.18891206
0000f0 2a bd 29 be 61 1d 09 3c c0 b4 20 3e 0b 1f 0a be
       -0.16576067 0.008368821 0.1569395 -0.13488404
000100 d0 f7 d6 bd 4e 3f 12 3e da 14 03 3e 77 39 82 bd
       -0.10496485 0.14281961 0.12800923 -0.06358617
000110 fc d0 d3 3d 51 27 22 bd ce 9e 24 be df 8c 3b 3d
       0.10342595 -0.039588276 -0.16076204 0.045788642
000120 0e 94 cb bd 99 62 8f 3d 2c 7b 09 be 37 71 98 bd
       -0.099403486 0.07001228 -0.13425893 -0.07443469
000130 1e 0c 6f bd f4 eb c9 3c ba a3 01 be a4 12 e8 bd
       -0.058361165 0.024648644 -0.12660113 -0.113316804
000140 d5 aa fe bc 40 f9 a0 bd f1 d1 35 3e dd 40 44 bd
       -0.031087318 -0.07860041 0.17755868 -0.04791342
000150 56 46 25 3d 57 20 b9 bd 8d 23 e3 bd ab bd ba 3c
       0.04035028 -0.090393715 -0.11090765 0.022795519
000160 6f 05 c4 3c cd 08 13 be 7d 3a 43 3e 3d e2 32 3d
       0.023928372 -0.14358826 0.1906528 0.04367279
000170 3b 6a 1d 3c 0a aa 1c bd 04 63 ab 39 30 d6 ca bc
       0.009607847 -0.0382481 0.00032689434 -0.024760336
000180 e5 ce ae bd d7 89 5b bd 20 4b 6c be 60 31 f7 bb
       -0.08535556 -0.05359825 -0.23075533 -0.0075437278
000190 3b 44 b0 bc 37 fe 97 3d ad 9e b0 bd b1 43 8b 3d
       -0.02151691 0.074215345 -0.08624015 0.068000205
0001a0 ea 14 fe bd 8a b3 94 bd 0b 8a 97 bd f1 a3 02 3d
       -0.12406333 -0.07260807 -0.073993765 0.031894628
0001b0 73 08 ea bd 45 ff 9a 3c 42 ce 81 bd a7 7e 95 3d
       -0.11427393 0.01892055 -0.06338169 0.07299548
0001c0 27 03 a9 bc fb c5 24 bd 35 f8 35 3e f9 d7 6a 3d
       -0.020631386 -0.04022787 0.17770465 0.057334874
0001d0 c6 e3 17 bd 31 1a 21 3e ed f6 cd bd f0 ce d3 bd
       -0.037082456 0.15732647 -0.10056863 -0.103422046
0001e0 dc f7 38 3e 06 ec 94 bd de 69 5a 3d fe a2 e5 3d
       0.18063301 -0.072715804 0.05332362 0.11212729
0001f0 e4 2a b1 3d b6 86 c3 3d 0b b8 11 be d5 f7 e7 bd
       0.08650759 0.095471784 -0.14230363 -0.11326567
000200 6c a2 de bd 19 cc c6 bd 4f c3 66 bc c2 39 76 3d
       -0.10870823 -0.09706897 -0.014084651 0.060113676
000210 ab 98 02 3e 9d d3 41 3e 78 15 58 3d 85 dc 65 3d
       0.1275355 0.1892838 0.05275485 0.056118507
000220 df ea 30 3d fb b0 95 3d 15 93 01 be 2d 0d 88 bc
       0.04319274 0.07309147 -0.12653764 -0.016607845
000230 65 8a 33 bd c1 2f 18 3d 06 b4 2c 3d 0d 64 59 be
       -0.043833155 0.037154917 0.04216387 -0.21229573
000240 db 8d 61 bb 12 3e 9b bc 78 f9 ba bd 91 47 10 3e
       -0.0034416828 -0.018950496 -0.09129614 0.140898
000250 c4 40 a1 3d 5b 6d d1 be 90 77 f3 bd ff 57 10 be
       0.07873681 -0.40903744 -0.11888039 -0.14096068
000260 51 87 f4 3c b7 de 82 3d 4b 66 83 bc 9a c2 30 3e
       0.02984968 0.06390136 -0.016039988 0.17261735
000270 e1 f2 86 bc 83 73 35 be 08 b0 00 bc 44 2c c4 bc
       -0.016473236 -0.17719845 -0.007854469 -0.023946889
000280 71 4a c5 3d fd 5c 60 3e ed ee ad 3b 24 7b ab 3d
       0.09633339 0.21910472 0.005308023 0.083730966
000290 15 96 2f bd 5d eb a4 3d 9a db 23 be f7 3a 69 bd
       -0.04286774 0.080527045 -0.1600174 -0.056941
0002a0 fa 5e 87 3d 9d 44 26 bd f0 ce 6c bd 45 08 0c 3d
       0.06609912 -0.04059278 -0.05781454 0.034187574
0002b0 30 50 c3 be 55 2d 8d be 13 6a 0a 3d 8e be 94 bd
       -0.38147116 -0.27573648 0.033792567 -0.07262908
0002c0 8b fb c4 3e 94 56 23 3e eb 75 36 3e 5e 3f 78 3e
       0.38473162 0.15950996 0.1781842 0.24242923
0002d0 08 65 12 bd 71 90 b2 3d d5 7d dc bc 39 7f ab 3e
       -0.035740882 0.08718956 -0.02691547 0.334955
0002e0 b1 fd 23 bd 17 a9 5f 3e 79 3d a1 3a b2 e7 9e bb
       -0.04003686 0.21841846 0.0012301645 -0.0048493976
0002f0 86 68 12 3b d8 d6 1b 3d 4e 51 08 3e 6f 09 0f 3d
       0.0022340133 0.038046688 0.13312265 0.034921106
000300 21 fc 51 bc bf 6b 99 bd 30 af 50 be 51 8e ba 3d
       -0.01281646 -0.07491254 -0.20379329 0.09109176
000310 5a 54 e9 3d 4d 8e 17 be 60 a0 ec 3c a3 2d 9c be
       0.11393042 -0.14800377 0.028885067 -0.30503568
000320 2f 51 d0 3d 95 1c 76 3d 30 f8 16 3f d9 f4 ba bc
       0.101717345 0.06008585 0.58972454 -0.02282183
000330 a7 64 b0 bc 68 ee a7 bd f3 aa a9 bd 6a de 64 3d
       -0.02153237 -0.08199769 -0.08284559 0.055876173
000340 65 08 b0 3d 1f a0 26 3d 35 17 b1 bc db e7 1e 3e
       0.08595351 0.040680047 -0.021617511 0.15518133
000350 6c 52 1e be 5e e1 3f 3e d7 21 81 3d 7f 98 60 3e
       -0.15461129 0.18738315 0.063052826 0.21933173
000360 58 67 36 be d1 79 94 be e6 5e b0 3d 26 02 57 3e
       -0.1781286 -0.2899919 0.086118504 0.20996913
000370 ba 11 1f 3e ba aa 3f 3e c2 3e 75 bd 37 4e 01 bb
       0.15534106 0.18717471 -0.059874304 -0.0019730458
000380 2d f8 1f 3c 86 10 d4 bd b3 65 74 3e 81 76 0b be
       0.00976376 -0.10354714 0.2386692 -0.13619424
000390 4e 23 be 3d 22 7c 72 bc e2 28 67 3e 86 9b 08 3d
       0.092840776 -0.014800103 0.2257419 0.033351444
0003a0 85 99 f7 bd 91 d0 67 be 90 89 e4 3e 98 c7 76 3d
       -0.120898284 -0.22638156 0.44636202 0.06024894
0003b0 aa e1 a2 3d 6f 70 b5 3b 0f 04 57 bc f2 63 03 3d
       0.07953198 0.005537085 -0.013123526 0.032077737
0003c0 70 0b 38 be d9 ba 3f be cd 5b 16 be 9b 4f 91 3e
       -0.17973113 -0.1872362 -0.14683457 0.28381047
0003d0 ac 0d c5 3e 14 a6 58 bd a7 0e f3 3c fe 66 fb bd
       0.38486993 -0.05289276 0.029670073 -0.122755036
0003e0 6e 8c 07 be a4 03 3e 3c 49 57 67 3e f4 bb 53 bc
       -0.13237163 0.011597548 0.2259189 -0.0129232295
0003f0 2e 2c 1a be 58 55 b8 bd 8e c7 7f 3d 9c ca 02 be
       -0.15055916 -0.09000653 0.06244617 -0.12772602

decoder.2.bias f4 [96]
000000 c9 21 7b 3d 83 fa 87 be 90 4e 89 3e 78 b1 e6 3d
       0.061311517 -0.26558313 0.2681775 0.11264318
000010 5b 68 bb 3d 22 8c db 3c bf 69 9a 3c db e9 54 bd
       0.091507636 0.026800219 0.018849252 -0.051980834
000020 2c 5a 03 be c8 1e bd 3d b7 dc fc 3c d1 66 22 be
       -0.12827367 0.09234387 0.030866964 -0.15859534
000030 a3 35 8e 3c 4f ae 02 3e 63 77 7b be da 63 ef 3c
       0.01735956 0.12761806 -0.24557261 0.029222418
000040 dc 2b 00 bd fc a4 8a 3d bf ba 44 3e 86 45 74 3e
       -0.031291828 0.067697495 0.19211863 0.23854646
000050 4a 99 04 3c 94 1d 1f 3c 2d 94 0c 3e 3d 55 72 ba
       0.008093188 0.009711642 0.137284 -0.0009244269
000060 89 ea 74 3c 3f e5 0a 3c 61 03 23 be 7d de 84 3e
       0.014948496 0.008477508 -0.15919258 0.25950995
000070 cb 9c 06 3d d6 87 d3 bd a0 bc 64 3e ff c0 4f be
       0.032864373 -0.10328643 0.2233758 -0.20288466
000080 20 9b 17 3c 08 58 fd bd 1f 66 a4 3e 85 b1 24 3e
       0.009253293 -0.12370306 0.32109162 0.16083343
000090 37 ed 7f bd 55 10 17 3d 7e 3c 45 bd 8e 7f 22 3d
       -0.062482085 0.03688081 -0.048153393 0.039672427
0000a0 da 92 e4 be 85 fe dd 3e 84 e0 ac 3d 2b ae 15 be
       -0.4464329 0.43358245 0.084412605 -0.14617221
0000b0 db ea ce 3d 3b a3 ab bc 19 48 dd be 0f 68 14 be
       0.10103389 -0.020951858 -0.4321907 -0.1449282
0000c0 1b 90 5f bd 97 59 43 3e 05 7c b2 3e 4e fe 01 3e
       -0.05458079 0.19077145 0.34860244 0.12694666
0000d0 63 5f 62 bd 47 af 2c 3d 95 d6 c8 3c 31 0a 2f 3e
       -0.05526675 0.042159345 0.024516383 0.17093731
0000e0 18 d7 ad bd 2d 8a 83 bc e1 f0 b2 bd fc 96 fe 3c
       -0.084882915 -0.016057098 -0.0873735 0.031077854
0000f0 af 2b 06 be 69 96 34 be 2f 0c 4e 3d 33 d5 61 be
       -0.13102601 -0.17635502 0.050304588 -0.22053985
000100 0c 18 1f 3e a7 83 e6 bd 46 2e fb 3d 86 56 a7 bd
       0.15536517 -0.112555794 0.12264685 -0.081708
000110 cb 53 70 3d 00 f3 f4 bd cb 70 db bd 23 24 99 3e
       0.05867366 -0.11960411 -0.10714873 0.29910383
000120 f1 96 84 be f5 9a eb 3c 94 b5 d1 3c fe d9 87 bd
       -0.2589641 0.028760413 0.025599279 -0.066333756
000130 3a 7f 1c 3e 8b b6 8f bb 9a 6a 42 bb 11 5d 68 3d
       0.15282908 -0.0043857745 -0.002966559 0.05672938
000140 bc 47 cd 3c 80 ed 7f 3d cb 00 94 3d b8 f5 da 3d
       0.02505862 0.062482357 0.07226714 0.106913984
000150 74 68 cb bd 92 66 bc 3d af 5b 17 3e f4 6c fd 3b
       -0.09932032 0.09199251 0.14781068 0.0077339355
000160 e3 24 48 3e a4 b2 0a be b2 36 53 be 34 7d dc bc
       0.19545321 -0.13544708 -0.20626333 -0.02691517
000170 52 22 8c bd 76 2c 05 bd 43 32 d5 3c 6f 49 6c bd
       -0.068424836 -0.032513104 0.026024943 -0.05768722
